results/energy20/simple_deer.onnx (onnx, 616716 bytes, 13 tensors)

network_body.observation_encoder.processors.0.self_ent_encoder.seq_layers.0.bias f4 [128]
000000 00 00 00 00 00 00 00 00 00 00 00 00 00 00 00 00
       0.0 0.0 0.0 0.0
000010 00 00 00 00 00 00 00 00 00 00 00 00 00 00 00 00
       0.0 0.0 0.0 0.0
000020 00 00 00 00 00 00 00 00 00 00 00 00 00 00 00 00
       0.0 0.0 0.0 0.0
000030 00 00 00 00 00 00 00 00 00 00 00 00 00 00 00 00
       0.0 0.0 0.0 0.0
000040 00 00 00 00 00 00 00 00 00 00 00 00 00 00 00 00
       0.0 0.0 0.0 0.0
000050 00 00 00 00 00 00 00 00 00 00 00 00 00 00 00 00
       0.0 0.0 0.0 0.0
000060 00 00 00 00 00 00 00 00 00 00 00 00 00 00 00 00
       0.0 0.0 0.0 0.0
000070 00 00 00 00 00 00 00 00 00 00 00 00 00 00 00 00
       0.0 0.0 0.0 0.0
000080 00 00 00 00 00 00 00 00 00 00 00 00 00 00 00 00
       0.0 0.0 0.0 0.0
000090 00 00 00 00 00 00 00 00 00 00 00 00 00 00 00 00
       0.0 0.0 0.0 0.0
0000a0 00 00 00 00 00 00 00 00 00 00 00 00 00 00 00 00
       0.0 0.0 0.0 0.0
0000b0 00 00 00 00 00 00 00 00 00 00 00 00 00 00 00 00
       0.0 0.0 0.0 0.0
0000c0 00 00 00 00 00 00 00 00 00 00 00 00 00 00 00 00
       0.0 0.0 0.0 0.0
0000d0 00 00 00 00 00 00 00 00 00 00 00 00 00 00 00 00
       0.0 0.0 0.0 0.0
0000e0 00 00 00 00 00 00 00 00 00 00 00 00 00 00 00 00
       0.0 0.0 0.0 0.0
0000f0 00 00 00 00 00 00 00 00 00 00 00 00 00 00 00 00
       0.0 0.0 0.0 0.0
000100 00 00 00 00 00 00 00 00 00 00 00 00 00 00 00 00
       0.0 0.0 0.0 0.0
000110 00 00 00 00 00 00 00 00 00 00 00 00 00 00 00 00
       0.0 0.0 0.0 0.0
000120 00 00 00 00 00 00 00 00 00 00 00 00 00 00 00 00
       0.0 0.0 0.0 0.0
000130 00 00 00 00 00 00 00 00 00 00 00 00 00 00 00 00
       0.0 0.0 0.0 0.0
000140 00 00 00 00 00 00 00 00 00 00 00 00 00 00 00 00
       0.0 0.0 0.0 0.0
000150 00 00 00 00 00 00 00 00 00 00 00 00 00 00 00 00
       0.0 0.0 0.0 0.0
000160 00 00 00 00 00 00 00 00 00 00 00 00 00 00 00 00
       0.0 0.0 0.0 0.0
000170 00 00 00 00 00 00 00 00 00 00 00 00 00 00 00 00
       0.0 0.0 0.0 0.0
000180 00 00 00 00 00 00 00 00 00 00 00 00 00 00 00 00
       0.0 0.0 0.0 0.0
000190 00 00 00 00 00 00 00 00 00 00 00 00 00 00 00 00
       0.0 0.0 0.0 0.0
0001a0 00 00 00 00 00 00 00 00 00 00 00 00 00 00 00 00
       0.0 0.0 0.0 0.0
0001b0 00 00 00 00 00 00 00 00 00 00 00 00 00 00 00 00
       0.0 0.0 0.0 0.0
0001c0 00 00 00 00 00 00 00 00 00 00 00 00 00 00 00 00
       0.0 0.0 0.0 0.0
0001d0 00 00 00 00 00 00 00 00 00 00 00 00 00 00 00 00
       0.0 0.0 0.0 0.0
0001e0 00 00 00 00 00 00 00 00 00 00 00 00 00 00 00 00
       0.0 0.0 0.0 0.0
0001f0 00 00 00 00 00 00 00 00 00 00 00 00 00 00 00 00
       0.0 0.0 0.0 0.0

network_body.observation_encoder.x_self_encoder.seq_layers.0.weight f4 [128, 120]
000000 bd 65 5e bd f6 72 10 bd 86 f9 6a bd 91 1c f8 3c
       -0.054296244 -0.035265885 -0.05736687 0.030287059
000010 a4 ec 6d bc 07 46 de 3c 71 93 b3 3c b3 69 0a bd
       -0.014521752 0.027133001 0.021920891 -0.03379221
000020 e2 ea ac 3c 7b b4 3a bc 78 03 b0 3d 7e c4 ae 3c
       0.021108095 -0.011395569 0.085944116 0.02133393
000030 25 55 08 bb 61 80 e3 3b 4d 58 92 bd b8 38 2e bd
       -0.0020802703 0.006942794 -0.07145748 -0.04253456
000040 6d 32 09 bd cb 52 19 bd af 90 2c bb 7a 9f 96 bc
       -0.033495355 -0.037432473 -0.0026331355 -0.018386591
000050 8b df ea bc 5a cf e0 3c bc 12 69 3c 31 55 6a 3d
       -0.028671047 0.027442623 0.014225658 0.05721015
000060 10 f0 35 bd 2f 4d 5a bd 14 81 87 3d 39 b7 d3 bc
       -0.044418395 -0.053296264 0.066164166 -0.025844203
000070 a8 d1 82 bc 47 dc bd bc 30 56 0d bd 5a b7 25 bb
       -0.015969113 -0.023176325 -0.034506023 -0.0025286288
000080 5d 14 90 bd 19 86 8b bc fc e7 1d 3d 16 71 fd bb
       -0.07035134 -0.017031716 0.038551316 -0.007734428
000090 50 68 4b 3c f2 98 32 bd 9a 12 29 bd d5 52 52 bb
       0.012415007 -0.04360289 -0.041277505 -0.0032092829
0000a0 19 77 8a 3c ae 54 c5 3c 8a 02 d8 bc 52 b5 0e 3d
       0.016902493 0.02408823 -0.026368398 0.03484089
0000b0 6b 37 fa 3c d7 df 2a 3d d8 17 f1 3a 42 e0 0a bd
       0.030544003 0.041717377 0.0018393947 -0.033905275
0000c0 d3 4a 84 3c 2a 27 70 bc dd c2 f8 3c 8d 52 ba bc
       0.01614896 -0.014657775 0.030366356 -0.022744441
0000d0 e2 0a 15 bd 4e 4b e6 38 f9 7b 85 3c 6c 99 2b bd
       -0.03638733 0.00010981281 0.016294466 -0.04189436
0000e0 a0 5b f8 3c cc a5 a4 3c 25 d1 44 bd 00 15 23 bd
       0.030317128 0.02009859 -0.04805102 -0.03981495
0000f0 00 05 75 bc 67 ed 28 bc e3 dd 9c 3a 6b 8d 9e 3c
       -0.014954805 -0.010310507 0.0011967983 0.019354543
000100 8f 33 70 3b 72 fe 0e 3d e2 bd 02 3d 22 0a b5 3b
       0.0036651825 0.034910627 0.031919368 0.0055248896
000110 dd 24 1a 3d ab a8 47 3d dd 2c 09 3d 8c a8 96 bc
       0.03763281 0.04874484 0.03349005 -0.018390916
000120 ee 41 5d 3b f0 2f 8e 3c 82 64 da bc 8e 6f b8 3c
       0.003376122 0.017356843 -0.026659254 0.02251413
000130 bb 96 25 ba a2 db 72 bc f3 64 a9 3c ae 7d 1c bd
       -0.0006316711 -0.014822872 0.02067802 -0.038205795
000140 60 7b 8f 3c a0 8d ca 3b 3a b8 c6 3c 94 9a 87 bc
       0.017514884 0.006181434 0.024257768 -0.0165532
000150 5f 10 de 3d 14 91 83 3c 5e 8b 21 bc c2 0e 79 3c
       0.10842966 0.01606039 -0.009859888 0.015201272
000160 4f c9 7f 3c bb 4f e2 bb 0e 7c 08 bd 04 21 dd 3b
       0.015611961 -0.0069064773 -0.033321433 0.0067483205
000170 72 68 af bc b1 e2 12 3d e5 2d 0c 3d c3 71 81 ba
       -0.021412108 0.03586072 0.034223456 -0.0009875823
000180 7e ac cd 3c 10 1e 68 bc 14 54 59 bc 11 37 1f 3d
       0.025106665 -0.014167324 -0.013264675 0.038870875
000190 e8 10 5d 3d d2 91 24 bd 11 96 6a bd 9e e3 dc bc
       0.0539712 -0.040178128 -0.05727202 -0.026964005
0001a0 4a 61 2e 3d 16 1d 27 bc 51 c1 60 3b 6c d3 15 3c
       0.04257325 -0.010199806 0.0034294913 0.009144645
0001b0 dd 0a 1c 3d 5d 00 6d 3c 23 52 cf 3c f0 07 a8 bc
       0.038096298 0.014465419 0.02530772 -0.020511597
0001c0 81 e5 05 bc 80 ea 66 bc a1 2b 6a 3c 41 fd 9f bc
       -0.008172394 -0.014093995 0.0142926285 -0.01952994
0001d0 f5 1b 57 3d 89 ec 1a bd c7 ef 20 bd c5 9a 08 bd
       0.052516896 -0.037823234 -0.03929117 -0.033350725
0001e0 e3 e0 a3 3c 1d e6 a9 bc d5 ae ae 3c e7 99 b1 bb
       0.020004695 -0.02073961 0.0213236 -0.005419958
0001f0 bd 09 7a bd b5 11 0e bc f6 b2 98 3a de f9 2b bd
       -0.061044443 -0.008671214 0.0011650014 -0.04198634
000200 cf bf 01 3d d1 0b 1b bd d7 8f 6c 3c 96 c0 00 bb
       0.031677064 -0.037853066 0.014438591 -0.001964604
000210 a3 ca 1c 3d 5e c2 76 bc ac 95 78 bb f4 f5 0f bd
       0.038279187 -0.015060989 -0.0037931008 -0.03514667
000220 ed 74 10 3d 61 08 b8 bc 3d 38 41 3c 05 05 76 bd
       0.03526776 -0.022464933 0.011793193 -0.06006338
000230 2b a0 a6 3c 22 a0 25 bc e0 57 06 bd d3 af 34 3d
       0.020340046 -0.010108979 -0.032798648 0.04411299
000240 91 f6 46 3b ad c7 2b 3c b5 3b 43 bc eb 5b ad bc
       0.0030359367 0.010484618 -0.011916091 -0.021161994
000250 9c 13 8b 3c 4c 82 46 bd 64 8c 13 bd 22 62 8d bb
       0.016977124 -0.048464105 -0.03602256 -0.004314677
000260 32 cc ab 3b 36 84 64 bc 20 b6 3d bb 1b d2 df 3a
       0.005242848 -0.013947537 -0.0028947666 0.0017076166
000270 2b fa 61 3d 6c 71 75 bc e3 44 bb bc 83 5e f7 bc
       0.05517022 -0.014980655 -0.022859996 -0.030196434
000280 05 25 eb 3c c1 69 56 3b 9a 43 c6 bc c8 ce e7 bc
       0.028704176 0.0032716843 -0.024202157 -0.028296843
000290 67 e6 5a bd af dd a8 3d 60 db f9 bc e7 1e 2c 3d
       -0.053442385 0.08245408 -0.030500114 0.04202166
0002a0 46 2a 0f bc b8 d6 72 bd 88 ec 96 bc b0 32 87 3c
       -0.008738106 -0.059286803 -0.018423334 0.016503662
0002b0 f9 e8 37 bc 7c 54 fa bc 8e 32 37 bc c4 34 5c bc
       -0.011224979 -0.030557863 -0.011181487 -0.013440315
0002c0 48 23 44 bd 6c d4 ba ba 0b 06 c8 bb 4b cd e2 3c
       -0.04788521 -0.001425398 -0.006104236 0.027685782
0002d0 18 c5 3e bc 01 07 03 3d d7 01 d7 3c 43 e9 ce bc
       -0.0116436705 0.0319891 0.026245994 -0.025257712
0002e0 bf f4 23 3d a3 ed 4b 3b 4e 84 f9 3c 20 fe 4b 3d
       0.04002833 0.0031116984 0.030458596 0.0498029
0002f0 f4 ac 1d 3d 36 44 37 bc ff 4a 03 3d fb ee 61 bb
       0.03849502 -0.011185696 0.032053944 -0.003447472
000300 8b db e2 bc a9 c3 89 3c cf 88 1a bc ae c7 b6 bc
       -0.027692577 0.01681693 -0.009432032 -0.022312012
000310 bf cd 2e bd d6 20 d8 3b 6b b6 f1 3b 4a 78 0b bd
       -0.042676684 0.006595711 0.0073764822 -0.034050263
000320 ce b9 57 bd 52 72 e1 3b 92 6e ce bc e8 d6 05 bc
       -0.05266743 0.006880083 -0.025199208 -0.008168913
000330 96 8e fe 3c 81 ac 51 bc d9 c7 4a 3c 72 f4 47 bd
       0.03107385 -0.012797476 0.012376749 -0.048817106
000340 36 00 9c bd 26 09 f9 38 1f 34 13 3d 7f 5f 16 3d
       -0.07617228 0.00011874949 0.03593838 0.036712166
000350 4b 4a 77 bc b0 b6 0b bd 25 35 21 3d 07 ef 8f bb
       -0.015093396 -0.03410977 0.039357323 -0.004392508
000360 ee 3d 94 3c 05 fa 14 bd 06 ab 94 bd 30 ed 27 3d
       0.018095937 -0.03637125 -0.07259183 0.040997684
000370 bc 7e c9 bc a7 21 d5 bb ce 33 51 3d 58 1f d0 3c
       -0.024596564 -0.006504256 0.051074795 0.02540557
000380 1d 28 08 bd 5d 44 25 bc 78 f5 a6 3b cb e4 6b bd
       -0.03324138 -0.0100871 0.00509518 -0.05759124
000390 15 c1 c1 3b 3d b0 ad 3c 35 1d b7 3c 03 cf 38 bd
       0.0059129097 0.021202201 0.022352794 -0.045119297
0003a0 41 ce cb bb 7c e4 c6 bb dc 9a 91 bc f4 a4 3e bb
       -0.0062196557 -0.006069718 -0.017774038 -0.002909002
0003b0 6f e7 4a bd 18 6b 05 bc 10 4e 44 bc f6 c1 ea 3b
       -0.04953712 -0.008143209 -0.011981502 0.007164235
0003c0 b6 cf ed 3a de cc ec bc bc 81 cc bc fe 4e 2c bd
       0.0018143568 -0.028906282 -0.024964206 -0.04206752
0003d0 49 23 80 bc 89 74 82 bc 2b 44 4a bc 6a da aa ba
       -0.015641825 -0.015924709 -0.012345354 -0.0013035063
0003e0 a0 45 23 3d 15 bd 73 bc a9 bd ed bc 15 1c 7c 3c
       0.03986132 -0.014876624 -0.029021101 0.015387555
0003f0 54 64 04 bd 6a 44 b3 bc de e3 ce bc 5f 5a 28 bd
       -0.032322243 -0.021883208 -0.02525514 -0.04110181

network_body._body_endoder.seq_layers.0.weight f4 [128, 248]
000000 14 55 b3 bc 07 32 0f bd 13 58 e6 3c 7c 30 0c 3d
       -0.021891154 -0.03495982 0.028118169 0.034225926
000010 97 8c d1 3d d0 4f bf ba 79 dd a4 bc 39 6f 9e 3b
       0.102318935 -0.001459593 -0.020125138 0.004835036
000020 8a 66 a8 3d 9b 4f 0e bd d4 f7 bd 3c cb 4b 31 bb
       0.08222683 -0.034743886 0.023189463 -0.0027053233
000030 76 bd 5e bd 46 49 e6 bc b9 ee 51 3d 42 fa ab 3b
       -0.054379903 -0.028111111 0.051253054 0.005248339
000040 d0 be 2f 3d 60 2f 9c bb 6b 1b e4 3c c5 f5 07 3d
       0.042906582 -0.0047663897 0.027845105 0.03319337
000050 2f 50 8d bc 21 8e 5e bd f0 e3 1a bc 2a 16 9d bd
       -0.017250149 -0.054334763 -0.009453759 -0.07670243
000060 c4 02 4f bd d7 c8 bc bd bf 21 d7 bc 9a d0 de 3d
       -0.050539747 -0.09217995 -0.026261209 0.10879631
000070 29 72 ad bc 27 83 77 3c ab 28 86 3d 9d be fa bb
       -0.0211726 0.015106953 0.065507255 -0.0076521174
000080 c1 d7 09 bd 13 bd 90 3d 67 4c 94 3c 6e dd 1f bc
       -0.033653025 0.07067313 0.018102838 -0.009757383
000090 8b 34 4a 3d 76 b5 6a bd c4 72 2b 3d 3e c2 71 bd
       0.049366515 -0.05730196 0.041857496 -0.059023134
0000a0 fa 37 a5 bd 69 aa 39 3b e4 6e 94 bd d3 52 dd b9
       -0.08067317 0.0028330332 -0.07247713 -0.00042214114
0000b0 68 05 67 3c aa 86 b9 3d 25 3b 2e 3d 83 06 93 bd
       0.01410041 0.09058888 0.042536873 -0.071789764
0000c0 2f 7c 72 3c 8a 2b 2c 3e 79 b7 4c bd d4 b3 3f bc
       0.0148001155 0.16813484 -0.04997966 -0.011700589
0000d0 ff f3 0c 3d 72 0f 25 bd 7a b5 ed bd fc b8 01 be
       0.03441238 -0.040297933 -0.116068795 -0.12668222
0000e0 40 2e 2c 3c 75 ca cf 3d a1 b4 93 bd 63 6a 0a 3d
       0.010509074 0.101460375 -0.072121866 0.033792865
0000f0 5e 61 a5 bc de 23 88 3c a1 63 91 3d 77 25 12 bc
       -0.02018803 0.016618665 0.07099081 -0.008920065
000100 4b 14 31 3d 1b fa ef 3b 28 c5 e1 3d 02 c9 7d 3c
       0.043232244 0.007323516 0.11023933 0.0154898185
000110 d6 a7 b7 bd 1b 6f 5c bd e2 d9 8f bc c5 8e 8f bc
       -0.08967559 -0.053816896 -0.01755995 -0.017524133
000120 62 53 fc 3c 61 f7 4e 3c c4 aa be 3d 84 34 d4 3d
       0.030801479 0.012632222 0.09309915 0.10361579
000130 2f 21 92 3d 75 ad 87 3a 79 27 f5 3c 71 10 16 bd
       0.071352355 0.0010351377 0.029926049 -0.036636773
000140 31 91 bb bc e2 5d bb 3c db 36 0e bd 61 ba 37 3d
       -0.022896381 0.022871915 -0.034720283 0.04485548
000150 5c 9d d8 bd 25 a2 6b bd 82 89 6f 3c 65 a3 c3 bd
       -0.10576889 -0.05752768 0.014620187 -0.095526494
000160 79 3c 95 3c 93 cd 9b 3d c8 56 4e bd b4 c2 e3 3c
       0.018217312 0.076075695 -0.05037573 0.027802803
000170 3d 43 21 bd 8e bb d9 3d 93 e8 c4 bc 51 c7 3e 3d
       -0.039370764 0.10631476 -0.024036681 0.0465768
000180 8b 84 f2 39 eb 46 6d 3d cf f7 03 3e e1 df c1 3c
       0.0004625659 0.05792896 0.128875 0.023666324
000190 df 1e 05 3d dc 0c 09 ba 29 a0 37 3d 17 64 7c 3c
       0.032500144 -0.00052280515 0.044830475 0.015404723
0001a0 18 e6 97 bd c0 9c b2 bc c0 86 01 be f7 ed 3c 3d
       -0.07416934 -0.02180326 -0.1264906 0.04612538
0001b0 ac 07 c8 3d eb 7c 04 3c 51 7c 8c bd c0 68 05 3e
       0.09767088 0.008086423 -0.06859649 0.1302824
0001c0 49 48 70 3d ec c1 a4 3d bd 33 a5 3c 0a 80 18 be
       0.058662686 0.080448 0.020166272 -0.14892593
0001d0 60 ea 32 bd 78 52 6b 3d eb ba 4f bd 53 59 1b bc
       -0.04368055 0.057451695 -0.05071537 -0.009481746
0001e0 3e bd f4 3c 15 4c 68 bd 1e e2 90 bc a1 de b9 3c
       0.029875394 -0.056713182 -0.017685946 0.022689166
0001f0 0f 21 db bc fb f2 88 39 fe d0 90 3c 32 33 2b 3c
       -0.026749162 0.00026120976 0.01767778 0.010449218
000200 62 16 cf bd 6f 10 88 3d dd 0c 35 bd bc db a4 3d
       -0.10111691 0.066437595 -0.04420172 0.080497235
000210 93 50 53 bd b5 d5 0b be 89 35 71 bc 4e b4 16 3d
       -0.051590513 -0.13655742 -0.014722236 0.036793046
000220 50 d3 79 3d 95 97 18 bc f6 9a 5a bc 1e 2e 11 bc
       0.06099254 -0.009313484 -0.01334261 -0.008861093
000230 1f f6 8d 3b 8a ca fe 38 ae 3e 88 bd a4 43 a2 bd
       0.0043323184 0.0001214939 -0.0665258 -0.07923058
000240 81 3a 90 bd 51 18 73 3c 4d 4b ad 3c bc 72 1c bd
       -0.07042409 0.01483734 0.02115407 -0.038195357
000250 d9 7b bd bc ec 34 0b 3d 51 1a 3f 3d a1 72 24 3d
       -0.023130344 0.033986017 0.046655957 0.04014838
000260 82 72 3a bd 5d f9 89 3d f5 3d 12 3d 53 09 00 be
       -0.04551936 0.067370154 0.035703618 -0.12503557
000270 b4 44 80 bb b6 f5 d2 bc 2b 9d 9c bd f7 fb a7 bc
       -0.00391444 -0.02575193 -0.07647165 -0.020505888
000280 30 e9 7d bc 8b c2 7a 3b 23 f8 8a 3c f7 bf 65 3d
       -0.015497491 0.003826293 0.016964024 0.056091275
000290 25 c7 9b 3d 7a a9 7f bd db d5 4f 3e 1a fd 09 3d
       0.07606343 -0.062417485 0.20296423 0.033688642
0002a0 5b c7 cf 3d b8 96 57 3d 4c 02 87 3d b1 26 a8 bd
       0.10145446 0.05263397 0.06592235 -0.08210505
0002b0 52 53 db 3d 98 0b 4b bd d8 c3 89 3d a2 15 40 3d
       0.107092515 -0.049571604 0.06726807 0.04689563
0002c0 a2 8f 01 3d 26 97 c8 bc 00 02 25 bd f9 f1 f5 3c
       0.03163112 -0.024486136 -0.04028511 0.030022608
0002d0 e4 c3 9a bd 41 a5 78 bd 35 62 a2 3d 76 88 63 3d
       -0.075568944 -0.060704473 0.07928888 0.05555006
0002e0 dd 80 89 3d 77 ac a7 3d 16 f3 9a bc ff d3 f8 bc
       0.06714032 0.08187192 -0.01891474 -0.030374525
0002f0 df 94 c8 bb 52 dc 2f 3d ff f8 90 bd 59 52 ca bc
       -0.0061212624 0.042934723 -0.07078742 -0.02469747
000300 41 44 d8 3d ce b1 0a 3d 65 db eb 3c 84 e3 05 3e
       0.105598934 0.033860974 0.028791139 0.13075072
000310 89 40 05 ba f5 ac 96 bc e4 4a e6 3c e0 8c 94 bd
       -0.0005083164 -0.01839302 0.028111883 -0.07253432
000320 2a f6 0d be ee b7 14 bd 5c cc c7 3d 62 cd aa 3d
       -0.13863435 -0.03630822 0.09755775 0.08339955
000330 d6 64 e8 3d b5 68 23 3d 74 d9 4d 3d b9 6b f8 3d
       0.11347358 0.03989478 0.050256208 0.121299215
000340 76 d2 28 3c 98 da 0e 3e 07 73 42 3d 06 ae 15 bd
       0.010304084 0.13950574 0.04747298 -0.036542915
000350 5c f2 eb 3d f9 1b 13 3d db 57 e9 3c f1 af 39 bd
       0.11520836 0.03591535 0.028484276 -0.045333806
000360 67 b5 32 bc 7b 3b 9b 3d 26 de 76 bd 7b a3 9d 3d
       -0.0109075075 0.075797044 -0.06027045 0.07697197
000370 89 ed 0b bd f1 52 6d 3d 7e 86 e7 bd 99 d5 fd 3b
       -0.034162078 0.057940427 -0.11304949 0.00774641
000380 8d 05 b1 3d 34 c5 27 3d e2 dc b3 bd 08 a1 11 3d
       0.08643637 0.040959552 -0.087823644 0.035553962
000390 e3 17 d7 bc 4f 89 8e 3d 1e 9a ee 3d cb 3a 4b 3d
       -0.026256507 0.06959783 0.11650489 0.049616616
0003a0 38 ca c2 bc a5 55 f0 3d c4 20 1b be 6d b9 90 bd
       -0.023778066 0.117350854 -0.15149218 -0.07066617
0003b0 6d 97 bd bb eb 7e a6 bc fe af 00 3d 82 04 79 3d
       -0.0057858736 -0.020324191 0.03141784 0.060795315
0003c0 9e 38 22 3d 8c 7f a4 3d d3 92 1e 3e 84 13 e7 bc
       0.039604776 0.0803214 0.15485696 -0.028207548
0003d0 47 70 c5 3b 03 aa 01 3d 4d 21 cf 3d 76 15 ed bc
       0.0060253474 0.031656276 0.101137735 -0.028940897
0003e0 e9 90 bc bd 1d a9 2f 3e be 49 82 bc 60 f2 a3 3d
       -0.09207327 0.17154355 -0.015904304 0.08005214
0003f0 29 d7 b0 3c d1 cb 10 3d 87 4e 88 3d 09 b9 64 bd
       0.021586971 0.035350624 0.06655603 -0.055840526

network_body._body_endoder.seq_layers.0.bias f4 [128]
000000 6b 2e 00 ba 05 4d 28 3b 33 fa 7f bb e6 89 ae bb
       -0.00048897293 0.0025680673 -0.0039059042 -0.0053264974
000010 6a c3 a4 ba dc 2a 6f b9 37 29 74 3b 2e 35 c7 3a
       -0.0012570445 -0.00022808783 0.0037256011 0.0015198344
000020 a3 e3 18 ba 99 87 99 ba a7 9d cb ba 2b ce 5b 3b
       -0.00058322604 -0.0011713385 -0.0015534655 0.0033539634
000030 3e 9c 93 38 d5 f7 2b bb e9 a4 73 3b e9 e2 eb ba
       7.0386086e-05 -0.0026240249 0.0037177152 -0.0017996702
000040 86 be 98 3a 0b 7e b3 ba 8e 20 26 bb 46 1f 0e b9
       0.001165346 -0.001369418 -0.0025348994 -0.00013553826
000050 fb d9 8a 3a 9b 07 0d 3b 38 b1 0d 3a 83 cc 3a bb
       0.0010593528 0.0021519426 0.0005405131 -0.0028503246
000060 4f 11 38 3b e9 8a 56 3b 8e 08 03 3b cc 0e bc 3a
       0.0028086489 0.0032736605 0.0019994113 0.0014347672
000070 23 90 4b bb f0 85 15 bb ca ab 9b bb b1 ba 0b bb
       -0.0031061254 -0.0022815429 -0.0047507035 -0.0021320994
000080 a7 38 1d 3b 87 96 e6 ba 35 e5 05 3b ab ac c6 bb
       0.0023990066 -0.0017592468 0.0020430807 -0.006063064
000090 1c dd a1 3a 65 3b b1 ba 10 5d 16 bb 2a cb 8f b9
       0.0012349221 -0.0013521729 -0.0022943653 -0.00027426454
0000a0 7b 6d 92 ba 74 f3 07 3b 45 3e 2e 3b 1b ce 49 bb
       -0.0011171544 0.0020744475 0.0026587409 -0.0030793014
0000b0 26 5d e9 b9 49 3f 21 ba 06 2e 91 ba c8 eb 00 3a
       -0.00044510624 -0.0006151093 -0.0011076338 0.00049179466
0000c0 fa d8 ac bb 2b 8f c4 ba ae 25 0a 3b 69 92 50 3b
       -0.005274889 -0.0014996281 0.0021079588 0.0031825549
0000d0 84 28 d3 b9 d4 05 75 3a cb 9e 5c ba d1 a2 e6 3a
       -0.00040275243 0.0009346877 -0.0008415996 0.001759613
0000e0 5f a8 83 bb b8 fc 7d 3a d0 74 39 ba 63 1a 51 3b
       -0.004017874 0.0009688842 -0.00070745964 0.0031906597
0000f0 5c 70 cf 3a 7f 71 d3 3b e6 6f ee b9 6b 64 29 3a
       0.0015826332 0.006452739 -0.00045478268 0.0006461802
000100 29 5b 28 3b c5 bd a1 b9 eb 9e 6b bb ce 50 a8 39
       0.0025689101 -0.00030849702 -0.0035952877 0.0003210366
000110 38 fa 10 bb 35 5c bf ba 89 3c 17 bb 82 47 d6 ba
       -0.0022121798 -0.0014599623 -0.0023076853 -0.0016348215
000120 cd 84 08 ba 4b 9e c4 bb 95 87 65 3a 18 89 82 3b
       -0.0005207777 -0.0060003153 0.000875586 0.003983628
000130 0f 54 29 b9 c6 49 43 3a 35 ac c6 38 fd 72 83 3a
       -0.0001614841 0.0007449653 9.473452e-05 0.0010028776
000140 21 e6 93 ba 1a e4 8e bb fd f7 d5 3a f5 b1 8b bb
       -0.0011283794 -0.004360688 0.0016324517 -0.0042631575
000150 99 58 19 ba dd 29 7c bb 61 d7 e9 ba c3 a2 b3 bb
       -0.0005849689 -0.00384771 -0.0017840677 -0.005482049
000160 27 b8 54 3b 1e ff 67 bb 45 a0 39 bb 9b 78 21 bb
       0.0032458396 -0.0035399864 -0.0028324288 -0.0024638537
000170 fa 48 8a ba 20 4b b8 39 58 e3 54 3b da b0 23 bb
       -0.0010550313 0.00035151187 0.003248414 -0.0024977238
000180 7e 1b 3b ba fd 3c f0 ba 0a 60 01 3b 67 f4 c9 3a
       -0.00071375805 -0.0018328723 0.0019741082 0.0015407921
000190 18 a5 6a 3b 37 06 ee b9 53 a5 39 bb ed cc a2 39
       0.003580397 -0.00045399528 -0.00283273 0.0003105173
0001a0 3f 00 59 3b ee e7 0e 3b e8 c0 c0 3a de 85 48 bb
       0.003311172 0.0021805721 0.0014705928 -0.003059737
0001b0 fe a4 8b bb 8c 4a 06 bb 62 aa 09 bb 40 6a c6 3a
       -0.004261612 -0.002049121 -0.0021006097 0.0015137866
0001c0 f5 81 a6 ba e9 43 28 bb ab 72 73 ba 01 39 96 bb
       -0.0012703525 -0.0025675243 -0.0009286801 -0.004584432
0001d0 e9 ed 5f b9 af 3b 5a 3b 14 4e b6 bb dc 03 a0 ba
       -0.00021355566 0.0033299734 -0.005563507 -0.0012208181
0001e0 ea 3f 71 3a 47 37 36 bb 30 bc d3 3a 74 52 41 bb
       0.00092029443 -0.0027803944 0.0016154107 -0.0029498609
0001f0 fd f8 e1 3a 13 d8 b3 3b 8b 6d 75 37 cb 38 43 3b
       0.0017240342 0.0054884045 1.4628643e-05 0.002978849

network_body._body_endoder.seq_layers.2.weight f4 [128, 128]
000000 fa 4d 23 be a2 3e 06 be 16 66 38 3d dd d4 8a bd
       -0.15947714 -0.1310983 0.04501923 -0.06778882
000010 b9 e2 2b 3d b4 19 1b 3d a3 ed 1b bd 0c 5b 04 3d
       0.041964266 0.03786631 -0.038068425 0.03231339
000020 57 58 39 3d 60 28 8a 3c 8b c1 93 3c 41 8a 1d be
       0.045250263 0.016864955 0.018036624 -0.15384771
000030 66 41 f4 3c 6e 93 15 3d a6 f4 e5 3d e0 ec a6 3d
       0.02981634 0.036517553 0.112283036 0.08150649
000040 57 e5 e4 bd a4 63 ba 3c 45 4f 31 3d 05 cb 88 3c
       -0.111765556 0.02275259 0.043288488 0.01669837
000050 8e 0f b1 3d 8a 7a 66 3d 11 63 38 3b f9 b1 f7 3d
       0.08645545 0.056269206 0.002813522 0.120944925
000060 da 39 14 bd 46 28 9c 3d a7 46 43 bd 96 07 3f bd
       -0.036187984 0.07624869 -0.0476748 -0.046638094
000070 98 29 e2 bc ae b1 42 3e 9d ff 62 3d 85 15 61 bd
       -0.027607724 0.19013092 0.055419553 -0.054952163
000080 ad 41 1f 3d b6 6c 0c be 18 08 be 3d d2 7b 18 bc
       0.038880993 -0.13713345 0.092788875 -0.009306865
000090 24 df 34 3c 2b 25 3d bd 0d 7e 3b 3d d5 da 64 bd
       0.011039529 -0.046178024 0.04577451 -0.055872757
0000a0 ca bd 86 bd ec 65 ac 3c 67 f0 03 be 78 16 b4 3d
       -0.06579168 0.021044694 -0.12884675 0.08793348
0000b0 dd 75 d0 bd ba 0c b3 bd 74 bf 80 3d 37 0b 5b bc
       -0.10178731 -0.08742662 0.06286517 -0.013369373
0000c0 fe bf 8c bd fb 16 b0 3b b4 55 71 3d 76 a5 ac 3d
       -0.06872557 0.0053738332 0.058919623 0.08429997
0000d0 35 2a 31 bd 82 18 c2 3d ff 7b 12 be 49 9f 22 bc
       -0.043253142 0.09477331 -0.14305113 -0.009925672
0000e0 c9 ce 38 39 67 26 26 be 00 b5 b4 3c c7 ac 70 3d
       0.00017624641 -0.16225587 0.022058964 0.058758523
0000f0 ca 8a 57 3e bb 68 43 3d b9 34 75 bd de c8 94 3d
       0.21049038 0.0477073 -0.059864733 0.07264875
000100 aa 1b aa 3b d1 0e 29 3c d2 12 46 3d b6 88 85 bd
       0.005191286 0.010318474 0.048357792 -0.06520216
000110 91 fb bb 3d 94 b6 28 3e 24 69 53 bd d0 fe fb 3b
       0.09178842 0.16475898 -0.05161394 0.007690288
000120 fb 41 da bc 4a 4b e9 3d 21 8d 85 3d 1b 5d 85 bd
       -0.02664279 0.113913134 0.06521059 -0.06511899
000130 0e bc 15 bd 1c e7 06 3e 1d 8f 8e 3b 1a 7d a7 3d
       -0.036556296 0.13174099 0.0043505565 0.08178158
000140 2c f8 59 3d dc 11 0c bd 21 a5 1e 3d cd 74 18 3e
       0.05321519 -0.03419672 0.038731698 0.14888306
000150 6c 99 24 3a 89 2a 1f 3d ca 9f 44 3d d5 d3 0f bd
       0.0006278965 0.038858924 0.04800395 -0.03511413
000160 04 1a 21 be 81 a0 a7 bd 0a 9f 48 bd 44 df 49 bd
       -0.1573258 -0.081849106 -0.048979796 -0.04928519
000170 3f a7 b6 3d 54 21 9c bd 88 a4 11 bd 91 1c 55 3d
       0.089186184 -0.07623544 -0.0355573 0.052029196
000180 d5 df de 3c 5b 26 e5 bd 77 16 53 3c 27 0a cc bc
       0.02720634 -0.11188956 0.012883774 -0.024907185
000190 24 5d 3e 3d 32 52 2b 3d a8 92 2e bd 9b dd 9b bc
       0.046475545 0.041826434 -0.04262033 -0.019026568
0001a0 b0 5a 48 3e c7 2d 98 3c 03 79 11 be 3f 58 16 3e
       0.19565845 0.018576516 -0.14206319 0.146821
0001b0 46 58 90 bd 3b 23 13 3d 6b b6 05 bb e8 b9 14 bc
       -0.07048087 0.03592227 -0.002040292 -0.009077527
0001c0 e8 48 0a 3d 68 04 35 3b 99 21 b7 bd f9 82 55 3c
       0.033760935 0.0027621035 -0.08941955 0.013031715
0001d0 52 ba 0a bd a3 a2 de bd 4f 7f 89 bd 31 92 61 3d
       -0.033869095 -0.10870864 -0.06713735 0.05507106
0001e0 8f 78 9f 3d 48 53 8e 3d e0 0a d8 bd 33 9e 2e 3d
       0.077866666 0.069494784 -0.10548949 0.04263134
0001f0 2d e0 cd bd 0f 7f 03 3c f2 64 ab bd e8 8d e7 3d
       -0.10052524 0.008025899 -0.08368863 0.11306363
000200 88 45 fd bd 08 33 f4 ba de 6d f1 3d df 6f b1 3c
       -0.12366778 -0.0018630931 0.11788534 0.02165979
000210 95 19 e2 bc 36 f6 35 3c a9 d3 56 3d 61 ad 43 3d
       -0.02760009 0.011106065 0.05244795 0.04777277
000220 56 57 11 be cc ee a4 bd 64 88 16 bc 5d b6 b0 3b
       -0.14193472 -0.080533594 -0.0091877915 0.005392833
000230 c2 c9 c2 3d 52 ab f4 3d 49 99 1d 3e 2b aa a2 3d
       0.095111385 0.11946739 0.15390505 0.07942613
000240 17 08 97 3d f0 02 32 3e 1a 48 f4 bc 8c 98 aa bd
       0.0737459 0.17383933 -0.029819537 -0.08329877
000250 f5 28 c4 3c da 27 d2 bd 04 2d 8e bb b7 84 21 3d
       0.023945311 -0.10261507 -0.0043388624 0.039433207
000260 52 0a 3f bc 9b 63 bd 3d 10 1e e5 bd b8 d3 46 bd
       -0.011660175 0.09247514 -0.111873746 -0.048541754
000270 1b 94 99 bd 5a 3a 27 bd 1c 59 86 3c f9 6b 3c 3d
       -0.07498952 -0.040827133 0.016399913 0.04600141
000280 a6 08 03 3e 7c 12 b6 3d cf af 4a bd 69 8c e8 3c
       0.12796268 0.08890244 -0.04948407 0.028387265
000290 83 0f 42 3e 61 de 72 bd 17 2c 4b bc 29 b3 f0 3d
       0.1895123 -0.05929411 -0.012400649 0.11752922
0002a0 5a d0 c3 bc f7 8a 44 3d 4f ba df bd 5b 86 3a bd
       -0.02390306 0.04798409 -0.109242074 -0.045538288
0002b0 5c 6d 9a 3c 66 45 14 3c c5 41 5b 3d 00 55 47 be
       0.018850975 0.009049749 0.05352952 -0.19466019
0002c0 71 84 cb bd 90 44 3f bd e7 af 3b bb 7c e0 9b bc
       -0.099373706 -0.046696246 -0.0028638782 -0.01902794
0002d0 c5 12 71 3d 1f 11 0a bd 5f 51 93 bd c0 d7 34 3c
       0.05885579 -0.033707734 -0.07193255 0.011037767
0002e0 59 8f b0 3d c0 7c e3 bd 98 f4 94 3d 25 5e 95 3d
       0.086210914 -0.111077785 0.07273215 0.07293347
0002f0 91 c3 f7 bd 59 bb 8b 3d 46 5b 26 be 20 39 74 3d
       -0.12097848 0.06822843 -0.16245756 0.05962479
000300 00 ee 1b be 8b 74 fa bc a7 75 23 3d 31 c3 9b bd
       -0.15227509 -0.03057315 0.039907124 -0.07605589
000310 b8 72 62 3d e4 a1 08 3e bd d3 60 3d 92 5b 95 3d
       0.055285186 0.13343006 0.05488943 0.07292856
000320 e8 e8 f1 3b 17 40 23 3d 6d c2 f1 bd 02 9e 1d 3e
       0.007382501 0.039856043 -0.11804662 0.15392306
000330 12 f3 09 3e 12 e9 b7 bc bf 72 d7 3d 65 cb ac 3c
       0.1347163 -0.022450004 0.10519933 0.02109308
000340 5f 4f 86 3d ac ad 81 3d 79 70 aa bd 26 13 4a 3d
       0.065581076 0.063319534 -0.08322234 0.049334668
000350 63 a0 30 bd 17 be c5 bd bf da 44 be f6 94 cf 3d
       -0.043121707 -0.096553974 -0.1922407 0.10135834
000360 ca 23 b3 bd a4 8f 44 be 22 dd f8 bd 1e 18 ce bd
       -0.087470606 -0.1919542 -0.12151553 -0.10063194
000370 c9 3b 27 3e f3 4a 85 3d 66 73 c0 3b af da 98 3c
       0.163314 0.06508436 0.0058731316 0.018658964
000380 31 e1 97 3c 1e f5 df 3c 98 31 5e bb a0 bf 4b 3d
       0.018539997 0.02733856 -0.0033904072 0.049743295
000390 41 59 19 3e be 9d 96 3d 76 17 a5 bd 97 0b d0 bd
       0.14975454 0.07354306 -0.080611154 -0.101584606
0003a0 db 07 2c 3d 5b 78 62 bd 12 d4 a6 3d fb 97 04 3e
       0.04199968 -0.05529056 0.08145918 0.12948601
0003b0 93 59 ca bd da 22 3a bd ec c8 8d bd ba 56 ae bc
       -0.09880366 -0.045443393 -0.069230884 -0.021281589
0003c0 09 94 96 3d 93 f5 85 3c b9 0f 3c 3d dc dd 42 3d
       0.07352454 0.01635245 0.04591343 0.047574863
0003d0 ea d8 b2 3c c9 07 fd 3c 0d 13 12 3d d9 f8 92 3c
       0.021831948 0.030887501 0.0356627 0.017940925
0003e0 be 67 0e bd 4f eb 2e bd d1 c2 cd 3c 8a 3a 18 3d
       -0.034766905 -0.042704877 0.02511731 0.037165202
0003f0 95 18 e8 3d 53 d4 07 be d0 90 13 be 54 16 6f bb
       0.11332814 -0.13264589 -0.1441071 -0.0036481814

network_body._body_endoder.seq_layers.2.bias f4 [128]
000000 e7 66 ef ba 01 50 0f bb 82 0a 09 bb 0d b9 8a ba
       -0.001826492 -0.0021867754 -0.0020910804 -0.0010583714
000010 a5 4c 87 ba ea cf b6 39 3e d2 22 3a d4 19 57 39
       -0.0010322524 0.00034868653 0.0006211138 0.0002051362
000020 70 24 43 3a 10 04 85 ba 84 b5 57 3b 84 45 33 39
       0.0007444089 -0.0010148305 0.0032914588 0.00017096667
000030 b6 b2 51 3b 4c 16 d2 ba d7 e5 9e ba 71 1d 82 3b
       0.003199739 -0.0016028374 -0.0012122941 0.003970795
000040 8d 28 6a 3b 4c 92 80 ba 2a 2d 8a 3b 65 36 dc b9
       0.0035729737 -0.0009809225 0.0042168098 -0.00042002197
000050 e9 90 cd ba bc bb 2e bb 7b 5c 03 ba 4d 74 7d ba
       -0.0015683445 -0.0026662191 -0.0005011034 -0.0009668514
000060 f1 f4 5f bb b5 99 7f ba 5f 5f 1a 3b b4 31 86 3b
       -0.0034173096 -0.0009750382 0.002355538 0.0040952805
000070 64 64 f8 ba 9c 91 a9 b8 c3 70 04 bb cb e8 37 3b
       -0.0018950817 -8.08567e-05 -0.0020208813 0.002806234
000080 52 64 1a 39 5a ef ba 3a 95 b3 16 3b aa f4 ed ba
       0.00014723957 0.0014262006 0.0022995223 -0.0018154581
000090 14 01 c4 3b 82 3c e5 3a 41 48 22 3b ac c1 3e 3b
       0.005981574 0.0017489346 0.0024762305 0.0029107137
0000a0 d8 6a 61 3b 1d f4 e2 3a a8 5e 14 bb 0d de a8 bb
       0.003439596 0.0017315183 -0.0022639427 -0.0051534236
0000b0 a1 08 35 bb e7 50 32 3b eb 2d f1 39 22 ce 40 bb
       -0.0027623551 0.0027208866 0.00046001314 -0.002941974
0000c0 48 63 74 3b 61 d3 18 bb 77 4c e0 3b fb 07 ab ba
       0.0037290622 -0.002331935 0.006845053 -0.0013048643
0000d0 c8 91 5b bb 2f 3f 1b b8 9d 04 ad 3b 14 20 2d 3b
       -0.003350364 -3.7013724e-05 0.005280091 0.0026416825
0000e0 d7 a7 4d bb 4f 05 71 3b f9 0e 0a 3b 1c 65 e1 ba
       -0.0031380558 0.0036776846 0.0021066053 -0.0017196271
0000f0 0b 11 7f 3a 5b 73 40 3a 5c 48 45 bb 82 35 0e ba
       0.00097300176 0.0007341408 -0.0030102944 -0.00054248434
000100 9e 35 9b 3a af e8 d8 3a 68 00 53 bb a6 c8 19 bb
       0.0011841541 0.0016548837 -0.0032196287 -0.0023465543
000110 3c d3 27 b8 85 20 21 3c 74 09 5f bb e1 77 1b 3b
       -4.001263e-05 0.009834413 -0.0034032734 0.0023722576
000120 cb 4e f3 ba 51 06 33 bb c4 f2 8e 3a b5 42 70 ba
       -0.0018562911 -0.0027316997 0.001090609 -0.00091652136
000130 37 cf cd bb 00 6c 27 3a 56 63 74 bb 0d 42 a0 38
       -0.0062808054 0.00063866377 -0.0037290654 7.6416974e-05
000140 3b 4e b9 3b 38 83 3b 3b 78 e9 ab 3b 1d a6 b9 ba
       0.0056550778 0.0028612148 0.0052463375 -0.0014163885
000150 a3 00 82 3a e3 ec da 3a 2f 9f 1b bb 66 51 4c ba
       0.0009918403 0.0016702678 -0.0023746004 -0.0007794112
000160 36 70 71 bb 74 80 ad 3a 14 82 9c ba 8a 71 0d ba
       -0.0036840565 0.0013237135 -0.0011940622 -0.0005395642
000170 fa 60 2e bb bb ea 4a ba 88 80 2c 3b 9d 8a 9a bb
       -0.0026608096 -0.0007740666 0.0026321728 -0.004716231
000180 07 7a 80 bb 7c 00 f0 ba 47 8f 2e 3b f7 f8 80 ba
       -0.003920797 -0.0018310691 0.0026635693 -0.0009839822
000190 0f 90 f9 3a f8 e7 af 3a 5d 5e a8 bb c9 97 37 3b
       0.0019040125 0.0013420573 -0.005138202 0.0028014055
0001a0 f3 ed b7 3a b6 66 d9 ba ec e9 36 bb d2 0c d8 b9
       0.0014032706 -0.0016586396 -0.0027910424 -0.00041208282
0001b0 dc 32 02 ba 1c e3 ca 3a 77 f9 a8 3a 10 ed b0 b9
       -0.0004966685 0.0015479061 0.0012891729 -0.0003374596
0001c0 b4 e0 77 3b 2e 9b 24 3b 06 97 eb ba 90 8c 8f 3b
       0.0037823142 0.0025116908 -0.0017974086 0.00438077
0001d0 71 71 cc 3a 0e af 2e 3a e8 af e1 ba 49 bd 19 bb
       0.0015597773 0.00066636584 -0.0017218562 -0.002345877
0001e0 57 84 98 39 d1 54 33 bb df bd 1e 3b 4f 3b a2 3a
       0.000290903 -0.0027363787 0.0024222059 0.0012377294
0001f0 d0 25 86 bb 54 65 90 ba 6a 6e 1f 3a 07 1b 55 ba
       -0.004093863 -0.0011016526 0.00060818216 -0.00081293326

action_model._discrete_distribution.branches.0.weight f4 [8, 128]
000000 f2 f2 4f bc 5c 62 87 bb 70 85 4a bb 77 e1 c6 b9
       -0.0126922 -0.0041315984 -0.003090229 -0.00037933487
000010 84 d8 2d 39 71 38 47 3c 43 c3 6a 3c ff 9b f1 3a
       0.00016579224 0.012159453 0.014328781 0.0018433331
000020 a3 35 45 bc d2 1c b8 3b 93 b3 6d bb 3c f6 23 bc
       -0.012036714 0.00561867 -0.0036270365 -0.010007437
000030 71 52 25 3c dd ff 25 3c bd 84 f9 bb a4 d4 31 ba
       0.010090456 0.010131803 -0.0076147006 -0.00067837
000040 65 c0 72 3b 2f a8 db 3b 78 65 e1 3b a5 e1 22 bc
       0.0037040946 0.0067033987 0.006878551 -0.009941493
000050 2c 93 00 bc 69 a0 f3 bb e0 1b 93 3a b8 2f 1e 3c
       -0.0078475885 -0.007434894 0.0011223517 0.009654932
000060 47 e2 96 ba 1c 9b 96 3c d4 a0 92 3c f2 84 0e bc
       -0.0011511528 0.018384509 0.017898954 -0.008698689
000070 09 d0 1c bc 90 1f 25 3c ce 94 d6 bb 20 bd b6 3b
       -0.009571084 0.010078326 -0.0065485006 0.0055767447
000080 c0 b7 ff 3b a1 b3 13 bc 48 a1 0a bc b2 d9 14 3c
       0.007803887 -0.009014995 -0.008461304 0.009085106
000090 9b 9b fd bb 65 7d d6 ba 06 6d b2 3b 58 0d d6 3b
       -0.007739497 -0.0016364275 0.0054451255 0.0065323524
0000a0 ac 61 1a bc 2a 6f 45 bc 2c b7 64 3b ec 6b 11 bc
       -0.009422701 -0.012050429 0.0034899218 -0.008875828
0000b0 55 3a 1a 3b a1 85 10 bc 1d 0f ee 3b 11 d8 80 3c
       0.0023533304 -0.008820922 0.0072649852 0.015728028
0000c0 55 11 23 3c 42 51 8f bc 24 78 7e bc b7 92 d3 3a
       0.009952863 -0.017494801 -0.015531573 0.0016141747
0000d0 73 0e 18 bb e7 5b a9 3c 7c 5b 0c bc f1 21 5c bc
       -0.0023201972 0.020673705 -0.008566733 -0.013435827
0000e0 5b 9b fa 3a a9 09 3c 3c 18 11 42 3b 41 62 a5 3b
       0.0019119786 0.011476913 0.002961224 0.005047113
0000f0 00 75 2e 3c b8 29 0a bc 5a a7 b8 3a 9d 32 81 b8
       0.010648012 -0.008432798 0.0014087961 -6.160627e-05
000100 d2 f5 a7 bb f0 26 27 bb ce f4 08 3c 72 9f 59 bc
       -0.0051257396 -0.0025505386 0.008359147 -0.013282644
000110 70 01 74 bc 66 3f b9 b8 09 1c b4 3a fc 09 8b bb
       -0.014892921 -8.833296e-05 0.0013741265 -0.0042431336
000120 b0 96 1c 3c 6b d0 ce 3a cc 66 e8 bb cb 2a 46 bc
       0.009557411 0.0015778666 -0.0070923325 -0.012095164
000130 bc aa 7e 3a 17 d9 fb 3a 74 3c 78 3b ac 36 1f 3b
       0.00097147725 0.0019214478 0.003787783 0.0024294062
000140 1c b6 fb 3a 32 4b 12 3c d5 e4 c2 3a be 66 b5 3b
       0.0019204053 0.008929061 0.0014869223 0.0055359295
000150 ff 42 38 3c 8c 30 55 bc dd 7b 7f 3c 1f f0 83 39
       0.011246442 -0.013012063 0.015593496 0.0002516517
000160 48 82 b9 bb df 31 3e bc 88 13 a0 bb 47 0c 0d bb
       -0.0056612827 -0.01160857 -0.004885141 -0.002152221
000170 6b dc ec bb e8 1f 9e bc b4 99 2e 3c f7 30 0d bb
       -0.0072284243 -0.019302323 0.010656763 -0.0021544078
000180 9f 34 68 3b 47 f7 e9 b9 93 b5 cd 3b a9 b9 5f bc
       0.0035431755 -0.0004462546 0.006277749 -0.013655105
000190 97 16 9b 3b 39 c4 a5 bc bc 61 e5 bb b1 59 8d ba
       0.0047329175 -0.020235168 -0.0070001762 -0.0010784176
0001a0 b5 40 e5 3b ea 13 02 bb 83 25 12 3c 21 24 7d 3b
       0.006996239 -0.0019848295 0.008920076 0.003862627
0001b0 e3 4b 03 3b 23 f2 a2 ba 3f 77 aa 3b b1 9d 48 3c
       0.0020034246 -0.0012431782 0.0052022035 0.012244628
0001c0 21 53 6b bc dd 1e 17 3a 1b 18 84 ba ca bb a4 3c
       -0.014363081 0.0005764792 -0.0010077985 0.020109076
0001d0 27 fa 12 bb 33 35 69 3c a9 cf db 3b 90 68 0e 3c
       -0.0022426934 0.014233875 0.0067081046 0.008691922
0001e0 f5 27 9a bb 8d 33 da 3a a1 38 0e bc fa bb e8 3b
       -0.0047044703 0.0016647443 -0.008680494 0.0071024867
0001f0 16 d3 0b bc 55 cd 99 3b e3 78 ca b9 91 7d 75 bb
       -0.0085342135 0.004693667 -0.0003861851 -0.0037458877
000200 be ba 69 3c 3b 4a 80 3c 7b 08 5f bc 81 79 04 3c
       0.014265714 0.015660396 -0.013612862 0.008085609
000210 00 30 49 bc 7d f7 6a 3c af b0 66 3c 09 fa 5e bc
       -0.0122795105 0.014341232 0.014080211 -0.013609418
000220 59 87 82 3c 83 36 44 3c 40 56 b2 ba fd dc ba 3a
       0.01593368 0.011975887 -0.0013606027 0.0014256533
000230 35 5c f9 3b c6 67 37 bc 97 f3 03 bc 54 de 01 bc
       0.007609869 -0.011194175 -0.008053682 -0.007926542
000240 2e e3 dd 3b 7c a3 9c bb d8 70 b8 3a 10 c6 24 3b
       0.0067714667 -0.004780231 0.0014071716 0.0025142469
000250 6c 3b 02 bb dd cc 2e bc 77 10 0e 3c 19 4c 7b 3b
       -0.0019871844 -0.01066896 0.008670918 0.0038344918
000260 99 8e b3 bb 71 94 ce bb bc da 8b bb 8f 0b 3a bb
       -0.0054796454 -0.0063043167 -0.0042680185 -0.0028388237
000270 7a 0e 0a 3c 75 72 11 bc 27 cb 9b bb bf b3 0d 3c
       0.008426303 -0.008877386 -0.0047544423 0.008648812
000280 52 9c 43 3b 0d 9b 9a bb 13 f1 8d 3c 06 a4 19 bb
       0.0029847813 -0.0047181905 0.017326867 -0.0023443713
000290 09 b9 f0 bb d0 8d 77 bb ad 6a 2d bb d8 f4 0a 3c
       -0.0073462767 -0.0037773736 -0.0026461289 0.008481227
0002a0 0b 6c 15 bc 8b b9 cf 3b 4d 8a 12 3c 5a 52 15 bc
       -0.009119998 0.006339257 0.008944106 -0.009113872
0002b0 5a 8c 11 3b 83 8a a6 3b 46 1b d0 bb 7b e2 93 3a
       0.00222089 0.00508243 -0.0063509075 0.0011282706
0002c0 b6 de 36 bc c2 35 c8 3b 9c fe 42 3c 8c e4 a9 bb
       -0.011161497 0.006109924 0.011901524 -0.0051847156
0002d0 ba e6 c9 ba a2 2d a6 bb 4d c2 9a 3c 16 f1 67 bc
       -0.0015403845 -0.005071358 0.018891478 -0.0141566
0002e0 9c 53 9c bc 04 d0 cb ba b6 a5 5d bc 58 ca 9b 3b
       -0.019082837 -0.0015549664 -0.013528278 0.004754346
0002f0 29 8e 7a bb 80 59 29 ba 50 95 93 bb 6d fd ad bb
       -0.0038231707 -0.0006460175 -0.0045038834 -0.0053097517
000300 c9 96 ac 3c 63 76 8d 3c 62 de 2d 3c 6c f8 e2 3c
       0.021067994 0.017268365 0.010612102 0.027706347
000310 db 7a f5 3b 58 ae 7f bb 56 93 46 3b c4 70 24 3c
       0.007491452 -0.003901383 0.0030300221 0.010036651
000320 cd c0 ed bb 5e 44 fb 3b 04 a5 bf 3a 22 4f df 3a
       -0.0072556497 0.007668062 0.0014621322 0.0017037133
000330 d4 e1 b6 3b af 63 23 3b 82 f1 ad bb eb 0a 73 bb
       0.00558112 0.0024931242 -0.005308331 -0.0037085365
000340 b7 82 90 3c d0 e7 76 3b 3e 5f a5 3b 7a 19 c8 3b
       0.017640455 0.0037674792 0.005046754 0.0061065527
000350 19 95 1c b9 b6 c2 4e 3c c5 8b af 3a 4e 4b 8e bc
       -0.00014932863 0.012619665 0.0013393095 -0.017369892
000360 6f 51 70 bb b6 eb 05 3c cf 2a 68 bc b8 35 84 bb
       -0.0036669632 0.008173874 -0.014170363 -0.004034724
000370 d8 a1 1a bb ab 46 31 3c f0 ca dc 3b 03 7d c6 bb
       -0.0023595002 0.010820071 0.006738059 -0.006057383
000380 81 6f 2f 3b e2 08 31 3c 97 21 51 3c 0d 81 ba 39
       0.0026769342 0.0108053405 0.012764356 0.00035572835
000390 c7 70 6e bc 51 5d c0 bc df 7a 80 bb 21 5a b0 3b
       -0.014553255 -0.023481997 -0.0039208974 0.005381838
0003a0 0a 45 17 3c 24 49 af bb ac 84 fc ba 63 94 78 bb
       0.009232769 -0.005349295 -0.0019265614 -0.0037930242
0003b0 24 8b 63 3b 57 ff 6d bc 2e d5 48 3c a9 06 02 bc
       0.0034720385 -0.01452621 0.012257857 -0.007936158
0003c0 27 ae 74 3c 8c 1c 5e 3a 56 34 0d 3b 47 31 a7 bb
       0.014934099 0.0008472882 0.0021546087 -0.00510231
0003d0 4a 78 bb 3a 40 ba 13 bb 64 92 1d 3c e1 a1 b5 3a
       0.0014302817 -0.0022541434 0.009617422 0.0013857448
0003e0 2e b1 0b 3c 13 b1 96 bc 54 1a 9c 3c 85 21 6c 3c
       0.00852613 -0.018394982 0.019055523 0.014412289
0003f0 7b f4 a6 bb 95 79 88 3c d5 25 d3 bb 2a 35 8c 3a
       -0.0050950623 0.016659537 -0.006443719 0.0010696996

action_model._discrete_distribution.branches.0.bias f4 [8]
000000 df c9 93 ba 73 54 17 39 de 1e 14 3b d6 e2 e2 bb
       -0.0011275372 0.00014431942 0.0022601406 -0.0069240136
000010 2b c5 b2 bb 64 82 30 bb 32 ce 14 3b 7c 19 c8 3a
       -0.005455633 -0.0026933188 0.002270591 0.0015266384

onnx::MatMul_154 f4 [131, 128]
000000 a2 6b bc bb fb e4 e3 bc 64 25 2b 3d ce fb 33 bd
       -0.0057501355 -0.027819147 0.041783705 -0.04394131
000010 de 37 49 bd 1b 05 0c bc 57 2b 8c bb 08 7b a7 3d
       -0.049125545 -0.008546139 -0.0042776274 0.08177763
000020 ee 99 f2 3c f0 9e c4 bc c7 5a 71 bd 5c 02 fa bc
       0.029614415 -0.024001569 -0.058924463 -0.030518703
000030 8e 7b b1 bd 2d c8 78 bc 22 77 6c 3d a7 00 eb bb
       -0.08666144 -0.015184444 0.0577308 -0.0071717086
000040 99 d6 2b 3b c4 2a 3b 3b 30 ed 3e bd 05 b2 4c bc
       0.002622044 0.0028559426 -0.04661292 -0.012493615
000050 3c f4 0b bd 63 d0 5e bd 76 af ad bc 87 c9 38 bd
       -0.034168467 -0.05439795 -0.02120183 -0.045114066
000060 96 de d3 3c a8 55 ef 3b 74 02 6c 3a b7 80 01 bd
       0.025862973 0.007303912 0.0009003051 -0.031616893
000070 ed 3a ae 3c f1 ec 9e 3c e1 77 ae bc b7 a9 41 3d
       0.021268332 0.019400092 -0.021297397 0.047280993
000080 93 8e 35 bd e1 b8 27 bd 97 3f 87 bb ff 3e 98 bd
       -0.044325422 -0.0409478 -0.0041274535 -0.074338906
000090 33 c6 5a bb e5 e0 ce bb c7 64 6d 3c 39 19 82 bd
       -0.0033382296 -0.0063134306 0.014489359 -0.06352467
0000a0 06 f8 fc bc 3f 3a c1 3b 25 62 9c bb 6d ea 7e bc
       -0.030879986 0.005896836 -0.004772442 -0.015558821
0000b0 e9 ac c5 bc cf 6c 52 bc 24 e2 00 3c 03 76 3f 3c
       -0.024130302 -0.012843325 0.007866416 0.011685851
0000c0 7d 4a cb bc 61 a7 b2 3c 01 21 39 3d 49 be 9b bc
       -0.024815792 0.021808328 0.04519749 -0.019011633
0000d0 d9 e8 7c bb 07 35 c7 3b 71 98 e4 3c 17 fe ca ba
       -0.0038590936 0.0060793194 0.027904721 -0.0015487102
0000e0 5d 8e f1 3c b9 b9 04 3c c8 d3 d6 3b d1 a1 70 3c
       0.02948683 0.00810092 0.006556008 0.014687018
0000f0 d8 aa 55 bc 6b 70 8e bc e7 0d 6d 3b 3d de 83 3c
       -0.013041221 -0.01738759 0.0036171617 0.016097182
000100 6f 51 2c bc 8a 75 9a 3a 6c 1f 07 3c d7 df a7 bc
       -0.010517462 0.0011784297 0.008247238 -0.020492477
000110 20 a0 9a 3b a1 63 df bc b0 96 2f 3c 31 db c5 bb
       0.0047187954 -0.027269186 0.010717079 -0.0060380925
000120 16 f7 fc 3c 30 e7 b3 bc e9 ac d5 bc 9d 67 40 bd
       0.030879539 -0.021960825 -0.026083427 -0.046973813
000130 55 a4 42 bc ba b8 46 bd b7 95 5b bd b1 32 b7 ba
       -0.01188 -0.048516013 -0.053609576 -0.0013976899
000140 f6 a9 5a 3c f6 00 d2 bc 5f fe 2f 3d 2c 92 7b 3d
       0.013346186 -0.025635224 0.042967197 0.061418697
000150 44 50 bd 3a 5a 75 f8 bc c3 65 cd 3c 27 b1 9a bc
       0.0014443477 -0.030329395 0.025072938 -0.018883301
000160 d5 fa b4 bc 0c 18 97 bc 00 e8 3c 3c 2c 83 31 bc
       -0.022092262 -0.018444084 0.0115299225 -0.0108344965
000170 d6 8b 80 bd b5 44 dd 3b d4 4c 03 bc 7b d7 00 3d
       -0.062766716 0.0067525753 -0.008013923 0.0314555
000180 a5 62 d9 bc 3f 3b 10 3d 7b 0c da bc 70 aa 17 bd
       -0.026536295 0.03521275 -0.02661728 -0.037027776
000190 4c 83 d6 3c 66 17 e0 bd 63 55 f8 bc ea 6c 85 bc
       0.026185654 -0.10941963 -0.030314153 -0.016287286
0001a0 85 59 7d bd bf b3 ae 3c 79 4f d6 3b 47 34 87 bd
       -0.06185295 0.021325944 0.0065402356 -0.06601768
0001b0 b7 5a 92 bc 2d 23 ba bb 1b 1e d0 3c 33 7a aa 3c
       -0.017865522 -0.005680463 0.02540498 0.020810222
0001c0 37 0a 41 3c c0 fd 3c bb 6c 88 46 3d 0c f4 b4 39
       0.011782221 -0.002883777 0.048469946 0.00034514104
0001d0 7a f8 c0 bd 0d 50 10 bd 8b 85 21 3c e6 5b 66 3d
       -0.09422393 -0.035232592 0.009858499 0.056239985
0001e0 28 c5 08 3a ef 2a c2 b9 7a a6 4f bd b0 f5 9b 3b
       0.0005217367 -0.00037034551 -0.050695874 0.004759513
0001f0 b8 f7 6a 3c e3 bb 26 bd 07 be 97 3b 1f 00 b6 bb
       0.014341287 -0.040706526 0.0046308073 -0.0055542137
000200 7d b6 a9 3d 60 4d 47 3c de 91 6c 3c 66 db 9c bc
       0.0828676 0.012164444 0.014439074 -0.019147586
000210 d4 85 f6 bc 90 20 be bc b5 4a 74 3d 5f 96 31 b9
       -0.030093111 -0.023208886 0.05964156 -0.00016936053
000220 d3 5e 45 3c 58 c1 bc bc 1a 9e 78 bb bd d8 46 bd
       0.012046534 -0.023041412 -0.0037936033 -0.04854654
000230 95 37 20 bc 75 84 0c bc 72 0e d1 3c a4 19 a2 3c
       -0.009778877 -0.008576502 0.025519583 0.019787617
000240 3b 13 d6 3c 1a 28 17 3d c2 cf 56 bc 2a b2 7d bc
       0.026132217 0.03690348 -0.013111057 -0.015484372
000250 e4 11 4e bc 73 7e 8f 3d d1 11 b8 3c c4 59 2b 3d
       -0.012577508 0.0700654 0.022469433 0.041833654
000260 e4 81 06 bd 4a e1 db 3c 83 39 83 3c aa b2 31 bd
       -0.032838717 0.026840825 0.016018635 -0.043383278
000270 a6 2f 9d 3c 29 7f a6 3b ee 6c 4f 3c 43 ca be 3c
       0.01918776 0.0050810766 0.012660248 0.023289805
000280 46 57 1d bb a8 8a 04 bc 42 c2 c8 3c 6b 97 6d 39
       -0.0024008318 -0.008089699 0.024506692 0.00022658489
000290 31 44 5c bd 33 b1 47 3c 2e 19 2f bd 8d 8d 4b bb
       -0.05377597 0.012188244 -0.042748623 -0.0031059713
0002a0 99 12 c2 ba 44 85 cb bb bb 93 38 bd d3 6f a0 3c
       -0.0014806568 -0.006210955 -0.04506276 0.019584572
0002b0 41 fd b0 3c 62 86 ee bb a4 12 7f 3d 0c a1 5a 3d
       0.021605136 -0.0072792033 0.062273636 0.053376243
0002c0 cd 03 89 3c c7 76 7f bc 79 9f 6c bc a7 20 b0 ba
       0.016725445 -0.015592284 -0.014442318 -0.0013437466
0002d0 cc 8f 69 3c c6 a2 3d bd 33 f0 10 3b 96 86 14 bc
       0.014255475 -0.04629781 0.0022115826 -0.009065291
0002e0 24 f4 2f bd 47 a2 9d 3c 27 f1 8c bd 14 5c 54 bd
       -0.04295744 0.019242419 -0.06881934 -0.051845625
0002f0 18 c9 7e 3c a1 fe f1 3c e1 83 cf bb f1 d1 8a bd
       0.015550874 0.029540362 -0.00633286 -0.067783244
000300 5a 1c e5 3c 0c fd d3 bc 6f dc 6e 3c a1 00 5d bc
       0.02796762 -0.025877498 0.014578923 -0.0134889195
000310 3f 58 9a bc f7 09 27 bd 0e da 55 bd 38 b0 74 3c
       -0.018840907 -0.040780988 -0.052209906 0.014934592
000320 b7 da 6b 3d 7f c6 eb 3c 26 e2 01 3d ac 42 24 3b
       0.05758163 0.028781174 0.031709813 0.0025064154
000330 d4 78 30 bd c8 55 dc bc 56 52 a2 bb e1 e5 15 3d
       -0.04308398 -0.026896372 -0.004953663 0.036596183
000340 4c e5 02 bd 2b e2 23 3d 1e 24 93 bc c3 7e 8c bc
       -0.031956956 0.040010612 -0.017961558 -0.017150288
000350 08 da 9c bc 9d 0d 14 3b 15 60 de bc 31 4e 76 3d
       -0.019146934 0.0022591122 -0.027145425 0.060133163
000360 ae 95 c1 3b 17 2f 14 bd 8e 0b e3 3c 28 69 13 3b
       0.005907736 -0.03617772 0.02771547 0.0022493098
000370 2b 47 a3 3d 7e 73 a8 3a 73 28 48 3d f9 d6 49 bc
       0.079725586 0.0012851802 0.0488667 -0.01231932
000380 d7 d2 b7 3b 93 11 c9 b9 e6 43 d4 3c d4 69 a5 bb
       0.005609851 -0.000383508 0.025911283 -0.005048016
000390 63 c7 7b bc dd 99 2e bd 6b 05 c1 3c 84 e0 04 bd
       -0.015367362 -0.042627204 0.023562154 -0.032440677
0003a0 bb 53 83 3c 1a a9 c4 b9 cb 65 b2 bc b0 5d cc bc
       0.016031137 -0.00037510024 -0.021777054 -0.024947017
0003b0 f2 9b f7 3b 62 da 6c 3c 57 56 20 bc d7 9a 53 bd
       0.007556432 0.014456363 -0.00978621 -0.05166134
0003c0 14 65 f0 3c 82 ff 19 3d 9c 77 e7 3c 5b 32 1d bd
       0.029345073 0.037597187 0.028255276 -0.0383781
0003d0 e6 7d f4 bb de c2 fb 3c 4b 48 1c ba 9f ec 51 3d
       -0.0074612973 0.030732568 -0.00059617 0.05125105
0003e0 d3 f4 13 3c 06 89 10 3d 0f 97 e9 bb 74 d3 c2 bc
       0.009030539 0.035286926 -0.0071286033 -0.02378247
0003f0 cc d8 31 3c 3d e0 9d 3a d5 a3 08 bc c2 f5 8e ba
       0.010854911 0.0012044978 -0.008339842 -0.0010906982
