results/3-11-run4/simple_deer/simple_deer-2765.onnx (onnx, 483249 bytes, 15 tensors)

network_body.observation_encoder.processors.0.self_ent_encoder.seq_layers.0.bias f4 [128]
000000 00 00 00 00 00 00 00 00 00 00 00 00 00 00 00 00
       0.0 0.0 0.0 0.0
000010 00 00 00 00 00 00 00 00 00 00 00 00 00 00 00 00
       0.0 0.0 0.0 0.0
000020 00 00 00 00 00 00 00 00 00 00 00 00 00 00 00 00
       0.0 0.0 0.0 0.0
000030 00 00 00 00 00 00 00 00 00 00 00 00 00 00 00 00
       0.0 0.0 0.0 0.0
000040 00 00 00 00 00 00 00 00 00 00 00 00 00 00 00 00
       0.0 0.0 0.0 0.0
000050 00 00 00 00 00 00 00 00 00 00 00 00 00 00 00 00
       0.0 0.0 0.0 0.0
000060 00 00 00 00 00 00 00 00 00 00 00 00 00 00 00 00
       0.0 0.0 0.0 0.0
000070 00 00 00 00 00 00 00 00 00 00 00 00 00 00 00 00
       0.0 0.0 0.0 0.0
000080 00 00 00 00 00 00 00 00 00 00 00 00 00 00 00 00
       0.0 0.0 0.0 0.0
000090 00 00 00 00 00 00 00 00 00 00 00 00 00 00 00 00
       0.0 0.0 0.0 0.0
0000a0 00 00 00 00 00 00 00 00 00 00 00 00 00 00 00 00
       0.0 0.0 0.0 0.0
0000b0 00 00 00 00 00 00 00 00 00 00 00 00 00 00 00 00
       0.0 0.0 0.0 0.0
0000c0 00 00 00 00 00 00 00 00 00 00 00 00 00 00 00 00
       0.0 0.0 0.0 0.0
0000d0 00 00 00 00 00 00 00 00 00 00 00 00 00 00 00 00
       0.0 0.0 0.0 0.0
0000e0 00 00 00 00 00 00 00 00 00 00 00 00 00 00 00 00
       0.0 0.0 0.0 0.0
0000f0 00 00 00 00 00 00 00 00 00 00 00 00 00 00 00 00
       0.0 0.0 0.0 0.0
000100 00 00 00 00 00 00 00 00 00 00 00 00 00 00 00 00
       0.0 0.0 0.0 0.0
000110 00 00 00 00 00 00 00 00 00 00 00 00 00 00 00 00
       0.0 0.0 0.0 0.0
000120 00 00 00 00 00 00 00 00 00 00 00 00 00 00 00 00
       0.0 0.0 0.0 0.0
000130 00 00 00 00 00 00 00 00 00 00 00 00 00 00 00 00
       0.0 0.0 0.0 0.0
000140 00 00 00 00 00 00 00 00 00 00 00 00 00 00 00 00
       0.0 0.0 0.0 0.0
000150 00 00 00 00 00 00 00 00 00 00 00 00 00 00 00 00
       0.0 0.0 0.0 0.0
000160 00 00 00 00 00 00 00 00 00 00 00 00 00 00 00 00
       0.0 0.0 0.0 0.0
000170 00 00 00 00 00 00 00 00 00 00 00 00 00 00 00 00
       0.0 0.0 0.0 0.0
000180 00 00 00 00 00 00 00 00 00 00 00 00 00 00 00 00
       0.0 0.0 0.0 0.0
000190 00 00 00 00 00 00 00 00 00 00 00 00 00 00 00 00
       0.0 0.0 0.0 0.0
0001a0 00 00 00 00 00 00 00 00 00 00 00 00 00 00 00 00
       0.0 0.0 0.0 0.0
0001b0 00 00 00 00 00 00 00 00 00 00 00 00 00 00 00 00
       0.0 0.0 0.0 0.0
0001c0 00 00 00 00 00 00 00 00 00 00 00 00 00 00 00 00
       0.0 0.0 0.0 0.0
0001d0 00 00 00 00 00 00 00 00 00 00 00 00 00 00 00 00
       0.0 0.0 0.0 0.0
0001e0 00 00 00 00 00 00 00 00 00 00 00 00 00 00 00 00
       0.0 0.0 0.0 0.0
0001f0 00 00 00 00 00 00 00 00 00 00 00 00 00 00 00 00
       0.0 0.0 0.0 0.0

network_body.observation_encoder.processors.2.normalizer.running_mean f4 [4]
000000 23 d4 36 3f 8c ee 3c 3f 4e e8 ff 3e 04 25 08 40
       0.71417445 0.73801494 0.49981922 2.1272593

network_body.observation_encoder.x_self_encoder.seq_layers.0.weight f4 [128, 4]
000000 72 0d 15 bc 93 79 26 bd a9 4b 44 bd 19 cc 35 3c
       -0.009097444 -0.040643286 -0.047923718 0.011096024
000010 9e 48 5c 3c 37 2f e6 3c a7 b0 2e bd 8b d9 e9 3c
       0.013445048 0.028098686 -0.042648938 0.028546115
000020 e5 9b 85 3d 1b 97 94 bc 0f 29 ec 3c 05 3b 0d 3d
       0.06523875 -0.018138459 0.028828172 0.034480114
000030 db 6f 92 3c 28 ab 4c bd c9 42 6c 3c d1 ea 3a 3c
       0.017875602 -0.049967915 0.01442022 0.011408524
000040 d0 be 2a 3d 0e 3b a2 bc a0 74 0e 3d f9 85 b3 3b
       0.04168588 -0.01980355 0.03477919 0.0054786173
000050 a1 1e 5e 3b 10 92 34 bc f6 f6 e8 bc d0 f7 bd 3c
       0.0033892768 -0.011021152 -0.028438073 0.023189455
000060 13 56 81 bc bb 1a 9c bc 93 51 a1 bc ae 61 b3 3c
       -0.015788114 -0.019055715 -0.019692218 0.021897163
000070 93 ff 95 bc f9 63 71 bc d1 9d 96 bc 65 4c 65 3c
       -0.018310344 -0.014733308 -0.0183858 0.013995265
000080 5c 5f a7 3b 15 be cd bc 3d 7f 03 3c df 44 dc 3c
       0.0051078033 -0.025115052 0.008025941 0.026888309
000090 28 25 f5 bb 5c 64 f4 3c aa f4 b5 3b 90 9b 1f bb
       -0.007481236 0.029833011 0.005552848 -0.0024354197
0000a0 52 e3 d9 3c e9 0d 22 3d 12 33 66 bd 06 83 11 3d
       0.026597653 0.039564047 -0.05620105 0.035525344
0000b0 4e cd 7f 3c 5e 60 21 bc 84 82 30 bb 9a a5 9b bc
       0.015612913 -0.009849636 -0.0026933262 -0.018999863
0000c0 2c ab 55 bb 9c 83 d3 bc e2 9a 86 3c e8 20 e6 bc
       -0.0032603247 -0.025819592 0.016431276 -0.028091863
0000d0 df e9 c8 bc c5 2b 58 bb 35 1f 44 3d f6 c1 22 bd
       -0.02452558 -0.0032985073 0.047881324 -0.039735757
0000e0 79 4e f3 3a d4 1a e2 bc 2d 70 21 bd e4 a5 69 3b
       0.0018562815 -0.027600683 -0.03941362 0.0035651857
0000f0 40 e9 c9 3c 31 09 8e ba 15 99 fb 3c fc d0 e2 bc
       0.024647355 -0.001083648 0.030712644 -0.027687542
000100 06 5b 01 bd 1f f7 0e bc b7 49 46 3c a2 17 19 3d
       -0.031580947 -0.00872591 0.012102536 0.037376054
000110 b0 cb a8 bc f7 c0 2b 3d 94 ad 1e bd 05 e3 3b 3d
       -0.020604938 0.041932072 -0.038739756 0.0458708
000120 aa 83 da bc 08 2d 40 3d 64 7a 90 3d ac da 11 3d
       -0.02667411 0.046917945 0.07054594 0.035608932
000130 6c 50 8a 3d c3 21 1d bd 09 22 b3 bc d1 50 54 bc
       0.067536205 -0.038362276 -0.021866815 -0.012958721
000140 fb c9 d3 3c 08 b7 3e 3c 5c 75 aa bb 0f 3f ad 3b
       0.025853148 0.011640318 -0.0052019786 0.005287058
000150 42 2b 8d 3b 4c 4d bb 3c 4f e9 80 3c ec 76 20 bd
       0.0043081352 0.022864006 0.01573625 -0.039175913
000160 63 ce 94 39 43 90 4a 3d 64 77 c6 3c b1 1e 63 3d
       0.0002838253 0.049453985 0.024226852 0.05544919
000170 e2 25 c4 3c 74 57 86 3c 89 2f 27 3c a4 a8 21 bd
       0.023943845 0.016399123 0.010204204 -0.03946747
000180 bb 9a fd bb 49 3a c3 bc b2 96 f4 3c 38 41 7a 3c
       -0.0077393926 -0.023831503 0.029857013 0.015274338
000190 eb 12 12 3d 43 b2 45 bd f8 09 01 bc 2b da 15 3d
       0.035662573 -0.048265707 -0.007875912 0.036585014
0001a0 e0 df 80 3c 15 bf 88 bc 90 b0 44 3d 5c ae 54 bd
       0.015731752 -0.016692678 0.048019946 -0.051924095
0001b0 4b 93 31 3c 90 63 0e bb 85 40 90 3b 66 48 7e bc
       0.01083834 -0.0021726824 0.0044022226 -0.015520191
0001c0 cd 5a 31 bc 06 d4 42 bc 35 11 39 bd bf 4d 26 bd
       -0.010824871 -0.011891371 -0.045182426 -0.04060149
0001d0 b5 af 56 39 77 fd 22 3b e3 c4 69 bc b4 4b c4 3c
       0.00020474086 0.0024870315 -0.014268133 0.02396188
0001e0 d7 a1 04 bd 4e e4 06 3d e6 9e 8f bc 33 ae 68 3c
       -0.032380905 0.032932572 -0.017531823 0.014201689
0001f0 e5 0d ac bc b5 20 a4 bc 3a b6 1b 3c dc 39 f4 3c
       -0.02100272 -0.020035127 0.009503895 0.029812746
000200 75 2a c5 bc b9 a8 8d bc 23 cb 17 bd ba 2c cf bc
       -0.024068097 -0.017292367 -0.03705896 -0.025289882
000210 5f f8 8e 3d b6 a4 0c bd e9 63 d9 bc a9 aa 49 3b
       0.06980967 -0.034336768 -0.026536899 0.0030771887
000220 5b 31 5f 3b 75 cc 23 bc 28 54 85 bc a5 96 a8 bb
       0.0034056518 -0.009997477 -0.01627548 -0.0051449114
000230 25 bc 1c 3d fd 48 aa bc 4a 82 37 3c 4e e6 48 bb
       0.038265366 -0.020786757 0.011200497 -0.003065485
000240 ed 99 09 bc 52 df a2 b9 38 12 86 3c d8 03 46 3d
       -0.008398515 -0.00031065434 0.01636611 0.04834351
000250 ce 5f 71 39 72 de a0 bc a9 10 41 bd e0 e2 1a bd
       0.00023019241 -0.01963732 -0.04713503 -0.03781402
000260 28 2c bc 3c ae 74 26 bd e8 53 f0 bb e6 2c 91 3c
       0.022970274 -0.04063862 -0.007334221 0.017721605
000270 50 b3 b6 3d ad 21 a6 bc 6b 19 07 3d 57 6e c2 bb
       0.0892092 -0.02027973 0.032983225 -0.0059335637
000280 a8 9a 3f 3a b3 bb 9e 3c 9d 66 86 bc 4f 06 bd 3c
       0.00073091174 0.019376611 -0.016406352 0.023074297
000290 bf 64 39 3b 9f 08 39 3d 7c 9d 01 bd 62 cb 70 bc
       0.002828881 0.045174237 -0.03164433 -0.014696928
0002a0 9e 35 52 bc c6 ed 80 3c c3 4c 60 3d 3a 0a 8f bc
       -0.012830166 0.01573838 0.054760706 -0.017460931
0002b0 ee b2 11 3c d7 71 51 3c 5a d6 33 bd b9 67 b1 3b
       0.008892758 0.012783489 -0.043905593 0.005413976
0002c0 3e ad a0 3c a9 66 e0 ba 78 94 1d 3c 3b 8f 0e 3c
       0.019613858 -0.0017120439 0.009617917 0.008701141
0002d0 8b 60 37 3d 24 04 fe bc b6 95 48 bd f2 ee 16 3d
       0.044769805 -0.031007834 -0.0489709 0.03684897
0002e0 4d 4f 3a bc dd 80 2c 3d ad 49 9d bb d1 db 85 bc
       -0.011371446 0.04211508 -0.0048000426 -0.016340168
0002f0 39 3e 21 bc da 01 7f 3c 48 0f 73 3c d5 33 16 3d
       -0.009841495 0.015564406 0.014835186 0.036670525
000300 1b 44 a9 bc 1b f1 2a bd fe 6f 09 bd f2 dd 82 bd
       -0.020662358 -0.041733842 -0.03355407 -0.06389989
000310 b5 2b a6 bc 59 af 20 bc 2f 34 73 bc d7 54 d1 3a
       -0.020284513 -0.009807431 -0.0148439845 0.0015970719
000320 ee 09 69 bc f3 ce 4b bd c0 a0 3c 3c c9 5d 2c 3d
       -0.014223559 -0.04975791 0.011512935 0.042081628
000330 cd 2a 66 bc ba a2 b2 3c 41 90 f5 3c 1d 42 cf 3c
       -0.01404829 0.02180611 0.029976012 0.02530008
000340 59 fd 0b bc 5e 1d 14 bd a2 c6 7a bd ad 9f 82 bc
       -0.0085442895 -0.03616082 -0.061224587 -0.01594528
000350 61 5e 80 3d 28 e2 81 3c ea 1a 05 bd 61 e5 63 3c
       0.06268001 0.01585491 -0.03249637 0.013909669
000360 cb 3d a9 bc 79 12 ff 3c ad 8e 1a bd 83 68 7a bd
       -0.020659348 0.031136738 -0.037733722 -0.061134826
000370 a6 a8 75 bd 4a 79 97 bc c4 9c 79 3c b8 28 e3 3c
       -0.05997529 -0.018490452 0.01523513 0.027729377
000380 dd 3a e5 3c 44 cd 6c bc 44 67 de bc 1d db 0f 3d
       0.02798217 -0.014453236 -0.02714885 0.035121072
000390 ed 0f 9d 3c 1c 1d f7 3b 2c c7 5b 3c 66 d1 23 bd
       0.019172633 0.007541312 0.0134141855 -0.03999462
0003a0 c6 3f 14 bb b0 d6 13 3c 83 1d 8f bd 2a 53 8b 3d
       -0.002262102 0.009023353 -0.06988051 0.06802972
0003b0 f6 cb 64 bb 2a b0 08 bd 6a 44 26 bd e6 46 e9 bc
       -0.003491161 -0.03337113 -0.04059259 -0.02847619
0003c0 5b 6c 33 bb e0 7a 31 bd 23 ea c4 bc a1 1e 37 3d
       -0.0027377817 -0.043330073 -0.024037426 0.044706944
0003d0 27 ad 67 3d 4e cf fc 3c c9 00 c0 bd 15 47 93 b9
       0.056561615 0.03086057 -0.0937515 -0.00028090985
0003e0 ee 15 40 3d 5e de dd 3c 34 47 30 3d 04 ec bb ba
       0.046895914 0.027083572 0.043036655 -0.0014337306
0003f0 1a c1 3b bd a9 f4 a1 bc 9b 7e c6 3d 3b 48 5b bd
       -0.045838453 -0.019769983 0.09692117 -0.05353568

network_body._body_endoder.seq_layers.0.weight f4 [64, 132]
000000 47 1d 6a bd 74 3d c1 bc b8 7c 82 3d 90 db e4 bd
       -0.057156827 -0.023588873 0.063714445 -0.11174691
000010 3f aa cd 3c 90 c0 e8 bc dd a4 57 bd 6c 0b aa 3d
       0.025105594 -0.028412133 -0.05264746 0.0830296
000020 13 b7 20 3b c8 dd 05 3d dd 08 88 3c e2 dc 84 bd
       0.0024523183 0.03268221 0.016605789 -0.064874426
000030 b0 b1 21 3d d8 f1 ac bb f8 b6 53 bd ed 37 6a 3c
       0.039476097 -0.0052778535 -0.051688164 0.01429556
000040 9d 0b f3 3d d9 8e ac bd 90 90 56 bd e3 58 e0 3c
       0.118674494 -0.084256835 -0.05238396 0.027386134
000050 ef 6f c2 bd a5 6a c5 bd 7a 8c 57 bd 2b 24 15 bd
       -0.09494006 -0.096394815 -0.052624203 -0.036411446
000060 be 4c df 3d 88 7e f2 3d f8 09 b3 bd 55 82 8c bd
       0.10903309 0.1184054 -0.08742136 -0.06860796
000070 81 72 a0 be 7a 76 e2 3d 08 43 6a bb d9 d5 55 3d
       -0.3133736 0.11057754 -0.003574552 0.052205894
000080 ac 4f 06 be 93 eb f7 bd 1a 47 be bd 93 5d d8 3c
       -0.1311633 -0.12105479 -0.09290905 0.026411807
000090 97 bc 40 bd 4c c9 f8 3c 7a 74 a2 3b d7 ce a6 bd
       -0.047054853 0.030369423 0.0049577327 -0.0814492
0000a0 24 7a 1d 3d 53 d3 1b 3d 50 d8 24 3d 3a 0a a4 bc
       0.03844656 0.03804333 0.040245354 -0.020024408
0000b0 fc fc e3 3c 70 2a ce 3c 9d e9 df 3d 61 29 3c 3d
       0.027830593 0.02516672 0.1093323 0.0459379
0000c0 47 68 89 bd 59 2e 41 bd ca e2 15 be 2e 06 0e be
       -0.067093424 -0.04716334 -0.14637294 -0.13869545
0000d0 d7 80 d4 bc 5a 17 c8 bd 78 15 03 3e ee c9 a5 bb
       -0.025940342 -0.09770079 0.12801158 -0.0050594723
0000e0 00 bd d9 bc 48 6c e2 3c 5c d0 b2 bd 4f af dd bd
       -0.02657938 0.027639523 -0.08731148 -0.10824453
0000f0 d5 d1 ad bd 44 53 65 bc c6 7f 31 be c8 43 9b bd
       -0.08487288 -0.013996903 -0.17333898 -0.075812876
000100 e9 f2 d9 3d 09 3a e8 bd fa 70 eb bd cb 39 9a bb
       0.106420346 -0.11339194 -0.11496158 -0.0047065965
000110 a4 a0 99 3b f3 d5 03 3d 18 20 dc bc 90 ae 15 3e
       0.0046883393 0.03218646 -0.026870772 0.14617372
000120 d4 d9 7b 3d 4a 57 a7 bc 46 5c b8 bd d7 d3 9c 3d
       0.061487034 -0.020427365 -0.09001975 0.07657593
000130 ee 4f c2 3c 28 7c 1f 3c 2c d1 21 be f0 00 65 3c
       0.023719754 0.009734191 -0.15802449 0.013977274
000140 a5 8b 00 bc b4 d6 9b bc 59 c3 3c be f4 05 96 3d
       -0.007845794 -0.019023277 -0.18433894 0.07325354
000150 74 d0 31 be cd 41 2d 3e 4b 5b b2 bd 2d 50 2c bd
       -0.17364675 0.16919632 -0.08708819 -0.04206865
000160 66 c1 9d 3d 6f 89 62 be c3 18 d9 3d b0 09 91 3a
       0.077029034 -0.2212274 0.10600426 0.0011065509
000170 d3 fe b1 3d 5c f3 01 3e 42 7e 39 3e 99 a3 6a 3c
       0.08691182 0.1269049 0.1811457 0.014321231
000180 6b 75 3e be 9d a1 d6 39 f2 d1 c4 3d 33 95 88 bd
       -0.18599479 0.00040937672 0.096103564 -0.066690825
000190 9c 82 93 3d e4 75 1a 3e e3 9d bf 3d 37 08 64 3b
       0.07202646 0.15084034 0.093562864 0.0034794935
0001a0 68 b3 a7 bd 85 77 84 bd 02 88 b7 3c 02 e5 81 3e
       -0.08188516 -0.06468109 0.02240372 0.25370032
0001b0 0a a9 08 be 6b f2 06 be b2 82 16 3e 3f db 4c 3e
       -0.13345733 -0.13178413 0.14698294 0.20005511
0001c0 a1 d9 37 bd ec 96 9f bd c8 d2 c3 3d 46 d9 9b 3d
       -0.04488528 -0.07792458 0.09561688 0.07609801
0001d0 7e d2 3c bd dd db 25 3c 01 4c d4 bd 9f 72 cf bc
       -0.04609918 0.01012322 -0.10366059 -0.02532321
0001e0 55 09 cf 3d 64 51 fb 3d fa f9 47 3d 80 6a e9 3c
       0.10109202 0.122713834 0.04882238 0.028493166
0001f0 be da 08 3d 34 4c 05 3e 52 d3 93 3d 9a cf dc 3c
       0.033411734 0.1301735 0.072180405 0.02695446
000200 f7 db 15 3e 6e 3c a8 3d 0d 2c 86 bd 24 56 87 bc
       0.14634691 0.08214651 -0.06551371 -0.016520567
000210 83 d4 f8 3c 65 3a 0d 3e 98 d1 b7 bc d0 1e 1c 3c
       0.030374771 0.13791807 -0.02243881 0.009528831
000220 5f ab 0e 3e 0a a9 bd bd f6 05 58 be 39 b1 49 3d
       0.1393256 -0.09260757 -0.21096024 0.04924128
000230 2f 83 dd bc 4a 25 13 be c4 b5 aa 3d 0b 40 95 bd
       -0.027040092 -0.14369693 0.0833545 -0.07287606
000240 d3 ae ed bd 16 4a 67 3d 7d 6d ca bd 24 56 00 3e
       -0.11605611 0.05646714 -0.098841645 0.1253286
000250 76 1e 8b 3d 0f ae 18 be 8e 0f 99 bd 6f 7c 7a bc
       0.06792919 -0.14910148 -0.0747367 -0.015288456
000260 a5 ac 78 3e d8 09 f0 3c f8 be 06 3e 46 80 0c 3e
       0.24284609 0.029301569 0.13158786 0.13720807
000270 1b 65 b4 3d 6a 6a 48 3d 8a 76 78 3d 37 f6 b2 3d
       0.08808347 0.04892961 0.060659923 0.08738368
000280 89 27 8a bb 57 51 0a 3d 98 e2 ba 3d 34 6b 4e 3c
       -0.0042161387 0.033768978 0.091252506 0.012598801
000290 32 30 91 bd a6 bd 42 bd 79 34 a9 bc 0f b4 89 bd
       -0.07089271 -0.047544144 -0.020654904 -0.067237966
0002a0 72 5a 31 3d ac 3e a8 bd 6b ab 3d bd 07 20 ab 3c
       0.043299146 -0.08215079 -0.046306055 0.020889295
0002b0 89 02 29 3e 12 dd ab bc f0 ec 2d be d9 86 0d 3d
       0.16504873 -0.020979438 -0.16984916 0.03455243
0002c0 9f d3 9c 3b 87 81 c7 3d 81 70 c1 bd b6 5f 75 3d
       0.0047859694 0.09741502 -0.094452865 0.05990573
0002d0 cb 09 1e be 3c 23 d0 3c 5c 63 0d bd fc f5 fc bc
       -0.15433423 0.025407426 -0.034518585 -0.030879013
0002e0 84 79 9f 3d ee ec 29 3e 20 53 01 3d 28 ce 3d 3e
       0.07786849 0.16594288 0.031573415 0.18535674
0002f0 84 6c 90 bd f5 b0 01 be 7e 52 ba 3d d8 cc 41 3c
       -0.07051948 -0.1266516 0.090977654 0.011828624
000300 48 11 3f 3c 64 de 75 be c6 6e 59 3d 0f 64 46 bd
       0.011661835 -0.24010617 0.053084157 -0.048435267
000310 78 66 98 bd 01 55 67 bd ee 14 0b 3e 54 94 b9 3c
       -0.07441419 -0.05647755 0.13582203 0.022653736
000320 3c 57 a6 bd 8c ec 0f 3e f6 97 08 3e 0c 78 60 bd
       -0.081221074 0.14055079 0.13339218 -0.054801986
000330 fa bf 1f be 0c 4b 3f 3d 93 b5 ac bb 06 60 01 bd
       -0.15600577 0.04670243 -0.005270669 -0.031585716
000340 8d 3e 80 3d 30 fa 4c be 2f aa 0f bd 2c 9a 73 3c
       0.062619306 -0.20017314 -0.03507441 0.0148683
000350 3b dd 7f be bb df 19 3d 3a d0 45 bd 2c f7 4d 3d
       -0.24986736 0.03756688 -0.048294283 0.05028455
000360 75 24 8b 3d ff 7f cc 3d 46 ed db 3c 84 43 25 bd
       0.06794063 0.09985351 0.02684654 -0.04034759
000370 8a 96 15 3d 3a 91 aa bd 80 7f 9f 3d b9 15 af 3d
       0.03652052 -0.08328481 0.077879906 0.08549065
000380 a3 17 c7 bc ef e6 c8 3d 13 2b 1f 3e ad de 67 3d
       -0.024303263 0.09809672 0.15543775 0.056608845
000390 f8 4d fa bc de bd 44 3c 61 b2 eb 3c 9c e8 6d 3d
       -0.030554757 0.0120081585 0.028771581 0.05808316
0003a0 c3 d6 a9 3d 8f 22 ca bc a6 ef 95 bd 8c e8 40 be
       0.08292916 -0.024674682 -0.073211 -0.1883871
0003b0 f3 4d b5 bd e8 77 a1 bb c6 aa 69 3a 52 5f 05 be
       -0.08852758 -0.004927624 0.0008913692 -0.13024643
0003c0 d8 42 77 3d db bc 1d be 6b 7b 6e bc fb 90 1c 3e
       0.06036648 -0.15404074 -0.014555792 0.1528968
0003d0 1c b2 90 3d c1 fc 43 bd ca d2 04 be 60 09 f0 bd
       0.07065222 -0.047848467 -0.12971035 -0.11720538
0003e0 6c ec 26 3d f9 8c de 3d b5 e3 1d 3d f9 88 9a 3d
       0.040752813 0.10866732 0.038547236 0.07545657
0003f0 23 5a 87 3d a8 c2 13 be 48 40 99 3c e4 56 02 bc
       0.06608989 -0.14429724 0.01870741 -0.007955287

network_body._body_endoder.seq_layers.0.bias f4 [64]
000000 00 00 00 00 00 00 00 00 00 00 00 00 00 00 00 00
       0.0 0.0 0.0 0.0
000010 00 00 00 00 00 00 00 00 00 00 00 00 00 00 00 00
       0.0 0.0 0.0 0.0
000020 00 00 00 00 00 00 00 00 00 00 00 00 00 00 00 00
       0.0 0.0 0.0 0.0
000030 00 00 00 00 00 00 00 00 00 00 00 00 00 00 00 00
       0.0 0.0 0.0 0.0
000040 00 00 00 00 00 00 00 00 00 00 00 00 00 00 00 00
       0.0 0.0 0.0 0.0
000050 00 00 00 00 00 00 00 00 00 00 00 00 00 00 00 00
       0.0 0.0 0.0 0.0
000060 00 00 00 00 00 00 00 00 00 00 00 00 00 00 00 00
       0.0 0.0 0.0 0.0
000070 00 00 00 00 00 00 00 00 00 00 00 00 00 00 00 00
       0.0 0.0 0.0 0.0
000080 00 00 00 00 00 00 00 00 00 00 00 00 00 00 00 00
       0.0 0.0 0.0 0.0
000090 00 00 00 00 00 00 00 00 00 00 00 00 00 00 00 00
       0.0 0.0 0.0 0.0
0000a0 00 00 00 00 00 00 00 00 00 00 00 00 00 00 00 00
       0.0 0.0 0.0 0.0
0000b0 00 00 00 00 00 00 00 00 00 00 00 00 00 00 00 00
       0.0 0.0 0.0 0.0
0000c0 00 00 00 00 00 00 00 00 00 00 00 00 00 00 00 00
       0.0 0.0 0.0 0.0
0000d0 00 00 00 00 00 00 00 00 00 00 00 00 00 00 00 00
       0.0 0.0 0.0 0.0
0000e0 00 00 00 00 00 00 00 00 00 00 00 00 00 00 00 00
       0.0 0.0 0.0 0.0
0000f0 00 00 00 00 00 00 00 00 00 00 00 00 00 00 00 00
       0.0 0.0 0.0 0.0

network_body._body_endoder.seq_layers.2.weight f4 [64, 64]
000000 93 10 fc bd f2 1e 30 bd 5a 15 0f 3e d2 a9 97 3d
       -0.12307849 -0.04299826 0.13972989 0.074054375
000010 46 8c 12 be bf 28 96 3d 86 14 1c be d3 1a 2c 3e
       -0.14311323 0.073319905 -0.15242204 0.16807108
000020 11 fa 4e 3e da ca c4 bd 80 33 b6 3d 66 b2 f7 bd
       0.2021258 -0.09609003 0.088965416 -0.12094574
000030 51 f8 95 bd b0 19 da 3d e7 64 92 3d a7 44 40 bd
       -0.07322753 0.10649431 0.07148152 -0.046940472
000040 13 77 07 be 01 3b a2 bd 7c 38 e5 bd eb d0 29 3e
       -0.13229017 -0.0792141 -0.11192414 0.16583602
000050 9a de 96 3d 08 d0 24 be 92 34 0c be 40 db 5b bd
       0.07366677 -0.16094983 -0.13691929 -0.05367589
000060 6e f1 2f 3e cc 5d d3 3d 72 e0 37 bc 70 7e a7 ba
       0.17181942 0.10320625 -0.0112229455 -0.001277877
000070 33 60 a7 3c 96 8c 9b bd e2 d7 bb 3d f2 ce 2c be
       0.020431614 -0.07595174 0.09172036 -0.16875818
000080 bb 68 cb bc 52 ac 14 3e 54 5f 09 bd cf 22 56 3e
       -0.024830213 0.1451886 -0.033538178 0.20911716
000090 fb 6c 42 be 80 f0 b9 bd 2b 24 22 3e 58 68 c3 3d
       -0.18986885 -0.09079075 0.1583411 0.09541386
0000a0 7b 33 b4 be fe 8c b7 be df 5e 63 bd f4 78 bf bd
       -0.35195526 -0.35849756 -0.055510398 -0.09349242
0000b0 f8 35 ba 3d 9e ce 88 bc 79 29 1d be 49 3f dd 3d
       0.09092325 -0.016700085 -0.15347852 0.10803086
0000c0 1d 8a 00 be 78 70 c5 3e 87 25 3f be e3 6d 82 bd
       -0.12552686 0.3856237 -0.1866666 -0.063686155
0000d0 bc aa 5f be fb 12 1c 3e 4a 12 03 bd 5b 85 64 3c
       -0.21842474 0.15241615 -0.031999864 0.01394781
0000e0 11 69 1c 3d e3 dc e6 3a 95 e6 1a 3e d5 5e d2 3d
       0.038186137 0.0017613437 0.15127023 0.10271994
0000f0 27 40 17 3e 76 98 43 bc 07 eb f5 bd a3 c4 0c bd
       0.14770566 -0.011938205 -0.120077185 -0.034367215
000100 3b bf 0d 3d a0 73 cd 3d 56 9e da bd 00 1d 59 be
       0.0346062 0.10031819 -0.106747314 -0.21202469
000110 61 e5 53 bd 9c 23 00 3d 3b 7e a0 3d 46 6f 47 be
       -0.051732425 0.03128396 0.078365766 -0.19476041
000120 8a 9f 67 bd c1 71 12 be ad eb 82 ba b7 95 f2 3d
       -0.056548633 -0.14301206 -0.000998845 0.11844962
000130 7b 97 3c be a6 40 c1 3c 55 83 f5 3a 4a 02 db bc
       -0.1841716 0.023590397 0.0018731157 -0.02673449
000140 2a 52 55 bd cd 5b 57 ba 28 ee b2 bc 7c 59 f3 bb
       -0.05208031 -0.00082152785 -0.021842077 -0.007426439
000150 27 ff 8f bd e8 0f 88 3d 4e e4 93 bc 49 27 2d be
       -0.07031088 0.06643659 -0.0180532 -0.16909517
000160 4d 81 95 bd 96 41 b2 3d f9 d4 0e 3d 81 01 98 bd
       -0.07300053 0.08703916 0.034871075 -0.07422162
000170 3b 9a 5d 3d 61 cc 32 bc 3b a4 c9 3d 6c 0c 3f 3d
       0.054102164 -0.010912986 0.098457776 0.046642706
000180 c2 d7 31 3e 84 71 02 be 67 63 e0 bc 3b 86 87 bc
       0.17367461 -0.12738615 -0.027391149 -0.016543498
000190 81 3a c7 bd 29 c1 aa bc cd e5 a9 bc d8 a9 db bd
       -0.097279556 -0.020844059 -0.02073946 -0.107257545
0001a0 cf 24 c9 3d e4 53 d2 bd 6e 77 bf bd ee 3a 60 be
       0.09821474 -0.10269907 -0.09348951 -0.2189748
0001b0 ad dd 40 bb 79 3e 05 be e3 5b 08 bd 9c 67 11 3e
       -0.0029429004 -0.13012113 -0.033290755 0.1419968
0001c0 76 9a 65 3d 97 d8 49 3e 09 97 60 3e e5 d0 8c 3d
       0.05605551 0.19711529 0.21932615 0.06875781
0001d0 53 87 b4 3b 6d 6b b8 3e 19 11 6e bd db 54 05 3e
       0.005509296 0.3601946 -0.058121774 0.13020651
0001e0 ac 6e 02 be 47 6e c6 3d 1f c4 23 3e 97 b4 dc bd
       -0.1273753 0.096890025 0.15992783 -0.10776632
0001f0 69 64 4f be 07 25 62 3c 1f 23 4e 3d 12 40 84 3d
       -0.20253147 0.013802773 0.050326463 0.06457533
000200 ce 6e 4a be 8c fa 35 3e 92 8e 54 3e 4f 58 26 3e
       -0.19768831 0.17771357 0.20757511 0.16244625
000210 d6 8d 7d 3d 77 d2 1d 3c 8f 55 aa bd fc 5d f5 bd
       0.061902843 0.009632698 -0.083171 -0.11980817
000220 7c 65 2a 3c 08 bc 16 3e b8 ae a9 3d 64 88 f5 bd
       0.010400172 0.14720166 0.08285278 -0.11988905
000230 c2 33 ad bb 10 7e 84 3c d9 8d a0 bd 59 fb 23 be
       -0.005285711 0.016173393 -0.07839555 -0.1601385
000240 d5 8b 30 bd 98 51 28 bd 93 be 82 3d c5 2e c4 bd
       -0.043102104 -0.04109344 0.063840054 -0.09579233
000250 14 80 99 be 5c 23 c7 ba a0 3a 62 bd 66 af 15 3e
       -0.29980528 -0.0015193033 -0.05523169 0.1461769
000260 b2 8b d4 bd 77 e0 c4 3d 62 15 a7 3c 85 d4 c7 bd
       -0.10378207 0.09613126 0.020395938 -0.09757332
000270 9a b2 06 be e7 1b 32 be cd 7f 87 3e f7 76 57 bd
       -0.13154069 -0.17393456 0.26464692 -0.052603688
000280 8e 30 32 3d b5 19 8e 3b 29 b6 8f bc ed f5 1b 3e
       0.043503337 0.0043365606 -0.017542915 0.15230532
000290 12 ed 2c bd 97 32 8d 3d 48 58 a3 3b dc e8 02 3e
       -0.042218275 0.06894415 0.004984889 0.12784141
0002a0 f3 66 a7 bd 83 b0 bd 3c 43 18 bd bb b4 f0 2a bd
       -0.08173933 0.023155456 -0.0057707145 -0.04173346
0002b0 18 c9 67 3d fd 08 1a bd 33 9f 59 3e 12 c6 97 3d
       0.056588262 -0.03760623 0.21252136 0.07410826
0002c0 33 0b 08 3d 2b a8 3f be d8 66 9e bd c3 f4 fa 3d
       0.033213805 -0.18716495 -0.0773446 0.12253716
0002d0 06 74 6f bd da 07 62 3d ec 5e 9b 3d be c5 63 bc
       -0.058460258 0.05518327 0.07586464 -0.013902126
0002e0 b0 c1 ab 3e 30 9d 32 be ed 11 6b 3d 09 09 36 be
       0.3354621 -0.17442775 0.057390142 -0.17776884
0002f0 67 75 cd bd dd fa 93 bc cb 6e af bc 56 c5 36 bd
       -0.10032158 -0.018063957 -0.021415135 -0.044621788
000300 98 4c b4 bd 54 19 1d be 17 2f e7 bc 99 16 11 be
       -0.088036716 -0.15341693 -0.028220696 -0.14168777
000310 cc e3 8e be 61 03 df 3d 0c af f0 3c 0e 8e e1 3d
       -0.2790817 0.10889316 0.029380344 0.11013423
000320 18 b0 a7 bd e2 8a 06 be 0c f5 1b 3e cc f7 d1 3d
       -0.08187884 -0.13138917 0.15230197 0.10252342
000330 84 58 5b bd 98 9b 7a bc 72 09 22 3d dd eb 26 be
       -0.053551212 -0.0152958855 0.03955979 -0.16300912
000340 e6 a0 df bd e9 35 30 3d 07 e3 72 bd 38 e5 5c be
       -0.10919361 0.043020163 -0.05929854 -0.21571815
000350 41 9a 13 be 81 9a 37 3e f0 7a d5 3d 66 fe 38 3e
       -0.14414312 0.17930032 0.10423839 0.18065795
000360 f1 c5 d6 bd 89 fc 10 be 9d 96 43 bd ed 1d 2c 3e
       -0.10486973 -0.14158835 -0.047751058 0.16808291
000370 1d 27 00 bd de 8e 06 be b4 03 63 3d 44 9e 8d 3d
       -0.0312873 -0.13140437 0.055423453 0.069149524
000380 05 f4 6f 3c b2 8a 37 3d 15 53 c4 3c 6f 40 81 3d
       0.014645581 0.044810005 0.023965398 0.06311118
000390 22 92 f1 bd 7a 31 02 3e 4d 11 f9 bd 56 ea 4b 3e
       -0.11795451 0.12714186 -0.12161503 0.19913611
0003a0 dc a2 ce bc 59 9f c9 3a 0a 1f ac bd 8a 36 c1 3c
       -0.025224142 0.0015382572 -0.08404358 0.023585577
0003b0 2e 69 d2 3d cc 0e 03 3e 30 41 ef bc a3 51 18 3e
       0.10273968 0.12798613 -0.029205889 0.14874892
0003c0 67 b6 83 bd ff 80 ff bc 44 1c 8e bc 7f d4 40 3e
       -0.06431275 -0.03118944 -0.017347462 0.18831061
0003d0 40 d5 b2 3d 0b 56 89 3e 20 28 16 be c2 2c 20 3e
       0.087320805 0.26823458 -0.14663744 0.15642074
0003e0 be 7f 50 3e f5 bb 9b bc e3 46 3f bd 04 c2 58 3d
       0.2036123 -0.019010523 -0.046698462 0.052919403
0003f0 5b eb d2 bc 3e 70 cc bb c1 c4 01 bc 65 d8 a6 3c
       -0.025746992 -0.0062389662 -0.007920445 0.020366857

action_model._discrete_distribution.branches.0.weight f4 [11, 64]
000000 9d 26 05 3c 9d d3 31 3b d7 a0 d0 bb a1 db 11 ba
       0.008126882 0.0027134188 -0.00636683 -0.00055640383
000010 9b ec a7 bb 56 f5 09 3d a8 c5 1f bd 56 f3 ae bb
       -0.005124641 0.033681236 -0.03900686 -0.0053390665
000020 0b 2b 50 ba 4c 68 25 bc cb d2 65 3c 58 94 3c ba
       -0.0007940984 -0.010095667 0.014027308 -0.0007193736
000030 f7 f4 71 bc e6 5d a5 bc bf 93 2d bc ad 57 94 bb
       -0.014767877 -0.020186376 -0.010594307 -0.0045270533
000040 12 6d d6 ba 2b 82 be bc bf cf ad bc 0b d6 8a 3b
       -0.001635941 -0.023255428 -0.021217225 0.0042369417
000050 d5 2f 8d bc 35 16 5f 3c d3 1b 14 3b 4a 77 c3 3b
       -0.017234722 0.013616134 0.0022599592 0.005965148
000060 3c fc 9e 3b 7b e0 e2 3b 95 c7 bb bc f8 88 07 bc
       0.004851846 0.006923733 -0.022922317 -0.008272402
000070 54 03 2b bc 6d 45 0e bc 18 39 31 bc 4b 7b 37 3c
       -0.010437805 -0.008683545 -0.010816835 0.011198829
000080 ed 01 3b ba a8 d9 54 3c 81 bb 90 bc 3b 8a 53 bc
       -0.0007133771 0.012991346 -0.017667534 -0.012911375
000090 55 ec b3 bb ab f5 0d bb 95 13 82 bb db 55 5b 3c
       -0.0054908195 -0.0021661322 -0.0039696195 0.013387169
0000a0 eb 9c 3e bc 8f 1f 89 3c 0b fb 6a bc 03 ae 56 3c
       -0.011634092 0.016738681 -0.01434208 0.013103011
0000b0 bd c3 25 3c 1b 67 fb bb 10 80 d8 3b 0f 26 79 ba
       0.010117468 -0.0076722032 0.006607063 -0.00095042674
0000c0 0f 70 f5 3a 27 69 17 3c 78 7b 3f bc bd 42 88 bc
       0.0018725413 0.009241379 -0.011687152 -0.016633386
0000d0 9c 63 c1 3c 17 ee ac 3c 57 70 be 3c 9b 57 e9 3b
       0.023607068 0.021109624 0.023246927 0.007121039
0000e0 3b 2e 19 3c ae 6f 9d bc 57 29 97 bb 02 41 bc bb
       0.009349401 -0.019218292 -0.0046130824 -0.005745054
0000f0 2d 77 f5 3c 18 c9 f2 bb 22 84 8b bc a2 9e 4a ba
       0.029964054 -0.007409226 -0.01703078 -0.00077293266
000100 83 cb e7 3b ba e6 92 bb 15 51 df bc 10 1d 67 3c
       0.007073821 -0.004483071 -0.027260343 0.01410605
000110 20 0d 9d 3c 85 19 28 ba 90 60 9c bc ef ba 0a 3a
       0.019171298 -0.0006412494 -0.019089013 0.00052921375
000120 75 ac 95 3c 4f ad 2c bc ab ee b3 3b b0 a4 1c bb
       0.01827071 -0.010539367 0.005491098 -0.0023901872
000130 c8 e7 fa bb c0 4e 70 bc 7a 60 0d 3b c8 b5 7e bc
       -0.007657025 -0.014667213 0.0021572397 -0.01554627
000140 08 5c 65 bc 10 92 33 bb d9 4f 42 39 41 70 44 bc
       -0.013998993 -0.0027400292 0.00018531027 -0.011989654
000150 72 5c e9 ba 10 3b 2d 3c 8c 38 99 3b c8 14 73 3a
       -0.001780404 0.010573164 0.0046759304 0.0009272811
000160 73 3a 25 3c 33 77 02 3c a6 1e 8e bc fd ab 89 3b
       0.010084736 0.00796299 -0.017348599 0.004201411
000170 3a 15 8b 3c 3b 55 c8 3b c7 41 bd 3b 82 d9 a4 3c
       0.016977895 0.006113676 0.0057756635 0.020123247
000180 4d aa e3 bc a7 1d ca 3b e7 90 7d 3c 73 82 67 bb
       -0.027791167 0.0061680856 0.015476442 -0.0035325557
000190 d2 b2 b1 3c 30 26 ec bc a7 6f a3 3b 72 0f ae bb
       0.021691713 -0.028826803 0.004987675 -0.0053119
0001a0 8b 17 95 bb 0b dd 4f 3c 89 3b ca bb 8d 35 fe bb
       -0.0045499257 0.012686978 -0.006171648 -0.0077578486
0001b0 63 f4 83 b9 3a 7b 1b bc 2f 32 9f bb ca 50 e5 bb
       -0.0002516835 -0.009489829 -0.0048582773 -0.006998156
0001c0 e6 03 a3 bc 87 2b a0 3a 09 14 9a bb f4 9b 2e 3c
       -0.01989932 0.0012220003 -0.0047020954 0.010657299
0001d0 ed fd d5 3c 6a 67 24 bd 4d 73 bb 3c 3d 30 e2 bb
       0.026122058 -0.040137686 0.022882128 -0.006902723
0001e0 47 b2 9e bb 68 e3 ff bc 2a 13 be bb cc 8c 9c bc
       -0.0048430297 -0.031236365 -0.0058006244 -0.019110106
0001f0 d2 75 db 3b 3d 9d b4 3c cb 58 63 3b 90 eb 5e bc
       0.006697395 0.022047633 0.0034690376 -0.013605967
000200 a2 bb 9e ba 99 10 ad bc 58 13 26 bc 1e 4d 30 bc
       -0.0012110362 -0.021126078 -0.010136448 -0.010760574
000210 88 ed 75 bc ea b9 7a bc b7 d1 e1 3b 9b 45 1b 3c
       -0.015010245 -0.015303114 0.006891455 0.009477044
000220 e5 49 b4 b9 65 a9 67 3c 5b a8 b1 bb 18 f3 6f 3c
       -0.0003438733 0.014139508 -0.005421681 0.01464536
000230 9a 14 64 bb 3f 2c 13 3c 9b e5 8f 3c 99 2b 0c bb
       -0.0034802319 0.008982717 0.01756554 -0.002138829
000240 e6 25 0d 3a f1 c0 8f bc 93 b6 5a bc 87 61 23 bb
       0.00053843705 -0.017548056 -0.013349193 -0.0024929957
000250 6d fb c1 ba bc 7c 13 3c c9 b9 92 39 6a af 67 3c
       -0.0014799662 0.009001907 0.0002798571 0.014140943
000260 82 aa 1f bb 51 21 a5 bb 14 63 8a bc b0 44 27 3c
       -0.0024363105 -0.005039372 -0.016892947 0.0102092475
000270 ab 2f cd bc 6b c3 0e bc a3 61 3f 3b 93 bd 28 bb
       -0.025047144 -0.008713583 0.0029202483 -0.002574776
000280 e6 87 2d 3c 3b 5a cb 3b 9e cf 46 bc 05 45 de bb
       0.010591483 0.0062058247 -0.012134461 -0.00678313
000290 69 c2 9b 3b 9c 4c 9d 3c 45 b7 0c bc e3 f9 c9 bb
       0.0047534 0.01920157 -0.008588617 -0.006163822
0002a0 8c 0e b7 bc a2 f2 35 bb 4a 21 52 3c a9 22 b1 b9
       -0.022345804 -0.0027763029 0.01282532 -0.00033785895
0002b0 7e e1 15 3b f0 98 6f bb bc 71 ab 3b 94 2a c5 3a
       0.002287 -0.0036559664 0.005232064 0.0015042596
0002c0 3e a6 02 3c 88 57 68 bc 37 32 6b bc 15 14 5f 3c
       0.007974206 -0.014181025 -0.014355234 0.013615628
0002d0 77 d6 58 bc fa e8 5e 3c b8 9e cc 3c cb d6 8d bb
       -0.013234726 0.013605351 0.024978027 -0.004328584
0002e0 6a a6 10 3d 5d a4 a7 3c 1b f3 06 3c 3a e6 6f 3c
       0.035314955 0.020464117 0.008236672 0.014642293
0002f0 87 8e 29 3b 8b b9 30 bc c4 ba be 3b 22 a3 cb bc
       0.0025872306 -0.010786424 0.005820604 -0.024858061
000300 b6 dd 17 3b 63 2d 31 3a c3 e0 16 bc a6 a7 97 3a
       0.0023172922 0.00067587773 -0.009208861 0.0011570349
000310 1f 16 ea 3a 9e c1 31 bb 97 cd ac 3c 57 6c 77 bc
       0.0017859376 -0.0027123461 0.021094127 -0.015101514
000320 4b bc 99 bc 4c 2c c4 38 78 56 1c ba 2a d1 80 bc
       -0.018766543 9.354259e-05 -0.00059638126 -0.015724737
000330 2f 16 10 ba d2 c4 06 bc f7 3b 0d 3c a0 3c 42 bc
       -0.00054964697 -0.008225637 0.008620254 -0.011855274
000340 47 83 40 bc 0f 79 b3 3a 25 19 45 bb de cf 8c bc
       -0.011750049 0.0013692694 -0.0030074802 -0.017188963
000350 b3 12 09 3c 27 d2 56 bc 74 7c 92 39 38 a7 16 3c
       0.008366275 -0.013111628 0.00027940015 0.0091951415
000360 52 52 f9 bb 08 5e 29 bb 07 58 fb 3c 55 d7 91 3b
       -0.0076086903 -0.00258434 0.030681623 0.0044507184
000370 e3 e0 6f 3c 86 55 aa bb f7 e1 96 3b 51 91 08 3c
       0.0146410195 -0.0051981835 0.004604574 0.008335427
000380 c5 74 32 3c c5 73 93 bc ad f5 52 3b 63 54 9c bc
       0.010892098 -0.01799954 0.0032189891 -0.019083207
000390 e4 30 07 bc 4e f4 9d 3c 0a de 81 3c a3 0d 38 3c
       -0.0082514025 0.019281533 0.015852947 0.01123372
0003a0 75 27 e6 3b 37 6d d3 3c 73 1a 8f 3c cf 49 83 3b
       0.0070237466 0.025808914 0.017468667 0.0040066014
0003b0 ae 2e 0b 3c 3f f5 8f 3c 37 d6 9a bc 6f a2 82 3a
       0.008495016 0.017572997 -0.018900974 0.0009966622
0003c0 a7 62 4b bc e4 85 bc 3c 32 9c 9e bc ba b9 6e ba
       -0.012413657 0.023013063 -0.01936159 -0.0009106655
0003d0 74 15 45 bb e7 d3 05 3b b4 48 cb bb c9 12 c4 bc
       -0.0030072602 0.0020420493 -0.0062037352 -0.023934739
0003e0 6a 43 4d 3c 4b ae 34 bb 7b 8d 96 bb 7d c9 81 bc
       0.01252828 -0.0027569707 -0.0045945025 -0.015843147
0003f0 40 4d 27 bc 2b 9b bf 3b f3 de a5 3b fb f3 5c bc
       -0.010211289 0.005847355 0.005061978 -0.013485904

action_model._discrete_distribution.branches.0.bias f4 [11]
000000 00 00 00 00 00 00 00 00 00 00 00 00 00 00 00 00
       0.0 0.0 0.0 0.0
000010 00 00 00 00 00 00 00 00 00 00 00 00 00 00 00 00
       0.0 0.0 0.0 0.0
000020 00 00 00 00 00 00 00 00 00 00 00 00
       0.0 0.0 0.0

onnx::Div_185 f4 [4]
000000 af 3a 26 3e d3 c0 26 3e 53 24 ae 3c e6 33 07 40
       0.16233324 0.16284494 0.021257555 2.1125426

onnx::MatMul_188 f4 [129, 128]
000000 aa 39 56 bd 33 28 a3 bd ee 1c 11 3d 35 5d 2a 3d
       -0.052301086 -0.07966652 0.03542798 0.041592795
000010 2c 73 de bc f5 b6 d5 3c 2c 77 9c 3c 27 b1 4a 3b
       -0.027154528 0.026088217 0.019099794 0.0030928345
000020 56 41 e5 bb 7e d6 9b 3c 66 2b 04 3d 4a f2 d7 bc
       -0.006996314 0.019023176 0.03226795 -0.02636065
000030 07 e2 e6 bc 78 13 43 bd 04 d6 72 bc 3d a4 c4 bb
       -0.02818395 -0.04762599 -0.014821533 -0.006001024
000040 1f b6 58 bc ad 70 d0 3a 6a 8c ef 3b ad cd 68 bd
       -0.013227015 0.0015902721 0.00731044 -0.056836773
000050 09 2c 2c 3d 13 cd cc 3c 8a 31 27 3d ef 1c bf 3c
       0.042034183 0.02500013 0.04081873 0.023329226
000060 48 fb 90 3c dc 54 92 b9 84 75 dc 3a 9d 18 6c ba
       0.017697945 -0.00027910515 0.001681969 -0.0009006353
000070 74 10 95 3c 82 1f 52 bc fe 6e 22 bc 1f ce bc bb
       0.018196322 -0.012824895 -0.009914158 -0.0057618762
000080 b4 21 42 bd fe eb 02 bd 13 82 d3 3c f6 a2 88 3b
       -0.047395423 -0.03196334 0.02581886 0.004169817
000090 41 dd e7 bc e3 f5 3b bd d9 09 87 3c 29 a1 a8 bc
       -0.028303744 -0.045888793 0.016484188 -0.02058466
0000a0 18 9c e6 3c cf 31 1c bc 05 29 a2 3c b4 4f 7c 3c
       0.028150603 -0.00953336 0.01979495 0.015399862
0000b0 c8 75 00 bd e3 f2 8c 3c b8 39 7c 3c 33 1f 6a bc
       -0.031362325 0.017205661 0.015394621 -0.014289665
0000c0 b6 46 37 3c 57 87 ce bc e0 44 3b 3c 37 cd 61 3c
       0.011186292 -0.02521102 0.011429995 0.013781837
0000d0 01 3a 37 bd fd 0e f4 bc d4 a5 29 3d 17 81 20 bc
       -0.04473305 -0.029792303 0.04141791 -0.009796402
0000e0 bc 63 08 bd c4 2f bb 3c a1 f7 60 bd 00 e5 89 bc
       -0.03329824 0.022849925 -0.054923657 -0.016832829
0000f0 92 75 32 3d bd 50 02 bc 68 9a 50 3d 0f 5e f2 bc
       0.043569155 -0.00795382 0.050928503 -0.029585866
000100 d6 25 77 3d 88 b0 85 3c a7 d4 55 bd fa 89 e3 3c
       0.060338818 0.016319528 -0.052204754 0.027775753
000110 38 4e 9a 3c a6 25 4b bd e3 4a 89 3b 6f 43 93 3c
       0.018836126 -0.04959645 0.0041898354 0.01797649
000120 c9 dc 20 bd ed 9d 8b bd 01 1b 91 3a 2c de 7b bc
       -0.039273057 -0.06817231 0.001107067 -0.015372794
000130 a4 fc 49 bc 87 be 03 3d d9 fe 80 3d ff 18 a0 bc
       -0.012328301 0.032164123 0.06298608 -0.019543169
000140 4b 4a 72 3c 08 ed 89 3a 89 c0 2b 3c 31 28 cb bc
       0.014788221 0.0010522911 0.010482916 -0.024799438
000150 13 7b e6 3c ff ac 3d bb 57 7d 59 3d f8 97 0b 3b
       0.028134858 -0.0028942225 0.05309805 0.0021300297
000160 fa 4c e0 3b af 8f d2 3c 78 d0 b0 bc 24 b8 a7 3c
       0.006845114 0.02570328 -0.02158378 0.020473547
000170 e1 d1 45 3c 54 13 d6 bc c2 2a 1a bd 3e 09 e9 bb
       0.012073965 -0.026132263 -0.037638433 -0.0071116975
000180 35 ff ef bc d3 77 50 bb a7 6d 76 bd 8d 8d 96 3c
       -0.029296497 -0.0031809702 -0.060163166 0.018378044
000190 11 6f 0f 3a da b4 b6 3b b4 c4 16 bd 89 23 23 3d
       0.0005471567 0.0055757584 -0.036808684 0.03982881
0001a0 b5 cf 11 bd e2 65 9b 3c eb bf 15 bd dc 13 29 bc
       -0.035598475 0.01896948 -0.03655998 -0.010319676
0001b0 b5 5a 46 3c f5 5a 1d bb 8f 89 10 bb 77 2e 54 bd
       0.012106587 -0.0024010513 -0.0022054648 -0.051802125
0001c0 8c ce 11 bb e2 6a 17 bc 95 37 3d bc 73 c4 5c 3d
       -0.0022248356 -0.009241791 -0.011548896 0.053898286
0001d0 6b 23 c7 3c b3 e5 81 bc 10 00 c9 3c 96 6d 0c 3c
       0.02430888 -0.0158566 0.024536163 0.008571049
0001e0 65 15 7e bc ee 30 10 3c 38 44 d6 3c f9 24 21 3b
       -0.015508031 0.008800728 0.026155576 0.0024588688
0001f0 eb 1f 03 3b 1a 55 a3 3c 89 9e 1c 3d ba cd 35 bd
       0.0020008038 0.01993804 0.03823713 -0.04438565
000200 2f 4a 30 3d e0 e2 30 ba e7 ad 07 3d 7c 1b 1f bc
       0.043039497 -0.0006747674 0.03312483 -0.009711143
000210 3c db d9 3c bd 11 15 3d a7 09 0c 3b 73 d6 86 ba
       0.026593797 0.03639387 0.0021368058 -0.00102873
000220 4c 23 ea bc b7 5f 38 3d 61 2c ae bc 3a 93 9a 3c
       -0.028581284 0.045013156 -0.021261396 0.018869031
000230 80 b2 c1 3c fb 38 af bc a8 06 17 3c 01 01 b1 3c
       0.023644686 -0.021389475 0.009217896 0.021606924
000240 b3 50 ea bc 48 8a 90 bd b6 ff 77 bc 2e 24 8e bc
       -0.028602934 -0.07057625 -0.01513665 -0.017351236
000250 15 97 9c 3c 42 5f 36 bd 9f 05 15 3c 8d a4 10 bd
       0.01911501 -0.04452444 0.009095578 -0.035313178
000260 79 31 92 3c 1a 7f 8c 3c c2 f6 1b 3c e9 f5 f4 3c
       0.017845856 0.01715045 0.009519281 0.029902415
000270 21 9e c9 3b 44 e6 a1 3c 0b f6 f4 3b 8d e3 02 3c
       0.0061528836 0.01976312 0.0074756197 0.007988823
000280 c9 b6 0f bd 19 2e ff 3c 89 99 1d 3c ac b3 e3 bc
       -0.035086427 0.03114991 0.009619125 -0.027795635
000290 6b cf 93 ba 45 56 15 bd 50 01 34 3d 6c 66 d0 3c
       -0.0011277025 -0.036459226 0.043946564 0.025439464
0002a0 fa 5e 02 3b 48 ae cf 3b 35 05 96 bd 53 29 93 3b
       0.0019893036 0.0063379146 -0.07325212 0.00449101
0002b0 ec 9f 50 ba a3 1c 02 3d b2 0a 8e bd 1e 19 2a 3b
       -0.00079584005 0.03176559 -0.06935634 0.0025954912
0002c0 49 21 13 bd 3e d9 d6 bc 11 1d 5e 3d 53 ff 8b 3c
       -0.035920415 -0.026226636 0.05422694 0.017089522
0002d0 1d 0b 81 3c 6b 74 0c bc 25 b6 1e 3c 75 56 a5 3a
       0.01575237 -0.008572678 0.009686981 0.0012614267
0002e0 98 ca 3f bc 5b f7 02 3c 81 cf 45 3c c7 23 bb bb
       -0.011706017 0.007993544 0.012073399 -0.005711052
0002f0 2f b3 eb bc ce b5 c0 3b 73 f6 ea bc 29 08 e9 3c
       -0.028771965 0.005881048 -0.02868197 0.028446274
000300 01 a4 71 bb 34 1a a4 3c 81 6c 2c bd 31 88 59 bd
       -0.0036871436 0.020032026 -0.042095665 -0.053108398
000310 d9 6f c7 3d 4b f1 40 3c 4f 30 09 3d e0 d6 32 bc
       0.0973813 0.011776279 0.033493336 -0.010915488
000320 ae 95 38 3d d7 8f 0a 3d 61 87 48 bd 35 2b f2 3b
       0.04506462 0.033828583 -0.048957232 0.0073904046
000330 3b 02 00 bd fe bf e2 3c 37 49 52 3d b6 de f9 bb
       -0.031252127 0.02767944 0.051339354 -0.007625426
000340 1a 33 ff 3b 77 ad 85 bc af 45 d8 3c 76 98 b3 bc
       0.007788074 -0.016318066 0.026400415 -0.021923285
000350 93 06 4a 3d b4 8c 16 bd 74 2e 3f bc 0a ea 52 bd
       0.049322676 -0.03675528 -0.01166879 -0.05149273
000360 b1 cb 97 bc 37 85 87 3c 02 c4 d7 bc 69 f3 b5 3b
       -0.018529745 0.016543014 -0.026338581 0.0055526984
000370 d8 7f 1b bd 86 ae 89 3c 96 41 6e 3b ce 7f 77 3d
       -0.03796372 0.016806852 0.003635501 0.06042462
000380 19 0e b0 3c a3 b5 15 3c 44 2d 72 b9 3b e2 32 3c
       0.021491097 0.009137544 -0.00023095781 0.010918195
000390 cc 84 ce 3c f9 94 b3 3c 20 cb 6b 3c b8 60 4b bd
       0.025209807 0.021921622 0.0143916905 -0.049652785
0003a0 f4 c2 b0 3c 53 c2 13 b9 3b 18 0e 3d 50 ff 58 3c
       0.021577336 -0.00014091404 0.034691077 0.013244465
0003b0 ca 11 7c bc 94 de f9 bc d2 35 24 3b 92 05 1f bd
       -0.015385101 -0.030501641 0.0025056493 -0.03882367
0003c0 7a bd 67 3a f3 1e 3d bd cf 9b b8 3c f0 79 c7 3c
       0.0008840185 -0.046172094 0.022535233 0.024350137
0003d0 8b 24 47 bd 76 c2 3b bd ac d0 67 bd 96 1e 50 3d
       -0.048618834 -0.04583975 -0.05659549 0.05081042
0003e0 6c 2f cc 3c 4b b9 bc bc fe 14 38 3c 1a 65 98 3b
       0.024924956 -0.023037573 0.011235474 0.004650724
0003f0 35 30 65 bd 12 a5 89 3d 9e 66 0f bd bf 26 1b bc
       -0.055954177 0.06720938 -0.035009973 -0.009469687

onnx::MatMul_189 f4 [130, 128]
000000 56 8b f7 3b b4 d8 1c bc 38 9d 04 3d 13 57 39 3c
       0.007554452 -0.00957315 0.032376498 0.011312264
000010 5d dc 63 3c 21 db 15 bd dc 42 d7 bc a3 87 66 3c
       0.013907519 -0.03658593 -0.026276998 0.014070424
000020 c7 42 b1 3c e6 12 e6 3c 93 2e 77 3c 18 a5 1c 3d
       0.021638287 0.028085183 0.015086788 0.038243383
000030 0b d9 05 bc 46 af 44 3c ac eb b8 3b 48 7c a8 3c
       -0.008169423 0.012004679 0.0056433287 0.020567074
000040 42 21 2a bb 9e a2 e1 3b a8 e9 5b bb 28 ad 90 bc
       -0.0025959765 0.0068858406 -0.0033556018 -0.017660692
000050 88 12 e2 bc 78 ef fe bc bc 18 98 bc ca e9 ad bb
       -0.027596727 -0.031120047 -0.018566482 -0.005307411
000060 02 46 01 bc 06 d4 05 3d 96 ea ba bc 61 ad 4e bd
       -0.007890226 0.032672904 -0.022816937 -0.050458316
000070 a9 27 aa bb b4 a0 05 bc 5c d3 9f bd 11 c1 a1 bc
       -0.005192716 -0.00815599 -0.078039855 -0.019745382
000080 5e 52 3a 3d f5 61 f2 3b 4c 51 47 bb 19 cb 84 bd
       0.045488708 0.0073969313 -0.0030413447 -0.0648405
000090 77 f1 19 bd d4 e1 17 bd eb b7 75 3b 3c 91 03 bc
       -0.037583794 -0.0370806 0.0037493657 -0.008030232
0000a0 9c 25 c0 3c e4 c7 b8 bd 8f d6 3f 3d d0 ff 3c 3c
       0.023455434 -0.09022501 0.04683548 0.0115356
0000b0 1c 54 b1 3c a1 52 da bb 46 46 37 bd 60 e8 d1 bc
       0.021646552 -0.006662682 -0.044744752 -0.0256235
0000c0 d3 ef 29 bc 7d b1 5f 3d c3 a9 df bc e7 aa a6 bb
       -0.01037212 0.054612625 -0.027302628 -0.005086291
0000d0 0c ad 5a bc ca 65 14 bd 99 11 ae 3c 9a dc f2 3b
       -0.013346922 -0.036229886 0.021248626 0.0074115517
0000e0 7d 96 1d 3d bf b9 e5 3c 24 bb c1 bc a3 7c ca bc
       0.038473595 0.028042672 -0.023648806 -0.024717635
0000f0 8c e4 1d bb a6 08 76 3c 2c 72 88 bb 21 05 a8 3c
       -0.0024092523 0.01501671 -0.004164001 0.020510258
000100 db 41 a1 3a 33 44 e6 bc b4 d7 f7 bc f4 32 a5 3c
       0.0012302952 -0.028108692 -0.030254222 0.020165898
000110 9e c6 05 3d d1 b3 9f 3c d3 c5 64 3d b0 c7 b9 3c
       0.03266012 0.019494923 0.055852722 0.022678226
000120 bf b0 0f bd 5e 57 1e bd 56 88 07 3d 5b 10 d7 3b
       -0.035080668 -0.03865754 0.033089004 0.006563229
000130 e2 3b b5 bb 9e 8f 22 bc cb 76 00 3d bc 1b 07 3d
       -0.00553082 -0.009921936 0.03136329 0.032985434
000140 86 86 cd 3c 77 e0 07 3d 56 f0 9e ba 7a 8a 1c bd
       0.02508856 0.03317305 -0.0012126069 -0.038218
000150 5f 56 2e bb aa 7a 28 3d 12 fc 9f 3a 8c 7e 0d bb
       -0.0026601774 0.041132607 0.001220586 -0.002159032
000160 b7 4b a7 bb df 2c 84 3c 21 71 84 bb 2d 13 1c 3d
       -0.0051054615 0.016134677 -0.0040418063 0.038104225
000170 fc 59 83 3b c6 a4 35 bd 7c 50 a9 bc a6 bc f1 bb
       0.0040085297 -0.044346593 -0.02066826 -0.007377225
000180 6c 09 2f bd 4e 00 5a bd 47 c1 3c 3c 17 f7 d3 bb
       -0.042733595 -0.053222947 0.01152069 -0.0064686644
000190 ee f6 f8 bc 31 8e 81 3c 3c b1 6a bc bd 4d de 3c
       -0.030391183 0.015814872 -0.0143244825 0.027136678
0001a0 bf eb ab b8 d6 53 7a bc 66 1a 81 bd 4e d7 03 3d
       -8.1978265e-05 -0.015278777 -0.06303863 0.032187752
0001b0 cc 52 a6 bc 90 0b 90 bc 75 42 1f 3c 47 f6 b1 bc
       -0.020303153 -0.017583638 0.009720434 -0.02172388
0001c0 f8 11 23 bd 8f dd b4 bb a3 9a b4 3c e4 05 19 3d
       -0.03981206 -0.005519576 0.022046393 0.037359133
0001d0 74 40 39 3d 51 9a 3e 3d cc bd 85 3b b0 3e 46 bd
       0.045227483 0.046533886 0.0040814634 -0.048399627
0001e0 9d 00 65 bd 9e e4 ec bb 0c c7 82 bc eb f0 66 3c
       -0.055908788 -0.0072294017 -0.015964054 0.014095525
0001f0 1c 5e 52 bc a7 ed 81 3d 5f 22 6c 3c 46 d9 06 3c
       -0.01283982 0.06344157 0.014412492 0.008230513
000200 1a a5 28 bc b4 c6 7c 3c c2 47 27 bc 28 0d ef bc
       -0.0102932695 0.015428234 -0.0102099795 -0.029181078
000210 6c 2f 99 3c a7 94 8d 3b 14 dd 2f bc 2b 20 c5 3c
       0.01869937 0.0043206993 -0.0107338615 0.02406319
000220 de fc 2d bd 8e 41 00 bd 3f bf fd 3c 4d 36 40 bc
       -0.04247748 -0.031312518 0.030974982 -0.011731696
000230 88 27 05 bb ad 67 6b 3c 9f 3e 7a bd 94 1b a9 3c
       -0.0020317752 0.01436798 -0.061094876 0.020643033
000240 18 9f e9 bb 35 0e 34 bd bd 5e 12 3d 3e 35 bf 3b
       -0.007129561 -0.04395886 0.03573488 0.0058352044
000250 74 6b 85 bc 24 40 0a 3d dc 43 6b 3b f2 fc 24 bd
       -0.01628659 0.033752576 0.0035898602 -0.04028029
000260 f4 38 37 3d c5 2b 9f bd ba 84 d9 bb 48 37 ba bc
       0.04473205 -0.0777202 -0.0066381367 -0.022731438
000270 7d 6b 1e bd 41 11 be 3c bd 82 1b bd 5f 58 b0 3d
       -0.038676728 0.023201587 -0.03796648 0.086106054
000280 00 67 f1 bc 5a c8 25 3c f2 a0 96 bb 1f 6f 13 3d
       -0.02946806 0.010118568 -0.004596823 0.035994645
000290 f3 75 e5 3c ca 55 7f 3c 32 7c 7b 3c 75 21 d4 3c
       0.028010344 0.015584419 0.015349435 0.02589486
0002a0 3f 72 0f bd b1 8c 23 3c 8a 0a 89 3d 46 e9 38 bd
       -0.035021063 0.009982274 0.06691463 -0.045144342
0002b0 b5 6b 1f bc 67 9e d2 3c 07 90 bc bd ac ed 54 3d
       -0.009730269 0.025710298 -0.092071585 0.051984474
0002c0 56 77 e9 3c 65 2e 70 bc e0 15 bf bc 03 b3 0e bc
       0.028499287 -0.014659499 -0.02332586 -0.008709672
0002d0 07 03 c8 bc 6c 99 89 bc 27 e9 53 3c 20 0e 30 3d
       -0.024415506 -0.01679679 0.012934006 0.04298222
0002e0 a3 67 ce 3c 4c d3 8b 3d 91 3f e5 bc 2a c6 24 3c
       0.025195902 0.06827411 -0.027984412 0.010057012
0002f0 65 09 8b 3d 30 60 a5 3c c3 02 99 3b c9 27 6a bc
       0.06788901 0.020187467 0.0046695187 -0.014291712
000300 55 b2 51 bd 06 65 4c 3c 26 e4 56 bc 9a b8 4b 3d
       -0.05119546 0.012475258 -0.013115918 0.049736597
000310 cd 1a e7 bc 84 2a cc 3a 5b 8f 86 bd a1 07 f4 3c
       -0.028211022 0.0015576635 -0.06570312 0.029788794
000320 cd 13 3b bc 94 92 01 3d a6 06 8d bd 87 ad 36 bc
       -0.011418295 0.03163393 -0.06886034 -0.011149771
000330 ca 47 44 bb 9f fe d5 3b cd d1 2b bc ae 91 87 3b
       -0.0029950016 0.0065305973 -0.010487032 0.0041372394
000340 25 a5 e3 bb ad b4 2b bd c3 ce 35 bd 45 d3 30 bd
       -0.006947177 -0.041920353 -0.044386636 -0.043170232
000350 9b 71 e8 3b 6f 8a 40 3c c1 24 a8 bc ac c1 ac bc
       0.007093621 0.011751755 -0.020525338 -0.021088444
000360 77 c5 a0 3c ec 15 4e bc 4a 80 f4 bb 75 75 72 3c
       0.019625409 -0.012578469 -0.0074615823 0.014798512
000370 e9 7b a2 3c 0e b6 23 bd c3 23 f7 bc c3 97 d2 3c
       0.019834476 -0.039968543 -0.03016842 0.025707131
000380 73 b1 1d 3b d6 8b 06 bd 7a 07 a4 3c f4 4b 9e bc
       0.0024062067 -0.0328482 0.020023096 -0.019323327
000390 68 67 3b bb 18 2e 79 3c 1f 9b 19 3d ed d8 25 3d
       -0.002859557 0.0152087435 0.03750145 0.04049008
0003a0 6d 3e 18 3d 41 c9 42 3c 01 24 56 bc b9 e0 e7 3c
       0.03716891 0.011888803 -0.013070107 0.028305398
0003b0 c7 86 a9 3c 2b 07 ad bd c2 9f 25 bd 00 ba 83 bc
       0.02069415 -0.08448633 -0.04043556 -0.016079903
0003c0 4d 4c 43 bd b8 4d 09 bd 9e 84 0d 3d a6 69 90 bc
       -0.047680188 -0.033521384 0.0345503 -0.017628502
0003d0 ef a5 91 bb 96 57 3f bc 36 91 0d bc f0 31 9d 3c
       -0.0044448297 -0.011678597 -0.008640578 0.019188851
0003e0 29 df 41 bc 97 63 f6 3c 5c a2 39 3c 15 a6 32 bc
       -0.011832991 0.030076785 0.011330213 -0.010903855
0003f0 52 e3 b6 bc 99 e1 95 bc d2 31 7e 3c a0 be 21 bd
       -0.022325192 -0.01829605 0.015514808 -0.039488435
