results/new_test_run_1/simple_deer/simple_deer-50002.onnx (onnx, 485125 bytes, 22 tensors)

network_body.observation_encoder.processors.0.self_ent_encoder.seq_layers.0.bias f4 [128]
0	0x3b602bda	0.0034205825
1	0xbc9dc5b7	-0.019259317
2	0x3b68fa97	0.0035549754
3	0x3b92e0f7	0.0044823843
4	0xbccf4188	-0.025299802
5	0x3c22c01f	0.009933501
6	0xbc232643	-0.009957853
7	0xbcb017fc	-0.021495812
8	0x3a915514	0.0011087977
9	0x3b1dbb23	0.002406784
10	0x3cca4f78	0.024696097
11	0xbc5b6b05	-0.013392215
12	0x3ab33c89	0.0013674657
13	0xba33fbf1	-0.00068658503
14	0x3b66384f	0.0035128777
15	0xbbd950d9	-0.0066319522
16	0xbc25ce53	-0.010119992
17	0x3c29f658	0.010373674
18	0x3c037f59	0.0080259675
19	0xbc92452e	-0.017855253
20	0x3c10466a	0.0088058505
21	0xbc49b872	-0.012312042
22	0x3d1b26cd	0.0378788
23	0x3b987b4c	0.00465337
24	0xbc104572	-0.00880562
25	0x3b3c6c2f	0.0028751006
26	0xb8cb291e	-9.687453e-05
27	0xbbd2237a	-0.0064129205
28	0xbc3ec8dd	-0.011644569
29	0xba38c3cb	-0.00070482184
30	0xbb8b5acf	-0.0042527686
31	0xba87d39d	-0.0010362748
32	0x3aa72be6	0.0012754172
33	0xbcfc213a	-0.030777562
34	0x3ce75382	0.028238062
35	0xbc336381	-0.010949017
36	0x3c665037	0.014057211
37	0xbb33117b	-0.0027323652
38	0x3bacef08	0.005277518
39	0x3a7e97dc	0.000971196
40	0x3c0a564b	0.008443425
41	0xbad12a77	-0.001595809
42	0xbb877a72	-0.0041344697
43	0x3bb3b2f0	0.0054839775
44	0xbbe08e83	-0.006852926
45	0xbc8e1f8d	-0.017349029
46	0xbc964f51	-0.018348368
47	0x3c06b7ad	0.008222503
48	0x3bc888a0	0.0061198026
49	0xbc559299	-0.01303544
50	0xb9e1a358	-0.00043037045
51	0x3be2cd10	0.006921418
52	0x3c81a1a0	0.01582414
53	0x3c63b26e	0.013897521
54	0x3c974c02	0.01846886
55	0x3c009584	0.007848147
56	0x3bd86b8a	0.0066046165
57	0xbb33413d	-0.0027352117
58	0x3c4c2482	0.012459876
59	0xbc51fb95	-0.0128163295
60	0xbc9ef518	-0.01940398
61	0xba24b537	-0.00062831066
62	0x3c109964	0.008825634
63	0xbb37d09a	-0.002804792
64	0xbb8d1dfc	-0.004306553
65	0x3bb8685a	0.005627674
66	0xbbb330d5	-0.0054684677
67	0x3c4a89ac	0.012361925
68	0x3cdf0a8a	0.027226705
69	0xbc87ee09	-0.016592996
70	0xbc88360d	-0.016627336
71	0xbc550498	-0.0130015835
72	0xbc0cde0a	-0.00859786
73	0xbc477201	-0.012173177
74	0x3cabec94	0.020986833
75	0x3a47d84f	0.000762348
76	0xbc172e93	-0.009227413
77	0x3c91aadf	0.017781673
78	0xba7c41b0	-0.00096228253
79	0xbc480cbe	-0.012210069
80	0xbca7bbf2	-0.020475361
81	0xbba4a36b	-0.0050243638
82	0x3cacbe86	0.021086942
83	0xbc1743c9	-0.00923247
84	0xbb03f922	-0.0020137508
85	0xbbd81ac7	-0.006594989
86	0x3c010999	0.007875823
87	0x3becf7a4	0.0072316695
88	0xbb6f2d8f	-0.003649566
89	0xbc086a05	-0.008326058
90	0x3c531e01	0.012885571
91	0x3c71d56a	0.0147603545
92	0x3cd51f84	0.026016004
93	0x3c7677a9	0.015043178
94	0x3c2fa269	0.010719874
95	0x3c726343	0.014794174
96	0x3cef7dc0	0.029234767
97	0x3b3f2c5a	0.0029170723
98	0xbca44b7a	-0.020055521
99	0xbbd03954	-0.0063544903
100	0xbc73263a	-0.014840657
101	0xbbcb8dbb	-0.006211964
102	0x3c0eaeff	0.0087087145
103	0x3add2732	0.0016872643
104	0xbbcd1cb0	-0.0062595233
105	0x3c7b7572	0.015347825
106	0xbcb39e43	-0.021926051
107	0x3b1dc87d	0.00240758
108	0xbbbc447a	-0.0057454677
109	0xbbce7ac6	-0.006301257
110	0xbc670133	-0.014099407
111	0xbb8f38f1	-0.0043708016
112	0x3b19fdfb	0.0023497331
113	0x3bc4c883	0.006005348
114	0x3bc1195f	0.005892917
115	0x3c14bed2	0.009078698
116	0xbb904f96	-0.0044040186
117	0xbc500483	-0.012696388
118	0x3a6ef033	0.0009114772
119	0xbc8990ab	-0.016792616
120	0x3bcc9e1e	0.006244435
121	0xbc729290	-0.014805451
122	0xbcd7fa33	-0.026364421
123	0x3a4c8909	0.0007802402
124	0x3bc48fb3	0.0059985756
125	0xbb46e878	-0.0030350965
126	0xbc2430c0	-0.0100213885
127	0x3ca8bbd2	0.020597372

network_body.observation_encoder.processors.1.self_ent_encoder.seq_layers.0.bias f4 [128]
0	0x00000000	0.0
1	0x00000000	0.0
2	0x00000000	0.0
3	0x00000000	0.0
4	0x00000000	0.0
5	0x00000000	0.0
6	0x00000000	0.0
7	0x00000000	0.0
8	0x00000000	0.0
9	0x00000000	0.0
10	0x00000000	0.0
11	0x00000000	0.0
12	0x00000000	0.0
13	0x00000000	0.0
14	0x00000000	0.0
15	0x00000000	0.0
16	0x00000000	0.0
17	0x00000000	0.0
18	0x00000000	0.0
19	0x00000000	0.0
20	0x00000000	0.0
21	0x00000000	0.0
22	0x00000000	0.0
23	0x00000000	0.0
24	0x00000000	0.0
25	0x00000000	0.0
26	0x00000000	0.0
27	0x00000000	0.0
28	0x00000000	0.0
29	0x00000000	0.0
30	0x00000000	0.0
31	0x00000000	0.0
32	0x00000000	0.0
33	0x00000000	0.0
34	0x00000000	0.0
35	0x00000000	0.0
36	0x00000000	0.0
37	0x00000000	0.0
38	0x00000000	0.0
39	0x00000000	0.0
40	0x00000000	0.0
41	0x00000000	0.0
42	0x00000000	0.0
43	0x00000000	0.0
44	0x00000000	0.0
45	0x00000000	0.0
46	0x00000000	0.0
47	0x00000000	0.0
48	0x00000000	0.0
49	0x00000000	0.0
50	0x00000000	0.0
51	0x00000000	0.0
52	0x00000000	0.0
53	0x00000000	0.0
54	0x00000000	0.0
55	0x00000000	0.0
56	0x00000000	0.0
57	0x00000000	0.0
58	0x00000000	0.0
59	0x00000000	0.0
60	0x00000000	0.0
61	0x00000000	0.0
62	0x00000000	0.0
63	0x00000000	0.0
64	0x00000000	0.0
65	0x00000000	0.0
66	0x00000000	0.0
67	0x00000000	0.0
68	0x00000000	0.0
69	0x00000000	0.0
70	0x00000000	0.0
71	0x00000000	0.0
72	0x00000000	0.0
73	0x00000000	0.0
74	0x00000000	0.0
75	0x00000000	0.0
76	0x00000000	0.0
77	0x00000000	0.0
78	0x00000000	0.0
79	0x00000000	0.0
80	0x00000000	0.0
81	0x00000000	0.0
82	0x00000000	0.0
83	0x00000000	0.0
84	0x00000000	0.0
85	0x00000000	0.0
86	0x00000000	0.0
87	0x00000000	0.0
88	0x00000000	0.0
89	0x00000000	0.0
90	0x00000000	0.0
91	0x00000000	0.0
92	0x00000000	0.0
93	0x00000000	0.0
94	0x00000000	0.0
95	0x00000000	0.0
96	0x00000000	0.0
97	0x00000000	0.0
98	0x00000000	0.0
99	0x00000000	0.0
100	0x00000000	0.0
101	0x00000000	0.0
102	0x00000000	0.0
103	0x00000000	0.0
104	0x00000000	0.0
105	0x00000000	0.0
106	0x00000000	0.0
107	0x00000000	0.0
108	0x00000000	0.0
109	0x00000000	0.0
110	0x00000000	0.0
111	0x00000000	0.0
112	0x00000000	0.0
113	0x00000000	0.0
114	0x00000000	0.0
115	0x00000000	0.0
116	0x00000000	0.0
117	0x00000000	0.0
118	0x00000000	0.0
119	0x00000000	0.0
120	0x00000000	0.0
121	0x00000000	0.0
122	0x00000000	0.0
123	0x00000000	0.0
124	0x00000000	0.0
125	0x00000000	0.0
126	0x00000000	0.0
127	0x00000000	0.0

network_body.observation_encoder.processors.2.normalizer.running_mean f4 [4]
0	0x3efff998	0.49995112
1	0x3efff998	0.49995112
2	0x3efff998	0.49995112
3	0x40087092	2.1318707

network_body.observation_encoder.rsa.fc_q.bias f4 [128]
0	0xbc8208ea	-0.015873391
1	0x3c88c88c	0.01669719
2	0x3c8554b4	0.016275741
3	0xbc96b30e	-0.018395927
4	0xbc637e15	-0.013885041
5	0x3c8b31ee	0.016991582
6	0x3c4161e3	0.011803123
7	0x3c8b6e42	0.017020348
8	0x3c5185b7	0.012788228
9	0xbc69e1d5	-0.014275034
10	0x3c148528	0.00906495
11	0xbc1f7587	-0.009732611
12	0xbc7e20c8	-0.015510745
13	0xbc9fefb5	-0.01952348
14	0xbb89c67d	-0.00420457
15	0xbc872875	-0.016498784
16	0x3c6abf50	0.014327839
17	0xbc92ae80	-0.017905474
18	0xbc8e90ae	-0.017402973
19	0x3c8dfaeb	0.017331561
20	0x3c71d372	0.014759885
21	0xbc8375b1	-0.01604733
22	0xbc644025	-0.013931309
23	0xbca289dc	-0.019841127
24	0xbc56ad78	-0.013102882
25	0xbc7a128a	-0.015263209
26	0xbc547e60	-0.012969583
27	0x3c573713	0.013135689
28	0x3c964333	0.01834259
29	0x3c90ceda	0.01767676
30	0xbc7a67d5	-0.015283545
31	0xbc76bccf	-0.015059664
32	0xbc029de5	-0.007972215
33	0xbc745c07	-0.014914519
34	0x3c47aa4b	0.012186597
35	0xbc0e80e3	-0.008697721
36	0xbbce90da	-0.0063038887
37	0xbbd50a73	-0.00650149
38	0x3c877f0a	0.01654007
39	0x3c53d9d1	0.012930349
40	0xbc222f19	-0.009898924
41	0xbc807313	-0.015679872
42	0x3c506aed	0.012720806
43	0x3c187a30	0.0093064755
44	0x3c04657f	0.008080839
45	0x3c3f9f9e	0.011695771
46	0x3c7a853c	0.015290555
47	0xbc2c92e0	-0.010533065
48	0xbaf45d83	-0.0018643591
49	0x3c636537	0.013879112
50	0x3c3b5d0a	0.011435756
51	0x3c67c450	0.014145926
52	0xbc57d401	-0.013173104
53	0xbc52eb39	-0.012873464
54	0xbc366875	-0.011133303
55	0x3c5c94c5	0.013463204
56	0xbad15c87	-0.001597301
57	0x3c692245	0.014229362
58	0xbc507531	-0.012723253
59	0xbc6bc8fd	-0.014391181
60	0xbc66c0d7	-0.014084063
61	0x3c381bad	0.011237067
62	0x3c0f3532	0.00874071
63	0x3c39859c	0.011323359
64	0x3b48bb27	0.003062913
65	0xb941a21b	-0.00018466303
66	0x3970fdcc	0.0002298273
67	0x38e1838c	0.000107533386
68	0x3b624cb5	0.0034530584
69	0x3bc5a07f	0.0060310955
70	0xbb340fb5	-0.0027475182
71	0x39b56184	0.00034595665
72	0x39f756f1	0.00047176288
73	0xb9ac8eb1	-0.0003291271
74	0xba1879aa	-0.0005816469
75	0xbb9a34a9	-0.0047059846
76	0xbb8d5a6b	-0.004313757
77	0x3a920a56	0.0011141996
78	0x3abfcbd7	0.0014632893
79	0xba8ee42f	-0.0010901744
80	0x3b393583	0.0028260655
81	0x381c79f0	3.730686e-05
82	0x3a70774e	0.0009173051
83	0x3af082a3	0.001834948
84	0x3aaa8b89	0.0013011555
85	0xb9cdfc62	-0.00039288687
86	0xba8f6182	-0.0010939094
87	0x3bdd6b5d	0.0067571835
88	0xbbeddb6c	-0.007258823
89	0x39ddae4e	0.00042282272
90	0xbb1502d2	-0.0022737277
91	0x3a22a939	0.0006205026
92	0xb9916840	-0.00027734227
93	0x3b035c7a	0.0020044134
94	0xbb2a5f36	-0.0025996692
95	0xb985f51a	-0.00025550352
96	0xbc19cf72	-0.009387838
97	0xbbf19a77	-0.00737315
98	0xbb19d9c5	-0.0023475748
99	0xbbf9e04f	-0.0076256166
100	0xbc18edbd	-0.009334025
101	0x3c052b50	0.008128002
102	0xbc7e8018	-0.01553347
103	0xbc2b0bf2	-0.01043986
104	0x3bdf8ced	0.0068222196
105	0xbb9ffba1	-0.0048822914
106	0x3c3fab74	0.011698592
107	0x3c053d2d	0.008132261
108	0xbc429caa	-0.011878172
109	0xbbc44337	-0.005989458
110	0xbc83ac42	-0.01607335
111	0xbc598ed9	-0.013278686
112	0x3c728d37	0.014804176
113	0x3c36aaaf	0.011149093
114	0x398ab5d7	0.00026456892
115	0x3b2db94d	0.0026508153
116	0x3bf9e445	0.007626089
117	0x3c64cbf3	0.013964641
118	0x3bb227c0	0.0054368675
119	0xbc4c1861	-0.012456984
120	0x3a2357b0	0.0006231023
121	0xbc4bbaa4	-0.012434635
122	0xbbbd1085	-0.0057697915
123	0x3c8b8ca0	0.017034829
124	0x3c4323b5	0.011910369
125	0x3c63e952	0.013910608
126	0x3a0e2fe9	0.0005424009
127	0xbc3a8583	-0.011384371

network_body.observation_encoder.rsa.fc_k.bias f4 [128]
0	0xb68d69ad	-4.2144297e-06
1	0x3697d1f3	4.524592e-06
2	0x363528c5	2.6994833e-06
3	0xb69c8c4c	-4.665495e-06
4	0xb6587261	-3.2253085e-06
5	0x36804d3e	3.8236894e-06
6	0x365ab128	3.258765e-06
7	0x369a2b66	4.59461e-06
8	0x366e3639	3.5496325e-06
9	0xb612b70f	-2.186225e-06
10	0x365e6086	3.3136762e-06
11	0xb5c42753	-1.4614583e-06
12	0xb639a252	-2.766163e-06
13	0xb6a593a3	-4.9345704e-06
14	0x34798a85	2.3240325e-07
15	0xb698a85e	-4.5495535e-06
16	0x360199ac	1.9311947e-06
17	0xb6851340	-3.96595e-06
18	0xb68f237d	-4.2658635e-06
19	0x369310cf	4.382898e-06
20	0x369e6f07	4.721692e-06
21	0xb6845c6c	-3.944666e-06
22	0xb64d60c3	-3.0603703e-06
23	0xb69f7db8	-4.753205e-06
24	0xb6634118	-3.3863525e-06
25	0xb656d10c	-3.2010166e-06
26	0xb69505bc	-4.4412136e-06
27	0x35fbc090	1.8757e-06
28	0x369aebc1	4.617003e-06
29	0x36972b2e	4.5051775e-06
30	0xb655f7f3	-3.1883799e-06
31	0xb639ec1d	-2.7704584e-06
32	0xb35ce3ac	-5.1429808e-08
33	0xb38ae2c5	-6.467375e-08
34	0xb320ccd3	-3.743919e-08
35	0x32ee56e3	2.7746358e-08
36	0xb409eb8c	-1.2844811e-07
37	0xb2cb292e	-2.3651037e-08
38	0xb2d908fb	-2.5266209e-08
39	0x329ae6dc	1.8032942e-08
40	0xb37ce406	-5.888071e-08
41	0xb35e88f1	-5.181295e-08
42	0x3272f3f2	1.4141721e-08
43	0xb38e137a	-6.615933e-08
44	0x33aff5aa	8.1937586e-08
45	0x341b5b10	1.4468628e-07
46	0xb1c38839	-5.6907337e-09
47	0xb3c1a511	-9.017288e-08
48	0xb377e3df	-5.7716417e-08
49	0x33e0c118	1.04659364e-07
50	0x331ec511	3.6966473e-08
51	0xb3169ce5	-3.506729e-08
52	0x31475c50	2.9010785e-09
53	0xb38848af	-6.3462146e-08
54	0xb39c1ef0	-7.2699436e-08
55	0xb417a211	-1.412193e-07
56	0x33b84190	8.5800934e-08
57	0xb42d6969	-1.6150229e-07
58	0x32e3166e	2.6436478e-08
59	0xb1bf86f4	-5.574174e-09
60	0xb40f74da	-1.3360423e-07
61	0xb41d8e55	-1.4673545e-07
62	0x33a99316	7.8964305e-08
63	0x340bcc4e	1.301971e-07
64	0xb5849753	-9.878808e-07
65	0xb578eb92	-9.273e-07
66	0xb52de8cd	-6.478629e-07
67	0xb59cce08	-1.1682869e-06
68	0xb46bb143	-2.1950568e-07
69	0xb5b162c6	-1.3216275e-06
70	0x34960589	2.7943705e-07
71	0x34609e99	2.0919323e-07
72	0xb5c00f0e	-1.4309496e-06
73	0xb5d28c02	-1.5686967e-06
74	0xb6120017	-2.1755748e-06
75	0x327ab4a3	1.4592987e-08
76	0xb4d8b8c6	-4.0367576e-07
77	0xb55b647c	-8.173008e-07
78	0x34e9eede	4.357343e-07
79	0xb5a8e09b	-1.2582344e-06
80	0x350cbaa6	5.2425673e-07
81	0xb5cae1b4	-1.5115861e-06
82	0xb62c7f1a	-2.570398e-06
83	0x33be6fce	8.8679016e-08
84	0xb54e2ec9	-7.680906e-07
85	0xb5255943	-6.159718e-07
86	0xb5d9ff86	-1.6242127e-06
87	0xb4eb8f6e	-4.387652e-07
88	0xb4d53aa9	-3.9717023e-07
89	0x3590680d	1.0759119e-06
90	0xb5ffe7d1	-1.9066448e-06
91	0x35f902db	1.8552777e-06
92	0x35a33f41	1.2162856e-06
93	0x358c5f7d	1.0458604e-06
94	0x35742404	9.0949493e-07
95	0xb20ff647	-8.3796925e-09
96	0xb40a9237	-1.2905444e-07
97	0xb40634fe	-1.2499001e-07
98	0xb4191ab3	-1.4258949e-07
99	0xb445dcaa	-1.8427332e-07
100	0xb44d4f7b	-1.9121028e-07
101	0x3212aba0	8.5373415e-09
102	0xb37ce7f0	-5.8884268e-08
103	0xb439ffa4	-1.7322469e-07
104	0x338929a9	6.3871376e-08
105	0xb416f68c	-1.4059532e-07
106	0x34360ac4	1.6953987e-07
107	0x340cd75c	1.3116863e-07
108	0xb279a69c	-1.453159e-08
109	0x3212dc88	8.5484615e-09
110	0xb4184d40	-1.4184207e-07
111	0xb4545c34	-1.9777582e-07
112	0x3427e97c	1.5638028e-07
113	0x33c34a98	9.0939636e-08
114	0x3332b01d	4.160403e-08
115	0x340d696c	1.317e-07
116	0x339ea8d3	7.388157e-08
117	0x343ade44	1.740346e-07
118	0x34033181	1.2218335e-07
119	0x33ac4b10	8.023028e-08
120	0xb3d61e72	-9.9706895e-08
121	0xb42a335c	-1.5851168e-07
122	0xb3384fbb	-4.2913353e-08
123	0x33ec41f1	1.1001601e-07
124	0x345d5d39	2.0616143e-07
125	0x3431117a	1.6490768e-07
126	0x33b7ecbe	8.564665e-08
127	0xb30a311b	-3.217529e-08

network_body.observation_encoder.rsa.fc_v.bias f4 [128]
0	0x3b433731	0.0029787535
1	0x3ba52e9c	0.0050409567
2	0x3c6b0e96	0.014346739
3	0xbbdaa767	-0.006672788
4	0x3c1e35ef	0.009656413
5	0xbc8645b6	-0.016390663
6	0xbc16b5e6	-0.009198641
7	0xbc923fb1	-0.017852636
8	0xbcaa6c46	-0.020803582
9	0x3cba2b77	0.022725804
10	0x3c46927c	0.0121198855
11	0xbbf68cb5	-0.007524098
12	0x3b4a7a10	0.0030895509
13	0x3cadd2ab	0.021218618
14	0x3c43a262	0.011940571
15	0x3b93bb4b	0.004508411
16	0x3d11fce5	0.03564157
17	0x3b3834e0	0.0028107688
18	0x3befba6f	0.007315926
19	0xbc0bd83d	-0.008535442
20	0x3cfbd1df	0.030739723
21	0xbc0f6889	-0.0087529505
22	0x3c469d54	0.012122471
23	0x3aee978b	0.0018203122
24	0x3ba3c788	0.004998151
25	0xbca0d062	-0.019630615
26	0xbc3271e0	-0.010891408
27	0xbc80932c	-0.015695177
28	0x3c774a70	0.015093431
29	0x3c81b5df	0.015833793
30	0x3c8effbd	0.01745593
31	0x3c2fe11f	0.010734825
32	0x3c3a6c5b	0.011378373
33	0x3b50a7d7	0.0031838322
34	0x3c8c2de3	0.017111724
35	0xbc59ff49	-0.013305494
36	0x3c531a56	0.012884697
37	0x3c7fb73b	0.01560765
38	0x3b94fb12	0.0045465315
39	0x3ce442ea	0.027863938
40	0x3cc430e9	0.023949103
41	0x3afbfeb6	0.001922569
42	0x3ca6eb6a	0.020375926
43	0x3c0abb1f	0.008467465
44	0x3b87be50	0.00414256
45	0x3c766dae	0.015040798
46	0xbc93fa8b	-0.018063804
47	0x3c93d862	0.018047515
48	0xbc94b8c4	-0.01815451
49	0x3bdb0450	0.0066838637
50	0xbcf2c30f	-0.029634027
51	0xba81bd47	-0.0009898328
52	0x3c60bf54	0.013717491
53	0xbd17750e	-0.036976866
54	0x3c8ec4bb	0.017427793
55	0x3c7ab10a	0.015300998
56	0x3b5183dc	0.0031969463
57	0xbcb422fb	-0.021989336
58	0xbc8354d8	-0.016031668
59	0xbaf1816b	-0.001842541
60	0x3c62b53b	0.013837154
61	0xbca92c26	-0.020650934
62	0xbc8c1b44	-0.017102845
63	0x3c60c1fe	0.013718126
64	0x3bd06ec8	0.0063608624
65	0xbc81d7ba	-0.015849937
66	0x3c624073	0.013809311
67	0x3c8d5712	0.017253432
68	0xbd0092cb	-0.031389993
69	0x3c8334cb	0.016016385
70	0x39c43a44	0.00037427444
71	0x3d009844	0.03139521
72	0x3cb817a1	0.022472205
73	0x3c0dcf98	0.008655451
74	0xbbfd3ea1	-0.007728413
75	0xbce12e90	-0.027488023
76	0x3cad3e7f	0.021147965
77	0x3c255183	0.010090235
78	0x3bb5c6ee	0.005547396
79	0xbc387b77	-0.011259905
80	0xba99dc78	-0.0011738678
81	0xbc2ef351	-0.010678128
82	0x3b89d7a3	0.004206614
83	0xbb50760f	-0.003180865
84	0x3c697950	0.014250115
85	0x3ac4a9df	0.0015004239
86	0x3cb6716c	0.02227088
87	0x3cfa098d	0.030522132
88	0x3d2ffa27	0.042963173
89	0x3c17b1a4	0.009258661
90	0x3c8b2a1a	0.016987849
91	0x3a55435d	0.0008135343
92	0xbcb11c1c	-0.021619849
93	0xbce1b2b2	-0.027551029
94	0x3c816ca6	0.015798878
95	0xbcb10c96	-0.021612447
96	0x3bfaf140	0.007658154
97	0xbc8e9ead	-0.017409647
98	0x3c97fb5e	0.018552478
99	0xbc1b2577	-0.0094693815
100	0xbc9688ac	-0.018375717
101	0x3b7866cd	0.003790307
102	0x3b4d3d27	0.0031316967
103	0x3bd2a366	0.00642817
104	0x3d06bd84	0.03289558
105	0x3c759ce9	0.014991024
106	0xbbe5e5d0	-0.007015921
107	0xbcc5f5fb	-0.024165144
108	0x3c8c9607	0.017161382
109	0xbcaecd30	-0.021338075
110	0xbb493528	-0.003070185
111	0x3be50edc	0.0069902968
112	0xbcc37ba8	-0.023862675
113	0xbcf187ba	-0.029483665
114	0x3bc9def2	0.0061606104
115	0x3c9d9c9f	0.019239722
116	0xbc8c0bb3	-0.017095422
117	0x3c22ff19	0.009948515
118	0xbbac86d6	-0.005265097
119	0x3c89035e	0.016725238
120	0xbc90611b	-0.017624428
121	0xbd098f7d	-0.033584107
122	0xbd0abce7	-0.033871558
123	0x3c9d6f96	0.019218247
124	0xbc314273	-0.010819065
125	0xbaba432a	-0.001421069
126	0x3be79703	0.0070675625
127	0x3ac94d74	0.0015358166

network_body.observation_encoder.rsa.fc_out.bias f4 [128]
0	0x3b09645a	0.0020964355
1	0xbc97d88d	-0.018535877
2	0x3ba5f740	0.005064875
3	0xba3ec68c	-0.00072775106
4	0xbc0274f8	-0.007962458
5	0x3c0a8972	0.008455621
6	0xbc51f121	-0.012813837
7	0xbca82ced	-0.020529235
8	0x3c8c1799	0.017101096
9	0xbc47bc2a	-0.012190858
10	0x3bf39689	0.0074337167
11	0xbccb234c	-0.024797104
12	0xbc37e7dd	-0.011224714
13	0x3ca400ae	0.020019855
14	0x3c1fdef2	0.009757744
15	0xbbec4a11	-0.007210978
16	0xbbc06d2e	-0.0058723902
17	0xbc0d00b8	-0.008606128
18	0x3bc5f129	0.0060407114
19	0xbc9c914e	-0.019112255
20	0xbc8409a9	-0.016117888
21	0xbc7d40d9	-0.015457355
22	0x3cb70b21	0.022344174
23	0x3c050760	0.008119434
24	0xbc090f48	-0.00836546
25	0x3cc43d10	0.023954898
26	0x3b6a1d3b	0.003572299
27	0x3cb038ee	0.021511521
28	0xbc143a76	-0.009047141
29	0xba5fec8b	-0.00085420226
30	0x3cc69be5	0.024244258
31	0x3c28f2aa	0.010311762
32	0xbc077ed9	-0.008269989
33	0xbd12095a	-0.03565345
34	0x3b4bd878	0.0031104367
35	0xbc1158f5	-0.008871307
36	0x3a89e92a	0.0010521759
37	0xbae61b85	-0.0017555809
38	0x3c1c1f58	0.009528957
39	0x3d0e4ca6	0.034741066
40	0xbb0646d3	-0.0020488992
41	0x3bda32ad	0.006658873
42	0xbb7c37fa	-0.0038485513
43	0x39d5dc12	0.0004079049
44	0xbae585b9	-0.0017511166
45	0x3c5d1f03	0.013496163
46	0xb9b48d54	-0.00034437573
47	0x3c49ded8	0.0123211965
48	0xbaec973f	-0.0018050446
49	0xbc935023	-0.017982548
50	0x3c6b929c	0.014378216
51	0x3c81a1e4	0.015824266
52	0x3bd9023d	0.0066225813
53	0x3c657f04	0.014007334
54	0x3ba95ea0	0.005168751
55	0xbbce2d3e	-0.0062920144
56	0x3ba76298	0.005108189
57	0x3ca1f7ff	0.019771574
58	0xbc809e0b	-0.01570036
59	0x3b411062	0.0029459228
60	0xbcf2136f	-0.029550282
61	0x3c550330	0.013001248
62	0xb9cebdd7	-0.00039432824
63	0xbc1accb4	-0.009448219
64	0xbaa6be9d	-0.0012721602
65	0x3c2e209b	0.010627891
66	0xbc0f5cf4	-0.008750189
67	0x3c607ff8	0.013702385
68	0x3c125f8e	0.008933915
69	0xbcc73c79	-0.024320828
70	0xba97aa0b	-0.0011571062
71	0xba272a94	-0.0006376889
72	0x3c83d310	0.016091853
73	0xbc98dcb8	-0.018659934
74	0x3c61a7b4	0.013772894
75	0x3af71008	0.0018849382
76	0xbc86568c	-0.01639869
77	0x3c94088c	0.018070482
78	0x3b98642f	0.0046506147
79	0xbcdeda0d	-0.027203584
80	0xbd02e668	-0.031958014
81	0xbb309367	-0.0026943327
82	0x3c730265	0.014832114
83	0xbbebeaa1	-0.007199601
84	0xbb80dbd9	-0.003932458
85	0x3b073cd7	0.0020635629
86	0xba54ca36	-0.000811729
87	0x3bfb89ad	0.0076763243
88	0xbb2c31fa	-0.0026274906
89	0xbb2cdbf0	-0.002637621
90	0x3c289934	0.010290433
91	0x3c6fda71	0.014639483
92	0x3bb3c6f6	0.0054863645
93	0xbbd23a72	-0.0064156586
94	0x3c1879c7	0.009306378
95	0x3bf36678	0.0074279867
96	0x3d045667	0.032308962
97	0x3b7f0197	0.003891086
98	0xbca9815a	-0.020691562
99	0x3c5e8166	0.013580656
100	0xbc701dde	-0.014655558
101	0xbc4e5a62	-0.012594791
102	0x3c8bda3a	0.017071832
103	0xbbe8fc06	-0.0071101217
104	0xbc824bf7	-0.015905363
105	0x3c716ce1	0.014735431
106	0xbc8db661	-0.01729888
107	0x3b161d20	0.0022905543
108	0x3c836e7b	0.016043892
109	0x3c8cfe8f	0.017211227
110	0xbbbfefb7	-0.0058574337
111	0xbc08c40b	-0.008347522
112	0xbc761493	-0.015019554
113	0xbbc5817c	-0.0060273986
114	0x3c528eff	0.012851476
115	0x3c8792c7	0.016549481
116	0x3bd5a0db	0.0065194196
117	0xbc0fc15c	-0.008774128
118	0x3ca323cd	0.019914532
119	0xbc731ab8	-0.014837913
120	0xba224665	-0.0006190299
121	0x3c0ad4b1	0.008473561
122	0xbcbdc6d4	-0.023166098
123	0x3b05890b	0.0020375873
124	0x3b25e654	0.0025314288
125	0x3ace9df8	0.0015763631
126	0xbc8e8ecb	-0.017402073
127	0x3c89901e	0.016792353

network_body.observation_encoder.x_self_encoder.seq_layers.0.weight f4 [128, 4]
0	0xbd55674b	-0.05210046
1	0xbdb464de	-0.088083014
2	0xbd70dc8f	-0.05880409
3	0x3cf07335	0.02935181
4	0xbc7a8a06	-0.015291696
5	0xbc3e9370	-0.0116318315
6	0xbbf2f2cb	-0.007414197
7	0x3b181b6d	0.0023209706
8	0xbd9c0ff8	-0.07620233
9	0xbc78950a	-0.015172252
10	0x3bcd2919	0.0062610027
11	0x3cf31e4e	0.029677536
12	0x3cd40c1f	0.025884686
13	0xbda95c5b	-0.082695685
14	0xbd1517d8	-0.036399692
15	0x3bf391b1	0.0074331393
16	0xbd1acbf8	-0.037792176
17	0xbcb01d63	-0.021498388
18	0x3d779680	0.060446262
19	0xbd88261b	-0.06647893
20	0xbd95fe6b	-0.07323917
21	0xbd25fd0a	-0.04052452
22	0xbca79496	-0.020456593
23	0x3ca6df56	0.020370167
24	0x3d14a376	0.0362887
25	0xbcf8275d	-0.030292207
26	0xbd4d4e34	-0.05012341
27	0xbba94606	-0.005165818
28	0x3d284c4b	0.041088384
29	0xbcd4746c	-0.02593442
30	0xbc66c070	-0.014083967
31	0xbc8b6e4d	-0.017020369
32	0x3c4fb78b	0.012678037
33	0x3c80a859	0.015705274
34	0x3c28cb9d	0.010302451
35	0x3c883279	0.01662563
36	0xbc2419ee	-0.010015948
37	0xbba580f2	-0.005050772
38	0x3ccb637a	0.024827708
39	0x3ce159e9	0.027508693
40	0xbca1ffe7	-0.019775344
41	0xbc2d2007	-0.010566718
42	0x3daa14c1	0.0830474
43	0x3d8667d8	0.065627754
44	0x3cc30157	0.02380435
45	0xbbfbe0fa	-0.0076867314
46	0xbd01ef3c	-0.031722292
47	0xbb0ac3f5	-0.0021173928
48	0xbd46e616	-0.04855927
49	0xbc948e58	-0.018134281
50	0xbd6b7721	-0.057486657
51	0xbc971f1b	-0.01844745
52	0x3d28db78	0.041224927
53	0x3da8c821	0.082412966
54	0xbca0b3df	-0.01961702
55	0xbc32520c	-0.010883819
56	0xbd633b25	-0.055476326
57	0x3d8e05ec	0.06934723
58	0x3ce562fe	0.028001305
59	0xbd2d6153	-0.042329144
60	0xbd19398d	-0.0374084
61	0xbd04c662	-0.032415755
62	0xbcd4e7ae	-0.02598938
63	0x3ce0b221	0.027428688
64	0xba1d8326	-0.00060086173
65	0xbc88e104	-0.016708858
66	0x3d38c57f	0.045110222
67	0xbd43c5b1	-0.047795955
68	0xbc0ab6ed	-0.0084664645
69	0xbd107841	-0.035270933
70	0xbc1ce1fd	-0.009575364
71	0xbc8b148f	-0.016977577
72	0xbd441acf	-0.04787713
73	0x3c36d66c	0.011159521
74	0xbcd572d4	-0.02605573
75	0xbd424fd6	-0.04743942
76	0x3cf2a77f	0.029620884
77	0xbcd18f40	-0.025581002
78	0x3d14e6c5	0.03635289
79	0xbd0e6f31	-0.03477401
80	0x3ca874ad	0.020563448
81	0x3cc75675	0.024333218
82	0x3ae9d5bb	0.0017840186
83	0xbd98627e	-0.07440661
84	0xbb31e82b	-0.002714644
85	0xbc24021f	-0.010010271
86	0x3dc148f7	0.09437745
87	0x3cba6f35	0.022758106
88	0xbbc5e428	-0.0060391612
89	0xbc4e70b4	-0.012600113
90	0xbd7f0931	-0.062264625
91	0xbd68e77c	-0.056861386
92	0xbbc8f15c	-0.006132288
93	0xbc87368d	-0.016505504
94	0x3d0e4370	0.034732282
95	0xbc9599ea	-0.018261869
96	0xbcd678e5	-0.026180694
97	0xbd0311c2	-0.031999357
98	0xbd00c8d0	-0.03144151
99	0x3d2427f2	0.040077157
100	0xbc5b6ba4	-0.013392363
101	0xbb8ee51d	-0.0043608085
102	0xbcdeed16	-0.02721266
103	0x3ced89fd	0.028996462
104	0x3c22db76	0.009940019
105	0xbcd391a7	-0.025826288
106	0xbcfba7e5	-0.030719707
107	0xbd8ec25f	-0.06970667
108	0xbcb7bf9e	-0.022430237
109	0x3cf0f624	0.029414244
110	0xbc778b7f	-0.015108942
111	0xbbfa0b7a	-0.0076307626
112	0xbd06b2ac	-0.03288524
113	0xbd5bb3eb	-0.05363838
114	0xbcb64055	-0.022247473
115	0x3dbbeefb	0.09176441
116	0x3ced264d	0.028948927
117	0xbcc5f5ac	-0.024164997
118	0xbd27b5ff	-0.04094505
119	0xbc42f1d6	-0.0118984785
120	0xbd05fb4c	-0.03271036
121	0xbd0d9c6e	-0.03457301
122	0xba76e325	-0.00094180024
123	0x3c64ba63	0.013960454
124	0x3d007a63	0.031366717
125	0x3c61f7c4	0.013791982
126	0x3afadc7e	0.0019139198
127	0x3bafcc68	0.0053649433
128	0xbc213808	-0.009840019
129	0x3c524cfb	0.012835736
130	0x3c42cc5a	0.0118895415
131	0xbd913e0a	-0.07091911
132	0xbc4d5d6c	-0.012534481
133	0x3d51631a	0.0511199
134	0x3d2eb017	0.0426484
135	0x3c4c997f	0.012487768
136	0x3ba59cfc	0.0050541144
137	0xbd110193	-0.035401892
138	0xbcf63e5e	-0.030059036
139	0xbc813df2	-0.015776608
140	0xbc7d1eeb	-0.015449266
141	0xbd963511	-0.0733434
142	0x3c3eedf1	0.011653409
143	0x3cca4024	0.024688788
144	0xbdf1a778	-0.1179952
145	0xbcf80423	-0.03027541
146	0xbd614a98	-0.05500278
147	0xbd2df9d5	-0.042474587
148	0xbcd6e63d	-0.026232833
149	0x3c27d53b	0.010243709
150	0xbb3a358e	-0.0028413269
151	0x3d3a052d	0.045415092
152	0xbd088345	-0.033328313
153	0xbd025549	-0.031819616
154	0xbca8955e	-0.020579036
155	0xbccabcb6	-0.024748188
156	0x3cea2161	0.02858037
157	0xbb3f0637	-0.0029147991
158	0xbbd7eb8e	-0.0065893596
159	0x3d2c5502	0.042073257
160	0x3cf06a4b	0.02934756
161	0x3ca83316	0.020532172
162	0xbb00a7f7	-0.0019631365
163	0xbd43982e	-0.04775255
164	0x3d5a8595	0.05335005
165	0x3cbc9d08	0.023024097
166	0x3c8a3e5b	0.016875437
167	0xbc98108d	-0.01856258
168	0xbadbe0e1	-0.0016775393
169	0x3c8c5e34	0.017134763
170	0x3cbfded6	0.023421686
171	0x3a6ab799	0.000895375
172	0xbc9d4690	-0.019198686
173	0x3ce58bc8	0.028020754
174	0xbcd52123	-0.026016777
175	0xbd0f62d9	-0.035006378
176	0x3d392fab	0.045211475
177	0x3c120189	0.008911499
178	0x3c8a7ff7	0.016906722
179	0x3d172bb3	0.03690691
180	0x3d3ab0c0	0.04557872
181	0x3cc58b00	0.024114132
182	0x3d1d0c1e	0.038341634
183	0xbdd1d496	-0.10245626
184	0x3b0afe6a	0.0021208772
185	0xbd9ab63d	-0.075542904
186	0x3c063339	0.008190923
187	0xbd061013	-0.032730173
188	0xbc25c4f3	-0.010117757
189	0xbd81476c	-0.06312451
190	0x3cc5d77f	0.024150608
191	0xbd315c5a	-0.043300964
192	0x3d0d377e	0.03447675
193	0xbb57c75a	-0.003292522
194	0xbb6aec37	-0.0035846361
195	0xbceed731	-0.029155346
196	0x3c6a28c3	0.014291945
197	0xbc8bc440	-0.017061353
198	0xbcdabf79	-0.02670263
199	0x3d1769df	0.0369662
200	0x3c9aa926	0.018879484
201	0xbd397681	-0.04527903
202	0x3d4f1469	0.050556574
203	0xbd4abed6	-0.0494984
204	0xbc993d5a	-0.018706013
205	0x3d420822	0.047371037
206	0x3c8790f2	0.016548607
207	0x3c9d483a	0.01919948
208	0xbb77564e	-0.003774065
209	0xbd05df08	-0.032683402
210	0xbb5ad4f3	-0.0033391088
211	0x3ca42494	0.020036973
212	0x3c66f19a	0.014095688
213	0x3ca8f0f0	0.0206227
214	0xbd688a69	-0.056772623
215	0xbccdd7e3	-0.025127357
216	0x3d762a93	0.060099196
217	0x3c6785e5	0.014131044
218	0x3d933d40	0.07189417
219	0x3cd272f8	0.025689587
220	0x3b1e2027	0.002412805
221	0xbcbfe31e	-0.023423728
222	0x3d3ae03c	0.045624003
223	0x3d38da2e	0.045129947
224	0x3cff5f30	0.031173319
225	0x3c8d47a5	0.017246077
226	0x3d99f7ec	0.075179905
227	0x3c43bb0b	0.01194645
228	0xbbdd1e45	-0.006747993
229	0xbd121242	-0.035661943
230	0x3d6d03be	0.057864897
231	0x3d1a5c7a	0.03768585
232	0x3cb836c9	0.022487061
233	0x3ce167cd	0.027515316
234	0xbcfd39f1	-0.030911418
235	0x3bd1e69a	0.0064056637
236	0xbbf73d7b	-0.007545171
237	0x3c8d004f	0.017212061
238	0xbc6d3ef9	-0.014480346
239	0xbc41c42e	-0.011826558
240	0x3d040d22	0.032239087
241	0x3d2f3701	0.042777065
242	0x3cff2559	0.031145738
243	0x3c398bfa	0.011324877
244	0x3928e26f	0.00016106082
245	0x3d4fce09	0.0507336
246	0x3cdbb58b	0.026819965
247	0xbbef4589	-0.0073019904
248	0x3d1fe462	0.039036162
249	0x3cd4c17c	0.025971167
250	0x3d5a19d9	0.053247306
251	0xbc00c739	-0.007859998
252	0x3d15728f	0.036486205
253	0xbc22a6b5	-0.009927441
254	0x3d86773c	0.06565711
255	0xbc8bf517	-0.017084641

network_body.observation_encoder.x_self_encoder.seq_layers.0.bias f4 [128]
0	0xbc2c127e	-0.010502456
1	0x3c3e283f	0.011606275
2	0xbcf640d6	-0.030060213
3	0xbc8a2333	-0.016862487
4	0x3c871df3	0.016493773
5	0xbd0e98d2	-0.03481371
6	0xbc5e24d3	-0.013558584
7	0x3c819aee	0.015820947
8	0x3c3b417d	0.011429188
9	0x3b94ae5b	0.0045373864
10	0x3bb7c260	0.005607888
11	0x3c5e8c70	0.013583288
12	0xbca08bb5	-0.019597868
13	0x3cbb2ee5	0.02284951
14	0x3be128fd	0.0068713413
15	0xbd119caf	-0.035549816
16	0x3cacf25f	0.021111665
17	0xbc5d8ba0	-0.013522059
18	0x3c12dbc9	0.008963534
19	0x3cf7e73c	0.030261628
20	0x3b9f2319	0.004856479
21	0x3bfbc1d8	0.00768302
22	0xbc9663aa	-0.01835807
23	0x3be70a38	0.0070507787
24	0xbca0db84	-0.019635923
25	0x3cb9a21e	0.022660311
26	0xbc476d8a	-0.012172112
27	0xbc8d4325	-0.017243931
28	0xbcc7cecb	-0.024390599
29	0xbbf5fd2a	-0.007506986
30	0xbc000c90	-0.007815495
31	0x3c2ecf26	0.010669505
32	0x3a963c1b	0.0011462005
33	0x3bf4b8d2	0.0074683214
34	0xbc562c3f	-0.0130720725
35	0xbc95bebd	-0.018279428
36	0xbc8660cd	-0.01640358
37	0x3bfa3f3a	0.0076369317
38	0xba12ef9f	-0.00056051643
39	0x3ba6528f	0.0050757597
40	0x3cfc3fb3	0.030792093
41	0x3be43a36	0.006964947
42	0x3c26fc90	0.0101920515
43	0xbc13c163	-0.009018275
44	0xbbe3a3dc	-0.006947024
45	0x3d23eeb3	0.040022563
46	0x3c0213b9	0.007939273
47	0xbcea03ca	-0.02856626
48	0xbb9ace9d	-0.0047243373
49	0xbc9588b8	-0.01825367
50	0x3ca30df0	0.019904107
51	0x3c24aee7	0.010051466
52	0xbca172c3	-0.019708043
53	0x3b74d5d9	0.0037358908
54	0x3cace670	0.021105975
55	0xbc86ff2a	-0.016479094
56	0x3c93666c	0.017993174
57	0x3b2da289	0.0026494584
58	0x3c126bf7	0.008936874
59	0xbcb2214d	-0.021744395
60	0x3c9fee01	0.019522669
61	0x3c8ae057	0.016952677
62	0x3c93b86a	0.018032271
63	0x3bcfa6fd	0.006337045
64	0x3c928183	0.017884022
65	0x3cd3961d	0.025828416
66	0xbc7fe645	-0.015618865
67	0xbc610be1	-0.013735742
68	0xbb502972	-0.0031762985
69	0xba8982c7	-0.0010491245
70	0xbacef3f0	-0.0015789252
71	0xbca750e9	-0.020424323
72	0xbbbd01e7	-0.005768049
73	0x3ba00f7c	0.0048846584
74	0xbb95ef80	-0.0045756698
75	0xbcd2fa55	-0.025754133
76	0xbc8b4db8	-0.017004833
77	0xbca001f8	-0.019532189
78	0x3c1a2766	0.009408807
79	0xbc32ef3f	-0.0109212985
80	0x3c268aa0	0.010164887
81	0x3aaa9e41	0.0013017134
82	0xbc647bf5	-0.013945569
83	0x3be849de	0.007088884
84	0xbbb06ad1	-0.0053838273
85	0xbad46609	-0.0016204725
86	0xbc6d8b03	-0.014498475
87	0x3a80f34a	0.0009838131
88	0x3cc3c38a	0.023896951
89	0x3bebf17b	0.0072004176
90	0x3c39f0f6	0.0113489535
91	0x3cdafaf1	0.026730986
92	0xbc7d9335	-0.015476991
93	0x3c78737b	0.015164251
94	0xbc0e5a8c	-0.00868858
95	0xbc8ff21e	-0.017571505
96	0xbca5e28a	-0.020249624
97	0x3c4900b8	0.012268238
98	0x3ceb098f	0.028691081
99	0x3b1d75e0	0.0024026558
100	0x3c9c342e	0.01906785
101	0x3c8ebae2	0.017423097
102	0xbc65551c	-0.013997342
103	0x3ccbfb98	0.024900243
104	0x3bf84737	0.007576849
105	0x3c77c094	0.015121598
106	0x3b4b337b	0.0031006027
107	0xbab15806	-0.0013530261
108	0xbaa48da1	-0.0012554416
109	0x3c583331	0.013195799
110	0x3d0866bf	0.03330111
111	0x3c69d04f	0.014270856
112	0x3c3b47c5	0.011430685
113	0x3cfc1c25	0.03077514
114	0xbc8a3e84	-0.016875513
115	0x3bb8e73a	0.0056427987
116	0xbbf9dce0	-0.0076252073
117	0xbaebcb60	-0.0017989688
118	0x3c328399	0.010895633
119	0xba96c0d6	-0.0011501561
120	0x3cb2d76b	0.021831235
121	0xbcbeb4dc	-0.0232796
122	0x3c865c5c	0.016401462
123	0x3ce5dea5	0.028060267
124	0x3c839581	0.0160625
125	0xbca0a330	-0.019609064
126	0x3c038794	0.00802793
127	0x39092188	0.0001307783

network_body._body_endoder.seq_layers.0.weight f4 [64, 132]
0	0xbe90089d	-0.2813157
1	0xbdfa1911	-0.12211812
2	0xbe5409db	-0.20706885
3	0x3e9b648c	0.3035015
4	0xbd0ec82d	-0.03485887
5	0x3e0eec39	0.139573
6	0xbe217995	-0.15769036
7	0xbc952ce2	-0.018209878
8	0xbda4918f	-0.080355756
9	0xbbf08bd3	-0.007340887
10	0xbcada767	-0.021197988
11	0xbdf5f941	-0.12010432
12	0x3d54e6ba	0.05197785
13	0xbd0bc056	-0.034118973
14	0x3dadce83	0.084866546
15	0xbde80583	-0.11329176
16	0x3d7574b7	0.05992576
17	0x3e13891f	0.14407776
18	0x3daf65b6	0.08564322
19	0xbd076279	-0.033052895
20	0x3dc551a3	0.096347116
21	0x3c83c461	0.016084852
22	0x3d5a4716	0.05329045
23	0x3d87a4f0	0.06623256
24	0x3dba6184	0.09100631
25	0xbd9f212d	-0.0777
26	0xbe34e7ed	-0.17666598
27	0x3a75dc53	0.0009378839
28	0xbda8f3bf	-0.08249616
29	0xbd328b3e	-0.043589823
30	0x3d2eda0f	0.042688426
31	0xbd88c600	-0.066783905
32	0xbc09fc64	-0.008421991
33	0x3d66a2a5	0.056307454
34	0x3da31516	0.07963006
35	0xbdb7bca8	-0.0897153
36	0x3ded546a	0.11588366
37	0x3bc6cb75	0.0060667344
38	0xbd86bc49	-0.06578881
39	0x3be8819f	0.00709553
40	0xbdc4f658	-0.09617299
41	0xbd10140c	-0.03517537
42	0x3d964f4a	0.07339342
43	0xbdd5be32	-0.104366675
44	0xbe043084	-0.12909132
45	0xbca32866	-0.019916724
46	0x3c880439	0.016603576
47	0xbe74bd46	-0.23900327
48	0xbd331f69	-0.043731127
49	0xbd9b632e	-0.075872764
50	0xbd3fe1bb	-0.046846133
51	0xbca8a792	-0.020587716
52	0x3dbb940b	0.09159096
53	0xbde20335	-0.11035768
54	0x3da79acd	0.08183823
55	0x3d665aaa	0.056238808
56	0xbcec3f37	-0.028838737
57	0x3d2bbc54	0.04192765
58	0x3e09c63e	0.1345453
59	0xbd665e2d	-0.056242157
60	0xbdab8f0b	-0.08376893
61	0x3c9a570d	0.018840337
62	0xbde82b49	-0.11336381
63	0x3d8255f4	0.063640505
64	0x3e223d0f	0.15843605
65	0x3dadd96f	0.08488738
66	0x3d6645b2	0.05621881
67	0x3d0176a7	0.031607296
68	0x3d1e6b4d	0.03867655
69	0xbdc86156	-0.0978419
70	0x3d740081	0.059570793
71	0xbc5adc9c	-0.013358261
72	0xbce84132	-0.0283514
73	0xbd72134f	-0.059100445
74	0xbe1572a5	-0.14594515
75	0xbe6534a3	-0.2238336
76	0xbd5b8744	-0.053595796
77	0xbde3ddf8	-0.111263216
78	0x3cd93bfc	0.02651786
79	0xbe39529c	-0.18097919
80	0x3db92ee8	0.0904215
81	0xbda70f31	-0.081571944
82	0x3e0d892f	0.13821863
83	0xbb446037	-0.0029964575
84	0x3b3c18d2	0.0028701317
85	0xbc8d3a5d	-0.017239744
86	0xbd85b01f	-0.06527733
87	0xbe0aa1f3	-0.13538341
88	0x3cdc882f	0.026920406
89	0xbe2ac878	-0.16678035
90	0xbc1e24e8	-0.009652354
91	0xbdd45e6f	-0.10369574
92	0x3dabdb80	0.08391476
93	0x3df7d2cd	0.12100754
94	0x3e4cdf3f	0.20007037
95	0x3e36f745	0.17867763
96	0x3d0826e5	0.033240218
97	0xbe0512f4	-0.12995511
98	0xbd3abe8c	-0.045591876
99	0xbcfdb8d3	-0.03097192
100	0x3db80a55	0.08986346
101	0xbd468417	-0.048465814
102	0xbe0eee3e	-0.1395807
103	0x3c21a22c	0.009865325
104	0xbd03ff5b	-0.032225948
105	0xbd72b2f6	-0.0592527
106	0x3e29e187	0.16589938
107	0xbd936929	-0.07197792
108	0xbdb7961e	-0.089641795
109	0xbcaef22b	-0.021355709
110	0xbbe0a87e	-0.0068560233
111	0x3c8f84d5	0.017519394
112	0xbe0cc003	-0.13745122
113	0xbbeb3ce0	-0.0071788877
114	0xbdc9093c	-0.098162144
115	0x3e3263ef	0.17420934
116	0x3ac9533b	0.0015359888
117	0x3dcb2d66	0.099207684
118	0xbdd6b664	-0.10484007
119	0x3d98b156	0.07455699
120	0xbe267218	-0.16254461
121	0x3d0604ae	0.032719307
122	0xbc739c90	-0.01486887
123	0xbcf611fe	-0.030037876
124	0x3db028ba	0.08601518
125	0x3d656f54	0.056014374
126	0x3cf87713	0.030330217
127	0x3d00480f	0.03131872
128	0xbcf0eb88	-0.029409185
129	0x3cb7897d	0.022404427
130	0x3d920c11	0.07131208
131	0xbccd2d0b	-0.025045892
132	0x3e8b3c14	0.27194273
133	0x3e624bc2	0.22099212
134	0x3ea2785a	0.31732446
135	0xbe9a3802	-0.30120856
136	0xbd8c229f	-0.06842541
137	0xbdca3d9f	-0.098750345
138	0xbc62e9b5	-0.013849665
139	0x3ce255fa	0.027628887
140	0xbd48e164	-0.049043074
141	0x3e3a9627	0.18221341
142	0x3c73c504	0.014878515
143	0xbe0e2005	-0.13879402
144	0x3e7f1d73	0.24913578
145	0xbe29bf41	-0.16576864
146	0xbd3d890e	-0.046273284
147	0xbe26e3db	-0.16297857
148	0xbd1ac3d0	-0.037784398
149	0xbd8a782c	-0.06761202
150	0x3d97e726	0.07417135
151	0x3db3a7c0	0.0877223
152	0xbe15e685	-0.14638717
153	0xbdf438b4	-0.11924878
154	0xbd7387a7	-0.05945554
155	0xbd96f99b	-0.07371827
156	0xbca53f0c	-0.020171665
157	0xbca6eacb	-0.02037563
158	0x3e46fffa	0.19433585
159	0xbb9c4cba	-0.0047698887
160	0x3c800890	0.015629083
161	0xbcea41d6	-0.028595846
162	0xbd6ef267	-0.05833664
163	0x3e42dba7	0.19029103
164	0x3d8d2f62	0.06893803
165	0x3dbc1026	0.091827676
166	0xbc763582	-0.015027406
167	0xbb5193a9	-0.0031978881
168	0x3da2d6f9	0.07951159
169	0xbdac4bbf	-0.08412885
170	0x3c09df4c	0.0084150545
171	0xbe7b69f7	-0.24552141
172	0x3d519a66	0.051172636
173	0xbd247b81	-0.040156845
174	0x3dc2dbe1	0.09514595
175	0x3e1d3729	0.15353073
176	0xbda0fc47	-0.07860618
177	0xbdd1f4a8	-0.102517426
178	0xbe323173	-0.17401676
179	0xbd67a35a	-0.05655227
180	0xbe86c955	-0.2632548
181	0xbaa3e0fe	-0.0012502966
182	0x3e0a7d0e	0.13524267
183	0xbdbd6711	-0.09248174
184	0xbdfbce52	-0.12295212
185	0x3d56df98	0.05245933
186	0x3dafccf9	0.08584017
187	0x3e5cb405	0.21553047
188	0x3d5296b7	0.051413264
189	0x3e1a66f3	0.15078335
190	0x3e10c3fd	0.14137264
191	0xbd4bee32	-0.049787708
192	0x3e1c8d11	0.15288188
193	0xbc524648	-0.012834139
194	0xbd44465c	-0.047918662
195	0xbdf2ac6d	-0.11849294
196	0xbdf09ad6	-0.117482826
197	0x3d71fcd0	0.05907899
198	0x3d983154	0.074312836
199	0x3ca4d769	0.020122247
200	0x3da748fb	0.08168217
201	0x3e0df48f	0.13862823
202	0x3db2a20e	0.08722316
203	0xbc98c870	-0.018650264
204	0x3df034bb	0.117288075
205	0xbdbf033d	-0.093267895
206	0xbd47abed	-0.048747946
207	0xbdd19c76	-0.10234921
208	0xbdac644f	-0.0841757
209	0x3ceedd93	0.02915839
210	0x3dead10e	0.11465655
211	0x3e143c4a	0.14476123
212	0xbc76cc44	-0.015063349
213	0x3e4b3a0a	0.19846359
214	0x3d28d0dc	0.04121481
215	0xbdba24bf	-0.0908904
216	0x3c79de22	0.0152507145
217	0x3e2091fa	0.15680686
218	0x3d4871e4	0.04893674
219	0x3c04540e	0.008076681
220	0x3c65b214	0.014019508
221	0x3d37f647	0.044912603
222	0xbe50de1f	-0.20397232
223	0x3dd18885	0.10231117
224	0xbe12ddb1	-0.14342381
225	0xbe6b3301	-0.22968675
226	0xbd08a8f6	-0.03336426
227	0x3e36150b	0.17781465
228	0x3e46531e	0.19367644
229	0xb96a9c30	-0.00022374163
230	0x3e6b2f1b	0.22967188
231	0x3cea13c4	0.028573878
232	0x3e2a8da1	0.1665559
233	0x3ddd9ea8	0.10821277
234	0xbd87d04e	-0.06631528
235	0x3db853c7	0.09000354
236	0xbe2e664d	-0.17031212
237	0xbd9f0f40	-0.077665806
238	0xbd52ffb1	-0.051513378
239	0xbdd53d64	-0.104121
240	0xbcb7d410	-0.022439986
241	0x3d1e905c	0.03871189
242	0x3c584ce1	0.013201923
243	0x3da01b73	0.078177355
244	0x3e0d7784	0.13815123
245	0xbda30cf3	-0.07961454
246	0xbd8a04e2	-0.067392126
247	0x3da7790b	0.08177384
248	0x3d18b439	0.03728125
249	0x3d0a8496	0.03381785
250	0xbd66cc99	-0.056347463
251	0x3d8ec1b6	0.06970541
252	0x3bb0609a	0.0053826096
253	0x3b91d755	0.0044507184
254	0xbce34ee1	-0.027747573
255	0xbd42cd7e	-0.047559254

network_body._body_endoder.seq_layers.0.bias f4 [64]
0	0xbe1e01e1	-0.15430404
1	0x3e8c73fc	0.2743224
2	0x3e80a0a6	0.25122565
3	0xbe4ad9eb	-0.19809692
4	0xbeaad5d1	-0.33366254
5	0x3e97a7e8	0.2962029
6	0x3e7c0e70	0.24614882
7	0x3e429893	0.19003515
8	0xbe9d8fec	-0.30773866
9	0xbe7af5ef	-0.24507879
10	0xbe859e73	-0.2609745
11	0x3e92adad	0.2864813
12	0xbe94b08d	-0.29040948
13	0x3e56f196	0.20990595
14	0xbe91aca4	-0.28452027
15	0xbe7a253d	-0.24428268
16	0xbeb24043	-0.34814653
17	0x3e23da9a	0.16001359
18	0xbe97f4af	-0.29678866
19	0xbe91e5bd	-0.2849559
20	0x3e43fa9a	0.19138566
21	0x3e277e81	0.16356851
22	0x3e8972ab	0.26845297
23	0x3daf4794	0.08558574
24	0x3e953d47	0.29148313
25	0x3e86e89e	0.26349348
26	0x3e8bf776	0.27337235
27	0xbea04ce9	-0.31308678
28	0x3e3c9a36	0.18418202
29	0xbe4739f6	-0.19455704
30	0x3dbd006e	0.092285976
31	0xbea28319	-0.31740645
32	0x3e914c2e	0.28378433
33	0x3e876e78	0.26451468
34	0x3e8c9a14	0.27461302
35	0x3e6195f0	0.22029853
36	0xbea67ab6	-0.32515496
37	0xbd8c5e50	-0.06853926
38	0x3e97f837	0.2968156
39	0x3e2cf24d	0.16889305
40	0x3de29972	0.110644236
41	0xbe9ae333	-0.30251464
42	0xbdda4223	-0.10657146
43	0x3e7be048	0.24597275
44	0xbd4b35e2	-0.049611934
45	0xbe83df8e	-0.25756496
46	0xbdf10eb1	-0.1177038
47	0x3e5995d0	0.21248555
48	0xbe9c4f96	-0.3052947
49	0xbe844bcd	-0.2583908
50	0x3e6cd327	0.23127423
51	0x3e55d324	0.20881325
52	0x3d438af8	0.047739953
53	0x3e1d9da6	0.1539217
54	0x3e578e14	0.21050292
55	0x3e6b64e8	0.22987711
56	0xbe9f5883	-0.31122217
57	0x3e2e3789	0.17013372
58	0xbeb9038f	-0.36135527
59	0x3e5ae23a	0.21375361
60	0xbea62a27	-0.32454035
61	0x3e029c3e	0.12754914
62	0x3e4c511a	0.19952813
63	0xbe6d717d	-0.23187824

network_body._body_endoder.seq_layers.2.weight f4 [64, 64]
0	0xbe3e84c1	-0.18605329
1	0x3de2d7c4	0.1107631
2	0x3d0b8a54	0.034067467
3	0xbddcd154	-0.10782114
4	0x3e15cbba	0.14628497
5	0xbe8b99c9	-0.27265766
6	0xbede21b0	-0.43385077
7	0x3d948995	0.07252804
8	0x3e806fe7	0.25085375
9	0x3bb8adec	0.0056359675
10	0x3eeac5c1	0.45854
11	0xbc6d5f16	-0.014488002
12	0x3cfe61ba	0.031052459
13	0x3e94d2bf	0.29067037
14	0x3e71ff2a	0.23632494
15	0xbd49581b	-0.04915629
16	0x3e12dde1	0.14342453
17	0xbdb19a21	-0.08671976
18	0x3e087099	0.13324203
19	0x3e4e0f96	0.20123133
20	0xbd0ca060	-0.034332633
21	0xbde7a9fe	-0.1131172
22	0xbd46e76a	-0.048560537
23	0xbdbb4ac8	-0.09145123
24	0xbe3401bc	-0.17578787
25	0xbd937a6d	-0.07201085
26	0xbe0168b4	-0.12637597
27	0x3e703be2	0.23460343
28	0xbd17908a	-0.037003078
29	0x3cf04844	0.029331334
30	0xbcce04f7	-0.025148852
31	0x3ddb5fbf	0.107116215
32	0xbe8e63e1	-0.27810577
33	0xbeaee4f4	-0.34159052
34	0xbd90d3c6	-0.070716426
35	0xbdaefa29	-0.08543808
36	0x3e96b65c	0.29436004
37	0xbe08d624	-0.13362938
38	0xbe8779e1	-0.26460174
39	0x3c99fa00	0.018795967
40	0x3e2201dc	0.15821022
41	0xbd800f3c	-0.06252906
42	0x3e00e869	0.12588657
43	0xbd9b5619	-0.07584781
44	0xbe1e654a	-0.15468326
45	0x3e45d8c1	0.19320966
46	0xbdbab8da	-0.09117289
47	0x3d561cce	0.052273564
48	0xbd07de04	-0.033170715
49	0xbcf0ae66	-0.029380035
50	0xbd80e4c9	-0.06293637
51	0x3e405716	0.1878322
52	0x3d71ce30	0.059034526
53	0xbe0e3b18	-0.1388973
54	0x3df43965	0.1192501
55	0xbe5b046f	-0.2138841
56	0x3e6f9daf	0.23399995
57	0xbd8a93b6	-0.06766455
58	0x3e7cd8e0	0.24692106
59	0xbe51653a	-0.20448771
60	0x3e8c13f1	0.27358964
61	0x3ddee447	0.10883384
62	0xbd52d466	-0.05147209
63	0x3ddfd36d	0.10928998
64	0xbe7a3324	-0.24433571
65	0x3d24b5c8	0.040212423
66	0x3daf8ac5	0.0857139
67	0xbd179010	-0.037002623
68	0x3dc19a80	0.09453297
69	0xbd51f857	-0.051262226
70	0xbe1e4abe	-0.154582
71	0xbe0a5224	-0.13507897
72	0x3e59dd7b	0.21275894
73	0x3c0381fc	0.008026596
74	0x3dcdec4c	0.10054836
75	0xbe29b48c	-0.1657278
76	0x3be923cf	0.0071148644
77	0xbc4f7cbf	-0.012664019
78	0x3eeff805	0.4686891
79	0x3e598e3d	0.21245666
80	0x3eddb604	0.4330293
81	0xbe2b4ea1	-0.16729213
82	0x3e24460d	0.16042347
83	0x3e3987db	0.18118231
84	0xbd63eb37	-0.05564424
85	0xbe8b53d0	-0.2721238
86	0xbe35b26a	-0.17743841
87	0xbd99fbc2	-0.07518722
88	0xbe6ce3b1	-0.23133732
89	0x3d6b0e47	0.057386663
90	0xbd85a43e	-0.06525467
91	0x3e47cc6f	0.19511579
92	0xbe36a2a8	-0.17835486
93	0xbde7bf41	-0.11315776
94	0xbdf249a2	-0.118304506
95	0x3e88c5fc	0.2671355
96	0xbe45eb10	-0.1932795
97	0x3daa8d11	0.083276875
98	0xbe1543f0	-0.14576697
99	0x3e1a9ba2	0.15098432
100	0x3e1aef6f	0.15130399
101	0x3dfdac91	0.1238643
102	0xbc4fef06	-0.012691265
103	0x3d0fe658	0.035131782
104	0x3d863ab9	0.06554169
105	0x3ecf94a6	0.40543097
106	0x3dea3783	0.11436369
107	0x3d73a7aa	0.05948607
108	0xbd9ee2bc	-0.0775809
109	0x3e33931e	0.1753659
110	0x3dc25855	0.09489504
111	0x3d9e9514	0.07743278
112	0x3db21713	0.08695807
113	0xbd387ea0	-0.045042634
114	0x3ddfb2ff	0.10922813
115	0xbe2635ba	-0.16231433
116	0x3d683f54	0.05670102
117	0x3d2f065d	0.042730678
118	0x3cf14903	0.02945376
119	0xbeb1a6ed	-0.34697667
120	0x3dac3e7a	0.08410354
121	0x3e2f44bc	0.17116064
122	0xbb8e5092	-0.004343101
123	0xbe17481f	-0.14773606
124	0x3dae5150	0.08511603
125	0xbde03e27	-0.109493546
126	0xbe9e3c89	-0.3090556
127	0x3e640dd6	0.22270903
128	0xbe236597	-0.15956722
129	0xbd9297f3	-0.07157888
130	0x3db706f4	0.08936873
131	0xbd598e23	-0.053114068
132	0xbe6221bf	-0.22083186
133	0x3ef48966	0.47761077
134	0x3d197c2f	0.037471946
135	0x3e8725ca	0.26396018
136	0xbe2be21e	-0.16785476
137	0x3d551559	0.05202231
138	0xbeab9f57	-0.33520004
139	0x3e25cdd6	0.16191801
140	0xbe8a1ecc	-0.2697662
141	0x3e14a08f	0.14514373
142	0xbe51e52a	-0.20497575
143	0xbcc8d7e6	-0.02451701
144	0xbde6d1fb	-0.11270519
145	0x3de82974	0.113360316
146	0xbe8c5690	-0.27409792
147	0xbe523ec7	-0.2053176
148	0x3e51cfeb	0.2048947
149	0x3e74e78b	0.23916452
150	0xbda90ddc	-0.082545966
151	0x3dda54af	0.10660683
152	0x3deb2eeb	0.11483558
153	0x3d1a3328	0.037646443
154	0x3e24c9e5	0.16092642
155	0xbe2ed736	-0.17074284
156	0xbd1213bf	-0.035663363
157	0x3dd3786d	0.10325704
158	0xbe30f7b7	-0.17281996
159	0xbead49cb	-0.33845362
160	0x3e01957d	0.12654682
161	0x3e5dd4a5	0.21663149
162	0x3e5a922e	0.21344826
163	0xbda057b9	-0.07829232
164	0xbe8189fd	-0.2530059
165	0xbe94e796	-0.29082936
166	0x3e271ecd	0.16320343
167	0x3ef3442f	0.47512957
168	0x3dda8eea	0.1067179
169	0xbe37d714	-0.1795314
170	0xbd0aa683	-0.033850204
171	0x3e1c7132	0.15277556
172	0xbe264a97	-0.16239391
173	0xbe640134	-0.22266084
174	0xbd48bba5	-0.049007077
175	0x3ed56f9a	0.41686708
176	0xbe2d2a6e	-0.16910717
177	0xbe1aa421	-0.15101673
178	0xbda72427	-0.081611924
179	0x3ce283a1	0.027650656
180	0xbd30f39b	-0.04320107
181	0xbd7b437e	-0.061343662
182	0x3e1a7ce1	0.150867
183	0x3e626cae	0.2211177
184	0xbe29317d	-0.16522785
185	0x3df3d4b3	0.119058035
186	0xbe01681f	-0.12637375
187	0x3c632ecd	0.013866139
188	0xbea0cf32	-0.31408077
189	0xbb505437	-0.0031788477
190	0x3cfa45ca	0.030550856
191	0xbce3b884	-0.027797945
192	0xbcee4e7a	-0.029090155
193	0x3e4d49ed	0.20047732
194	0x3d38cb57	0.045115795
195	0xbdbbad7d	-0.0916395
196	0xbd606a64	-0.054788962
197	0xbda752f4	-0.08170119
198	0x3e80722f	0.25087115
199	0x3dac6387	0.08417421
200	0x3e84ad61	0.25913528
201	0x3e2e3771	0.17013337
202	0x3e28d27a	0.1648654
203	0xbd17d895	-0.037071783
204	0xbdb31bcb	-0.087455355
205	0xbdd96a93	-0.106160305
206	0x3da27b13	0.07933631
207	0xbc2e31cf	-0.0106319925
208	0xbceeee16	-0.029166263
209	0x3e1c8dbc	0.15288442
210	0x3e2b83ea	0.1674954
211	0x3d7bd26a	0.061479963
212	0x3dd8777a	0.10569663
213	0xbdf3da75	-0.11906902
214	0x3c925398	0.017862126
215	0xbd1c05b2	-0.03809137
216	0xbe2c9bfc	-0.16856378
217	0xbe922d38	-0.28550124
218	0xbe8374e6	-0.25675124
219	0x3e1d2c58	0.15348947
220	0xbe708b72	-0.23490694
221	0xbcb59651	-0.022166403
222	0x3e5efe05	0.21776588
223	0xbd967212	-0.07345976
224	0x3d51208b	0.051056426
225	0xbe1a7208	-0.15082562
226	0x3e4fea85	0.20304306
227	0xbd1b1774	-0.037864164
228	0x3dd1202f	0.10211217
229	0x3e2d9695	0.16951974
230	0xbe1f1aed	-0.15537615
231	0xbe67202c	-0.22570866
232	0x3dfdda97	0.12395208
233	0xbd3df68e	-0.04637771
234	0x3e13d736	0.14437565
235	0xbe11d63c	-0.1424188
236	0xbe23f02e	-0.1600959
237	0xbe1129c9	-0.14176096
238	0x3e1092b6	0.14118466
239	0x3d959b5a	0.073050216
240	0x3c8fd403	0.01755715
241	0xbe2478de	-0.16061732
242	0xbe365c89	-0.17808737
243	0xbded6e87	-0.11593347
244	0x3b869a40	0.0041077435
245	0x3d7fbf94	0.062438563
246	0x3e77cd7c	0.2419948
247	0xbd0777e2	-0.033073314
248	0x3d8d448c	0.0689784
249	0xbc70f429	-0.01470665
250	0x3db076cb	0.08616408
251	0xbdab1741	-0.08354045
252	0x3e3e69bf	0.18595026
253	0x3dd924c1	0.106027134
254	0xbc851121	-0.01624352
255	0x3de7f4ed	0.11326013

network_body._body_endoder.seq_layers.2.bias f4 [64]
0	0xbe5c3fcb	-0.2150871
1	0xbe478fbf	-0.19488429
2	0x3e85f42c	0.2616285
3	0xbde9a474	-0.1140832
4	0xbd9ae778	-0.075636804
5	0xbe34c590	-0.17653489
6	0x3e175200	0.14777374
7	0x3e6aa6ca	0.22915187
8	0xbe742350	-0.23841596
9	0x3e886112	0.2663656
10	0x3e0a5ec3	0.13512711
11	0x3e1d842a	0.15382448
12	0x3e462fcb	0.19354169
13	0xbe51c116	-0.20483813
14	0xbdf22f89	-0.11825473
15	0xbd958e8a	-0.07302578
16	0x3e0ea886	0.13931474
17	0xbe6b3f14	-0.22973281
18	0xbe55d7d4	-0.20883113
19	0xbd30dbc3	-0.04317833
20	0x3ea15422	0.315095
21	0xbe6255b9	-0.22103013
22	0x3e3e1ead	0.1856639
23	0xbdf823df	-0.12116217
24	0x3e9cf7ef	0.30657908
25	0x3dde4449	0.10852868
26	0x3e43728f	0.1908667
27	0xbe4969dd	-0.1966929
28	0xbd255ef0	-0.040373743
29	0xbdea0c8d	-0.11428175
30	0x3b8c32bd	0.0042785094
31	0xbe2a4659	-0.16628398
32	0xbded0918	-0.11574
33	0x3e82c5da	0.25541574
34	0xbe299bd9	-0.16563357
35	0x3e1c37c5	0.1525565
36	0x3e7db890	0.24777436
37	0x3da9a2ad	0.08282981
38	0xbe7c6f73	-0.2465189
39	0x3e4f04e7	0.20216714
40	0xbe1169ec	-0.14200562
41	0x3dc44806	0.0958405
42	0xbaf38103	-0.0018577877
43	0x3e1231a3	0.14276747
44	0xbe703420	-0.23457384
45	0x3ddb4d70	0.107081294
46	0x3dbe5f39	0.09295506
47	0x3e8f90d3	0.2804018
48	0x3dddc46b	0.108284794
49	0x3e18beb6	0.149165
50	0x3e591970	0.2120111
51	0x3d5caa0b	0.053873103
52	0xbe1114ca	-0.14168087
53	0xbcd38713	-0.025821244
54	0x3df62c55	0.120201744
55	0x3e6b14ac	0.22957104
56	0xbe3fdfad	-0.1873767
57	0x3e583ded	0.21117373
58	0xbe2ad51b	-0.16682856
59	0x3e840343	0.25783738
60	0x3e3c1d23	0.1837049
61	0xbdd9d758	-0.10636777
62	0xbe5b5f84	-0.21423155
63	0xbdb15430	-0.086586356
