results/new_test_run_1/simple_deer/simple_deer-102.onnx (onnx, 482433 bytes, 15 tensors)

network_body.observation_encoder.processors.0.self_ent_encoder.seq_layers.0.bias f4 [128]
0	0x00000000	0.0
1	0x00000000	0.0
2	0x00000000	0.0
3	0x00000000	0.0
4	0x00000000	0.0
5	0x00000000	0.0
6	0x00000000	0.0
7	0x00000000	0.0
8	0x00000000	0.0
9	0x00000000	0.0
10	0x00000000	0.0
11	0x00000000	0.0
12	0x00000000	0.0
13	0x00000000	0.0
14	0x00000000	0.0
15	0x00000000	0.0
16	0x00000000	0.0
17	0x00000000	0.0
18	0x00000000	0.0
19	0x00000000	0.0
20	0x00000000	0.0
21	0x00000000	0.0
22	0x00000000	0.0
23	0x00000000	0.0
24	0x00000000	0.0
25	0x00000000	0.0
26	0x00000000	0.0
27	0x00000000	0.0
28	0x00000000	0.0
29	0x00000000	0.0
30	0x00000000	0.0
31	0x00000000	0.0
32	0x00000000	0.0
33	0x00000000	0.0
34	0x00000000	0.0
35	0x00000000	0.0
36	0x00000000	0.0
37	0x00000000	0.0
38	0x00000000	0.0
39	0x00000000	0.0
40	0x00000000	0.0
41	0x00000000	0.0
42	0x00000000	0.0
43	0x00000000	0.0
44	0x00000000	0.0
45	0x00000000	0.0
46	0x00000000	0.0
47	0x00000000	0.0
48	0x00000000	0.0
49	0x00000000	0.0
50	0x00000000	0.0
51	0x00000000	0.0
52	0x00000000	0.0
53	0x00000000	0.0
54	0x00000000	0.0
55	0x00000000	0.0
56	0x00000000	0.0
57	0x00000000	0.0
58	0x00000000	0.0
59	0x00000000	0.0
60	0x00000000	0.0
61	0x00000000	0.0
62	0x00000000	0.0
63	0x00000000	0.0
64	0x00000000	0.0
65	0x00000000	0.0
66	0x00000000	0.0
67	0x00000000	0.0
68	0x00000000	0.0
69	0x00000000	0.0
70	0x00000000	0.0
71	0x00000000	0.0
72	0x00000000	0.0
73	0x00000000	0.0
74	0x00000000	0.0
75	0x00000000	0.0
76	0x00000000	0.0
77	0x00000000	0.0
78	0x00000000	0.0
79	0x00000000	0.0
80	0x00000000	0.0
81	0x00000000	0.0
82	0x00000000	0.0
83	0x00000000	0.0
84	0x00000000	0.0
85	0x00000000	0.0
86	0x00000000	0.0
87	0x00000000	0.0
88	0x00000000	0.0
89	0x00000000	0.0
90	0x00000000	0.0
91	0x00000000	0.0
92	0x00000000	0.0
93	0x00000000	0.0
94	0x00000000	0.0
95	0x00000000	0.0
96	0x00000000	0.0
97	0x00000000	0.0
98	0x00000000	0.0
99	0x00000000	0.0
100	0x00000000	0.0
101	0x00000000	0.0
102	0x00000000	0.0
103	0x00000000	0.0
104	0x00000000	0.0
105	0x00000000	0.0
106	0x00000000	0.0
107	0x00000000	0.0
108	0x00000000	0.0
109	0x00000000	0.0
110	0x00000000	0.0
111	0x00000000	0.0
112	0x00000000	0.0
113	0x00000000	0.0
114	0x00000000	0.0
115	0x00000000	0.0
116	0x00000000	0.0
117	0x00000000	0.0
118	0x00000000	0.0
119	0x00000000	0.0
120	0x00000000	0.0
121	0x00000000	0.0
122	0x00000000	0.0
123	0x00000000	0.0
124	0x00000000	0.0
125	0x00000000	0.0
126	0x00000000	0.0
127	0x00000000	0.0

network_body.observation_encoder.processors.2.normalizer.running_mean f4 [4]
0	0x3efd83ba	0.49514562
1	0x3efd83ba	0.49514562
2	0x3efd83ba	0.49514562
3	0x401d3431	2.4563105

network_body.observation_encoder.x_self_encoder.seq_layers.0.weight f4 [128, 4]
0	0xbd012bd0	-0.031535923
1	0xbcdface2	-0.027304117
2	0x3cca8ec5	0.024726281
3	0xbd5f224c	-0.054476067
4	0x3cbb551d	0.022867734
5	0xbc81c6d9	-0.015841888
6	0x3cbc85a7	0.02301295
7	0xbc81fcdd	-0.015867645
8	0xba617b37	-0.0008601429
9	0xbba0c564	-0.0049063433
10	0xbcad2578	-0.02113603
11	0xbd452b4d	-0.048136998
12	0xbbc28132	-0.0059358114
13	0x3d2addd4	0.041715458
14	0x3b958986	0.004563513
15	0x3d1227c4	0.035682455
16	0xbcc965a5	-0.0245846
17	0x3d8716c6	0.065961406
18	0x3b9d7ad3	0.0048059016
19	0x3d7aac29	0.06119934
20	0x3caeebb7	0.021352632
21	0xbd5d701a	-0.054061987
22	0xbcd08fcc	-0.025459193
23	0xbd14d6eb	-0.036337774
24	0xbc52b73d	-0.01286107
25	0x3c84d578	0.016215071
26	0xbced848a	-0.028993864
27	0xbcf10f0c	-0.02942612
28	0xbca8749b	-0.020563414
29	0x3bb92836	0.0056505455
30	0xbd551b08	-0.052027732
31	0x3c450fc9	0.012027689
32	0x3d1f60e8	0.038910776
33	0xbcac86a0	-0.021060288
34	0xbcbdb193	-0.023155963
35	0x3bdc93c5	0.0067314827
36	0x3a88aea5	0.0010428025
37	0x3b31eb9c	0.002714849
38	0x3d0be18e	0.034150653
39	0xbc81aa23	-0.015828198
40	0xbd1d6789	-0.038428817
41	0x3d647eb6	0.055784903
42	0x3be94f0d	0.0071200193
43	0x3cc560be	0.024093982
44	0x3c256900	0.010095835
45	0x3d3dbd83	0.04632331
46	0x3d0ebdaa	0.034848846
47	0xbcc716de	-0.024302896
48	0xbb464306	-0.0030252351
49	0x3c6166ce	0.013757421
50	0x3ae0d62f	0.0017153675
51	0x3be4384c	0.006964719
52	0xbd66b00e	-0.056320243
53	0x38bb6ed0	8.937495e-05
54	0xbb13c591	-0.0022548179
55	0x3d95f64f	0.0732237
56	0x3c42b2c6	0.011883443
57	0xbc0d0c80	-0.008608937
58	0xbc9a917b	-0.018868199
59	0x3d99510c	0.074861616
60	0xbc8836c9	-0.016627686
61	0x3b7076f6	0.0036692
62	0xbc7a7d38	-0.015288644
63	0xbc0c0f27	-0.0085485345
64	0x3ce5e297	0.028062148
65	0xbbf5c287	-0.007499996
66	0x3d49ed2d	0.049298454
67	0xbcffffff	-0.031249998
68	0x3d6fc116	0.05853375
69	0xbc88f16b	-0.01671668
70	0xbb8c0d76	-0.0042740656
71	0xbb4845f6	-0.0030559278
72	0x3d34cd39	0.044141028
73	0xbce8a628	-0.028399542
74	0x3c78ce04	0.015185837
75	0x3ce7ac32	0.028280351
76	0x3b477cf7	0.0030439475
77	0x3ce5e631	0.028063865
78	0xbcb507e1	-0.022098484
79	0x3b0f3636	0.002185238
80	0x3d205f1c	0.039153203
81	0x3c1fa7e5	0.009744619
82	0xbca302c0	-0.019898772
83	0x3d70e242	0.058809526
84	0xbc70c365	-0.014695023
85	0xba88b128	-0.0010428773
86	0xbd42c734	-0.047553256
87	0x3d7a6145	0.06112792
88	0xbbddf6e1	-0.006773815
89	0xbd0ccca8	-0.034374863
90	0xbda95b3e	-0.08269356
91	0x3b9655b3	0.004587853
92	0x3d02aaec	0.031901285
93	0x3c3ac99b	0.011400606
94	0xbd164810	-0.036689818
95	0xbbe4131c	-0.006960286
96	0xbc99bbda	-0.018766332
97	0x3b8ccf06	0.00429714
98	0x3d00f2db	0.031481605
99	0x3d0cc70d	0.034369517
100	0x3a6e1198	0.0009081601
101	0x3d4eacd6	0.050457798
102	0xbd0d9ed3	-0.034575295
103	0x3c354d95	0.01106586
104	0xbc9c3033	-0.019065952
105	0x3ba381c2	0.0049898336
106	0xbd22d8d7	-0.039757576
107	0x3cbafbaa	0.02282508
108	0x3cda9321	0.026681485
109	0x3d210e1c	0.039320096
110	0x3c881074	0.016609408
111	0xbd212e50	-0.039350808
112	0x3d112f13	0.035445284
113	0xba318646	-0.00067720225
114	0x3c18b939	0.009321504
115	0xbc32ad29	-0.010905542
116	0x3cd76d56	0.026297253
117	0x3cce3846	0.025173318
118	0xbcb8bf69	-0.022552209
119	0xbc149075	-0.009067644
120	0xbd5b0a90	-0.05347687
121	0x3b2bf05f	0.0026235802
122	0xbd90294e	-0.07039128
123	0xbc896d7c	-0.016775839
124	0x3d30f7bb	0.043205004
125	0x3c290f4d	0.010318589
126	0xbc7133a2	-0.014721783
127	0x3d106514	0.035252646
128	0xbd53464c	-0.051580712
129	0x3ca2dc34	0.019880392
130	0xbd007bbd	-0.031368006
131	0x3c89f3bc	0.016839854
132	0xbc3744f9	-0.011185878
133	0x3c9d3cb6	0.019193988
134	0xbc44a129	-0.012001314
135	0xbcea7bee	-0.028623547
136	0xbd4116dd	-0.047140945
137	0x3ca8b9d3	0.02059642
138	0x3d83b323	0.06430652
139	0xbc298344	-0.010346238
140	0xbceb082a	-0.028690416
141	0x3d786911	0.060647074
142	0xbd3cdb02	-0.0461073
143	0x3c6f6a57	0.014612756
144	0x3d49b766	0.049247168
145	0x3bd05c2f	0.0063586454
146	0xbc995f71	-0.018722268
147	0x3b50ec98	0.0031879302
148	0x3c05ee32	0.008174466
149	0xbd2e73e0	-0.042590976
150	0x3c9f14ee	0.01941916
151	0xba3f4ac5	-0.00072972133
152	0xbcf24d91	-0.029578002
153	0x3d193580	0.037404537
154	0xbc4dff34	-0.012573052
155	0xbd0015a6	-0.031270646
156	0xbb9db3d9	-0.0048126993
157	0x3c693844	0.014234606
158	0x3c4990ba	0.012302572
159	0x3c1a7116	0.009426376
160	0xb9ff2ef4	-0.00048672373
161	0xbd87ba44	-0.06627324
162	0xbaacb4d7	-0.0013176453
163	0xb8a52520	-7.874728e-05
164	0x3c893328	0.016748026
165	0x3b3e7102	0.0029059057
166	0xbd44e34a	-0.048068322
167	0x3cec306c	0.028831683
168	0xbcd2cc23	-0.025732106
169	0xbcab74d7	-0.020929737
170	0x3d71b341	0.05900884
171	0xbd1dd324	-0.038531438
172	0x3d7227f5	0.059120137
173	0x3d097a5d	0.03356396
174	0x3d6b7755	0.05748685
175	0x3c9922f9	0.018693434
176	0x3b8428aa	0.004033168
177	0xbb0a3dc4	-0.0021093944
178	0x3cfe31d1	0.031029614
179	0xbc2a567a	-0.010396594
180	0x3d6d2693	0.057898115
181	0xbce3a9b7	-0.027790887
182	0x3c5d9087	0.013523228
183	0xba2d505d	-0.00066114013
184	0xbc48a09a	-0.012245322
185	0x3c9807a3	0.018558329
186	0x3c2ec883	0.010667923
187	0xbccd7186	-0.025078546
188	0x3be11253	0.0068686395
189	0xbccf978d	-0.02534082
190	0x3d79bef2	0.060973115
191	0xbcdde7ff	-0.027088163
192	0x3bfc195e	0.0076934537
193	0x3cc9b66c	0.024623118
194	0x3c09f472	0.008420097
195	0x3c848084	0.016174562
196	0xbcb8813f	-0.022522567
197	0xbc884d0a	-0.016638298
198	0x3c360fb3	0.011112141
199	0x3d4ccaa1	0.04999793
200	0x3cd83604	0.026392944
201	0xbce57118	-0.028008029
202	0x3d00ccb7	0.03144523
203	0x3d01ed22	0.031720288
204	0x3b8c7621	0.004286543
205	0x3be5511d	0.006998195
206	0x3cc3c928	0.02389963
207	0xbd6562ae	-0.05600231
208	0x3d7d0a4a	0.06177739
209	0x3d4ef4d5	0.05052646
210	0xbd863870	-0.06553733
211	0x3c92d4eb	0.017923793
212	0xbc1cd12f	-0.009571358
213	0xbcba0a5e	-0.022710022
214	0xbc3bf8d2	-0.011472898
215	0x395f7044	0.0002130876
216	0xbcb516c7	-0.022105588
217	0x3cdd21fd	0.026993746
218	0x3cbe7754	0.02325026
219	0x3c9e2aec	0.019307576
220	0x3c5591bb	0.013035233
221	0xbc48e93f	-0.012262641
222	0xbd1241cf	-0.03570729
223	0x3d45309a	0.048142053
224	0x3b84cd7e	0.004052817
225	0xbca6391c	-0.020290904
226	0x3d57a34a	0.05264596
227	0xbd73dfe3	-0.059539687
228	0x3bd6733f	0.0065445
229	0xbd008b32	-0.031382747
230	0xbaf8b4c8	-0.0018974775
231	0xbcc79126	-0.024361204
232	0x3d4c35f6	0.04985615
233	0xbd494ef1	-0.04914755
234	0xbb6682e1	-0.0035173225
235	0xbd8c6820	-0.06855798
236	0xbd3776e8	-0.044791132
237	0xbb1282ef	-0.0022355875
238	0x3c4b9dc1	0.012427748
239	0xbcfbbafb	-0.030728808
240	0x3d8ec2e1	0.06970764
241	0x3b39e908	0.0028367657
242	0x3ce4b8a4	0.027920075
243	0x3c5e924e	0.013584686
244	0xbcde509e	-0.02713805
245	0xbc28a1c9	-0.010292479
246	0xbbf1d1ca	-0.007379745
247	0xbcbd4d6a	-0.023108203
248	0x3c50a811	0.012735383
249	0x3bb20573	0.0054327785
250	0x3b6068b4	0.0034242095
251	0xbc04eba8	-0.008112825
252	0xbd091a33	-0.03347225
253	0xb8c956c3	-9.6005875e-05
254	0x3d7ebaf7	0.062190022
255	0xbd29118a	-0.041276492

network_body._body_endoder.seq_layers.0.weight f4 [64, 132]
0	0x3bfa4e7b	0.00763875
1	0xbd07d6a9	-0.0331637
2	0xbcd7ee57	-0.026358766
3	0x3df9cc59	0.12197179
4	0xbdfa7eae	-0.122311935
5	0xbc9d0068	-0.019165233
6	0xbd976bf9	-0.07393641
7	0xb9fb6472	-0.00047949288
8	0x3dcf8490	0.10132706
9	0x3d525286	0.05134823
10	0xbe00cfb3	-0.12579231
11	0x3ce27fc3	0.027648812
12	0x3c9ce454	0.019151844
13	0x3d163a2f	0.036676582
14	0xbe609f0d	-0.21935673
15	0x3e1c8146	0.15283689
16	0xbc9df830	-0.019283384
17	0x3c908286	0.017640363
18	0xbdd009b3	-0.101581
19	0x3d0f562e	0.034994297
20	0x3e29d39b	0.16584627
21	0xbe1271da	-0.14301243
22	0xbd4c0efb	-0.049818974
23	0xbe1f03a9	-0.1552874
24	0x3d7ec770	0.062201917
25	0xbbcf20c3	-0.006321044
26	0x3e1339b8	0.14377487
27	0xbd763354	-0.060107544
28	0xbd99de60	-0.07513118
29	0x3d2be069	0.04196206
30	0xbe13eaa7	-0.14444982
31	0xbda6658c	-0.08124837
32	0xbe178aac	-0.14798993
33	0xbca2694a	-0.019825596
34	0x3d0b635a	0.034030296
35	0xbc68871b	-0.014192368
36	0xbe4b714a	-0.19867435
37	0x3e6312c9	0.22175135
38	0xbdd76b04	-0.105184585
39	0xbd8d8f2c	-0.069120735
40	0xbd3297b2	-0.0436017
41	0x3e1f63dc	0.15565437
42	0x3b345b21	0.0027520137
43	0x3c1c5a2b	0.009542982
44	0xbba70714	-0.0050972793
45	0x3de99593	0.11405482
46	0xbd347c37	-0.044063773
47	0xbc8d2185	-0.017227897
48	0xbd5960fd	-0.05307101
49	0xbdca827e	-0.09888171
50	0x3b9b1797	0.0047330367
51	0x3d3c44a9	0.045963917
52	0x3e457d79	0.19286145
53	0xbe0675b8	-0.13130844
54	0x3dbb0f9f	0.09133839
55	0xbd712d23	-0.058880936
56	0x3cad6792	0.02116755
57	0xbdc9b17f	-0.09848308
58	0xbd31e776	-0.04343363
59	0xbc8ea228	-0.017411307
60	0xbe089445	-0.1333781
61	0xbd91da48	-0.07121712
62	0x3dd19a22	0.102344766
63	0xbd08c6ba	-0.033392645
64	0xbd340a6c	-0.04395525
65	0x3d3b701c	0.045761213
66	0xbe130bc5	-0.14359958
67	0xbd911024	-0.07083157
68	0x3bf592bd	0.007494299
69	0xbd048a68	-0.032358557
70	0x3dc73664	0.09727171
71	0x3e20dbbe	0.15708825
72	0x3db70872	0.08937158
73	0x3d68e281	0.056856636
74	0xbcac2167	-0.021012021
75	0x3dc8dc5f	0.098076575
76	0xbdb93295	-0.09042851
77	0x3cac7693	0.021052634
78	0xbd83d012	-0.06436171
79	0xbc952c99	-0.018209742
80	0xbcaae1ae	-0.020859566
81	0xbd35f783	-0.0444255
82	0x3d65baff	0.056086536
83	0x3b30fe6d	0.0027007118
84	0x3e297b7c	0.16551012
85	0xbda43712	-0.08018316
86	0xbd85ffc1	-0.06542922
87	0xbe2dfd8e	-0.16991255
88	0xbd7bd2c2	-0.06148029
89	0x3e29bdca	0.16576305
90	0xbd853756	-0.06504695
91	0x3d914538	0.070932806
92	0x3d917cbb	0.071038686
93	0x3da1efcc	0.07907066
94	0xbde52342	-0.111883655
95	0x3df43109	0.11923415
96	0x3df2931b	0.118444644
97	0x3ccca530	0.024981111
98	0x3bde4cb4	0.006784046
99	0xbe1484f7	-0.14503847
100	0xbdfb66c7	-0.122754626
101	0x3db8fc40	0.09032488
102	0x3dd95c84	0.10613349
103	0x3d3ca795	0.046058256
104	0x3d82ced8	0.063871086
105	0xbd23aa38	-0.039957255
106	0xbd978ffe	-0.07400511
107	0xbd91fc98	-0.071282566
108	0xbc4df225	-0.012569939
109	0x3dc6eb7d	0.097128846
110	0xbbf59cf0	-0.007495515
111	0xbd8ed242	-0.06973697
112	0x3d084f3e	0.033278696
113	0xbd9e5f14	-0.077329785
114	0xbcd52fa3	-0.026023692
115	0x3d86a372	0.065741435
116	0x3db099ac	0.086230606
117	0xbd8b69a7	-0.06807261
118	0x3c15809a	0.009124899
119	0x3de2ee11	0.11080564
120	0xbbfbe6e5	-0.007687437
121	0x3c8cf2b5	0.017205575
122	0x3bcc9ec8	0.006244514
123	0xbd91eeb4	-0.07125607
124	0xbd1f72af	-0.03892773
125	0xbd762e09	-0.060102496
126	0xbe177cb5	-0.14793666
127	0xbdfdd49f	-0.1239407
128	0xbc88b147	-0.016686095
129	0xbdaca873	-0.08430567
130	0x3ca9651d	0.020678097
131	0xbc1ae2e7	-0.009453512
132	0xbcd4d938	-0.025982484
133	0xbdcb50f0	-0.09927547
134	0xbd406f1d	-0.046980966
135	0x3cd6630d	0.026170278
136	0xbd93e96f	-0.07222258
137	0xbdc10a80	-0.09425831
138	0x3d715821	0.058921937
139	0xbdd9bb29	-0.10631401
140	0xbd3b46a6	-0.045721672
141	0x3d92e089	0.07171733
142	0x3b8ddb28	0.004329104
143	0xbd61e2f2	-0.055148073
144	0xbd8f4bde	-0.069968924
145	0x3d0375b5	0.032094676
146	0xbd40b917	-0.047051515
147	0xbd8fce63	-0.07021787
148	0xbd28b036	-0.041183673
149	0xbc0c5154	-0.008564312
150	0xbcf610ee	-0.03003737
151	0x3c2cdfb6	0.010551384
152	0xbdbee3b6	-0.09320776
153	0xbd13149b	-0.035908323
154	0x3c943bbe	0.018094894
155	0x3cef3a3f	0.029202579
156	0x3d683045	0.05668666
157	0xbd6576ca	-0.05602149
158	0x3d1bc49e	0.038029306
159	0x3d12936c	0.035785124
160	0x3d19d492	0.03755624
161	0xbbdcdd31	-0.0067402353
162	0x3dae356c	0.08506283
163	0x3c11f5c6	0.008908695
164	0x3df7dbfd	0.12102506
165	0x3da6854e	0.081308946
166	0x3c082e4f	0.008311822
167	0xbe4413f1	-0.19148232
168	0x3d4e16fd	0.050314892
169	0x3d8cec77	0.068810396
170	0x3cc8dd0d	0.024519468
171	0x3dd2e2e9	0.10297186
172	0x3d2c4785	0.042060394
173	0x3d801651	0.062542565
174	0xbe115007	-0.14190684
175	0x3c8a1f49	0.016860621
176	0xbd9652c5	-0.07340006
177	0xbc8222da	-0.01588576
178	0xbcd5ea4f	-0.026112704
179	0xbd2fe5f4	-0.04294391
180	0x3e15429f	0.14576195
181	0xbcd13182	-0.025536302
182	0xbcb7649d	-0.022386843
183	0xbdc63d6c	-0.09679684
184	0xbdfa638c	-0.12226018
185	0x3d1f75e1	0.038930777
186	0x3cbe1312	0.023202453
187	0xbd2c5e12	-0.0420819
188	0xbdb3db33	-0.08782043
189	0xbb07de57	-0.002073189
190	0xbd3ab691	-0.045584265
191	0x3c498647	0.012300081
192	0x3d5ef6c7	0.054434564
193	0xbd8a8a09	-0.06764609
194	0xbd7ce979	-0.061746094
195	0xbdd28d4f	-0.10280859
196	0xbbcfa782	-0.006337107
197	0xbd79330e	-0.060839705
198	0xbc92de45	-0.017928252
199	0x3d124453	0.03570969
200	0x3d76741d	0.060169328
201	0xb8e68ced	-0.00010993504
202	0xbcc10da6	-0.023566078
203	0xbd8e256b	-0.06940731
204	0xbdb801c7	-0.08984714
205	0xbdefc15a	-0.11706801
206	0xbc6f0ce9	-0.01459048
207	0xbdf6b656	-0.120464966
208	0x3d94395c	0.07237503
209	0xbd8b30b3	-0.06796398
210	0x3c965280	0.018349886
211	0xbddc2eb3	-0.10751095
212	0x3de69134	0.11258164
213	0xbd0b8db7	-0.034070697
214	0x3d9b3224	0.07577923
215	0x3d3b54cd	0.04573517
216	0xbdab44db	-0.083627425
217	0x3da84bf9	0.08217616
218	0x38a319e9	7.777272e-05
219	0x3acd12d6	0.0015645872
220	0xbe40a987	-0.1881467
221	0xbe11375b	-0.14181273
222	0x3dc4da65	0.09611968
223	0xbe1e43c0	-0.15455532
224	0xbd0f0f8b	-0.034926932
225	0x3a4bce6c	0.00077745947
226	0x3d80cf53	0.06289544
227	0xbcfb3962	-0.03066701
228	0x3e00c5af	0.1257541
229	0x3a4d511b	0.0007832215
230	0xbd77035d	-0.06030594
231	0xbda22265	-0.079167165
232	0xbce71ab4	-0.028210975
233	0xbd29957c	-0.041402325
234	0x3c7a3210	0.015270725
235	0x3d3e9f7c	0.046538815
236	0xbbbb3d02	-0.00571406
237	0xbe0cd785	-0.13754089
238	0xbe010cae	-0.12602493
239	0x3ddbaf36	0.10726778
240	0x3d3012ba	0.04298661
241	0xbc768811	-0.015047089
242	0x3d42fe3b	0.047605734
243	0x3d7c6fd6	0.061630093
244	0x3c812611	0.015765222
245	0xbd84af74	-0.064787775
246	0x3c7b5166	0.015339231
247	0xbc0e033f	-0.008667766
248	0x3b71d1ac	0.0036898656
249	0xbbcbd3c6	-0.0062203137
250	0xbdb75d35	-0.08953325
251	0x3ce98937	0.028507812
252	0x3d964c81	0.07338811
253	0x3ce9d881	0.02854562
254	0x3db32797	0.087477855
255	0xbe24fe0f	-0.1611254

network_body._body_endoder.seq_layers.0.bias f4 [64]
0	0x00000000	0.0
1	0x00000000	0.0
2	0x00000000	0.0
3	0x00000000	0.0
4	0x00000000	0.0
5	0x00000000	0.0
6	0x00000000	0.0
7	0x00000000	0.0
8	0x00000000	0.0
9	0x00000000	0.0
10	0x00000000	0.0
11	0x00000000	0.0
12	0x00000000	0.0
13	0x00000000	0.0
14	0x00000000	0.0
15	0x00000000	0.0
16	0x00000000	0.0
17	0x00000000	0.0
18	0x00000000	0.0
19	0x00000000	0.0
20	0x00000000	0.0
21	0x00000000	0.0
22	0x00000000	0.0
23	0x00000000	0.0
24	0x00000000	0.0
25	0x00000000	0.0
26	0x00000000	0.0
27	0x00000000	0.0
28	0x00000000	0.0
29	0x00000000	0.0
30	0x00000000	0.0
31	0x00000000	0.0
32	0x00000000	0.0
33	0x00000000	0.0
34	0x00000000	0.0
35	0x00000000	0.0
36	0x00000000	0.0
37	0x00000000	0.0
38	0x00000000	0.0
39	0x00000000	0.0
40	0x00000000	0.0
41	0x00000000	0.0
42	0x00000000	0.0
43	0x00000000	0.0
44	0x00000000	0.0
45	0x00000000	0.0
46	0x00000000	0.0
47	0x00000000	0.0
48	0x00000000	0.0
49	0x00000000	0.0
50	0x00000000	0.0
51	0x00000000	0.0
52	0x00000000	0.0
53	0x00000000	0.0
54	0x00000000	0.0
55	0x00000000	0.0
56	0x00000000	0.0
57	0x00000000	0.0
58	0x00000000	0.0
59	0x00000000	0.0
60	0x00000000	0.0
61	0x00000000	0.0
62	0x00000000	0.0
63	0x00000000	0.0

network_body._body_endoder.seq_layers.2.weight f4 [64, 64]
0	0xbdc4c605	-0.09608082
1	0xbdbed5f6	-0.093181536
2	0x3cfb28fa	0.030659188
3	0x3d97d842	0.07414295
4	0x3da108f5	0.078630365
5	0xbdb726e8	-0.08942968
6	0xbe3db138	-0.18524635
7	0xbdb557eb	-0.0885466
8	0x3dd20808	0.10255438
9	0x3d8e811e	0.06958221
10	0x3e1fae52	0.15593842
11	0x3d97f61d	0.07419989
12	0xbdbb97d0	-0.09159815
13	0xbdb36b38	-0.08760685
14	0x3e09acc7	0.13444816
15	0xbdd888ae	-0.105729446
16	0x3da58780	0.08082485
17	0x3dc87aa6	0.09789018
18	0x3d875dc9	0.06609685
19	0x3cd6deab	0.026229223
20	0xbc218f50	-0.0098608285
21	0x3d8f3a8b	0.06993588
22	0x3dbf4118	0.093385875
23	0x3e1f9e86	0.15587816
24	0x3df67abe	0.1203513
25	0x3cfefeba	0.031127322
26	0x3d5fa43f	0.054599997
27	0xbd584e5d	-0.052809108
28	0x3cc404e8	0.02392812
29	0xbc67cc26	-0.014147794
30	0xbc010f40	-0.007877171
31	0x3d3df0b1	0.04637212
32	0xbd9ace27	-0.07558852
33	0x3d29f0eb	0.041489523
34	0x3db6ef62	0.089323774
35	0x3b27d414	0.0025608586
36	0x3d1788a1	0.036995534
37	0x3cc4cd38	0.024023637
38	0x3c7b29b7	0.01532977
39	0xbdfed78f	-0.12443458
40	0x3e045159	0.12921657
41	0x3d543a5c	0.05181347
42	0x3d3ac12c	0.04559438
43	0x3d109f24	0.03530802
44	0x3ce95971	0.028485032
45	0xbc8df756	-0.017329853
46	0xbdc18249	-0.09448678
47	0xbddbc063	-0.10730054
48	0xbe39b8b1	-0.1813686
49	0xbe83bb47	-0.2572882
50	0xbe5340dd	-0.20630212
51	0xbe194521	-0.14967777
52	0x3d9777e0	0.07395911
53	0xbe4bb1c8	-0.19892037
54	0xbd10c9aa	-0.03534857
55	0xbba6ee7b	-0.005094347
56	0xbd114c1d	-0.035472978
57	0xbe1e8f75	-0.15484412
58	0x3cd9acbc	0.026571624
59	0xbdbfe735	-0.09370271
60	0xbe0b33a6	-0.13593921
61	0x3bad5c4d	0.005290544
62	0x3d777fef	0.06042474
63	0xbd333372	-0.043750234
64	0x3d83f959	0.06444044
65	0x3da19a42	0.078907505
66	0x3e67cd9c	0.22637028
67	0xbd4c7f5a	-0.04992614
68	0xbe2103c8	-0.15724099
69	0xbe972f37	-0.2952821
70	0xbbd7077d	-0.006562172
71	0xbd0e6a31	-0.03476924
72	0x3e15762d	0.14595862
73	0xbd0fcb29	-0.035105858
74	0xbcf13db3	-0.029448366
75	0x3dc76341	0.09735728
76	0x3debbd9f	0.11510777
77	0x3d25bab3	0.040461253
78	0xbd822ce7	-0.06356221
79	0x3bb3c991	0.005486675
80	0x3d987f71	0.074461825
81	0x3e6ca97a	0.23111525
82	0xbcf0c46e	-0.02939054
83	0xbdc290f6	-0.09500305
84	0x3de97b89	0.114005156
85	0xbd986941	-0.074419506
86	0xbbeda408	-0.00725222
87	0x3e343f5d	0.17602296
88	0xbe7f326a	-0.24921575
89	0x3e7dc3a5	0.24781664
90	0xbc2722f2	-0.010201203
91	0x3de18df4	0.110134035
92	0xbdc19bc2	-0.094535366
93	0xbdbe0a70	-0.092793345
94	0xbcd69473	-0.026193833
95	0xbd80723a	-0.06271787
96	0x3d0718ea	0.032982744
97	0x3e13ac73	0.14421253
98	0x3e4f9ff1	0.20275857
99	0x3c15ee26	0.009151017
100	0x3c8de6e6	0.017322015
101	0x3e6691e5	0.22516592
102	0x3e33a3e2	0.17542985
103	0xbd863e61	-0.065548666
104	0xbd254a9c	-0.040354356
105	0xbcb21d22	-0.021742407
106	0x3d29ccc8	0.04145506
107	0xbe6c322f	-0.23066019
108	0xbd816a92	-0.06319155
109	0xbdd5eb97	-0.10445326
110	0x3e0f9ba2	0.14024213
111	0xbda1f046	-0.07907157
112	0x3d8f31c8	0.06991917
113	0xbe1d93d0	-0.15388417
114	0xbd7462c7	-0.059664514
115	0xbd762c43	-0.060100805
116	0xbd6dff2e	-0.058104686
117	0xbc2d700b	-0.010585795
118	0x3d4a3ff2	0.04937739
119	0xbe2e05c7	-0.16994391
120	0xbe16eaed	-0.14738055
121	0x3d253b46	0.04033973
122	0xbbb0a5d6	-0.005390863
123	0x3cf758f7	0.030193789
124	0x3dffe790	0.12495339
125	0xbd9984bb	-0.074960195
126	0xbdb9659a	-0.09052582
127	0xbe4fbe2f	-0.20287393
128	0xbe0391b3	-0.12848549
129	0xbd501cc1	-0.05080867
130	0xbdc9e3ea	-0.09857924
131	0x3d2a4a52	0.041574784
132	0x3c119504	0.008885626
133	0xbcc3cd56	-0.023901623
134	0x3ccdc7f8	0.025119767
135	0xbdadfbed	-0.08495317
136	0xbd39d0a0	-0.045364976
137	0xbe6bb72c	-0.23019093
138	0x3e06baaf	0.13157152
139	0xbe1dfe52	-0.15429047
140	0xbdbe90bc	-0.0930495
141	0xbe86696a	-0.262523
142	0xbdebeb2b	-0.11519464
143	0xbd46ba1d	-0.048517335
144	0x3c3b39f1	0.0114273885
145	0x3d25a4b6	0.040440284
146	0x3c65ae85	0.0140186595
147	0xbd85611f	-0.06512665
148	0x3c49f22f	0.0123258075
149	0x3e88a290	0.26686525
150	0xbe897581	-0.2684746
151	0xbc682ed4	-0.014171321
152	0xbd0f94b4	-0.035053924
153	0x3d0621b8	0.032747
154	0x3dea6f79	0.11447043
155	0xbca954e1	-0.020670356
156	0x3c299952	0.010351496
157	0x3d79db62	0.061000235
158	0x3c4c9d0e	0.012488617
159	0x3d7c7d7f	0.06164312
160	0x3dce6f8e	0.10079871
161	0xbdc2feda	-0.09521265
162	0xbca31e3a	-0.019911874
163	0x3e83ec0c	0.25766027
164	0x3e23b06f	0.15985273
165	0x3dfb9768	0.12284738
166	0x3cfc9ad6	0.03083555
167	0xbc5df205	-0.0135464715
168	0xbdb25cda	-0.08709116
169	0x3b2a62da	0.0025998862
170	0xbe0978d6	-0.13425002
171	0xbed0dddb	-0.40794262
172	0x3e0ee771	0.13955475
173	0x3940c680	0.00018384494
174	0x3d72b77c	0.059257016
175	0x3e20d86e	0.15707561
176	0xbdb704de	-0.08936475
177	0x3e1d7271	0.15375687
178	0x3dc721be	0.09723233
179	0xbb27f0a4	-0.002562561
180	0xbdc7897b	-0.09743019
181	0xbe1d80c2	-0.15381148
182	0xbd62585e	-0.055260055
183	0x3c84fbfd	0.016233439
184	0xbd6c705e	-0.05772435
185	0xbe1b5d61	-0.1517234
186	0xba089ed4	-0.00052116555
187	0x3e7d5bfd	0.24742122
188	0x3e829acc	0.25508726
189	0xbde850cc	-0.11343536
190	0xbe3fe804	-0.1874085
191	0xbc71857c	-0.014741298
192	0xbe30adf2	-0.17253855
193	0x3e2a1887	0.16610919
194	0x3d1044bd	0.035221804
195	0xbe213c9a	-0.15745774
196	0xbd53ad5d	-0.051679004
197	0x3d37bb48	0.04485634
198	0x3c8cb650	0.017176777
199	0x3dfe4c56	0.12416904
200	0xbdef8a37	-0.11696284
201	0xbc7e5f46	-0.015525645
202	0xbe057a7c	-0.13035005
203	0xbd8c1997	-0.068408184
204	0x3d8e76c0	0.069562435
205	0xbc9ad0a9	-0.018898325
206	0xbe3cdb41	-0.18443014
207	0x3df6ff66	0.12060432
208	0xbe2f4d94	-0.17119437
209	0x3ded92e5	0.116002835
210	0xbe0d26e8	-0.13784373
211	0x3d75a6cc	0.059973523
212	0xbe1eb8f7	-0.15500246
213	0x3d5c01af	0.053712543
214	0x3df54ba6	0.119773194
215	0xbd878e45	-0.06618933
216	0xbd9ce479	-0.07660765
217	0x3d9b100d	0.07571421
218	0x3d29379a	0.04131279
219	0x3d4c250c	0.04984002
220	0xbc44ea7f	-0.012018799
221	0xbdfd2b20	-0.12361741
222	0x3d39019e	0.045167558
223	0xbda8bb44	-0.08238843
224	0x3de427eb	0.11140426
225	0x3dfd9052	0.123810425
226	0x3d8a04b9	0.06739182
227	0xbd057fc8	-0.032592565
228	0xbd75b5df	-0.0599879
229	0xbcb89a5f	-0.022534547
230	0x3d79d901	0.060997967
231	0xbd6b3cbf	-0.05743098
232	0xbe0e6121	-0.13904239
233	0x3d1f1f52	0.03884823
234	0xbcbd0015	-0.023071328
235	0xbdda23ed	-0.106513835
236	0xbd389e75	-0.04507299
237	0xbd0e96c7	-0.03481176
238	0x3e1d93be	0.1538839
239	0x3eb21d6d	0.34788075
240	0xbce3ef1c	-0.027823977
241	0x3dec0e28	0.115261376
242	0xbd55cb29	-0.0521957
243	0x3e049c4d	0.12950249
244	0x3e271793	0.16317587
245	0x3e29eaba	0.16593447
246	0xbd890c03	-0.06691744
247	0x3dc75da0	0.097346544
248	0xbe917bdd	-0.28414813
249	0x3ddb7574	0.10715762
250	0xbd47a9aa	-0.04874579
251	0x3cf407c6	0.029788863
252	0x3dfb0e51	0.1225859
253	0x3d1699a1	0.036767606
254	0x3e9be59f	0.30448624
255	0x3c475f5c	0.012168732

action_model._discrete_distribution.branches.0.weight f4 [9, 64]
0	0x3c65b697	0.014020584
1	0x3b0b539a	0.0021259547
2	0x3bf77c17	0.0075526345
3	0xbc64a8e2	-0.01395628
4	0xbc317e9f	-0.0108334115
5	0xbb86b54f	-0.004110969
6	0xbd17f7f6	-0.03710171
7	0x3bbcc0df	0.0057602967
8	0xba47ff28	-0.0007629269
9	0xbb8cf167	-0.0043012383
10	0xbbd352ff	-0.006449103
11	0x3aa7d729	0.0012805212
12	0xbc418a44	-0.01181275
13	0x3b90d7f7	0.0044202763
14	0x3bb863b1	0.0056271185
15	0xbc34986b	-0.011022667
16	0x3c1b5704	0.009481195
17	0xbc945648	-0.018107548
18	0x3c2a71c8	0.010403104
19	0xbcc55288	-0.024087206
20	0xb8aa85d5	-8.13116e-05
21	0xbbe90f67	-0.007112432
22	0x3b38096b	0.0028081785
23	0x3ba7433b	0.00510445
24	0xbb590202	-0.003311277
25	0x3c5a3b60	0.01331982
26	0xbc9f1745	-0.019420275
27	0xbbc288e7	-0.00593673
28	0xbcc45cc7	-0.023970021
29	0x3be02458	0.00684027
30	0x3bb7b77f	0.0056065912
31	0x3be5840d	0.007004267
32	0xbc3a8a52	-0.011385517
33	0xbcbb57c8	-0.022869006
34	0xbb00816d	-0.0019608394
35	0xbbbca58a	-0.0057570385
36	0x3a96104d	0.001144895
37	0xbbf3d7b0	-0.0074414834
38	0xb76605c3	-1.371041e-05
39	0xbc56dbcf	-0.01311393
40	0xbc84cfb0	-0.016212314
41	0x3bb35410	0.0054726675
42	0xbb755b27	-0.0037438364
43	0x3cec130d	0.028817678
44	0x3990a701	0.00027590248
45	0xbba96619	-0.0051696417
46	0x3c448621	0.011994869
47	0xbc2b1eff	-0.010444402
48	0x3c8512f5	0.016244391
49	0x3c15f6f1	0.009153114
50	0x3bcac38a	0.006187861
51	0xbc12d684	-0.008962277
52	0x3aa5b4e3	0.001264241
53	0xbc107763	-0.0088175265
54	0x3bb7035f	0.0055851187
55	0x3aa1f3eb	0.0012356018
56	0xbbf3253d	-0.0074202106
57	0xbcbea26b	-0.023270806
58	0xbc2a2ffb	-0.010387416
59	0xbca851db	-0.020546844
60	0x3b0b5bb9	0.0021264388
61	0xbc04e13b	-0.00811034
62	0xbc97b8ba	-0.018520702
63	0x3b1c1350	0.0023815222
64	0xbab92486	-0.0014125265
65	0xbc259bfa	-0.0101079885
66	0xbb84f0e9	-0.004057039
67	0xbc421047	-0.011844701
68	0x3aafbc39	0.0013407535
69	0x3d0eb032	0.034836
70	0x3cafb3fb	0.021448126
71	0x3bf9b533	0.0076204776
72	0xbc36f8cf	-0.011167719
73	0x3b9d8283	0.004806818
74	0x3b80ed5f	0.003934547
75	0x3c39fc38	0.011351638
76	0xbbf24068	-0.0073929317
77	0x3b614fe2	0.003437989
78	0x3c427fd5	0.011871298
79	0xbce72443	-0.028215533
80	0xbc885c5a	-0.0166456
81	0x3c3529b3	0.011057305
82	0x3bb7c11f	0.0056077386
83	0x3ae5de3a	0.0017537542
84	0x3ad7fd00	0.0016478598
85	0xbc76f643	-0.015073362
86	0x3c8947d3	0.016757881
87	0x39a54fd0	0.00031530717
88	0xbbecf74b	-0.007231628
89	0xbc80cc84	-0.01572252
90	0x3a8b73f5	0.0010639416
91	0x3bfc725a	0.0077040615
92	0x3c4a5d61	0.012351365
93	0x3b173888	0.0023074467
94	0x3b643ab7	0.0034825036
95	0x3ba3bdf1	0.004997008
96	0xbc0f7956	-0.008756956
97	0xbbacf94b	-0.0052787415
98	0x3b5d5a0a	0.0033775591
99	0x38a80da2	8.0134036e-05
100	0xbb3b4b60	-0.0028578863
101	0x3c076211	0.008263127
102	0xbbc94a4a	-0.006142889
103	0xbc706773	-0.014673102
104	0x3b364dcf	0.0027817374
105	0x3b7c39d5	0.003848662
106	0xbbfaa5d5	-0.0076491632
107	0xbbde1bb3	-0.0067782043
108	0x3c9bddff	0.019026754
109	0xbafbe1b8	-0.001921705
110	0x3b09d8d9	0.0021033792
111	0xbb3241ff	-0.0027199981
112	0x3ae16cf3	0.0017198607
113	0xbbfab6e0	-0.007651195
114	0x3c0b4eca	0.0085026715
115	0xbc845eee	-0.016158547
116	0xbbb90af3	-0.005647057
117	0x3c3b5a0e	0.011435045
118	0xbc5d84dd	-0.013520447
119	0xbb274a92	-0.0025526625
120	0x3c06b3a3	0.00822154
121	0xbbd9198d	-0.0066253603
122	0xbcab1098	-0.020881936
123	0x3ae930d2	0.0017791039
124	0xbb29e00c	-0.0025920896
125	0x3c79dfd2	0.015251117
126	0xbc7f0bff	-0.015566825
127	0xbc02333f	-0.007946788
128	0xbc155a91	-0.009115831
129	0xbc2cef41	-0.010555089
130	0xbc28a3f4	-0.010292996
131	0xbc3e3dd7	-0.011611423
132	0x3bedd23a	0.007257727
133	0x39817d73	0.00024698264
134	0xbbde51a7	-0.006784636
135	0xb91d2807	-0.00014987598
136	0x3c248533	0.010041523
137	0x3a638e80	0.0008680597
138	0x3b55da3a	0.0032631294
139	0x3b8dfe58	0.0043332987
140	0x3c5c810a	0.0134585
141	0x3c2798c2	0.010229291
142	0x3c30724f	0.010769441
143	0xbc632e40	-0.013866007
144	0x3c48b41f	0.012249975
145	0xbc49eccb	-0.012324522
146	0x3cc0d258	0.0235378
147	0x3c7fb438	0.015606932
148	0x3afeaf2f	0.0019430871
149	0x3c2f5e30	0.010703608
150	0x3bf35487	0.007425848
151	0xbabacd1b	-0.00142518
152	0xbba6dd86	-0.0050923256
153	0x3ba2f023	0.004972474
154	0x3c18787f	0.009306072
155	0xbc7d3157	-0.015453658
156	0x3c102ff0	0.008800492
157	0x3b42164f	0.0029615348
158	0xbb88f5c3	-0.0041796877
159	0x3bce7737	0.0063008326
160	0x3c390817	0.011293433
161	0xbbcdfc55	-0.006286184
162	0xbce4dff0	-0.027938813
163	0x3b9c9c38	0.004779365
164	0x3be20b70	0.006898336
165	0xbc137413	-0.008999842
166	0xbcc914ff	-0.024546145
167	0x3c592487	0.013253338
168	0x3cb98466	0.02264614
169	0x3c71f322	0.01476744
170	0xbcd5cd35	-0.026098827
171	0xbcb40d1b	-0.021978905
172	0x3ca3aa79	0.019978749
173	0x3c59f31f	0.0133025935
174	0xbc889881	-0.016674282
175	0xbcc9f0e9	-0.024651008
176	0x3b848417	0.0040440666
177	0xba73f117	-0.00093056395
178	0x3c8a5dee	0.016890492
179	0x3cad1ffb	0.021133414
180	0x3be18c3d	0.006883173
181	0x3bfca70f	0.0077103446
182	0xba09d2ba	-0.0005257536
183	0x3ce0bfbd	0.027435178
184	0x3c9be46f	0.019029824
185	0x3c2e0c48	0.010623045
186	0xbaaafd03	-0.0013045374
187	0x3a6bf677	0.00090012647
188	0xbc0f13d7	-0.0087327575
189	0xbc18d424	-0.009327922
190	0xbc53e897	-0.012933872
191	0x3a206e8f	0.000611999
192	0x3c73f4a2	0.014889868
193	0xbbd05f3b	-0.0063590086
194	0xbb94eddc	-0.0045449566
195	0xbc62780a	-0.013822565
196	0xbc314ee9	-0.010822036
197	0x3bc1f88f	0.005919523
198	0x3c568565	0.013093327
199	0xbc4f4433	-0.012650537
200	0xbc6a73ff	-0.014309882
201	0xbabd0a0e	-0.0014422552
202	0xba7749c5	-0.0009433295
203	0xbb843881	-0.004035056
204	0x3c17cdf7	0.009265414
205	0x3b99999a	0.0046875
206	0x3a77ca5a	0.0009452455
207	0x3b126110	0.0022335686
208	0xbc8730cd	-0.016502762
209	0x3c03a33c	0.008034524
210	0x3b17cc87	0.002316268
211	0x3c63abb8	0.013895921
212	0x3c01d2fe	0.00792384
213	0xbc44cccb	-0.012011717
214	0x3c16892d	0.009187979
215	0xbc9aaaed	-0.018880332
216	0x3b86929a	0.0041068317
217	0xbb97ad1e	-0.0046287915
218	0x3cd7ea40	0.026356816
219	0xbbc40d2a	-0.0059830146
220	0x3c933767	0.017970754
221	0x3c1f9eb0	0.009742424
222	0xbc8f1b5b	-0.017469099
223	0xbcb8beaa	-0.022551853
224	0xbbc5f576	-0.006041224
225	0x3c9d747c	0.019220583
226	0x3b8c94cf	0.0042902003
227	0xbc131838	-0.008977942
228	0xbcc99cdc	-0.02461093
229	0xbc1c763a	-0.009549672
230	0x3b3eda0a	0.002912166
231	0xbb387d4f	-0.0028150862
232	0x3c983727	0.018580986
233	0xbc23f61b	-0.010007407
234	0xbc3838e3	-0.011244032
235	0xbcfba8a0	-0.030720055
236	0x3b70b8a0	0.0036731139
237	0xbc2c8af5	-0.010531177
238	0x3bc633c1	0.00604865
239	0x3bbeaadb	0.0058187074
240	0xbd0b735b	-0.03404556
241	0xbc8457d3	-0.01615516
242	0x3c86962b	0.016429028
243	0xbbed154f	-0.007235206
244	0x3a10cc3f	0.0005523599
245	0xbca2a194	-0.019852437
246	0x3c9cc9ff	0.019139288
247	0xbc61270a	-0.013742218
248	0x3baacbc5	0.0052122795
249	0x3c0f26e8	0.008737303
250	0x3c18dbd6	0.009329757
251	0xbaadbf5b	-0.0013255881
252	0x3c2a1dfb	0.010383124
253	0xbc16fc03	-0.009215358
254	0x3a019d98	0.0004944443
255	0xbc655c6d	-0.013999087

action_model._discrete_distribution.branches.0.bias f4 [9]
0	0x00000000	0.0
1	0x00000000	0.0
2	0x00000000	0.0
3	0x00000000	0.0
4	0x00000000	0.0
5	0x00000000	0.0
6	0x00000000	0.0
7	0x00000000	0.0
8	0x00000000	0.0

onnx::Div_186 f4 [4]
0	0x3de16520	0.11005616
1	0x3de16520	0.11005616
2	0x3de16520	0.11005616
3	0x401d98ab	2.462443

onnx::MatMul_189 f4 [129, 128]
0	0xbcbf689a	-0.023365308
1	0x3cc4f768	0.024043754
2	0x3c900130	0.017578691
3	0xbb03eb7f	-0.002012938
4	0xbb825012	-0.0039768303
5	0xbc55469c	-0.013017323
6	0xbca4f032	-0.020134065
7	0xbbf4257e	-0.0074507585
8	0xbd1edc3c	-0.03878425
9	0x3b35fc31	0.0027768726
10	0x3ae1b459	0.0017219885
11	0xbbd63e2a	-0.0065381723
12	0xbcf16753	-0.029468214
13	0xbd0cbcb8	-0.034359664
14	0x3d06fc14	0.032955244
15	0xbc198140	-0.0093691945
16	0x3b652114	0.0034962343
17	0x3d03ec70	0.032207906
18	0x3d27fc84	0.041012302
19	0x3d19d3de	0.037555568
20	0x3c617a16	0.013762018
21	0xbc1b0b16	-0.009463092
22	0xbc656f63	-0.014003607
23	0x3d002d5d	0.03129326
24	0x3bd80b8e	0.0065931743
25	0x3be15fe2	0.006877885
26	0x3d6dff80	0.058104992
27	0xbd3356b7	-0.04378387
28	0xbc5e4e9b	-0.013568546
29	0x3c4040d7	0.011734209
30	0x3d1b8b4a	0.037974633
31	0x3c5837ed	0.0131969275
32	0x399f3a6e	0.00030370377
33	0x3d0c4550	0.03424579
34	0xbc38895e	-0.01126322
35	0xbd4b6e99	-0.04966602
36	0xbd001390	-0.031268656
37	0xbd3345ee	-0.043767862
38	0xbcb5a46d	-0.02217313
39	0xbd008c20	-0.031383634
40	0xbbd0c73f	-0.0063714082
41	0x3cfd8f40	0.030952096
42	0x3ccbed95	0.024893561
43	0xbc5dc636	-0.013536027
44	0xbbebf0d6	-0.0072003407
45	0xbdb9f6cb	-0.09080275
46	0x3d77b173	0.060471963
47	0xbc35489f	-0.0110646775
48	0xbc33199a	-0.010931397
49	0xbbaa3664	-0.005194472
50	0x3cc0735a	0.023492504
51	0xbc6493fb	-0.013951297
52	0xbd2e79d6	-0.04259666
53	0xbb85d955	-0.004084746
54	0x3ba88be5	0.00514363
55	0xbce77a89	-0.028256672
56	0xbc1590f5	-0.009128799
57	0x3c47a70e	0.012185825
58	0xbcdb0c66	-0.02673931
59	0x3bf14a84	0.0073636193
60	0xbc3677ed	-0.011136991
61	0xbc9d3207	-0.019188894
62	0xbd1a4469	-0.037662897
63	0x3afe9998	0.0019424437
64	0x3d767ec3	0.060179483
65	0x3cae6451	0.021288069
66	0xbc6c70dc	-0.014431205
67	0xbbf62267	-0.0075114253
68	0x3ccfe956	0.025379818
69	0xbd33828d	-0.043825675
70	0xbce81a4d	-0.028332854
71	0xbc67ab7c	-0.014140006
72	0xbd3cdd26	-0.04610934
73	0xbce032ae	-0.027367916
74	0x3cabb9de	0.020962652
75	0xbcd21beb	-0.025648078
76	0x3c7a6094	0.015281815
77	0x3d223ffc	0.0396118
78	0xbaec4548	-0.0018026019
79	0xbd00613a	-0.031342722
80	0xbd51cbb9	-0.051219676
81	0xbbd5f9cb	-0.006530022
82	0x3c26e79c	0.010187056
83	0x3b19ddec	0.0023478223
84	0x3ce3c62f	0.027804462
85	0xbce318d1	-0.027721794
86	0xbc9a7b89	-0.018857734
87	0xbca0ba07	-0.019619955
88	0x3c23c836	0.0099964645
89	0x3d1d5a41	0.03841615
90	0x394fcb1c	0.00019816722
91	0x3bbeadcc	0.005819058
92	0x3cb3c5e4	0.021944948
93	0x3c2f13c8	0.010685869
94	0x3ce79ef4	0.028274037
95	0xbb848e12	-0.0040452564
96	0xbc8d27af	-0.017230837
97	0xbcdacf94	-0.02671031
98	0x3c20719f	0.009792714
99	0xbd06e132	-0.032929607
100	0x3c7b20e6	0.015327668
101	0xbc99b14e	-0.018761303
102	0xbbe6dc83	-0.00704533
103	0x3d03ba56	0.032160126
104	0x3b7aab38	0.0038249027
105	0xbd0b6f26	-0.034041546
106	0xbc87d105	-0.01657916
107	0xbd04af8d	-0.03239398
108	0x3d3427c5	0.04398324
109	0x3b464e69	0.0030259138
110	0x3cc289ea	0.023747403
111	0x3d8bc394	0.06824413
112	0x3c22e6bb	0.009942706
113	0xbc59450c	-0.013261091
114	0x3d50a2c4	0.050936475
115	0x3c3ca131	0.01151304
116	0x3c514a92	0.012774127
117	0x3cbac6e8	0.022799924
118	0xbd394a3b	-0.045236807
119	0x3baf75a1	0.0053545986
120	0x3d5149e4	0.05109586
121	0xbcf00518	-0.029299304
122	0x3ca1d1b4	0.019753315
123	0xbb812196	-0.0039407713
124	0xbd1bce33	-0.038038444
125	0x3caf0a08	0.021367088
126	0xbcf187ee	-0.029483762
127	0x3d877788	0.06614596
128	0xbcc391c8	-0.023873225
129	0xbd16edc4	-0.036847845
130	0xbca56b60	-0.020192802
131	0xbccec76a	-0.025241572
132	0xba874b20	-0.0010322072
133	0xbc8ecb8f	-0.017431049
134	0x3da4956d	0.08036313
135	0x3c81c361	0.015840234
136	0xbd0e09a0	-0.034677148
137	0x3c8a2f7c	0.016868345
138	0x3cf05b82	0.02934051
139	0x3ca5e1d5	0.020249287
140	0x3c9052e3	0.017617648
141	0x3d0aede7	0.033918288
142	0xbd6fcb5b	-0.058543544
143	0xbd300eab	-0.04298274
144	0x3b3fe807	0.0029282586
145	0xbd8a40d0	-0.06750643
146	0x3c3fbb33	0.011702347
147	0x3c6e42fe	0.014542339
148	0xbcb4fc01	-0.022092821
149	0xbc0ee1b0	-0.0087208
150	0x3c54d708	0.012990721
151	0x3ccfbea0	0.025359452
152	0xbcbf26c2	-0.02333391
153	0x3d05ed0c	0.03269677
154	0x3d9f9479	0.07791991
155	0xbd2e1576	-0.042500935
156	0x3d09a51a	0.03360472
157	0x3c1b6054	0.009483416
158	0xbd855ad6	-0.06511466
159	0x3c3201ec	0.010864716
160	0x3ce7c062	0.028289977
161	0xba6c8e45	-0.00090238854
162	0xbc9de201	-0.019272806
163	0xbcb16c22	-0.021658007
164	0xbc5cfa0a	-0.013487348
165	0xbd1f7b4d	-0.03893595
166	0xbc1090a8	-0.008823551
167	0x3d02c7fb	0.031928997
168	0xbb97066a	-0.004608919
169	0x3b96ba4b	0.0045998446
170	0x3c088ec6	0.008334821
171	0x3d62b0e9	0.055344496
172	0x3d82cad5	0.063863434
173	0xbcd691b8	-0.026192531
174	0xbb8411fe	-0.004030465
175	0x3bb8c3c2	0.0056385705
176	0xbc1db4f5	-0.009625663
177	0xbc8aa6e7	-0.016925288
178	0x3c760c72	0.015017616
179	0x3d33de90	0.043913424
180	0xbc5a5dcf	-0.01332803
181	0x3cf7e91c	0.030262522
182	0xbad0dd59	-0.0015935107
183	0xbd328670	-0.04358524
184	0xbce0dd33	-0.027449226
185	0x3c803f4a	0.015655179
186	0xbb6be78a	-0.0035996162
187	0xbcc81889	-0.024425762
188	0xbd287b6e	-0.041133337
189	0xbd1077e6	-0.035270594
190	0x3c7a1cda	0.015265668
191	0x3d4a1810	0.049339354
192	0x3c48e9a7	0.012262738
193	0x3d058369	0.032596026
194	0x3bd5f507	0.0065294537
195	0xbb33d064	-0.0027437443
196	0x3c1d7ff2	0.009613024
197	0x3c7cc9cc	0.0154289715
198	0xbc0864e9	-0.00832484
199	0xbd1f3fd0	-0.038879216
200	0xbcb635f9	-0.022242533
201	0x3d96ca09	0.07362754
202	0xbd65cf26	-0.056105755
203	0x3d6a3c23	0.057186257
204	0xbab35930	-0.0013683196
205	0xbd860eef	-0.06545817
206	0x3c83d002	0.016090397
207	0xbc59471b	-0.013261582
208	0x3c65c307	0.014023549
209	0xbbaf752d	-0.0053545446
210	0xbc145b2d	-0.009054941
211	0xbd718a82	-0.058969982
212	0xbb1673fc	-0.0022957316
213	0x3b76c556	0.0037654242
214	0xbceeeb6a	-0.029164989
215	0xbda4d27d	-0.0804796
216	0x3d34d88f	0.04415184
217	0xbc5d1f6d	-0.013496262
218	0xbc0fa1e6	-0.008766627
219	0xbc795d52	-0.015220003
220	0x3d116513	0.035496783
221	0x3da3b186	0.07992844
222	0xbd32e44d	-0.043674756
223	0xbcb1bddc	-0.021696977
224	0xbc0a4ae6	-0.008440709
225	0x3ce20e18	0.027594611
226	0x3c971b9f	0.018445788
227	0xbc7d9bbb	-0.015479024
228	0x3bea9d18	0.0071598403
229	0xbca3659f	-0.019945918
230	0x3ca1eb62	0.01976556
231	0xbd0bcdec	-0.03413193
232	0xbc47c40a	-0.012192735
233	0xb9b92981	-0.00035316873
234	0xbbe4fe97	-0.0069883573
235	0x3c7803be	0.015137611
236	0x3c49f16e	0.012325628
237	0xbd1f3e26	-0.03887763
238	0x3d0dde12	0.03463561
239	0x3cf7bf4c	0.030242585
240	0xbca8fbc8	-0.020627871
241	0x3c97cc74	0.018530108
242	0x3c57655a	0.013146723
243	0xbc7388f8	-0.014864199
244	0x3c81150f	0.015757112
245	0x3c25b72a	0.0101144705
246	0xbd0a87aa	-0.033820786
247	0xbb569f69	-0.0032748824
248	0xbd064fcc	-0.032790944
249	0x3c4e33c9	0.012585589
250	0xbcbc4d74	-0.022986151
251	0xbcaef130	-0.021355242
252	0x3a943451	0.0011307095
253	0xbcab91b4	-0.0209435
254	0xbd3ee54a	-0.046605386
255	0xbd7cf895	-0.061760504

onnx::MatMul_190 f4 [129, 128]
0	0xbcd15720	-0.02555424
1	0xbcf7ff92	-0.030273233
2	0xbcd2664a	-0.02568354
3	0x3cd5e795	0.026111403
4	0xbc79e3ee	-0.015252097
5	0x3c95c40b	0.018281957
6	0xbd0c9a5a	-0.03432689
7	0xbcb2bc9b	-0.02181845
8	0xbcfab91b	-0.030605843
9	0xbd0cc205	-0.03436472
10	0xba9c3783	-0.0011918399
11	0xbd4413f1	-0.04787058
12	0x3cab88b0	0.020939201
13	0x3c4d9f99	0.012550258
14	0xbc049c52	-0.00809391
15	0x3cf37eba	0.029723514
16	0x3cf3d409	0.029764192
17	0xbd3e1fd4	-0.046417072
18	0xbc7d1477	-0.015446774
19	0xbaaeabf2	-0.001332639
20	0xbcaaaf15	-0.020835439
21	0xbd846fe6	-0.064666554
22	0xbcd21b93	-0.025647914
23	0xbc425490	-0.011860982
24	0xbbe09deb	-0.006854763
25	0xb9aa2283	-0.0003245064
26	0x3c6513a3	0.013981733
27	0xbba0061c	-0.004883541
28	0x3d4cdde4	0.0500163
29	0xbc6aaa07	-0.014322764
30	0x3cc4a2d8	0.024003431
31	0xbce6842b	-0.028139194
32	0x3d2eceb0	0.04267758
33	0xbd4fcbb1	-0.050731365
34	0x3bf2c1ad	0.007408342
35	0x3d11b8d0	0.03557664
36	0xbc292a43	-0.010325017
37	0xbd3571ba	-0.04429791
38	0x3b506f13	0.0031804487
39	0xbca019aa	-0.019543488
40	0x3d05e744	0.032691255
41	0x3cf533a5	0.029931853
42	0x3cfb3a37	0.030667407
43	0x3bf9a094	0.0076180194
44	0x3ca5255c	0.020159416
45	0xbd211724	-0.03932871
46	0x3b9ada61	0.00472574
47	0xbd3dd040	-0.04634118
48	0x3cb8f648	0.022578374
49	0x3b4f5cf9	0.003164111
50	0xbd8091a2	-0.06277777
51	0x3c779682	0.015111567
52	0xbc6ed631	-0.014577434
53	0xbd3f005f	-0.046631213
54	0x3bb6a876	0.0055742813
55	0xbb123c63	-0.0022313825
56	0x3bc5d77f	0.006037652
57	0xbc924152	-0.017853413
58	0x3c413ebe	0.011794744
59	0x3c9fc50a	0.019503135
60	0xbcd29f2f	-0.02571067
61	0xbb70aa73	-0.003672269
62	0x3d16c994	0.036813334
63	0x3c457ef2	0.012054192
64	0xbc8d7de5	-0.017271945
65	0x3cd86fd2	0.026420508
66	0xbd15901c	-0.036514387
67	0xbb16a53f	-0.0022986678
68	0x3ca1db6f	0.019757954
69	0xbb022c2b	-0.0019862752
70	0xbc9ffb86	-0.019529115
71	0xbc8c7ddc	-0.017149858
72	0x3cd63919	0.026150273
73	0xbb8ca2c2	-0.004291863
74	0x3c7b4a9a	0.015337611
75	0x3d525f22	0.051360257
76	0xbd5aa655	-0.053381283
77	0xbca020f3	-0.019546961
78	0x3cd38410	0.025819808
79	0xba6fe8b7	-0.00091518037
80	0x3d1a3e90	0.03765732
81	0xbce07aab	-0.027402243
82	0x3cd8250a	0.02638485
83	0x3cdd7e32	0.027037714
84	0xbc11eb10	-0.008906141
85	0x3cac3633	0.021021938
86	0x3b0b61ee	0.0021268087
87	0xbc9e3f7d	-0.019317383
88	0xbbb12889	-0.0054064435
89	0xbc388706	-0.011262661
90	0xbb242941	-0.0025049003
91	0x3d399a06	0.045312904
92	0xbd2893b1	-0.041156475
93	0x3d09e578	0.033666104
94	0x3cc12898	0.023578927
95	0x3c61c7f5	0.013780584
96	0x3c8c725d	0.017144376
97	0xbc98ff2f	-0.018676369
98	0xbcada881	-0.021198513
99	0xbb37fdf2	-0.0028074947
100	0xbd0d27ea	-0.034461893
101	0xbc5ff1e2	-0.013668509
102	0xbc23cf18	-0.0099981055
103	0xbb40f533	-0.0029443025
104	0xbd01b41f	-0.031665917
105	0x3c524fd6	0.012836417
106	0xbcf1121e	-0.029427584
107	0xbd48765c	-0.048941
108	0xbcd42e2f	-0.025900928
109	0xbdacf4fc	-0.084451646
110	0x3c824e5e	0.015906509
111	0x3ce6f73b	0.02819406
112	0x3ca91e1a	0.020644236
113	0x3c931c77	0.017957909
114	0x3d045722	0.03230966
115	0xbcf007c8	-0.029300585
116	0x3cf32c05	0.029684076
117	0x3c12b808	0.008955009
118	0xbd3bb0bd	-0.045822848
119	0xbce90e77	-0.02844928
120	0xbce915b2	-0.028452728
121	0xbcfba8e0	-0.030720174
122	0xbd709e78	-0.058744878
123	0x3c05df01	0.008170844
124	0xbccac337	-0.024751289
125	0xbc6dca47	-0.014513559
126	0x3c8d9df4	0.017287232
127	0x3bd5dd82	0.00652665
128	0xbc3b11e7	-0.0114178425
129	0x3d4c8661	0.04993284
130	0x37a8add8	2.0108113e-05
131	0xbc869a7b	-0.016431084
132	0x3d277b33	0.040888976
133	0xbc6cd87c	-0.014455911
134	0xbcaf38f9	-0.021389471
135	0x3bec6776	0.007214482
136	0xbbca5721	-0.0061749374
137	0xbc65c76e	-0.0140245985
138	0x3b87ae52	0.0041406536
139	0x3d845f86	0.06463532
140	0xbd020343	-0.031741392
141	0xbc9910b6	-0.018684726
142	0xbbdc4d42	-0.006723077
143	0x3da441c9	0.0802036
144	0x3d3792c2	0.044817694
145	0xbcd7ff97	-0.026366992
146	0xbd63ba71	-0.055597726
147	0xbce56002	-0.027999882
148	0x3cb625d6	0.022234838
149	0xbc895a5f	-0.016766725
150	0xbcf80af6	-0.030278664
151	0xbc4aea18	-0.012384914
152	0xbab9750c	-0.0014149263
153	0x3c9cd39f	0.019143878
154	0xbc312586	-0.010812169
155	0x3ce26828	0.027637556
156	0xbd09ecaf	-0.033672985
157	0xbd29a12c	-0.04141347
158	0x3b00e052	0.0019664955
159	0x3d678709	0.056525264
160	0xbdd632ea	-0.1045893
161	0xbcee2e8d	-0.029074932
162	0xbcee69ea	-0.029103238
163	0x3d25a875	0.040443856
164	0xbc4d724a	-0.012539456
165	0x3c8694a7	0.016428305
166	0xbbbd43a9	-0.005775888
167	0xbcb1939c	-0.021676831
168	0xbc7154f4	-0.014729727
169	0xbc4e7265	-0.012600516
170	0xbcf458ef	-0.029827563
171	0xbc2125cd	-0.009835673
172	0xba8ef799	-0.001090753
173	0xbbc7eb95	-0.0061010816
174	0x3cbdb23c	0.023156278
175	0xbcccebf4	-0.025014855
176	0xbc1e3cfa	-0.009658093
177	0xbca1c83d	-0.019748801
178	0xbc9b38ce	-0.018947985
179	0x3b4671bc	0.0030280193
180	0xbd624de1	-0.055250052
181	0xbbf07b2d	-0.0073389024
182	0xbc103632	-0.008801984
183	0xbcca979a	-0.024730492
184	0xbce01f50	-0.027358681
185	0xbd74fa2f	-0.059808906
186	0xbd9ec198	-0.07751769
187	0x3d19e454	0.037571266
188	0xbc1fc56a	-0.009751657
189	0x3d963ed1	0.073362
190	0x3c19184d	0.009344173
191	0x3cf0354b	0.029322287
192	0x3cb7c5f8	0.022433266
193	0x3d218725	0.039435524
194	0x3d627818	0.05529031
195	0xbd5c8a54	-0.053842857
196	0x3d1f3990	0.038873255
197	0xb8ee6e3d	-0.00011369258
198	0xbbff61a9	-0.0077936244
199	0xbd17a907	-0.03702643
200	0xbcba022f	-0.02270612
201	0xbd8c8172	-0.06860627
202	0xbd38eb24	-0.045146123
203	0xbd56dc9e	-0.05245649
204	0xbcff5c81	-0.031172039
205	0x3c1a1070	0.009403333
206	0x3d4e5d02	0.050381668
207	0xbc9c0d4c	-0.01904931
208	0xbba5750e	-0.0050493544
209	0xbc50785a	-0.012724007
210	0xbd1d24e0	-0.038365245
211	0xbd3dbc63	-0.046322238
212	0x3c86747d	0.016412968
213	0x3bd52449	0.0065045697
214	0xbd56d51f	-0.052449342
215	0xbbecb82e	-0.0072241044
216	0xbd49f9b7	-0.049310412
217	0x3d00e21c	0.031465635
218	0x3cc489bf	0.023991464
219	0x3d5aee00	0.05344963
220	0xbcffbf32	-0.031219099
221	0x3d7b1c6d	0.061306406
222	0x3d08c346	0.033389352
223	0xbcb48090	-0.02203396
224	0xbc92cf93	-0.017921245
225	0x3c02775e	0.00796303
226	0x3b20813c	0.0024491092
227	0x3d7d6014	0.061859205
228	0x3cd5f18a	0.026116151
229	0xbc3b6da5	-0.0114397155
230	0x3d395db1	0.045255367
231	0x3cbd5100	0.023109913
232	0xbc82ab1f	-0.015950738
233	0x3c4bf7c2	0.012449207
234	0xb8d31430	-0.00010065024
235	0xbce382bb	-0.027772298
236	0x3d3d44a3	0.046208035
237	0x3d38d7b5	0.04512759
238	0x3c85a7d6	0.016315382
239	0xbd827e6c	-0.06371769
240	0xbd13afa6	-0.036056183
241	0xbc422197	-0.011848829
242	0xbc617e2a	-0.01376299
243	0x3d13f10d	0.036118556
244	0x3b8231c6	0.0039732186
245	0xbc965a1f	-0.01835352
246	0x3c94d336	0.01816712
247	0x3cbd0f38	0.023078546
248	0x3b514afa	0.0031935559
249	0x3b41fcf4	0.0029600235
250	0xbc10179e	-0.008794693
251	0xbc2540c7	-0.010086245
252	0xbdc8e9c3	-0.098102115
253	0xbc4aaf06	-0.01237083
254	0xbd0dbaa0	-0.034601808
255	0xbd1526e6	-0.03641405
