results/new_test_run_1/simple_deer/simple_deer-103.onnx (onnx, 480881 bytes, 15 tensors)

network_body.observation_encoder.processors.0.self_ent_encoder.seq_layers.0.bias f4 [128]
000000 00 00 00 00 00 00 00 00 00 00 00 00 00 00 00 00
       0.0 0.0 0.0 0.0
000010 00 00 00 00 00 00 00 00 00 00 00 00 00 00 00 00
       0.0 0.0 0.0 0.0
000020 00 00 00 00 00 00 00 00 00 00 00 00 00 00 00 00
       0.0 0.0 0.0 0.0
000030 00 00 00 00 00 00 00 00 00 00 00 00 00 00 00 00
       0.0 0.0 0.0 0.0
000040 00 00 00 00 00 00 00 00 00 00 00 00 00 00 00 00
       0.0 0.0 0.0 0.0
000050 00 00 00 00 00 00 00 00 00 00 00 00 00 00 00 00
       0.0 0.0 0.0 0.0
000060 00 00 00 00 00 00 00 00 00 00 00 00 00 00 00 00
       0.0 0.0 0.0 0.0
000070 00 00 00 00 00 00 00 00 00 00 00 00 00 00 00 00
       0.0 0.0 0.0 0.0
000080 00 00 00 00 00 00 00 00 00 00 00 00 00 00 00 00
       0.0 0.0 0.0 0.0
000090 00 00 00 00 00 00 00 00 00 00 00 00 00 00 00 00
       0.0 0.0 0.0 0.0
0000a0 00 00 00 00 00 00 00 00 00 00 00 00 00 00 00 00
       0.0 0.0 0.0 0.0
0000b0 00 00 00 00 00 00 00 00 00 00 00 00 00 00 00 00
       0.0 0.0 0.0 0.0
0000c0 00 00 00 00 00 00 00 00 00 00 00 00 00 00 00 00
       0.0 0.0 0.0 0.0
0000d0 00 00 00 00 00 00 00 00 00 00 00 00 00 00 00 00
       0.0 0.0 0.0 0.0
0000e0 00 00 00 00 00 00 00 00 00 00 00 00 00 00 00 00
       0.0 0.0 0.0 0.0
0000f0 00 00 00 00 00 00 00 00 00 00 00 00 00 00 00 00
       0.0 0.0 0.0 0.0
000100 00 00 00 00 00 00 00 00 00 00 00 00 00 00 00 00
       0.0 0.0 0.0 0.0
000110 00 00 00 00 00 00 00 00 00 00 00 00 00 00 00 00
       0.0 0.0 0.0 0.0
000120 00 00 00 00 00 00 00 00 00 00 00 00 00 00 00 00
       0.0 0.0 0.0 0.0
000130 00 00 00 00 00 00 00 00 00 00 00 00 00 00 00 00
       0.0 0.0 0.0 0.0
000140 00 00 00 00 00 00 00 00 00 00 00 00 00 00 00 00
       0.0 0.0 0.0 0.0
000150 00 00 00 00 00 00 00 00 00 00 00 00 00 00 00 00
       0.0 0.0 0.0 0.0
000160 00 00 00 00 00 00 00 00 00 00 00 00 00 00 00 00
       0.0 0.0 0.0 0.0
000170 00 00 00 00 00 00 00 00 00 00 00 00 00 00 00 00
       0.0 0.0 0.0 0.0
000180 00 00 00 00 00 00 00 00 00 00 00 00 00 00 00 00
       0.0 0.0 0.0 0.0
000190 00 00 00 00 00 00 00 00 00 00 00 00 00 00 00 00
       0.0 0.0 0.0 0.0
0001a0 00 00 00 00 00 00 00 00 00 00 00 00 00 00 00 00
       0.0 0.0 0.0 0.0
0001b0 00 00 00 00 00 00 00 00 00 00 00 00 00 00 00 00
       0.0 0.0 0.0 0.0
0001c0 00 00 00 00 00 00 00 00 00 00 00 00 00 00 00 00
       0.0 0.0 0.0 0.0
0001d0 00 00 00 00 00 00 00 00 00 00 00 00 00 00 00 00
       0.0 0.0 0.0 0.0
0001e0 00 00 00 00 00 00 00 00 00 00 00 00 00 00 00 00
       0.0 0.0 0.0 0.0
0001f0 00 00 00 00 00 00 00 00 00 00 00 00 00 00 00 00
       0.0 0.0 0.0 0.0

network_body.observation_encoder.processors.2.normalizer.running_mean f4 [2]
000000 67 66 16 3f 8c f6 fb 3e
       0.58750004 0.49211538

network_body.observation_encoder.x_self_encoder.seq_layers.0.weight f4 [128, 2]
000000 4c a4 7e 3d 24 25 46 bb 2b 1c d8 bb 60 1d cd bc
       0.062168404 -0.003023454 -0.0065951548 -0.025038421
000010 5a 9e 41 3d 81 70 83 3b ed 49 a0 3c 3e 5c 1c bd
       0.047270156 0.0040112142 0.0195665 -0.038173907
000020 0c 29 41 bd 4c 53 b6 bc c0 ec ec bb a2 c6 e2 3b
       -0.047158286 -0.022256516 -0.0072303712 0.0069206515
000030 b4 cb 3b bd 93 d6 48 bc 9e 4a 0f bc 33 3f 22 bd
       -0.045848563 -0.01225819 -0.0087458175 -0.039611053
000040 eb a1 4b 3d 46 27 ea bb ab c2 63 bd 37 20 55 3d
       0.049714964 -0.007145795 -0.05560557 0.052032676
000050 4f d6 a5 3c e7 3b af bc 5d fe c8 3b 5d 59 97 bc
       0.020243792 -0.021390868 0.006133838 -0.018475229
000060 11 2a 6b 3c c9 b7 74 bb 8c e4 34 3c 9d 39 70 3d
       0.014353291 -0.003734099 0.011040818 0.058648694
000070 7a ec 1f 3d 4b 4c 98 3d 56 ab 73 bb d2 05 91 3c
       0.03904388 0.07436427 -0.0037180982 0.01770297
000080 9c 14 96 3c b1 e7 04 3c 97 c2 c1 3b 36 58 59 bd
       0.018320374 0.00811188 0.0059130895 -0.05306264
000090 11 68 02 3d a4 8b 21 bd 20 02 6f 3a 99 45 6f bc
       0.031837527 -0.039439812 0.0009117443 -0.014603996
0000a0 c8 93 9d bb 13 1c b8 bb db 08 a4 bc ac f5 bb 3b
       -0.0048088767 -0.005618581 -0.020023754 0.0057360735
0000b0 1c 87 82 3c 58 e5 2d bd fb 20 89 bc 91 fe 20 bc
       0.015933566 -0.042455047 -0.01673936 -0.009826318
0000c0 da 0b 06 bd 9d 93 21 3d d1 83 32 bd 88 44 63 3d
       -0.032726146 0.039447416 -0.04358274 0.05548528
0000d0 d2 6d 83 bd ec 9f e6 bb f3 98 a7 bc 3c 6f cc bc
       -0.06417431 -0.007038107 -0.020458674 -0.024955384
0000e0 e4 d2 9c 3c 63 73 3e 3d ba 74 79 bc 62 d8 5c 3b
       0.01914353 0.04649676 -0.015225584 0.003369831
0000f0 cf 63 f4 3c 43 f2 44 3a 45 06 08 3c c0 83 14 3d
       0.029832749 0.00075129064 0.008302276 0.03625846
000100 09 80 0a 3d 1d 78 d1 3b d3 d8 e3 bb 5c bc 57 bd
       0.03381351 0.0063924924 -0.0069533377 -0.052669868
000110 d9 79 70 bd f6 5a 0a 3c 37 1c 6f bc 5f 94 04 bc
       -0.058709953 0.008444538 -0.014594129 -0.008092015
000120 12 01 d7 bc 4c 74 71 3c 36 08 41 bb fc 1e ae bc
       -0.026245628 0.0147372 -0.0029454357 -0.021255009
000130 aa 2e e5 3b 17 62 23 bd 01 eb 25 3d d5 c6 96 ba
       0.006994088 -0.039888468 0.04050732 -0.0011503348
000140 f1 fd 05 bd 2b 71 a1 bd 13 c3 7b bc d0 90 15 3a
       -0.03271288 -0.07882913 -0.015366334 0.00057054777
000150 10 2a 4a 3d 78 59 04 bc 2a 2c 45 bc 96 a0 8f bc
       0.04935652 -0.008077972 -0.012034455 -0.017532628
000160 d3 2c a1 3c d6 78 29 3d a9 23 2a bc 5c 1c 1f bd
       0.019674694 0.041375004 -0.010384479 -0.038845405
000170 44 6a 01 bd ab 52 8d bc a6 c2 38 bd 95 e7 44 3d
       -0.031595483 -0.017251333 -0.045107506 0.048072416
000180 05 88 e2 bc dd 66 e3 bb 13 1e 16 bd 84 c5 58 39
       -0.02765275 -0.0069397525 -0.036649775 0.00020672946
000190 be f0 87 bd d5 38 39 3c 01 10 c0 3d 15 5b 28 3d
       -0.06637715 0.011305054 0.093780525 0.041102488
0001a0 55 ff c2 bc 45 6a 8e bd 7f 45 89 bc 7e 87 89 3c
       -0.023803392 -0.06953863 -0.016756771 0.01678824
0001b0 33 34 1f bd 87 c8 57 3c 40 0c 94 b9 94 f9 9e 3d
       -0.03886814 0.013170368 -0.00028237887 0.07762447
0001c0 cd 54 df bc 0c c0 23 bd 27 e2 4f bc 78 cc 9a bd
       -0.027262116 -0.039978072 -0.012688196 -0.075585306
0001d0 71 5c b3 bc d9 42 ea 3c c4 c2 90 bd 73 63 ec 3c
       -0.021894665 0.028596329 -0.070683986 0.028856015
0001e0 84 9c ea 3c 13 80 78 b9 f9 a5 fe 3b fd e4 21 3d
       0.028639086 -0.00023698834 0.0077712503 0.03952502
0001f0 ee 45 eb bc 49 78 43 3d b7 cb 03 bd a0 80 8d bb
       -0.028719869 0.047722135 -0.0321767 -0.004318312
000200 43 a2 ab 3b e6 77 88 bc a7 18 01 3b 56 ca 75 3c
       0.005237849 -0.016658735 0.0019698532 0.015001854
000210 bb d1 49 bc 13 31 cd 3c 5a 73 64 39 61 96 af bc
       -0.01231807 0.025047814 0.00021786746 -0.021434011
000220 f0 02 3f bd c5 63 fd bb ac 4d a4 bc 20 73 e5 bc
       -0.04663366 -0.0077328407 -0.020056568 -0.028008997
000230 01 7e 97 3c d1 af 42 3d de 60 a5 bb 45 c7 a6 3c
       0.0184927 0.047530953 -0.005046948 0.020358691
000240 05 db 28 3d 74 22 f7 bb 71 c6 24 3d b7 3c 2b bc
       0.0412245 -0.007541949 0.04022831 -0.010451487
000250 43 45 60 bc 13 de 31 bd 2b 87 4a bd d0 05 3e 3d
       -0.013688388 -0.043424677 -0.049445312 0.046392262
000260 83 78 52 bd 3d 0b bc bc 37 9e 42 bc 3e ab 26 bc
       -0.05138446 -0.022954578 -0.011878542 -0.010172663
000270 12 9d aa 3c d5 1f 11 3d 4a dc 4f 3d 21 f8 bb bb
       0.02082685 0.035430748 0.050747193 -0.0057363664
000280 77 1f 99 bc b5 cc d5 bb 0f 31 0e bc 34 bc 0e 3c
       -0.018691761 -0.006524647 -0.008678689 0.008711863
000290 7a 43 05 bd 45 10 c7 bc 3d ca 3f bb cd 9e 9b 3c
       -0.032535054 -0.02429975 -0.002926483 0.01899662
0002a0 14 40 66 bd 6b 92 6b bd 2f 40 a3 3c 68 ec 5e bb
       -0.056213453 -0.057512682 0.019928066 -0.003401542
0002b0 fa 9c d5 bc c1 6d bc 3c 5b d0 c9 3b 00 81 2f bc
       -0.026075829 0.023001553 0.006158871 -0.010711908
0002c0 c6 5f 69 3c 29 1c 45 3c 28 c2 99 3c 85 45 9f bb
       0.014244026 0.01203064 0.018769339 -0.0048605823
0002d0 cf 45 58 bc c0 3c d5 bb 39 70 63 3b 57 6e 0e bb
       -0.013200237 -0.006507486 0.003470434 -0.0021733248
0002e0 3f 55 f5 3b 3b f5 40 bd 2e 60 da 3b 9c 8b 82 3c
       0.0074869688 -0.04710887 0.0066642975 0.015935712
0002f0 63 b6 c9 3c cf 2c eb bc da 9b ef bc c7 9f b5 3c
       0.024623102 -0.02870789 -0.02924912 0.022170914
000300 02 56 91 bc 21 3d b6 bc 1b e3 cb 3c 95 27 10 bb
       -0.017741207 -0.022245945 0.024888566 -0.002199625
000310 e2 f6 2d bc 23 5b 99 bc f4 66 69 3c 3a 73 16 3d
       -0.0106179435 -0.018720215 0.014245737 0.036730982
000320 50 3b 86 bd 42 4d fc 39 23 91 ed 3b 07 e5 4c bd
       -0.06554282 0.00048122747 0.0072499677 -0.050023105
000330 60 f0 a4 3b ba 18 27 bc 0c 38 bc 3b 4b 24 73 3c
       0.0050335377 -0.010198766 0.005743986 0.014840196
000340 20 bf 06 3b 80 30 1c bc 64 33 ee 3c d2 35 3d 3c
       0.0020560697 -0.009533048 0.02907724 0.011548476
000350 b8 9f 3c bc e1 8d ed bc 35 6a 72 bc 73 1c df bc
       -0.011512689 -0.028998317 -0.01479583 -0.027235245
000360 af 5c be bc 68 a0 bf bb 8f 87 23 bd 56 88 55 3b
       -0.023237554 -0.0058479793 -0.0399242 0.0032582483
000370 97 7f 2d 3d 92 d6 92 bb 0a d8 3b 3b f5 57 f5 bc
       0.042358007 -0.004481145 0.0028662705 -0.029949168
000380 6c cd e4 bc d4 de 40 bd b2 04 69 3c a9 c0 51 3d
       -0.027929984 -0.047087505 0.014222311 0.051209126
000390 81 0c 01 3c 68 b6 10 3d 2e 43 1d bb 9a 23 0a bd
       0.007876516 0.035330206 -0.002399634 -0.03372536
0003a0 61 12 be 3b eb 3e 34 3c 3c 3b df 3c ec 72 65 bc
       0.005800531 0.011001329 0.027249925 -0.01400445
0003b0 3d 0e b5 3b df 58 bf 3c 35 c7 00 bc dd 68 04 3d
       0.005525379 0.023357807 -0.007859995 0.032326568
0003c0 29 df 9a 3c 53 3e c0 bc 1c 75 32 bc 9b 46 eb bc
       0.01890524 -0.023467219 -0.010892179 -0.02872019
0003d0 00 84 0a 3d 36 79 9d 3c 6e aa 29 bc 09 7c 17 bc
       0.03381729 0.019222837 -0.010355575 -0.009245881
0003e0 5a b9 96 bc 00 6d 61 3c de 9e 36 3c 40 a3 9c 3c
       -0.01839893 0.013758898 0.011146275 0.019120812
0003f0 93 d0 40 3c f1 fb c8 bc cc 0e 06 bc c3 a6 4a 3c
       0.011768478 -0.024534198 -0.008182239 0.012368861

network_body._body_endoder.seq_layers.0.weight f4 [64, 130]
000000 02 22 9d be c1 5a d6 bc 2b b9 08 3e c3 4f 43 bd
       -0.30690008 -0.026166322 0.13351886 -0.04768349
000010 c9 a7 3a 3d a6 4a 36 bc c1 60 c9 bc 36 60 28 3e
       0.04557017 -0.011126196 -0.024582269 0.16442952
000020 69 a3 37 3e 91 9b a4 bd 71 51 61 3d 05 af 93 3d
       0.1793343 -0.080374844 0.05500931 0.07211117
000030 9e 27 fa bc 9e d5 22 bd 5a e5 87 3b 1e 3b 06 bb
       -0.03053647 -0.039754502 0.004147214 -0.0020482014
000040 9d 44 5d bc 7b 56 9a 3c 03 c6 66 bc 1e a9 1b bc
       -0.013505128 0.018840065 -0.014085296 -0.00950077
000050 75 fd dc bc 2b 0f 73 bc 6f e7 cb 3d 7a 4f af 3d
       -0.026976326 -0.014835159 0.09956252 0.08560081
000060 ce d9 ce 3d 70 f9 0e be cd 75 71 bd cb dc af 3d
       0.10100137 -0.1396234 -0.058950234 0.08587035
000070 7a e3 e6 bd 5e 6f a1 bd d3 d8 fb bd 5b 54 57 3e
       -0.112738565 -0.0788257 -0.12297215 0.21028273
000080 23 59 9f 3d 95 ae fe bd 14 51 2f 3c 88 fb 8f bd
       0.07780673 -0.12435643 0.010700483 -0.07030398
000090 22 b2 64 bd 9f e4 35 3d 24 0f 06 bb dc 47 8f bd
       -0.055833943 0.044407483 -0.0020455802 -0.06996128
0000a0 6c 86 03 3d 62 28 b0 bc db 3b 37 bc fa 96 ce bc
       0.032110617 -0.021503631 -0.011183704 -0.025218476
0000b0 76 dd ce 3a 03 41 a3 bd a1 58 83 bd 49 07 ee bc
       0.0015782553 -0.079713844 -0.06413389 -0.029056208
0000c0 a9 b1 36 3d 2a 54 f2 bc a8 ae c0 bd 35 49 45 3c
       0.044603024 -0.029581148 -0.09408313 0.01204138
0000d0 15 c9 ae ba e1 5c b2 3b bf 8b 9c bd a1 b1 41 bc
       -0.0013335074 0.005443201 -0.07643842 -0.011822135
0000e0 8a 1e 3d bd ca 34 e2 bc cc d2 16 3e 9d 0d 46 3b
       -0.046171702 -0.027613062 0.1472885 0.0030220516
0000f0 a1 c9 48 bd 04 8c bc bc be 91 b9 bd 95 1d 45 3d
       -0.049020413 -0.023015983 -0.09061001 0.048123915
000100 ca f8 e9 3c 0d ef 86 bd 24 d8 05 be 44 13 91 3d
       0.028561015 -0.06588564 -0.13070732 0.07083753
000110 c1 34 0e 3d b0 f4 09 3e 33 75 a9 3c 18 7d 66 3d
       0.03471828 0.13472247 0.020685768 0.056271642
000120 29 9c 23 be c1 b2 3d 3c 98 05 1d 3c df 38 13 bd
       -0.15977539 0.011578263 0.009583853 -0.03594291
000130 22 3d 9b bd a9 b4 fd 3c c1 17 08 be 35 39 2c be
       -0.075800195 0.030969935 -0.13290311 -0.16818698
000140 7c 69 2b 3e 43 2d f9 3c e2 4f ce 3c ce f4 4f 3d
       0.16739458 0.03041709 0.025184575 0.050770573
000150 5a 77 5b bd 07 f1 23 3e f3 60 15 3d 70 e4 ab 3d
       -0.05358062 0.16009913 0.03646941 0.0839318
000160 97 57 68 bc 6d 5b 1f bd 36 1f 53 3d 45 68 9c bd
       -0.014181039 -0.03890555 0.051543437 -0.07637075
000170 91 17 7c bd b7 4e 99 bc 99 cb 11 be 54 8d b2 3c
       -0.061545912 -0.018714292 -0.14237823 0.021795906
000180 c9 59 c3 bc 42 d9 25 bc aa 18 40 3a 44 74 b3 bd
       -0.023846524 -0.010122599 0.0007327894 -0.0876241
000190 f5 60 16 3e 0f de 6a 3d 95 42 3b bd 99 c4 8c 3c
       0.14685424 0.057340678 -0.045717794 0.017183589
0001a0 fc e1 83 be 05 74 26 bd 51 0a cc 3c 70 04 fd 3d
       -0.2575835 -0.04063799 0.024907263 0.12354362
0001b0 19 3e f3 bd 95 31 54 be af 30 84 bd 43 79 2f 3d
       -0.118770786 -0.20722039 -0.06454598 0.042840254
0001c0 b7 ed 13 3e 6f 0b c8 bc d4 19 3a bc 51 50 cc bd
       0.1444615 -0.024419514 -0.011358697 -0.09976257
0001d0 c6 ff 0e bd bc cf 27 3d 2e af b2 bc 16 d2 a4 bc
       -0.034911893 0.040969595 -0.021812048 -0.020119708
0001e0 50 0e 9a bc 68 ac 89 bc 00 19 a0 bd 50 7b 52 bc
       -0.018805653 -0.016805843 -0.07817268 -0.012846783
0001f0 8c 07 c4 bd 03 bd bf bd e3 23 10 bd 19 de 38 3e
       -0.09571752 -0.09362223 -0.035190474 0.18053474
000200 4d 1b 0c be 23 c6 90 3d 02 ee 26 3d 8b df 2c be
       -0.1368229 0.070690416 0.040754326 -0.1688215
000210 77 6b ea 3c 52 f6 dc 3d ad b3 d5 bb 5a 2f 89 bc
       0.028615696 0.10789169 -0.006521663 -0.016746212
000220 31 a9 96 3c 40 1f ab 3a 37 63 1c 3e a3 0f cd 3c
       0.018391224 0.0013055578 0.15272222 0.02503187
000230 65 8d fb 3d 0c f7 83 bd 54 75 cb 3d 09 81 9b bc
       0.12282828 -0.06443605 0.09934488 -0.018982427
000240 25 36 07 bd fc 52 43 3e 05 fa a5 bd 70 9f 0a be
       -0.03301062 0.19074625 -0.08104328 -0.13537383
000250 a5 c4 9a bc 80 39 61 3e d1 87 83 3d d7 e6 77 3c
       -0.018892596 0.21994591 0.06422389 0.01513072
000260 be 9b 94 3d 5c 27 e0 bd 79 bc 10 be 45 82 66 bd
       0.07256268 -0.10945007 -0.14134397 -0.05627658
000270 cb 45 d0 3d dd ae 89 bd 60 f5 1e bd 1d 8d 81 bb
       0.10169562 -0.06722806 -0.038808227 -0.0039535896
000280 e8 58 44 3e 43 73 16 bd 04 86 d3 3b 17 28 cc 3d
       0.1917454 -0.036731016 0.006455185 0.09968584
000290 ed db 97 bc 8e 4e 72 bd 54 55 83 bd 2d a2 91 bd
       -0.018537486 -0.059156947 -0.064127594 -0.07111011
0002a0 14 d7 5f 3d 3a 25 b9 3d 4a 95 13 3d ef 03 d1 bc
       0.054648474 0.090403035 0.036031045 -0.025514571
0002b0 14 c3 74 3d 7e 3f 82 3c 06 ef 0c be 13 bb b4 bc
       0.059756353 0.015899416 -0.13763055 -0.02206186
0002c0 f2 e3 6a 3d 30 39 3f 3c a7 36 1b 3e a9 d3 f6 3c
       0.05734629 0.011671349 0.15157567 0.030130224
0002d0 f0 87 20 3d 06 44 d2 b9 c6 0f 2a bd 2d d2 da bd
       0.03919214 -0.00040105003 -0.04151895 -0.10684619
0002e0 4b 3c 45 bd af cd c3 3d 54 fc cf 3c 3a 3b 8a bd
       -0.048153203 0.095607154 0.025388874 -0.06749578
0002f0 3c b2 5e 3a 75 c4 e7 bd 88 de 41 bc ae 31 8d bd
       0.0008495187 -0.11316768 -0.011832841 -0.06894241
000300 6a 27 94 bd 63 b0 30 3d d3 94 e6 bd 24 6b 6e bc
       -0.0723408 0.043136965 -0.11258855 -0.0145519115
000310 0c 9f aa bd 5b 34 5d 3b 32 e7 3f 3d a5 b4 17 3e
       -0.08331117 0.003375313 0.046851344 0.14815004
000320 a8 c1 17 bc d2 06 47 3c a4 08 34 3d f6 2e d0 bd
       -0.00926248 0.012147622 0.043953553 -0.10165207
000330 b9 6f be 3c 27 ad 1f 3e a5 99 42 3c f6 1d 04 3e
       0.023246633 0.15593396 0.011877452 0.12902054
000340 f8 68 84 3d 5d a0 18 3e 2c ec ab 3c 3e d0 33 bd
       0.06465334 0.14904924 0.020986639 -0.043899767
000350 22 26 7b bd 1e 28 82 bd fa 91 91 3d 6b 76 90 3d
       -0.061315663 -0.06355308 0.07107921 0.070538364
000360 8b a4 9b bb 70 a2 69 3d f4 fe 7e bd a5 8d 88 bd
       -0.0047498397 0.057039678 -0.06225486 -0.066676416
000370 7a 0f ef ba 3d 93 18 3d 0d 1b 1b bd 8c fc ef 3d
       -0.0018238865 0.037249792 -0.037867595 0.11718091
000380 aa a9 69 bc ef dd 2f be 47 2f 9f 3d 4f 44 54 3d
       -0.0142616425 -0.17174505 0.07772689 0.051822957
000390 30 8f 93 3d a3 de 21 be e7 75 f2 3d e9 40 cc bd
       0.07205045 -0.15807585 0.11838894 -0.09973318
0003a0 ea ed ac bc c3 02 c6 3d 59 69 8b bd 6b 7e 0a bd
       -0.02110954 0.096684955 -0.06807203 -0.033811968
0003b0 a6 0e 0a bd f5 37 04 be 17 fb 8b 3c ae 05 3e 3e
       -0.033705376 -0.12911971 0.017087502 0.18556854
0003c0 2d 14 46 3c 18 ee 97 bd e0 f6 66 bd 7f 14 05 be
       0.012089771 -0.0741846 -0.056387782 -0.129961
0003d0 62 70 68 3d 4a 61 be 3d 39 d9 98 bd 8e 81 d2 bc
       0.0567478 0.092959 -0.07463307 -0.025696542
0003e0 3c 25 1f 3b 6b f0 98 bd ff b5 90 3c 80 14 42 bd
       0.0024283668 -0.07467731 0.017664908 -0.04738283
0003f0 95 f4 d0 bc 82 93 c3 bd 79 5b 82 bd 28 40 e1 bd
       -0.02550725 -0.09549619 -0.06365103 -0.10998565

network_body._body_endoder.seq_layers.0.bias f4 [64]
000000 00 00 00 00 00 00 00 00 00 00 00 00 00 00 00 00
       0.0 0.0 0.0 0.0
000010 00 00 00 00 00 00 00 00 00 00 00 00 00 00 00 00
       0.0 0.0 0.0 0.0
000020 00 00 00 00 00 00 00 00 00 00 00 00 00 00 00 00
       0.0 0.0 0.0 0.0
000030 00 00 00 00 00 00 00 00 00 00 00 00 00 00 00 00
       0.0 0.0 0.0 0.0
000040 00 00 00 00 00 00 00 00 00 00 00 00 00 00 00 00
       0.0 0.0 0.0 0.0
000050 00 00 00 00 00 00 00 00 00 00 00 00 00 00 00 00
       0.0 0.0 0.0 0.0
000060 00 00 00 00 00 00 00 00 00 00 00 00 00 00 00 00
       0.0 0.0 0.0 0.0
000070 00 00 00 00 00 00 00 00 00 00 00 00 00 00 00 00
       0.0 0.0 0.0 0.0
000080 00 00 00 00 00 00 00 00 00 00 00 00 00 00 00 00
       0.0 0.0 0.0 0.0
000090 00 00 00 00 00 00 00 00 00 00 00 00 00 00 00 00
       0.0 0.0 0.0 0.0
0000a0 00 00 00 00 00 00 00 00 00 00 00 00 00 00 00 00
       0.0 0.0 0.0 0.0
0000b0 00 00 00 00 00 00 00 00 00 00 00 00 00 00 00 00
       0.0 0.0 0.0 0.0
0000c0 00 00 00 00 00 00 00 00 00 00 00 00 00 00 00 00
       0.0 0.0 0.0 0.0
0000d0 00 00 00 00 00 00 00 00 00 00 00 00 00 00 00 00
       0.0 0.0 0.0 0.0
0000e0 00 00 00 00 00 00 00 00 00 00 00 00 00 00 00 00
       0.0 0.0 0.0 0.0
0000f0 00 00 00 00 00 00 00 00 00 00 00 00 00 00 00 00
       0.0 0.0 0.0 0.0

network_body._body_endoder.seq_layers.2.weight f4 [64, 64]
000000 ea 5e 3f 3e 17 81 1a be 3a 0f be 3b e6 f5 11 be
       0.1868855 -0.15088306 0.005800155 -0.14253959
000010 e3 ea d2 3c a2 d0 49 3c 3c ea 27 3e 7e 67 13 3d
       0.025746768 0.012317808 0.16397947 0.03598737
000020 f5 cd 11 be 24 5c f1 bd c7 aa 97 3d fa 2d f1 bd
       -0.14238723 -0.117851526 0.0740562 -0.117763475
000030 a5 02 a0 bd a2 d2 28 3e fd 4c 59 3d f3 70 e0 bd
       -0.078130044 0.164866 0.053051937 -0.10959043
000040 73 9f 94 bc 2c 57 86 3e 71 c5 03 3c 52 68 7b bd
       -0.018142438 0.26238382 0.008042679 -0.061378784
000050 b6 49 e8 bd 2f ac a6 bd 08 f4 fd bc bb be 2d 3d
       -0.11342184 -0.0813831 -0.031000152 0.042418223
000060 92 b9 6b be c5 65 1f 3e 9f ef 08 3d 69 f8 60 bd
       -0.23020008 0.15566166 0.033431645 -0.054924402
000070 66 52 b2 3d e4 6d 13 be 52 f9 9b 3c 35 ec e1 bd
       0.087071225 -0.14397389 0.019039784 -0.11031381
000080 28 fc 73 3c cd 9d 23 be 8c f6 57 bd e4 24 6c be
       0.014891662 -0.15978165 -0.05272536 -0.23060948
000090 b5 84 18 be fb 6a ae bd b6 80 29 be a0 ee 0d bd
       -0.14894374 -0.08516499 -0.16553006 -0.0346514
0000a0 5e 4b 99 3c 84 01 a1 3d 96 2f 96 be 38 3e 9a 3d
       0.018712696 0.07861617 -0.2933318 0.075313985
0000b0 fd 72 5a bd 1e 64 e0 bd 48 5f 02 3c 5c ac 5a 3d
       -0.053332318 -0.10956596 0.007957287 0.05338703
0000c0 df 19 29 3e 05 36 87 3e d4 0b ef 37 9c 54 af bb
       0.16513775 0.264084 2.8496528e-05 -0.0053506624
0000d0 38 21 10 3d 15 29 0a 3c 65 70 36 3e f1 b9 0c 3e
       0.03518793 0.008432646 0.17816313 0.13742806
0000e0 1f 12 b9 bc 70 18 10 3e 5f 2b 94 bd cf d0 c2 3c
       -0.022591649 0.14071822 -0.07234835 0.023781208
0000f0 2c fb 37 bd 7d e5 c6 3d eb a6 24 be a6 51 d4 3d
       -0.04491727 0.0971174 -0.16079299 0.10367136
000100 bd 6a 56 bd b1 dc 31 3e 5f dd 8e 3d 6c ca 66 3e
       -0.052347887 0.17369343 0.06975817 0.22538155
000110 af e2 5c 3e 78 fa f8 bd c4 83 15 be ed 70 87 3e
       0.21570848 -0.12157148 -0.14601046 0.26453343
000120 bf 15 97 bc fe dc cb 3d 35 55 01 3e dc c2 a3 bd
       -0.018442987 0.0995426 0.1263016 -0.07996151
000130 af 4c ed 3d b0 95 e7 3d 0e 46 a8 3d a6 81 e2 bc
       0.11586892 0.113078475 0.08216487 -0.027649712
000140 aa df 08 3e 50 a3 c7 3d 52 e7 90 3d 07 e9 fa bd
       0.13366571 0.09747946 0.07075371 -0.12251478
000150 93 ff 1b bd 8d 1b bf bd f8 f3 39 3d 25 c0 31 3d
       -0.03808553 -0.09331427 0.045398682 0.043396134
000160 18 54 19 3d 8a 14 84 be 3b dd 8a 3c a6 d6 28 be
       0.037433714 -0.2579692 0.016951194 -0.16488132
000170 04 48 b5 bd 33 84 90 3c b5 d9 99 3d a8 e4 37 3e
       -0.088516265 0.017641162 0.075122274 0.17958319
000180 df f5 50 3d 37 1f 13 3c 8c 1f 73 3e 57 2a c6 bd
       0.05101573 0.00897961 0.23742503 -0.096760444
000190 e2 ac 36 3e ed cc 77 3c 17 81 41 bd 41 f4 ab bd
       0.17839387 0.015124542 -0.04724225 -0.08396197
0001a0 26 d9 12 be 49 d2 47 bd 25 5a a2 bd 32 0f 55 3d
       -0.14340648 -0.048784528 -0.0792735 0.052016445
0001b0 a9 7e 1e 3e c0 fd 1a be 16 b0 bd bd 18 27 03 3e
       0.15478005 -0.1513586 -0.09262101 0.12807882
0001c0 99 b5 d9 bc 60 d6 6a be e9 3b 42 3d a5 fe 1e be
       -0.02657585 -0.2293334 0.047420416 -0.15526827
0001d0 b7 75 fc 3c dd 65 b2 3d 96 5e be 3c d7 16 01 bd
       0.03081785 0.08710835 0.023238461 -0.031515922
0001e0 77 48 16 be 0b 51 89 bd e8 3c c5 bc dc 75 4f 3e
       -0.1467608 -0.06704911 -0.024076894 0.20259804
0001f0 c3 28 9b 3d ac dd 0c bd 4f 4b a8 3c 20 21 78 bc
       0.07576134 -0.03439109 0.020543722 -0.015144616
000200 52 ae 1c 3d c1 af d4 3d d7 b5 7e 3e 3a 2a 50 be
       0.038252182 0.10385085 0.24874054 -0.20328608
000210 20 aa 3c be ec e3 53 bd 4c 72 3c 3d 69 a1 dd 3d
       -0.18424273 -0.051731035 0.04600744 0.10821802
000220 4a b1 f2 3c 6b 3f 9a 3d 59 88 fa bd 93 41 e3 bd
       0.029625554 0.07531627 -0.122330375 -0.11096492
000230 62 7f 38 be 66 71 f2 3b 1e 85 1a be 25 f7 f1 3d
       -0.18017343 0.007398772 -0.15089843 0.11814717
000240 3e c6 ba 3c ec 96 06 3d 90 8c 34 3d d1 4a bc 3d
       0.022799607 0.032858774 0.044079363 0.091939576
000250 69 e8 05 bc 85 f3 e5 3d 64 ca 11 be dd ea 10 bd
       -0.008173087 0.11228088 -0.14237362 -0.035380233
000260 23 7c 24 bd 62 b2 5d bd e4 d0 e4 3c 94 78 54 3e
       -0.04015745 -0.054125197 0.027931638 0.20749122
000270 89 af 44 3e 68 65 18 bd c7 3c 1d be 3b 1e 00 be
       0.19207586 -0.037206084 -0.15355216 -0.12511532
000280 18 27 00 be 8a 1a e1 bc 7d fe 5b bd 09 0c 5a 3d
       -0.12514913 -0.027478475 -0.053709496 0.053234134
000290 11 02 28 bd 34 98 1a 3e 48 f8 b8 3d c9 73 0b be
       -0.041017596 0.15097123 0.09031731 -0.13618387
0002a0 d7 f3 21 3e cf 9c 65 bc 35 b7 8d 3d 07 dd 28 3e
       0.15815674 -0.014014437 0.069197096 0.16490565
0002b0 1d cf 31 3d 20 f0 00 be 91 f5 5b 3e 52 cd 11 be
       0.04341041 -0.125916 0.21480395 -0.1423848
0002c0 8a 90 78 be ec a4 b1 3d 06 a5 81 be 47 0f 38 b9
       -0.24273887 0.086740345 -0.25321215 -0.00017553299
0002d0 6a 12 19 3d 8e 82 e9 3d 2d 52 8d bd 7c f3 37 bd
       0.037371077 0.114018545 -0.069004394 -0.04490994
0002e0 7c e7 fb 3d 67 38 6b 3c b4 bb 59 3c 27 ea e8 3d
       0.123000115 0.014356709 0.013289381 0.11372786
0002f0 1e d4 d8 bd c8 44 64 3d c6 23 1e be 1c d8 8f 3d
       -0.10587333 0.055729657 -0.15443334 0.070236415
000300 43 ca 40 be 53 f1 cb bc e5 02 10 bd 6c bf 5e 3e
       -0.18827157 -0.024895346 -0.03515901 0.21752709
000310 05 34 9c 3c 82 58 52 3c 13 9d 55 3d fa ae b5 bd
       0.019067774 0.012838485 0.05215175 -0.08871265
000320 c2 39 e7 3d b0 1b c9 3c db 27 bc bd ca 4e d4 bd
       0.11290313 0.024549335 -0.09187289 -0.1036659
000330 07 8f 27 bd e3 cd 40 be 36 a1 21 bd 1f c8 e2 bd
       -0.040907886 -0.1882854 -0.039460383 -0.11073326
000340 1a 1c 0f bc 81 41 ec bc e2 ff 08 3e 14 58 21 3e
       -0.008734727 -0.028839828 0.13378862 0.15756255
000350 8a 17 37 3e 78 25 0a 3e 53 db 11 3e d7 bb 45 3d
       0.17880073 0.13490856 0.14243822 0.04827484
000360 d6 d8 d3 bd 9c d1 d2 bb 4b a8 83 bd 5a fe 41 3e
       -0.103440925 -0.006433679 -0.06428584 0.18944684
000370 6d 59 20 be 96 cc 0d 3e fb 4a ef bd 8a 28 ad 3d
       -0.15659113 0.13847575 -0.11684223 0.08454998
000380 69 bc ea bc d4 7f 05 3e 5c 90 57 3c 83 60 ba 3c
       -0.028654294 0.13037044 0.013156977 0.022751098
000390 62 d0 8d 3d 9c 7d be bd 8d 1a 65 3e 85 2d 72 bd
       0.069245115 -0.09301302 0.2237341 -0.059125442
0003a0 39 a9 82 bd 9e 8a c4 bd 92 55 d2 3d 90 8e d3 bd
       -0.06379933 -0.09596752 0.102702275 -0.10329926
0003b0 41 e8 18 be 75 04 70 3d e2 0c 93 be 6a 41 0e 3c
       -0.14932348 0.058598 -0.28720766 0.008682588
0003c0 12 7c 42 be a2 bf 0f 3c ed 97 86 3e 93 ab 97 bd
       -0.18992642 0.008773716 0.26287785 -0.07405772
0003d0 eb f7 7d 3d 43 b6 29 bc 56 3e 16 be 29 b1 bc 3d
       0.06200401 -0.010358396 -0.14672217 0.09213478
0003e0 24 21 70 be 54 e1 51 bd 83 63 5c 3d 41 a6 22 3e
       -0.23450142 -0.05124028 0.05380584 0.15883733
0003f0 15 c4 78 3d e7 c1 c9 bd a1 ac c8 3d 7a 86 b3 3d
       0.060733873 -0.09851437 0.09798551 0.08765884

action_model._discrete_distribution.branches.0.weight f4 [9, 64]
000000 13 2f 0e 3c fa 0f a6 bc 43 07 99 3b d2 6a 09 bc
       0.008678216 -0.02027129 0.004670055 -0.008387284
000010 76 bb 32 bc 5b 58 6d bc 58 c1 73 3b 7a 84 50 3c
       -0.010908952 -0.014486398 0.00371941 0.012726897
000020 72 a2 c2 bc ce a5 44 3c a4 cd 0b 3b a2 33 93 3c
       -0.0237591 0.012002422 0.0021332288 0.017968956
000030 c2 51 77 ba c3 3a 8b 3c e0 08 3e 3b 5d 49 52 3b
       -0.0009434485 0.016995793 0.002899699 0.0032087185
000040 d9 5e 31 bc 4f b4 1a bc ab 22 0c 3c 3b 0d ff bb
       -0.010825836 -0.009442403 0.008553187 -0.0077835596
000050 99 84 81 3c 1b 3f 55 3c d9 5c be bb c0 2a 35 3c
       0.015810298 0.013015534 -0.005809408 0.011057556
000060 20 7f f8 3c a9 f9 c2 3b cf 7f c1 bb 25 b6 a3 3c
       0.030334055 0.005950172 -0.0059051285 0.019984314
000070 55 ec 9a 3c 50 6e 91 3c 17 6d 87 3c 17 0f 85 3c
       0.01891152 0.017752796 0.01653151 0.016242547
000080 c5 a0 c2 3a 16 cb 8c bc 6c 44 2d 3c 23 7b 7a bb
       0.0014848938 -0.017186683 0.010575395 -0.0038220368
000090 e4 76 87 bc 98 f6 7b bc 21 0d 2a 3c b4 33 8e bc
       -0.016536184 -0.015378617 0.010379107 -0.017358638
0000a0 0f e4 4f 3b ff b3 9c bc da 89 7f bc 15 f9 0d 3c
       0.0031721627 -0.019128798 -0.015596831 0.008665343
0000b0 53 97 cc 3b 8d fc 50 bc 8f 19 33 bc eb 1b 42 bc
       0.006243625 -0.012755525 -0.010931387 -0.0118474765
0000c0 2d 49 cc bb 92 c8 09 3c eb e1 aa bc aa 8f 8e 3b
       -0.006234309 0.008409636 -0.02085968 0.004350622
0000d0 fe 20 a0 3c 9d b4 88 3a 06 6c 22 bc 18 07 99 bb
       0.019546982 0.0010429804 -0.00991345 -0.004670035
0000e0 23 64 8d 3c a4 54 b0 bc 69 1d a1 bb 5f 9c 10 3c
       0.017259663 -0.021524735 -0.004916836 0.008826344
0000f0 74 2f 99 bb 57 63 e2 3b d7 a7 da 3c 2a c9 d4 ba
       -0.0046748463 0.006908815 0.02669136 -0.0016234268
000100 c3 13 ba bc 33 e5 46 bc f8 10 99 3c 87 c9 65 bb
       -0.022714501 -0.012139606 0.01868485 -0.0035062747
000110 43 ff 90 ba 1b 82 a5 3c 72 60 5a 3b ce c3 24 bc
       -0.0011062402 0.02020364 0.0033321646 -0.010056449
000120 ed 85 74 bc 41 02 0a bb 8a 76 9d ba e3 2e c0 3c
       -0.0149245085 -0.0021058472 -0.0012013477 0.023459857
000130 ef 28 ce bb 79 40 80 3b 3f 03 d8 bb ed e2 75 ba
       -0.0062915008 0.0039139357 -0.006592184 -0.0009379823
000140 8d 0d e7 3a 98 3d 4d bc c0 07 ff 39 96 49 a5 3c
       0.001762794 -0.012526892 0.00048643164 0.02017669
000150 4e 72 09 3d c2 ec d0 bb f8 fc d2 3c f5 da 2b bc
       0.033556275 -0.00637588 0.02575539 -0.010489215
000160 12 7e 52 3b 75 76 69 bb 0f c7 dc bb 6e cb a2 3a
       0.00321186 -0.0035623584 -0.006737597 0.0012420246
000170 eb c6 70 3c a1 ad 38 3c d0 5a a3 ba 22 24 d1 39
       0.014695863 0.011271865 -0.0012462977 0.00039890507
000180 c3 d4 7f 3a 83 b3 99 3b f2 ad 7a 3c ab fb c8 bb
       0.0009759182 0.004690589 0.015300261 -0.006133517
000190 ff 20 0a 3c 42 3c 5e bb 42 35 c4 bb 15 4c dd 3b
       0.008430718 -0.0033910428 -0.005987794 0.0067534545
0001a0 2b 21 9c 3c f0 31 be bb e3 ea 58 3a d0 11 4a 3c
       0.019058784 -0.005804293 0.0008274747 0.012333348
0001b0 b8 fd 8c bb 33 60 34 3b 9b 98 89 bb cf 85 43 bc
       -0.0043027066 0.002752316 -0.0041991 -0.011933758
0001c0 2f 7a 2b bd 25 4e 24 3b 16 b9 8f bc a7 5f 2a 3b
       -0.04186457 0.0025070992 -0.01754431 0.0025996955
0001d0 7b 1a bd b9 82 9a ee ba 7f 40 47 bb cd 7f dd bb
       -0.0003606862 -0.0018204006 -0.0030403433 -0.00675962
0001e0 47 8f 5a 38 df 86 8c 3c 96 37 1b 3c ac 37 0b 3c
       5.2108688e-05 0.017154155 0.009473702 0.00849716
0001f0 1e 09 c5 ba 72 e5 95 bc 22 82 f4 3b 07 e6 c7 3a
       -0.0015032624 -0.018297885 0.007461802 0.0015251049
000200 68 ec 03 bc 1f 29 de bb eb 6b a8 bc ea c5 20 3c
       -0.008051969 -0.0067798044 -0.020559272 0.009812811
000210 a8 02 31 bc 7e 52 03 3b d3 2c ba bb 01 21 16 bc
       -0.010803856 0.0020038183 -0.005681613 -0.009163142
000220 a3 04 73 3c 10 e2 91 bc ec f2 a1 3b b0 59 76 bc
       0.014832648 -0.01780799 0.0049422886 -0.015036032
000230 e8 90 6d bc 8c 3b a8 bb 0b ab 88 3c 63 22 e7 3b
       -0.01449988 -0.0051340517 0.016683122 0.0070536598
000240 f5 98 9b 3c b7 35 f8 ba da d4 3d bb 5f 91 cc bc
       0.018993834 -0.0018936907 -0.002896598 -0.024971662
000250 13 74 7e bc 7b 60 42 3c 7e 96 10 bc 04 a0 0b bb
       -0.015530604 0.011863823 -0.008824943 -0.0021305094
000260 27 b7 95 bb f2 1e f5 3a 7d 87 98 bb 55 40 dd ba
       -0.0045689526 0.0018701239 -0.0046548233 -0.0016880134
000270 25 6b f1 3a 8b 91 84 bb df 2e e8 bb cb e4 0f 3c
       0.0018418772 -0.0040456704 -0.0070856656 0.008782576
000280 b1 14 90 bc b3 92 0b 3c 4b 5e 06 bc 4b dd b5 bc
       -0.017587991 0.008518863 -0.008201192 -0.022200247
000290 cf 7b 10 3b ad ca ec 3b 1d 4a 3d 3a f0 3e bb b9
       0.0022046452 0.0072263093 0.00072208216 -0.00035714312
0002a0 fb 13 53 3c 9f 10 de bc 62 f0 5c 3c 8f 86 cb bb
       0.012883182 -0.027107535 0.013485046 -0.006211109
0002b0 db 0b c3 3c 5d 90 1c bb f7 88 13 3c 30 06 04 bd
       0.023809364 -0.0023889758 0.009004823 -0.032232463
0002c0 52 09 b4 3c 6f 93 84 3c 8b a2 66 bc 63 f3 a0 3c
       0.0219771 0.016183583 -0.014076839 0.019647306
0002d0 a8 ff b5 3b 18 27 a6 bc 9b 6c 86 bb 6a 8c f0 3b
       0.0055541582 -0.020282313 -0.0041023022 0.0073409574
0002e0 7f ec 38 3c 4f 3f 18 3b 4b f4 03 3c 2f 74 00 bb
       0.011286854 0.0023231094 0.008053849 -0.00196005
0002f0 a3 9a 6a 3b 76 81 b7 3c 0f 56 4a bc f8 7b 72 3c
       0.0035797737 0.022400599 -0.0123496195 0.014800064
000300 40 65 77 bb 58 2b 5a ba f8 0e 9d 3b 10 94 51 3c
       -0.0037749559 -0.0008322499 0.004793044 0.0127916485
000310 93 a1 31 bc f3 61 b8 bc eb 96 32 3c d7 2f 73 ba
       -0.010841745 -0.022507643 0.010900239 -0.0009276843
000320 bf db 54 3b 32 c1 0f 3c a3 4d 4f bc 0b 7a 0f 3c
       0.0032479612 0.008774089 -0.012652787 0.008757125
000330 2d 15 7e bb ca 85 e0 bb 50 3b 76 bc ef 27 ac 3a
       -0.0038769946 -0.0068518864 -0.01502879 0.001313446
000340 4a 7a 06 3c e3 93 89 3c 7d 6a 69 bc 4b 77 09 bb
       0.008207867 0.01679415 -0.01424658 -0.0020975645
000350 f7 11 dc 3b 3e fc 88 3a f8 6a 9c bb 16 06 8d 3b
       0.0067160088 0.0010451151 -0.004773494 0.004303704
000360 8f d3 d9 bc 7f 64 f6 3a 2f 94 a4 b9 9a 63 a8 3a
       -0.026590137 0.0018798261 -0.00031390923 0.0012847066
000370 00 7a 40 3c bc 8d 88 bb 5e 8c 99 bc bf d2 f1 bb
       0.011747837 -0.0041672867 -0.01874369 -0.007379859
000380 97 94 72 3c e7 c6 4a bc 7b 78 1e bc 1f a7 82 3c
       0.014805934 -0.012376524 -0.0096722795 0.01594883
000390 6d 4f b6 3b 17 0f 73 bb 13 87 8b 3c 4e 54 b8 3b
       0.0055636675 -0.0037087852 0.017032182 0.0056252843
0003a0 7f a6 ba 3b a7 f2 a8 ba ea 29 6f ba 32 8e 2d bc
       0.0056961174 -0.0012889699 -0.0009123372 -0.010592984
0003b0 37 b9 92 bc ea f5 0b bc 52 33 81 3c eb ed fd bb
       -0.017910583 -0.008542517 0.015771542 -0.0077493093
0003c0 28 40 e6 3b bb 7c b0 3b 7b 1a a8 bc ba ec 5f bc
       0.007026691 0.005385963 -0.02052044 -0.01366728
0003d0 ea 22 59 bc eb 26 3e 3c 01 f9 33 bc 0a 73 d4 bb
       -0.013252953 0.011605958 -0.01098466 -0.0064834403
0003e0 2b 05 be b7 9b 8a 7e 3c 14 42 05 bc fa 70 fc 3c
       -2.2652172e-05 0.015535976 -0.00813343 0.03081559
0003f0 91 bf 28 bc 27 e2 f5 3a 22 2d 00 3c 15 22 98 bc
       -0.010299579 0.0018759415 0.0078232605 -0.01857094

action_model._discrete_distribution.branches.0.bias f4 [9]
000000 00 00 00 00 00 00 00 00 00 00 00 00 00 00 00 00
       0.0 0.0 0.0 0.0
000010 00 00 00 00 00 00 00 00 00 00 00 00 00 00 00 00
       0.0 0.0 0.0 0.0
000020 00 00 00 00
       0.0

onnx::Div_186 f4 [2]
000000 3d 56 37 3e be 3b e0 3d
       0.17903991 0.10948895

onnx::MatMul_189 f4 [129, 128]
000000 ba 88 27 3d c3 23 90 bb 14 17 19 bd 15 d0 9b ba
       0.040901877 -0.0043987944 -0.037375525 -0.0011887575
000010 b7 93 f2 bc 6e c4 48 3c aa 93 35 bd a8 69 b0 bb
       -0.029611452 0.012253864 -0.044330277 -0.005383689
000020 a3 1e ec bc 52 0c 88 3c 88 51 7a bd 99 55 e9 3b
       -0.028823202 0.016607437 -0.06111291 0.0071207997
000030 ab a9 d0 3b 6b 5c 7b bc 5c f7 22 bd 08 33 59 bd
       0.0063678822 -0.015341858 -0.03978668 -0.053027183
000040 cc 00 5c 3a 0c a6 7f bc 30 d2 ea 3b 5a 15 c0 ba
       0.0008392453 -0.0156035535 0.0071661696 -0.0014654801
000050 21 76 4f bd e7 64 34 bd 21 54 0d bd 93 16 f7 3b
       -0.050649766 -0.04404154 -0.03450406 0.007540533
000060 53 c0 8b 3c af f8 62 3b 01 02 21 bd 3e 63 a8 bc
       0.01705948 0.003463309 -0.03930855 -0.020555135
000070 98 4b 8a 3c dd 58 8d bc d4 cb 23 38 33 56 68 bd
       0.016881749 -0.017254287 3.9052058e-05 -0.05672283
000080 4a ea 16 3d b1 1c b5 3c 4d 1b 31 3c 26 0c c7 bc
       0.03684453 0.022108408 0.010809732 -0.024297785
000090 9f d6 06 bd 89 81 20 3d e1 02 af bc 99 eb 89 bc
       -0.032919522 0.039186034 -0.021363677 -0.016835975
0000a0 2b 00 f6 ba ee cd 1f bc e4 42 2c bc f4 67 a6 bc
       -0.0018768361 -0.009753687 -0.010513995 -0.02031324
0000b0 12 e1 98 bc 7f 2f 80 3d c1 68 2f bd 4a 43 19 bc
       -0.01866201 0.06259059 -0.04282451 -0.009354422
0000c0 51 13 6c 3c 0d 53 2d bd b1 0a 1d bb 9f 8d c6 bb
       0.014408902 -0.04231553 -0.0023962671 -0.006059363
0000d0 40 10 c1 3c 2a 6b 25 3c 25 8d 23 3c dc 97 50 bd
       0.023567319 0.010096351 0.009982382 -0.050926074
0000e0 81 b1 b9 bc bb 32 c2 ba 8b 98 88 bc 64 16 2d bd
       -0.022667648 -0.0014816144 -0.0166743 -0.04225768
0000f0 ed c7 03 3c 48 01 8d 3c a8 cf 6b bd 71 22 6e 3d
       0.0080432715 0.017212525 -0.057571083 0.058138315
000100 09 61 eb 3c 89 ca bd bc ad ac 85 3b 81 c0 eb bc
       0.028732793 -0.023167865 0.0040794224 -0.028778316
000110 90 90 10 bc 25 0b da bc c4 17 db bb 1a 25 bc 3c
       -0.008823529 -0.026616642 -0.0066861827 0.02296691
000120 9c 10 fd 3b 77 1f bf bc 1e e2 23 bd 8e 58 33 bd
       0.0077229273 -0.023330433 -0.040010564 -0.043785624
000130 e4 1b 04 3d 01 4e 28 3a fe c0 6b bc 4e 3e 19 3d
       0.03225316 0.0006420315 -0.014389275 0.037412934
000140 0d 7c d8 bc 81 c3 c9 3c eb 7e 37 3c f0 3e 8f 3c
       -0.02642634 0.024629356 0.011199693 0.017486066
000150 74 00 03 bc d2 ea 64 3d 09 13 53 bd 1e 81 d6 bc
       -0.0079957135 0.055888005 -0.051531825 -0.026184615
000160 7d 51 06 bd 06 4c 1d bd 90 15 7d 3c bc 37 91 bd
       -0.032792557 -0.03840258 0.015447035 -0.070907086
000170 41 93 79 3d c1 66 c6 3c 88 4b 9b 3c 1d 6c 2a 3c
       0.060931448 0.024218919 0.018956915 0.010401753
000180 df 6c 3b bd f9 e5 37 bd 35 54 37 bc 04 e3 58 3c
       -0.045758124 -0.044897053 -0.01118951 0.0132377185
000190 93 aa ae bc 87 52 82 bd f0 7b 8e 3a cd 69 11 3b
       -0.02132157 -0.06363397 0.0010870676 0.0022188306
0001a0 4f ff d6 3a f1 8d 28 bd 10 f0 54 bd 6f 0c 1d bd
       0.0016402992 -0.04115099 -0.051986754 -0.038341936
0001b0 50 ca 3e 3d 12 4c 76 3c d7 d0 4d bc af b1 a8 3c
       0.04657966 0.015032785 -0.012561998 0.020592539
0001c0 20 64 98 bb dd fd 2f bd 5e 24 74 bc 70 32 96 3c
       -0.0046506077 -0.042966712 -0.014901249 0.018334597
0001d0 0c 75 21 3c fe 5c 5d bb ff 8f 1d 3c 70 22 75 3c
       0.009854566 -0.0033777351 0.009616851 0.014961824
0001e0 3c 7c 16 bd 23 2f 11 bd 51 34 1c 3d cb c7 d9 bc
       -0.036739573 -0.035445344 0.03813583 -0.026584527
0001f0 de 37 74 bd 53 4f 7a bc 09 65 e1 bc d8 2e b4 bc
       -0.05962359 -0.015277701 -0.027513998 -0.021994993
000200 32 44 0e bb 50 09 8a 3c cf 4f 39 3c 7d 48 8c bd
       -0.0021708128 0.016850144 0.011310532 -0.068497635
000210 e7 07 69 bd 64 53 d8 3c 44 fc 12 bc 0d 88 f7 bb
       -0.056892302 0.026406951 -0.008971278 -0.0075540603
000220 2c b0 1e 3b 31 77 3c bd 5d 48 3c 3d 82 75 d3 bc
       0.0024213893 -0.046012107 0.04596745 -0.025812868
000230 2b dc b3 3c 5d 97 c2 3c 56 d7 60 bb 9c 93 32 3d
       0.02195557 0.023753816 -0.0034308038 0.043597803
000240 c5 8d 58 3d 4e c1 90 3b 28 39 5a 3d 21 59 3d 3d
       0.052869577 0.004417575 0.053277165 0.046227578
000250 19 dc 85 bd c3 c1 06 bc 09 39 3d 3c 33 b9 e4 bb
       -0.06536121 -0.008224907 0.011549243 -0.0069800853
000260 bc b6 41 3c bd ac d9 3c 88 9c 9c 3d d4 d9 f9 3c
       0.011823352 0.026571626 0.076470435 0.030499376
000270 25 3d c9 3b 1a 7f e4 3c 5f a0 52 3d 39 8f a7 3c
       0.006141322 0.027892638 0.051422473 0.020454036
000280 73 52 79 bb 4e e6 f5 bc d7 57 30 bc 83 65 9a bd
       -0.0038043528 -0.030017044 -0.01076313 -0.07538893
000290 77 85 ce 3b 1c 49 63 bd 92 06 35 3d 58 72 fa bc
       0.0063025313 -0.055489644 0.04419572 -0.030572101
0002a0 39 6a 73 bb de 6f 2a 3d ad d5 55 3c b6 c3 f3 3c
       -0.003714217 0.04161059 0.013051433 0.029756408
0002b0 08 29 1e 3d 69 10 d1 ba a1 9b 7d 3d 6f 10 83 bd
       0.03861335 -0.0015950325 0.061915997 -0.06399619
0002c0 2e d7 b4 bc c3 0b 07 bd 0c fb 72 bc bd 98 6a 3d
       -0.022075262 -0.0329702 -0.014830362 0.05727457
0002d0 ab ba 72 3c 58 70 93 3c 4c e2 21 bd 5b 99 21 3c
       0.014815013 0.017997906 -0.039522454 0.009863223
0002e0 12 00 7f bb 9a 56 83 bd 7a 9e cd 3c 78 17 e6 3c
       -0.0038909954 -0.06413002 0.025099982 0.028087363
0002f0 41 11 f7 3c c6 da a9 bc 54 45 1a bd 74 03 46 3c
       0.030159594 -0.020734202 -0.037663773 0.012085784
000300 eb 29 03 3d d0 54 80 bd 0d 1c 8d bc f8 d4 f8 bc
       0.032022398 -0.06266177 -0.01722529 -0.030374989
000310 5d 48 8d bc c7 87 0a 3d e0 12 90 3c bb 2f 1f bd
       -0.01724642 0.033820894 0.017587125 -0.03886388
000320 07 c0 1f bd 23 ef a8 bc 81 ea 1b 3b b3 f9 52 bb
       -0.03900149 -0.020621842 0.0023790898 -0.003219229
000330 b6 cd d7 bb c4 fa 17 3c 6f dc 4d 3c 13 49 7d 3d
       -0.006585802 0.009276096 0.0125647625 0.061837267
000340 f1 cd bd 3c 59 8a c0 bc 85 f0 8c 3c bb 96 b4 3c
       0.02316949 -0.02350347 0.017204532 0.02204453
000350 ea f0 14 3c a6 f1 c3 3c 63 50 4f 3c 3f 00 94 bb
       0.0090906415 0.023918938 0.012653443 -0.004516631
000360 0d ec 52 bd cf dc 07 bc 0a 9c f0 3b 2c db 44 3d
       -0.051494647 -0.008292391 0.00734282 0.04806058
000370 9a 0a 46 3a 96 3e bb bc 9c 32 23 bc b9 69 41 3c
       0.00075546803 -0.022856992 -0.009960797 0.011804991
000380 38 01 02 bc eb 08 ac bc 51 77 0c bd 29 4b 26 3c
       -0.007934861 -0.021000346 -0.034293476 0.0101497555
000390 74 a8 24 3c 83 01 af bb 8d 1b 3c bc b1 cd 11 3d
       0.010049928 -0.0053407564 -0.011481178 0.035596553
0003a0 b6 5c d2 3b 42 b7 88 3c d8 3a a5 3c 2b 29 37 bd
       0.0064197434 0.016688947 0.02016966 -0.044716995
0003b0 d9 a6 a1 bc f4 2f 66 3d 7a ba bd 3c ee c5 48 bc
       -0.01973288 0.056198075 0.023160208 -0.012254221
0003c0 a9 a9 5b bd 0b 49 23 bc ba f4 e7 bc 2f 55 52 bd
       -0.053628597 -0.009966145 -0.028314937 -0.05135077
0003d0 17 9c 64 bd a9 bb d0 bc ad 06 fb 3c 12 e3 70 3d
       -0.05581292 -0.025480108 0.030642832 0.0588103
0003e0 f7 59 25 bd b2 0d 80 bd 8b 34 2b 3d 04 76 15 bc
       -0.040369 -0.06252612 0.041798156 -0.009122375
0003f0 4f 64 3b 3b 57 80 26 bd 90 00 5e bb 11 e0 07 3d
       0.0028593724 -0.04064974 -0.0033874847 0.03317267

onnx::MatMul_190 f4 [129, 128]
000000 65 ce d4 bd 87 36 79 bd b0 46 16 bd a4 e8 bf 3b
       -0.10390929 -0.060843017 -0.036688507 0.0058565903
000010 9f 8a 34 bb a1 58 aa 3c 1b 3c 95 3d a9 b9 65 bd
       -0.0027548445 0.020794215 0.07286855 -0.056085262
000020 9a 45 57 bc 94 0f c2 bb 24 56 e0 3c b9 50 7a 3d
       -0.013139153 -0.005922267 0.027384825 0.06111214
000030 41 4b 86 bc 6f 34 54 bc 24 5c 9c 3c 66 9e c4 3a
       -0.016393306 -0.012951954 0.019086905 0.001500082
000040 0a 2c 56 3c b6 03 2f bd eb fe e0 bc 5e 70 10 3b
       0.013072023 -0.04272815 -0.027465304 0.0022039632
000050 59 7b 33 bd 6c 62 ea bc 39 f8 1e 3b b2 d2 a5 3b
       -0.043818805 -0.028611384 0.002425684 0.005060517
000060 bb 6b c9 3c 7e e1 d9 ba e4 51 29 bd df e2 3b 3d
       0.024587503 -0.0016622988 -0.041337863 0.045870658
000070 e0 65 8f 3d a6 fa 5a bc 69 30 56 bc 68 92 a1 3c
       0.07001853 -0.013365423 -0.013073065 0.019723132
000080 7c 17 d5 3c 79 f0 8e bc f0 03 9d 3b a1 0e d4 3b
       0.026012175 -0.01744865 0.004791729 0.0064714705
000090 e8 57 3e 3d d2 51 46 3d 7f 35 59 bb fd d5 be 3c
       0.046470553 0.048417874 -0.0033143458 0.023295397
0000a0 8b c6 69 3d 44 0a 04 bd 18 40 c1 ba a1 7c 20 bd
       0.05707411 -0.032236353 -0.0014743833 -0.039181355
0000b0 c0 c5 37 bb bf 30 bb 3c af 71 77 3d e1 b9 f0 3c
       -0.0028041452 0.022850392 0.06041115 0.029385509
0000c0 e1 d1 cc 3c 6c 65 5d bc ef c2 80 3c 0f 43 38 3c
       0.025002422 -0.01351295 0.015717952 0.011246457
0000d0 f8 b0 75 bc 4f 61 c8 bb 15 25 88 bc ff c9 22 bc
       -0.014995806 -0.0061151157 -0.016619245 -0.009935855
0000e0 13 dc 0f 3c fa c7 a3 3c be 6c cb 3c 1b 3c 89 bb
       0.008780497 0.019992817 0.024832126 -0.0041880733
0000f0 39 c4 84 3c e4 cd 38 bd 23 75 42 3d 33 4d 16 bd
       0.016206848 -0.045118228 0.04747499 -0.036694717
000100 af de 58 bc b9 f1 d0 bc 3f f8 99 bc ca 3a 02 3d
       -0.013236686 -0.025505887 -0.01879513 0.031794347
000110 7b 55 0a 3c 7e e6 17 bc 60 85 57 bb 29 76 d9 3c
       0.008443232 -0.009271262 -0.0032885894 0.026545601
000120 22 2c bb bc b1 f9 3c bd c6 89 cc bc a1 cb 34 bb
       -0.022848193 -0.04613656 -0.02496804 -0.0027587193
000130 c8 2a 5f bc b7 e2 f0 bc 13 9b d0 bc 15 fe bb 3c
       -0.01362104 -0.029404981 -0.02546457 0.022948304
000140 83 db 68 bc e5 3a 85 3c df 5b fe 3a fc d3 97 3d
       -0.014212492 0.016263435 0.0019406042 0.0741348
000150 bb a1 11 bd d9 14 42 3c 66 75 48 ba 97 e5 82 bd
       -0.03555463 0.011845791 -0.0007646888 -0.06391447
000160 6f 2d 64 bb d9 7b a2 bc 7d c1 0e 3d 84 06 61 3d
       -0.003481712 -0.019834446 0.034852494 0.054937854
000170 73 45 f6 3c a8 a5 7e bb 6e 62 43 bb fe a5 2a 3b
       0.030062413 -0.0038856063 -0.0029813307 0.002603888
000180 8e 40 2f bd 00 0e 79 3b 24 1d e7 bb 5e b8 15 bc
       -0.042786174 0.003800273 -0.0070530344 -0.009138195
000190 6f 9a ba bc 47 4a 6c bc 46 d2 cb bd 7d 51 91 3c
       -0.022778718 -0.014422006 -0.09952216 0.017739052
0001a0 f7 8a 0d bc 66 e3 05 3d bf b3 0b ba 1e df 4c 3d
       -0.008639089 0.032687567 -0.00053292135 0.05001747
0001b0 b1 bb 09 3b e0 ad 21 3c 76 6d a6 3b 0a 4f 0c 3b
       0.0021016414 0.009868115 0.0050789667 0.0021409416
0001c0 94 c6 43 bd df 17 34 bc df 13 ad 3a 65 37 e2 bb
       -0.0477968 -0.010992019 0.0013204775 -0.006903576
0001d0 58 90 a3 3c db 2b 4e 3d 0b bf c6 3c 65 99 96 bb
       0.01996629 0.050334793 0.024261018 -0.004595923
0001e0 a0 eb 95 bc fc 4d 4f 3d ad 18 24 3d 72 db 53 3c
       -0.018300831 0.05061148 0.040062595 0.012930738
0001f0 d0 55 05 3d b8 72 74 3c d2 5f 1e ba 20 40 16 3d
       0.03255254 0.014919929 -0.00060415 0.036682248
000200 1c 71 ab 3d d2 c4 d5 3c 46 74 70 bd 3b 25 1c bc
       0.08371183 0.026094828 -0.058704637 -0.009530361
000210 63 87 4c 3d f5 62 ae bb 90 de 2e 3d 7e b5 84 3b
       0.049933802 -0.005321855 0.04269272 0.004049956
000220 6c a4 e5 3b ee 67 2e bd f4 38 6e bc b7 41 21 3d
       0.007008126 -0.042579584 -0.014539946 0.03936931
000230 ff fe 83 3c 51 cb 9e 3c c4 f3 59 3d 03 a0 3c bd
       0.016112803 0.019384058 0.05321099 -0.046051037
000240 1b 58 f4 3c 60 59 bc 3b 38 e8 c5 3c 94 70 85 3c
       0.029827168 0.005747959 0.024158582 0.016289033
000250 8c bd 63 3d bc 2a 1c 3d e1 f9 a8 3c 85 43 b9 3c
       0.055600688 0.038126692 0.020626964 0.022615204
000260 d6 55 04 3d b8 d2 fe bc f8 11 96 3b 1d 48 ed ba
       0.032308422 -0.031106338 0.0045797788 -0.0018103156
000270 5a 20 7a bc 68 a8 aa bc 81 08 49 bd 77 ce d3 3c
       -0.015266502 -0.020832255 -0.049080376 0.025855286
000280 c6 4b 28 3d 82 ba 5f 3c 1a e0 d4 3b a6 ed 1d bb
       0.04108789 0.013655307 0.0064964416 -0.0024097948
000290 02 fc 5d ba f9 61 04 bc dd 2d 35 bd 8e 8f 6f 3d
       -0.0008468033 -0.008079999 -0.04423319 0.058486514
0002a0 b4 12 94 3b ac 21 e6 bc 0a 09 38 bc 16 03 64 bc
       0.004518831 -0.028092228 -0.011232624 -0.013916751
0002b0 6b 6b c7 bb 67 8a 05 ba 3d 89 df 3c 51 c3 96 3b
       -0.0060858033 -0.0005094171 0.02728712 0.0046009202
0002c0 92 4e 78 bc 00 9f 17 3c 63 e6 93 3d c3 24 e6 3c
       -0.015155451 0.009254217 0.07221677 0.028093701
0002d0 1d a4 b4 3c 73 ba 7e bb 9f a3 54 bc df b5 30 bd
       0.022050912 -0.0038868457 -0.012978463 -0.043142196
0002e0 aa ec 7e bc 22 2e 2f 3c d2 44 97 3d 8d 6d bd bc
       -0.015559355 0.010692151 0.07386173 -0.023123527
0002f0 83 44 ad bb 7e ce d7 bc 85 ab 64 3c ee b3 67 bd
       -0.0052877082 -0.02634358 0.013956909 -0.05656808
000300 16 d1 31 ba a2 9d 04 bc 6c 4d 9d bc b5 3d 48 bd
       -0.00067831704 -0.008094223 -0.019201957 -0.048886973
000310 b4 91 9c bc 63 eb e1 3c 16 63 e5 3c 30 ef cf 3c
       -0.019112445 0.027578061 0.02800135 0.025382608
000320 c1 24 d5 bc ab cc 29 3d 0d 7c 1b 3c 4f 26 c9 3b
       -0.026018502 0.041454952 0.009490025 0.0061386
000330 c7 84 52 bd 36 52 37 3c a8 fd 94 3a 24 99 e3 bc
       -0.051396158 0.011189034 0.0011367099 -0.027782984
000340 30 18 93 3d f9 a2 ce 3c f2 a7 e5 3b 5e 1e 1d 3d
       0.07182348 0.025224196 0.007008546 0.03835904
000350 d1 77 1e bb 46 a9 aa 3c ed a8 48 3b 96 36 5c bd
       -0.0024180303 0.020832669 0.0030618266 -0.053762995
000360 f8 ea 18 3b 08 41 48 bc 78 de 99 bc 9c ec 3c 3d
       0.0023333412 -0.012222536 -0.01878284 0.046124086
000370 6d fc 3a bd 68 54 99 3b 04 ca 3d bd 27 70 af bb
       -0.04565089 0.0046792515 -0.046335235 -0.005353946
000380 51 04 e6 3c dd 84 5c 3b 46 50 40 3d 64 4f 0b 3b
       0.02807823 0.0033648529 0.046951555 0.0021257037
000390 2c 00 57 3c 2f 4e e6 3c 8b 92 6c bc 7b 3d 10 bc
       0.0131226 0.028113453 -0.014439235 -0.008803721
0003a0 04 84 37 3d c0 4e 2a 3d a5 0e c7 3c c9 95 90 bc
       0.044803634 0.041579008 0.024298975 -0.017649548
0003b0 ac 7c 62 3b 88 a1 38 3d 1b 77 e9 3c 50 29 2a 3c
       0.0034559174 0.045075923 0.028499177 0.010385826
0003c0 76 f0 d7 bc 3e 70 55 bb de 56 15 3d 2b a5 12 3c
       -0.026359778 -0.0032568122 0.036459796 0.008950512
0003d0 ac 66 9d bc 9c 0a 7e 3c 8a 15 aa 3c 2c 17 06 bd
       -0.019213997 0.015505459 0.020762224 -0.032736942
0003e0 b2 72 7a bd 62 04 23 3d 55 8e 91 38 92 c6 24 3d
       -0.06114454 0.0397991 6.94065e-05 0.040228434
0003f0 d9 3d 5f bc 74 f1 9f b8 2f 77 92 3c a5 69 30 3d
       -0.0136255855 -7.626685e-05 0.017879097 0.0430695
