results/3-3-run3/simple_wolf/simple_wolf-499999.onnx (onnx, 412672 bytes, 19 tensors)

network_body.observation_encoder.processors.0.self_ent_encoder.seq_layers.0.bias f4 [128]
0	0x3e3194e5	0.17341955
1	0x3d8e4871	0.06947411
2	0x3d863ff2	0.06555165
3	0xbdf8265d	-0.12116692
4	0x3d9be32a	0.076116875
5	0xbdb8f39f	-0.09030842
6	0xbc19ca59	-0.009386622
7	0x3ccbe8aa	0.024891216
8	0xbe01d10d	-0.12677403
9	0xbcd851ed	-0.026406253
10	0xb9bb1308	-0.000356816
11	0xbdc1c157	-0.09460705
12	0xbd9809c5	-0.074237384
13	0xbd5e9079	-0.054337
14	0x3d55dd81	0.052213196
15	0xbd0ee086	-0.03488209
16	0xbd975752	-0.07389702
17	0xbd19b5e5	-0.037526984
18	0xbc13de4b	-0.009025167
19	0xbe11de83	-0.14245038
20	0xbd280e52	-0.041029282
21	0xbc9af27d	-0.018914456
22	0xbd9840fc	-0.0743427
23	0x3dd32f27	0.10311728
24	0xbc5bf5ce	-0.013425304
25	0xbd1cf2d9	-0.038317535
26	0xbda66f1e	-0.08126663
27	0x3c1b2336	0.009468844
28	0x3c8068aa	0.015674908
29	0xbcb75c1d	-0.02238279
30	0xbe0ea792	-0.1393111
31	0xbd005b87	-0.031337287
32	0x3c571e5b	0.013129796
33	0xbde91d7f	-0.11382579
34	0x3e2c07a7	0.16799794
35	0xbe0cb28e	-0.13739988
36	0xbb8c875d	-0.0042885975
37	0xbdddc88d	-0.10829268
38	0x3e194020	0.14965868
39	0x3e372959	0.17886867
40	0xbdbbc78e	-0.091689214
41	0xbdbd8624	-0.09254101
42	0x39534c62	0.00020150983
43	0xbcdb2381	-0.026750328
44	0xbc479cc7	-0.012183375
45	0x3d11cc7b	0.0355954
46	0xbc090404	-0.008362774
47	0xbb0bd2d2	-0.0021335375
48	0xbd26442b	-0.040592354
49	0xbc6366cf	-0.013879492
50	0x3cf8eb44	0.03038562
51	0xbda6842f	-0.08130681
52	0xbcc33b5e	-0.02383202
53	0x3d1cc27b	0.03827141
54	0x3ccc769d	0.024958903
55	0xbbe1e19f	-0.006893351
56	0xbdb0d43e	-0.08634232
57	0xbc88a925	-0.016682217
58	0xbd87df85	-0.0663443
59	0x3ddb41f5	0.1070594
60	0xbd8eefcf	-0.069793336
61	0x3d871b7e	0.065970406
62	0x3c4ca452	0.012490349
63	0x3d92ae6c	0.071621746
64	0x3e0cb29d	0.1374001
65	0xbda573a7	-0.080786996
66	0x3d4227ef	0.047401365
67	0xb7472264	-1.18693315e-05
68	0x3e538da1	0.20659496
69	0xbd46d6f3	-0.048544835
70	0xbcc5f61f	-0.024165211
71	0xbcd7ca03	-0.026341444
72	0xbce838d4	-0.02834741
73	0x3d244a65	0.04011001
74	0x3df17c04	0.11791232
75	0x3dad448c	0.0846034
76	0x3e0135b3	0.12618141
77	0xbc82871c	-0.015933566
78	0xbcdc4407	-0.026887907
79	0xbd6bfe76	-0.05761572
80	0x3cb5b91b	0.022182992
81	0xbdb7dfba	-0.08978219
82	0x3ddee569	0.108836
83	0x3c30aa1f	0.0107827475
84	0x3e1ad914	0.15121871
85	0x3e176410	0.14784265
86	0xbd8a3d33	-0.06749954
87	0xbd21f1ba	-0.03953717
88	0xbb0ea7e4	-0.002176755
89	0x3df5ea97	0.12007635
90	0x3decf0cc	0.11569366
91	0x3c307766	0.010770654
92	0x3db13e6e	0.08654486
93	0x3cd47233	0.02593336
94	0xbc27fcab	-0.010253112
95	0xbdd92003	-0.10601809
96	0x3d81418b	0.063113295
97	0x3c7fd4ff	0.015614747
98	0xbb87e0bd	-0.004146664
99	0xbddc2225	-0.107487
100	0x3d9e2aa0	0.07722974
101	0xbdda80d2	-0.10669102
102	0x3d4e36c1	0.050345186
103	0xbd962061	-0.073303945
104	0x3bd57ad5	0.006514887
105	0xbd97477b	-0.07386681
106	0x3e1f75a5	0.15572222
107	0x3e0c1312	0.1367915
108	0xbca29727	-0.019847466
109	0xbd89b91e	-0.067247614
110	0xbdd9686c	-0.1061562
111	0x3de03a22	0.10948588
112	0x3d3bdc4d	0.045864392
113	0x3ce7e342	0.028306607
114	0x3d84e71b	0.06489392
115	0x3d46d436	0.048542224
116	0xbd89e5d3	-0.067332886
117	0x3d28d7de	0.041221492
118	0xbd1116ca	-0.035422124
119	0xbd37d29b	-0.044878583
120	0xbd83f3b9	-0.06442971
121	0x3dfb5bf5	0.12273399
122	0x3d56a7b6	0.052406035
123	0x3d0eadc1	0.034833673
124	0xbc1243da	-0.00892731
125	0x3e20e8f4	0.15713865
126	0x3c82e3fb	0.01597785
127	0x3c85c8fc	0.016331188

network_body.observation_encoder.processors.1.normalizer.running_mean f4 [3]
0	0x3ef6e14e	0.4821877
1	0x3f2c401d	0.6728533
2	0x400bd1bf	2.184677

network_body.observation_encoder.rsa.fc_q.bias f4 [128]
0	0x00000000	0.0
1	0x00000000	0.0
2	0x00000000	0.0
3	0x00000000	0.0
4	0x00000000	0.0
5	0x00000000	0.0
6	0x00000000	0.0
7	0x00000000	0.0
8	0x00000000	0.0
9	0x00000000	0.0
10	0x00000000	0.0
11	0x00000000	0.0
12	0x00000000	0.0
13	0x00000000	0.0
14	0x00000000	0.0
15	0x00000000	0.0
16	0x00000000	0.0
17	0x00000000	0.0
18	0x00000000	0.0
19	0x00000000	0.0
20	0x00000000	0.0
21	0x00000000	0.0
22	0x00000000	0.0
23	0x00000000	0.0
24	0x00000000	0.0
25	0x00000000	0.0
26	0x00000000	0.0
27	0x00000000	0.0
28	0x00000000	0.0
29	0x00000000	0.0
30	0x00000000	0.0
31	0x00000000	0.0
32	0x00000000	0.0
33	0x00000000	0.0
34	0x00000000	0.0
35	0x00000000	0.0
36	0x00000000	0.0
37	0x00000000	0.0
38	0x00000000	0.0
39	0x00000000	0.0
40	0x00000000	0.0
41	0x00000000	0.0
42	0x00000000	0.0
43	0x00000000	0.0
44	0x00000000	0.0
45	0x00000000	0.0
46	0x00000000	0.0
47	0x00000000	0.0
48	0x00000000	0.0
49	0x00000000	0.0
50	0x00000000	0.0
51	0x00000000	0.0
52	0x00000000	0.0
53	0x00000000	0.0
54	0x00000000	0.0
55	0x00000000	0.0
56	0x00000000	0.0
57	0x00000000	0.0
58	0x00000000	0.0
59	0x00000000	0.0
60	0x00000000	0.0
61	0x00000000	0.0
62	0x00000000	0.0
63	0x00000000	0.0
64	0x00000000	0.0
65	0x00000000	0.0
66	0x00000000	0.0
67	0x00000000	0.0
68	0x00000000	0.0
69	0x00000000	0.0
70	0x00000000	0.0
71	0x00000000	0.0
72	0x00000000	0.0
73	0x00000000	0.0
74	0x00000000	0.0
75	0x00000000	0.0
76	0x00000000	0.0
77	0x00000000	0.0
78	0x00000000	0.0
79	0x00000000	0.0
80	0x00000000	0.0
81	0x00000000	0.0
82	0x00000000	0.0
83	0x00000000	0.0
84	0x00000000	0.0
85	0x00000000	0.0
86	0x00000000	0.0
87	0x00000000	0.0
88	0x00000000	0.0
89	0x00000000	0.0
90	0x00000000	0.0
91	0x00000000	0.0
92	0x00000000	0.0
93	0x00000000	0.0
94	0x00000000	0.0
95	0x00000000	0.0
96	0x00000000	0.0
97	0x00000000	0.0
98	0x00000000	0.0
99	0x00000000	0.0
100	0x00000000	0.0
101	0x00000000	0.0
102	0x00000000	0.0
103	0x00000000	0.0
104	0x00000000	0.0
105	0x00000000	0.0
106	0x00000000	0.0
107	0x00000000	0.0
108	0x00000000	0.0
109	0x00000000	0.0
110	0x00000000	0.0
111	0x00000000	0.0
112	0x00000000	0.0
113	0x00000000	0.0
114	0x00000000	0.0
115	0x00000000	0.0
116	0x00000000	0.0
117	0x00000000	0.0
118	0x00000000	0.0
119	0x00000000	0.0
120	0x00000000	0.0
121	0x00000000	0.0
122	0x00000000	0.0
123	0x00000000	0.0
124	0x00000000	0.0
125	0x00000000	0.0
126	0x00000000	0.0
127	0x00000000	0.0

network_body.observation_encoder.rsa.fc_v.bias f4 [128]
0	0xbc0df8a2	-0.008665236
1	0x3ca53eea	0.020171601
2	0x3c132867	0.008981801
3	0xbbf58392	-0.007492491
4	0x3cb6392e	0.022244062
5	0xbc9f4934	-0.019444086
6	0x3b34695c	0.002752862
7	0xbb6ac6e4	-0.0035824114
8	0xbd15f501	-0.036610607
9	0xbb51df20	-0.0032023862
10	0x3cbd947f	0.023142098
11	0xbcb2cf84	-0.021827467
12	0x3aecaa2e	0.0018056089
13	0x3c9261bb	0.017868867
14	0x3acdec5a	0.0015710697
15	0x3cdca5dc	0.026934557
16	0xbc31f958	-0.010862671
17	0x3caf2d73	0.021383977
18	0x3ca365f9	0.019946085
19	0x3c259615	0.010106583
20	0xbc9c9ddb	-0.01911824
21	0x3cb9f3a0	0.022699177
22	0x3c870fe8	0.016487077
23	0xbb56eff1	-0.0032796825
24	0xbd21f1d7	-0.039537277
25	0xbc9b2576	-0.018938761
26	0x3c4b74f9	0.012418025
27	0xbcdbfe6d	-0.026854718
28	0x3ae5c6ec	0.0017530597
29	0xbb375e8e	-0.0027979943
30	0x3b101f45	0.0021991294
31	0xbce6c315	-0.028169194
32	0x3ced796c	0.028988563
33	0xbbffd55a	-0.007807416
34	0xbced5fbd	-0.028976316
35	0xbc10e710	-0.008844152
36	0x3bf99b04	0.0076173563
37	0xbcdc5c8e	-0.026899602
38	0x3b3d38f8	0.0028873067
39	0x3c8e0157	0.017334623
40	0x3bb553ec	0.005533686
41	0x3b0c1feb	0.002138133
42	0x3ce4af1e	0.027915534
43	0x3912cbfa	0.00013999632
44	0x3c10e558	0.008843742
45	0x3b8bd833	0.0042677163
46	0xbb8b6e4a	-0.004255091
47	0x3b461e9a	0.0030230642
48	0x3b3cc5b8	0.0028804373
49	0x3cdb58b3	0.026775694
50	0xbc577655	-0.013150771
51	0xbc48b5f8	-0.012250416
52	0x3ce15ffd	0.027511591
53	0xbce1b002	-0.027549747
54	0x3c346158	0.011009537
55	0xbc312fcc	-0.010814618
56	0x3c925b2f	0.017865745
57	0xbb89e0b9	-0.004207697
58	0xbc496cff	-0.012294053
59	0x3c16a7a8	0.009195246
60	0x3aafadb6	0.001340321
61	0x3c6c3e08	0.014419086
62	0x3b86b4ad	0.0041108937
63	0x3d021b4c	0.031764314
64	0xbcfaccb8	-0.030615196
65	0x3b592e7b	0.0033139277
66	0xbc9ec153	-0.019379294
67	0xbbc033a2	-0.00586553
68	0x3caab871	0.020839902
69	0x3c8ffa85	0.017575512
70	0x3d082c88	0.033245593
71	0xbc71ee78	-0.014766328
72	0xbb3660bd	-0.0027828657
73	0x3ca60baf	0.020269243
74	0x3c54abe5	0.012980436
75	0xbcdd7b31	-0.027036281
76	0xbc7135d4	-0.014722306
77	0x3cd3d3b8	0.025857791
78	0xbc4b46c5	-0.0124070095
79	0xbd5719fd	-0.05251502
80	0xbc50180a	-0.012701044
81	0xbc892292	-0.016740117
82	0xbcbadfb1	-0.022811742
83	0x3be64468	0.0070271976
84	0xba501e2e	-0.00079390674
85	0xbbf440b4	-0.0074540023
86	0xbd10f137	-0.03538629
87	0xbafac6de	-0.0019132753
88	0xbc5e11df	-0.0135540655
89	0x3c366e34	0.011134673
90	0xbc1373b1	-0.008999751
91	0xbc99c768	-0.018771842
92	0x3c5e58f5	0.013571014
93	0xbbb8365b	-0.005621714
94	0xbc9631a6	-0.018334221
95	0x3c6a9892	0.014318602
96	0xb9f17558	-0.0004605453
97	0x3c9d62f1	0.019212218
98	0xbb5511cb	-0.0032511826
99	0xbc09bfda	-0.008407557
100	0xbc0d4ecd	-0.008624745
101	0x3d0dd57a	0.034627415
102	0xbb57428b	-0.003284606
103	0x3c973ef0	0.018462628
104	0x3aa49edf	0.0012559554
105	0x3b537fa1	0.0032272118
106	0x3cf8c129	0.030365543
107	0xbce7d6cd	-0.028300667
108	0xbaa0e41d	-0.0012275014
109	0x3c86cd94	0.01645545
110	0x3bc7df91	0.0060996492
111	0x3c16faf1	0.0092151025
112	0xbd01ee5f	-0.03172147
113	0x3c492e0c	0.012279045
114	0x3c40c632	0.011766003
115	0xbc4ce437	-0.0125055825
116	0xbc9052f8	-0.017617688
117	0x3ce78c91	0.02826527
118	0xbc1d52e6	-0.009602284
119	0xbc2b64ee	-0.010461075
120	0xbc85aec4	-0.016318686
121	0x3ce8e1ec	0.02842804
122	0x3d58cbc1	0.05292869
123	0x3c522d1a	0.012828136
124	0xbd0f4f0e	-0.0349875
125	0x3c138894	0.009004731
126	0xbace2078	-0.0015726229
127	0x3b888960	0.004166767

network_body.observation_encoder.rsa.fc_out.bias f4 [128]
0	0x3c2d44fa	0.010575527
1	0x3d48586a	0.048912443
2	0x3cc393c6	0.023874175
3	0xbc051ee9	-0.008125045
4	0xbc1642d3	-0.009171206
5	0xb9f77776	-0.00047200517
6	0xbc36b0af	-0.011150523
7	0x3c233443	0.009961191
8	0xbd13efda	-0.036117412
9	0xbce4ecc4	-0.02794493
10	0xbbace15b	-0.005275888
11	0xbbf44813	-0.007454881
12	0xbced501c	-0.028968863
13	0xbcd2f5e5	-0.025752017
14	0x3cc5beed	0.024138892
15	0x3c9117e4	0.017711587
16	0xbd0e6764	-0.03476657
17	0xbbf24c35	-0.0073943385
18	0x3c921a8a	0.01783492
19	0x3b244be3	0.0025069646
20	0xbc9ed122	-0.019386832
21	0x3ba1ed3e	0.0049416116
22	0xbc9a23f3	-0.01881597
23	0xbce1b173	-0.027550435
24	0x3c110ef4	0.008853663
25	0x3cf3feb9	0.029784547
26	0xbd768d04	-0.060193077
27	0xbc74bc7f	-0.014937519
28	0xbd47546e	-0.048664503
29	0xbaa0f006	-0.0012278564
30	0xbd1b9122	-0.037980206
31	0xbc2301e1	-0.009949178
32	0x3a61d8c9	0.00086153724
33	0xbbbbd959	-0.005732697
34	0x3cc4fb99	0.024045752
35	0x3c34d107	0.011036164
36	0x3d1c2f80	0.038131237
37	0x3c372dda	0.011180365
38	0x3c9d2098	0.019180581
39	0x3c8fd46b	0.017557343
40	0xbcea82d0	-0.02862683
41	0xbc4bfc2f	-0.012450262
42	0x3cebca51	0.028782995
43	0x3d00e4ea	0.03146831
44	0xbc64fcbf	-0.013976275
45	0x3c81a3c8	0.015825167
46	0x3a79bda4	0.0009526855
47	0xbc14c7de	-0.009080855
48	0xbce83d5a	-0.028349567
49	0xbc18867d	-0.009309408
50	0xbd48e956	-0.04905065
51	0xbb38149c	-0.0028088456
52	0xbcc52da2	-0.024069611
53	0xbc6a2bf1	-0.014292703
54	0x3a632dd8	0.0008666194
55	0xbd256a74	-0.040384725
56	0xbb5d87c7	-0.0033802853
57	0xbc67bf28	-0.014144696
58	0xbd190ad3	-0.03736384
59	0x3bbd71fa	0.0057814093
60	0xbce941f2	-0.028473828
61	0xbca75c2d	-0.020429695
62	0x3c85561b	0.01627641
63	0xbc92f19d	-0.017937476
64	0x3b60fcd2	0.003433038
65	0xbd013e20	-0.031553388
66	0x3cc813b2	0.024423454
67	0xbc3156eb	-0.0108239455
68	0x3d8687ca	0.065688685
69	0x3ca3badb	0.01998656
70	0x3ca30931	0.019901844
71	0x3ba41f2d	0.0050085993
72	0x3d08c64d	0.03339224
73	0xbc074bed	-0.008257848
74	0x3cc6cb85	0.024266968
75	0xbd1b63e2	-0.037937053
76	0xbbd19e8e	-0.006397075
77	0x3cabf500	0.020990849
78	0x3cc703a6	0.024293732
79	0x3bfcd859	0.0077162203
80	0x3bf1198e	0.0073577827
81	0xbcbcc578	-0.02304338
82	0x3c3c8234	0.011505652
83	0xbd1687d1	-0.03675062
84	0xbc3b1083	-0.011417511
85	0x3c81e3b2	0.015855644
86	0xbd016686	-0.031591915
87	0xbc90d877	-0.017681343
88	0x3c7e47d5	0.015520056
89	0x3c6ae384	0.0143364705
90	0x3d11cf4c	0.035598084
91	0x3ca4988a	0.020092268
92	0x3c925dd2	0.017867003
93	0x3c70044a	0.01464946
94	0x3c97a921	0.018513264
95	0xbcd10f66	-0.025520038
96	0x3bfba8b8	0.007680025
97	0xbb0e55d6	-0.0021718643
98	0x3bbe52a8	0.0058081932
99	0xbcbd67dc	-0.023120813
100	0xbc6501c4	-0.013977472
101	0x3cbcf9b1	0.02306828
102	0x3c6fd139	0.014637285
103	0xbc010750	-0.007875279
104	0x3c052f82	0.0081290025
105	0xbc9af91f	-0.018917618
106	0x3cc1d531	0.023661228
107	0x3c4d09e7	0.012514568
108	0xbb1d52aa	-0.002400557
109	0xbc807ad6	-0.015683573
110	0xbd278a02	-0.0409031
111	0xbb828bdd	-0.003983958
112	0x3cb39ca6	0.021925282
113	0x3d003367	0.03129902
114	0x3d0c5c38	0.034267634
115	0x3d062785	0.032752533
116	0xbc43cb75	-0.011950363
117	0x3cbc74db	0.02300494
118	0xbcabd391	-0.020974906
119	0xbcb19ee1	-0.021682205
120	0xbcdac1b8	-0.0267037
121	0x3d10ae54	0.035322502
122	0x3ca1a388	0.019731298
123	0x3a6debdd	0.0009075979
124	0x3c6b9c2f	0.014380499
125	0x3bf81e18	0.007571947
126	0xbb90d436	-0.0044198288
127	0x3d1b2fb0	0.037887275

network_body.observation_encoder.x_self_encoder.seq_layers.0.weight f4 [128, 3]
0	0xbd9faa19	-0.077961154
1	0x3da9bfaf	0.08288514
2	0xbbc9f254	-0.006162921
3	0xbe8899d4	-0.26679862
4	0xbdf95057	-0.12173527
5	0xbe00c4d5	-0.12575085
6	0xbd0f3425	-0.03496184
7	0xbdb52a05	-0.08845905
8	0x3d8d148b	0.06888684
9	0xbd5b9e11	-0.05361754
10	0xbdf63c17	-0.1202318
11	0x3d046c2f	0.032329734
12	0x3c2ed88f	0.010671749
13	0x3e309067	0.17242585
14	0xbda673e9	-0.08127577
15	0x3d963e4d	0.07336102
16	0x3d27f408	0.04100421
17	0xbd828070	-0.06372154
18	0xbe0d0570	-0.13771605
19	0x3d7f1c0b	0.062282603
20	0x3e2e4b7d	0.17020984
21	0xbce10b48	-0.0274712
22	0x3d332a2e	0.043741398
23	0xbd8e10b3	-0.06936779
24	0x3dbe060b	0.09278496
25	0xbdfdf9bc	-0.12401149
26	0x3d4ba0aa	0.049713768
27	0xbda8e389	-0.08246524
28	0x3e1d9b0a	0.15391174
29	0xbdb22272	-0.08697976
30	0xbc8eda27	-0.017438008
31	0xbd52cccb	-0.051464837
32	0xbda84e74	-0.08218089
33	0xbcd07b88	-0.02544953
34	0xbe29e0a9	-0.16589607
35	0xbe2ed990	-0.17075181
36	0x3cd0f9ed	0.025509799
37	0xbe444f31	-0.19170834
38	0x3d479a15	0.04873093
39	0x3d54b014	0.051925734
40	0xbd7b1cd1	-0.06130678
41	0x3d416822	0.04721845
42	0xbd7c368f	-0.06157547
43	0x3d4d6636	0.050146304
44	0x3d9a719d	0.07541201
45	0x3df740a1	0.12072874
46	0xbcadddb2	-0.021223877
47	0x3d5c90f5	0.05384918
48	0xbe08c6c9	-0.1335708
49	0xbdc1f59e	-0.09470676
50	0x3d6d40c7	0.057923105
51	0xbdd5f9b8	-0.10448021
52	0x3d561735	0.052268226
53	0xbddb3b9b	-0.10704728
54	0x3d9c45b5	0.07630483
55	0x3e4eedd8	0.20207918
56	0x3da5d595	0.08097378
57	0xbdde4b30	-0.10854185
58	0xbcdfbc5a	-0.027311493
59	0x3d8efecc	0.069821924
60	0x3d3e64ed	0.04648297
61	0x3bdffc92	0.0068355286
62	0x3ddd1bb8	0.107963026
63	0x3db8a0d2	0.09015049
64	0xbe0cb519	-0.13740958
65	0x3cad5dbb	0.021162858
66	0x3db04878	0.08607572
67	0xbd4f6cbc	-0.050640807
68	0x3dc47c4d	0.09594021
69	0xbdb4c72f	-0.08827054
70	0x3cba3333	0.022729492
71	0xbdc5290e	-0.09626971
72	0x3dfc15eb	0.12308868
73	0x3ad05673	0.0015894904
74	0xbe13063d	-0.14357848
75	0x3c7c3092	0.015392439
76	0x3a9705f9	0.0011522166
77	0x3cd5470a	0.02603485
78	0xbdc6c2f0	-0.0970515
79	0xbd1916ce	-0.037375264
80	0x3da7e090	0.08197129
81	0x3dec865b	0.11549064
82	0x3e1d2f0e	0.15349981
83	0xbd890b07	-0.066915564
84	0x3c0a8cf4	0.008456457
85	0x3dc3c3ce	0.09558831
86	0x3e644af9	0.22294225
87	0xbd6c74e1	-0.057728652
88	0x3d748705	0.059699077
89	0xbd8d65b2	-0.069041625
90	0x3e1484a1	0.14503719
91	0xbc443224	-0.011974845
92	0x3cd96db8	0.026541576
93	0x3e28a3a2	0.16468671
94	0xbd0b56ea	-0.034018435
95	0x3cf8b356	0.030358952
96	0xbdf8bc42	-0.12145282
97	0xbdffc900	-0.124895096
98	0x3d3edd2b	0.04659764
99	0xbe0f2f4d	-0.13982888
100	0x3b1b7728	0.0023722146
101	0x3decd538	0.11564106
102	0x3d966f63	0.07345464
103	0xbdbd313a	-0.09237905
104	0x3dd97c97	0.10619467
105	0x3df1e1af	0.11810624
106	0x3dc750b1	0.097321875
107	0xbd556434	-0.052097514
108	0x3e110827	0.14163266
109	0x3dc7d135	0.097567
110	0xbd896ca3	-0.06710174
111	0xbd67b3d3	-0.056567978
112	0xbe2d1c5f	-0.16905354
113	0x3d01a250	0.031648934
114	0x3d6dcfc8	0.058059484
115	0x3cb0eebf	0.021598218
116	0xbdb77a67	-0.08958893
117	0x3d5da6f1	0.054114286
118	0xbdc2ae95	-0.09505955
119	0xbe0e91f8	-0.1392287
120	0xbda5567a	-0.08073135
121	0x3bab05e5	0.0052192085
122	0x3e09fdb2	0.13475683
123	0xbd1ef66d	-0.03880923
124	0x3d2c883c	0.04212211
125	0x3e403f6c	0.18774194
126	0x3dc70a6f	0.09718787
127	0xbdfabd32	-0.122431174
128	0xbe0a339c	-0.1349625
129	0x3e0f2d83	0.13982205
130	0x3d69d579	0.05708835
131	0xbddb1bc2	-0.10698654
132	0xbe206119	-0.1566204
133	0x3db2590b	0.0870839
134	0xbd349102	-0.044083603
135	0x3d8f204a	0.069885805
136	0xbdcd605d	-0.100281455
137	0xbe0b9239	-0.13629998
138	0x3d2c7109	0.042099986
139	0x3df88410	0.12134564
140	0xbdd46d17	-0.1037237
141	0xbe5f9d0b	-0.21837251
142	0xbd2207b6	-0.039558135
143	0xbda814c0	-0.08207083
144	0xbdd6b5fb	-0.10483929
145	0x3d9911f6	0.07474129
146	0x3e4a19fc	0.19736475
147	0x3dca9402	0.098915115
148	0xbe6813ee	-0.22663853
149	0x3da9befe	0.08288382
150	0x3db6a634	0.089184195
151	0xbe2dc56b	-0.1696984
152	0x3d8ace7b	0.06777664
153	0xbe1efa4b	-0.15525167
154	0x3dcae1cb	0.09906348
155	0x3e193c1c	0.14964336
156	0xbd50a159	-0.050935123
157	0x3e14c089	0.14526571
158	0xbc0adc1c	-0.00847533
159	0xbe21fa92	-0.15818241
160	0x3bf661d1	0.007518985
161	0xbdb10cb5	-0.08645002
162	0xbdaaaf5d	-0.08334229
163	0xbe05b852	-0.13058594
164	0x3dcd22ae	0.1001638
165	0x3e1d51a8	0.1536318
166	0x3dcdb7bd	0.10044811
167	0x3dcdb163	0.100435995
168	0x3ca9bf3e	0.020721074
169	0x3df3562b	0.118816696
170	0x3e771784	0.24130064
171	0x3dabd6cd	0.083905794
172	0xbdd34290	-0.1031543
173	0x3d4fd9ab	0.050744694
174	0xbdc19d78	-0.09453863
175	0xbe02be5a	-0.12767926
176	0x3d7f18ca	0.0622795
177	0xbd0847e8	-0.0332717
178	0x3dddac7f	0.10823917
179	0xbd21a895	-0.039467413
180	0xbdeab9d6	-0.11461227
181	0xbdcee263	-0.101017736
182	0x3db80215	0.08984772
183	0x3be0ed75	0.0068642446
184	0x3e067fed	0.13134737
185	0x3e388e1c	0.1802296
186	0xbd919c87	-0.07109933
187	0x3c518b23	0.01278952
188	0xbd635b6b	-0.055507105
189	0xbdfcdfef	-0.123473994
190	0xbe411123	-0.18854193
191	0xbe210aee	-0.15726826
192	0x3dba75cb	0.091044985
193	0xbde0f4d8	-0.109842
194	0x3d872543	0.06598904
195	0xbc65830c	-0.014008295
196	0xbe3f0f04	-0.18658072
197	0x3d5dfaea	0.05419437
198	0x3d242e51	0.040083233
199	0x3d3b1336	0.045672618
200	0xbdbe6f5a	-0.092985824
201	0xbe59e689	-0.21279348
202	0xbe325d15	-0.1741832
203	0xbdd0083f	-0.10157823
204	0x3e1497f6	0.14511093
205	0xbde16561	-0.110056646
206	0x3d47cd19	0.04877958
207	0xbd62ef53	-0.05540402
208	0x3de62ba4	0.112387925
209	0xbda1bae9	-0.078969784
210	0xbd942a58	-0.07234639
211	0x3d1b9743	0.03798605
212	0xbd888446	-0.06665854
213	0x3bff6984	0.007794561
214	0x3cb08215	0.021546403
215	0xbd80d8aa	-0.062913254
216	0xbe05d368	-0.13068926
217	0xbd266b55	-0.040629704
218	0x3e0bfdbd	0.13671012
219	0x3e01fee2	0.12694886
220	0xbd17e83d	-0.037086714
221	0x3da7b0a0	0.081879854
222	0xbd83fbce	-0.06444512
223	0x3d351bee	0.04421609
224	0xbdb9b5a7	-0.090678506
225	0xbd9724dd	-0.07380078
226	0x3d00ac27	0.031414177
227	0xbdd8fd01	-0.10595132
228	0x3e59fd5c	0.21288055
229	0x3e2a917c	0.1665706
230	0x3de7119f	0.11282658
231	0x3cf3c43d	0.02975666
232	0x3c89d4ed	0.016825164
233	0x3d915b3c	0.0709748
234	0x3da717e4	0.08158854
235	0xbcf015f2	-0.02930734
236	0x3c965a45	0.01835359
237	0xbdfc93e4	-0.123328954
238	0xbe177d78	-0.14793956
239	0x3d50965c	0.050924644
240	0xbd925ae3	-0.071462415
241	0xbda0ae2e	-0.07845722
242	0x3d52d519	0.051472757
243	0x3e0199d1	0.12656333
244	0xbc0fe97d	-0.008783695
245	0x3d02e488	0.031956226
246	0x3d20e495	0.039280493
247	0xbd184c99	-0.037182424
248	0x3d8d9731	0.06913603
249	0x3dc4cc80	0.09609318
250	0xbe003b40	-0.12522602
251	0x3d0927f4	0.033485368
252	0xbe32e90c	-0.17471713
253	0x3da24d20	0.07924867
254	0x3e5ba3dc	0.21449226
255	0x3d28b910	0.041192114

network_body.observation_encoder.x_self_encoder.seq_layers.0.bias f4 [128]
0	0x3d9906e7	0.0747202
1	0x3d8b8c77	0.06813901
2	0xbc44d44c	-0.012013506
3	0xbd3ef2bc	-0.04661821
4	0xbc3241db	-0.010879959
5	0x3de4a14f	0.1116358
6	0xbc1aa2b2	-0.009438204
7	0x3d2ef372	0.042712636
8	0xba5c998c	-0.0008415214
9	0xbd113f18	-0.03546056
10	0x3e00b57d	0.12569232
11	0x3dd24039	0.10266156
12	0x3c54d8ef	0.012991174
13	0xbd6f70f6	-0.058457337
14	0xbde17d36	-0.1101021
15	0x3c5c30ec	0.013439398
16	0xbd49dab1	-0.049280826
17	0xbcf7db3d	-0.030255908
18	0x3d2ed60a	0.042684592
19	0xbdc08314	-0.09400001
20	0xbd90e626	-0.07075147
21	0xbbbc75e0	-0.0057513565
22	0x3c0167c4	0.007898275
23	0x3d13df75	0.036101777
24	0x3d9bebfe	0.07613371
25	0x3e34adec	0.17644471
26	0xbdc34162	-0.09533955
27	0x3d8c846e	0.068611965
28	0x3c04d2d9	0.008106911
29	0x3d866e96	0.06564061
30	0xbd731982	-0.059350498
31	0xbc98f09a	-0.018669415
32	0xbd1011ee	-0.03517335
33	0xbd977a04	-0.073963195
34	0x3d6ffc21	0.05859006
35	0x3df7d1e2	0.12100579
36	0x3d754a0b	0.059885066
37	0x3bc2d32b	0.0059455833
38	0x3d9150c1	0.07095481
39	0x3df9397b	0.12169167
40	0xbc8a7df4	-0.016905762
41	0x3cb16145	0.021652827
42	0xbc36edb3	-0.01116507
43	0x3daa5850	0.083176255
44	0xbd00d1cf	-0.03145009
45	0x3e1b9a93	0.15195684
46	0xbc28b8be	-0.010297952
47	0x3d42ad1e	0.04752838
48	0xbca51a07	-0.020154012
49	0x3da85c44	0.08220723
50	0x3d9b52d8	0.075841606
51	0x3d27e368	0.040988356
52	0x3d04c7c0	0.03241706
53	0x3da41476	0.08011715
54	0xbd5ebf1b	-0.05438147
55	0xbd1aaa1a	-0.037759878
56	0x3d6baadc	0.05753599
57	0xbc9772d0	-0.018487364
58	0xbccf76dc	-0.025325231
59	0x3d6822a3	0.056673657
60	0xbd6d2dc0	-0.05790496
61	0x3d2cb419	0.042163942
62	0x3da27a65	0.07933501
63	0x3dbb5da0	0.09148717
64	0x3d303047	0.04301479
65	0x3cb37af7	0.02190922
66	0x3d6cd589	0.05782083
67	0x3d3b6f19	0.045760248
68	0x3bc51b66	0.006015229
69	0x3d12a874	0.03580518
70	0x3cae8d13	0.021307504
71	0x3ddabde9	0.10680754
72	0xbc1da797	-0.009622476
73	0xbd38ec68	-0.04514733
74	0x3d96c047	0.07360893
75	0x3d9aeb20	0.07564378
76	0x3d6f41ee	0.058412485
77	0xbdeb3a7e	-0.11485766
78	0xbda38a96	-0.079854175
79	0x3c1a9592	0.009435074
80	0xbd5e2572	-0.05423493
81	0xbdb3b1d3	-0.08774152
82	0xbd9a34e1	-0.07529617
83	0xbb383a62	-0.002811097
84	0x3c664270	0.014053926
85	0x3d23ff89	0.04003862
86	0xbd6ab74e	-0.05730372
87	0x3d2d6162	0.0423292
88	0xbd067872	-0.03282971
89	0x3e0dfa67	0.13865052
90	0xbd01ccaf	-0.031689342
91	0x3db3345a	0.0875022
92	0x3e0231bc	0.12714285
93	0xbd21e789	-0.03952745
94	0x3dbfc23c	0.09363219
95	0x3c95d927	0.018292023
96	0x3dc097e5	0.094039716
97	0x3ccbf6a0	0.024897873
98	0x3d429c8f	0.047512587
99	0x3da483e8	0.080329716
100	0x3deecb50	0.116598725
101	0x3ce548c2	0.027988795
102	0x3e3e07c1	0.18557645
103	0x3d14a719	0.03629217
104	0x3cba71db	0.022759369
105	0x3da6b3f8	0.08139795
106	0xbdfdd407	-0.12393957
107	0x3dea61a3	0.11444404
108	0xbd0850b4	-0.03328009
109	0x3dc79129	0.09744484
110	0xbd8a3eb6	-0.067502424
111	0xbcac84e5	-0.021059463
112	0x3c73793b	0.014860447
113	0x3e0a07fa	0.13479605
114	0x3d544711	0.051825587
115	0x3cfc9fce	0.03083792
116	0xbd6f9f96	-0.058501802
117	0x3db5b027	0.08871489
118	0xbd335c58	-0.043789238
119	0xbd1c242d	-0.038120437
120	0x3c217d7e	0.00985658
121	0x3d5643d8	0.052310795
122	0xbb9ac55c	-0.004723234
123	0xbd198c87	-0.037487533
124	0xbdacfed8	-0.08447045
125	0xbe0b6f4d	-0.13616677
126	0xbc8e04ed	-0.017336333
127	0x3db5cf62	0.08877446

network_body._body_endoder.seq_layers.0.weight f4 [64, 131]
0	0x3ec0a416	0.37625188
1	0xbe9b6c91	-0.30356267
2	0x3e94f589	0.29093578
3	0xbcc16947	-0.02360977
4	0xbe0be78b	-0.13662545
5	0xbe4601ee	-0.19336674
6	0xbe0ce960	-0.137609
7	0xbc2a788b	-0.010404716
8	0xbe1b8baa	-0.15189996
9	0xbd8f0ad9	-0.06984491
10	0xbc2d0941	-0.010561288
11	0xbb7b6838	-0.003836168
12	0xbd4ce4d7	-0.050022926
13	0x3db1b9e2	0.086780325
14	0xbd1371ad	-0.03599708
15	0x3db13958	0.086535156
16	0x3d899abf	0.067189686
17	0x3c9535cf	0.018214134
18	0x3dbcb65f	0.09214472
19	0xbdf9561c	-0.12174627
20	0xbdb961e0	-0.09051871
21	0x3bdb4d2e	0.00669255
22	0x3cf13cf2	0.029448006
23	0xbd258ccb	-0.040417474
24	0x3dff2a7d	0.12459276
25	0x3b1264f0	0.0022337995
26	0x3de95baf	0.113944404
27	0x3dd82be3	0.10555246
28	0xbe1663ca	-0.14686504
29	0xbd8bc590	-0.068247914
30	0xbde4fd28	-0.11181098
31	0xbc8b58e6	-0.017010164
32	0xbcb8b559	-0.02254741
33	0xbcea737d	-0.028619522
34	0xbd128a39	-0.03577635
35	0xbd2919ed	-0.04128449
36	0xbccfeb6e	-0.025380816
37	0xbd9d29d0	-0.07673991
38	0x3b7488c9	0.0037312976
39	0xbcf1acf4	-0.029501416
40	0x3db45220	0.088047266
41	0xbd56820d	-0.05237012
42	0x3c6d167b	0.014470692
43	0xbc4319d7	-0.011908016
44	0xbc8a53f4	-0.016885735
45	0xbc7a228b	-0.015267025
46	0xbe1254da	-0.14290181
47	0xbcecbd02	-0.02889872
48	0xbd49ce54	-0.049269035
49	0x3e548aed	0.20756121
50	0x3e06cf99	0.1316513
51	0xbc30fdbf	-0.010802685
52	0x3cc901d3	0.024537003
53	0x3d7300a9	0.0593268
54	0xbcee3031	-0.029075714
55	0x3cecd218	0.028908774
56	0x3e3a5441	0.18196203
57	0xbcc8eb4f	-0.024526266
58	0x3dded921	0.10881258
59	0xbcec6b1e	-0.028859671
60	0x3c7ea86e	0.015543086
61	0x3d81fbbd	0.063468434
62	0x3d9fce63	0.07803037
63	0x3d1509a6	0.036386155
64	0xbd84c6a3	-0.064831994
65	0x3c9e68aa	0.019337017
66	0x3d00514a	0.031327523
67	0x3d7e8e54	0.062147453
68	0x3e6c79f8	0.23093402
69	0x3dc4771b	0.0959303
70	0x3c8e7564	0.01738996
71	0xbc916537	-0.017748458
72	0xbca832ae	-0.020531978
73	0x3d82ebb5	0.06392614
74	0xbcd193c5	-0.025583157
75	0xbd7f47c3	-0.062324297
76	0xbc71b5c0	-0.014752805
77	0x3cdd7ae0	0.02703613
78	0xbd8c71ca	-0.06857641
79	0x3e5e70bd	0.21722694
80	0xbc95f96b	-0.018307408
81	0x3dbbd7c4	0.091720134
82	0xbde3b3c2	-0.111182705
83	0xbc251e5c	-0.010078039
84	0xbd9a4deb	-0.07534393
85	0xbc36daaf	-0.011160537
86	0x3d98514f	0.074373834
87	0x3dc3a707	0.09553342
88	0xbdaf957b	-0.08573433
89	0x3c1d59a8	0.009603895
90	0xbd57a40c	-0.05264668
91	0x3d6e642d	0.058201004
92	0xbcc5582e	-0.024089899
93	0x3c588b9e	0.013216881
94	0xbde85735	-0.113447584
95	0x3d913b67	0.07091408
96	0xbdce6f58	-0.10079831
97	0xbe492e72	-0.19646624
98	0xbb2b91bb	-0.0026179391
99	0x3c2ad077	0.010425678
100	0x3da28642	0.07935764
101	0xbcf3bd04	-0.029753216
102	0x3df69ee8	0.12042028
103	0x3da73d06	0.08165936
104	0xbe10e1ba	-0.14148608
105	0xbd819dea	-0.06328948
106	0x3d80adc8	0.06283146
107	0x3ddd80dd	0.10815594
108	0xb61aa818	-2.3045632e-06
109	0x3dffa9de	0.124835715
110	0x3dcd8542	0.100351825
111	0xbdd50a8e	-0.10402404
112	0xbd536a06	-0.051614784
113	0xb9c842e2	-0.00038196804
114	0x3dad2b58	0.08455533
115	0xbe514af8	-0.20438755
116	0x3c23f426	0.01000694
117	0x3be6a734	0.007038975
118	0x3e126153	0.14294939
119	0x3d06455c	0.03278099
120	0xbd416990	-0.047219813
121	0xbe525caa	-0.20543161
122	0x3bd2a528	0.0064283796
123	0x3e5c2696	0.21499094
124	0x3d3f0117	0.0466319
125	0xbd8389ca	-0.064227656
126	0x3d376523	0.044774186
127	0xbd8460d5	-0.06463782
128	0xbd839fdb	-0.064269744
129	0x3dbef56d	0.09324155
130	0xbc69dd09	-0.01427389
131	0xbe6dbe20	-0.23217058
132	0x3eebc4c7	0.46048567
133	0xbe126932	-0.14297941
134	0x3c8f26c6	0.017474543
135	0xbe152bd1	-0.14567496
136	0xbdc99ab5	-0.09843961
137	0x3d941f43	0.07232525
138	0x3dc2e024	0.09515408
139	0xbe11ee80	-0.14251137
140	0x3dd11b6f	0.10210311
141	0xbb7b4470	-0.0038340352
142	0x3e1738ef	0.14767812
143	0x3d2faf64	0.042891875
144	0xbd61d375	-0.0551333
145	0xbc084567	-0.008317328
146	0x3e653306	0.22382745
147	0x3da40b30	0.08009946
148	0x3d9c11e3	0.07620599
149	0xbc5d3481	-0.013501287
150	0x3e5de213	0.21668272
151	0x3d30c6c0	0.043158293
152	0x3cdac6e7	0.026706172
153	0x3d35b6b8	0.044363707
154	0x3d1a152e	0.037617855
155	0x3d8c93e7	0.06864148
156	0x3e5594f9	0.2085761
157	0xbdd1f8b8	-0.102525175
158	0xbe22186e	-0.15829632
159	0xbe637f1e	-0.2221646
160	0x3dd68fae	0.104766235
161	0x3c822750	0.015887886
162	0x3e588663	0.21145014
163	0xbac312be	-0.0014882905
164	0x3d94f0fc	0.072725266
165	0x3d842f6d	0.06454358
166	0xbddeef3e	-0.108854756
167	0xbd8bc32a	-0.06824334
168	0xbd860c4d	-0.06545315
169	0xbd1e64f5	-0.0386705
170	0x3d1bdf35	0.038054664
171	0xbdf4b67e	-0.1194887
172	0x3d4e727b	0.050402146
173	0xbd3bb756	-0.04582914
174	0xbdd4f7e5	-0.10398845
175	0x3d012f1d	0.03153907
176	0x3b6645f2	0.0035136905
177	0x3e5d5b9a	0.21616974
178	0x3d2e8f91	0.042617384
179	0xbe1c06b0	-0.15236926
180	0x3df477db	0.11936923
181	0xbe26c66d	-0.16286631
182	0x3e4a7531	0.19771267
183	0x3d418eff	0.047255512
184	0xbe0a4236	-0.1350182
185	0x3d9dcab6	0.0770468
186	0x3dd74b58	0.105124176
187	0xbd7a9a09	-0.061182056
188	0x3e03dc22	0.12876943
189	0xbd759528	-0.0599567
190	0xbc881873	-0.01661322
191	0x3dbf34cf	0.09336244
192	0x3e111315	0.14167435
193	0xbc98aec8	-0.01863803
194	0x3da836ab	0.08213552
195	0xbdcadfab	-0.099059425
196	0x3d02c936	0.03193017
197	0xbe2f3974	-0.1711176
198	0x3d5ec226	0.054384373
199	0xba945598	-0.0011317013
200	0xbc82fef4	-0.015990712
201	0xbd297bd9	-0.041377876
202	0xbd7435f9	-0.059621785
203	0xbd61a49b	-0.05508862
204	0xbe2b5d64	-0.16734844
205	0x3e00e301	0.12586595
206	0xbe877daa	-0.26463062
207	0x3e8f09a0	0.2793703
208	0xbd10c656	-0.035345398
209	0x3d855755	0.06510798
210	0x3d2729cb	0.04081134
211	0xbd3edc2a	-0.046596684
212	0x3c9b81a7	0.018982721
213	0xbe21a20e	-0.15784475
214	0xbbda1675	-0.006655509
215	0xbd998efc	-0.07497975
216	0xbd8f8f58	-0.070097625
217	0x3ca93426	0.02065475
218	0x3daa82f9	0.08325762
219	0xbe0011ae	-0.12506744
220	0x3df27cb6	0.11840193
221	0xbb3370a4	-0.0027380371
222	0x3d4aea72	0.04953999
223	0xbd8bc292	-0.06824221
224	0x3ae29a12	0.0017288348
225	0x3cea312d	0.028587902
226	0xbd596691	-0.05307633
227	0xbe62bae5	-0.22141607
228	0xbe195656	-0.14974341
229	0x3cee0473	0.029054856
230	0xbbbdb986	-0.0057899384
231	0xbd381d72	-0.044949956
232	0x3b9ce799	0.004788351
233	0xbda55a85	-0.08073906
234	0xbe4fe653	-0.20302705
235	0xbe3ce572	-0.18446901
236	0xbd143714	-0.03618534
237	0x3e3a03db	0.18165533
238	0x3dfb27b9	0.12263436
239	0xbd95a649	-0.07307107
240	0x3d72de83	0.059294235
241	0xbe10aaf6	-0.14127716
242	0xbd6b2263	-0.05740584
243	0xbdcc373e	-0.09971474
244	0x3e256910	0.1615336
245	0x3d75d1d3	0.060014557
246	0xbd6554a4	-0.055988923
247	0xbe0560a0	-0.13025141
248	0x3e5570e6	0.20843849
249	0x3dcab4e1	0.09897781
250	0x3dc165c3	0.09443238
251	0xbdad915b	-0.0847499
252	0xbc617487	-0.013760692
253	0xbb6ab773	-0.003581491
254	0x3e122060	0.14270163
255	0xbd1cf3b7	-0.038318362

network_body._body_endoder.seq_layers.0.bias f4 [64]
0	0xbec91977	-0.3927724
1	0x3e34cc64	0.17656094
2	0xbe69c659	-0.2282957
3	0x3ec0acc4	0.3763181
4	0xbe820efc	-0.25402057
5	0xbe0943ae	-0.13404724
6	0x3e485f06	0.19567499
7	0xbe436755	-0.19082387
8	0x3e134049	0.14379992
9	0xbed49bba	-0.4152506
10	0x3eaf308f	0.34216735
11	0xbe904415	-0.28176942
12	0x3e9f77b8	0.31146026
13	0xbe88c5f7	-0.26713535
14	0xbe2017d6	-0.15634093
15	0xbeaf9269	-0.3429139
16	0xbe51dda9	-0.20494713
17	0x3e676e44	0.22600657
18	0xbec8ba7e	-0.39204782
19	0xbef64c4f	-0.48105094
20	0x3eaf6f33	0.34264526
21	0xbec65732	-0.387384
22	0x3dfb069b	0.12257119
23	0x3eb6561c	0.3561257
24	0xbeb1508c	-0.34631765
25	0xbef396c1	-0.47575954
26	0xbeb802af	-0.35939547
27	0xbeb96969	-0.36213234
28	0xbecbaf3c	-0.3978213
29	0xbea7aa26	-0.32747
30	0x3e9fae3c	0.31187618
31	0x3eefe116	0.46851414
32	0xbed76b9c	-0.42074287
33	0x3e94478c	0.28960836
34	0xbe4b5560	-0.19856787
35	0x3e37f7e0	0.1796565
36	0x3ecba4f9	0.39774302
37	0xbe9b69c4	-0.3035413
38	0xbd615fe0	-0.055023074
39	0x3ed34824	0.41265976
40	0xbec92095	-0.3928267
41	0x3e8393f7	0.25698826
42	0x3e585944	0.21127802
43	0xbeb02a12	-0.34407097
44	0x3da9aba9	0.08284695
45	0xbe976a21	-0.29573157
46	0xbec386fd	-0.38188925
47	0x3e87471a	0.26421434
48	0x3e1d2580	0.15346336
49	0x3e01300d	0.12615986
50	0xbeecb878	-0.46234488
51	0x3d16bc8f	0.036800917
52	0x3e91e10a	0.28492004
53	0x3e48fe8b	0.1962835
54	0xbeb12ec0	-0.3460598
55	0x3e496d46	0.19670591
56	0x3edc8a8b	0.4307445
57	0xbec0d7a8	-0.37664533
58	0x3e045b73	0.1292551
59	0x3e77c574	0.24196416
60	0x3db0e639	0.086376615
61	0x3e7fdf6a	0.2498757
62	0x3e356e54	0.17717868
63	0xbec641bc	-0.38722026

network_body._body_endoder.seq_layers.2.weight f4 [64, 64]
0	0xbe372ef5	-0.17889006
1	0x3d75020e	0.059816413
2	0xbe48eda3	-0.19621901
3	0x3e220ce1	0.15825225
4	0x3ce341a7	0.027741266
5	0xbedcb2fa	-0.43105298
6	0x3e1f8f58	0.15582025
7	0x3daefe14	0.08544555
8	0xbd0cdd71	-0.03439087
9	0xbe7b0242	-0.2451258
10	0xbda99736	-0.08280794
11	0xbb9a8cb2	-0.004716479
12	0x3e55e711	0.20888926
13	0x3c036e00	0.0080218315
14	0xbc9dc147	-0.0192572
15	0x3c5a8ea3	0.013339671
16	0x3d9ef27c	0.07761094
17	0xbe06fa7b	-0.13181488
18	0xbe634e55	-0.2219785
19	0xbe42a507	-0.19008265
20	0x3d816f5f	0.063200705
21	0xbea23cf5	-0.31687132
22	0x3e1e8ff1	0.15484597
23	0x3e79351c	0.24336666
24	0xbec17133	-0.37781677
25	0xbadd300a	-0.0016875279
26	0xbe7516d7	-0.23934494
27	0xbe585287	-0.21125232
28	0x3d6190ea	0.05506984
29	0xbe6242aa	-0.22095743
30	0x3d673d2c	0.056454822
31	0x3da803c1	0.08203841
32	0xbe2ec239	-0.17066278
33	0x3e564b18	0.20927083
34	0xbf09ca32	-0.5382415
35	0x3cfa9668	0.030589297
36	0x3db2bfbb	0.08727976
37	0xbea0b426	-0.31387442
38	0x3e77e19a	0.24207154
39	0xbe0cf13a	-0.13763896
40	0x3d112dae	0.035443954
41	0xbdd7028b	-0.10498532
42	0xbc9474bc	-0.01812207
43	0xbe74d00e	-0.23907492
44	0x3d0ee4f8	0.03488633
45	0xbd0caf4b	-0.03434686
46	0xbdb1eab5	-0.08687345
47	0x3d55e8af	0.052223857
48	0xbe8804ef	-0.26566264
49	0xbd8675fb	-0.06565472
50	0xbe01e43b	-0.1268472
51	0x3e580700	0.2109642
52	0xbd7b12c3	-0.06129719
53	0x3d85093d	0.06495903
54	0xbd1e59ef	-0.038659986
55	0x3e254661	0.16140129
56	0x3e10c624	0.14138085
57	0xbe85353b	-0.26017174
58	0x3e7118ce	0.23544618
59	0xbe018761	-0.12649299
60	0x3ebd31c8	0.36952043
61	0x3e32be46	0.17455396
62	0x3de6ca32	0.112690344
63	0xbded5c5a	-0.1158988
64	0xbdc59ebf	-0.09649419
65	0x3de4efb1	0.1117853
66	0xbd87988e	-0.06620894
67	0xbe80afb7	-0.2513406
68	0xbe1285a0	-0.14308786
69	0xbd27e487	-0.040989425
70	0x3e43b443	0.19111733
71	0xbe8465e3	-0.25858983
72	0x3e2c77fe	0.16842648
73	0xbe8a7210	-0.27040148
74	0xbde3e438	-0.11127514
75	0xbebcb322	-0.36855417
76	0xbdc25404	-0.09488681
77	0xbed32d3a	-0.41245443
78	0xbcda5607	-0.02665235
79	0xbec3c73f	-0.3823795
80	0xbc97ddd4	-0.018538393
81	0xbd2b42b7	-0.04181167
82	0xbd4485ec	-0.04797928
83	0xbe907327	-0.28212854
84	0x3e871d49	0.2638953
85	0xbdb34c2d	-0.08754764
86	0xbe1014e3	-0.14070468
87	0xbe2a3319	-0.16621055
88	0xbd1ecba3	-0.03876842
89	0xbe8581ce	-0.26075596
90	0xbdcb19a7	-0.09917002
91	0xbd8aa0ee	-0.06768976
92	0xbc339c70	-0.010962591
93	0xbe9b3487	-0.30313513
94	0x3d7681bc	0.060182318
95	0xbd51c00d	-0.051208545
96	0xbe32ff1f	-0.17480133
97	0x3e6c20f2	0.23059443
98	0x3e1b583e	0.1517038
99	0x3e258ca5	0.16166933
100	0x3e47e22c	0.19519871
101	0x3dab18e7	0.08354359
102	0xbe446076	-0.19177422
103	0x3e876cd8	0.2645023
104	0xbe37c5ac	-0.179465
105	0x3d9e7ddf	0.07738852
106	0xbd925b6a	-0.07146342
107	0xbf192ddb	-0.59835595
108	0xbd977aba	-0.07396455
109	0x3e0d943b	0.13826077
110	0xbe81684f	-0.25274894
111	0x3d8f2c8e	0.0699092
112	0xbc7292c3	-0.0148054985
113	0xbdf87d31	-0.12133253
114	0xbe1f09b6	-0.15531048
115	0xbc13468c	-0.008988988
116	0xbe226e20	-0.15862322
117	0xbe1afd57	-0.15135704
118	0x3d9a598b	0.0753661
119	0x3dcf2e26	0.10116224
120	0x3d3115a0	0.043233514
121	0xbe7de117	-0.24792896
122	0x3c96e052	0.018417511
123	0xbd09a934	-0.03360863
124	0xbbcfed93	-0.0063454597
125	0xbd79d1c8	-0.06099108
126	0xbe4c1e6e	-0.19933483
127	0xbe7b571f	-0.24544953
128	0x3e9e53ef	0.3092341
129	0x3c287b25	0.010283266
130	0xbdd937cf	-0.10606348
131	0xbe2896fb	-0.16463844
132	0x3e1f0884	0.15530592
133	0x3d0d2d2f	0.03446692
134	0x3e49d744	0.19711024
135	0x3d2f783b	0.04283927
136	0xbd4e3ebe	-0.050352804
137	0x3eec13e4	0.46108925
138	0xbee46fbb	-0.44616494
139	0xbe215e0b	-0.15758531
140	0x3db5247e	0.08844851
141	0x3c87c826	0.01657493
142	0x3ed2806c	0.41113603
143	0x3d164d48	0.036694795
144	0x3e55863a	0.20851985
145	0xbe5d5d92	-0.21617725
146	0x3eae1f10	0.34008074
147	0x3e3b6370	0.18299651
148	0x3d8906fd	0.06690786
149	0x3e22489c	0.15848011
150	0xbe84b0c3	-0.25916108
151	0xbdb6df2c	-0.089292854
152	0x3e522540	0.20522022
153	0xbeb7c853	-0.35895023
154	0x3e909571	0.28239015
155	0x3e16bd96	0.14720759
156	0x3f0e5f90	0.55614567
157	0x3e8fb471	0.28067353
158	0xbda2f0bd	-0.079560734
159	0xbe8a9968	-0.27070165
160	0x3e1cdbaa	0.1531817
161	0x3e17688a	0.14785972
162	0x3e35aaaa	0.17740884
163	0x3e576390	0.21034074
164	0xbeb40b23	-0.35164747
165	0x3f0b0354	0.54301953
166	0xbdcb8098	-0.09936637
167	0xbe5a3c96	-0.21312174
168	0xbe840d4a	-0.2579139
169	0xbe0322b8	-0.12806213
170	0xbd69f1b9	-0.05711529
171	0x3e1db811	0.15402247
172	0xbe44ce0b	-0.19219224
173	0x3de98eda	0.114042
174	0x3dc41e05	0.09576038
175	0x3d8a1bcc	0.06743583
176	0xbdc6dff8	-0.097106874
177	0xbe9a8203	-0.30177316
178	0x3e8986ec	0.2686075
179	0x3e8912da	0.26772195
180	0xbdfb7ea4	-0.12280014
181	0x3e1e53d5	0.15461667
182	0x3eabed42	0.3357945
183	0xbc8fefe6	-0.017570447
184	0x3ebd3090	0.36951113
185	0x3e0e04f6	0.1386908
186	0xbeaccc9d	-0.33749858
187	0x3d13cd02	0.036084183
188	0x3cd48bf1	0.025945636
189	0xbe42aaa5	-0.19010408
190	0xbe23998e	-0.15976545
191	0x3daf8dd6	0.08571975
192	0x3d0bbbc8	0.03411463
193	0x3d817931	0.063219436
194	0x3e59d330	0.21271968
195	0xbd95e4d2	-0.07319035
196	0x3e7581f6	0.23975357
197	0x3d921e47	0.07134681
198	0x3d2721de	0.040803783
199	0xbe33b8f2	-0.1755102
200	0x3e3e8651	0.18605925
201	0x3f14fa59	0.581945
202	0xbe821fdb	-0.2541493
203	0xbe686816	-0.22695956
204	0x3bfd3534	0.0077272896
205	0x3e2f4f24	0.17120034
206	0x3e8f361f	0.2797098
207	0x3dbf4f9f	0.093413584
208	0x3e12eab8	0.1434735
209	0xbda2e0d9	-0.079530425
210	0x3eb28f57	0.34874985
211	0xbd66ea75	-0.05637594
212	0x3d41af72	0.04728646
213	0xbdbc5968	-0.091967404
214	0xbd7ac189	-0.061219726
215	0xbdde9e85	-0.10870079
216	0x3e465eb9	0.19372071
217	0x3d0c986c	0.03432505
218	0x3db5bce9	0.088739224
219	0x3ef6015a	0.48047906
220	0x3e43c913	0.19119672
221	0x3c040abd	0.008059201
222	0xbd96297e	-0.07332133
223	0xbe9cd621	-0.30632117
224	0x3eb3c7ea	0.3511346
225	0x3e174e68	0.14776003
226	0xbda62706	-0.08112912
227	0x3d2967ee	0.04135888
228	0xbcec2fb2	-0.028831337
229	0x3eafe4fd	0.34354392
230	0xbdba0c63	-0.09084394
231	0xbea818e1	-0.3283148
232	0xbded589e	-0.11589168
233	0xbdf3c66f	-0.119030826
234	0xbed25cd5	-0.4108645
235	0x3d871a97	0.065968685
236	0x3e3829b0	0.17984653
237	0x3c38056b	0.0112317605
238	0x3cdb3179	0.026756989
239	0x3e09c0e2	0.13452485
240	0xbc8da2b5	-0.017289499
241	0xbd9e5086	-0.077302024
242	0xbcf8c42c	-0.03036698
243	0xbde8cb57	-0.11366909
244	0xbdf64c63	-0.12026288
245	0xbe09d9d9	-0.13462009
246	0x3eb0217e	0.34400553
247	0x3b3fb903	0.0029254563
248	0xbd0a8680	-0.033819675
249	0x3e940bec	0.28915346
250	0x3cca2553	0.024676
251	0xbd161efd	-0.036650646
252	0x3ca65247	0.020302905
253	0xbe3eddec	-0.18639344
254	0xbd5655c5	-0.05232789
255	0x3cc43a1b	0.023953488

network_body._body_endoder.seq_layers.2.bias f4 [64]
0	0x3e4c02e4	0.19922978
1	0x3e57e459	0.21083201
2	0xbe2c59ef	-0.16831182
3	0xbe30d81e	-0.17269942
4	0xbdd3ec20	-0.10347772
5	0x3e4214b0	0.18953204
6	0xbdf832dd	-0.121190764
7	0x3e7b7a11	0.24558283
8	0xbdd7cc9a	-0.105370715
9	0xbd83dc69	-0.06438524
10	0xbe64857d	-0.22316547
11	0x3e8b4603	0.27201852
12	0x3e419352	0.18903854
13	0xbd946c33	-0.072472
14	0xbe86a2b9	-0.26296023
15	0xbe569fe1	-0.20959426
16	0x3e9941c0	0.29932976
17	0xbe73935d	-0.23786683
18	0x3e0e9f2d	0.13927908
19	0xbe4b4183	-0.1984921
20	0x3ddc5f0e	0.10760318
21	0xbe5f5c27	-0.21812497
22	0xbe7c2178	-0.24622142
23	0xbe82cfd4	-0.25549185
24	0x3e96a246	0.2942068
25	0x3e505be6	0.20347556
26	0x3e1ee023	0.15515189
27	0xbe3b8416	-0.18312106
28	0x3e5d87d4	0.21633846
29	0x3e7ea039	0.24865808
30	0x3e81e569	0.2537034
31	0xbbdbf29b	-0.0067122704
32	0x3eff8cb6	0.4991204
33	0x3da52a25	0.08064679
34	0xbe6a6069	-0.2288834
35	0xbe607011	-0.2191775
36	0xbe55a2ef	-0.20862935
37	0x3e3a1ad3	0.18174295
38	0x3e6bc503	0.23024373
39	0x3e88244d	0.26590195
40	0xbe572bba	-0.21012774
41	0xbdfaa345	-0.122381724
42	0x3e80389b	0.25043187
43	0xbe94db2d	-0.29073468
44	0x3e48d045	0.19610699
45	0x3e574b5e	0.21024844
46	0xbdebf0ca	-0.11520536
47	0xbd50fe6d	-0.05102389
48	0x3e00a0fd	0.12561412
49	0xbe60b5eb	-0.21944396
50	0xbe3f782c	-0.18698186
51	0xbe0af0bf	-0.135684
52	0xbbdb2572	-0.0066878134
53	0x3cfaf4a2	0.030634228
54	0x3ed64e27	0.418565
55	0x3ee4f5a0	0.44718647
56	0x3e58b7b1	0.21163823
57	0xbe85678a	-0.26055557
58	0xbdf6d79b	-0.12052842
59	0x3e96217d	0.29322425
60	0x3d9164a8	0.07099277
61	0x3dfbdb77	0.12297719
62	0x3e1b8940	0.15189075
63	0x3edbaf9f	0.42907426

action_model._discrete_distribution.branches.0.weight f4 [6, 64]
0	0xbd101aad	-0.03518169
1	0xbd960fae	-0.073272094
2	0x3d7a1c8f	0.06106239
3	0x3e12ba07	0.14328776
4	0x3d42c7e4	0.04755391
5	0xbd88d40e	-0.06681071
6	0x3c58415f	0.013199179
7	0xbb198e77	-0.0023430863
8	0x3e361e39	0.17784967
9	0x3df4b871	0.11949242
10	0x3e105de2	0.14098313
11	0xbc1bd7e5	-0.0095119225
12	0xbd90ad50	-0.07064307
13	0x3e475932	0.19467619
14	0x3cd2be91	0.025725635
15	0xbceb55a5	-0.028727362
16	0xbc2b646a	-0.010460952
17	0x3e27b652	0.16378143
18	0xbc66f558	-0.01409658
19	0x3cbacd20	0.02280289
20	0x3c87ecf2	0.016592477
21	0x3db0591b	0.086107455
22	0x3e32c56d	0.17458124
23	0x3e43d838	0.1912545
24	0xbd0b2ec3	-0.033980142
25	0xbd8f2ba4	-0.06990746
26	0x3cd8d134	0.026466943
27	0x3db237f8	0.087020814
28	0xbd792ad8	-0.060831875
29	0xbcf0bdd1	-0.029387387
30	0xbce9815f	-0.028504072
31	0xbd2597d8	-0.040428013
32	0xbe5807dc	-0.21096748
33	0x3ba1b5fa	0.0049350234
34	0x3e3e6d3f	0.18596362
35	0x3d664d00	0.056225777
36	0x3e2429b0	0.16031528
37	0x3da0384a	0.07823236
38	0x3d2d7e88	0.042356998
39	0xbd895a15	-0.06706635
40	0xbd45ef22	-0.048323758
41	0x3df96139	0.12176747
42	0xbad828f0	-0.0016491693
43	0x3e1f1b0f	0.15537666
44	0xbd9c2cc5	-0.076257266
45	0x3c5c18fe	0.013433693
46	0x3aaa6e71	0.0013002885
47	0x3e48db8b	0.19614999
48	0x3c30ee69	0.010799029
49	0xbd1c9204	-0.03822519
50	0x3e0e2315	0.1388057
51	0x3d4df4a7	0.050282147
52	0x3ddaa28d	0.10675535
53	0x3d6b2391	0.057406966
54	0xbe111121	-0.1416669
55	0xbd1e5345	-0.03865363
56	0xbd97dcd8	-0.074151695
57	0x3e22d6ea	0.15902296
58	0xbd63657a	-0.055516697
59	0x3ac7319e	0.0015197282
60	0xbca34100	-0.019928455
61	0xbd814dd4	-0.06313673
62	0x3d10e702	0.035376556
63	0xbcb9fe1e	-0.02270418
64	0xbd40785c	-0.046989784
65	0x3d04f3f0	0.0324592
66	0x3cca5419	0.024698304
67	0x3db7fe5d	0.08984063
68	0xbe14317f	-0.14472006
69	0xbd142295	-0.036165792
70	0xbddda6ba	-0.10822816
71	0x3c696e6a	0.014247516
72	0xbe93d330	-0.2887206
73	0xbe9c8200	-0.30567932
74	0x3c9b8e2e	0.018988695
75	0xbc16e98f	-0.009210958
76	0x3a1f108e	0.00060678355
77	0xbe88deaa	-0.2673238
78	0xbd781fe2	-0.06057728
79	0xbd85ad54	-0.065272
80	0xbd137a20	-0.03600514
81	0x3af7f2ab	0.0018916925
82	0xbcacf7c4	-0.021114238
83	0xbd7b7349	-0.06138924
84	0xbc99c1eb	-0.018769225
85	0xbdb97089	-0.090546675
86	0xbd8b6209	-0.06805808
87	0x3b355f78	0.0027675312
88	0x3d368add	0.044566024
89	0xbc3a8cd5	-0.011386116
90	0x3d1f31ca	0.038865842
91	0xbda7fcb9	-0.082025
92	0x3c60aeb4	0.0137135275
93	0xbbcb6923	-0.0062076016
94	0x3d677659	0.05650935
95	0x3e00331b	0.12519495
96	0xbdf107f8	-0.11769098
97	0xbd192242	-0.037386186
98	0x3b403f11	0.0029334466
99	0x3d44d65b	0.048055988
100	0xbc1bae2a	-0.009501973
101	0xbcb27d86	-0.02178837
102	0xbd7b32cc	-0.06132774
103	0x3bceee9e	0.0063150665
104	0x3d8c0956	0.06837718
105	0x3d85b066	0.06527786
106	0x3a240e69	0.0006258251
107	0x3cb49221	0.022042336
108	0xbc866ec6	-0.016410243
109	0xbc704c81	-0.014666677
110	0xbdc3aa22	-0.09553935
111	0xbe8bc055	-0.27295175
112	0xbd39fd83	-0.045407783
113	0xbdecb4dd	-0.115579344
114	0x3d0eae36	0.03483411
115	0xbd9fc5ab	-0.07801374
116	0xbe418710	-0.18899179
117	0xbdc635b8	-0.09678215
118	0x3d23a5dc	0.039953098
119	0x3cc0774b	0.023494383
120	0x3d0cd498	0.034382433
121	0x3cb6bf6b	0.022308072
122	0xbc1c24a0	-0.009530216
123	0x3ccf3c2f	0.025297252
124	0xbd50d705	-0.05098631
125	0xbc8f1dbe	-0.017470237
126	0xbd0cfc41	-0.034420256
127	0x3d8358b6	0.06413405
128	0x3e135c5d	0.14390703
129	0x3c9c785e	0.019100364
130	0x3d0b30df	0.033982154
131	0xbe0367ff	-0.1283264
132	0xbd2d097e	-0.04224538
133	0x3dd4e97f	0.10396098
134	0xbab2f30d	-0.0013652757
135	0xbd4329cd	-0.047647286
136	0x3cbab2dd	0.022790367
137	0x3d132065	0.035919566
138	0xbec12ea7	-0.37730905
139	0xbb8d2458	-0.004307311
140	0x3d5e24dd	0.054234374
141	0x3d971398	0.07376784
142	0xbe148ef5	-0.14507659
143	0xbd9a67d5	-0.07539336
144	0x3e82e6f4	0.25566828
145	0xbd5a8f46	-0.053359292
146	0xbd806bd3	-0.06270566
147	0xbc577ee3	-0.013152811
148	0x3d244119	0.040101144
149	0xbcbed484	-0.023294695
150	0xbb907996	-0.0044090254
151	0xbe1c2fbf	-0.15252589
152	0xbdc6c25f	-0.09705042
153	0x3c807989	0.015682952
154	0xbdcce683	-0.10004904
155	0xbe14cc63	-0.14531092
156	0xbd7d41b0	-0.061830223
157	0x3e26ba6f	0.16282056
158	0x3be7a330	0.007069014
159	0xbe7e6602	-0.248436
160	0x3ed5c608	0.41752648
161	0x3dfbf5d2	0.12302746
162	0x39c9d324	0.0003849502
163	0xbdc298c2	-0.095017925
164	0x3b881aef	0.0041536014
165	0x3d8f0ab6	0.06984465
166	0x3e99d283	0.3004342
167	0x3e0c8378	0.13722026
168	0xbe4cccf6	-0.20000061
169	0xbdcbd0bc	-0.09951922
170	0x3d902aed	0.070394374
171	0xbe1395c5	-0.14412601
172	0x3e2e64d5	0.17030652
173	0x3d973429	0.07382996
174	0x3db9d3f7	0.09073632
175	0x3d9213b7	0.071326666
176	0x3deb0a95	0.11476628
177	0xbc62a493	-0.013833183
178	0x3d680db4	0.056653693
179	0xbe382f8a	-0.17986885
180	0xbc9919ab	-0.018688997
181	0xbcce46e6	-0.025180291
182	0x3eacdadc	0.33760726
183	0x3eb9dbbb	0.36300454
184	0x3e112c09	0.14176954
185	0xbe7ae79c	-0.24502414
186	0xbd901402	-0.07035066
187	0xbd5d22a1	-0.053988103
188	0x3e024441	0.1272135
189	0x3e62e923	0.22159247
190	0x3e3389e8	0.17533076
191	0x3ddc275c	0.10749695
192	0xbdcd0879	-0.10011382
193	0xbdf459da	-0.119312
194	0xbe2f9343	-0.1714602
195	0xbe6e83ae	-0.2329242
196	0xbd616e6e	-0.055036955
197	0xbda7adac	-0.08187422
198	0xbe09b434	-0.13447648
199	0xbdbf2895	-0.09333912
200	0x3de564fa	0.112009004
201	0x3e5f4aea	0.21805921
202	0xbdc9c505	-0.098520316
203	0xbdefccf3	-0.11709013
204	0xbd990263	-0.07471158
205	0x3e1ff998	0.15622556
206	0xbd0882ba	-0.033327796
207	0xbd90131a	-0.07034893
208	0xbb6d1c9b	-0.003618038
209	0xbd6b83e8	-0.057498842
210	0xbde8761c	-0.113506526
211	0xbc470546	-0.012147253
212	0xbdb8c167	-0.090212636
213	0x3e8c938d	0.27456322
214	0x3d7477a7	0.059684422
215	0xbbbdf864	-0.0057974327
216	0xbd69a10a	-0.057038344
217	0xbd0f1980	-0.034936428
218	0xbe0500ec	-0.12988633
219	0xbc1db8df	-0.009626596
220	0xbd01c4a4	-0.03168167
221	0xbc4d9e78	-0.012549989
222	0xbd248b13	-0.040171694
223	0x3bca079f	0.0061654593
224	0xbe58faa4	-0.21189362
225	0xbd5886ec	-0.052863047
226	0x3ce6f500	0.028192997
227	0x3d612394	0.05496557
228	0xbc6329b2	-0.013864921
229	0xbdf592e4	-0.11990908
230	0x3cd313e0	0.025766313
231	0xbe12d271	-0.1433809
232	0xbcf82537	-0.030291183
233	0x3d8bbdd7	0.068233185
234	0xbd711e1b	-0.0588666
235	0x3cba0952	0.022709522
236	0xbd4ec4b6	-0.050480567
237	0xbe0aeea9	-0.13567604
238	0x3df2797a	0.11839576
239	0x3d76e3d7	0.06027588
240	0xbd6b060c	-0.057378814
241	0x3c9b2f18	0.018943354
242	0x3da47d80	0.0803175
243	0xbca1e7b8	-0.019763812
244	0xbd6bde4e	-0.057585053
245	0xbd26737d	-0.040637482
246	0xbe58faa2	-0.21189359
247	0xbda8b0e4	-0.08236864
248	0x390b049a	0.00013257787
249	0xbcb6bcb3	-0.022306776
250	0x3da46e9d	0.0802891
251	0xbe55ecac	-0.20891064
252	0x3c6b33c7	0.014355606
253	0xbe4ec6c2	-0.20193008
254	0xbc7be826	-0.015375173
255	0xbe0eb466	-0.13936004

action_model._discrete_distribution.branches.0.bias f4 [6]
0	0xbe16b472	-0.14717272
1	0xbcfda76a	-0.030963618
2	0x3e865cc8	0.2624266
3	0x3cba8af1	0.02277133
4	0xbc95c866	-0.018284034
5	0xbe06f707	-0.13180171

onnx::Div_164 f4 [3]
0	0x3e99251d	0.29911128
1	0x3e54c6c1	0.20778944
2	0x3fc21e65	1.5165526
