results/3-23_poca1/simple_deer/simple_deer-699949.onnx (onnx, 914321 bytes, 24 tensors)

network_body.observation_encoder.processors.0.self_ent_encoder.seq_layers.0.bias f4 [128]
000000 c1 c5 1b 3c 7c 5c 25 bc 89 9f bd 3c 0d 02 2f 3b
       0.009507597 -0.010092851 0.023147361 0.0026704103
000010 0e 53 e3 3b 41 3c d7 bc 03 fe 80 bc da 43 ff 3b
       0.006937391 -0.026273848 -0.015746122 0.007790071
000020 8c 3a 5d 3c b3 5f d6 bb 7c f4 31 3b fd b5 99 bb
       0.013502728 -0.00654217 0.002715378 -0.004690884
000030 ee c3 a4 bb 85 11 31 bc 64 3f 25 3c ca c6 a2 3c
       -0.0050282395 -0.0108074 0.010085914 0.01987018
000040 01 d5 55 bc 58 18 8c 3c c7 40 27 3c 34 7f ab 3c
       -0.013051272 0.017101452 0.010208315 0.020934679
000050 39 ef bc 3b 6b e4 8a bb 69 63 14 bb 97 88 d2 ba
       0.0057658223 -0.0042386553 -0.002264226 -0.0016062435
000060 18 b5 ae 3a 21 91 68 bc 02 d9 d9 bb 3b c2 e8 3b
       0.0013329117 -0.014194758 -0.006648184 0.007103232
000070 a4 a0 86 bb 39 14 a2 bb 1c 77 3b 3a 84 c5 a7 bb
       -0.0041085053 -0.0049462584 0.00071512326 -0.0051199812
000080 85 69 35 3c 95 34 8e 3c 5f 77 00 bb 18 05 4e bc
       0.011072521 0.017359057 -0.00196024 -0.012574457
000090 3e 2f 3c bc 37 62 df bb 4f 79 02 3c 99 ce 56 3c
       -0.011485873 -0.006817128 0.007963493 0.01311078
0000a0 fa 91 00 3c 17 ef 49 3b 0d 58 24 bb d8 8d ae bb
       0.0078473035 0.0030812675 -0.0025076896 -0.0053269677
0000b0 bf 4d 84 bc 16 55 27 bc fb 58 a6 bc 67 1d c7 b9
       -0.016150353 -0.010213157 -0.020306101 -0.00037978144
0000c0 cb c8 90 ba b5 e6 39 ba f6 f7 95 3c 36 a7 cc 3c
       -0.0011046169 -0.0007091568 0.018306714 0.024982076
0000d0 b3 95 55 bb b8 45 29 bc d6 7d 4b 3c 6d 73 93 3b
       -0.0032590448 -0.010331564 0.012420138 0.004499844
0000e0 58 99 89 3c 16 d8 39 3c 07 99 ea ba 4b b5 77 bc
       0.016796753 0.011343023 -0.0017898389 -0.015118907
0000f0 9b 8b 71 3c 0a 59 9a bb 5b bd a4 3c b0 28 73 bb
       0.014742757 -0.0047103213 0.020109823 -0.003710311
000100 e0 17 0f 3c 6b 40 b4 3c 67 09 ec bb 70 96 5d 3b
       0.00873372 0.022003373 -0.0072032693 0.0033811592
000110 09 64 42 bc 2d 74 4f ba 92 5a 24 3c 71 b9 80 3c
       -0.011864671 -0.0007913735 0.010031359 0.015713425
000120 c8 22 d9 3b 0f 6c 6f 3c 1e b8 17 3a 0a 81 6c bc
       0.0066264607 0.0146131655 0.00057876285 -0.014435062
000130 c3 e0 83 bc 59 aa b4 3c 6a de d8 bb 0a a8 d1 3c
       -0.016098386 0.022053884 -0.0066183107 0.025592823
000140 aa ea 12 bc b9 28 b3 3b d4 58 97 bc 7f b4 86 bc
       -0.008967081 0.005467501 -0.018474974 -0.01644349
000150 4e 52 d5 bb 8f 0d 8c 3c 46 0e 31 3b c5 00 96 3c
       -0.0065100556 0.017096309 0.0027016564 0.018310914
000160 eb fb 1d bc 16 d6 7f bc ae de 91 3a b5 08 a1 3c
       -0.009642581 -0.015615007 0.0011128986 0.019657472
000170 ff 7e ff 3b 55 c1 da b8 e2 be cb bb 0c 60 3c 3c
       0.0077971215 -0.00010431061 -0.0062178234 0.011497509
000180 9a db 95 3a 56 69 71 bc a9 af 2f 3b 70 4b 91 3b
       0.0011433244 -0.014734587 0.0026807582 0.0044340417
000190 3e f7 07 3c c5 58 74 bc 9e 6f 8a bc 14 27 ce 3c
       0.008298693 -0.014913742 -0.016898926 0.025165118
0001a0 5b 56 bc 3b bb 41 33 3b c8 12 0e 3c 33 21 42 3b
       0.005747599 0.002735241 0.00867147 0.002962184
0001b0 38 0f f6 3a 7b 5c cd 3b c3 3c 98 3c 0d 0f 84 bc
       0.0018772846 0.006267128 0.018583661 -0.016120458
0001c0 9e 28 96 3b af bd e3 bb 49 24 bc bc 28 3d b4 3b
       0.0045824787 -0.0069501023 -0.02296652 0.0055004545
0001d0 17 fa 85 3c 81 7d 70 bb 9b cd 6c 3c c1 6e 81 bc
       0.016354604 -0.00366959 0.014453317 -0.015799882
0001e0 b1 0b 85 bc c1 ad 03 bc 68 53 c0 3c d5 87 51 3c
       -0.016240926 -0.008037032 0.023477271 0.012788733
0001f0 ee d0 0b 3b 2c f7 d2 3c 29 92 91 bc ae 8a 67 3c
       0.0021334249 0.025752626 -0.01776989 0.014132185

network_body.observation_encoder.processors.1.self_ent_encoder.seq_layers.0.bias f4 [128]
000000 00 00 00 00 00 00 00 00 00 00 00 00 00 00 00 00
       0.0 0.0 0.0 0.0
000010 00 00 00 00 00 00 00 00 00 00 00 00 00 00 00 00
       0.0 0.0 0.0 0.0
000020 00 00 00 00 00 00 00 00 00 00 00 00 00 00 00 00
       0.0 0.0 0.0 0.0
000030 00 00 00 00 00 00 00 00 00 00 00 00 00 00 00 00
       0.0 0.0 0.0 0.0
000040 00 00 00 00 00 00 00 00 00 00 00 00 00 00 00 00
       0.0 0.0 0.0 0.0
000050 00 00 00 00 00 00 00 00 00 00 00 00 00 00 00 00
       0.0 0.0 0.0 0.0
000060 00 00 00 00 00 00 00 00 00 00 00 00 00 00 00 00
       0.0 0.0 0.0 0.0
000070 00 00 00 00 00 00 00 00 00 00 00 00 00 00 00 00
       0.0 0.0 0.0 0.0
000080 00 00 00 00 00 00 00 00 00 00 00 00 00 00 00 00
       0.0 0.0 0.0 0.0
000090 00 00 00 00 00 00 00 00 00 00 00 00 00 00 00 00
       0.0 0.0 0.0 0.0
0000a0 00 00 00 00 00 00 00 00 00 00 00 00 00 00 00 00
       0.0 0.0 0.0 0.0
0000b0 00 00 00 00 00 00 00 00 00 00 00 00 00 00 00 00
       0.0 0.0 0.0 0.0
0000c0 00 00 00 00 00 00 00 00 00 00 00 00 00 00 00 00
       0.0 0.0 0.0 0.0
0000d0 00 00 00 00 00 00 00 00 00 00 00 00 00 00 00 00
       0.0 0.0 0.0 0.0
0000e0 00 00 00 00 00 00 00 00 00 00 00 00 00 00 00 00
       0.0 0.0 0.0 0.0
0000f0 00 00 00 00 00 00 00 00 00 00 00 00 00 00 00 00
       0.0 0.0 0.0 0.0
000100 00 00 00 00 00 00 00 00 00 00 00 00 00 00 00 00
       0.0 0.0 0.0 0.0
000110 00 00 00 00 00 00 00 00 00 00 00 00 00 00 00 00
       0.0 0.0 0.0 0.0
000120 00 00 00 00 00 00 00 00 00 00 00 00 00 00 00 00
       0.0 0.0 0.0 0.0
000130 00 00 00 00 00 00 00 00 00 00 00 00 00 00 00 00
       0.0 0.0 0.0 0.0
000140 00 00 00 00 00 00 00 00 00 00 00 00 00 00 00 00
       0.0 0.0 0.0 0.0
000150 00 00 00 00 00 00 00 00 00 00 00 00 00 00 00 00
       0.0 0.0 0.0 0.0
000160 00 00 00 00 00 00 00 00 00 00 00 00 00 00 00 00
       0.0 0.0 0.0 0.0
000170 00 00 00 00 00 00 00 00 00 00 00 00 00 00 00 00
       0.0 0.0 0.0 0.0
000180 00 00 00 00 00 00 00 00 00 00 00 00 00 00 00 00
       0.0 0.0 0.0 0.0
000190 00 00 00 00 00 00 00 00 00 00 00 00 00 00 00 00
       0.0 0.0 0.0 0.0
0001a0 00 00 00 00 00 00 00 00 00 00 00 00 00 00 00 00
       0.0 0.0 0.0 0.0
0001b0 00 00 00 00 00 00 00 00 00 00 00 00 00 00 00 00
       0.0 0.0 0.0 0.0
0001c0 00 00 00 00 00 00 00 00 00 00 00 00 00 00 00 00
       0.0 0.0 0.0 0.0
0001d0 00 00 00 00 00 00 00 00 00 00 00 00 00 00 00 00
       0.0 0.0 0.0 0.0
0001e0 00 00 00 00 00 00 00 00 00 00 00 00 00 00 00 00
       0.0 0.0 0.0 0.0
0001f0 00 00 00 00 00 00 00 00 00 00 00 00 00 00 00 00
       0.0 0.0 0.0 0.0

network_body.observation_encoder.processors.2.self_ent_encoder.seq_layers.0.bias f4 [128]
000000 89 cb d5 bc 24 56 d9 bc 46 43 7c bc a9 92 58 3c
       -0.02609803 -0.026530333 -0.015396899 0.01321856
000010 9b b5 c2 bc a9 56 05 3d a4 f9 b4 3b 83 50 04 bd
       -0.023768237 0.03255335 0.0055229235 -0.032303344
000020 6d 8a 14 bd b1 da 42 3c 65 0a ec 3b 16 2c af 3c
       -0.036264826 0.01189296 0.0072033876 0.021383327
000030 93 18 ac 3c 5b d3 73 3c 15 ad c2 bc 2a b9 ce 3c
       0.021007812 0.014881934 -0.023764173 0.025234777
000040 54 55 8d bc 24 f7 13 bd aa ba 61 3c 74 a4 d5 3c
       -0.017252602 -0.036124364 0.013777414 0.026079394
000050 c2 33 1b 3d c8 18 ee bc b9 93 dc bc 4d aa 9a 3c
       0.037891157 -0.029064551 -0.026925908 0.018880034
000060 0e 8a fc 3c 02 35 8b 3b 06 d9 95 3c 19 51 ff 3c
       0.030827548 0.0042482624 0.018291961 0.0311666
000070 8f c1 9b 3c f5 71 d4 3c 0f 57 00 bd e1 05 86 bb
       0.019013194 0.025933245 -0.031333026 -0.0040900563
000080 0c 1a 9a 3c a5 5f 92 3c 21 7a e6 3c 8f 35 85 3c
       0.018811248 0.017867872 0.028134407 0.01626089
000090 d6 1c a3 bc 44 0c 85 3c ec b8 f0 bc 2e 21 a5 3c
       -0.019911211 0.0162412 -0.029385053 0.020157423
0000a0 00 7e fa bc 0d 74 ee bc 34 fc cf bc 81 89 c5 3c
       -0.03057766 -0.029108072 -0.025388815 0.024113419
0000b0 d2 4c 94 3b ae 5a d1 3c de 93 cf 3c ed 28 d5 bc
       0.0045257593 0.025555935 0.025339063 -0.026020491
0000c0 bb 5d d4 3c e5 61 ab 3c 9e 76 cb 3c f1 a7 15 3d
       0.0259236 0.020920703 0.024836835 0.036537115
0000d0 3d 41 a1 bc a2 5d 04 3d 24 d8 f5 3b 5f 11 98 bc
       -0.019684428 0.032315858 0.0075025726 -0.01856297
0000e0 32 94 e7 3c ad 63 cb 3c 55 ab 24 3d 77 9b 10 3c
       0.028268907 0.024827803 0.040202457 0.008826128
0000f0 e5 fc 04 bd 18 fc 84 3c 3d a0 74 3c 2f f9 d3 3c
       -0.03246774 0.016233489 0.014930782 0.025875656
000100 12 ad cf bc 7f 15 b8 3c 64 84 b9 3c 45 53 b3 3c
       -0.025351081 0.022471188 0.022646137 0.021890292
000110 a8 86 db 3c ef 45 a2 bc 4d a1 19 bd a9 65 49 3c
       0.026797608 -0.019808738 -0.037507344 0.012292304
000120 fa 8e cf 3c 77 77 38 3c 0f c1 84 ba ce ad 42 3c
       0.025336731 0.011258951 -0.0010128337 0.011882259
000130 8c da 0d 3d 73 3f bf 3c 59 fa eb 3c 35 cc be 3c
       0.03463225 0.023345685 0.028805899 0.023290733
000140 3b f8 db 3c 95 31 12 bc 6f 9c 28 bb 16 7a d4 3c
       0.026851764 -0.008922954 -0.0025728007 0.025937121
000150 78 39 d2 3c 86 5c d0 3c 31 ee 85 bc 3a 86 00 3d
       0.025662169 0.025434744 -0.01634893 0.03137801
000160 dc bf 1b 3d 3e a2 95 3c 80 07 86 3c 53 31 03 bd
       0.03802477 0.01826584 0.016360998 -0.03202946
000170 d1 e2 c0 bc 6e c8 5a bc 9c 2b e2 3c 17 0c f1 3c
       -0.023545654 -0.01335345 0.027608685 0.02942471
000180 f7 48 44 3c e9 ea 80 3c b1 70 64 3d 3d c4 18 3c
       0.011980287 0.015737014 0.055771533 0.009324131
000190 3f 55 80 3c 5d 27 11 3d cc 1c e2 3c f4 d4 61 3c
       0.015665649 0.03543793 0.027601622 0.013783682
0001a0 95 d5 a4 3c d9 22 d2 bc a8 14 d8 3c e9 a5 71 3b
       0.020121375 -0.025651382 0.026377037 0.0036872572
0001b0 c1 5d 73 bc 74 5e 0a bd 0c 74 93 3c 09 db ea bb
       -0.014853896 -0.033781484 0.017999671 -0.0071672243
0001c0 f6 cc 7a 3c 76 c4 16 3c 94 ae 38 3d a5 13 83 bc
       0.015307656 0.009202113 0.045088366 -0.016000578
0001d0 18 fd 2f bc 2f 74 e6 3c 0e ee 0c 3d e1 41 8a bb
       -0.010741495 0.028131573 0.034406714 -0.004219279
0001e0 e5 fe 1b 3b 64 47 9a 3c ab d6 4f 3c 9f 7c b7 3c
       0.0023803052 0.01883287 0.012685458 0.022398291
0001f0 97 ae 05 bd 91 8f 0e bd 09 10 1a bc 73 de 46 3c
       -0.032637205 -0.034804884 -0.009403237 0.012137997

network_body.observation_encoder.processors.3.normalizer.running_mean f4 [4]
000000 2f d5 1a 3f 08 de 3f 3f 08 ff ff 3e eb 72 34 40
       0.6048154 0.7494817 0.4999926 2.819514

network_body.observation_encoder.rsa.fc_q.bias f4 [128]
000000 94 57 ed bb da 10 4a bc 03 37 41 bc 60 c3 57 bc
       -0.007243106 -0.012333119 -0.011792901 -0.01316914
000010 e0 30 55 3c 5d 82 b0 bb 25 fb 2f 3b e1 28 5d bc
       0.013012141 -0.0053866343 0.0026852575 -0.013498516
000020 be 18 87 3c f2 54 1c 3c f5 b4 15 3c 9c 0d 42 bc
       0.01649129 0.009541737 0.009137382 -0.011844065
000030 a4 a1 7e 3a bc b2 6c 3c ff cf 93 bb 68 29 11 bb
       0.00097134174 0.0144469105 -0.004510879 -0.0022149924
000040 46 30 6e bc 05 b2 05 bc fc 34 6a 3c 83 82 40 3a
       -0.0145378765 -0.008160119 0.014294859 0.00073436665
000050 7c 83 82 3c c7 a4 4c 3c c2 09 81 3c 20 46 66 bc
       0.015931837 0.012490458 0.015751723 -0.014054805
000060 15 56 4f bc 75 ef 44 bc 72 b3 3f 3c 18 8c 36 bc
       -0.012654801 -0.012019982 0.011700498 -0.011141799
000070 f8 dd 7c 3c 7f 61 96 bb 9a 44 5c 3c 1e c6 83 bc
       0.015433781 -0.004589259 0.01344409 -0.01608568
000080 f2 f7 b4 bc b2 aa 52 bc c4 08 62 bc 2c d2 60 bc
       -0.022090886 -0.01285808 -0.013796035 -0.013721984
000090 57 b8 86 3a b7 3d 77 bc 88 d5 89 bc 23 c4 4e 3c
       0.0010278326 -0.015090398 -0.016825452 0.012620005
0000a0 71 53 82 bc f4 d4 87 bc 62 75 34 bc f0 9f a9 bc
       -0.015908929 -0.016581036 -0.011014314 -0.020706147
0000b0 fb ff 45 bc 45 11 06 bc f1 ca 88 3c 06 5f d1 3a
       -0.012084956 -0.008182828 0.016698333 0.0015973754
0000c0 63 fe c7 3b 70 03 77 3c 0f 6d 6d bc 4d 54 6a bc
       0.0061033233 0.015076503 -0.014491334 -0.014302325
0000d0 7f 79 70 3c 75 c7 83 3c 1d 39 69 bc 03 07 91 3c
       0.014677404 0.01608632 -0.014234808 0.017703539
0000e0 4b 02 8a 3c f9 3a 77 3c 35 d0 59 bc 98 53 82 bc
       0.016846796 0.015089744 -0.013294269 -0.015909001
0000f0 fc b6 9b bc 0a c5 99 3c d5 51 5d bc c9 1b 71 3c
       -0.019008152 0.018770713 -0.01350828 0.014716097
000100 47 ec a8 bc 9a 5d aa 3c 59 25 ad bc fe 78 b2 bc
       -0.020620478 0.020796586 -0.021135973 -0.02178621
000110 02 4e ae 3c d8 04 b7 bc 59 ba aa 3c 95 da af bc
       0.021277431 -0.022341177 0.02084081 -0.021466533
000120 f2 44 2b bb 45 1d a5 3c 73 08 66 bc ea 58 86 bc
       -0.0026133624 0.020155558 -0.0140401 -0.01639982
000130 89 f6 aa 3c c6 76 85 bc 23 9d a5 3c 95 e4 a3 3c
       0.02086951 -0.016291987 0.02021653 0.020006457
000140 a3 c0 a5 bc fe 5d ad 3c 95 ac a7 bc 15 31 ae bc
       -0.020233458 0.021162983 -0.020468036 -0.021263639
000150 85 d1 a0 3c 03 19 aa bc 32 44 b0 3c fe 35 1a bc
       0.019631157 -0.02076388 0.021516893 -0.009412287
000160 61 1d a9 3c cd 1a a9 3c 70 8e 85 3c 48 6e 78 3c
       0.020643892 0.020642662 0.016303271 0.015163012
000170 49 61 a8 3c d1 d6 ab 3c 51 31 af 3c de 4a a2 bc
       0.020554202 0.020976456 0.02138582 -0.01981109
000180 a5 26 28 bc 4b 2c 77 bc 26 af 87 3c 47 5c 89 bc
       -0.01026312 -0.015086244 0.01656301 -0.016767634
000190 66 9e 4a 3c 44 89 91 3c 11 f0 81 bc 4b 18 8e bc
       0.012366867 0.017765649 -0.015861543 -0.017345568
0001a0 39 6f 48 bc 4c b1 56 3c 71 2e 37 3b 5c 07 a1 bc
       -0.012233549 0.013103794 0.0027951265 -0.01965683
0001b0 0f b8 87 3c 7c c5 5b bc 5b 4d 5d bc 0b 49 8b bc
       0.016567258 -0.013413783 -0.0135072125 -0.017002603
0001c0 8b a6 58 3c 19 be 82 bc a1 6b 94 bc 05 a7 3e bc
       0.013223301 -0.015959786 -0.018117728 -0.0116365
0001d0 5f 25 62 bc fa fe a2 bc 53 44 81 bc b2 a6 fb bb
       -0.013802855 -0.019896973 -0.01577965 -0.0076797837
0001e0 52 41 5b 3c 4b dc 1b 3c 4c 5a ea bb f8 b7 aa 3c
       0.013382273 0.009512971 -0.0071518775 0.020839676
0001f0 80 e8 56 3c b3 5a d3 bb 50 64 4c 3c af f0 90 bc
       0.013116956 -0.006450021 0.012475088 -0.017692892

network_body.observation_encoder.rsa.fc_k.bias f4 [128]
000000 ba ce e3 35 ab 35 84 36 1c c6 3b 35 70 74 51 36
       1.6972983e-06 3.9401543e-06 6.9951216e-07 3.1211202e-06
000010 9d 5d 06 b6 20 82 76 35 55 0c 45 b6 1c a0 c8 36
       -2.0022046e-06 9.18315e-07 -2.9362466e-06 5.9791037e-06
000020 03 06 8f b6 0c 91 5b b6 fd 3b 1a b6 43 ef 13 36
       -4.262432e-06 -3.2717971e-06 -2.2982706e-06 2.2043976e-06
000030 f4 cb 08 b6 53 b3 c1 b5 68 e1 7b b5 02 fe 53 32
       -2.0384296e-06 -1.4431811e-06 -9.3832796e-07 1.2339571e-08
000040 b3 8f 5c 35 c9 9a 38 35 f5 b2 f8 b5 60 48 32 35
       8.2165496e-07 6.8770584e-07 -1.8529523e-06 6.6415487e-07
000050 71 ff 56 b5 fe c3 7d b6 7d 62 cb b5 fa 3f 0b 37
       -8.009293e-07 -3.781402e-06 -1.5153342e-06 8.299941e-06
000060 7b 02 83 34 ae 88 d0 36 b7 a8 a2 b6 29 ea 4f 35
       2.4402456e-07 6.2147947e-06 -4.847617e-06 7.7454257e-07
000070 10 2e ce b6 53 8d 71 b6 51 18 2f b6 8d 62 15 37
       -6.144641e-06 -3.599406e-06 -2.6091186e-06 8.904038e-06
000080 59 31 c0 b6 df 71 6b b6 da 9b b2 b6 7f 47 d4 b6
       -5.7277907e-06 -3.508401e-06 -5.322957e-06 -6.3264156e-06
000090 5f 77 a5 35 1e b8 37 b7 63 b8 a1 b6 cb 55 76 36
       1.23282e-06 -1.0950518e-05 -4.8196393e-06 3.6706795e-06
0000a0 97 e3 ff b6 b1 34 47 b6 a1 98 7f b6 e3 79 e9 b6
       -7.626087e-06 -2.9683981e-06 -3.8086803e-06 -6.9581306e-06
0000b0 02 e6 18 b6 ca 2b 07 b6 31 ad 74 36 2a 7b 2a b5
       -2.2783647e-06 -2.0142056e-06 3.6459644e-06 -6.350916e-07
0000c0 a2 ce e3 35 95 fa 5c 36 5f 1f 29 b6 d6 db ea b6
       1.6972956e-06 3.2928413e-06 -2.5201223e-06 -6.9993357e-06
0000d0 66 d2 49 36 87 1d ca 36 0c 74 a2 b6 de a0 c0 36
       3.0073802e-06 6.0235066e-06 -4.841486e-06 5.7407733e-06
0000e0 93 67 f8 35 52 35 27 36 63 c0 e2 b5 ca e3 3a b6
       1.8507584e-06 2.4915976e-06 -1.6894304e-06 -2.784875e-06
0000f0 d4 a0 d9 b6 b4 8b c3 36 33 fb e3 b6 91 ef 98 36
       -6.485827e-06 5.8277164e-06 -6.7943706e-06 4.557842e-06
000100 44 f6 02 b7 e0 1d e9 36 42 63 da b6 b1 6a ea b6
       -7.805942e-06 6.947419e-06 -6.5084614e-06 -6.986164e-06
000110 9a a2 06 37 ca 66 e5 b6 1c 5d b3 36 6d 36 1c b7
       8.024881e-06 -6.836698e-06 5.345455e-06 -9.310997e-06
000120 87 cc b6 35 b4 27 01 37 08 33 dc b6 b9 4a e1 b6
       1.3619582e-06 7.698243e-06 -6.5624517e-06 -6.7142214e-06
000130 0a 48 04 37 5a 32 94 b6 46 d8 10 37 1d 47 dd 36
       7.884586e-06 -4.4166054e-06 8.633424e-06 6.594592e-06
000140 7f fa 24 b7 cb 44 e2 36 8f 8d b2 b6 e8 25 f4 b6
       -9.833485e-06 6.7433334e-06 -5.321293e-06 -7.2761795e-06
000150 ea 23 aa 36 39 af bc b6 05 f2 e9 36 33 4c 81 b6
       5.0705758e-06 -5.623235e-06 6.972116e-06 -3.8533703e-06
000160 58 c9 01 37 2b 86 18 37 57 ab be 36 2f d1 51 36
       7.735878e-06 9.091144e-06 5.682388e-06 3.1265188e-06
000170 03 ad 07 37 83 88 e4 36 4e 10 bb 36 74 89 03 b7
       8.0869095e-06 6.8108216e-06 5.5749324e-06 -7.840212e-06
000180 17 c7 03 35 73 98 f6 33 15 f0 07 36 1e d8 b2 b6
       4.9091017e-07 1.1482998e-07 2.0256314e-06 -5.3299727e-06
000190 b6 91 65 b4 26 70 5e 36 8c 3a 0a b5 4e 0c 82 34
       -2.1380296e-07 3.3145857e-06 -5.1494203e-07 2.422334e-07
0001a0 55 4c 77 b5 8a 33 09 b5 2b 86 c4 b3 28 44 10 36
       -9.212575e-07 -5.1111476e-07 -9.151366e-08 2.1497344e-06
0001b0 ff 3e aa b5 82 1d d2 34 a9 73 93 34 75 c1 62 b5
       -1.2684321e-06 3.9137018e-07 2.7465038e-07 -8.447308e-07
0001c0 bf e7 10 b5 48 29 43 34 d3 2b 70 34 02 bd 20 b5
       -5.3981415e-07 1.8175808e-07 2.2367685e-07 -5.987969e-07
0001d0 56 7b 68 35 57 23 61 35 3f dc 36 b6 59 eb b5 b3
       8.660621e-07 8.387046e-07 -2.7248313e-06 -8.471279e-08
0001e0 f9 88 99 b4 24 12 a9 35 dc 7f 75 35 d8 33 f9 b4
       -2.8598132e-07 1.2596761e-06 9.145567e-07 -4.6417586e-07
0001f0 72 25 c5 34 c2 f8 95 b4 55 7b f3 35 f0 23 ea b5
       3.6721354e-07 -2.7934408e-07 1.8140805e-06 -1.7444818e-06

network_body.observation_encoder.rsa.fc_v.bias f4 [128]
000000 7e b6 91 3b ee a2 69 3a 67 c8 69 3c 15 bb 1e 3c
       0.0044468036 0.0008912523 0.014268971 0.0096881585
000010 4d ca 38 3b 98 19 10 3c ee 20 95 ba e4 27 fe 3b
       0.0028196753 0.0087951645 -0.0011377612 0.00775622
000020 ee 20 7f bc 83 a2 0a 3c 9b ec 10 ba b0 57 d5 bb
       -0.015571816 0.008461597 -0.0005528421 -0.0065106973
000030 cf 55 fb ba a6 7b db b9 23 3f a7 bb f2 52 a3 bb
       -0.0019175353 -0.0004186306 -0.005103962 -0.004984253
000040 eb 5e 93 bb 7e 33 44 3c dc f5 bf bb e6 68 da bb
       -0.004497399 0.011975167 -0.005858166 -0.006665337
000050 42 9c 41 3b b9 05 af 3a 4b 74 69 bb 8d ab b7 ba
       0.00295426 0.0013353146 -0.0035622295 -0.0014012918
000060 7a c4 36 bc e9 08 df 3b 1f a6 bd bb b5 75 11 bc
       -0.011155242 0.006806482 -0.0057876254 -0.008878161
000070 19 6a 9f 3b 77 8e 40 bc f4 5f 8a bb 05 d8 b8 3b
       0.0048649427 -0.011752716 -0.0042228643 0.005640986
000080 ae 87 a5 bb 5e 34 a3 3b 3f 54 2d 3c cf f9 bd 3b
       -0.0050515747 0.004980608 0.010579168 0.005797602
000090 1e 36 29 bb e2 72 16 3c 9b 4b 28 3c 0b b2 66 bc
       -0.002581961 0.009182664 0.010271932 -0.014080535
0000a0 0e c4 6e 3a 70 14 17 3b 50 97 40 3c e8 2b 21 3b
       0.0009108194 0.0023052953 0.011754826 0.002459282
0000b0 4f c1 8a bb 9e 9d 9b bb 5e c0 cd 3a 51 c2 ec bb
       -0.00423447 -0.004749014 0.0015697589 -0.0072253128
0000c0 dc e9 f4 bb 4c e3 36 bc 90 7a 5a bc 99 45 0c bc
       -0.0074741673 -0.01116259 -0.013334885 -0.008561515
0000d0 ab 73 24 3c be c8 19 bb 94 06 23 bc 7b ab e8 bb
       0.010037343 -0.00234656 -0.009950299 -0.00710052
0000e0 81 a5 51 3b e6 34 5d bb 7f 67 0a 3c 20 3a 0f 3c
       0.0031989517 -0.0033753454 0.008447527 0.008741885
0000f0 57 54 d8 bb 86 13 0a 3c e9 0e fa bb 50 5e 17 3b
       -0.006601851 0.008427506 -0.007631172 0.0023096986
000100 86 b6 04 3c 04 1b 8a 3b 5f 47 d3 3b 61 86 1c 3c
       0.008100158 0.0042146463 0.006447717 0.009553523
000110 ef d9 c4 bb dc 07 a0 bb 15 4e 24 3c f6 ce f7 3b
       -0.006007425 -0.0048837494 0.010028382 0.0075625135
000120 06 82 f9 bb ea 91 00 bc 54 cb 0d 3c 56 64 f3 39
       -0.007614377 -0.007847289 0.008654434 0.00046423328
000130 eb 53 33 3b 6c 47 26 3c 06 bc 10 3b 9b 60 8a bb
       0.0027363251 0.010148864 0.0022084727 -0.004222942
000140 b9 4b 4f 3c cd 2a 41 bc 41 75 1d bc 5e 82 ea 3b
       0.012652331 -0.01178999 -0.009610475 0.0071566543
000150 42 e0 42 3c 0e f0 fe 3b a3 c9 f9 bb 41 31 29 bc
       0.011894288 0.0077800816 -0.007622914 -0.010326684
000160 a3 4f dd 3b 8b 45 d5 3b 3d 81 cd 3b 49 15 fa bb
       0.006753878 0.0065085343 0.00627151 -0.007631932
000170 be cd 8d 3b f7 f1 0b 3c 80 5d 86 bc c9 88 55 3c
       0.004327505 0.008541576 -0.016402006 0.0130331
000180 cd 8f d3 bb 36 55 dc 3b f7 27 95 bb 96 3a 43 bc
       -0.0064563514 0.006724025 -0.0045518833 -0.011915823
000190 86 51 8c 3b a5 66 06 3c a1 71 b0 bb 3e 52 11 bc
       0.0042821793 0.008203183 -0.0053846394 -0.008869706
0001a0 3d 1a ea 3b a0 5d 2d 3c e9 78 5e bb 2f 76 43 3c
       0.007144241 0.010581404 -0.003394658 0.011930033
0001b0 b5 b3 ba bb ad af 6d ba 11 f4 74 3b 96 75 1b 3c
       -0.0056976923 -0.000906701 0.003737692 0.009488484
0001c0 16 81 f1 3b ed 5e e7 3b e7 53 38 bc d5 4e 07 3b
       0.0073701246 0.0070608766 -0.011250473 0.0020646353
0001d0 35 92 8e 3c ba 79 16 3b da f0 cb 3b 52 e8 69 ba
       0.017403701 0.0022960738 0.00622378 -0.0008922863
0001e0 6e 17 0f 3c 7f ab 1c 3c 1e 16 26 bc 42 9e a8 bb
       0.008733613 0.009562372 -0.010137109 -0.005145819
0001f0 29 bf 43 bc a0 0c 1f bc 80 37 1f 3b ba fa b0 3b
       -0.011947432 -0.0097076 0.0024294555 0.0054009827

network_body.observation_encoder.rsa.fc_out.bias f4 [128]
000000 44 70 99 bb 64 1b b1 39 53 e5 32 3c a7 05 57 3c
       -0.0046825726 0.00033780478 0.010918933 0.013123906
000010 30 13 b4 bb 14 5d 05 bc 12 4b 48 bc 12 b6 bd bb
       -0.0054954514 -0.008139867 -0.012224929 -0.0057895267
000020 c5 da a2 ba ac 6b 72 3c 37 f0 f1 3b 69 07 dd 3b
       -0.0012424818 0.014796179 0.007383372 0.006745268
000030 6c b0 f9 3b b8 cf 50 ba 53 76 f1 bb 4f 38 af 3b
       0.007619908 -0.0007965523 -0.0073688417 0.0053472887
000040 bb 56 71 bb 51 fc 4a bc f2 54 72 bc ca d3 d2 3a
       -0.0036825377 -0.0123892585 -0.01479076 0.0016084847
000050 46 8b 0a bc 98 c4 7c bc f3 2f 39 bc 2c cd 45 3c
       -0.008456057 -0.015427731 -0.011302936 0.012072843
000060 6a 49 37 bc f5 5b 94 bc b0 e3 a2 ba da c9 74 3c
       -0.011186937 -0.018110255 -0.0012427475 0.014940703
000070 3e 06 03 3b 7d 0a 89 3b a7 32 74 bc 61 0d 5c bc
       0.0019992734 0.0041821585 -0.014904655 -0.013430924
000080 27 fd 8c bb 14 87 1f 3c 01 c6 0b 3c 91 97 91 3b
       -0.004302639 0.009736795 0.0085310945 0.004443117
000090 78 55 d8 3b 9d af 5f bc 37 d6 ce ba 82 c8 50 3c
       0.0066019855 -0.013652709 -0.0015780394 0.012743117
0000a0 e3 f8 11 bc 2f c1 88 bb 40 51 5c bc b3 98 a6 3b
       -0.008909437 -0.00417342 -0.013447106 0.005084121
0000b0 8c 1d 90 bb 3c 95 92 3b aa ad e6 b9 93 20 3f 3c
       -0.0043980535 0.0044733565 -0.00043998408 0.011665481
0000c0 e0 1e 48 bc 8f f5 89 3b 79 a6 6a 3c ac 39 4d 3b
       -0.012214392 0.004210181 0.014321917 0.0031314893
0000d0 1d 50 5e bc db b5 85 3c f7 b9 d1 bb be e2 b7 3b
       -0.013568905 0.016322067 -0.0064003426 0.0056117466
0000e0 d0 3b 2b 3c 79 8e 32 3c d2 04 e0 3c ac a9 21 b9
       0.010451272 0.010898226 0.027346049 -0.00015417364
0000f0 4e d9 f6 bb 6f cb 8b bb 54 2a a3 3a 06 76 1b 3c
       -0.007533229 -0.0042661945 0.0012448528 0.009488588
000100 40 59 56 3a 36 85 62 3b 97 b8 5e 3c 1b e4 39 bc
       0.00081767514 0.0034564263 0.013593814 -0.0113458885
000110 9c 2c f2 3a f8 76 f0 3b 4e 43 f5 bb 1a 9a a2 3b
       0.0018476429 0.007338401 -0.00748483 0.004962218
000120 a4 98 c4 bb a3 a6 26 3b 4b 3e 16 3c 58 16 a6 3a
       -0.0059996415 0.0025428913 0.009170125 0.0012671454
000130 d1 ad dc 3b e5 c3 cd 3b 9f bb d8 bb 53 06 07 bc
       0.0067345877 0.006279456 -0.006614163 -0.008241254
000140 36 84 92 3b 23 ca 89 bb b0 9f 27 3b b1 ff 7a bc
       0.004471327 -0.004205005 0.002557736 -0.015319751
000150 e2 4f f7 3b 0d 5d 0c 3c 03 11 51 bb c5 5e 47 3c
       0.0075473646 0.008567107 -0.003190101 0.012168591
000160 de 18 85 3b d2 0f 36 bc 40 2e 6c 3b 3b fa e2 ba
       0.0040618023 -0.01111217 0.003603831 -0.0017317006
000170 b9 26 84 39 3f 4d 94 bb 3d 7b 8a ba 41 d6 6f 38
       0.00025205853 -0.00452581 -0.0010565292 5.718158e-05
000180 66 dd 01 3c d3 20 63 3c 27 57 0f bb 6a ad 8f 3b
       0.007926321 0.013862806 -0.0021872015 0.0043846862
000190 17 da 48 3c ea ec b2 3b 5b eb bb 3a 70 7c 74 3c
       0.012259028 0.0054603713 0.0014337109 0.014922246
0001a0 a4 f7 61 bc 03 ee cf bb 13 91 6a 3b 2b 74 4a 3c
       -0.013791952 -0.006345512 0.0035792037 0.012356798
0001b0 67 ae 73 3c 3e 06 e0 bb 30 d4 c0 3b 7f 47 62 ba
       0.014873124 -0.0068366816 0.0058846697 -0.00086318696
0001c0 15 ad 0a 3c b2 7a 37 3b 80 57 0d bc 03 d1 1f bb
       0.008464118 0.0027996716 -0.008626819 -0.0024386055
0001d0 b9 ac dc 3b fd 05 24 bb 35 52 f4 3a 0e c9 49 bb
       0.0067344573 -0.0025027983 0.0018640222 -0.0030790004
0001e0 37 d9 08 3a 19 b7 39 39 ee a8 4e 3c ab 9f 9f 3a
       0.0005220356 0.00017711184 0.012613518 0.0012178322
0001f0 e9 98 28 bc 75 d0 bb 3b da 3b 46 bc 28 cf e3 3b
       -0.010290363 0.005731637 -0.012099231 0.006952185

network_body.observation_encoder.x_self_encoder.seq_layers.0.weight f4 [128, 4]
000000 ea 1a e6 3b 96 86 ea 3d b5 f1 94 bc f0 0a f1 bd
       0.0070222514 0.114514515 -0.018181661 -0.11769664
000010 82 dc 80 bb 9b 37 25 3c ff 9c 82 3d 94 7a 7b bd
       -0.0039325366 0.010084058 0.06377601 -0.061396196
000020 70 33 46 bb 12 50 bf bb dc 8e e2 bc 98 75 a7 bd
       -0.0030243061 -0.0058384025 -0.027656011 -0.08176726
000030 96 0b 28 3b 0d 0b b7 3c 64 ea af 3c 24 a2 a3 bd
       0.0025641671 0.022344137 0.02147407 -0.0798991
000040 52 18 d4 3c 02 c7 37 3d d6 09 d5 3c 52 f4 c5 bd
       0.025890503 0.044867523 0.026005667 -0.09665741
000050 31 8c 5c 3c f5 9e 2a bb 82 75 a9 3c e0 ca 34 3d
       0.013461159 -0.0026034687 0.020685915 0.04413879
000060 67 22 23 3d da 8c 4c 3b 51 b4 8f bd db 8f 73 bd
       0.03982773 0.0031211884 -0.070168145 -0.059463363
000070 df c3 ed bc 42 19 e7 3c 08 e7 89 bc 3c 59 62 bd
       -0.029024063 0.028210286 -0.016833797 -0.05526088
000080 82 89 91 bc 33 ed 02 bd 92 56 06 bc 40 c7 b0 bd
       -0.017765764 -0.031964492 -0.008199351 -0.08631754
000090 94 80 11 3d d0 29 2b 3c dc ef 8e 3c 73 4d 98 3d
       0.035523012 0.010446981 0.017448358 0.07436647
0000a0 db a1 fc 3c d8 5a 34 3b 58 46 cf 3c 70 44 2b bd
       0.030838897 0.0027519967 0.025302097 -0.041813314
0000b0 9c 01 43 bb f4 6e 2d 3c 90 e7 01 bd 27 77 a0 bd
       -0.0029755598 0.010585535 -0.031714976 -0.078352265
0000c0 6f 88 d9 3b 80 53 f3 3a ab ce 2d 3b ac d8 4d 3d
       0.0066385786 0.0018564314 0.0026520889 0.050255463
0000d0 90 f9 a6 3b 5c 1f f0 3c 79 51 b5 bc 2b 3b 8e bd
       0.005095668 0.029311828 -0.022133576 -0.06944879
0000e0 45 4c 78 3d 11 a1 d8 3a 63 01 8e 3d c5 6b 83 3d
       0.06061961 0.0016527494 0.06933858 0.0641704
0000f0 f7 41 d0 3c 01 b7 04 bd 0e dd 72 3d ad dd ae 3d
       0.02542208 -0.03240109 0.059292845 0.08538375
000100 cb ac 12 3b 9a 6d 8f 3c 0d b5 c0 bc 5e 44 72 bd
       0.0022380825 0.017508317 -0.023523832 -0.05914723
000110 7e 8b 15 3d 22 89 47 3c 40 99 a4 3c 99 bd a8 3d
       0.036509983 0.012178691 0.020092607 0.08239288
000120 42 0d 26 3c da d1 30 bd 88 dc 76 3d bc 6e a7 3d
       0.010134997 -0.04316888 0.06026891 0.08175418
000130 cc 4f af bc a9 27 f6 bd e2 06 1e 3d f8 1d c8 3d
       -0.021400355 -0.12019283 0.038580783 0.09771341
000140 b1 0a 57 38 2b dc 22 3c b0 a7 94 bc 45 45 79 bd
       5.126995e-05 0.009940187 -0.018146366 -0.060857076
000150 f2 cc f9 3b 9a bc e2 3b 92 92 3c 3c d2 b2 8d bd
       0.0076233083 0.0069194557 0.011509554 -0.06918873
000160 93 dd b0 bc c0 a5 98 bc 5a 12 80 3d c7 dd ec 3d
       -0.02159003 -0.018633723 0.062535 0.11565738
000170 a4 00 3a bd 05 cc 7b bc 59 c3 32 bc 57 ed ea bd
       -0.045410767 -0.015368466 -0.010910832 -0.1147105
000180 2f a5 37 3d ef 0d 1a 3d 11 4c a3 3b f7 eb 6f bc
       0.044835266 0.037610944 0.004983433 -0.014643661
000190 6d 17 49 3d c9 7a 73 3a c0 77 68 bc 14 36 ef 3d
       0.049094606 0.0009288011 -0.014188707 0.116802365
0001a0 b7 a1 3f 3b 94 e6 22 3d 62 8a ae bc 2a f9 8f bd
       0.0029240677 0.039770678 -0.02130622 -0.07029946
0001b0 c5 ba 67 bc f1 52 fb 3c 6d 79 2e bd 7f 43 83 bd
       -0.01414365 0.030679198 -0.04259627 -0.06409358
0001c0 04 5f 95 3c 4b 69 57 3d 6e c1 20 bd eb ea 18 bd
       0.018233784 0.05259065 -0.03924697 -0.03733341
0001d0 49 6a 25 3c 4b 79 9e 3d 5a be 17 3d 32 c1 99 bc
       0.010096141 0.077379785 0.037046768 -0.01876888
0001e0 21 91 50 bd 8a 78 c4 bc 67 15 1e bd 94 17 5c 3d
       -0.050919656 -0.023983259 -0.03859463 0.053733423
0001f0 8a 33 13 3c 2c c3 89 3d 4d 2a 2e bd c8 f8 94 bd
       0.008984456 0.06726679 -0.04252081 -0.07274014
000200 12 66 01 3d 2a e6 69 bb 9e 70 f9 3c 60 9c 86 bd
       0.031591482 -0.0035690167 0.030449208 -0.06572795
000210 74 e8 22 3c c6 cb 69 3c fa e3 9d bd be 4e 86 bd
       0.009943116 0.014269775 -0.07709499 -0.06557988
000220 13 23 ea 3c 91 f6 e9 bb 3f ef 8d bc e8 91 85 bd
       0.028581178 -0.0071399887 -0.017325995 -0.0652197
000230 6b 80 34 bd 0f e5 b9 38 e5 a6 5d bb 7b bf c8 bd
       -0.04406778 8.864153e-05 -0.00338214 -0.09802147
000240 a8 6c f2 bc 72 91 f1 b9 6a 1c 8e 3c 6b 5e 75 bd
       -0.029592827 -0.00046075467 0.017347533 -0.059904497
000250 b2 90 ef 3b 83 45 cd bd 88 65 cb bc 1a 49 97 3b
       0.00731095 -0.10023024 -0.024828687 0.0046168687
000260 68 3e a9 3c 4f d8 af 3d 82 2a 2f bc a8 79 63 bd
       0.02065964 0.085861795 -0.010691287 -0.055535942
000270 31 fe 14 bc 2f 0e 59 3d e2 4a 1c bc 5e 93 89 bd
       -0.009093807 0.052992042 -0.009539338 -0.06717561
000280 73 d3 34 bd 28 e4 de 39 eb f9 6c bb 35 30 df bd
       -0.044146966 0.0004251313 -0.0036159705 -0.10897867
000290 07 fd d2 bb a0 da a9 bc b0 16 87 3d f2 62 ff 3d
       -0.0064388546 -0.020734131 0.06596124 0.12470044
0002a0 d5 74 51 bc 62 00 40 bb 94 d1 a5 bc 21 2d 61 3d
       -0.012784203 -0.0029297103 -0.020241536 0.05497468
0002b0 13 1a c6 bc af ed f9 3c 8d 33 a1 bd fb 05 57 bd
       -0.024182355 0.030508844 -0.07871161 -0.052495938
0002c0 8c 86 b6 bc 5c 04 b1 bb 2d 7e 65 bc 7a 34 f0 bd
       -0.022280954 -0.005402131 -0.014007133 -0.11728759
0002d0 8b e5 0f bc 9a ad 74 3d 4f dd e2 bc 2a 2e 6d bc
       -0.008782755 0.05973587 -0.027693419 -0.014476338
0002e0 7f 34 97 bc 0d 41 b3 bc e9 a6 3d 3c d4 75 0d 3d
       -0.01845765 -0.021881605 0.011575439 0.034536198
0002f0 69 e3 db 3c bc f9 ea 3c 9c 11 1d bc 7b 38 b6 bd
       0.026841836 0.028683536 -0.009586718 -0.088974915
000300 42 2f aa bc 95 5c 65 bd f2 37 81 3c 20 ee be 3d
       -0.020774487 -0.055996496 0.015773747 0.093227625
000310 40 75 22 3d e7 29 03 3d 8b 54 05 bd af 01 c3 bc
       0.0396626 0.032022383 -0.03255133 -0.023804514
000320 2d fd 14 bc 39 b8 b3 3b 6e 46 52 3d 1b 40 a2 3d
       -0.009093565 0.0054846075 0.0513367 0.079223834
000330 2f 13 f9 3c 3b c3 3e 3d 6e 33 0b 3d c6 01 b0 bd
       0.030404655 0.046572905 0.033984594 -0.08594088
000340 4a 85 75 bc d9 b7 4d 3c 55 42 e0 bc 5e 88 97 bd
       -0.014985392 0.01255604 -0.02737538 -0.07399057
000350 7a 46 a4 3c bf 7a 18 3d 79 44 92 3c e7 49 9b bd
       0.020053137 0.037226435 0.017854916 -0.07582455
000360 11 6c 1b 3d 60 1f 11 3d 4f 0e 6d 3c c7 4d 62 3d
       0.037944857 0.035430312 0.0144687435 0.055249956
000370 53 9e 23 bd 64 da 8c 3c 26 c8 08 bd 83 e9 9d bd
       -0.03994591 0.01719398 -0.033394 -0.077105545
000380 79 6c 4e 3d f5 56 b1 3c 60 b3 df bc b1 3e 6f bd
       0.050396416 0.02164791 -0.027307212 -0.058409397
000390 a9 31 58 bc 21 d7 5c 3d 2f 29 98 bc 69 7c a4 bd
       -0.013195434 0.0539161 -0.018574325 -0.08031542
0003a0 5f bf ca 3a a6 37 03 3b 68 30 89 bd 90 82 6d bd
       0.001546841 0.0020022183 -0.06698686 -0.057985842
0003b0 5e 5c fd 3c 27 8a 1b bc 1d a3 b8 bc 48 f2 8e bd
       0.030927833 -0.009493387 -0.022538716 -0.06979805
0003c0 9a ed 54 3c c2 46 4e 3d cd 10 bc bc 42 01 d5 bd
       0.012996102 0.05036045 -0.02295723 -0.104006305
0003d0 22 79 3b bd 96 d6 f1 3c 27 53 49 bc 97 8b 39 bd
       -0.045769818 0.029521268 -0.0122878915 -0.04529914
0003e0 f5 ad 0b bc 28 cf 01 3d e6 cd 2f 3b 2c d2 5f bd
       -0.008525361 0.0316917 0.0026825606 -0.054643795
0003f0 5c d6 35 bc 7d bb e6 3a b6 ae 6f bd 4e 7e 5c bd
       -0.011098471 0.0017603483 -0.058516227 -0.05383139

network_body.observation_encoder.x_self_encoder.seq_layers.0.bias f4 [128]
000000 23 d4 dc bc 8a 7e 68 bc 1c d1 38 bc 28 d6 a3 bc
       -0.026956623 -0.0141903255 -0.011280324 -0.019999579
000010 ac a8 89 bc 2e d3 69 3c 90 b2 2f bc 79 fe cd bc
       -0.016804062 0.014271541 -0.010723725 -0.025145756
000020 bd c8 85 bc 24 dc a8 3c 7f 05 c5 bb 3b fc 80 bc
       -0.016331071 0.020612784 -0.006012618 -0.015745273
000030 03 02 8a 3c e0 d1 71 bc 2f 1f 97 3c bf 38 f1 3c
       0.016846662 -0.014759511 0.018447487 0.029446004
000040 85 f4 53 bc 2b b0 8b 3c 21 34 86 3c 6e f7 aa 3c
       -0.012936716 0.017051777 0.016382279 0.020869937
000050 35 ee 60 bc 00 6f b8 bc 9a d9 f0 3c fd a5 8d bc
       -0.013728668 -0.022513866 0.029400636 -0.017291063
000060 98 6b 4b 3a bd 40 d0 3c 1e f7 e6 bc d2 40 e3 bc
       0.0007759868 0.025421495 -0.028194007 -0.02774087
000070 ca f5 90 bc 41 35 b3 bc 42 28 f7 3b 2b 72 3c bc
       -0.017695326 -0.02187598 0.007542641 -0.011501829
000080 42 9d a2 bc a8 e9 9b bc bb cd 82 bc bb 4f 64 bc
       -0.019850377 -0.019032314 -0.01596724 -0.013935025
000090 a5 c9 b3 bc 2b 7a 4a 3c d0 eb d9 bc 58 74 9c bc
       -0.021946738 0.012358229 -0.026601702 -0.019098446
0000a0 a6 c2 99 bc c7 37 f9 3c b1 c5 81 3c bb 52 d1 bc
       -0.018769573 0.030422105 0.015841337 -0.025552144
0000b0 24 06 57 bc 70 02 4c bc c9 56 d3 3b 71 d9 b5 bc
       -0.013124023 -0.012451753 0.0064495546 -0.02219841
0000c0 d2 5a b6 3c f9 f8 9c bb 73 0b ac 3c 06 c3 2b bc
       0.022260103 -0.004790422 0.021001553 -0.010483509
0000d0 c1 3a 9c bc 5d 4f 61 bc 1f 33 a4 3c bd 12 b0 bc
       -0.019070985 -0.013751832 0.020043908 -0.02149331
0000e0 3b f5 80 bc c7 05 fe bb 23 50 d3 bc 6b 2d 88 bc
       -0.015741935 -0.0077521536 -0.025795048 -0.01662322
0000f0 20 ed ab bc 8e db f5 bc 13 2b 60 bc 9c 52 45 bc
       -0.020987093 -0.030011918 -0.013682145 -0.012043621
000100 05 da 30 3c 88 d6 5d 3c f9 79 93 bc ff 97 81 3c
       0.010794167 0.013539918 -0.018002497 0.015819548
000110 86 ee 5c 3c 38 db a7 3c 64 a7 b1 bb 18 49 b9 3c
       0.013484603 0.020490274 -0.005421566 0.022617862
000120 a6 a2 ac bc 6c 66 74 3c da 68 b4 bc 55 6e d2 bc
       -0.02107365 0.014916997 -0.022022653 -0.025687376
000130 94 e6 95 3c ad c7 99 bc 41 f5 48 bc 53 e5 90 3c
       0.018298425 -0.01877197 -0.012265504 0.017687475
000140 a0 c3 5f 3c 61 3d 93 3a 8f d5 a4 bc b9 31 c6 bc
       0.0136574805 0.0011233502 -0.020121364 -0.024193631
000150 a9 72 a7 bc cd e1 ad bc e4 43 7e bc d9 b0 a5 bc
       -0.020440416 -0.021225834 -0.015519116 -0.02022593
000160 a6 94 d0 3c 76 21 98 bc 99 89 f0 bc bf a3 6f bc
       0.025461506 -0.018570643 -0.029362487 -0.014626442
000170 76 a1 ee bc 92 e2 1c bc 5c 7a 89 3c 74 65 4e bc
       -0.029129725 -0.009575503 0.016781978 -0.0125974305
000180 6c 5b 06 3c e5 e0 cf bc 64 bc 5a bc 3e 98 87 3c
       0.008200508 -0.025375793 -0.01335058 0.016552087
000190 f5 7a c0 3c c9 18 ec 3c 21 85 4f 3c ff c1 87 bc
       0.02349613 0.028820412 0.012666018 -0.016571997
0001a0 68 9a b2 3c 6e 2d 64 bc 7b 33 84 bc 65 34 5f 3c
       0.021802142 -0.013926847 -0.016137829 0.013623332
0001b0 52 22 a9 3b 5c 15 ab 3c e7 7a 31 bc f3 e3 b9 bc
       0.005161562 0.020884208 -0.010832525 -0.022691702
0001c0 8b c6 9d bc c8 79 22 3c d0 e2 3b bc 6c 60 a6 3c
       -0.019259712 0.00991673 -0.0114676505 0.02030965
0001d0 9a 65 c6 3c 5b 15 cb bc 2d eb dc 3c 36 9f fd bb
       0.02421837 -0.024790457 0.02696761 -0.0077399267
0001e0 0f 54 e4 bc b5 0e bc 3c 5c 16 c5 ba 4a 22 7c bb
       -0.027872114 0.022956232 -0.0015036571 -0.0038472586
0001f0 47 c8 bb 3c b7 f2 b3 bc 3e 02 b9 bc fc 4b 92 bc
       0.022922648 -0.021966321 -0.022584077 -0.017858498

network_body._body_endoder.seq_layers.0.weight f4 [256, 132]
000000 a1 57 df 3d 2b f7 52 3d bd 3d 4b 3d d3 42 21 be
       0.10905386 0.05150525 0.049619425 -0.15748148
000010 5f e1 c0 3d 1a 25 bd bd d2 d5 bd 3d d9 f8 fb bd
       0.09417986 -0.09235592 0.092692986 -0.12303323
000020 a1 ae e9 3d d6 82 28 3e 88 37 5d bd cc b2 27 bd
       0.11410261 0.1645616 -0.054008037 -0.040942
000030 f1 86 4f be 4d e4 c3 3d 7d 24 9e bd 50 e5 54 bd
       -0.2026632 0.09565029 -0.07721803 -0.051976502
000040 05 33 06 3e e6 e7 5b be 34 91 01 be 39 26 8f 3d
       0.131054 -0.21475181 -0.12653047 0.06989712
000050 27 69 b2 bd f5 34 ca bd 63 6c 5d bd 75 46 f4 3d
       -0.087114625 -0.09873382 -0.054058444 0.11927501
000060 70 27 91 3d 44 e6 df bd 30 7d 3b 3c 5e 8a 03 be
       0.070876 -0.109325916 0.011443421 -0.12845752
000070 79 56 12 3d 00 d1 84 3c ed 4a d3 bd 59 1a a0 bd
       0.035726998 0.01621294 -0.10317025 -0.078175254
000080 62 90 14 be 4a 2a af 3d 51 af 37 3d 63 71 12 3e
       -0.14508203 0.08552988 0.04484493 0.14301066
000090 a3 20 34 3e 8b 31 21 3e 78 47 d3 bd 69 16 22 bb
       0.17590575 0.15741555 -0.10316366 -0.0024732596
0000a0 37 d8 57 bd f6 53 4c 3d df 74 c0 3d 7a fc 41 3d
       -0.052696433 0.04988476 0.093972914 0.04735992
0000b0 c3 e9 6b 3d ea cd cd 3d 41 42 ce 3c aa 6d 1b bc
       0.05759598 0.100490406 0.025178077 -0.009486595
0000c0 c7 8f 6d bd fc 55 d1 3c ff a7 f6 3d bf 91 1c 3c
       -0.057998445 0.025553696 0.120437615 0.009556233
0000d0 51 0f a3 3c cf ef d4 3d 16 01 00 be 83 cd 41 be
       0.019904764 0.10397302 -0.12500414 -0.18926053
0000e0 cb 81 83 3d e4 8c 9b 3d 63 ad 27 3e 67 a8 4d 3d
       0.064212404 0.07595232 0.16374736 0.05020943
0000f0 7c 98 aa bd 87 f8 1a 3e e1 3f de bd 3a fe d0 3b
       -0.08329865 0.15133868 -0.10852028 0.0063779624
000100 73 55 3d 3e fd 4b bd 3d 16 5e 66 3d 91 50 0d be
       0.18489628 0.09243009 0.05624207 -0.13800265
000110 9d 81 d2 bd f6 a9 7d 39 ad 59 44 bd 46 7e 66 3e
       -0.10278628 0.00024191276 -0.047937084 0.22509107
000120 89 6b 40 3d 69 30 3a 3a b8 48 a5 bc 2b 97 2a bd
       0.046977554 0.00071025506 -0.020176277 -0.04164807
000130 c4 87 2e 3c 4c 5f 6c 3b fe 0b ab bc af e5 4c 3d
       0.010652486 0.0036067544 -0.020879742 0.05002373
000140 80 fd 84 bd fa e1 8e 3d 3c aa c7 3d 5e 0c 5f bd
       -0.06493664 0.06976695 0.097492665 -0.054455154
000150 ee ae 2b be 12 dc 98 bd fc a0 c0 bb fe 9b 13 3e
       -0.16765949 -0.0746385 -0.005878566 0.14414975
000160 af 71 b3 3d a9 20 6c 3d 4d 48 5a 3c e2 0d 5b bd
       0.08761918 0.057648335 0.013322902 -0.053480037
000170 c4 f6 84 3b de 50 04 3e 28 ba fe bc 64 3c 18 be
       0.004057737 0.12921473 -0.031094626 -0.14866787
000180 11 bc ec bd 8e 60 20 3e a3 4f 07 be a8 a1 a2 3d
       -0.11559308 0.15661833 -0.13213973 0.0794099
000190 dc 46 bc bc 5d eb 86 3d d8 29 81 bd 0d 2a e5 3d
       -0.022983007 0.06587861 -0.06306809 0.11189661
0001a0 34 ee 06 bd 82 02 6f bb 65 4c 38 be 58 c5 6f bd
       -0.032942012 -0.003647 -0.17997892 -0.05853781
0001b0 51 e4 e1 3d e9 a4 af 3d 7f 1a a2 3d ce ca 60 bd
       0.11029876 0.08576376 0.0791521 -0.05488091
0001c0 3d ba 02 bd 68 35 e3 bd 5f 53 e0 3d ec 1e 3b bd
       -0.031915892 -0.11094171 0.10953402 -0.045683786
0001d0 c9 a8 ca 3d 4a fe 61 3d f0 e3 ae bc 8d 94 a9 bd
       0.098954745 0.05517415 -0.021348923 -0.08280287
0001e0 24 1e 96 bd 52 84 3b 3d b5 3b 4a bd 7d 0b 12 3d
       -0.073299676 0.045780487 -0.049373347 0.035655487
0001f0 d5 b3 5f bd 5a 64 93 3c e5 3d 6e 3d e0 a5 d5 3d
       -0.05461486 0.017992187 0.058164496 0.10432029
000200 62 42 94 bd d0 47 d8 3c cc f1 9a bd c4 a5 ac 3d
       -0.07239224 0.02640143 -0.0756565 0.08430055
000210 83 a6 0f 3e 0a d8 bd 3d 8e e3 8e be 62 a2 27 3c
       0.14028363 0.09269722 -0.27907985 0.010231586
000220 fb 10 17 bd a6 27 2d bd 38 67 52 bd 77 ab c7 3d
       -0.03688143 -0.04227414 -0.05136797 0.09749501
000230 77 17 15 3d 45 5f 9f bd ae ba 1b bd 8e 42 2c be
       0.03639933 -0.07781843 -0.03801983 -0.16822264
000240 fa ad 36 3c 8b 65 c4 3b ad 64 bb 3d 95 9a 89 3d
       0.011149878 0.00599355 0.09150062 0.06718937
000250 16 4e bd 3d cd 69 ca bd 49 38 ea 3d a9 96 8c bc
       0.09243409 -0.09883461 0.11436517 -0.017161684
000260 cc 9a aa 3d 59 f4 62 3d 42 f7 13 3d a1 69 22 be
       0.083303064 0.05540881 0.036124475 -0.15860607
000270 7c 82 43 3c c2 96 4c 3d ff 53 0e bc 2a de f6 3d
       0.011932965 0.04994846 -0.008687018 0.12054093
000280 10 d5 17 be df 13 2f be 12 29 86 3c 09 9e 22 3d
       -0.1482737 -0.17097424 0.016377006 0.039701495
000290 ba cb 15 bd eb 59 33 bd 93 cf a1 3d a4 c8 d5 bc
       -0.036571242 -0.043786924 0.0790092 -0.02609665
0002a0 0d ad a8 3d 46 79 13 be 76 a5 6b bc ac 7e fe 3d
       0.08236132 -0.14401731 -0.014382711 0.124265045
0002b0 ea 4e 26 3d c8 26 ad 3d cb e4 5d be d0 5a 5a bd
       0.040602602 0.084546626 -0.21669309 -0.05330926
0002c0 cd 24 4b bd 3d 6d f1 bc c7 50 66 3d 5e a2 aa bd
       -0.049595643 -0.029471034 0.05622938 -0.0833175
0002d0 83 68 80 bc 6d b6 85 3d c8 e0 bb bd 25 55 eb 3c
       -0.015674835 0.065289356 -0.09173733 0.028727124
0002e0 c1 93 27 bb 14 bf bb bd d3 a0 1c 3e 73 e6 75 bd
       -0.0025570246 -0.09167305 0.15295725 -0.060034227
0002f0 5e 6b 4c ba bd d0 05 3e 6d f1 e3 bc c1 12 cf bd
       -0.00077979814 0.13067909 -0.027825082 -0.10110999
000300 ae d0 e2 3c 52 7c 11 bd 17 17 91 3d c1 41 20 bd
       0.027687397 -0.03551895 0.07084482 -0.039125208
000310 05 90 c4 bd af 55 e2 3c 92 f5 01 be dc c2 4a bd
       -0.09597782 0.027628748 -0.12691334 -0.04950224
000320 7c d5 c0 bd 39 7b 79 bd a8 58 d6 3d 20 dc 9d 3d
       -0.09415719 -0.06090853 0.104661286 0.07708001
000330 65 8c 3e 3e 55 d5 3a 3e 1a 0f b7 3b db 80 79 bb
       0.18608244 0.18245442 0.005586517 -0.0038071189
000340 0c 96 13 bd f8 1c f1 bd 5c 9c dd bd 04 11 32 3d
       -0.036031768 -0.117731035 -0.10820839 0.04347326
000350 20 3c 7a bd 2d 2b fc bb 9c f0 c2 3d 1e 03 b5 3d
       -0.061092496 -0.0076955766 0.09518549 0.08838485
000360 8c a9 6a 3c 0f 3c 8b bd af d0 81 bc bb a3 fc 3d
       0.01432265 -0.06798565 -0.015846578 0.123359166
000370 78 9a 50 3d ca 18 37 3e a2 7f d1 bc 53 a0 94 3d
       0.050928563 0.1788055 -0.025573555 0.07257142
000380 92 67 9a 3d 6d 0e 95 bd b6 32 ee bd 71 77 34 3c
       0.07539286 -0.07278142 -0.11630766 0.011014805
000390 4c e6 8e bd 5c 71 40 bd 7d 42 81 3d ef bc a3 3d
       -0.069775194 -0.046983108 0.0631151 0.079950206
0003a0 bb 1a 89 3d 53 f3 eb 3c 29 d7 ae 3d e8 d9 f7 bd
       0.066945516 0.02880255 0.08537132 -0.12102109
0003b0 57 69 72 bd 0b e9 db 3d 99 25 44 bc 86 0b 0e be
       -0.05918249 0.10737809 -0.011971855 -0.13871583
0003c0 c8 e0 15 3c 05 5c 31 bc b5 4f 04 3e 8d 2e 1d bd
       0.00914783 -0.010825162 0.12921031 -0.038374472
0003d0 e8 ad ca 3d 80 32 22 3e d3 69 67 3c 2d 7d 30 bd
       0.09896451 0.15839577 0.014124352 -0.043088127
0003e0 11 3b 66 bd e7 fc 9e 3d ea 9c a5 3d a5 19 b3 bd
       -0.056208674 0.07763081 0.080865696 -0.08745126
0003f0 8f 62 a8 3c 45 dc 62 3d 2f 13 24 3e da 59 83 3b
       0.020554809 0.055385847 0.16022943 0.004008514

network_body._body_endoder.seq_layers.0.bias f4 [256]
000000 9e ff df 3c a9 ff 7f be c3 be 44 3c 48 7b 82 3d
       0.027343567 -0.2499987 0.012008372 0.0637117
000010 be b5 3d be 8b 20 c7 bd cd 82 df 3d 0a ea ad bc
       -0.1852636 -0.09723004 0.1091362 -0.021229763
000020 7e 3b c0 3d ea ff 15 3e 3d 74 59 bc 52 35 56 3d
       0.09386347 0.14648405 -0.013272342 0.052296944
000030 ee b1 26 3d b1 8f 60 be 73 7b 1e be 7b 8f 99 3c
       0.04069703 -0.21929814 -0.1547678 0.018745175
000040 f9 35 d7 3d 9b a1 d5 bc c0 ea e6 3c 79 25 af bc
       0.10508341 -0.026078036 0.02818811 -0.021380173
000050 8a cb c3 3c ed cc 43 3c c2 6e 80 bc 1f d4 b2 bd
       0.023900766 0.011950714 -0.015677813 -0.08731865
000060 f5 03 98 3c 4c 9f b3 3c 6a 11 d2 3c 82 40 d7 3d
       0.018556574 0.021926545 0.02564307 0.10510351
000070 00 27 83 3c b4 34 b8 3c 4d 73 fb bd 88 6c 75 be
       0.016009808 0.022486068 -0.12277851 -0.23967183
000080 86 49 d5 3d b9 dd 3f be 92 41 96 3c 88 91 58 3d
       0.10414414 -0.18736924 0.018341813 0.052873164
000090 e1 f0 30 3d ad 97 35 3c db ab 7e 3d 72 04 2a 3d
       0.04319847 0.011083526 0.062175613 0.041508146
0000a0 b3 11 4b 3d 0f e2 86 3d b0 72 a2 3c f6 c1 3a bc
       0.049577426 0.06586086 0.019830078 -0.011398783
0000b0 ec d6 b3 3c 01 31 06 3d e9 06 ed bd 9d 22 ed 3c
       0.021953069 0.032761578 -0.11573584 0.028947169
0000c0 80 53 01 be 60 be 98 bc ea 6c 5a be c5 b5 94 3d
       -0.12629509 -0.018645465 -0.2133061 0.07261232
0000d0 79 9a 5b bd ba 4f 99 3c d7 8d ec 3c 28 85 75 bb
       -0.053614113 0.018714774 0.028876228 -0.00374634
0000e0 4d bb 5f 3d ee 2c 19 3d 3f 9b 80 3d 67 c3 6e be
       0.054621983 0.037396364 0.06279611 -0.23316728
0000f0 e8 8b b1 3a 9d 5e 50 be 07 c8 fa 3d 3c 37 88 3d
       0.0013545724 -0.20348592 0.122451834 0.0665116
000100 a3 78 e8 3c 21 11 bf bd 2e 80 f4 3d d5 50 1a 3d
       0.028377837 -0.09329439 0.11938511 0.037674744
000110 41 65 41 bd 16 01 3a 3d 0b 66 fa 3d 0d f5 5a be
       -0.047215704 0.045411192 0.122264944 -0.21382542
000120 5f 9f 52 3c 02 02 71 bd 2f de f2 3d 15 88 88 3c
       0.01285538 -0.058839805 0.118587844 0.016666451
000130 e5 58 76 bd f8 f3 40 3b cb 11 27 3e b1 a8 5d bd
       -0.06014337 0.0029442292 0.16315381 -0.054115955
000140 be 2c 0e 3d 92 15 ed bd 07 30 08 bc ff df 0a 3d
       0.03471064 -0.1157638 -0.008312232 0.033905026
000150 1d 29 90 be 30 af ba 3c c8 01 98 3c 99 15 1e bc
       -0.28156367 0.022788614 0.018555537 -0.009648704
000160 91 90 88 bd c3 96 e0 3c 01 1e ec 3d 3d 6f f9 3b
       -0.06668199 0.027415639 0.1152916 0.0076121376
000170 56 56 b8 bc 00 3d 0e 3d e5 75 d6 bd 94 d0 49 3c
       -0.022502106 0.034726143 -0.10471705 0.012317795
000180 3c 05 b7 3d e9 af a6 3c a1 0a 00 3e c5 aa 00 3e
       0.08936545 0.020347552 0.12504055 0.12565143
000190 33 44 53 3d 18 ab 32 bc f2 ef 62 3e 3f 7c b7 3c
       0.05157871 -0.01090505 0.22161844 0.022398112
0001a0 75 64 33 3a 44 53 b7 3c 3a ab 05 3d d6 7d d6 3b
       0.00068432774 0.022378571 0.032633997 0.0065457625
0001b0 99 77 83 bd c8 19 e3 3c 99 2a 80 3b 4c 6e 75 3c
       -0.06419296 0.027722254 0.003911328 0.01497991
0001c0 a8 fb 78 3d 01 0a 18 3d bd 64 f5 3c 65 62 0e 3d
       0.060786873 0.037118915 0.029955262 0.034761805
0001d0 7d 7e 0d 3e 4b 50 4e 3d c2 d8 0a 3d 8f 55 90 3d
       0.13817783 0.050369542 0.033898123 0.07047569
0001e0 2f b9 6e 3d bc cb 33 3e 25 02 49 3d 2f e6 d0 b9
       0.058282074 0.17558187 0.04907431 -0.00039844352
0001f0 78 25 2a 3d fc 2c 1a bd d6 d7 60 3d d5 7a 0b 3d
       0.04153964 -0.037640557 0.054893337 0.03405269
000200 d0 f5 0d 3d 7e 76 55 3c 94 5b d5 3d c7 2e d0 bb
       0.034658253 0.013028739 0.10417858 -0.0063532325
000210 38 eb cf 3c 5a 85 27 3c 28 99 7c be 36 0a da bd
       0.025380716 0.010224665 -0.246678 -0.10646479
000220 55 32 bf 3c 65 de 5b 3d 38 51 8c bc 46 0a 29 bd
       0.02333943 0.05367889 -0.017128572 -0.041269563
000230 0e 3d b8 3b b8 45 d8 bb de fe ff 3d 7a cf 64 be
       0.0056225127 -0.006600108 0.12499784 -0.22344771
000240 29 ad 2b bd a0 38 38 3d 23 41 4f bc 5d 62 6a bb
       -0.041913185 0.044975877 -0.012649807 -0.0035764195
000250 58 3f 6d be b3 7a 61 bc e1 de 39 3d 63 38 1c 3d
       -0.23168695 -0.013762164 0.04537857 0.038139712
000260 c6 99 de 3c 77 8a 0a 3e fe ab a1 3c 1e 1a 7f be
       0.027172934 0.13529383 0.019735333 -0.24912307
000270 bc 30 56 be bb 27 2f bd 10 dd 3b 3d 37 da f2 bd
       -0.20917028 -0.0427625 0.04586512 -0.118580274
000280 41 eb f5 3c b4 0f db 3d d3 dc 89 3b 11 90 b7 3c
       0.030019404 0.106963545 0.0042072325 0.022407563
000290 d4 72 ae 3d f3 d4 6d bc fa 9b 9c 3c cf b9 2a 3d
       0.085179955 -0.014516103 0.019117344 0.041681107
0002a0 0a 73 ae bd 1a f0 36 be 3e 70 ab 3c 24 68 67 3c
       -0.08518036 -0.17865029 0.020927545 0.01412395
0002b0 ba 7b b8 3d 30 d9 cb bb a6 bb ba 3c 6d 16 df 39
       0.09007974 -0.006220959 0.022794556 0.00042550583
0002c0 c5 20 0e 3e 44 87 8b be a9 c2 7c bc 31 f8 fb bc
       0.13879688 -0.27251637 -0.01542727 -0.030757995
0002d0 67 22 87 be a5 27 34 bd c7 53 3e be 18 a7 f0 3c
       -0.26393434 -0.04398312 -0.18586646 0.029376552
0002e0 e3 09 b6 3d 8a 9b 8c 3d 42 47 2a 3d 0d 0b 2e bc
       0.088886045 0.06865604 0.041571863 -0.010622752
0002f0 42 c5 20 bc ba fe d7 bb 1b 9d 91 3c 32 c1 15 bc
       -0.009812655 -0.006591645 0.017775109 -0.0091403
000300 94 bd c9 3c 74 4e 89 be 3b 7f 17 3e a4 90 c8 3c
       0.02462653 -0.26817667 0.14794628 0.024483033
000310 9c 50 6c 3e 6d bd 05 3d 27 b4 a3 bd 00 7e d0 3c
       0.23077625 0.032651354 -0.07993346 0.025450706
000320 dd da 75 3d 54 ea e3 bd 0f 8e 8e 3d d1 5b bd 3c
       0.060023177 -0.11128679 0.06960689 0.02311507
000330 8a 19 75 3d 89 47 11 3d e4 9c f6 3c 80 59 0b 3d
       0.05983881 0.035468612 0.030104108 0.0340209
000340 12 6d b1 3c bf 81 be 3d 8e 07 05 3d 1e 8b 05 3d
       0.021658454 0.09302091 0.032477908 0.032603376
000350 94 71 e1 bd b6 0a 8f 3d b8 92 59 3d 9d 9e 89 bc
       -0.110079914 0.06984465 0.053118438 -0.016799266
000360 11 d0 96 bd 49 55 5b bb 33 46 4e 3d 89 c2 01 3d
       -0.07363904 -0.0033467582 0.050359916 0.031679664
000370 65 b8 c7 3c 06 52 9d 3d a6 4c d1 3d 81 d6 2e bd
       0.024379918 0.0768166 0.10219698 -0.042685036
000380 2e cf 33 3c ea d6 9c 3d 64 04 69 be a6 3f b5 3b
       0.010974688 0.07658179 -0.22755581 0.005531269
000390 67 03 5a be a0 c4 29 3e c1 52 c1 3c c7 f9 81 3d
       -0.2129036 0.16578913 0.02359903 0.06346469
0003a0 68 e6 df 3c 19 fa 46 3d d9 55 5a be 4d 81 cd 3c
       0.027331546 0.048578355 -0.21321811 0.02508607
0003b0 56 43 0a 3d 56 b4 7d 3d 77 d3 e5 3c bd a3 f9 bd
       0.033755623 0.06193956 0.028054936 -0.12189434
0003c0 b3 8e 2b 3e 84 ca c9 3c b2 2f 5e be a7 e9 b4 bd
       0.16753654 0.0246327 -0.21697882 -0.08833628
0003d0 85 98 01 3e 2d 85 85 bd 2a 66 86 be 94 e7 00 3d
       0.12655838 -0.06519542 -0.2624982 0.03147085
0003e0 32 71 32 3c 6f b0 1a 3d 09 d4 3e 3d 6c 45 8a 3c
       0.010891246 0.037765916 0.04658893 0.016878806
0003f0 ad 7f 0b 3c e3 d2 78 3c 5a 1d 6d 3c 33 96 a3 3b
       0.008514327 0.015186998 0.01447233 0.0049922704
