results/sim_test10/simple_deer/simple_deer-17767.onnx (onnx, 483573 bytes, 22 tensors)

network_body.observation_encoder.processors.0.self_ent_encoder.seq_layers.0.bias f4 [128]
000000 b4 c6 bc 3b 4f c2 40 bc a7 0c d5 bb f5 8a f0 3b
       0.005760992 -0.011765077 -0.0065017524 0.0073407837
000010 5a 41 b7 ba a9 f1 93 3a 77 c9 4b 3b 90 dc 50 bb
       -0.0013981268 0.001128723 0.0031095424 -0.0031869747
000020 c3 01 15 bc 40 de 50 3c 2a 1c 61 3c 2c 18 31 bc
       -0.009094658 0.012748301 0.013739625 -0.010808986
000030 c0 64 33 bb 7b 61 69 3b d7 69 19 bc 96 6b e8 bb
       -0.0027373284 0.0035611081 -0.009363613 -0.0070929034
000040 93 47 02 bc eb fd ed bb 94 62 f9 3b f3 e0 98 bb
       -0.007951635 -0.0072629354 0.0076106284 -0.004665488
000050 81 2f 05 3c 2f 20 0a 3a 36 fc 15 bc 2a 94 a0 ba
       0.008129002 0.0005269078 -0.00915437 -0.0012251188
000060 2d f7 1e 3c 02 4c 17 3c f3 36 cf 39 6f e0 eb bb
       0.009702486 0.00923443 0.00039523057 -0.0071983854
000070 46 d3 74 bb 23 95 7a 3b 36 18 7f bb 14 7c 2c 3c
       -0.0037357374 0.0038235865 -0.0038924343 0.010527629
000080 5a 9c b2 3b cb 26 db bb a8 af 77 3b 5e 9f f6 39
       0.0054507675 -0.006687974 0.0037793908 0.00047039514
000090 cf a1 b8 bb 12 bc 40 3c 20 ca 12 3c ff ee 38 3c
       -0.0056345235 0.011763589 0.008959323 0.01128745
0000a0 ed 39 16 bc 4f e8 89 3b 5c e9 82 bb 54 a5 9a bb
       -0.009169084 0.0042086015 -0.0039951038 -0.0047194157
0000b0 00 40 30 3c 9c 2b b2 3b 49 3d f6 3b d5 92 c5 3b
       0.010757446 0.0054373275 0.00751463 0.0060294666
0000c0 fa b6 31 bc b5 bc 69 3c 40 a7 28 3c 40 e7 8c ba
       -0.010846848 0.014266183 0.010293782 -0.001075007
0000d0 fe 9e 96 bb f5 d3 dc bb 3f 29 77 bb ad f7 89 ba
       -0.00459659 -0.0067391344 -0.0037713794 -0.0010526084
0000e0 cd e6 fd 3b ae 2d b2 ba 62 6e dd 3b e3 23 f4 3b
       0.007748461 -0.0013593936 0.0067575434 0.007450567
0000f0 d5 6a 07 3c 5f 5f e3 3b 5c e4 71 3b cd a1 24 bc
       0.008265217 0.0069388594 0.0036909794 -0.010048342
000100 98 b5 83 b8 7f 04 f6 bb a8 23 11 3b 0b 5b 0f 3c
       -6.280391e-05 -0.00750786 0.0022146497 0.008749734
000110 4a ab ef bb 9c 25 1c 3b 81 e7 89 ba ba 2a 13 3c
       -0.0073141204 0.0023826128 -0.0010521264 0.008982355
000120 4f cc 30 3c 37 30 16 3c 74 fa 9d bb 60 ac aa ba
       0.010790898 0.009166769 -0.004821116 -0.0013021342
000130 e0 3a 47 bb 1c 0a 17 3c 5c 2d 0d ba c8 1c c2 3b
       -0.0030400082 0.009218719 -0.0005385482 0.005923841
000140 e2 8b 4b 3c 7c 81 20 bc fe 5f 9b b9 2e 83 e3 3a
       0.012423487 -0.0097964965 -0.00029635424 0.001735782
000150 96 cd f6 3a d0 03 40 3b 85 47 4e 3c a8 de fd 3b
       0.001882958 0.0029299147 0.012590294 0.00774749
000160 bb 54 a9 3b 9c db 5e 3b 6d c6 51 3c 86 f2 6d bb
       0.0051675714 0.003400541 0.012803656 -0.0036307885
000170 82 ae a8 ba 2a 31 b6 bb 9a d3 1e bc db 4a 8c bc
       -0.001286939 -0.00556006 -0.009694004 -0.017125538
000180 23 d0 b8 3b 2f d9 0b 3c e0 32 57 3c 0b c1 63 b8
       0.005640046 0.008535667 0.013134688 -5.4300803e-05
000190 60 12 ff b9 f2 98 f3 bb e4 9e fc bb 6c 6d 88 bc
       -0.0004865108 -0.007434004 -0.007709371 -0.016653739
0001a0 ab 00 ee ba e1 85 05 3b cb 9b b4 bb a7 e2 ba bb
       -0.0018158158 0.0020373987 -0.005511736 -0.0057032886
0001b0 50 c4 0a 3c bb 6a ef bb b3 65 3d bc de 51 0b bc
       0.008469656 -0.0073064244 -0.0115598915 -0.008503405
0001c0 35 69 01 bc ff d7 9a bb 7a ed 13 3c ca 2f 48 bc
       -0.0078986185 -0.004725456 0.009028787 -0.012218425
0001d0 b6 8d 9d bb 9d 5a 8a 3c ec 11 95 3b fd 4f a3 3b
       -0.004808153 0.01688891 0.0045492556 0.0049839006
0001e0 64 57 bb 3b 2b f7 8b 3b 4d f0 15 bc 25 79 da bb
       0.005717205 0.004271408 -0.00915153 -0.0066672736
0001f0 b5 b0 43 3b bc 04 e2 3b d1 b2 98 3b c1 87 e2 3b
       0.0029859964 0.006897537 0.0046599885 0.006913156

network_body.observation_encoder.processors.1.self_ent_encoder.seq_layers.0.bias f4 [128]
000000 00 00 00 00 00 00 00 00 00 00 00 00 00 00 00 00
       0.0 0.0 0.0 0.0
000010 00 00 00 00 00 00 00 00 00 00 00 00 00 00 00 00
       0.0 0.0 0.0 0.0
000020 00 00 00 00 00 00 00 00 00 00 00 00 00 00 00 00
       0.0 0.0 0.0 0.0
000030 00 00 00 00 00 00 00 00 00 00 00 00 00 00 00 00
       0.0 0.0 0.0 0.0
000040 00 00 00 00 00 00 00 00 00 00 00 00 00 00 00 00
       0.0 0.0 0.0 0.0
000050 00 00 00 00 00 00 00 00 00 00 00 00 00 00 00 00
       0.0 0.0 0.0 0.0
000060 00 00 00 00 00 00 00 00 00 00 00 00 00 00 00 00
       0.0 0.0 0.0 0.0
000070 00 00 00 00 00 00 00 00 00 00 00 00 00 00 00 00
       0.0 0.0 0.0 0.0
000080 00 00 00 00 00 00 00 00 00 00 00 00 00 00 00 00
       0.0 0.0 0.0 0.0
000090 00 00 00 00 00 00 00 00 00 00 00 00 00 00 00 00
       0.0 0.0 0.0 0.0
0000a0 00 00 00 00 00 00 00 00 00 00 00 00 00 00 00 00
       0.0 0.0 0.0 0.0
0000b0 00 00 00 00 00 00 00 00 00 00 00 00 00 00 00 00
       0.0 0.0 0.0 0.0
0000c0 00 00 00 00 00 00 00 00 00 00 00 00 00 00 00 00
       0.0 0.0 0.0 0.0
0000d0 00 00 00 00 00 00 00 00 00 00 00 00 00 00 00 00
       0.0 0.0 0.0 0.0
0000e0 00 00 00 00 00 00 00 00 00 00 00 00 00 00 00 00
       0.0 0.0 0.0 0.0
0000f0 00 00 00 00 00 00 00 00 00 00 00 00 00 00 00 00
       0.0 0.0 0.0 0.0
000100 00 00 00 00 00 00 00 00 00 00 00 00 00 00 00 00
       0.0 0.0 0.0 0.0
000110 00 00 00 00 00 00 00 00 00 00 00 00 00 00 00 00
       0.0 0.0 0.0 0.0
000120 00 00 00 00 00 00 00 00 00 00 00 00 00 00 00 00
       0.0 0.0 0.0 0.0
000130 00 00 00 00 00 00 00 00 00 00 00 00 00 00 00 00
       0.0 0.0 0.0 0.0
000140 00 00 00 00 00 00 00 00 00 00 00 00 00 00 00 00
       0.0 0.0 0.0 0.0
000150 00 00 00 00 00 00 00 00 00 00 00 00 00 00 00 00
       0.0 0.0 0.0 0.0
000160 00 00 00 00 00 00 00 00 00 00 00 00 00 00 00 00
       0.0 0.0 0.0 0.0
000170 00 00 00 00 00 00 00 00 00 00 00 00 00 00 00 00
       0.0 0.0 0.0 0.0
000180 00 00 00 00 00 00 00 00 00 00 00 00 00 00 00 00
       0.0 0.0 0.0 0.0
000190 00 00 00 00 00 00 00 00 00 00 00 00 00 00 00 00
       0.0 0.0 0.0 0.0
0001a0 00 00 00 00 00 00 00 00 00 00 00 00 00 00 00 00
       0.0 0.0 0.0 0.0
0001b0 00 00 00 00 00 00 00 00 00 00 00 00 00 00 00 00
       0.0 0.0 0.0 0.0
0001c0 00 00 00 00 00 00 00 00 00 00 00 00 00 00 00 00
       0.0 0.0 0.0 0.0
0001d0 00 00 00 00 00 00 00 00 00 00 00 00 00 00 00 00
       0.0 0.0 0.0 0.0
0001e0 00 00 00 00 00 00 00 00 00 00 00 00 00 00 00 00
       0.0 0.0 0.0 0.0
0001f0 00 00 00 00 00 00 00 00 00 00 00 00 00 00 00 00
       0.0 0.0 0.0 0.0

network_body.observation_encoder.processors.2.normalizer.running_mean f4 [2]
000000 cd d9 18 3f e5 d1 0f 40
       0.5970734 2.247186

network_body.observation_encoder.rsa.fc_q.bias f4 [128]
000000 a2 f1 32 3b 9b bf 37 bb be da 00 3b f3 50 a7 bb
       0.002730467 -0.002803779 0.001966163 -0.0051060854
000010 6a 3b c8 3b 47 c2 db bb 25 9d 9a 3a d4 5d a4 bb
       0.0061105983 -0.0067065093 0.00117961 -0.005016068
000020 90 97 1e 39 e9 a0 19 bc cb 57 09 3b 1d ea 29 3c
       0.00015124516 -0.009376743 0.002095687 0.010370758
000030 71 c2 64 3b 3a aa b9 bb a0 c7 2c 3b 7a b7 c2 ba
       0.0034905935 -0.0056660445 0.0026364103 -0.0014855706
000040 2f e4 02 bc 67 98 aa 3b 13 d1 ef ba 7c e6 75 bb
       -0.0079889735 0.005206156 -0.0018296562 -0.0037521413
000050 8e ea 20 3b 09 de 3b bb 3e 84 c6 bb 13 1c dc bb
       0.0024553868 -0.0028666279 -0.006058245 -0.006717214
000060 4a 9b e6 b9 f7 ca 68 bb ac 42 da b6 1a cc b0 39
       -0.00043984718 -0.0035521367 -6.504668e-06 0.00033721403
000070 b6 1e b5 bb 7a 28 2e 3b 7d 3f 1e 3b fe dc 87 3b
       -0.0055273427 0.002657442 0.0024146729 0.0041462174
000080 de 38 86 bb 80 b8 b5 bb 44 75 f0 bb ec c6 78 bb
       -0.0040961346 -0.0055456758 -0.007338198 -0.0037960364
000090 06 99 59 bb f9 da 12 3b 62 d0 88 bb 03 24 df ba
       -0.0033202781 0.002240835 -0.004175232 -0.0017024282
0000a0 36 33 8f bb 53 3d c3 ba 38 a2 a8 3b 42 05 4b 3b
       -0.0043701185 -0.0014895595 0.005146291 0.0030978476
0000b0 81 fd 4a 3b 5a 3e 95 3a 68 f9 25 3c 53 83 c7 ba
       0.0030973854 0.001138638 0.010130264 -0.0015221633
0000c0 40 de 6a 3b 9f 73 56 3b e6 15 18 bb 4b d6 88 ba
       0.0035838038 0.0032722724 -0.0023206412 -0.0010439841
0000d0 2f ee 18 3c 3d 3a 71 bb 58 0e 85 bb 7f af 9f bb
       0.009334131 -0.0036808394 -0.004060548 -0.0048732157
0000e0 83 56 80 3b f9 43 17 bb 84 7a c6 3b 3e a1 1d bb
       0.003916563 -0.0023081286 0.0060570855 -0.0024052407
0000f0 c3 77 0a bc d1 c2 4a 3b a9 8b 62 3b d3 31 c9 b9
       -0.008451405 0.0030938874 0.0034568107 -0.0003837483
000100 fe f0 b0 bb 1b 71 df bb 85 31 c9 ba 42 27 db 3a
       -0.0053998223 -0.006818903 -0.0015349841 0.0016720074
000110 7b 61 85 bb 9c f1 cc bb d6 7e dc bb c1 bc d4 3b
       -0.0040704585 -0.006254388 -0.006728987 0.006492228
000120 d3 2d 82 3b d6 80 d2 3b 3f a2 e5 3b cf 10 a3 3a
       0.003972748 0.00642405 0.0070078666 0.0012440922
000130 9d 0f 16 3c 3e 6f 30 3b d1 3a c1 bb 81 92 af ba
       0.009158996 0.0026921774 -0.005896904 -0.0013395102
000140 34 d1 da 3a af 4d 8f 3b b9 b8 f7 3b 08 06 9d 3b
       0.0016694427 0.0043732743 0.0075598625 0.0047919787
000150 ca 1e 2e bb 2b f7 6f 3b cf d2 e2 bb 62 df 7c 3b
       -0.0026568645 0.003661583 -0.006922103 0.0038585295
000160 dd 2f 01 3c 98 93 ca 3b dc 51 50 bb b7 31 5b 3b
       0.007884947 0.0061821453 -0.0031787073 0.003344638
000170 92 39 c7 3b d0 8e c5 3b 7f f8 ce ba 46 92 c0 bb
       0.006079861 0.0060289875 -0.001579061 -0.005876812
000180 d9 77 6a ba 91 f4 00 bc e9 b0 f8 3b 57 0d 74 bb
       -0.00089442503 -0.007870809 0.0075894487 -0.0037239396
000190 ad 1e f6 bb a7 3b db 3b b9 55 8b bb a2 a1 84 bb
       -0.007510981 0.0066904607 -0.0042521623 -0.0040475884
0001a0 38 00 fb 3b 39 76 dd 3a 36 34 12 3c b2 36 f1 bb
       0.007659938 0.0016896195 0.008923581 -0.0073612565
0001b0 2a 49 e6 bb 94 87 4f bb 66 19 f2 bb 00 e8 fd bb
       -0.007027765 -0.0031666504 -0.0073882816 -0.007748604
0001c0 06 dc 64 3b 77 ad 80 39 84 29 80 bb 58 b1 7a 3b
       0.0034921183 0.00024543304 -0.003911199 0.0038252678
0001d0 17 26 f4 ba 06 4a d4 bb 91 62 d1 3b a5 95 b0 3b
       -0.0018627074 -0.006478551 0.006389924 0.005388933
0001e0 20 8b d3 3b 7e a0 0d 3b 97 26 c5 3b 91 f2 f6 bb
       0.006455794 0.0021610553 0.006016563 -0.0075362404
0001f0 54 b8 df bb c4 1a 1d 3b ff 5f fb bb f0 57 df bb
       -0.0068273935 0.0023972252 -0.0076713557 -0.006815903

network_body.observation_encoder.rsa.fc_k.bias f4 [128]
000000 33 67 ea 31 c0 32 41 b2 63 cc 6d b2 7c 8f 10 b3
       6.8220287e-09 -1.1245618e-08 -1.3841688e-08 -3.365811e-08
000010 4e 82 a6 32 79 c5 88 b3 6d 1f 00 b3 c1 37 11 b3
       1.93842e-08 -6.3689136e-08 -2.9830904e-08 -3.381115e-08
000020 c0 2a 8b 32 8a 7a 19 b3 33 16 86 b2 18 2f 59 33
       1.620117e-08 -3.5734537e-08 -1.5609748e-08 5.056708e-08
000030 cf e9 18 32 d8 66 85 b2 95 e5 85 b2 b4 e7 1c b1
       8.900726e-09 -1.5530006e-08 -1.558764e-08 -2.2832696e-09
000040 c9 2c cc 30 fe eb 46 32 eb 01 73 31 68 f6 eb b2
       1.4855682e-09 1.1578775e-08 3.5362244e-09 -2.7469653e-08
000050 b7 b1 01 33 b1 42 81 b3 56 30 26 2f b5 46 8a b3
       3.0196784e-08 -6.019162e-08 1.5114784e-10 -6.438987e-08
000060 da 95 ee b1 c9 7e 6d b3 42 fd c3 32 c9 ac 0d 33
       -6.943748e-09 -5.5296173e-08 2.2816156e-08 3.2986268e-08
000070 9a b5 28 af 30 74 a1 b1 3b 87 99 2f e9 33 8f 33
       -1.5344029e-10 -4.6989257e-09 2.7926625e-10 6.668399e-08
000080 5c 2c b9 33 66 84 3b 32 90 7f 63 33 7c 88 32 33
       8.622803e-08 1.09149365e-08 5.2968574e-08 4.1567986e-08
000090 b3 de 27 b2 6f 63 7e b1 84 86 af b2 1f 4d c5 32
       -9.771315e-09 -3.7018386e-09 -2.0433852e-08 2.2968889e-08
0000a0 34 50 7d 32 07 ef a8 32 da 71 14 b3 00 ad 99 33
       1.4744774e-08 1.9666471e-08 -3.4562483e-08 7.156086e-08
0000b0 b0 e5 df b3 c6 18 c2 b3 5c 10 25 b3 65 29 c3 b3
       -1.04260266e-07 -9.038335e-08 -3.8431935e-08 -9.087925e-08
0000c0 c6 40 b8 b2 4d 9e 8d b3 41 46 9d 33 2c 69 9a 33
       -2.1449875e-08 -6.594619e-08 7.323661e-08 7.1903145e-08
0000d0 b3 7d e0 b2 85 b4 8f 33 1c 80 bd b3 30 77 75 33
       -2.6134193e-08 6.691793e-08 -8.824301e-08 5.7151908e-08
0000e0 f7 cc 89 33 5f 76 8d 30 4e 37 65 31 0f 5c ac 33
       6.4168425e-08 1.0292743e-09 3.3355323e-09 8.0261195e-08
0000f0 4f 67 c6 33 75 b7 87 b3 de f7 1b b3 c7 bf 40 b2
       9.238885e-08 -6.319798e-08 -3.6314184e-08 -1.1219476e-08
000100 bd 08 7f b2 d5 cb 32 b3 6c 39 83 33 83 81 61 33
       -1.484494e-08 -4.162924e-08 6.110608e-08 5.2504685e-08
000110 b6 3d 0c 33 0f 7a 67 32 7d 2c c2 b1 7c e2 70 33
       3.2652416e-08 1.3473723e-08 -5.651201e-09 5.608534e-08
000120 5f 32 82 33 a6 c3 4a 30 2b c6 b2 33 59 6c 89 32
       6.062759e-08 7.3765205e-10 8.3248175e-08 1.599817e-08
000130 2e 66 5f b2 3c 37 39 b3 81 81 13 b3 03 24 ab 32
       -1.3003541e-08 -4.3123904e-08 -3.4343888e-08 1.9923396e-08
000140 21 95 b7 33 2c 13 b5 b2 e4 cd 31 b3 5d c2 81 b3
       8.548728e-08 -2.1079892e-08 -4.139828e-08 -6.042385e-08
000150 d1 95 fb b3 44 c9 4f 32 90 62 14 33 35 1b 10 b3
       -1.171535e-07 1.2094748e-08 3.4548577e-08 -3.3552357e-08
000160 a9 7c e1 32 6a ab e5 b2 a9 82 8f 32 0f d6 bf 32
       2.6250136e-08 -2.6737059e-08 1.6706808e-08 2.2332669e-08
000170 fa bf 93 32 04 66 59 b3 c2 27 a0 33 ec 70 0e 31
       1.7200353e-08 -5.0617032e-08 7.4578125e-08 2.0727908e-09
000180 29 da 18 34 62 97 ba b4 46 f0 a8 34 d9 07 a7 b4
       1.423547e-07 -3.4755345e-07 3.146726e-07 -3.1111884e-07
000190 e2 9b 5b b4 9c 76 93 34 5b b7 cd b3 1b 53 bc b4
       -2.0452674e-07 2.7467183e-07 -9.5794086e-08 -3.5078196e-07
0001a0 b6 40 95 34 5a 92 7c b3 ca 00 c1 34 45 f3 9c b4
       2.7800496e-07 -5.8806428e-08 3.5949625e-07 -2.9234266e-07
0001b0 79 f9 b8 b4 31 d2 89 b3 c7 6d 76 b4 ad cc 8f b4
       -3.4454186e-07 -6.417793e-08 -2.2950472e-07 -2.6784747e-07
0001c0 fd b3 68 34 df 8e 93 34 97 12 d2 b3 0e 6f e0 b3
       2.1672163e-07 2.7484836e-07 -9.7822685e-08 -1.04510136e-07
0001d0 16 3a 90 b3 46 53 b7 b4 c7 c4 bc 34 1e b6 53 34
       -6.716088e-08 -3.4146996e-07 3.5160903e-07 1.971716e-07
0001e0 c2 64 bd 34 1c 8a 65 b1 a2 9f cf 34 34 24 8d b4
       3.5277304e-07 -3.3402392e-09 3.8672903e-07 -2.6289638e-07
0001f0 39 70 a5 b4 b5 6d e9 33 1a e3 ae b4 ad 1d 72 b4
       -3.0815298e-07 1.08698636e-07 -3.2575264e-07 -2.2548802e-07

network_body.observation_encoder.rsa.fc_v.bias f4 [128]
000000 25 3d b5 bb 57 b8 8a bc 3a ee 27 3c f0 0a 06 bc
       -0.0055309706 -0.016933603 0.010249669 -0.008181319
000010 bc 64 57 bc 43 22 6a bb 8e 7f 1f bc ea 07 32 bc
       -0.013146576 -0.0035725988 -0.009735001 -0.010866145
000020 bc 0f d1 bb 91 d2 5e ba ff 08 e6 ba fa dd 62 3c
       -0.0063800495 -0.0008500005 -0.0017550288 0.013846869
000030 f8 47 ed 3b e4 3a b3 3b fa 49 63 3b b2 93 1b 3c
       0.0072412454 0.005469667 0.0034681545 0.0094956625
000040 f6 e2 84 bb b5 df 06 3c 44 74 1c 3c d6 d1 29 bc
       -0.004055376 0.008232047 0.009549204 -0.01036497
000050 11 2c 07 3c 2c 03 0f 3c 0b 78 17 bc 82 80 80 3b
       0.008250252 0.008728784 -0.009244929 0.0039215693
000060 be 3d 6b bb c2 76 3e 3c 05 2a 39 bb da 10 08 bc
       -0.0035894956 0.011624994 -0.0028253805 -0.008304799
000070 10 fc 3a bc a3 1b 48 3c 89 49 81 3c 48 58 81 3c
       -0.011412635 0.01221362 0.015782135 0.015789166
000080 57 32 22 3c 4f 83 8e bb ca 38 c8 3b 73 2b 4b bc
       0.009899697 -0.0043491493 0.0061102854 -0.012400496
000090 64 4f 13 bc 68 80 1e 3c 3d 2a 96 b9 d5 6b 3b 3c
       -0.008991096 0.009674169 -0.000286417 0.011439283
0000a0 e7 8f 56 bb 49 b2 1d 3c 97 43 26 bc fd ec e5 bb
       -0.003273958 0.009625026 -0.010147951 -0.0070167766
0000b0 06 7d fe 3b 7e 22 f4 39 77 34 2d bc 6f 21 1f bc
       0.007766369 0.00046565005 -0.010571591 -0.009712561
0000c0 34 21 2e bc 40 02 4c 3c 21 51 5b bb fb 5c 9d bb
       -0.010628033 0.012451708 -0.0033465105 -0.004802344
0000d0 4f f5 42 3c 1d 6b 9e bb 7e 91 2e bc 3a a2 16 bc
       0.011899306 -0.0048345462 -0.010654805 -0.009193951
0000e0 0e 63 b9 3b fb d5 1e 3b 6d a0 8a 3c 91 7a 11 bc
       0.00565756 0.002423643 0.0169222 -0.00887932
0000f0 ba 11 15 3c f7 c1 5e 3c 9a 3f 0f bc 49 f1 33 3c
       0.009098465 0.0135960495 -0.008743191 0.01098282
000100 3a d8 24 3a 3e fb 3d bc d3 3f 24 3c 84 eb 07 bc
       0.0006288324 -0.011595545 0.0100249825 -0.008295897
000110 2d 96 61 bc 8a b5 31 3c b3 3b 13 bc 94 69 48 3c
       -0.013768715 0.010846505 -0.008986401 0.012232203
000120 d2 b8 07 3c 7b 14 47 3c 72 c4 d1 3b 20 cd d6 3b
       0.008283811 0.012150879 0.006401592 0.0065552145
000130 3d 4b e2 3b 83 90 43 3c b6 66 1d 3c 67 44 e7 3b
       0.0069059418 0.01193631 0.009607008 0.0070577147
000140 b8 82 66 3c 98 b5 1c 3c 98 40 21 3c e2 f5 18 bc
       0.014069252 0.00956478 0.0098420605 -0.009335967
000150 d9 c6 1e 3c 9f 9c 5e bb 96 37 c2 bb 18 92 2f bc
       0.009690964 -0.0033967865 -0.0059270365 -0.010715984
000160 a2 2f 23 3c 8c 18 0e 3c 66 ca 9f 3b 53 22 af bb
       0.009960087 0.008672845 0.0048764227 -0.005344668
000170 f0 44 5f 3c 91 9d 5a 3c 4d a6 25 3c e2 82 54 bc
       0.013627276 0.013343231 0.01011045 -0.012970658
000180 d4 e6 cc 3b f7 a5 13 bc ac b3 3e 3c bc 51 1f 3c
       0.006253103 -0.009011737 0.011639517 0.009724077
000190 4c 1e cd b9 7e 8d 56 bc c0 77 0c bc d4 b6 27 bc
       -0.0003912322 -0.013095258 -0.0085734725 -0.010236461
0001a0 30 fa 2a 3c 0f 98 dc 3b 2a 76 13 bc 22 45 4b bc
       0.010435626 0.006731994 -0.0090003405 -0.012406619
0001b0 86 ec 0b 3c 55 24 7e 3c f5 4f 5f 3c e3 75 22 3c
       0.008540278 0.015511592 0.013629903 0.009915802
0001c0 35 13 56 3c 62 ed 46 bc b7 71 2f bc 93 4a 27 3c
       0.013066103 -0.012141557 -0.010708264 0.010210651
0001d0 d8 ec 58 3c d9 f3 44 3b bb 04 60 3c e2 58 6e bc
       0.013240062 0.003005257 0.013673003 -0.0145475585
0001e0 4a 7a 25 3c 6d 9e 51 3c f8 64 92 bb 6a 53 5b bc
       0.010099957 0.012794119 -0.004467603 -0.013386587
0001f0 59 5a f6 3b 4b 37 85 bc 10 fc 5e 3c 6b 3d e7 ba
       0.0075180945 -0.016261717 0.013609901 -0.0017642205

network_body.observation_encoder.rsa.fc_out.bias f4 [128]
000000 10 c4 f8 bb 1f 7e 4c ba 40 3f 94 bb 91 a4 dd 3b
       -0.007591732 -0.0007800776 -0.0045241416 0.0067640026
000010 23 e3 22 bb ae 7d 4f 3b 46 49 c7 3b f3 9d cb bb
       -0.0024854622 0.0031660604 0.006081733 -0.0062138974
000020 13 99 b9 bb 2a 76 2d 3c 19 1c 1a 3c 4f fe 47 bc
       -0.005664 0.010587255 0.009406113 -0.012206628
000030 7b 2d ae bb d7 67 ef 3b c8 fe 9d 3a 41 d4 b1 3b
       -0.0053154803 0.00730608 0.001205408 0.005426914
000040 d7 eb 3f bc 57 86 4e 3a da 62 c3 3b 97 cb ae bb
       -0.011713943 0.00078782946 0.0059627118 -0.0053343284
000050 1d 63 e2 3b e0 29 ae bb 73 f0 99 ba 78 fc c0 3b
       0.006908788 -0.0053150505 -0.0011744633 0.0058894716
000060 a4 68 f7 3b 98 24 38 3c 1c b5 08 bb 6f 64 21 bc
       0.007550316 0.011239193 -0.0020859903 -0.009850605
000070 c8 37 53 bb 0a 3d 2a 3b 37 25 52 bb ba 64 cf 39
       -0.0032229293 0.0025976324 -0.0032065639 0.00039557164
000080 a3 54 99 ba 99 42 17 bc d8 e7 39 3b d6 dc 0f bb
       -0.0011698197 -0.009232187 0.002836695 -0.0021951697
000090 6b 9c 13 bc c3 d9 41 3c 8b 7c cd bb 87 75 7d 3c
       -0.009009461 0.011831704 -0.00627095 0.015469915
0000a0 71 8e 97 bb e9 f5 b2 bb 8e 14 34 bc 21 d5 aa bb
       -0.0046251346 -0.0054614437 -0.010991229 -0.005213395
0000b0 70 71 60 3b a4 b1 03 3c 4b bc 63 bb 8d 28 76 bb
       0.0034247302 0.008037958 -0.0034749683 -0.0037560791
0000c0 62 08 49 bc a8 5c 99 3c 5b 20 67 ba a2 58 16 bc
       -0.012270065 0.01872094 -0.0008816772 -0.009176405
0000d0 56 62 0f bc 47 f3 0c bb 5c 5d fa 3a 23 c0 46 3c
       -0.008751472 -0.002150731 0.001910131 0.01213077
0000e0 44 9a 22 3c 4c e1 a7 3b 10 ac 0a 3c 0e 66 02 3c
       0.009924475 0.005123293 0.008463874 0.007958902
0000f0 bb eb a7 3a 09 50 ee 3b 4d 02 e1 39 00 0f 24 bc
       0.0012811342 0.0072727245 0.00042917058 -0.010013342
000100 8d 15 91 bb 3c c7 5c bb 58 f0 e2 3a 59 fa 3e bb
       -0.004427618 -0.003368809 0.001731406 -0.0029140918
000110 05 af d5 bb 45 97 9e bb 79 18 09 3b 20 fa 4a 3c
       -0.006521108 -0.00483981 0.0020919128 0.012388736
000120 54 cf 15 3c a2 ac 12 bc 14 70 91 bb 7f 53 9c bb
       0.009143669 -0.008952292 -0.0044384096 -0.0047706957
000130 63 24 fa 3b c5 25 3c 3c 1b 45 62 bb 12 c7 55 3b
       0.007633732 0.011483614 -0.0034526053 0.0032619876
000140 01 37 84 3b 7a 85 01 bb 2c 21 5d b9 12 31 94 bb
       0.0040348773 -0.0019763396 -0.0002108856 -0.004522451
000150 0e 8d b3 3a a6 b3 00 3c 52 7c 8c ba 40 60 a3 3b
       0.0013698654 0.0078553315 -0.0010718203 0.004985839
000160 cd db de 3b d9 8f de 3b 97 86 5d bb 40 46 e8 bb
       0.0068011046 0.0067920503 -0.0033802146 -0.0070884526
000170 37 1e b3 ba 6b 6b 96 bb 25 68 6f bb e1 a4 7f bc
       -0.0013665621 -0.004590442 -0.003653058 -0.015603275
000180 4e 09 93 bb 8a f7 15 bc 6e 3c b3 39 87 15 85 bb
       -0.004487193 -0.009153256 0.00034186564 -0.004061404
000190 9b 53 cd 3b c4 0f e3 bb 64 94 83 3b d4 a6 07 bc
       0.00626607 -0.0069293696 0.0040154923 -0.008279521
0001a0 d4 c5 9c bb 2e 9f da ba e9 d6 0a 3c 8f f9 11 3a
       -0.004784325 -0.0016679519 0.00847409 0.0005568498
0001b0 9f d3 05 bc 4b a9 11 bc 2c b8 2c bc 28 57 f1 b9
       -0.00816813 -0.00889046 -0.010541957 -0.00046032039
0001c0 3e 66 d5 bb 1a f5 24 bc f8 9e c3 3b 66 f5 eb bb
       -0.0065124324 -0.010068202 0.0059698783 -0.0072008846
0001d0 62 34 47 3c 44 1b db 3b e7 af 19 3c 3a 12 65 3b
       0.012158485 0.0066866 0.009380317 0.003495349
0001e0 59 7c 04 bb 7b ef 34 bb 38 d8 0d bc 49 72 0e ba
       -0.0020215719 -0.0027608562 -0.008657508 -0.00054339
0001f0 11 f0 5b bb 7c dd 64 bb 15 ed 2a bb 9e b3 1f ba
       -0.0033559839 -0.0034922054 -0.0026081253 -0.00060921337

network_body.observation_encoder.x_self_encoder.seq_layers.0.weight f4 [128, 2]
000000 44 71 34 bd 6c 1a 81 3b 12 88 32 3c 8c d6 1b 3d
       -0.04405333 0.0039399173 0.0108966995 0.038046405
000010 4b d2 ee bc b1 90 df 3b 51 0d 6f 3d 04 2d 1b 3d
       -0.02915301 0.0068226685 0.05836231 0.037884727
000020 78 60 ff bc 64 a5 2a bd 67 b2 94 bd e5 90 54 3d
       -0.03117393 -0.041661635 -0.0726059 0.051895995
000030 8d 71 4e bc 68 9f 47 3d 39 5a d2 3b 64 a3 3c 3d
       -0.012600315 0.048736006 0.006419447 0.04605426
000040 0c 03 eb bc c8 35 43 bb dd 6d 47 3d cf c8 57 3d
       -0.028687976 -0.0029786695 0.04868876 0.05268174
000050 b7 db 25 bc 5b 98 d4 3c 06 96 38 3c 45 03 89 3c
       -0.010123185 0.025951555 0.011266237 0.016725192
000060 14 03 43 bd ee b7 40 3d a4 09 e7 bc 57 65 ad 3d
       -0.047610357 0.04705041 -0.02820284 0.08466595
000070 18 76 b9 3c 1b d7 9a bc b4 ce 23 3b e0 30 5d 3d
       0.02263932 -0.018901398 0.002499503 0.05400169
000080 b9 b2 8f bc ef 7b f5 bb 56 0c f6 3c 8d 8a 97 bd
       -0.017541276 -0.0074915807 0.03003518 -0.07399473
000090 8a 1b 13 3d aa b6 00 3d 87 7c 00 3d cc 3a 9e ba
       0.035914935 0.031424202 0.03136876 -0.0012071966
0000a0 97 23 0b bb a3 43 d0 bc 1a 5c 0f bc 61 41 ac 3c
       -0.002123093 -0.025422877 -0.008749986 0.021027269
0000b0 4a 57 b5 bc f9 c3 7d 3c ca 50 ab bc c1 6f e2 ba
       -0.02213635 0.015488618 -0.020912547 -0.0017275737
0000c0 a1 09 28 bc de f5 ac 3d 01 5e ba 3c 96 41 63 bd
       -0.010256202 0.08445333 0.022749903 -0.05548247
0000d0 a2 83 12 3d 6b ba 76 bd 9d d4 25 bd 30 f8 5a bd
       0.035770066 -0.060236376 -0.040485967 -0.053459346
0000e0 5e 1e b7 bb 13 72 47 bd f8 af 29 3d b0 7e 1f bd
       -0.005588337 -0.048692774 0.041427583 -0.038939178
0000f0 3f 3a 3f 3b 27 db 6f 3d a7 4b 83 3c 7d ef c6 3c
       0.0029179004 0.05855861 0.016027285 0.024284119
000100 bf a4 3c bc c5 55 00 3d 30 54 1e 3d f0 92 f0 bc
       -0.011513888 0.031331796 0.038654506 -0.02936694
000110 aa 9a ec bc ee 2b f4 bb 44 db 9d 3c 22 23 92 3c
       -0.028882343 -0.007451526 0.019269593 0.017839018
000120 3b e7 10 3d 44 46 0d bd 7d 22 cd bc 2d 62 61 bc
       0.03537677 -0.03449084 -0.02504086 -0.013756317
000130 bf 9d 7c bd ef 5b 06 3b 18 95 a5 3c f5 c9 a4 3c
       -0.061673876 0.0020501574 0.020212695 0.020115832
000140 5d 05 21 3d 41 31 e7 3c 8c 53 79 ba 0b 54 0f 3d
       0.039311755 0.028221728 -0.00095110456 0.03499226
000150 98 5f 04 bc a5 5a ef 3b e8 41 31 3d 59 7e ce 3c
       -0.008079432 0.007304507 0.043275744 0.025206732
000160 61 30 20 3c 08 73 75 bd 27 6a b2 bc c5 b8 1d 3c
       0.009777159 -0.059924155 -0.021779133 0.009626572
000170 58 6b 02 3d f8 01 9a bc a0 d1 63 bd fb f8 f3 3b
       0.031840652 -0.018799767 -0.055619836 0.0074454523
000180 ca d9 7b 3b d5 83 96 3c 2d de 3a 3d 9c 06 a5 3c
       0.0038429373 0.01837341 0.04562204 0.020144753
000190 a7 d5 56 bd 48 4c 70 3b cb c8 be bd f9 6b be bb
       -0.05244985 0.003666656 -0.09315642 -0.005811211
0001a0 a5 81 4c 3d 73 a1 8d bc f2 ff 9a 3d b1 88 90 3d
       0.049928326 -0.017288899 0.07568349 0.07057322
0001b0 70 38 fb 3b c7 6c 92 bc 39 35 74 bb 6c 9f be 3d
       0.00766664 -0.017874135 -0.0037263168 0.09307751
0001c0 28 d5 5e 3c f2 f5 31 3d c5 0a 44 3d ab 96 1d bd
       0.013600625 0.043447442 0.047861833 -0.038473766
0001d0 29 83 c3 bc 61 fe 01 3b 05 26 0c bd 64 e1 c9 3b
       -0.023866253 0.001983546 -0.034215946 0.006160902
0001e0 ce 88 5e 3d 38 a6 5b 3d 8e a1 73 3d c3 10 09 bd
       0.054329686 0.053625315 0.059480242 -0.03346325
0001f0 8c 20 d9 3c ed 9e 20 bc 79 56 a1 bc 02 18 53 3d
       0.026504777 -0.009803516 -0.019694554 0.051536568
000200 b0 d0 6c 3c d1 fa 6b bc ce 38 6b 3d 49 82 c8 bc
       0.014454052 -0.014403061 0.05742722 -0.024476187
000210 bf 23 93 3c 14 26 bb bb 85 ad a8 3c d7 3e ef 3c
       0.017961381 -0.0057113264 0.020590553 0.029204769
000220 3d 3b 5d bc fd 4b ef 3c f0 4a b4 3c 1f 1d a2 bd
       -0.013502893 0.029211039 0.02200839 -0.07915711
000230 81 88 e0 bb 44 aa 09 3d 85 6f a9 3c f6 dd f5 bb
       -0.00685221 0.033609644 0.02068306 -0.0075032664
000240 69 7a 92 bc 17 19 1c ba 7f 5f 43 bd 50 3d ae 3b
       -0.017880635 -0.00059546664 -0.047698494 0.0053173676
000250 21 41 f1 3c 55 52 7d 3c 89 28 b1 3c 6c 39 53 3d
       0.029450001 0.015461524 0.021625774 0.051568434
000260 34 4c 84 3d 91 ea 9d 3d d8 84 ed 3c 29 53 90 bc
       0.06459847 0.077107556 0.028994009 -0.017617779
000270 c1 5b 43 3d 41 d1 8e bd 75 bb db 3c d8 bb 07 3c
       0.047694925 -0.06973506 0.026822785 0.0082845315
000280 83 e0 e8 bc bf 0a 24 3c 3d 1d ee 3b 97 b7 2d bd
       -0.028427368 0.010012328 0.007266669 -0.042411413
000290 57 f6 70 bc 9d e2 bb 3c 49 64 19 ba d7 a4 5b bd
       -0.0147071695 0.022935206 -0.00058514305 -0.053624
0002a0 1f a1 e6 3c 11 2e 78 3d 3a e3 81 3d ae 21 15 bc
       0.028153 0.060590807 0.06342168 -0.009102268
0002b0 ae 3d a0 3c 1a 15 b5 bd 9f f0 b9 bd 49 98 cb 3b
       0.019560661 -0.088419154 -0.09079098 0.006213222
0002c0 bf cc f1 3c 0d 89 c1 3c 53 d2 84 3d 7b 5e 7f 3b
       0.029516576 0.023624921 0.06485429 0.0038966227
0002d0 96 f9 0a 3d f2 b2 ee bb 49 69 ae 3c ac b1 39 ba
       0.03392943 -0.0072845155 0.021290438 -0.0007083665
0002e0 ea da 77 3c 20 65 ab bc 70 02 7d bc c8 a8 66 3d
       0.015127877 -0.020922244 -0.015442476 0.056313306
0002f0 79 71 5f b9 2d d4 59 bd c6 0d 2d bc 55 ab ce 3b
       -0.00021309209 -0.053180862 -0.010562366 0.0063070455
000300 e9 8d b9 bc 00 a0 92 3d ea 0d de bc 6f 42 e6 3c
       -0.022650676 0.07159424 -0.027106244 0.02810785
000310 b4 e9 54 3b 03 81 a2 3d 36 8b 8c bc 57 56 29 bd
       0.003248793 0.07934763 -0.017156225 -0.041342106
000320 ec 6b 8e 3d 58 d0 08 bd ce d9 67 bc a4 9f 79 3a
       0.06954178 -0.033401817 -0.01415105 0.00095223845
000330 1c e0 70 bd 12 7f dc bc f0 db 12 3c 77 15 23 bd
       -0.058807477 -0.02691606 0.00896357 -0.039815392
000340 40 e9 a3 3c 23 a8 39 bd 7c fa 0f 3d 5b 1d 49 bd
       0.020008683 -0.045326363 0.03515099 -0.04910026
000350 e4 e9 71 3d 55 84 84 3c 4a ea 47 3a aa 02 42 bb
       0.059060946 0.016176382 0.00076261593 -0.0029603639
000360 a2 58 b4 bc 64 72 90 3c 20 5a 92 3c eb 9e cb 3c
       -0.02201492 0.01763267 0.01786524 0.024856051
000370 b2 0b 5e bd 27 83 ce bb 14 17 ad 3b b1 ce b1 bc
       -0.054210372 -0.0063022557 0.005282292 -0.021705003
000380 c0 d4 6b bc 8c 5a 6f 3b f4 52 80 3b 7a 30 44 bd
       -0.014393985 0.0036522476 0.003916139 -0.047897793
000390 80 86 a3 3c be af 99 3c ec 75 62 bd 31 be 3c bd
       0.019961596 0.018760558 -0.05528824 -0.04607982
0003a0 fe 29 30 bc 61 67 f3 3c b5 21 af 3c ed 6d 5e bd
       -0.010752199 0.02971238 0.021378377 -0.054304052
0003b0 9a 10 3b bd 93 72 dd bb ec 09 6a 3c 25 cf c3 3c
       -0.04567013 -0.006758043 0.014284592 0.023902485
0003c0 7c 55 e6 3c 2e 47 0d 3d ac 08 b0 bb 66 f7 1b bd
       0.028116934 0.03449171 -0.0053721275 -0.038077734
0003d0 27 64 07 3d 14 91 c7 3c 59 aa 9b 3d f8 08 37 3d
       0.033054497 0.02436117 0.076008506 0.044686288
0003e0 e2 22 55 3a c4 d8 11 3c 1e cb 7a bc 2c 40 12 bc
       0.0008130503 0.008901779 -0.015307216 -0.008926433
0003f0 d7 17 88 3b 8b e9 e3 3c f6 36 21 bc c3 23 20 3d
       0.0041532326 0.027821323 -0.009839764 0.039096605

network_body.observation_encoder.x_self_encoder.seq_layers.0.bias f4 [128]
000000 b4 b0 4d bc 3c 21 ee 3b fb 2e 98 3b 48 44 a8 bb
       -0.012554336 0.0072671454 0.0046442724 -0.005135093
000010 b7 24 09 3c d7 ec 3e bc c5 a0 63 bb 67 ea 66 bc
       0.00837057 -0.011653147 -0.0034733277 -0.014093972
000020 35 92 67 3c 3c 95 62 bc dd f6 4b bc 21 a8 8b bc
       0.01413398 -0.013829526 -0.0124489935 -0.017047944
000030 b7 5d 4c bc f4 be 5b bc 5d 8f b1 3b bb 69 3b bc
       -0.012473515 -0.013412226 0.0054187016 -0.011438782
000040 1a af de bb 66 c9 68 3c 3d 69 16 3c 9c 0a 2b 3c
       -0.006795776 0.014208173 0.009180364 0.010439541
000050 83 35 a3 3c 8f da 1a bc 52 d5 4e 3b 35 57 eb bb
       0.019922977 -0.0094515225 0.0031560254 -0.0071820267
000060 3b 90 95 bb 4f 7b ec 3b cf 6a cc bb 25 e4 c1 3c
       -0.0045643128 0.007216848 -0.0062383185 0.023668358
000070 8e ac b3 bb f5 c0 21 3c c7 12 26 ba d0 76 3e 3b
       -0.0054832166 0.009872665 -0.00063351955 0.0029062517
000080 4a fd 97 bb c0 ab 0e 3c 51 2a 07 bb ec b3 9b 39
       -0.0046383487 0.008707941 -0.0020624588 0.00029697956
000090 a8 5c 01 3c 56 79 91 ba 50 37 61 ba 1b 8e f8 3a
       0.007895626 -0.0011098783 -0.0008591311 0.0018963249
0000a0 e1 98 18 bc 47 54 bd bb 7a 39 2a bc c7 e5 ae bb
       -0.009313793 -0.005777869 -0.01038968 -0.00533745
0000b0 38 6e 01 3c 6b 0c 19 bc 0e 31 2f 3c bc 30 09 bc
       0.007899813 -0.00934134 0.010692848 -0.008373436
0000c0 ad 06 2f bc ab 32 93 ba ed 60 f0 39 70 6d c2 3a
       -0.010682744 -0.001123031 0.00045848583 0.001483364
0000d0 36 e8 29 bb b1 1a 18 bc 88 d8 d7 3b ed 55 9b bc
       -0.0025925762 -0.0092837075 0.006587092 -0.018961871
0000e0 96 96 42 bc 8b 4f 52 3c 46 bf f6 bb 1b 03 67 bc
       -0.011876723 0.012836347 -0.007530126 -0.0140998615
0000f0 d9 0c 41 bc e7 b7 2a 3c 71 96 8d 3c 27 50 22 bc
       -0.011782848 0.010419822 0.01728365 -0.009906805
000100 1b ce ec 3b 96 bf 19 3c 64 f7 9c b8 7d af 3e bc
       0.007226718 0.009384057 -7.48474e-05 -0.011638519
000110 b1 33 4e bc 0b d8 64 3c 73 c0 1b bc 66 ee e4 ba
       -0.012585566 0.013967524 -0.009506333 -0.0017466068
000120 5f 9d f2 bb 6a 26 ea ba cc 7c 00 bc 2d 05 b8 bb
       -0.007404014 -0.0017864231 -0.007842254 -0.0056158514
000130 fd a4 93 ba 5a 53 34 bc ce 73 1a bb 2a a9 91 ba
       -0.001126438 -0.011006201 -0.002356756 -0.0011113037
000140 fd a9 d4 bb ff 22 3d 3c 72 0f 7a 3c 6c 5e 77 3c
       -0.0064899907 0.011543988 0.0152624715 0.0150981955
000150 35 44 50 bc 7a e3 36 3c 5a 1d 94 3b b6 44 21 bc
       -0.012711574 0.011162633 0.0045201005 -0.009843042
000160 c7 98 82 bc a9 48 49 3b 52 8c 4c 3c 83 f0 f4 3b
       -0.01594199 0.0030713475 0.012484627 0.0074749603
000170 e8 50 0e 3c 96 62 3a bc 28 13 56 3c 07 29 11 bc
       0.008686282 -0.011376044 0.013066091 -0.008859879
000180 9b b0 54 bc d3 ab 71 bc 0c cd ac bb 1d d6 45 3c
       -0.012981559 -0.014750439 -0.005273467 0.012074974
000190 5c f9 03 3c 32 fa dc bb db 3c 66 bb de 6d f4 3b
       0.008055057 -0.006743693 -0.0035131488 0.0074593863
0001a0 e0 d3 3c 3c e0 56 92 ba 7c f8 2d bc e7 3d df b9
       0.011525124 -0.0011164807 -0.010618325 -0.00042579995
0001b0 e6 c0 2d bb 57 d5 ec bb 55 81 78 bb bf 1f 2b 3c
       -0.0026512682 -0.0072275805 -0.0037918885 0.010444581
0001c0 a8 5e 5a bc 61 7f 61 3c 14 a9 83 bc d2 89 2f 3c
       -0.013328232 0.01376328 -0.016071834 0.010714011
0001d0 f7 31 93 bb 5d 2d 60 3c 3c 01 e4 bb 2e 3b fc 3a
       -0.0044920403 0.01368269 -0.006958155 0.0019243711
0001e0 d0 cd da bb 26 ce 4a 3c af 9a ca ba 5b 0b b0 3b
       -0.006677367 0.012378251 -0.0015457476 0.0053724474
0001f0 f3 18 5a bc 5d c1 82 bb ad cc 2e bc 7d b4 28 bc
       -0.013311612 -0.003990336 -0.010668916 -0.010296938

network_body._body_endoder.seq_layers.0.weight f4 [64, 130]
000000 53 71 34 3d ff 45 2f 3e 09 19 96 bb 25 7f 62 bb
       0.044053387 0.17116545 -0.004580621 -0.0034560647
000010 f9 42 9d 3c 96 3e 85 bc 7a ee 8e bc 44 7d cd 3d
       0.019196974 -0.016265195 -0.017447699 0.10033658
000020 81 43 dd bb df 9c 52 bd c1 37 4d bd 51 89 2e 3e
       -0.006752432 -0.051419135 -0.050102 0.1704457
000030 c2 65 1a 3e 2b 2e 16 be 74 89 0b 3e 39 a8 5a 3e
       0.1507788 -0.14666049 0.13626653 0.21353234
000040 06 ac 52 bd ec ab e6 bd fa 01 ac bb 59 d7 05 3e
       -0.051433586 -0.1126326 -0.005249259 0.1307043
000050 c2 08 bc bd da 47 d5 bc 77 c8 ec 3d 17 6f 71 3d
       -0.09181358 -0.026035238 0.11561673 0.058943834
000060 39 98 b8 bd 12 3f ac bd 0c af 0c 3e 73 12 ca 3d
       -0.09013409 -0.08410467 0.1373865 0.098668
000070 cb 7c 9a 3d 2a 8b 64 be e8 1a 2f be a7 55 2d bd
       0.075433336 -0.22318712 -0.17100108 -0.042318013
000080 18 71 92 bd 09 0f 88 3d ad f7 4b 3d 50 22 db bd
       -0.07150477 0.06643493 0.04979675 -0.10699904
000090 91 13 d5 3b a4 10 c5 bd a0 72 e1 bb e4 9d 94 3d
       0.0065025766 -0.096223146 -0.0068801194 0.07256678
0000a0 f6 d6 a5 bc c1 a4 1b 3e 6f 4d 21 bd 7d 3e 71 3d
       -0.020244103 0.15199567 -0.039380487 0.058897484
0000b0 96 ea c4 bd b4 a0 be bd c9 db 9d 3d fb f2 4a bb
       -0.09615056 -0.093079954 0.07707936 -0.0030967582
0000c0 a9 01 4c bd 8c 84 91 3d d9 10 0e bd 04 de a4 3d
       -0.04980627 0.071053594 -0.034684036 0.080501586
0000d0 40 41 3d 3d 86 c5 bf bc 10 29 b1 bc b4 f0 c4 bd
       0.046204805 -0.023409616 -0.021626025 -0.09616223
0000e0 cd c9 6a 3b 51 1c 0b 3d 45 41 72 3d 4f 15 dc 3d
       0.003582585 0.03396255 0.059144277 0.10746252
0000f0 ef 71 69 bd 47 d8 ab 3d 70 58 a2 3d 6c 2e 3e 3d
       -0.05699342 0.08390861 0.07927024 0.04643099
000100 d7 12 80 3c 4b 3b 89 bd e6 80 ec 3d 01 c2 b7 bd
       0.015633984 -0.06700762 0.11548023 -0.0897255
000110 89 62 05 3d b1 e6 13 3e f9 16 89 bd f6 56 47 3c
       0.032564674 0.1444347 -0.06693835 0.012166729
000120 85 07 02 bc 87 9a a1 3b 48 9a 02 3d ac fe 70 bd
       -0.007936363 0.004931751 0.031885415 -0.058836624
000130 e9 15 a7 3c 65 3c 42 bd b0 54 ea bc 3a 4b cc 3d
       0.02039619 -0.047420878 -0.028604835 0.09975286
000140 47 e0 9e 3d 96 97 9f 3c 22 f6 a8 3d fb 5d 30 bc
       0.07757621 0.019481461 0.08250071 -0.010764594
000150 63 eb 08 3d 89 ef 92 bd 9a 73 fb bd 31 03 0c be
       0.033427607 -0.07174594 -0.122779086 -0.13673092
000160 2f fd 1a be 40 f6 31 3b 0b 6f d8 3d d4 bc f2 bc
       -0.15135644 0.0027154833 0.10568055 -0.029631056
000170 e4 41 9c bd 91 e4 3c bd 45 39 1f be b1 bd 51 be
       -0.07629755 -0.046116415 -0.1554919 -0.20482518
000180 0e 2b 49 3d d8 e4 54 be ca 5e b1 bd db aa 8b bd
       0.049113326 -0.20790422 -0.08660658 -0.068196975
000190 b8 19 c5 3d ca ac 93 3d 04 ef 24 3d 3c ab 1c bd
       0.09624046 0.07210691 0.040267006 -0.03824924
0001a0 d7 30 fe bb 98 9b 29 bd cf a1 d8 bc ba 9f 46 3d
       -0.007757287 -0.04140815 -0.026444344 0.04849217
0001b0 6c 6b c3 3b 9c 68 73 bb d5 41 49 bd 38 d1 20 3d
       0.0059637334 -0.003714121 -0.049135048 0.039262027
0001c0 98 77 1a bc 1d 7e 9f bc 8f 54 41 3d e5 8a 5c be
       -0.009427927 -0.019469315 0.047199782 -0.21537359
0001d0 68 22 79 3d 9f c5 82 3c f5 72 7b 3d 17 76 67 3c
       0.060823828 0.015963374 0.06138893 0.014127276
0001e0 7e 2a 18 bd 07 70 c8 3b 4a a7 6c 3d bb 6e 7b bb
       -0.0371499 0.0061168703 0.057776727 -0.003836556
0001f0 6c 7f 75 3d d0 b4 15 3d d2 c4 c3 bc fd 61 90 3d
       0.059935972 0.03654939 -0.023897562 0.0704994
000200 e4 b8 e3 bc 4e 00 92 3d a3 01 c4 3d 66 db db bb
       -0.027798124 0.07128964 0.09570625 -0.006709504
000210 d3 e8 b2 bd 76 92 28 3d b4 f3 e7 3d 78 01 df bb
       -0.08735814 0.0411553 0.113257796 -0.006805595
000220 b8 6f 8f 3e f0 60 9d bd 78 73 f8 bd 1b 3a d8 3a
       0.28014922 -0.07684505 -0.12131399 0.0016496809
000230 c2 fb cd 3c 31 4a c6 bc e3 31 42 3d 54 8f 1d bd
       0.025144462 -0.0242053 0.047410857 -0.038466766
000240 0e 2f 42 3d fc b9 e2 bd 2e 91 96 bc ea b5 1e 3d
       0.047408156 -0.1107063 -0.018379774 0.038747706
000250 16 18 d3 3c 84 4d d1 3d 36 59 6d bd f0 82 35 bc
       0.025768321 0.10219863 -0.057946406 -0.011078581
000260 8a fb 27 be 6c ca 41 3d 1a a1 a0 bd 6a e7 c3 bd
       -0.16404548 0.047312185 -0.07843228 -0.09565623
000270 27 36 c6 bd 6b ad c2 3b 9b 19 79 bc 42 81 12 3e
       -0.096782975 0.005941083 -0.015203859 0.1430712
000280 ef 1d e3 bd 90 e2 98 3a 6c 48 9b 3d 6a 7d 0c 3e
       -0.11089694 0.00116642 0.07582173 0.13719717
000290 03 2e a1 bc ea 2e 1f 3b 9e d6 8c 3d 96 ab 24 bd
       -0.01967526 0.0024289438 0.068768725 -0.0402027
0002a0 43 4c 74 bd 36 06 43 3d 69 83 b0 bc dc 42 b7 bd
       -0.05964304 0.047613345 -0.021547036 -0.08948299
0002b0 7b 8c f0 3d 23 b3 f6 3d c8 74 08 3e 15 2f d0 3d
       0.117455445 0.12045886 0.13325799 0.1016523
0002c0 18 b5 ef bd f7 ea 93 3d 58 d4 5f 3c 8d 6d 1e 3d
       -0.11704463 0.0722255 0.013661467 0.038678695
0002d0 1e fa 17 bc 49 da 3d bc a6 26 91 bd 1b bb 3c bd
       -0.009275941 -0.011587688 -0.0708745 -0.046076875
0002e0 0f ec 73 3d 0f 36 12 3e b0 5d 80 bc 88 d0 8a bd
       0.059551295 0.14278434 -0.015669674 -0.067780554
0002f0 30 47 bf 3d f4 d8 20 3d 20 a4 a1 bd f2 e0 43 bc
       0.0933975 0.039269403 -0.078926325 -0.011955487
000300 19 77 0f 3e aa 2b e1 bd 5c 25 28 bd db 80 8c 3a
       0.14010276 -0.109946564 -0.041051254 0.0010719554
000310 bc 02 b4 bd 43 c9 e8 3d f7 9a d2 3d 21 61 b2 bc
       -0.08789584 0.113665126 0.102834634 -0.02177483
000320 a0 36 a7 3c eb 40 4f bc 0c 5c 81 3d 05 90 cf bd
       0.02041179 -0.012649755 0.06316385 -0.101348914
000330 aa 5b cf bd 97 0f 39 3d a2 6b b8 bd 62 f1 62 bd
       -0.101249054 0.045180883 -0.09004904 -0.05540598
000340 35 7f 90 bc 1e 86 c1 bd fb ec 23 3d 65 6e 1b be
       -0.017638782 -0.09449409 0.040020924 -0.15178831
000350 95 10 7a bd ff e9 49 3c 2a ab 13 be 6a 2b 01 be
       -0.06105097 0.012323855 -0.14420763 -0.12614217
000360 d6 ab a9 3c 8e 8f b2 bc 7b 32 58 bd 16 a7 13 be
       0.02071182 -0.021796968 -0.052782517 -0.14419207
000370 ec a2 c4 3d 16 9d 1d bd f5 78 25 bd 21 5e a0 3d
       0.096013874 -0.038479887 -0.040398557 0.07830454
000380 85 2a e0 bd c9 ad c4 3c f6 f0 dc 3d b4 cb 54 bc
       -0.1094561 0.024008648 0.10788147 -0.01298802
000390 91 8c 8d bd 9e 69 cc 3d 81 9b 62 3c 51 ee b0 3d
       -0.069115765 0.099810824 0.01383102 0.08639205
0003a0 90 a0 00 3e 70 c8 e1 3b df 19 c1 3d c1 7d 39 3e
       0.1256125 0.006890349 0.09428763 0.18114378
0003b0 d3 1a df 3d b0 ba a1 bd 51 fa a2 bd 09 d2 b1 bd
       0.10893788 -0.07896936 -0.079579 -0.08682639
0003c0 66 c2 f3 bd a7 70 07 3e 9a ae 28 3b d6 21 82 bd
       -0.11902313 0.13226567 0.0025738836 -0.0635411
0003d0 bb 36 aa bc 58 55 0b 3d 11 da 0a 3e 8b 43 e7 3b
       -0.02077805 0.034016937 0.13559748 0.0070576123
0003e0 78 81 ea 3d f2 74 e8 bc 1e ec 9b bc 8b 6d 3f bc
       0.114504755 -0.028376076 -0.019033488 -0.011683832
0003f0 c6 f8 c0 bd 94 0c f4 3d fa dc a7 bd 97 d4 3d bd
       -0.0942245 0.119164616 -0.08196445 -0.04634532

network_body._body_endoder.seq_layers.0.bias f4 [64]
000000 5e a6 df 3c 6e eb 74 bb 57 c9 c0 3c 13 aa 8e 3a
       0.02730101 -0.0037371772 0.023533506 0.0010884426
000010 eb 40 d7 ba ba 5d 4f bc 8c 9f cc 3c 1b f1 45 bc
       -0.0016422545 -0.0126566235 0.024978422 -0.01208141
000020 36 54 19 bc 44 68 e8 3c 02 d7 a2 3c d1 0f 9c 3b
       -0.009358456 0.02837003 0.019877914 0.0047626277
000030 96 f1 4b bb 89 8c b5 3b 35 64 7a bc 64 65 b9 3c
       -0.0031119338 0.0055404347 -0.01528268 0.022631355
000040 f4 02 cf 3c b1 21 db 3c e2 f7 cf 3b ec 0a bc 3c
       0.025269963 0.026749464 0.0063466886 0.022954427
000050 7e 8e 9c ba 01 25 99 bc 44 cc c7 3c 4b d8 45 bc
       -0.0011944321 -0.018694403 0.024389394 -0.012075494
000060 26 d4 f4 bb 36 6e 45 bc 1d 13 68 bc 82 ef 8e bc
       -0.007471579 -0.012050202 -0.014164713 -0.01744819
000070 5d 92 09 3d 8b 34 8a bb 59 6a a9 3c 8d df 6d 3c
       0.03358685 -0.0042176894 0.020680593 0.014518631
000080 bc 3c 35 bc ae 6b e2 3c e8 b6 11 3b 22 cc 9b 3c
       -0.0110618435 0.027639236 0.0022234265 0.019018237
000090 2d d2 cb 3c 53 f7 51 3c 5c 11 ba 3c 39 f4 df bc
       0.024880493 0.012815314 0.022713356 -0.027338134
0000a0 e6 d7 76 bc 0e 01 9f bb 30 72 0d ba 52 b2 9d 3c
       -0.015066123 -0.0048524207 -0.00053957384 0.019250069
0000b0 ff 57 40 bc 79 7a 68 3c 87 0d 26 bc 6a 75 bb bc
       -0.01173973 0.014189356 -0.010135061 -0.022883136
0000c0 34 4c 91 bc b3 4d f5 3c ee 18 97 39 24 f8 96 3c
       -0.017736532 0.029944276 0.00028819538 0.01842887
0000d0 4a c7 8f ba da 35 80 bb 3a 54 83 3c 91 8e ae 3c
       -0.0010969427 -0.0039126696 0.016031373 0.021308215
0000e0 ca 96 96 bc 85 dd a3 bb 42 fb 53 bb 21 94 9c 3c
       -0.018382449 -0.0050007724 -0.0032345806 0.019113602
0000f0 91 62 9f 3c 37 3d e2 bb 55 4b 39 bc dd ce 9b 3c
       0.01945618 -0.00690427 -0.011309464 0.019019539

network_body._body_endoder.seq_layers.2.weight f4 [64, 64]
000000 18 d9 d6 bd c7 4d bb 3d 28 6b be bd e9 98 b1 bd
       -0.10490626 0.09145694 -0.09297782 -0.086717434
000010 49 ee 83 3c dd 1a b0 bd 47 7d 90 3d 43 8a 3f 3d
       0.016104834 -0.08598874 0.07055145 0.046762716
000020 bb c3 dd bd 01 5d da 3d b0 bc 00 3e 3a 64 6a bd
       -0.10828348 0.1066227 0.12571979 -0.05722449
000030 86 ae 9c bc 2e b3 41 bd ee 10 b5 3d a1 85 5b 3c
       -0.019126188 -0.04729002 0.0884112 0.013398559
000040 fe 57 83 3d c5 75 0b be f3 fb a5 bd 15 9c 49 3d
       0.064132676 -0.13619144 -0.08104696 0.049221117
000050 62 8a c7 bd 85 da 9b bd 7f 60 71 3d de 4b bb 3b
       -0.09743191 -0.07610039 0.058929916 0.005715831
000060 ea 78 6a 3e f3 1c 6f 3c de 4a 06 be f0 74 bb 3c
       0.22897688 0.014594304 -0.13114497 0.022882909
000070 95 fa 2e be 72 a8 30 bb 23 4d f2 bc 57 90 f7 3c
       -0.17087777 -0.002695587 -0.029577797 0.030220194
000080 1a 4d e0 bd 93 7c 12 be e1 eb 92 3d 2d 98 d3 bd
       -0.10952206 -0.14305334 0.071738966 -0.103317596
000090 6a ae 9b be cb 90 ef 3a 6e 4f 10 bd c8 14 fe 3d
       -0.30406505 0.0018277405 -0.035232 0.124063075
0000a0 b6 ab bd 3b f3 27 8e bd 64 bd 1f be 95 df cf 3d
       0.005788292 -0.069412135 -0.1559959 0.10150067
0000b0 90 bc be bd 62 a9 02 bc c9 6c d4 3d 58 1a e8 bd
       -0.09313309 -0.007974954 0.103723116 -0.1133315
0000c0 5b 69 48 bd cd 00 2c bd e7 f9 3a 3e 37 1d da 3d
       -0.0489286 -0.04199295 0.18259393 0.106501035
0000d0 60 fc ea bd 05 d5 63 3d a0 7c d1 3d b5 58 9c bb
       -0.11473918 0.055623073 0.102288485 -0.004771317
0000e0 06 94 0c 3e 5d 72 51 be 0b 73 14 bd c4 ff 96 3d
       0.13728341 -0.20453782 -0.036242526 0.07373002
0000f0 42 74 a0 bc 9b 1f af 3e 87 96 d1 bd 5b 26 93 be
       -0.019586686 0.342038 -0.10233789 -0.287402
000100 7b c7 9c 3d 01 28 45 be c5 47 a6 bd 1a 98 13 3e
       0.076552354 -0.19253542 -0.08119158 0.14413491
000110 19 e9 7c 3e e2 35 91 3d c4 55 38 be af 6a c1 bd
       0.24698295 0.070903555 -0.18001467 -0.094441764
000120 3a 74 16 bd eb b1 78 be 62 19 23 3c af 3a a4 be
       -0.036731936 -0.2428662 0.009954782 -0.32076022
000130 e1 8b 6f be e1 ad 0d bd 91 c0 54 be 00 d0 55 be
       -0.23393203 -0.034589652 -0.20776583 -0.20880127
000140 74 3c 3f bd 06 f9 ae bb 2d 50 65 3d a2 61 6e 3b
       -0.046688512 -0.0053397445 0.055984665 0.0036374112
000150 26 fb b7 bc 15 97 99 bd ca 14 a5 bc 2f 0d 37 bc
       -0.022458624 -0.0749952 -0.020151515 -0.011172577
000160 27 47 b8 bb 92 62 2c 3d 9f 4f 66 bc 3e 85 0e be
       -0.0056237164 0.04208619 -0.014057069 -0.13918015
000170 36 29 1a 3e f0 32 bf 3c 2b 0b 3c be d4 42 65 bd
       0.15054783 0.023339719 -0.18363635 -0.055971935
000180 39 a1 c7 bd e8 cb a2 bd 29 70 12 bd a1 c5 88 be
       -0.09747548 -0.07949048 -0.035751496 -0.2671328
000190 57 5d 7f bd a0 1f 3d bd da d6 95 3d 1e 34 36 3e
       -0.062344875 -0.046172738 0.0731637 0.17793319
0001a0 26 37 d3 3c 43 f7 8a bd 74 90 4f be a2 e5 17 3e
       0.025783133 -0.06785443 -0.20269948 0.14833692
0001b0 69 b4 e6 3c 36 eb b7 3d 13 72 c9 ba ba a2 c7 3d
       0.028162198 0.0898041 -0.001536908 0.097478345
0001c0 d7 7f 15 be 5e f1 00 3e 0b 8f 79 3d 78 93 af be
       -0.14599548 0.12592074 0.060927432 -0.34292197
0001d0 84 3c e4 3d b9 8c 40 be 7d 2b 05 3e 49 d4 70 bd
       0.11144355 -0.18803681 0.1300487 -0.0587962
0001e0 4e 28 a5 bd ab 98 2b 3e 0d 70 01 be 25 48 59 bb
       -0.08064328 0.16757457 -0.126404 -0.0033154574
0001f0 ed 48 84 be 12 cf ad 3d 55 a5 bb 3c 5e 49 06 3e
       -0.25836888 0.08486761 0.022905985 0.13113925
000200 25 32 84 3d 3f c4 46 3d 73 22 92 3d 63 20 28 3e
       0.06454877 0.048527 0.07135477 0.16418605
000210 ba 71 d6 3d 88 ec e6 bd 8b d0 f0 3d 08 59 14 be
       0.1047091 -0.112755835 0.117585264 -0.14487088
000220 ed 9a df 3c d5 e9 eb 3d cd ee fa 3d c5 97 55 be
       0.027295554 0.11519209 0.12252579 -0.20858677
000230 a0 7c ba 3d 19 b4 48 bb 8f 7b 96 bd 09 bc 81 bd
       0.091058016 -0.0030624925 -0.07347786 -0.06334693
000240 43 2c f1 3d fd bc 03 bd 62 00 76 3e 94 34 98 bc
       0.117760204 -0.032162655 0.24023584 -0.018579759
000250 12 d6 9d 3d 71 33 8c bb 5f 34 d8 3c 46 9d cd bb
       0.07706846 -0.004278593 0.02639216 -0.006274852
000260 92 5b e1 bd 90 5b 65 bd 1d 0b a4 3c 96 00 f3 b9
       -0.11003794 -0.055995524 0.02002483 -0.00046349008
000270 7a c1 57 3d d1 b5 31 3b c2 4d 87 bd fb b2 ba bd
       0.052674748 0.0027116428 -0.06606628 -0.09116169
000280 00 46 70 3d c9 d3 38 be 6c 43 cb 3d 7a a7 54 3d
       0.058660507 -0.1804954 0.09924969 0.05191753
000290 b2 ab 47 3d 17 59 02 bd ee 03 15 bd be 11 10 be
       0.048747726 -0.031823244 -0.0363807 -0.14069268
0002a0 3f 39 2a 3d 89 d2 31 be 0c 65 0a 3a 7c f4 4b 3e
       0.0415585 -0.17365469 0.00052793394 0.19917482
0002b0 d5 04 c0 3d ab 9a 32 3d b3 7a a3 3d cb b3 0e be
       0.09375922 0.043604534 0.079823874 -0.13935773
0002c0 4d dc 84 bd 58 38 d4 3d 9b ee 4c bd c3 18 1c be
       -0.064873315 0.10362309 -0.05003224 -0.15243821
0002d0 e2 34 08 3e 65 f3 19 be 30 16 9d 3d c5 b2 c4 3e
       0.13301423 -0.15034254 0.076702476 0.3841764
0002e0 a3 9f 14 3b fe 47 72 be de d9 92 bd 32 f9 0d 3e
       0.0022678159 -0.23660275 -0.07170461 0.13864592
0002f0 56 05 5e 3e 73 5e db 3c 1a ca 09 3c d3 e4 7f bd
       0.21681723 0.026778435 0.008410001 -0.062474083
000300 81 13 2e 3e 2b b1 88 3c ee 93 b2 bd 7a ba a5 3d
       0.16999628 0.016686043 -0.087196216 0.08092208
000310 ba 0a 96 bd 40 0c 17 be f4 30 a8 3a d6 16 8c 3c
       -0.07326265 -0.14750767 0.0012831972 0.017100733
000320 76 18 5a be 36 80 58 3b 80 c4 86 bd 77 e9 e0 3d
       -0.21298394 0.0033035404 -0.06580448 0.1098203
000330 b5 b4 b9 bd b1 48 50 3d 63 b2 4f bd 9a f2 6f 3d
       -0.0906767 0.050850574 -0.050707232 0.058580972
000340 1c 95 2c 3e 7c 56 b7 3d c7 55 83 bd 96 70 84 3e
       0.16853756 0.089520425 -0.06412845 0.25867146
000350 a8 6d 6a 3c 77 e6 a8 3d 1c 16 46 3d 39 79 89 3d
       0.014308371 0.08247083 0.04836093 0.067125745
000360 4d b3 12 3d 94 1f d8 bd b7 ae a7 3d e3 63 fc bd
       0.035815526 -0.10552898 0.08187621 -0.123237394
000370 39 2d 1d be 38 b3 d0 bd 4f 57 59 3e d4 22 a5 3c
       -0.15349282 -0.10190433 0.21224712 0.020158209
000380 af 3f 5f be 26 d3 61 3e 61 b1 76 bd 55 2e f2 3d
       -0.21801637 0.22053203 -0.060227755 0.118252434
000390 24 bd 30 bd bc fd 59 3e c2 82 1d 3e 21 55 a4 bd
       -0.04314913 0.21288198 0.15381911 -0.080240496
0003a0 4f 47 8c bd 0a 12 2d 3c bc 4e 11 3e 76 e3 81 3c
       -0.068495385 0.010563383 0.14190191 0.015855532
0003b0 ac 45 7b bd 12 c7 72 3d ef b8 f9 bc f3 88 2a be
       -0.06134574 0.05927188 -0.030483691 -0.16653804
0003c0 02 7e 3a 3d 73 b5 c1 3d 75 75 4b be 04 56 2b 3d
       0.045530327 0.09458437 -0.19869025 0.041830078
0003d0 83 54 12 be 3f da 38 bc e3 17 b8 bc fb 1f 28 3d
       -0.14290051 -0.011282503 -0.022472328 0.041046124
0003e0 6a 08 1b bd 22 09 0e be 64 86 41 bd 66 3f 76 bd
       -0.03784982 -0.13870671 -0.047247306 -0.060119055
0003f0 38 a1 37 bd 4e 40 14 3e 2c 03 02 3e 05 be 86 3e
       -0.044831485 0.14477655 0.12696522 0.26316848

network_body._body_endoder.seq_layers.2.bias f4 [64]
000000 16 7b b8 bb 1a c0 8c bb d9 95 ec 3c 91 45 c1 3c
       -0.0056299074 -0.004295361 0.028880047 0.023592742
000010 d7 6d 8e 3c cf 3a 94 3c ad 9f 60 3c 42 38 b9 ba
       0.01738636 0.018094448 0.013709945 -0.0014131146
000020 a1 eb 24 bb 76 7b a4 3c 93 03 0b bb cc d9 52 bc
       -0.002516486 0.020078402 -0.0021211847 -0.01286931
000030 f1 38 22 3a c8 1b 5d bc 37 00 59 39 00 99 01 bc
       0.00061882945 -0.013495393 0.00020694813 -0.007910013
000040 ee 3c 0e 3c 2d 78 c4 3c 2f 4a 7f bc 1d d1 dc 3b
       0.008681519 0.023983086 -0.015581652 0.0067387954
000050 89 8b 58 3a f4 89 09 bc 51 50 8e 3c bb 86 71 3c
       0.00082605385 -0.008394707 0.017372282 0.014741595
000060 b8 fc 84 3c 6c c9 4d bb 17 4a f2 3c ca cf 34 bc
       0.016233787 -0.0031400574 0.029576344 -0.011035869
000070 6f b7 cf 3a 2f e5 ab b9 05 b4 f4 bb 27 07 9e bb
       0.0015847514 -0.00032786417 -0.007467749 -0.00482263
000080 30 4c f3 bb 28 4d 91 3c 93 bc 86 3b 27 10 9c 3c
       -0.0074248537 0.017736986 0.0041118353 0.01905067
000090 bb 7e 59 bc 82 e5 5b bc b0 5b d4 ba 75 4e 7e 3c
       -0.013274844 -0.013421418 -0.0016201641 0.015521635
0000a0 04 98 b7 3c 67 99 92 3c 57 c8 d9 bb 54 7c 3b 3c
       0.022411354 0.017895414 -0.006646197 0.011443216
0000b0 79 b1 bd bc 6e 68 b6 bc 63 45 8e bb 1d 8a d7 3c
       -0.023155915 -0.022266593 -0.0043417676 0.026310975
0000c0 3f 3e 73 3c 81 52 09 bc 1d 19 91 3c ba 86 d8 3c
       0.014846384 -0.008381487 0.01771217 0.02643143
0000d0 33 8e b1 bb 21 a0 bf bb 48 c6 ea 3c 5a 50 8e 3c
       -0.005418563 -0.0058479463 0.028659001 0.017372299
0000e0 8d e4 01 3c de d1 20 3c 0d a5 9e 3c df 66 cf 3c
       0.007928026 0.009815661 0.019365812 0.025317607
0000f0 fa 13 c6 3c 13 27 89 3c 9e 35 77 3c 44 b9 83 bc
       0.024179447 0.016742265 0.015088467 -0.016079552
