results/3-3-run3/simple_deer/simple_deer-1499964.onnx (onnx, 485941 bytes, 22 tensors)

network_body.observation_encoder.processors.0.self_ent_encoder.seq_layers.0.bias f4 [128]
0.044883315 0.04631833 -0.09028639 0.0011930444 -0.038360823 -0.017492194 0.057959273 0.01273257
0.06456896 -0.08946791 0.021973187 -0.0025188953 0.0913547 0.036122877 0.036397114 -0.008532151
0.091265924 -0.009062364 0.05594706 -0.072957024 -0.004062119 -0.01268728 0.078866564 -0.09091469
0.013421452 0.08356353 -0.09585958 -0.057020977 0.0353696 0.051878925 -0.04178689 -0.06253384
0.070006475 0.047421608 0.08873768 -0.061683767 -0.108995594 -0.0055507394 0.108691104 0.035975255
0.06753048 0.066406064 0.0712903 -0.010757717 0.017599443 -0.019384827 0.010720577 0.070546135
-0.03013752 0.0060666795 0.07224784 0.07843602 0.0055846428 0.029780898 0.07961991 0.07557389
0.04799894 -0.036788143 -0.05144577 -0.028782556 0.032351576 0.012600603 0.045369264 0.01389756
0.08895837 -0.032977395 -0.037733756 0.07416314 -0.016816953 0.09647283 0.022671174 -0.012544494
-0.041097224 -0.024879511 -0.043309093 0.03720112 0.06636199 0.015314855 -0.07422214 0.073511146
-0.045651782 -0.046371046 0.063906915 -0.10988588 0.004219646 -0.0048158756 0.008635655 -0.05050955
0.09495589 0.016442988 0.043778334 0.07938737 0.06462822 0.0047085807 -0.03118845 0.13123281
-0.039183278 0.023041926 0.05383058 0.1241462 0.011540432 -0.08946459 0.019554384 0.026638975
0.03188941 -0.018568974 -0.02583974 0.03769216 -0.07150302 -0.030357769 -0.00043218103 0.08373759
-0.05299823 -0.010545936 0.060252216 -0.011480746 0.038561072 -0.08399515 0.004900523 0.067064784
0.06492053 0.0122773815 0.03499464 -0.111788034 -0.062255397 -0.09288977 -0.08516639 0.01177774
00000000: 91d7 373d 4ab8 3d3d 12e8 b8bd ed5f 9c3a
00000010: 3d20 1dbd ca4b 8fbc b466 6d3d 459c 503c
00000020: bb3c 843d f43a b7bd 1d01 b43c 0d14 25bb
00000030: 2c18 bb3d 95f5 133d 2415 153d 6fca 0bbc
00000040: a1e9 ba3d 4f7a 14bc bf28 653d 7e6a 95bd
00000050: 861b 85bb 4fde 4fbc cb84 a13d 7b31 babd
00000060: a6e5 5b3c 5b23 ab3d 0752 c4bd d48e 69bd
00000070: b7df 103d ff7e 543d bb28 2bbd be11 80bd
00000080: 8e5f 8f3d 293d 423d 1abc b53d 1ea8 7cbd
00000090: 1539 dfbd fae2 b5bb 7199 de3d ca5a 133d
000000a0: 6c4d 8a3d e7ff 873d a600 923d 2341 30bc
000000b0: b52c 903c eecc 9ebc 5ca5 2f3c 7e7a 903d
000000c0: f6e2 f6bc ffca c63b adf6 933d 10a3 a03d
000000d0: 61ff b63b 12f7 f33c c30f a33d 7cc6 9a3d
000000e0: 899a 443d 2aaf 16bd cdb8 52bd 65c9 ebbc
000000f0: 1683 043d c272 4e3c 1fd5 393d 97b2 633c
00000100: ce2f b63d 4e13 07bd b68e 1abd d8e2 973d
00000110: b5c3 89bc 8c93 c53d e6b8 b93c 6c87 4dbc
00000120: 9055 28bd 1ed0 cbbc e064 31bd 3460 183d
00000130: cce8 873d 28eb 7a3c c701 98bd 038d 963d
00000140: 5dfd 3abd 91ef 3dbd a1e1 823d d90b e1bd
00000150: f544 8a3b 7ece 9dbb 907c 0d3c 1ae3 4ebd
00000160: 3c78 c23d 72b3 863c e950 333d d895 a23d
00000170: cd5b 843d 704a 9a3b ec7e ffbc e561 063e
00000180: a57e 20bd 6cc2 bc3c 747d 5c3d 5d40 fe3d
00000190: 1514 3d3c 3639 b7bd 8430 a03c fb39 da3c
000001a0: 789e 023d f61d 98bc ddad d3bc 1863 1a3d
000001b0: 2d70 92bd dbb0 f8bc 5b96 e2b9 9d7e ab3d
000001c0: ac14 59bd ddc8 2cbc 07cb 763d bd19 3cbc
000001d0: 37f2 1d3d a605 acbd 9194 a03b 4359 893d
000001e0: 0ef5 843d 1227 493c 8a56 0f3d 20f1 e4bd
000001f0: 84ff 7ebd fe3c bebd b76b aebd 6cf7 403c

network_body.observation_encoder.processors.1.self_ent_encoder.seq_layers.0.bias f4 [128]
0.0 0.0 0.0 0.0 0.0 0.0 0.0 0.0
0.0 0.0 0.0 0.0 0.0 0.0 0.0 0.0
0.0 0.0 0.0 0.0 0.0 0.0 0.0 0.0
0.0 0.0 0.0 0.0 0.0 0.0 0.0 0.0
0.0 0.0 0.0 0.0 0.0 0.0 0.0 0.0
0.0 0.0 0.0 0.0 0.0 0.0 0.0 0.0
0.0 0.0 0.0 0.0 0.0 0.0 0.0 0.0
0.0 0.0 0.0 0.0 0.0 0.0 0.0 0.0
0.0 0.0 0.0 0.0 0.0 0.0 0.0 0.0
0.0 0.0 0.0 0.0 0.0 0.0 0.0 0.0
0.0 0.0 0.0 0.0 0.0 0.0 0.0 0.0
0.0 0.0 0.0 0.0 0.0 0.0 0.0 0.0
0.0 0.0 0.0 0.0 0.0 0.0 0.0 0.0
0.0 0.0 0.0 0.0 0.0 0.0 0.0 0.0
0.0 0.0 0.0 0.0 0.0 0.0 0.0 0.0
0.0 0.0 0.0 0.0 0.0 0.0 0.0 0.0
00000000: 0000 0000 0000 0000 0000 0000 0000 0000
00000010: 0000 0000 0000 0000 0000 0000 0000 0000
00000020: 0000 0000 0000 0000 0000 0000 0000 0000
00000030: 0000 0000 0000 0000 0000 0000 0000 0000
00000040: 0000 0000 0000 0000 0000 0000 0000 0000
00000050: 0000 0000 0000 0000 0000 0000 0000 0000
00000060: 0000 0000 0000 0000 0000 0000 0000 0000
00000070: 0000 0000 0000 0000 0000 0000 0000 0000
00000080: 0000 0000 0000 0000 0000 0000 0000 0000
00000090: 0000 0000 0000 0000 0000 0000 0000 0000
000000a0: 0000 0000 0000 0000 0000 0000 0000 0000
000000b0: 0000 0000 0000 0000 0000 0000 0000 0000
000000c0: 0000 0000 0000 0000 0000 0000 0000 0000
000000d0: 0000 0000 0000 0000 0000 0000 0000 0000
000000e0: 0000 0000 0000 0000 0000 0000 0000 0000
000000f0: 0000 0000 0000 0000 0000 0000 0000 0000
00000100: 0000 0000 0000 0000 0000 0000 0000 0000
00000110: 0000 0000 0000 0000 0000 0000 0000 0000
00000120: 0000 0000 0000 0000 0000 0000 0000 0000
00000130: 0000 0000 0000 0000 0000 0000 0000 0000
00000140: 0000 0000 0000 0000 0000 0000 0000 0000
00000150: 0000 0000 0000 0000 0000 0000 0000 0000
00000160: 0000 0000 0000 0000 0000 0000 0000 0000
00000170: 0000 0000 0000 0000 0000 0000 0000 0000
00000180: 0000 0000 0000 0000 0000 0000 0000 0000
00000190: 0000 0000 0000 0000 0000 0000 0000 0000
000001a0: 0000 0000 0000 0000 0000 0000 0000 0000
000001b0: 0000 0000 0000 0000 0000 0000 0000 0000
000001c0: 0000 0000 0000 0000 0000 0000 0000 0000
000001d0: 0000 0000 0000 0000 0000 0000 0000 0000
000001e0: 0000 0000 0000 0000 0000 0000 0000 0000
000001f0: 0000 0000 0000 0000 0000 0000 0000 0000

network_body.observation_encoder.processors.2.normalizer.running_mean f4 [4]
0.7059127 0.7375402 0.4999895 2.0928893
00000000: b2b6 343f 6fcf 3c3f a0fe ff3e e6f1 0540

network_body.observation_encoder.rsa.fc_q.bias f4 [128]
0.058107503 0.046379276 -0.028954977 -0.05567954 0.0012526597 -0.030510472 0.023138992 -0.03252482
0.033041947 -0.059435047 0.048235387 0.03397856 0.002761857 -0.045569483 0.044194147 0.05409352
0.089460544 -0.08043168 -0.010584387 -0.0817517 0.016467396 -0.051161673 -0.015312563 -0.032933738
0.03153273 -0.069410115 -0.06460838 0.018442158 0.091171145 0.075445384 0.052668113 -0.067266576
0.10240228 -0.113563456 -0.05760566 -0.10850085 -0.10044642 0.08094791 -0.033657484 0.11690723
0.07881608 -0.068521045 0.1348654 -0.097652055 0.06960806 -0.0744794 -0.09745429 -0.112034634
0.11810346 -0.13744706 -0.08788702 0.08184993 0.022529667 0.08179554 -0.10418503 -0.12312237
0.09109881 -0.11120587 -0.0798419 0.10433084 0.09397741 -0.11780084 0.06732287 0.112243615
0.0007749595 0.02292356 -0.061619848 0.039362255 0.028841686 0.021761227 -0.023253514 0.008541069
-0.05798413 -0.009485428 -0.046335917 -0.034740888 0.045400623 -0.056152534 -0.063163415 -0.02672654
-0.048659623 0.050638065 0.10153027 -0.02543944 0.061230265 0.011570039 -0.02671624 0.029892132
-0.037606508 -0.05702319 0.05821648 0.04655894 0.0026469065 -0.02242207 0.058161393 -0.03194211
-0.056564573 0.091716856 -0.05537706 -0.06654792 0.08746497 0.015541058 0.07161834 -0.08803241
0.082809955 0.11451253 0.05547326 0.092959166 0.078900605 -0.09964752 -0.05882202 0.084569156
0.07500516 0.12010924 0.09811584 0.050311647 0.08016026 -0.02823954 -0.07385006 0.0982301
0.08823156 0.050166316 -0.050393425 -0.1017741 0.07697777 -0.07841963 -0.11617084 0.068000816
00000000: 2202 6e3d 32f8 3d3d fd32 edbc 3b10 64bd
00000010: 4930 a43a 19f1 f9bc fc8d bd3c bf38 05bd
00000020: fe56 073d 2a72 73bd 7892 453d 1a2d 0b3d
00000030: 4500 353b 11a7 3abd ec04 353d 2b91 5d3d
00000040: 1737 b73d 5db9 a4bd 236a 2dbc 6f6d a7bd
00000050: a2e6 863c e78e 51bd 8be1 7abc 87e5 06bd
00000060: 7728 013d e426 8ebd 6651 84bd 0214 973c
00000070: f0b7 ba3d 1c83 9a3d 85ba 573d 0fc3 89bd
00000080: 49b8 d13d f593 e8bd eaf3 6bbd b235 debd
00000090: dab6 cdbd 05c8 a53d 6edc 09bd 0f6d ef3d
000000a0: 536a a13d c354 8cbd 281a 0a3e cdfd c7bd
000000b0: ac8e 8e3d a888 98bd 1d96 c7bd 6a72 e5bd
000000c0: 3ae0 f13d ecbe 0cbe 1cfe b3bd f0a0 a73d
000000d0: 2390 b83c 6c84 a73d f65e d5bd 9527 fcbd
000000e0: 0392 ba3d e7bf e3bd 2684 a3bd 68ab d53d
000000f0: 3a77 c03d 9141 f1bd 93e0 893d fbdf e53d
00000100: a726 4b3a 31ca bb3c 1865 7cbd 513a 213d
00000110: 6645 ec3c 9a44 b23c 277e bebc d7ef 0b3c
00000120: c480 6dbd c568 1bbc bbca 3dbd 764c 0ebd
00000130: 01f6 393d 3300 66bd d25b 81bd 9ef1 dabc
00000140: 504f 47bd dc69 4f3d 1aef cf3d 5f66 d0bc
00000150: 96cc 7a3d 4390 3d3c 04dc dabc 58e0 f43c
00000160: 4809 1abd 2691 69bd 6774 6e3d 96b4 3e3d
00000170: b977 2d3b 7dae b7bc a43a 6e3d bbd5 02bd
00000180: 41b0 67bd 0cd6 bb3d 0ed3 62bd 474a 88bd
00000190: d620 b33d ec9f 7e3c a3ac 923d 564a b4bd
000001a0: 4498 a93d 8c85 ea3d ee37 633d 6061 be3d
000001b0: a496 a13d 0014 ccbd 5cef 70bd 9832 ad3d
000001c0: 4e9c 993d d5fb f53d f5f0 c83d 9613 4e3d
000001d0: 102b a43d 9c56 e7bc b33e 97bd dd2c c93d
000001e0: c0b2 b43d 327b 4d3d 5669 4ebd f06e d0bd
000001f0: 85a6 9d3d 799a a0bd faea edbd 0344 8b3d

network_body.observation_encoder.rsa.fc_k.bias f4 [128]
-4.142579e-05 -2.3709015e-05 6.1499118e-06 2.1862465e-05 -3.7172904e-06 4.9508985e-06 -2.5072217e-05 -6.331071e-06
-2.3256214e-05 3.260584e-05 -2.4319808e-05 -1.0716362e-05 1.8124807e-05 2.0058169e-05 -2.0876458e-05 -2.598398e-05
-1.5091558e-05 1.6911466e-05 -2.1494634e-05 2.9647952e-05 -3.8879258e-05 5.7082663e-05 1.6922839e-05 1.6829606e-05
-4.558561e-05 3.499664e-05 1.9077923e-05 -6.362517e-06 -3.5554152e-05 -2.7708116e-05 -1.5087407e-05 3.8195612e-05
7.814364e-05 -0.000105457315 -6.488318e-05 -8.261795e-05 -7.406329e-05 7.195857e-05 -4.1138483e-05 6.661375e-05
6.280255e-05 -4.7381032e-05 0.00011148525 -8.055404e-05 4.6035777e-05 -6.099206e-05 -4.849611e-05 -9.104461e-05
0.00011748579 -8.962733e-05 -8.0698264e-05 6.8151e-05 3.1293486e-05 4.2210486e-05 -8.939032e-05 -7.78654e-05
6.681897e-05 -0.00010532426 -6.164245e-05 6.398651e-05 9.5268864e-05 -0.00010833897 6.5519846e-05 0.00011069003
-5.1887123e-06 -6.481494e-06 -3.1824836e-06 1.4795679e-05 9.357759e-07 2.0774278e-05 -6.3633065e-06 -9.124944e-06
-4.3309124e-06 5.1659777e-06 1.0689597e-06 -7.9452175e-06 1.2553798e-05 -1.6464202e-05 -1.4798106e-05 -8.640085e-07
-9.121484e-06 1.7647608e-05 1.2460006e-05 -8.807781e-06 4.9096434e-06 1.5402191e-05 -4.3301957e-06 -1.2556403e-06
-1.9711764e-05 -5.885056e-06 -2.8916857e-06 6.5759923e-06 5.2386704e-06 -9.854993e-06 8.98175e-06 -2.1989365e-05
-4.530118e-06 6.608759e-06 -4.7743324e-05 1.30806475e-05 3.186738e-05 -4.579406e-06 1.2533552e-05 -2.0139221e-05
7.5342446e-06 -2.4046652e-05 1.7447138e-06 -1.1026771e-05 2.152284e-05 -1.4348317e-06 -9.581721e-07 1.5387839e-06
-2.4213066e-06 2.7552802e-05 5.8713606e-05 2.7646183e-06 1.2279505e-05 -1.1563421e-05 -1.3159904e-05 -5.382881e-05
1.3589218e-05 4.5332276e-06 -2.1309837e-05 4.896657e-06 2.3276974e-05 -1.0182235e-05 -1.4894464e-06 -1.1227886e-06
00000000: 9ac0 2db8 b9e2 c6b7 575b ce36 4965 b737
00000010: 9076 79b6 e51f a636 2d52 d2b7 7c6f d4b6
00000020: 5716 c3b7 41c2 0838 6402 ccb7 6dca 33b7
00000030: ba0a 9837 9742 a837 da1f afb7 2cf8 d9b7
00000040: c031 7db7 19dd 8d37 604f b4b7 7eb4 f837
00000050: 4912 23b8 0b6c 6f38 85f5 8d37 4e2d 8d37
00000060: 2d33 3fb8 5bc9 1238 8709 a037 9b7d d5b6
00000070: fb1f 15b8 ba6e e8b7 eb1f 7db7 3a34 2038
00000080: 0ce1 a338 f728 ddb8 e411 88b8 2d43 adb8
00000090: 6d52 9bb8 77e8 9638 1c8c 2cb8 fcb2 8b38
000000a0: ddb4 8338 ffba 46b8 30cd e938 1fef a8b8
000000b0: 8a16 4138 bad1 7fb8 4d68 4bb8 34ef beb8
000000c0: b462 f638 4ef6 bbb8 8d3c a9b8 4aec 8e38
000000d0: 2041 0338 2a0b 3138 1077 bbb8 ab4b a3b8
000000e0: 2921 8c38 88e1 dcb8 0a46 81b8 7f30 8638
000000f0: 15cb c738 0b34 e3b8 b367 8938 4222 e838
00000100: b31a aeb6 9c7b d9b6 a792 55b6 f53a 7837
00000110: 0832 7b35 6c44 ae37 6384 d5b6 5617 19b7
00000120: 4152 91b6 6957 ad36 2d79 8f35 734c 05b7
00000130: 279e 5237 9b1c 8ab7 6245 78b7 36ee 67b5
00000140: 7a08 19b7 f309 9437 510b 5137 22c5 13b7
00000150: 84bd a436 f433 8137 194c 91b6 7987 a8b5
00000160: b15a a5b7 3f78 c5b6 c80e 42b6 58a7 dc36
00000170: d6c7 af36 df56 25b7 53b0 1637 cd75 b8b7
00000180: 6b01 98b6 cfc0 dd36 0140 48b8 f474 5b37
00000190: 57a9 0538 cca8 99b6 3247 5237 a6f0 a8b7
000001a0: abce fc36 cbb7 c9b7 e92b ea35 9fff 38b7
000001b0: f28b b437 7194 c0b5 8b9a 80b5 3688 ce35
000001c0: bb7d 22b6 3121 e737 4143 7638 c887 3936
000001d0: 1304 4e37 8400 42b7 5bc9 5cb7 3fc6 61b8
000001e0: 3ffd 6337 211c 9836 87c2 b2b7 f74d a436
000001f0: ec42 c337 5ed4 2ab7 fde8 c7b5 b9b2 96b5

network_body.observation_encoder.rsa.fc_v.bias f4 [128]
0.0222228 0.004455987 -0.009784833 0.015241469 0.009946071 0.017345618 -0.0037917157 0.010584389
-0.003232007 -0.008853903 -0.0006513834 0.029995566 0.0069650626 -0.001058488 -0.01919201 0.01597113
-0.013733407 -0.018263284 0.011395604 0.02129448 -0.021199502 0.012376683 -0.019230919 -0.020179776
0.014739694 -0.021575565 -0.018627837 -0.013924691 -0.030213635 0.01785475 -0.0082334215 -0.00041553748
-0.016787756 -0.027207434 0.006549229 -0.026909927 0.009208443 -0.008359383 -0.0167418 0.025119422
0.02668682 -0.011815455 0.0175812 -0.028330956 0.0037661444 0.018017512 0.012875811 -0.011450446
-0.009123327 0.0024930679 0.0109549165 0.0055700513 -0.00661146 -0.015980482 0.020363575 -0.014265934
0.009876951 -0.0013543912 0.015097148 -0.016773516 0.012415134 0.009766364 0.011635363 -0.0076775867
0.016878266 0.011857403 -0.0087976605 -0.01290635 -0.009711446 -0.01637239 -0.008433243 0.009633186
0.020825943 0.00069693686 0.017609611 -0.010404203 -0.0028286935 -0.02203782 0.005703019 -0.0075310613
0.0041216887 0.0146769015 0.0031048232 0.0029441116 -0.0054937284 -0.019271545 -0.005552637 -0.018420724
-0.018345475 -0.009998428 0.028119847 0.013880811 0.008183425 0.02144314 -0.009885357 -0.007656917
-0.008831186 0.0047670687 -0.017086398 -0.017169742 -0.013973232 0.011052436 -0.029081477 -0.01633595
-0.0031797423 -0.0060210754 -0.0089638475 -0.017534014 -0.018092413 0.02040072 0.008203293 -0.014968442
0.011535374 0.0129015185 -0.007210858 -0.022499055 -0.023993243 0.0075584734 -0.0071128514 -0.014716219
-0.007841842 0.0037259425 0.0043228394 -0.0076187626 0.01902725 0.011329727 0.003721451 -0.017208822
00000000: 970c b63c 8703 923b 9050 20bc 5bb7 793c
00000010: d8f4 223c 6618 8e3c 6f7e 78bb 256a 2d3c
00000020: 14d0 53bb f60f 11bc 9ac1 2aba 43b9 f53c
00000030: 2e3b e43b f7bc 8aba 9038 9dbc e3d5 823c
00000040: 1502 61bc e29c 95bc a1b4 3a3c c371 ae3c
00000050: 94aa adbc 92c7 4a3c 298a 9dbc 0f50 a5bc
00000060: c27e 713c 3dbf b0bc 6899 98bc 6324 64bc
00000070: 9682 f7bc 2044 923c 79e5 06bc 7fdc d9b9
00000080: 7a86 89bc 20e2 debc ea9a d63b 3572 dcbc
00000090: 02df 163c cbf5 08bc 1926 89bc 3fc7 cd3c
000000a0: 519e da3c 9c95 41bc 7306 903c 5216 e8bc
000000b0: 6bd1 763b 7699 933c 11f5 523c a79a 3bbc
000000c0: 027a 15bc bd62 233b 407c 333c fa84 b63b
000000d0: f2a4 d8bb 80e9 82bc 83d1 a63c aabb 69bc
000000e0: efd2 213c d485 b1ba 075a 773c 9d68 89bc
000000f0: d968 4b3c 1903 203c 40a2 3e3c 4494 fbbb
00000100: 4a44 8a3c 8e45 423c 1024 10bc 2875 53bc
00000110: c21c 1fbc 641f 86bc 962b 0abc 83d4 1d3c
00000120: 2b9b aa3c a4b2 363a 0842 903c 6476 2abc
00000130: 9a61 39bb a988 b4bc 64e0 ba3b 1fc7 f6bb
00000140: 3b0f 873b 6377 703c 4a7a 4b3b fff1 403b
00000150: bc04 b4bb 5cdf 9dbc e5f2 b5bb 0fe7 96bc
00000160: 4049 96bc 72d0 23bc 985b e63c 576c 633c
00000170: c613 063c 86a9 af3c 31f6 21bc e0e6 fabb
00000180: aeb0 10bc 1235 9c3b c6f8 8bbc 8fa7 8cbc
00000190: fcef 64bc 4715 353c 473c eebc f8d2 85bc
000001a0: 3963 50bb 714c c5bb 1add 12bc 7ea3 8fbc
000001b0: 8a36 94bc 691f a73c 1b67 063c 323e 75bc
000001c0: defe 3c3c e460 533c 1049 ecbb f04f b8bc
000001d0: 7a8d c4bc 12ad f73b ec12 e9bb 4c1c 71bc
000001e0: 127b 00bc f12e 743b 9ba6 8d3b d0a6 f9bb
000001f0: 09df 9b3c 52a0 393c 96e3 733b 84f9 8cbc

network_body.observation_encoder.rsa.fc_out.bias f4 [128]
-0.021738933 -0.009067048 -0.022821613 -0.015447259 -0.022639452 -0.017307714 -0.005003121 0.015502942
0.013707052 -0.005721016 -0.03339593 0.021810118 0.02595892 0.035710577 0.0071390197 -0.0018276012
-0.05095325 0.0071119065 -0.0020233048 -0.019332364 0.0048688673 0.021375144 0.027820265 -0.016890254
0.031225178 -0.009142761 0.0031880126 0.009334266 -0.018127102 -0.017619438 0.012668284 -0.001955491
0.032469254 0.035617277 -0.0031712537 -0.016520165 -0.0011398179 0.008506156 0.013392887 -0.012488102
-0.039538033 -0.031575248 0.016605092 -0.01602724 -0.014417573 0.03127676 0.03505609 -0.026394548
-0.003678724 -0.010471341 0.015817285 -0.016153894 -0.029189957 0.003964308 -0.008701644 0.008160355
0.018450016 -0.027502589 -0.023985777 0.0097412 -0.038441386 -0.042345814 0.017562266 -0.036123898
-0.009691785 0.032153666 0.005667503 0.032151543 0.014404721 -0.03540338 0.031362515 0.0028158545
-0.0031371394 -0.02230657 -0.007198857 -0.020865476 0.019463483 0.030148398 -0.03324816 0.038747005
-0.0009936746 -0.012852258 0.00799706 0.034904946 0.00080643117 0.01630848 0.034071 -0.007068011
-0.007847429 0.015175658 0.04037249 0.015554781 0.005895986 -0.019778784 0.015201578 0.011875484
0.017227836 -0.007272687 0.020054458 0.023172466 0.026547553 0.0032243703 0.013255848 -0.01948171
0.0009358267 0.030690823 -0.010980381 -0.022566091 0.004829236 -0.010654838 -0.015674096 0.004777783
-0.019065281 0.012397402 -0.008897507 -0.022462314 -0.0022422078 0.0037266586 0.016344406 0.026759189
0.009105244 0.022247802 -0.01795311 -0.01403057 -0.027501758 0.016050031 -0.020540504 -0.026367843
00000000: d915 b2bc f58d 14bc 64f4 babc 8016 7dbc
00000010: 5f76 b9bc e8c8 8dbc 39f1 a3bb 0d00 7e3c
00000020: 8b93 603c 5c77 bbbb 2cca 08bd 22ab b23c
00000030: cda7 d43c 4145 123d 70ee e93b 1f8c efba
00000040: 5bb4 50bd ff0a e93b 6c99 04bb e85e 9ebc
00000050: 058b 9f3b ed1a af3c 53e7 e33c 6e5d 8abc
00000060: f2cb ff3c 85cb 15bc faed 503b c0ee 183c
00000070: 4a7f 94bc a456 90bc a28e 4f3c b227 00bb
00000080: 7bfe 043d 6ce3 113d cfd4 4fbb 4c55 87bc
00000090: f165 95ba 675d 0b3c d76d 5b3c e59a 4cbc
000000a0: a2f2 21bd 0c55 01bd 6707 883c 8f4b 83bc
000000b0: af37 6cbc 0f1c 003d fa96 0f3d 6139 d8bc
000000c0: bf16 71bb fd8f 2bbc 4093 813c 2c55 84bc
000000d0: c71f efbc 07e7 813b 5791 0ebc 02b3 053c
000000e0: 7d24 973c 1c4d e1bc d27d c4bc 8e99 1f3c
000000f0: b774 1dbd ce72 2dbd bede 8f3c a7f6 13bd
00000100: 4bca 1ebc 90b3 033d 76b6 b93b 56b1 033d
00000110: c701 6c3c 2203 11bd fb75 003d 338a 383b
00000120: 7798 4dbb 45bc b6bc 64e4 ebbb 13ee aabc
00000130: e271 9f3c c6f9 f63c 392f 08bd 2eb5 1e3d
00000140: 303e 82ba 4792 52bc 1a06 033c 7df8 0e3d
00000150: ae66 533a 5d99 853c 088e 0b3d c69a e7bb
00000160: 8192 00bc 53a3 783c a05d 253d 7bd9 7e3c
00000170: 1e33 c13b 1e07 a2bc 0a10 793c 6491 423c
00000180: 6421 8d3c b84f eebb 3f49 a43c 2fd4 bd3c
00000190: 417a d93c f54f 533b 0e2f 593c 1b98 9fbc
000001a0: 4452 753a 526b fb3c 0ee7 33bc 86dc b8bc
000001b0: 913e 9e3b a191 2ebc f666 80bc f38e 9c3b
000001c0: cb2e 9cbc 791e 4b3c d9c6 11bc e302 b8bc
000001d0: 01f2 12bb f53a 743b b4e4 853c 1636 db3c
000001e0: 292e 153c 0641 b63c 6712 93bc 7ae0 65bc
000001f0: 5e4b e1bc 5b7b 833c 8f44 a8bc 6001 d8bc

network_body.observation_encoder.x_self_encoder.seq_layers.0.weight f4 [128, 4]
0.028423546 -0.09129708 -0.04644999 -0.021187326 -0.106216185 -0.005765213 0.05415287 0.016665842
-0.089960836 -0.044489242 0.07075569 0.054985873 0.10957779 -0.051145524 -0.051157303 -0.019665409
-0.0076177246 -0.11900302 0.026742194 -0.019540403 -0.04775964 0.070886314 0.07361581 -0.06628538
-0.115560636 -0.081368715 0.125854 0.003310432 -0.08037635 0.017511528 0.11977536 0.019340528
-0.117416255 -0.0024731539 0.07963948 0.018833227 -0.1100796 -0.017775388 0.10670126 -0.0365103
-0.09617692 0.008623141 0.06520004 -0.021758832 -0.024175229 0.074408524 0.09016104 -0.050867636
-0.06881526 -0.017031578 0.055430796 0.027103217 -0.003416847 -0.07641662 -0.12059307 0.051817518
-0.040745016 0.08099588 0.077873126 -0.05681904 -0.009683331 0.078325726 0.13852662 0.0037061658
0.05130204 -0.09685126 -0.08357151 -0.06988502 0.017347686 -0.12184925 -0.10051721 0.005943228
0.112520725 -0.017539825 -0.038585264 -0.07694837 0.12567887 -0.014371757 -0.052226704 -0.014364503
-0.0143411765 0.08304457 0.0913617 -0.061855987 0.024342243 -0.1293663 -0.06843999 -0.01564001
-0.019922096 0.08826653 0.11791301 -0.061708715 0.025599523 -0.086152226 -0.045939345 0.028083747
-0.028297437 0.07984312 0.12215761 -0.047971297 0.12872362 -0.042347584 -0.10344969 -0.030439984
-0.060137693 0.0776856 0.04346294 0.03344257 -0.11337797 0.016337777 0.13302703 -0.0070857597
-0.09003573 -0.0028505756 0.074865244 -0.066363096 0.10581277 0.008340811 -0.0762619 -0.09960509
0.0050727306 0.062304057 0.10770856 -0.020405155 0.043858383 -0.13553455 0.010208374 0.002768868
0.071890935 -0.032856673 -0.056210883 0.053598724 0.054319683 -0.051258087 -0.069649026 -0.028069112
0.019054944 -0.13893068 -0.101572596 -0.04433706 0.118845746 -0.0061156973 -0.14538647 -0.0487311
-0.106021665 -0.01746166 0.06241826 0.029441174 0.032374606 -0.13975884 -0.075235076 -1.3460705e-05
-0.10265098 -0.012330195 0.0740946 -0.023740092 -0.0066744746 0.10356935 0.07937849 -0.03992446
-0.073338285 0.09666019 0.07485132 -0.035351403 0.03926437 -0.085200965 -0.08348563 0.040558375
0.055283464 -0.1091585 -0.05770104 0.040718146 0.019538796 -0.122399196 -0.10457821 0.11259053
-0.07720249 0.072418995 0.07371785 -0.03569378 0.031360567 -0.12408684 -0.03732394 0.027249647
0.003710637 0.07719949 0.15600336 -0.09508958 0.12558924 -0.05229773 -0.050817546 0.026888771
0.08372935 -0.08256484 -0.08197816 -0.031302124 0.15034217 -0.13813181 -0.032151364 -0.03623562
-0.001711806 0.051716607 0.1521052 0.032720834 -0.010985736 -0.1482297 -0.108436584 0.037069097
-0.082089454 -0.03458429 0.114042684 -0.007895216 -0.11185107 0.001005009 0.05981732 0.10455371
-0.08114616 -0.0049554366 0.115385905 -0.055402644 -0.011662697 0.13186437 0.15840232 -0.01708271
0.08775718 -0.022259666 -0.045497984 -0.04458211 0.11073037 0.047682475 -0.088021025 -0.0856021
-0.034246076 0.078778826 0.071388386 -0.03943263 -0.080303535 0.0017403972 0.07049191 0.030375713
-0.03779745 0.0709756 0.024058392 -0.08120809 0.12825188 -0.014169759 -0.10806892 -0.040332668
0.09296919 -0.007170189 -0.10011482 -0.10018978 0.028502801 -0.10571469 -0.109749176 0.027851434
00000000: 7fd8 e83c f7f9 babd 5842 3ebd 0b91 adbc
00000010: df87 d9bd 1dea bcbb 66cf 5d3d ce86 883c
00000020: 633d b8bd 5a3a 36bd 5ce8 903d de38 613d
00000030: 526a e03d f87d 51bd 528a 51bd 5a19 a1bc
00000040: 1b9e f9bb dbb7 f3bd 7212 db3c 3213 a0bc
00000050: 9d9f 43bd d82c 913d e3c3 963d a1c0 87bd
00000060: 0eab ecbd a4a4 a6bd dfdf 003e d5f3 583b
00000070: 5b9c a4bd 5674 8f3c c94c f53d 0770 9e3c
00000080: ef77 f0bd a314 22bb 061a a33d 2448 9a3c
00000090: 6a71 e1bd b19d 91bc 3186 da3d d38b 15bd
000000a0: 68f8 c4bd 1348 0d3c 9987 853d 943f b2bc
000000b0: 210b c6bc 7f63 983d 5aa6 b83d 955a 50bd
000000c0: 04ef 8cbd cf85 8bbc 670b 633d 9107 de3c
000000d0: 2eed 5fbb 5180 9cbd 80f9 f6bd 9b3e 543d
000000e0: 3fe4 26bd 2be1 a53d f27b 9f3d 15bb 68bd
000000f0: d5a6 1ebc 3d69 a03d ecd9 0d3e 25e3 723b
00000100: 1722 523d f459 c6bd 8a27 abbd e11f 8fbd
00000110: bc1c 8e3c 198c f9bd f8db cdbd 69bf c23b
00000120: 4471 e63d aeaf 8fbc 950b 1ebd 1b97 9dbd
00000130: f6b1 003e 8577 6bbc abeb 55bd 1859 6bbc
00000140: 41f7 6abc 4613 aa3d d81b bb3d b45c 7dbd
00000150: 6269 c73c 9978 04be 442a 8cbd 7a1f 80bc
00000160: aa33 a3bc 15c5 b43d 607c f13d 47c2 7cbd
00000170: 17b6 d13c 9470 b0bd e52a 3cbd e30f e63c
00000180: 07d0 e7bc ca84 a33d c52d fa3d 8d7d 44bd
00000190: 20d0 033e a974 2dbd 6edd d3bd 465d f9bc
000001a0: f152 76bd a119 9f3d 3206 323d 14fb 083d
000001b0: b632 e8bd cdd6 853c 3d38 083e a92f e8bb
000001c0: a764 b8bd b9d0 3abb f352 993d 60e9 87bd
000001d0: 5eb4 d83d e6a7 083c 332f 9cbd c1fd cbbd
000001e0: 2639 a63b 8a32 7f3d 4e96 dc3d b628 a7bc
000001f0: d9a4 333d 92c9 0abe 0641 273c e675 353b
00000200: 8e3b 933d b894 06bd 623d 66bd 568a 5b3d
00000210: 517e 5e3d 00f4 51bd 26a4 8ebd 32f1 e5bc
00000220: 1d19 9c3c d843 0ebe 4b05 d0bd c79a 35bd
00000230: 6665 f33d 3066 c8bb 31e0 14be 439a 47bd
00000240: e321 d9bd c10b 8fbc 4aaa 7f3d 9e2e f13c
00000250: 3c9b 043d f11c 0fbe d914 9abd 4ad5 61b7
00000260: ad3a d2bd 9604 4abc e9be 973d 957a c2bc
00000270: 8db5 dabb 2b1c d43d 3191 a23d d587 23bd
00000280: 6232 96bd c7f5 c53d a64b 993d a2cc 10bd
00000290: add3 203d d87d aebd 84fa aabd 8a20 263d
000002a0: ea70 623d 7e8e dfbd ed57 6cbd 12c8 263d
000002b0: d30f a03c 6eac fabd 1a2d d6bd dd95 e63d
000002c0: 571c 9ebd 6950 943d 62f9 963d a433 12bd
000002d0: f073 003d 3e21 febd fde0 18bd a73a df3c
000002e0: 292e 733b c41a 9e3d 58bf 1f3e 53be c2bd
000002f0: 779a 003e 2536 56bd 0f26 50bd d745 dc3c
00000300: 4b7a ab3d c117 a9bd 2ae4 a7bd a836 00bd
00000310: 4cf3 193e 6d72 0dbe 26b1 03bd cd6b 14bd
00000320: ae5e e0ba cbd4 533d 77c1 1b3e 4806 063d
00000330: 84fd 33bc 87c9 17be 0014 debd c4d5 173d
00000340: 841e a8bd 42a8 0dbd 368f e93d f05a 01bc
00000350: 2c12 e5bd 82ba 833a 0203 753d 4120 d63d
00000360: f52f a6bd 3761 a2bb 724f ec3d e2ed 62bd
00000370: e614 3fbc 7407 073e 3834 223e 0af1 8bbc
00000380: 09ba b33d e759 b6bc 185c 3abd bb9b 36bd
00000390: 9bc6 e23d b34e 433d 5e44 b4bd 2750 afbd
000003a0: 9d45 0cbd cb56 a13d 1334 923d 1c84 21bd
000003b0: 2e76 a4bd 0a1e e43a 105e 903d 7dd6 f83c
000003c0: 80d1 1abd a85b 913d 1b16 c53c 6d50 a6bd
000003d0: 7654 033e 4728 68bc 3d53 ddbd de33 25bd
000003e0: a166 be3d e8f3 eabb 0009 cdbd 4d30 cdbd
000003f0: b57e e93c f280 d8bd 2dc4 e0bd b128 e43c

network_body.observation_encoder.x_self_encoder.seq_layers.0.bias f4 [128]
-0.043179758 0.07680313 0.10952082 -0.055991553 -0.029461585 0.086080216 0.074367724 0.06760136
0.08308535 0.10118886 0.10426502 0.10014205 0.07734929 -0.06482701 0.09432615 0.10364632
-0.052119706 -0.07776265 -0.040149923 -0.057634078 0.111111164 -0.055539314 0.11115099 -0.08187137
0.09277341 -0.052480422 0.06356793 0.0763472 0.09983845 -0.06460747 0.10240162 -0.024131123
-0.080893494 -0.053010505 -0.07306584 -0.05925386 0.073650934 -0.06501296 0.11050443 0.10228145
0.09334314 -0.08478148 -0.073831715 -0.08239271 0.060223166 -0.053603407 0.12257474 -0.047139775
-0.055881757 -0.03623883 0.11084525 -0.084387936 0.0963702 0.07594282 0.07585412 0.1113602
-0.06413163 -0.07678732 0.07359065 0.05885822 0.10023318 -0.055472452 -0.09121047 -0.08247
0.076334186 0.09117745 0.08564938 -0.042116612 -0.11390625 0.12028732 0.07208967 -0.05676813
-0.058603726 0.05083793 0.08290587 0.083136566 0.06771654 -0.061374765 -0.03616047 -0.091241606
-0.05278591 -0.07798638 0.100794286 0.1095278 0.07959163 -0.0749731 -0.04423144 -0.052108888
0.113455884 -0.077306 0.072899945 -0.077533714 -0.04124181 0.116458386 -0.055989787 -0.030430114
0.11376637 0.08405745 0.08538716 -0.054760944 -0.03962915 -0.07218273 0.09705922 -0.08801391
-0.05288534 -0.07540979 0.08829178 0.09328958 -0.07330232 0.08453092 -0.07077789 0.10829576
0.07998807 -0.05123946 -0.062356785 0.10748834 -0.020149762 0.06075805 -0.043328993 -0.057626035
0.13905513 -0.026999317 0.082010806 0.08555603 0.07297743 -0.07231834 -0.03326907 0.10176976
00000000: 42dd 30bd f64a 9d3d 744c e03d 6657 65bd
00000010: 6c59 f1bc d34a b03d 1b4e 983d 9572 8a3d
00000020: a728 aa3d 1b3c cf3d e688 d53d 4617 cd3d
00000030: 4e69 9e3d 06c4 84bd 122e c13d 8644 d43d
00000040: 797b 55bd 0642 9fbd 3f74 24bd b611 6cbd
00000050: 408e e33d 317d 63bd 21a3 e33d 2dac a7bd
00000060: fcff bd3d b6f5 56bd e72f 823d ec5b 9c3d
00000070: 1a78 cc3d ec50 84bd f1b7 d13d a2ae c5bc
00000080: 7dab a5bd 8b21 59bd 8ba3 95bd 2db4 72bd
00000090: 4dd6 963d 8425 85bd 2650 e23d f078 d13d
000000a0: b02a bf3d eaa1 adbd 1535 97bd 82bd a8bd
000000b0: 91ac 763d 3f8f 5bbd 7708 fb3d a315 41bd
000000c0: 45e4 64bd 2b6f 14bd d602 e33d 95d3 acbd
000000d0: bd5d c53d e987 9b3d 6859 9b3d d110 e43d
000000e0: 7257 83bd ac42 9dbd b2b6 963d 5115 713d
000000f0: 0e47 cd3d 1537 63bd 8ecc babd 08e6 a8bd
00000100: 1955 9c3d 3ebb ba3d f168 af3d 7882 2cbd
00000110: ae47 e9bd 3359 f63d c0a3 933d b385 68bd
00000120: 760a 70bd 6f3b 503d 8eca a93d 8143 aa3d
00000130: f8ae 8a3d 1b64 7bbd 001d 14bd e1dc babd
00000140: 0a36 58bd 53b7 9fbd 3c6d ce3d 1c50 e03d
00000150: f000 a33d 7f8b 99bd 072c 35bd 2170 55bd
00000160: 8f5b e83d 9c52 9ebd 914c 953d ffc9 9ebd
00000170: 2ced 28bd bc81 ee3d 8c55 65bd 9348 f9bc
00000180: 58fe e83d 5026 ac3d 77df ae3d 034d 60bd
00000190: 2d52 22bd 8ad4 93bd fcc6 c63d a340 b4bd
000001a0: 4c9e 58bd 7370 9abd 52d2 b43d 9b0e bf3d
000001b0: 871f 96bd 8c1e ad3d 00f4 90bd 2bca dd3d
000001c0: c9d0 a33d 78e0 51bd d469 7fbd d922 dc3d
000001d0: 1d11 a5bc 6fdd 783d be79 31bd 4709 6cbd
000001e0: 7864 0e3e ac2d ddbc 48f5 a73d 0038 af3d
000001f0: 3175 953d a31b 94bd 2645 08bd aa6c d03d

network_body._body_endoder.seq_layers.0.weight f4 [64, 132]
0.3689461 -0.21905753 -0.18024 -0.029390104 0.042120505 -0.10107146 -0.116754994 0.025167663
0.19646302 0.016147807 -0.06850059 -0.054372784 -0.013765081 -0.00010067736 -0.1878038 0.13549086
0.017321376 0.12677695 -0.051931594 0.13946016 -0.13079038 -0.088536754 0.06760222 0.06653953
0.04222737 0.0858658 0.17934427 -0.18120508 0.078425355 -0.097705044 0.12700012 0.07527561
-0.113020666 -0.016362038 0.0668437 -0.11902798 0.10885565 0.032151397 -0.10322453 -0.013605857
0.120274834 -0.031027745 0.008201872 -0.089381166 -0.18754393 -0.14919133 -0.1268958 -0.18669403
-0.09901794 0.07108791 0.2040277 -0.05704799 -0.02966919 0.061375413 0.068515494 -0.20369805
0.12165242 0.19821426 -0.13864945 0.15281126 -0.048109878 -0.11495887 0.0868088 -0.04281046
-0.079914056 -0.19081485 -0.023013268 -0.056781746 -0.123568006 0.20526603 -0.022094026 0.0925971
-0.00090114627 -0.20443809 0.044323944 0.0534081 -0.098595165 0.0036420338 0.058229376 0.0045294086
0.08191097 0.13201146 -0.0033796271 0.20533113 0.021178463 0.052913263 -0.04536173 0.14065088
-0.07346857 0.14121315 0.09954826 -0.26415005 0.20434363 0.030557333 0.14246573 0.007086982
0.066628926 0.024450403 0.12235311 0.15235278 0.003751086 0.23926541 0.061138157 -0.10031434
0.05169276 0.12578481 0.10774654 -0.12971674 -0.071252234 0.044623066 -0.1644698 -0.15575932
0.13709253 -0.1954143 -0.15326096 0.1485398 0.07088563 0.044570237 0.09057976 -0.06999717
0.008162567 0.12862442 0.010137724 0.057218805 -0.061980706 0.020772573 -0.04712072 0.11968425
-0.012744721 -0.030907365 0.063144 0.040373046 -0.44056448 -0.05182121 0.3564851 -0.037513368
-0.10469278 0.13489693 -0.022846991 0.088991135 -0.15815902 -0.12401805 0.06423197 0.0152399605
-0.009582322 0.13387753 0.026228115 0.0844848 0.048456587 0.02622538 -0.020371107 -0.12070556
0.06624332 -0.21937907 0.033483837 -0.025648091 0.0046398332 0.09428917 -0.0836886 -0.016136557
-0.07033691 -0.005589907 0.029112658 0.12151392 -0.12859249 0.023687003 0.11665818 0.031586464
-0.11751277 -0.035694588 -0.016181687 -0.10704699 0.1421212 -0.06471588 0.0020943845 0.021813266
-0.110828795 -0.034920026 0.055697266 0.026499603 -0.16229329 0.05263759 0.22908983 0.13953708
-0.081771575 0.0069088894 -0.04290519 0.075296916 0.02355447 -0.080435164 0.12262444 0.026341068
0.09253086 -0.081683196 0.30606365 -0.124327645 0.09937755 0.013582792 0.04292779 -0.058211345
-0.13185008 0.01998855 0.13227141 0.008045294 -0.08428188 -0.006351669 -0.0133593185 0.027944213
0.10564354 -0.05282354 0.06801467 0.022670263 -0.082053065 0.055935692 -0.08124787 0.08725611
0.022796977 0.06735265 -0.11039833 0.07781364 -0.019203238 0.08767441 0.09601559 -0.05060633
0.102453746 -0.016415311 0.11379928 0.102271535 0.007484413 0.08452606 -0.028306734 -0.02282063
0.06737877 0.07218874 -0.04395996 -0.008808049 -0.021352956 0.0391095 0.05550818 -0.1564479
-0.05801379 0.07875539 0.091608554 0.109358296 -0.050540563 0.049050394 -0.041077707 0.0640683
-0.005637698 -0.058296215 0.039534044 -0.06294764 -0.066070415 0.00015213445 0.00010480712 -0.08605101
00000000: 81e6 bc3e 9e50 60be d690 38be 84c3 f0bc
00000010: 8d86 2c3d 8efe cebd 3e1d efbd 6a2c ce3c
00000020: 9a2d 493e 6848 843c 0a4a 8cbd ffb5 5ebd
00000030: ef86 61bc bf22 d3b8 a44f 40be 1ebe 0a3e
00000040: 8fe5 8d3c d1d1 013e 39b6 54bd a5ce 0e3e
00000050: eaed 05be c252 b5bd 0873 8a3d e145 883d
00000060: 9bf6 2c3d 69da af3d 06a6 373e d38d 39be
00000070: 799d a03d 9519 c8bd 520c 023e 192a 9a3d
00000080: 6177 e7bd ae09 86bc 5ae5 883d f1c4 f3bd
00000090: b6ef de3d 2fb1 033d 6267 d3bd 1aeb 5ebc
000000a0: a752 f63d e62d febc 2561 063c 790d b7bd
000000b0: 840b 40be 9dc5 18be f9f0 01be b82c 3fbe
000000c0: ebc9 cabd 8a96 913d a3ec 503e 27ab 69bd
000000d0: cd0c f3bc c964 7b3d da51 8c3d 3996 50be
000000e0: e724 f93d aef8 4a3e 1ffa 0dbe 8e7a 1c3e
000000f0: dd0e 45bd 8e6f ebbd d0c8 b13d 055a 2fbd
00000100: fba9 a3bd f864 43be 5286 bcbc fa93 68bd
00000110: 3911 fdbd 4231 523e 88fe b4bc 8ca3 bd3d
00000120: e73a 6cba 3858 51be 068d 353d 74c2 5a3d
00000130: 43ec c9bd 30af 6e3b ed81 6e3d 6f6b 943b
00000140: f0c0 a73d 032e 073e bc7c 5dbb 5342 523e
00000150: 757e ad3c 94bb 583d 39cd 39bd c906 103e
00000160: b176 96bd 2e9a 103e f5df cb3d ad3e 87be
00000170: 753f 513e 5f53 fa3c 89e2 113e ea39 e83b
00000180: bf74 883d 364c c83c 4494 fa3d 5e02 1c3e
00000190: c8d4 753b fe01 753e 016c 7a3d 9b71 cdbd
000001a0: cabb 533d bccd 003e 38aa dc3d 77d4 04be
000001b0: b1ec 91bd adc6 363d c56a 28be 5f7f 1fbe
000001c0: fc61 0c3e b01a 48be 71f0 1cbe d11a 183e
000001d0: 7c2c 913d 488f 363d e281 b93d ad5a 8fbd
000001e0: 4abc 053c 1fb6 033e b218 263c 445e 6a3d
000001f0: 7bdf 7dbd 3e2b aa3c a801 41bd 041d f53d
00000200: 3ccf 50bc 7131 fdbc a451 813d 355e 253d
00000210: ab91 e1be 7a42 54bd 3785 b63e 9ea7 19bd
00000220: 2b69 d6bd 6c22 0a3e 9d29 bbbc fc40 b63d
00000230: 70f4 21be 2dfd fdbd 0d8c 833d 07b1 793c
00000240: 2cff 1cbc 3117 093e 58dc d63c 5e06 ad3d
00000250: 6a7a 463d 9cd6 d63c 4fe1 a6bc 7a34 f7bd
00000260: 94aa 873d e8a4 60be 5926 093d f21b d2bc
00000270: be09 983b ae1a c13d ee64 abbd d030 84bc
00000280: cc0c 90bd 8a2b b7bb ab7d ee3c 4adc f83d
00000290: c0ad 03be 3f0b c23c 7cea ee3d cf60 013d
000002a0: 89aa f0bd 7d34 12bd 758f 84bc 743b dbbd
000002b0: 3888 113e c289 84bd f141 093b bcb1 b23c
000002c0: 35fa e2bd 4d08 0fbd d122 643d b215 d93c
000002d0: 3630 26be 839a 573d 8696 6a3e cfe2 0e3e
000002e0: db77 a7bd f763 e23b 5abd 2fbd 4535 9a3d
000002f0: 4ef5 c03c 31bb a4bd 8622 fb3d 39c9 d73c
00000300: d280 bd3d 8549 a7bd 60b4 9c3e 7e9f febd
00000310: 7586 cb3d 5c8a 5e3c 0dd5 2f3d 056f 6ebd
00000320: b503 07be 07bf a33c 2872 073e 69d0 033c
00000330: fa9b acbd a921 d0bb 0be1 5abc 43eb e43c
00000340: a45b d83d 7f5d 58bd 464b 8b3d fdb6 b93c
00000350: 700b a8bd d31c 653d 4965 a6bd 55b3 b23d
00000360: bac0 ba3c 30f0 893d 8518 e2bd c25c 9f3d
00000370: 1c50 9dbc a48e b33d d2a3 c43d 9548 4fbd
00000380: 45d3 d13d 6779 86bc 990f e93d bd73 d13d
00000390: cf3f f53b 001c ad3d 86e3 e7bc 54f2 babc
000003a0: e1fd 893d b1d7 933d 5c0f 34bd a34f 10bc
000003b0: 65ec aebc 4831 203d 8c5c 633d e133 20be
000003c0: de9f 6dbd 824a a13d 449d bb3d 3ef7 df3d
000003d0: 9f03 4fbd 11e9 483d 1941 28bd 3e36 833d
000003e0: 70bc b8bb 03c8 6ebd 73ee 213d b1ea 80bd
000003f0: ed4f 87bd 4886 1f39 e5cb db38 833b b0bd

network_body._body_endoder.seq_layers.0.bias f4 [64]
-0.2137874 0.37622166 -0.38844603 0.16807723 -0.15503228 0.25809616 0.09312801 0.4593471
-0.06259842 -0.09176866 -0.34069297 0.08367431 -0.14751488 0.07510065 0.3806364 0.22371925
0.3759868 -0.005020471 0.010570734 -0.009942311 -0.09080407 0.076142214 -0.117461026 -0.16794893
0.5019768 0.25786152 0.0639875 0.33718684 0.07828018 0.36645138 0.11313889 0.008364917
0.250861 -0.12772998 0.46309364 0.3962025 0.11510067 0.3071542 0.29147625 0.17479219
0.04712559 0.2572416 0.4526638 0.26124302 -0.12173828 0.28690293 0.2292014 0.09954092
0.1050421 0.20927407 -0.33430532 0.19018298 0.3750527 0.23167096 0.3235268 -0.24292971
-0.049110092 0.17805125 0.18214905 0.06372552 -0.16159748 -0.17450494 0.23469837 0.35611108
00000000: 16eb 5abe 20a0 c03e 66e2 c6be 701c 2c3e
00000010: c8c0 1ebe 2e25 843e e6b9 be3d 8b2f eb3e
00000020: 9a33 80bd 35f1 bbbd 4f6f aebe 705d ab3d
00000030: 240e 17be 5fce 993d c6e2 c23e a916 653e
00000040: 5881 c03e c382 a4bb df30 2d3c 13e5 22bc
00000050: 7cf7 b9bd 73f0 9b3d 688f f0bd cefa 2bbe
00000060: 8d81 003f 6d06 843e e10b 833d c1a3 ac3e
00000070: 5c51 a03d 849f bb3e 5db5 e73d 010d 093c
00000080: da70 803e a6cb 02be 9c1a ed3e 0edb ca3e
00000090: e6b9 eb3d 5143 9d3e 603c 953e b9fc 323e
000000a0: c306 413d 2cb5 833e 8dc3 e73e a5c1 853e
000000b0: eb51 f9bd f1e4 923e c6b3 6a3e 1cdc cb3d
000000c0: 5020 d73d f14b 563e 112a abbe 54bf 423e
000000d0: e806 c03e 273b 6d3e 4ea5 a53e 91c2 78be
000000e0: aa27 49bd 1153 363e 4885 3a3e 8782 823d
000000f0: cf79 25be 6cb1 32be c554 703e 3154 b63e

network_body._body_endoder.seq_layers.2.weight f4 [64, 64]
0.013532286 0.09514868 -0.08190776 0.3002754 -0.38307878 0.16108121 0.2327283 0.019683834
0.11634347 -0.36907905 0.07934956 0.10400392 -0.26003265 0.12192905 0.121368445 0.30035433
-0.03756532 0.1599297 -0.065087095 0.053372506 0.24670468 -0.029157903 0.09100791 -0.32125828
0.25412878 0.1439186 -0.2084331 -0.073783696 0.1325818 -0.06465045 0.063145086 -0.0014810462
0.12134628 0.11700264 -0.054731097 0.005072408 0.1480692 0.11604616 0.20117341 0.16091189
0.1878464 0.07891057 -0.041957665 0.025419474 -0.14144677 -0.07674703 0.22797675 0.01740446
0.38640434 0.08613488 -0.12370206 0.3039723 -0.11370384 1.0907959e-05 0.07842602 -0.2173001
0.02325247 0.32460988 -0.08055015 -0.010956041 -0.24461785 -0.108008176 0.1525423 0.19441739
-0.45926324 0.24803635 -0.1772806 -0.02487053 -0.15158078 0.12446648 -0.07168178 0.42761174
-0.29995263 -0.22449441 -0.18312006 0.27719495 -0.24809843 0.21712837 0.30774194 0.06717611
0.0015399213 0.14128856 -0.067441314 -0.048908688 -0.019642163 0.1853815 0.0153336935 -0.022796439
-0.19783044 -0.29696977 0.24449584 0.10158451 0.2452515 0.27122173 0.21634448 0.08065222
0.0761047 0.024123209 0.14269777 0.17918025 0.18750542 0.05440762 0.11748069 0.2448757
0.09423566 0.27736786 0.25682005 0.20423672 -0.15426956 -0.10098166 0.08022105 0.11741904
-0.068621196 0.15454908 -0.07135823 0.13753903 0.35750332 0.23367767 0.22906071 -0.18998367
0.104919 0.0970689 0.26842713 0.10534202 0.05267726 0.28325775 0.1235834 0.046236403
-0.10311407 0.10213832 0.037348546 -0.10570209 -0.018081605 0.24976908 0.27370155 0.113155805
0.12090779 -0.08927997 -0.4029634 0.15914603 0.07409344 0.21930821 0.65871316 0.17201833
0.00095721765 0.09743001 -0.06735136 -0.1417425 -0.054902997 0.110028274 0.28676158 -0.023480702
0.07124492 -0.04138385 0.15564764 0.12913242 0.013447328 0.34396672 0.33536327 0.07994699
-0.09147496 0.07976806 0.0032604404 0.12404559 0.04092145 0.029513985 0.3000736 0.31428763
0.12813725 0.13315152 -0.04176119 0.07491811 -0.15888187 -0.10677874 0.26276785 0.08510367
0.028361682 0.13872826 -0.21517791 -0.0064483555 0.310863 0.039286222 0.34656334 -0.13010196
0.32107067 0.014177674 0.38560534 0.43291503 -0.2936441 0.15862246 -0.12838276 -0.0048739756
-0.1161541 0.24495833 0.04207531 -0.07154645 -0.07301095 0.2201245 0.3267435 0.45277527
-0.11215829 -0.10986366 -0.069289096 0.28106835 -0.043383352 0.08430655 0.2221671 0.24928376
0.2166173 0.38627198 -0.022106787 0.06172927 -0.1884706 0.30187115 0.13623606 -0.008041818
0.014114075 -0.0117009105 0.12965758 0.3315157 0.00115093 -0.003369053 0.39356655 0.2867117
0.092970334 -0.0590237 -0.019359061 -0.03786635 0.33137682 -0.15882862 0.2314397 0.47741115
-0.15102606 0.28514522 0.054315332 0.31277215 -0.37180752 0.010056439 -0.08113955 0.2097689
-0.14713958 0.06918741 -0.24560152 -0.075084545 0.34257492 0.2949625 0.10848322 -0.13759525
-0.042839196 -0.046400603 0.24876434 0.1435562 -0.089040086 0.07998328 -0.062981725 -0.15023984
00000000: 85b6 5d3c 50dd c23d 41bf a7bd b2bd 993e
00000010: e722 c4be 79f2 243e 5450 6e3e fe3f a13c
00000020: 7c45 ee3d eef7 bcbe 0682 a23d 0200 d53d
00000030: 0023 85be f0b5 f93d 0590 f83d 0bc8 993e
00000040: 18de 19bd 9cc4 233e 624c 85bd 219d 5a3d
00000050: 27a0 7c3e 8edc eebc 5b62 ba3d f77b a4be
00000060: 2b1d 823e 665f 133e 7d6f 55be e81b 97bd
00000070: 86c3 073e 7567 84bd 3652 813d aa1f c2ba
00000080: 6684 f83d 159f ef3d b72d 60bd 7136 a63b
00000090: 749f 173e 9ca9 ed3d 6700 4e3e 16c6 243e
000000a0: cf5a 403e dd9b a13d cddb 2bbd 803c d03c
000000b0: 6cd7 10be 8c2d 9dbd bd72 693e cc93 8e3c
000000c0: cad6 c53e 7c67 b03d 8157 fdbd 42a2 9b3e
000000d0: 8fdd e8bd 5401 3737 d29d a03d eb83 5ebe
000000e0: f77b be3c 4433 a63e 7af7 a4bd f780 33bc
000000f0: 1a7d 7abe 6433 ddbd 0c34 1c3e 5a15 473e
00000100: 8d24 ebbe 3efd 7d3e 0c89 35be 48bd cbbc
00000110: fe37 1bbe 48e8 fe3d e6cd 92bd edef da3e
00000120: 6493 99be dde1 65be d383 3bbe 7fec 8d3e
00000130: 840d 7ebe e656 5e3e 5a90 9d3e a193 893d
00000140: 2fd7 c93a f3ad 103e ac1e 8abd 7a54 48bd
00000150: 9ae8 a0bc a6d4 3d3e 2c3a 7b3c 99bf babc
00000160: 1094 4abe 6c0c 98be 1e5d 7a3e 8a0b d03d
00000170: 3623 7b3e 93dd 8a3e 6889 5d3e fe2c a53d
00000180: c8dc 9b3d 099e c53c 5d1f 123e 077b 373e
00000190: 6c01 403e 86da 5e3d b799 f03d b2c0 7a3e
000001a0: a0fe c03d 2903 8e3e eb7d 833e 6e23 513e
000001b0: d7f8 1dbe 79cf cebd ef4a a43d 6579 f03d
000001c0: 4589 8cbd 1d42 1e3e 4424 92bd 08d7 0c3e
000001d0: ad0a b73e 3349 6f3e e48e 6a3e 148b 42be
000001e0: c6df d63d 0fcc c63d 486f 893e 8fbd d73d
000001f0: 1cc4 573d 2907 913e 4b19 fd3d 6262 3d3d
00000200: 782d d3bd e52d d13d cafa 183d 567a d8bd
00000210: e01f 94bc 77c3 7f3e 9c22 8c3e 3bbe e73d
00000220: 819e f73d 6bd8 b6bd 3851 cebe 2df7 223e
00000230: 4dbe 973d 5592 603e 6da1 283f 9325 303e
00000240: caed 7a3a 6389 c73d 83ef 89bd f224 11be
00000250: f7e1 60bd 8156 e13d 6ad2 923e 9a5a c0bc
00000260: dbe8 913d 1d82 29bd 1862 1f3e 4a3b 043e
00000270: 2e52 5c3c 681c b03e bcb4 ab3e 3fbb a33d
00000280: 3957 bbbd 705d a33d 1dad 553b 9d0b fe3d
00000290: 409d 273d 50c7 f13c 3fa3 993e 4fea a03e
000002a0: 6936 033e df58 083e c80d 2bbd ab6e 993d
000002b0: eeb1 22be d0ae dabd 8289 863e d54a ae3d
000002c0: c256 e83c c80e 0e3e 9957 5cbe ba4c d3bb
000002d0: 6f29 9f3e 97ea 203d c070 b13e 7339 05be
000002e0: 6063 a43e 7a49 683c 106e c53e 0aa7 dd3e
000002f0: 8558 96be ed6d 223e c576 03be dfb5 9fbb
00000300: 33e2 edbd 5bd6 7a3e 2957 2c3d f286 92bd
00000310: c486 95bd 5168 613e ed4a a73e 29d2 e73e
00000320: 3fb3 e5bd 3300 e1bd 71e7 8dbd 31e8 8f3e
00000330: beb2 31bd eaa8 ac3d c67f 633e 3e44 7f3e
00000340: edd0 5d3e 71c5 c53e 4b19 b5bc d5d7 7c3d
00000350: 70fe 40be db8e 9a3e 7781 0b3e d4c1 03bc
00000360: b93e 673c 2db5 3fbc f5c4 043e 6dbc a93e
00000370: cdda 963a 54cb 5cbb 8e81 c93e e0cb 923e
00000380: 3b67 be3d d6c2 71bd e596 9ebc bf19 1bbd
00000390: 39aa a93e f8a3 22be 87fe 6c3e 3c6f f43e
000003a0: 93a6 1abe 8efe 913e c179 5e3d ac23 a03e
000003b0: 8e5d bebe c3c3 243c 7e2c a6bd a9cd 563e
000003c0: c2ab 16be 21b2 8d3d f77e 7bbe edc5 99bd
000003d0: fb65 af3e 5305 973e 732c de3d c5e5 0cbe
000003e0: 2778 2fbd 8f0e 3ebd 14bc 7e3e 6600 133e
000003f0: a65a b6bd 46ce a33d 90fc 80bd 79d8 19be

network_body._body_endoder.seq_layers.2.bias f4 [64]
0.17341736 0.07642583 0.07347654 0.017857783 0.08980687 0.12396702 -0.044727944 0.029360373
0.123482145 0.153609 0.17827691 0.07992074 0.2202581 0.24427113 -0.050195407 0.045130786
-0.2542575 0.03918918 0.037920304 0.06277896 0.24421553 0.15774983 -0.018760094 -0.052515004
0.02831933 0.079060115 0.15234883 0.18888763 0.31252196 0.08432623 0.18808623 0.11377839
-0.0008588365 0.093718305 0.08841374 -0.16774268 -0.080168396 0.024675427 0.059360635 -0.0004083108
0.34220132 0.022008045 -0.01850162 0.06588853 0.14529242 0.19023211 0.07685621 0.00023706291
0.068826 0.04398748 0.12472674 0.09558782 0.23698294 0.054451093 -0.17009063 -0.051356718
-0.11699958 0.34268084 0.37317938 0.06398054 0.02577706 -0.08508727 0.061952375 0.08984267
00000000: 5294 313e 2585 9c3d de7a 963d 7c4a 923c
00000010: aaec b73d 6ce2 fd3d a634 37bd 2a85 f03c
00000020: 35e4 fc3d ad4b 1d3e 398e 363e 7cad a33d
00000030: 578b 613e 3622 7a3e b399 4dbd 0fdb 383d
00000040: 0a2e 82be d584 203d 5252 1b3d 4192 803d
00000050: a313 7a3e 2c89 213e c5ae 99bc f919 57bd
00000060: f1fd e73c 45ea a13d 5501 1c3e c26b 413e
00000070: e102 a03e 3bb3 ac3d ad99 403e a504 e93d
00000080: 8b23 61ba 62ef bf3d 4312 b53d bdc4 2bbe
00000090: 542f a4bd 1f24 ca3c 2324 733d 8c12 d6b9
000000a0: 0335 af3e 374a b43c b690 97bc 91f0 863d
000000b0: 89c7 143e 35cc 423e ca66 9d3d 1794 7839
000000c0: a5f4 8c3d 372c 343d bc70 ff3d 8cc3 c33d
000000d0: a8ab 723e 1c08 5f3d 3d2c 2ebe 6c5b 52bd
000000e0: 7a9d efbd dd73 af3e 5e11 bf3e 3b08 833d
000000f0: 6a2a d33c 3c42 aebd c6c1 7d3d 6fff b73d

action_model._discrete_distribution.branches.0.weight f4 [11, 64]
-0.08956809 -0.10145884 -0.055881884 -0.041184347 -0.07639983 0.014137941 -0.11541838 -0.10449638
-0.030026268 -0.048129905 -0.047607757 -0.046477415 0.08036636 -0.027176287 0.08473336 -0.047353994
-0.20274264 -0.053204324 -0.035328962 -0.03008882 -0.06627464 -0.038642287 0.19476533 -0.20538723
0.02599529 -0.023595722 0.023633096 0.121428825 0.024373416 -0.043633647 -0.02832886 -0.04707574
-0.13608432 -0.04582959 -0.028847337 -0.23337434 -0.027781399 -0.058418605 -0.067905456 -0.11676724
0.11931369 -0.051472094 -0.12856604 -0.042269394 0.0428707 -0.04640739 -0.06897295 0.09093072
-0.02566508 -0.09055787 -0.07136436 -0.060850564 -0.04369592 -0.028466953 -0.21417777 -0.13434768
-0.25936082 -0.014169634 0.10545907 -0.013161503 -0.039742857 -0.2393676 -0.025101144 -0.04380596
0.034363776 -0.102193765 -0.1798637 -0.14239666 0.10267339 -0.15053336 -0.17203966 0.123726666
-0.1472117 0.072594345 0.029621301 -0.19818763 0.015051032 0.02469507 -0.27679536 -0.12047308
-0.12556623 -0.17760463 -0.1608077 -0.17872001 -0.03309873 0.11507011 -0.109226145 -0.16217966
0.11668792 -0.17914967 -0.13201448 -0.20116542 -0.04772379 0.12178156 0.025235893 0.09146182
0.09643899 -0.16817673 -0.17214298 -0.07007725 -0.19298658 0.10484447 0.10541052 -0.16513623
-0.04005578 -0.14749368 0.11918035 0.20225962 -0.1754164 0.015839247 -0.1723911 -0.30885348
-0.14759724 0.087025285 0.009675943 -0.119775295 0.05301103 -0.16084038 -0.16976447 -0.11658252
-0.040302902 0.040732 -0.021275094 -0.14179985 -0.04804633 -0.047965456 -0.15721807 0.07760509
-0.0052860263 -0.068066515 -0.06955828 -0.012118022 -0.03332915 -0.013768505 -0.050414227 -0.034185026
0.0277563 -0.0032597 -0.005613071 0.10602062 -0.04865482 -0.020390812 -0.03353057 -0.068988614
-0.050305016 0.06324399 0.0032815386 0.026601017 0.017767461 -0.13784876 0.0016832695 0.111132406
-0.21285069 0.1130026 0.035014007 0.08908742 0.03970063 -0.09870727 0.01178203 -0.0054101357
-0.044856858 0.12908284 0.00896303 -0.036194928 0.04781679 -0.053506978 -0.13761011 -0.06372801
-0.017751448 -0.007615741 -0.019565795 -0.31828883 0.04890749 0.026203752 0.095114335 0.123028345
0.110357806 -0.03500748 -0.015591956 0.084759094 -2.883499e-05 -0.075060956 -0.00017421712 0.33286616
0.19981289 -0.016612552 0.12605362 0.015696295 -0.06562324 0.11457064 0.020068578 -0.023610277
-0.0040798946 -0.007115941 -0.015948385 -0.0062391413 -0.023009483 0.017174397 -0.023443405 0.013290889
0.0077258334 0.0034416628 -0.011995795 -0.01753576 -0.0034497995 -0.0070919343 -0.013709842 -0.005270205
-0.01072184 -0.00014899003 -0.028351426 0.022052186 -0.0024823043 -0.005672548 -0.01400582 0.015004426
-0.014155756 0.010998799 0.0033503473 -0.0020855607 -0.0010488742 -0.00079410535 -0.012154999 -0.019571645
0.021225477 -0.016094437 -0.023368407 -0.008610167 -0.019928267 -0.011344306 0.006174144 0.008808196
-0.0033078124 -0.009543132 0.008132323 0.0071923323 -0.03112933 0.0134021705 -0.02716644 -0.00100316
-0.010753169 -0.0037271522 -0.019922983 -0.006516403 -0.01150649 -0.013227321 0.0090924045 0.01861128
0.00095127115 0.010992959 -0.006570156 0.008445757 0.008321854 -0.0109293 0.0148691675 -0.00912313
00000000: 7a6f b7bd a7c9 cfbd 67e4 64bd ebb0 28bd
00000010: 8477 9cbd d3a2 673c 7960 ecbd 3302 d6bd
00000020: a6f9 f5bc dd23 45bd 5a00 43bd 1a5f 3ebd
00000030: 1e97 a43d cea0 debc af88 ad3d 43f6 41bd
00000040: c49b 4fbe c7ec 59bd 1ab5 10bd d47c f6bc
00000050: 00bb 87bd 6047 1ebd 9070 473e 0851 52be
00000060: 13f4 d43c d14b c1bc 329a c13c adaf f83d
00000070: c2aa c73c 32b9 32bd ed11 e8bc 7ed2 40bd
00000080: b059 0bbe cfb7 3bbd 4051 ecbc aff9 6ebe
00000090: d195 e3bc 5948 6fbd 0412 8bbd aa23 efbd
000000a0: bc5a f43d 67d4 52bd d1a6 03be ac22 2dbd
000000b0: 3099 2f3d ad15 3ebd b141 8dbd e339 ba3d
000000c0: 933f d2bc 6876 b9bd 7a27 92bd 713e 79bd
000000d0: 7efa 32bd 8733 e9bc 6b51 5bbe 7092 09be
000000e0: f1ca 84be c127 68bc edfa d73d 58a3 57bc
000000f0: 68c9 22bd c81c 75be eaa0 cdbc e16d 33bd
00000100: 08c1 0c3d f74a d1bd 312e 38be 6ed0 11be
00000110: 6d46 d23d 6b25 1abe 2a2b 30be 6864 fd3d
00000120: aabe 16be 58ac 943d 5fa8 f23c b3f1 4abe
00000130: 9b98 763c 514d ca3c 1fb8 8dbe 97ba f6bd
00000140: 6f94 00be fddd 35be c6aa 24be 6102 37be
00000150: 8992 07bd e1a9 eb3d f5b1 dfbd 6d12 26be
00000160: 14fa ee3d 0373 37be ce2e 07be 4ffe 4dbe
00000170: 057a 43bd 9c68 f93d 81bb ce3c 5650 bb3d
00000180: ce81 c53d 8536 2cbe 4046 30be a984 8fbd
00000190: 469e 45be b3b8 d63d 79e1 d73d 7919 29be
000001a0: 8811 24bd 9508 17be d414 f43d 251d 4f3e
000001b0: 5ba0 33be 4fc1 813c 4b87 30be 0b22 9ebe
000001c0: bb23 17be 503a b23d d987 1e3c c04c f5bd
000001d0: 1822 593d 57b3 24be bdd6 2dbe d1c2 eebd
000001e0: a814 25bd 99d6 263d 1b49 aebc fb33 11be
000001f0: 3bcc 44bd 6d77 44bd c6fd 20be 6bef 9e3d
00000200: 6736 adbb 7566 8bbd 9274 8ebd ab8a 46bc
00000210: 2684 08bd 4c95 61bc 267f 4ebd 9905 0cbd
00000220: 2e61 e33c b1a0 55bb daed b7bb 5721 d93d
00000230: 474a 47bd a20a a7bc 5a57 09bd e749 8dbd
00000240: a20c 4ebd 1186 813d 150f 573b 60ea d93c
00000250: 118d 913c 3a28 0dbe 27a1 dc3a 6399 e33d
00000260: 88f5 59be e86d e73d d96a 0f3d 7773 b63d
00000270: 219d 223d 0a27 cabd 6a09 413c 8247 b1bb
00000280: d3bb 37bd 4b2e 043e acd9 123c 2241 14bd
00000290: 8adb 433d 222a 5bbd aae9 0cbe d583 82bd
000002a0: 7c6b 91bc 778d f9bb 7248 a0bc c1f6 a2be
000002b0: 3853 483d 40a9 d63c 4ecb c23d 49f6 fb3d
000002c0: 4603 e23d 0164 0fbd 6775 7fbc 2d96 ad3d
000002d0: abe2 f1b7 8fb9 99bd 0dae 36b9 6f6d aa3e
000002e0: c09b 4c3e 0c17 88bc 3314 013e 8495 803c
000002f0: 7a65 86bd 03a4 ea3d dc66 a43c 576a c1bc
00000300: a3b0 85bb d72c e9bb 30a6 82bc b671 ccbb
00000310: 627e bcbc 52b1 8c3c 620c c0bc 07c2 593c
00000320: fd28 fd3b 858d 613b 038a 44bc 27a7 8fbc
00000330: 0816 62bb 7563 e8bb 3f9f 60bc afb1 acbb
00000340: a8aa 2fbc 353a 1cb9 4041 e8bc c9a6 b43c
00000350: 28ae 22bb c8e0 b9bb ab78 65bc 20d5 753c
00000360: 8bed 67bc 4f34 343c 8091 5b3b e7ad 08bb
00000370: 617a 89ba 822b 50ba c325 47bc b754 a0bc
00000380: 0de1 ad3c 7bd8 83bc 1a6f bfbc a811 0dbc
00000390: 9b40 a3bc 78dd 39bc 7950 ca3b 4050 103c
000003a0: e2c7 58bb cc5a 1cbc 6f3d 053c a8ad eb3b
000003b0: f002 ffbc c794 5b3c 278c debc 777c 83ba
000003c0: 0f2e 30bc 3d43 74bb 8635 a3bc 8d87 d5bb
000003d0: b885 3cbc 68b7 58bc 4ff8 143c af76 983c
000003e0: ba5e 793a d01b 343c 774a d7bb 1360 0a3c
000003f0: 6358 083c cf10 33bc cf9d 733c 2e79 15bc

action_model._discrete_distribution.branches.0.bias f4 [11]
-0.032997716 0.015629089 0.0677734 0.0 0.0 0.0 0.0780596 0.0018370992
0.0 0.0 0.0
00000000: 9d28 07bd 9308 803c c8cc 8a3d 0000 0000
00000010: 0000 0000 0000 0000 b6dd 9f3d d2ca f03a
00000020: 0000 0000 0000 0000 0000 0000

onnx::Div_185 f4 [4]
0.17200112 0.15912755 0.00091287686 1.0874286
00000000: 1021 303e 55f2 223e 214e 6f3a dc30 8b3f
