results/3-3-run3/simple_deer/simple_deer-499978.onnx (onnx, 485941 bytes, 22 tensors)

network_body.observation_encoder.processors.0.self_ent_encoder.seq_layers.0.bias f4 [128]
-0.02712738 -0.01263675 -0.059518207 0.030294556 -0.021964857 0.0060236566 0.030546948 0.0038641784
0.058244552 -0.02344575 0.073626526 -0.020853402 0.061579518 0.039548397 -0.05383312 0.025807712
0.043808922 -0.027183428 0.042484462 -0.05417176 -0.043648828 -0.004297844 0.03266426 -0.04442217
0.020492064 0.046845064 -0.04073818 -0.01564623 -0.023262382 -0.03278368 -0.029124878 -0.033507936
0.039696306 0.035016507 0.046593793 -0.04065632 -0.046581667 -0.025400894 0.084011085 -0.031289164
0.034883104 0.050333925 0.023339747 -0.022024373 -0.04350565 -0.035199065 0.016437793 0.049549002
-0.013292155 0.015601424 0.057740428 0.030128654 -0.058958832 0.028626075 0.01630493 0.028079744
-0.008064015 -0.04968447 -0.023312453 -0.0066805 0.045526385 -0.014019825 0.03987248 0.02318269
0.01524975 -0.007706463 -0.031131765 0.07337028 0.007510006 0.08439615 -0.03308745 -0.004171074
-0.022802277 0.020007703 -0.024406012 0.0012051533 0.040555045 0.0045363274 -0.04078129 0.039194554
-0.027659895 -0.036709342 0.05380563 -0.02757249 -0.010559418 -0.011654172 0.031301416 -0.04155077
0.051535692 0.0038247644 0.042662706 0.0639489 0.030389816 0.013547088 -0.021690572 0.03856232
-0.026924577 0.029047675 0.03043668 0.08036983 0.012612373 -0.046170253 0.009495009 0.009511911
-0.0053374567 -0.018188944 0.002749645 -0.036620066 -0.045157854 -0.027414082 0.015621705 0.052675348
-0.051267095 -0.00019373964 0.045909725 -0.031063255 -0.020347493 -0.03530641 -0.015679065 0.049768347
0.05634548 -0.016172312 0.028527113 -0.028002227 -0.04472805 -0.029795447 -0.060185537 -0.0105956355
00000000: 3d3a debc 5f0a 4fbc 5dc9 73bd 4a2c f83c
00000010: a5ef b3bc 1862 c53b 983d fa3c 283e 7d3b
00000020: d791 6e3d 4d11 c0bc 81c9 963d c1d4 aabc
00000030: ce3a 7c3d 80fd 213d 1e80 5cbd b26a d33c
00000040: fc70 333d c8af debc 3004 2e3d 35e3 5dbd
00000050: 1dc9 32bd eed4 8cbb f6ca 053d 05f4 35bd
00000060: f9de a73c 9ce0 3f3d 14dd 26bd 862c 80bc
00000070: c090 bebc 2e48 06bd 4c97 eebc 9e3f 09bd
00000080: 9898 223d 786d 0f3d 22d9 3e3d 3e87 26bd
00000090: 6bcc 3ebd 8915 d0bc 010e ac3d 1129 00bd
000000a0: 96e1 0e3d f22a 4e3d ff32 bf3c 756c b4bc
000000b0: fb32 32bd e52c 10bd 8da8 863c e5f3 4a3d
000000c0: 57c7 59bc 1d9d 7f3c 3a81 6c3d 5ed0 f63c
000000d0: d17e 71bd 3b81 ea3c eb91 853c 7e07 e63c
000000e0: ee1e 04bc f181 4bbd c2f9 bebc 19e8 dabb
000000f0: e079 3a3d 68b3 65bc 5351 233d a0e9 bd3c
00000100: 16da 793c 7f86 fcbb 0b08 ffbc 2843 963d
00000110: 7f16 f63b e4d7 ac3d b586 07bd 81ad 88bb
00000120: d7cb babc 32e7 a33c 1eef c7bc 3cf6 9d3a
00000130: 0c1d 263d 79a5 943b 480a 27bd 788a 203d
00000140: 0197 e2bc 895c 16bd 4b63 5c3d b4df e1bc
00000150: 6901 2dbc 24f1 3ebc ea35 003d 2431 2abd
00000160: 1717 533d e6a8 7a3b 17bf 2e3d a4f7 823d
00000170: 10f4 f83c 9bf4 5d3c 6db0 b1bc 86f3 1d3d
00000180: ee90 dcbc 64f5 ed3c 5856 f93c f098 a43d
00000190: 20a4 4e3c 051d 3dbd f490 1b3c d9d7 1b3c
000001a0: d5e5 aebb fb00 95bc 6333 343b ecfe 15bd
000001b0: 71f7 38bd 7f93 e0bc 2ef2 7f3c 1bc2 573d
000001c0: 72fd 51bd 9726 4bb9 d60b 3c3d 5e78 febc
000001d0: c9af a6bc 749d 10bd 6271 80bc e5d9 4b3d
000001e0: 85ca 663d cc7b 84bc b1b1 e93c ed64 e5bc
000001f0: c234 37bd 9515 f4bc 1c85 76bd 5199 2dbc

network_body.observation_encoder.processors.1.self_ent_encoder.seq_layers.0.bias f4 [128]
0.0 0.0 0.0 0.0 0.0 0.0 0.0 0.0
0.0 0.0 0.0 0.0 0.0 0.0 0.0 0.0
0.0 0.0 0.0 0.0 0.0 0.0 0.0 0.0
0.0 0.0 0.0 0.0 0.0 0.0 0.0 0.0
0.0 0.0 0.0 0.0 0.0 0.0 0.0 0.0
0.0 0.0 0.0 0.0 0.0 0.0 0.0 0.0
0.0 0.0 0.0 0.0 0.0 0.0 0.0 0.0
0.0 0.0 0.0 0.0 0.0 0.0 0.0 0.0
0.0 0.0 0.0 0.0 0.0 0.0 0.0 0.0
0.0 0.0 0.0 0.0 0.0 0.0 0.0 0.0
0.0 0.0 0.0 0.0 0.0 0.0 0.0 0.0
0.0 0.0 0.0 0.0 0.0 0.0 0.0 0.0
0.0 0.0 0.0 0.0 0.0 0.0 0.0 0.0
0.0 0.0 0.0 0.0 0.0 0.0 0.0 0.0
0.0 0.0 0.0 0.0 0.0 0.0 0.0 0.0
0.0 0.0 0.0 0.0 0.0 0.0 0.0 0.0
00000000: 0000 0000 0000 0000 0000 0000 0000 0000
00000010: 0000 0000 0000 0000 0000 0000 0000 0000
00000020: 0000 0000 0000 0000 0000 0000 0000 0000
00000030: 0000 0000 0000 0000 0000 0000 0000 0000
00000040: 0000 0000 0000 0000 0000 0000 0000 0000
00000050: 0000 0000 0000 0000 0000 0000 0000 0000
00000060: 0000 0000 0000 0000 0000 0000 0000 0000
00000070: 0000 0000 0000 0000 0000 0000 0000 0000
00000080: 0000 0000 0000 0000 0000 0000 0000 0000
00000090: 0000 0000 0000 0000 0000 0000 0000 0000
000000a0: 0000 0000 0000 0000 0000 0000 0000 0000
000000b0: 0000 0000 0000 0000 0000 0000 0000 0000
000000c0: 0000 0000 0000 0000 0000 0000 0000 0000
000000d0: 0000 0000 0000 0000 0000 0000 0000 0000
000000e0: 0000 0000 0000 0000 0000 0000 0000 0000
000000f0: 0000 0000 0000 0000 0000 0000 0000 0000
00000100: 0000 0000 0000 0000 0000 0000 0000 0000
00000110: 0000 0000 0000 0000 0000 0000 0000 0000
00000120: 0000 0000 0000 0000 0000 0000 0000 0000
00000130: 0000 0000 0000 0000 0000 0000 0000 0000
00000140: 0000 0000 0000 0000 0000 0000 0000 0000
00000150: 0000 0000 0000 0000 0000 0000 0000 0000
00000160: 0000 0000 0000 0000 0000 0000 0000 0000
00000170: 0000 0000 0000 0000 0000 0000 0000 0000
00000180: 0000 0000 0000 0000 0000 0000 0000 0000
00000190: 0000 0000 0000 0000 0000 0000 0000 0000
000001a0: 0000 0000 0000 0000 0000 0000 0000 0000
000001b0: 0000 0000 0000 0000 0000 0000 0000 0000
000001c0: 0000 0000 0000 0000 0000 0000 0000 0000
000001d0: 0000 0000 0000 0000 0000 0000 0000 0000
000001e0: 0000 0000 0000 0000 0000 0000 0000 0000
000001f0: 0000 0000 0000 0000 0000 0000 0000 0000

network_body.observation_encoder.processors.2.normalizer.running_mean f4 [4]
0.7039039 0.7305053 0.4999895 2.1040015
00000000: 0c33 343f 6502 3b3f a0fe ff3e f6a7 0640

network_body.observation_encoder.rsa.fc_q.bias f4 [128]
0.028233428 0.02727882 -0.013802915 -0.023001902 0.0007315882 -0.0038331905 0.042709485 0.009259525
0.033755008 -0.02580913 0.02128176 0.018360127 -0.02531621 -0.025164003 0.018518219 0.025574533
0.026233857 -0.024394738 0.022212392 -0.026627585 0.0302127 -0.053612594 -0.02022069 -0.04229919
0.025074463 -0.04393675 -0.019651785 -0.00014937484 0.036558982 0.023855362 0.017720196 -0.032471005
0.040571403 -0.02840584 -0.021340644 -0.047018927 -0.02431951 0.026098648 0.0009325892 0.0339687
0.020442618 -0.01236929 0.041402142 -0.03512227 0.021913005 -0.014826745 -0.04234978 -0.037065327
0.041305594 -0.04473618 -0.029834438 0.032699108 0.0033894181 0.020457422 -0.02976674 -0.042846575
0.030014683 -0.03036809 -0.023340296 0.053934753 0.021640377 -0.039267868 0.016602188 0.036180623
-0.026079973 0.015122195 -0.027960083 0.02977195 0.032389812 0.020487498 -0.026610892 -0.038212217
-0.027576085 0.012935674 -0.012325604 -0.0014307277 0.027739672 -0.035435904 -0.037983835 -0.0162101
-0.024550142 0.033460263 0.013347372 -0.01120467 0.02658058 0.0073809414 -0.006469218 -0.011081154
-0.027197557 -0.01844584 0.020423878 -0.0018144186 -0.008237232 -0.02592386 0.01610476 -0.02668283
-0.03464666 0.04146002 -0.015575041 -0.03827975 0.032784086 0.005256589 0.036683053 -0.03550723
0.03369717 0.06875747 0.01196781 0.037779998 0.014168011 -0.06077906 -0.021708364 0.036234803
0.051052053 0.06035098 0.06812774 0.029161632 0.03586374 -0.010150308 -0.03655697 0.042221386
0.061849594 0.009197334 -0.025309132 -0.038778864 0.031631447 -0.03487087 -0.05137875 0.028115114
00000000: ca49 e73c d577 df3c 9f25 62bc 7c6e bcbc
00000010: 0ec8 3f3a 4436 7bbb 24f0 2e3d 43b5 173c
00000020: b142 0a3d ab6d d3bc 1657 ae3c fa67 963c
00000030: f163 cfbc bd24 cebc 85b3 973c af81 d13c
00000040: 63e8 d63c 79d7 c7bc c3f6 b53c 1822 dabc
00000050: a080 f73c e198 5bbd dca5 a5bc ea41 2dbd
00000060: f668 cd3c 06f7 33bd c8fc a0bc 81a1 1cb9
00000070: dfbe 153d 526c c33c f229 913c 5100 05bd
00000080: 332e 263d 5db3 e8bc 93d2 aebc eb96 40bd
00000090: b639 c7bc d5cc d53c 0079 743a c322 0b3d
000000a0: 4777 a73c 90a8 4abc 4b95 293d 5fdc 0fbd
000000b0: e782 b33c e0eb 72bc f776 2dbd d0d1 17bd
000000c0: 0e30 293d 493d 37bd 5a67 f4bc 80ef 053d
000000d0: 0021 5e3b 5396 a73c 61d9 f3bc e47f 2fbd
000000e0: 5ae1 f53c 80c6 f8bc 2634 bfbc b0ea 5c3d
000000f0: 2947 b13c 58d7 20bd 5001 883c 2232 143d
00000100: aba5 d5bc 15c3 773c 8b0c e5bc 4ee4 f33c
00000110: 2eab 043d 66d5 a73c 16ff d9bc 6a84 1cbd
00000120: 3ee7 e1bc 26f0 533c 55f1 49bc 4187 bbba
00000130: 4f3e e33c 3d25 11bd f094 1bbd 0bcb 84bc
00000140: 611d c9bc a10d 093d f0ae 5a3c cb93 37bc
00000150: 84bf d93c d3db f13b bcfb d3bb bb8d 35bc
00000160: 69cd debc bb1b 97bc fa4f a73c c9d1 edba
00000170: 75f5 06bc 465e d4bc 21ee 833c f395 dabc
00000180: a8e9 0dbd fbd1 293d 752e 7fbc 3acb 1cbd
00000190: 9b48 063d 773f ac3b f840 163d 0770 11bd
000001a0: 0b06 0a3d b7d0 8c3d a214 443c 33bf 1a3d
000001b0: f220 683c 77f3 78bd bdd5 b1bc f26a 143d
000001c0: f51b 513d 9732 773d 8e86 8b3d 60e4 ee3c
000001d0: dbe5 123d 7a4d 26bc c3bc 15bd 55f0 2c3d
000001e0: 0056 7d3d 6ab0 163c 1955 cfbc 96d6 1ebd
000001f0: fa8f 013d c2d4 0ebd 8672 52bd ab51 e63c

network_body.observation_encoder.rsa.fc_k.bias f4 [128]
-1.8229624e-05 -1.2776505e-05 3.6621352e-06 9.161017e-06 -9.781403e-07 4.0715277e-06 -7.1533436e-06 -2.8128936e-06
-4.0742325e-06 1.0349856e-05 -1.0526543e-05 -3.4678458e-06 1.0696691e-05 7.4725153e-06 -7.334929e-06 -1.053731e-05
-6.300805e-06 6.3770235e-06 -5.6530544e-06 1.4578527e-05 -1.9738925e-05 2.6297053e-05 5.7492975e-06 1.5465503e-05
-1.4347162e-05 2.0706655e-05 1.5225663e-05 -2.4826006e-06 -9.525345e-06 -9.092933e-06 -1.281147e-07 1.8478504e-05
2.1790138e-05 -6.7418673e-06 -8.344619e-06 -2.179617e-05 -1.2300709e-05 3.32621e-06 1.1936129e-06 6.836294e-06
4.8772295e-06 -1.1769524e-05 1.6534143e-05 -1.6745837e-05 3.3560993e-06 -5.0274875e-06 -6.8363147e-07 -1.5764248e-05
1.2596786e-05 -5.0702956e-06 -2.4651226e-06 2.001319e-06 4.625155e-06 1.6574381e-06 -1.08974355e-05 -1.3020203e-05
1.9836461e-05 -2.2471866e-06 -6.4689825e-06 1.20108625e-05 1.22159245e-05 -2.7512679e-05 6.35781e-06 3.6066038e-05
-9.3089775e-06 7.987016e-06 -1.0852765e-05 1.1479993e-05 4.706568e-06 1.7170656e-05 -7.83274e-06 -1.08402555e-05
-4.70897e-06 7.679406e-06 -3.3035874e-06 1.0176499e-06 5.507797e-06 -1.873289e-05 -8.184787e-06 -7.3236806e-06
-4.226915e-06 4.743115e-06 -6.6375014e-07 9.725511e-07 2.2121324e-06 -2.5614881e-06 -4.013422e-07 -8.05644e-06
-1.1056504e-05 -2.5207287e-06 -1.1891879e-06 -1.8989325e-06 -1.084958e-05 -5.897271e-06 4.239475e-06 -1.5645439e-05
-2.5097957e-05 1.4142781e-05 -5.7730238e-05 5.789181e-06 -6.6463804e-06 -1.3278626e-05 1.5053441e-05 -2.7034226e-05
4.894244e-06 -1.7847622e-05 -7.191154e-06 -1.02512395e-05 2.676082e-05 2.2185338e-06 -8.16515e-06 2.1321925e-06
-4.500862e-06 3.0979605e-05 6.0971546e-05 5.5618684e-06 1.2582104e-05 -1.0576842e-05 -1.8710718e-05 -1.5595237e-05
1.034851e-05 6.7283686e-06 -1.7909026e-05 -1.4814333e-05 2.2771723e-05 -3.3689077e-05 -1.8196906e-06 1.8654788e-05
00000000: d2eb 98b7 ac5a 56b7 01c3 7536 45b2 1937
00000010: a548 83b5 289e 8836 c106 f0b6 25c5 3cb6
00000020: 64b5 88b6 4ba4 2d37 289b 30b7 23b9 68b6
00000030: f075 3337 6bbc fa36 8f1e f6b6 67c9 30b7
00000040: 816b d3b6 37fa d536 5eaf bdb6 4c96 7437
00000050: 0595 a5b7 7e98 dc37 17ea c036 eabb 8137
00000060: 97b4 70b7 34b3 ad37 ba71 7f37 c19a 26b6
00000070: 0ccf 1fb7 da8d 18b7 e78f 09b4 4902 9b37
00000080: f7c9 b637 3338 e2b6 deff 0bb7 ebd6 b6b7
00000090: 255f 4eb7 da37 5f36 3a34 a035 5163 e536
000000a0: 15a7 a336 b875 45b7 cdb2 8a37 6979 8cb7
000000b0: 5939 6136 cab1 a8b6 cc82 37b5 773d 84b7
000000c0: c956 5337 8221 aab6 7c6e 25b6 664e 0636
000000d0: c731 9b36 2475 de35 21d4 36b7 5971 5ab7
000000e0: 7a66 a637 5fce 16b6 2310 d9b6 4382 4937
000000f0: fff2 4c37 07cb e6b7 2c55 d536 9d45 1738
00000100: c12d 1cb7 f9ff 0537 4514 36b7 329a 4037
00000110: 1ced 9d36 b409 9037 5d69 03b7 8bde 35b7
00000120: bf01 9eb6 ccd6 0037 33b3 5db6 2f96 8835
00000130: 9ecf b836 9324 9db7 6451 09b7 f0bd f5b6
00000140: ecd4 8db6 0c27 9f36 902c 32b5 9a88 8235
00000150: 2574 1436 08e6 2bb6 0d78 d7b4 252a 07b7
00000160: 537f 39b7 ca29 29b6 2f9c 9fb5 d3de feb5
00000170: 9706 36b7 2ce1 c5b6 d040 8e36 533e 83b7
00000180: 7489 d2b7 c846 6d37 5f23 72b8 b040 c236
00000190: f903 dfb6 44c7 5eb7 098e 7c37 8fc7 e2b7
000001a0: 3c39 a436 7ab7 95b7 8b4b f1b6 bdfc 2bb7
000001b0: 6c7c e037 1fe2 1436 0dfd 08b7 ca16 0f36
000001c0: 1c06 97b6 19f0 0138 b3bb 7f38 16a0 ba36
000001d0: ba17 5337 3173 31b7 f6f4 9cb7 84d2 82b7
000001e0: 839e 2d37 3fc4 e136 573b 96b7 138b 78b7
000001f0: e705 bf37 5f4d 0db8 183c f4b5 da7c 9c37

network_body.observation_encoder.rsa.fc_v.bias f4 [128]
0.025504263 0.008033384 -0.01129882 0.019591507 0.007106043 0.014249927 0.0013266038 0.01221478
-0.006579991 -0.0070321388 -0.00035879255 0.023963522 0.009736685 0.0038238296 -0.015182919 0.02040022
-0.01844515 -0.008735684 0.018158488 0.024853537 -0.023466226 0.013221633 -0.014994046 -0.0176308
0.014827634 -0.02622751 -0.021431055 -0.008949099 -0.034159057 0.024774108 -0.013206888 -0.0015256301
-0.019030262 -0.017853083 0.0032980354 -0.030749887 0.015781024 -0.010393165 -0.019742334 0.0190639
0.022281907 -0.0021840637 0.022958362 -0.017258074 0.0025664186 0.011070272 0.017802548 -0.017796773
-0.011650305 0.008525259 0.01287389 0.00010578408 -0.0017492066 -0.018998541 0.019993488 -0.017107664
0.010991209 -0.004274491 0.008810696 -0.021420326 0.011626905 0.01416097 0.014991263 -0.0041006505
0.017792564 0.0152290985 -0.0067700744 -0.015183944 -0.0077587357 -0.009987928 -0.012543258 0.011418835
0.0214285 0.00052610546 0.022592315 -0.014905994 -0.00585488 -0.022764038 0.01002529 -0.0018582755
0.0018766361 0.0082154395 0.0047005774 0.0053375256 -0.006214552 -0.015117374 -0.00473534 -0.018683298
-0.019570513 -0.012777984 0.021511931 0.016156068 0.012068623 0.017816644 -0.012122054 -0.008788056
-0.008931253 0.0043633375 -0.009867494 -0.015049145 -0.009542674 0.013812835 -0.01975063 -0.022656722
0.007008742 -0.009041775 -0.00602581 -0.010758598 -0.021432023 0.024186064 0.011111955 -0.01852994
0.013992831 0.00661607 -0.010630176 -0.02509741 -0.030415773 0.0013926504 -0.0070454795 -0.0038853744
-0.0038917759 0.0074923323 -0.0059347996 -0.0010317988 0.023666166 0.012961106 0.0006126116 -0.017340053
00000000: 51ee d03c 749e 033c b01e 39bc 5e7e a03c
00000010: cfd9 e83b 8778 693c 70e1 ad3a 8020 483c
00000020: f79c d7bb db6d e6bb 521c bcb9 264f c43c
00000030: 9e86 1f3c 3799 7a3b c7c1 78bc 5d1e a73c
00000040: 491a 97bc 1d20 0fbc 1cc1 943c a599 cb3c
00000050: 3e3c c0bc 8c9f 583c 96a9 75bc 786e 90bc
00000060: 9bef 723c 13db d6bc 2e90 afbc 3e9f 12bc
00000070: 5eea 0bbd 12f3 ca3c b461 58bc a7f7 c7ba
00000080: 5ae5 9bbc a140 92bc da23 583b 30e7 fbbc
00000090: 3547 813c 1848 2abc adba a1bc e52b 9c3c
000000a0: 8c88 b63c 8222 0fbb 2d13 bc3c ce60 8dbc
000000b0: 5c31 283b 1660 353c a6d6 913c 8aca 91bc
000000c0: ece0 3ebc 87ad 0b3c 02ed 523c 65d8 dd38
000000d0: a245 e5ba d4a2 9bbc 62c9 a33c 5f25 8cbc
000000e0: 7914 343c 0811 8cbb bd5a 103c ae79 afbc
000000f0: c67e 3e3c 6a03 683c ea9d 753c c05e 86bb
00000100: b6c1 913c 7883 793c 80d7 ddbb 14c6 78bc
00000110: fe3c febb 68a4 23bc 3d82 4dbc 1116 3b3c
00000120: d28a af3c 57ea 093a 8513 b93c 4538 74bc
00000130: 4bda bfbb a67b babc 1d41 243c 6191 f3ba
00000140: 75f9 f53a 0d9a 063c 4d07 9a3b 69e6 ae3b
00000150: 71a3 cbbb ddae 77bc e92a 9bbb b70d 99bc
00000160: 5752 a0bc c05a 51bc ca39 b03c bb59 843c
00000170: 79bb 453c 36f4 913c 949b 46bc c7fb 0fbc
00000180: 6454 12bc 54fa 8e3b 45ab 21bc b090 76bc
00000190: e058 1cbc 3b4f 623c 13cc a1bc 979a b9bc
000001a0: 97a9 e53b f423 14bc 2874 c5bb d544 30bc
000001b0: 3692 afbc da21 c63c eb0e 363c 1acc 97bc
000001c0: 3042 653c 9ecb d83b 312a 2ebc 1599 cdbc
000001d0: 802a f9bc 9889 b63a c4dd e6bb c4a1 7ebb
000001e0: 2a0d 7fbb 3d82 f53b b578 c2bb 6c3d 87ba
000001f0: 8cdf c13c d25a 543c ab97 203a ba0c 8ebc

network_body.observation_encoder.rsa.fc_out.bias f4 [128]
-0.012062567 -0.0012902835 -0.03245254 -0.020378606 -0.00028257183 -0.021986892 -0.0059029316 0.018701946
0.015992023 -0.0128804445 -0.02443414 0.026908444 0.026819631 0.019489918 0.009340709 -0.010542021
-0.043653924 -0.002478569 0.001139774 -0.0145669365 -0.0010625873 0.027835725 0.007839137 -0.017663097
0.022769064 -0.009159425 -0.0006345393 0.009481134 -0.022137154 -0.02190941 0.017957231 -0.0033279466
0.014899802 0.024704264 -0.001381756 -0.011966143 -0.0062493174 0.009612384 0.018608242 -0.016100625
-0.035391156 -0.030043783 0.016454572 -0.011371727 -0.01918548 0.0373915 0.03617444 -0.0199608
0.0036533067 -0.0037773957 0.015375668 -0.017465377 -0.027010132 0.0028124359 -0.008516521 0.00028064687
0.0138264205 -0.031713154 -0.014123198 -0.0042017153 -0.015411764 -0.03226317 0.0053391387 -0.015921885
-0.014281306 0.0233241 0.016772915 0.03780971 0.006353434 -0.02240995 0.021119634 0.008506855
0.0035909752 -0.025977354 0.004783571 -0.022905797 0.010073132 0.033933777 -0.01347528 0.018410001
0.0038767671 -0.014333521 0.01029567 0.01811928 -0.01296481 0.025474263 0.027539901 -0.008279244
0.0010697709 0.023488583 0.030473214 0.017376773 0.0009960468 -0.026938813 0.019353017 -0.01192133
0.02395448 -0.013363146 0.009324334 0.026737891 0.013413995 0.0030311944 0.013627121 -0.02534659
0.0010313755 0.03104095 -0.0045779184 -0.028523631 -0.0015051496 -0.010051538 -0.019556552 0.0100007495
-0.022604661 0.011284178 0.0004884562 -0.023133358 -0.00789973 0.0040798136 0.010947003 0.025663745
0.008442886 0.01921578 -0.0040172483 -0.016505014 -0.017821992 0.015123399 -0.015218122 -0.014203773
00000000: 13a2 45bc bb1e a9ba f4ec 04bd 09f1 a6bc
00000010: 2626 94b9 db1d b4bc 616d c1bb d334 993c
00000020: b401 833c 8008 53bc 1b2a c8bc 196f dc3c
00000030: d8b4 db3c 52a9 9f3c c609 193c 71b8 2cbc
00000040: 75ce 32bd 7d6f 22bb 7864 953a 29aa 6ebc
00000050: 8346 8bba bf07 e43c b96f 003c 33b2 90bc
00000060: 3086 ba3c 6a11 16bc 3657 26ba c256 1b3c
00000070: fa58 b5bc 5d7b b3bc 0b1b 933c ae19 5abb
00000080: 4d1e 743c 9960 ca3c 0a1c b5ba a40d 44bc
00000090: 13c7 ccbb 437d 1d3c 5070 983c 75e5 83bc
000000a0: 51f6 10bd 611e f6bc bdcb 863c 7b50 3abc
000000b0: de2a 9dbc d427 193d a62b 143d d584 a3bc
000000c0: 516c 6f3b 2f8e 77bb 3aea 7b3c 8d13 8fbc
000000d0: 5a44 ddbc d850 383b e188 0bbc c923 9339
000000e0: 3688 623c a7e5 01bd fc64 67bc 8bae 89bb
000000f0: a081 7cbc 6326 04bd f1f3 ae3b 9d6e 82bc
00000100: 24fc 69bc 2f12 bf3c 5a67 893c 5bde 1a3d
00000110: 7830 d03b 1295 b7bc 1503 ad3c 5660 0b3c
00000120: 9156 6b3b 76ce d4bc 81bf 9c3b f0a4 bbbc
00000130: c709 253c 25fe 0a3d 6cc7 5cbc 92d0 963c
00000140: 5c11 7e3b 25d7 6abc 2baf 283c e26e 943c
00000150: 5b6a 54bc 67af d03c 5c9b e13c aba5 07bc
00000160: 8e37 8c3a 216b c03c f6a2 f93c bc59 8e3c
00000170: c98d 823a c9ae dcbc 388a 9e3c af51 43bc
00000180: 303c c43c 19f1 5abc 17c5 183c 6c09 db3c
00000190: 5fc6 5b3c 01a7 463b 4a44 5f3c a7a3 cfbc
000001a0: 382f 873a 9749 fe3c 5d02 96bb 64aa e9bc
000001b0: 7148 c5ba 35af 24bc 1035 a0bc 2fda 233c
000001c0: 692d b9bc 46e1 383c be0b 003a 2b82 bdbc
000001d0: de6d 01bc f5af 853b 0f5b 333c c63c d23c
000001e0: 0854 0a3c 696a 9d3c 1fa3 83bb 8635 87bc
000001f0: 6dff 91bc 22c8 773c 6e55 79bc f1b6 68bc

network_body.observation_encoder.x_self_encoder.seq_layers.0.weight f4 [128, 4]
0.031183032 -0.097554564 -0.013268891 -0.05958504 -0.09675736 0.009072012 0.009254847 0.06659303
-0.072578415 -0.022940122 0.010379837 0.12093279 0.09842282 -0.063360155 -0.011113538 -0.0631807
-0.003484909 -0.10009315 0.04838696 -0.044973925 -0.029919611 0.07788247 0.020286644 -0.008482127
-0.11754856 -0.04703315 0.08353829 0.050658718 -0.060660694 0.031710807 0.084624544 0.05851167
-0.110579684 0.019276435 0.035236478 0.06776032 -0.087193884 -0.0037722688 0.052986342 0.021200825
-0.074973956 0.025628412 0.0058922474 0.043465428 -0.014301461 0.076758005 0.024002755 0.019937377
-0.061581373 0.011152834 0.0143909445 0.07299325 0.012307344 -0.06439311 -0.074790075 0.001438259
-0.033553846 0.09177647 0.021624032 0.005414304 -0.0033290654 0.08572784 0.0783545 0.06885641
0.047521558 -0.10858727 -0.04640008 -0.1112007 0.012775126 -0.1265692 -0.048793707 -0.049818777
0.0992932 -0.021635944 -0.009386682 -0.1095305 0.11271607 -0.02308914 -0.009595991 -0.061229907
-0.008483859 0.09102014 0.021381544 0.01284787 0.024994902 -0.13024 -0.026650835 -0.061061863
-0.010139663 0.09089839 0.048336048 0.012561919 0.01933215 -0.094421476 0.006977455 -0.029520994
-0.021359686 0.094636545 0.066835456 0.012156454 0.12982239 -0.062407516 -0.062591776 -0.07525893
-0.048156116 0.08285109 0.012642309 0.06899021 -0.101517506 0.026949963 0.081465475 0.048733
-0.06940469 0.010169 0.011576329 0.0027672364 0.09484498 -0.0020458365 -0.034139384 -0.14650676
0.006517993 0.07310352 0.04186846 0.048776597 0.040091444 -0.14458111 0.034579832 -0.026667085
0.07227588 -0.049260054 -0.006930894 0.0006493794 0.054762095 -0.06304051 -0.032628976 -0.06989633
0.011224173 -0.1413183 -0.05514401 -0.09538478 0.10750392 -0.015984695 -0.105765186 -0.09237091
-0.10267182 0.004738851 0.020124117 0.07667545 0.031717885 -0.14452997 -0.03086198 -0.04920792
-0.08481034 0.001227463 0.013989206 0.04122843 -0.007522855 0.1051175 0.013748267 0.030725364
-0.06437162 0.10512356 0.022852868 0.022449136 0.029780604 -0.08890737 -0.02519397 -0.022054404
0.051737346 -0.11497864 -0.008015676 -0.013732023 0.010239789 -0.12631764 -0.052155487 0.056906022
-0.058139756 0.0755738 0.03671018 0.006317306 0.036411412 -0.12925564 0.008826349 -0.022564156
0.0023564338 0.08428591 0.08481019 -0.019351622 0.107808284 -0.05116318 -0.015270402 -0.012404627
0.07733491 -0.094049424 -0.044032335 -0.0740361 0.14194997 -0.14122799 -0.001700116 -0.07057677
-0.0069253626 0.067997694 0.07458548 0.114061385 -0.016431067 -0.15309322 -0.055670545 -0.018008415
-0.07795372 -0.008764213 0.057780158 0.053292193 -0.091546975 0.016491715 0.019557491 0.15082629
-0.071644194 0.019903917 0.060849704 0.003948522 -0.008819102 0.14270517 0.095150456 0.050410613
0.06566325 -0.028532887 -0.006714134 -0.08757182 0.10429567 0.03288775 -0.04553171 -0.13217328
-0.022607375 0.07587424 0.016985668 0.020607775 -0.08076454 0.026065562 0.039841242 0.06600837
-0.02578087 0.07832666 -0.0383257 -0.014614069 0.116244696 -0.024479477 -0.07083605 -0.08082997
0.08074448 -0.019480316 -0.052507583 -0.15244342 0.02438683 -0.115170546 -0.05425605 -0.0312479
00000000: 8f73 ff3c b0ca c7bd c365 59bc 710f 74bd
00000010: b928 c6bd c7a2 143c a4a1 173c ed61 883d
00000020: fea3 94bd ecec bbbc 3110 2a3c 9cab f73d
00000030: e791 c93d f8c2 81bd 8f15 36bc e264 81bd
00000040: 1263 64bb a3fd ccbd 6831 463d 9436 38bd
00000050: f919 f5bc d880 9f3d 2d30 a63c 9ff8 0abc
00000060: 4dbd f0bd d5a5 40bd 1f16 ab3d 847f 4f3d
00000070: 5977 78bd 31e3 013d a24f ad3d efa9 6f3d
00000080: 9a77 e2bd 9de9 9d3c 2054 103d ecc5 8a3d
00000090: b592 b2bd 2b38 77bb 3508 593d 5aad ad3c
000000a0: f28b 99bd adf2 d13c c113 c13b ce08 323d
000000b0: ad50 6abc 4d33 9d3d 6da1 c43c b653 a33c
000000c0: c03c 7cbd 60ba 363c ffc7 6b3c 7c7d 953d
000000d0: bea4 493c 89e0 83bd 8a2b 99bd f783 bc3a
000000e0: c26f 09bd 4df5 bb3d e224 b13c 796a b13b
000000f0: 732c 5abb 1492 af3d 5378 a03d 9704 8d3d
00000100: f7a5 423d 0163 debd 030e 3ebd 31bd e3bd
00000110: c34e 513c 5b9b 01be e9db 47bd c60e 4cbd
00000120: 3c5a cb3d dd3d b1bc 99ca 19bc 8751 e0bd
00000130: afd7 e63d 7025 bdbc 8138 1dbc 36cc 7abd
00000140: e2ff 0abc c468 ba3d 5928 af3c df7f 523c
00000150: 1cc2 cc3c a25d 05be da52 dabc 011c 7abd
00000160: d420 26bc ef28 ba3d 05fc 453d 82d0 4d3c
00000170: 755e 9e3c 0c60 c1bd 23a3 e43b 03d6 f1bc
00000180: 82fa aebc ced0 c13d 07e1 883d dd2b 473c
00000190: 29f0 043e 069f 7fbd 1e30 80bd 5b21 9abd
000001a0: 593f 45bd d5ad a93d b021 4f3c bd4a 8d3d
000001b0: 69e8 cfbd 2bc6 dc3c 5fd7 a63d 419c 473d
000001c0: 0c24 8ebd e19b 263c a5aa 3d3c 865a 353b
000001d0: 163e c23d 7113 06bb bdd5 0bbd de05 16be
000001e0: e394 d53b 4cb7 953d 437e 2b3d f8c9 473d
000001f0: ed36 243d 120d 14be 95a3 0d3d ee74 dabc
00000200: 6005 943d e9c4 49bd 8e1c e3bb 1d3b 2a3a
00000210: 384e 603d 621b 81bd f6a5 05bd cf25 8fbd
00000220: 98e5 373c bfb5 10be afde 61bd 1859 c3bd
00000230: 042b dc3d 56f2 82bc 6b9b d8bd f62c bdbd
00000240: 9a45 d2bd 5d48 9b3b 55db a43c 0508 9d3d
00000250: 9dea 013d aaff 13be 43d2 fcbc 3e8e 49bd
00000260: 0bb1 adbd d3e2 a03a fc32 653c 24df 283d
00000270: 4882 f6bb d847 d73d 6940 613c c2b3 fb3c
00000280: 45d5 83bd 054b d73d f035 bb3c 40e7 b73c
00000290: 74f6 f33c 1115 b6bd 9663 cebc 70ab b4bc
000002a0: 8aea 533d ec79 ebbd 2f54 03bc 47fc 60bc
000002b0: cac4 273c 6959 01be fea0 55bd 4a16 693d
000002c0: f423 6ebd 70c6 9a3d 6a5d 163d 6701 cf3b
000002d0: 2224 153d 975b 04be 649c 103c 77d8 b8bc
000002e0: 666e 1a3b 179e ac3d f7b0 ad3d 4b87 9ebc
000002f0: 97ca dc3d 7c90 51bd b530 7abc c73c 4bbc
00000300: c461 9e3d fc9c c0bd 405b 34bd 3da0 97bd
00000310: 555b 113e 129e 10be 6dd6 deba 8e8a 90bd
00000320: 27ee e2bb 6042 8b3d 46c0 983d 0499 e93d
00000330: 729a 86bc 78c4 1cbe cc06 64bd 6286 93bc
00000340: 33a6 9fbd c697 0fbc e3aa 6c3d ea48 5a3d
00000350: fb7c bbbd a219 873c 0837 a03c 3572 1a3e
00000360: 31ba 92bd 8a0d a33c 8a3d 793d 9a62 813b
00000370: ff7d 10bc 4e21 123e 3ede c23d 5c7b 4e3d
00000380: 747a 863d cdbd e9bc 3d02 dcbb db58 b3bd
00000390: f898 d53d 4eb5 063d 757f 3abd 6f58 07be
000003a0: 1a33 b9bc f463 9b3d 8725 8b3c a3d1 a83c
000003b0: e167 a5bd 7287 d53c 9230 233d 652f 873d
000003c0: 6732 d3bc ba69 a03d 69fb 1cbd d96f 6fbc
000003d0: b311 ee3d 2f89 c8bc 7e12 91bd 2f8a a5bd
000003e0: 5d5d a53d 2f95 9fbc 3112 57bd 211a 1cbe
000003f0: e4c6 c73c 89de ebbd 983b 5ebd 99fb ffbc

network_body.observation_encoder.x_self_encoder.seq_layers.0.bias f4 [128]
-0.005924981 0.028966358 0.046319764 -0.01237513 -0.005001391 0.029234027 0.028881293 0.028919144
0.035961255 0.04531339 0.041115284 0.02921724 0.033071287 -0.0146838445 0.03458437 0.040743444
-0.012017882 -0.023522796 -0.008956355 -0.01178075 0.03811118 -0.01148462 0.039149918 -0.024087021
0.03342447 -0.008792592 0.02932973 0.02171188 0.03328121 -0.019097256 0.034153126 0.003895738
-0.02862224 -0.013035258 -0.02339622 -0.016561141 0.028597191 -0.016575916 0.047441047 0.03408779
0.037723325 -0.022924395 -0.020997468 -0.027405027 0.019976044 -0.004228893 0.048419908 -0.0088022575
-0.014518614 -0.0026631535 0.029967217 -0.029924506 0.03752379 0.032257013 0.018100923 0.04435532
-0.022256196 -0.03122639 0.01607536 0.02560915 0.034670535 -0.015106756 -0.040024888 -0.024795935
0.03408163 0.027082743 0.03744839 -0.0065965275 -0.04034772 0.03973066 0.026688637 -0.023405394
-0.019763438 0.019987091 0.03167694 0.033433314 0.020941276 -0.019432554 -1.6151516e-05 -0.032230526
-0.014634431 -0.022922896 0.026139779 0.037035737 0.020320555 -0.016902786 -0.006741846 -0.00944583
0.047405757 -0.02376716 0.029006584 -0.022121258 -0.0035627522 0.04561429 -0.015297505 -0.0017990686
0.038998976 0.023947967 0.037691068 -0.013653191 -0.0052081416 -0.02699366 0.030071354 -0.04071275
0.00012528022 -0.022397885 0.027737243 0.038830478 -0.015100036 0.033025216 -0.021995198 0.03786824
0.029089568 -0.017669406 -0.017116077 0.040153157 0.0024579917 0.026337039 -0.0035388446 -0.012081096
0.04774625 0.009548669 0.031145193 0.026980609 0.028624099 -0.029995903 -0.0014748632 0.032802377
00000000: 5826 c2bb db4a ed3c cbb9 3d3d 0fc1 4abc
00000010: b5e2 a3bb 337c ef3c 7698 ec3c d7e7 ec3c
00000020: 1c4c 133d 899a 393d 8068 283d fe58 ef3c
00000030: c275 073d 8294 70bc 57a8 0d3d 99e2 263d
00000040: a7e6 44bc e1b2 c0bc adbd 12bc 0c04 41bc
00000050: 781a 1c3d fd29 3cbc aa5b 203d 2552 c5bc
00000060: 19e8 083d ce0e 10bc e744 f03c 1ddd b13c
00000070: e151 083d d971 9cbc 26e4 0b3d a34f 7f3b
00000080: 3079 eabc d691 55bc 6ea9 bfbc 3bab 87bc
00000090: a844 ea3c 37ca 87bc 8b51 423d a39f 0b3d
000000a0: c683 1a3d f1cb bbbc e202 acbc 8280 e0bc
000000b0: cda4 a33c 8792 8abb f453 463d 5837 10bc
000000c0: 7bdf 6dbc 4d88 2ebb cf7d f53c 3d24 f5bc
000000d0: 8cb2 193d ee1f 043d 6348 943c edad 353d
000000e0: a052 b6bc 7cce ffbc 79b0 833c 48ca d13c
000000f0: b102 0e3d 5482 77bc 23f1 23bd d820 cbbc
00000100: 2e99 0b3d a1dc dd3c 7c63 193d af27 d8bb
00000110: a743 25bd 9ebc 223d 21a2 da3c abbc bfbc
00000120: efe6 a1bc f8bb a33c aebf 013d 5ff1 083d
00000130: 0a8d ab3c 0531 9fbc 1e7d 87b7 2804 04bd
00000140: 41c5 6fbc ccc8 bbbc 1723 d63c c9b2 173d
00000150: 4b77 a63c b677 8abc b4ea dcbb afc2 1abc
00000160: 8a2c 423d 59b3 c2bc 379f ed3c a437 b5bc
00000170: 107d 69bb 0dd6 3a3d 63a2 7abc bace ebba
00000180: 64bd 1f3d 872e c43c f361 1a3d a2b1 5fbc
00000190: 0fa9 aabb cf21 ddbc 3358 f63c 6ac2 26bd
000001a0: a75d 0339 c57b b7bc 3739 e33c b50c 1f3d
000001b0: 2466 77bc 7345 073d 462f b4bc ba1b 1b3d
000001c0: 3f4d ee3c 6ebf 90bc 0437 8cbc a377 243d
000001d0: 4216 213b c6c0 d73c f6eb 67bb caef 45bc
000001e0: 9291 433d 0572 1c3c 3424 ff3c 7006 dd3c
000001f0: 167d ea3c f8b9 f5bc 3250 c1ba c95b 063d

network_body._body_endoder.seq_layers.0.weight f4 [64, 132]
0.5188076 -0.2978976 -0.13901255 -0.027797159 0.0438394 -0.083376914 -0.11751205 0.022051914
0.19244327 0.015082171 -0.060327426 -0.053705618 -0.019615559 -0.008186061 -0.18726528 0.14171599
0.015728952 0.12784977 -0.084813625 0.124276616 -0.1295196 -0.07313562 0.06824658 0.059522193
0.060104106 0.08413212 0.1797138 -0.18364085 0.08169702 -0.094295874 0.13335021 0.07119982
-0.11209806 -0.014372883 0.06869749 -0.15245983 0.109360725 0.0310435 -0.10243542 -0.035274163
0.10335551 -0.0025890083 0.009581297 -0.08996838 -0.18625894 -0.15126738 -0.11796069 -0.18568683
-0.09918013 0.06915846 0.20813203 -0.05564825 -0.030058755 0.045898866 0.07966746 -0.20240453
0.1217713 0.19757827 -0.14104313 0.15063545 -0.044049367 -0.11722531 0.08565708 -0.042484846
-0.08322668 -0.18910593 -0.019012528 -0.05624582 -0.12410269 0.20299879 -0.02371595 0.10185915
0.0022004927 -0.20339291 0.04625679 0.05038656 -0.09655269 0.006779731 0.050444 0.0050659277
0.08624407 0.13084887 -0.0046105995 0.20508848 0.022381136 0.041420635 -0.051253434 0.13852587
-0.06742642 0.15086277 0.09993569 -0.27632257 0.20274243 0.031127349 0.1423815 0.023508936
0.066465504 0.021158304 0.11554262 0.15157366 0.0044705663 0.23742686 0.061884858 -0.091084324
0.051895525 0.12114136 0.1115788 -0.13792023 -0.07301367 0.049096 -0.1640884 -0.15601002
0.13245483 -0.19593261 -0.15300943 0.12887287 0.07806193 0.043511584 0.09484254 -0.07322479
-0.023305748 0.12446017 0.04338183 0.060400356 -0.050240234 0.02075722 -0.069200195 0.07803151
-0.014992492 -0.038442865 0.05845613 0.041598 -0.5274777 0.018503383 0.38202858 -0.16877149
-0.09626262 0.11037947 -0.014704357 0.10169291 -0.16152065 -0.13256726 0.06315759 0.022568915
-0.011021054 0.14221393 0.032462787 0.07076478 0.043656945 0.015660953 0.01670129 -0.120742284
0.0721605 -0.22694378 0.040007647 -0.02643127 -0.006280684 0.08988963 -0.093745634 -0.020655155
-0.08221779 -0.0023510053 0.018713547 0.11902191 -0.123497315 0.024599696 0.105413824 0.059207007
-0.127293 -0.041388053 -0.010269592 -0.09330755 0.1481401 -0.07681689 0.010189988 0.027989022
-0.10488063 -0.023567973 0.05644831 0.035074938 -0.15700626 0.050600838 0.21686865 0.14585787
-0.085596494 0.024806969 -0.056687582 0.081663005 0.028673962 -0.08679562 0.13047539 0.021179492
0.095440365 -0.07160401 0.31602225 -0.11781563 0.10954477 0.020350652 0.04490467 -0.05046802
-0.12573333 0.0153086735 0.12792952 -0.008071477 -0.09361622 0.00074441865 -0.019857936 0.024404375
0.11020082 -0.051265605 0.06658345 0.029751293 -0.093589514 0.06919 -0.0704531 0.0790888
0.028220218 0.06955695 -0.09372964 0.07222219 -0.021368973 0.09069343 0.08670561 -0.046933167
0.11117432 -0.023790399 0.10655613 0.095259674 0.0004883975 0.09330926 -0.014007008 -0.030384915
0.07855395 0.06701531 -0.051813055 -0.021678995 -0.031160232 0.03698667 0.04951084 -0.13959648
-0.0489038 0.064672396 0.09831989 0.11623075 -0.052401133 0.056165125 -0.037786383 0.08158805
-0.007969137 -0.06417552 0.041960526 -0.053694636 -0.042778067 -0.002201004 -0.019028962 -0.08043519
00000000: 93d0 043f 0986 98be 4e59 0ebe deb6 e3bc
00000010: f190 333d 84c1 aabd 28aa f0bd 37a6 b43c
00000020: d90f 453e 361b 773c e419 77bd 6cfa 5bbd
00000030: cfb0 a0bc d41e 06bc 78c2 3fbe ff1d 113e
00000040: 01da 803c 0deb 023e c4b2 adbd bd84 fe3d
00000050: c9a0 04be 21c8 95bd ddc4 8b3d 8bcd 733d
00000060: b92f 763d 764d ac3d e506 383e 590c 3cbe
00000070: c450 a73d 321e c1bd f58c 083e 36d1 913d
00000080: ab93 e5bd 3e7c 6bbc 45b1 8c3d 6e1e 1cbe
00000090: 84f8 df3d f04e fe3c a9c9 d1bd a47b 10bd
000000a0: 0eac d33d 5aac 29bb dffa 1c3c 5841 b8bd
000000b0: aaba 3ebe d6e5 1abe 6095 f1bd b024 3ebe
000000c0: f41e cbbd f3a2 8d3d 9020 553e 6bef 63bd
000000d0: c73d f6bc 7300 3c3d b128 a33d 2243 4fbe
000000e0: 3b63 f93d f551 4a3e 9c6d 10be 2e40 1a3e
000000f0: 1c6d 34bd d313 f0bd fb6c af3d 9704 2ebd
00000100: c072 aabd fca4 41be 29c0 9bbc 0462 66bd
00000110: 8d29 febd eade 4f3e f447 c2bc 889b d03d
00000120: 2436 103b 3b46 50be c377 3d3d 2362 4e3d
00000130: 6bbd c5bd 8128 de3b 5e9e 4e3d 1500 a63b
00000140: bba0 b03d 3ffd 053e 8314 97bb b702 523e
00000150: a558 b73c afa8 293d 1fef 51bd bad9 0d3e
00000160: dd16 8abd c57b 1a3e 15ab cc3d 277a 8dbe
00000170: b69b 4f3e c8fe fe3c 75cc 113e d095 c03c
00000180: 111f 883d 2e54 ad3c 9ca1 ec3d 2036 1b3e
00000190: d47d 923b 0720 733e fa7a 7d3d 6b8a babd
000001a0: 6790 543d f618 f83d 6d83 e43d f63a 0dbe
000001b0: 3188 95bd e318 493d ca06 28be 17c1 1fbe
000001c0: 3da2 073e 8fa2 48be 81ae 1cbe 40f7 033e
000001d0: efde 9f3d 3439 323d ce3c c23d e1f6 95bd
000001e0: b2eb bebc f9e4 fe3d 25b1 313d 5d66 773d
000001f0: b4c8 4dbd 0c0b aa3c d5b8 8dbd fcce 9f3d
00000200: 12a3 75bc 4476 1dbd b26f 6f3d aa62 2a3d
00000210: c708 07bf 6894 973c 4099 c33e 6fd2 2cbe
00000220: 5625 c5bd a20e e23d 8bea 70bc 5f44 d03d
00000230: ab65 25be b6bf 07be c458 813d 72e2 b83c
00000240: a791 34bc 87a0 113e b3f7 043d 20ed 903d
00000250: a0d1 323d 664b 803c 25d1 883c bb47 f7bd
00000260: e2c8 933d f363 68be 0fdf 233d 6486 d8bc
00000270: 32ce cdbb 0e18 b83d b6fd bfbd 0035 a9bc
00000280: cd61 a8bd 5313 1abb 274d 993c c2c1 f33d
00000290: 29ec fcbd 4d85 c93c 34e3 d73d 0c83 723d
000002a0: 1959 02be 8586 29bd ca41 28bc 0718 bfbd
000002b0: 0ab2 173e 2c52 9dbd e8f3 263c 3c49 e53c
000002c0: a8cb d6bd 9f11 c1bc 5836 673d bdaa 0f3d
000002d0: 40c6 20be d342 4f3d d112 5e3e c45b 153e
000002e0: 374d afbd fc37 cb3c 3d31 68bd ef3e a73d
000002f0: a8e5 ea3c e7c1 b1bd 579b 053e 9d80 ad3c
00000300: 3d76 c33d 20a5 92bd abcd a13e 5249 f1bd
00000310: 0259 e03d 69b6 a63c f6ed 373d 8eb7 4ebd
00000320: 3dc0 00be 3bd1 7a3c f5ff 023e 3a3e 04bc
00000330: dcb9 bfbd 1725 433a 1cad a2bc afeb c73c
00000340: f8b0 e13d e2fb 51bd e75c 883d fcb8 f33c
00000350: dcab bfbd 7db3 8d3d b749 90bd 4ff9 a13d
00000360: 162e e73c e073 8e3d 53f5 bfbd 3ae9 933d
00000370: fc0d afbc 7abd b93d b692 b13d fe3c 40bd
00000380: 5daf e33d 15e4 c2bc 1a3a da3d 8117 c33d
00000390: cd07 003a ed18 bf3d a67d 65bc c9e9 f8bc
000003a0: e5e0 a03d 533f 893d ed39 54bd 2698 b1bc
000003b0: be43 ffbc 567f 173d e1cb 4a3d 61f2 0ebe
000003c0: 5a4f 48bd f672 843d f05b c93d 630a ee3d
000003d0: 92a2 56bd 670d 663d e5c5 1abd a317 a73d
000003e0: fc90 02bc 746e 83bd cdde 2b3d e8ee 5bbd
000003f0: 0e38 2fbd b83e 10bb a0e2 9bbc 34bb a4bd

network_body._body_endoder.seq_layers.0.bias f4 [64]
-0.17333408 0.40074813 -0.39224762 0.31542635 -0.21885571 0.3572852 0.030752143 0.37829977
0.05450377 -0.36624694 -0.33055347 0.02274612 -0.34357402 0.05418847 0.34403536 0.21302961
0.38503578 -0.034532245 -0.039404158 -0.13797694 -0.06819058 0.044780217 -0.09737358 -0.38241857
0.73475623 0.35075465 -0.101198226 0.31814975 -0.024765603 0.2846763 0.056117006 -0.028234502
0.36661208 -0.13637328 0.462092 0.33318186 0.059495818 0.23107313 0.44863206 0.045724582
0.045261115 0.2713405 0.45478046 0.28580698 -0.042656958 0.46657422 0.39428034 0.070779964
0.28599554 0.19157337 -0.3462584 0.27582544 0.36427617 0.3039115 0.4580472 -0.28275064
-0.06851134 0.2835872 0.13190839 0.0018502196 -0.1634143 -0.23777026 0.3867554 0.41721007
00000000: 7d7e 31be dc2e cd3e aed4 c8be 907f a13e
00000010: b61b 60be 16ee b63e ebeb fb3c 82b0 c13e
00000020: 583f 5f3d b884 bbbe 4e3e a9be 1256 ba3c
00000030: efe8 afbe bbf4 5d3d 6725 b03e 6f24 5a3e
00000040: 6923 c53e af71 0dbd 4166 21bd d449 0dbe
00000050: 81a7 8bbd 766b 373d cd6b c7bd 5ecc c3be
00000060: fc18 3c3f 1d96 b33e 0441 cfbd 86e4 a23e
00000070: 3ce1 cabc 18c1 913e f2da 653d 0b4c e7bc
00000080: 94b4 bb3e 70a5 0bbe 5397 ec3e d096 aa3e
00000090: e3b1 733d 6f9e 6c3e 1ab3 e53e b349 3b3d
000000a0: b863 393d 24ed 8a3e fcd8 e83e 4b55 923e
000000b0: 10b9 2ebd d1e2 ee3e 1ddf c93e 16f5 903d
000000c0: 026e 923e cf2b 443e c848 b1be fe38 8d3e
000000d0: 6882 ba3e 4a9a 9b3e 2a85 ea3e b1c4 90be
000000e0: ac4f 8cbd 5732 913e fe12 073e 1183 f23a
000000f0: 1456 27be 0c7a 73be ce04 c63e 8f9c d53e

network_body._body_endoder.seq_layers.2.weight f4 [64, 64]
0.050817583 0.10556891 -0.13891083 0.27580452 -0.3637111 0.14511228 0.1922587 0.0049376176
0.13622284 -0.36660233 -0.061746098 0.064633444 -0.24684802 0.054471545 0.076804444 0.25422844
-0.046265934 0.1374384 -0.14403708 0.11339182 0.13840806 -0.06127057 7.125203e-06 -0.3460141
0.27220282 0.18105175 -0.19056904 -0.05489248 0.05260513 -0.08690668 0.014400969 -0.023130752
0.19575481 0.025968991 0.023566801 0.008561007 0.074380964 0.09707253 0.19832005 0.12626027
0.14907996 0.110707805 -0.0045261793 -0.0071153184 -0.0908914 -0.00378912 0.19061345 -0.038031187
0.37175563 0.043360252 -0.24369068 0.34471515 -0.13199173 -0.026398126 0.054476913 -0.25251445
-0.09245245 0.31538156 -0.1174663 -0.02061404 -0.20291363 -0.10887999 0.1580188 0.24128872
-0.5482736 0.2664103 -0.1114682 -0.0065851677 -0.25816336 0.17249319 0.022120174 0.516233
-0.38949084 -0.19118181 -0.06594733 0.29263434 -0.23523784 0.3447876 0.4196358 0.21115527
0.051475212 0.20478609 0.036627095 -0.055178687 0.086237036 0.2785728 0.14904697 0.036096394
-0.09379108 -0.4209808 0.16006237 0.120297134 0.31523493 0.21420667 0.3232236 0.15546197
0.029645145 0.11126951 0.08560034 0.13525917 0.32624283 -0.0010689186 0.14461175 0.25154573
0.1845447 0.27644292 0.18830489 0.2990993 -0.23824899 -0.15961449 0.10434151 0.25762746
-0.13837413 0.2583512 0.023264559 0.050011963 0.38005176 0.2087072 0.27840623 -0.18914
0.20686975 0.089526646 0.37632677 0.1699882 -0.08668706 0.32754263 0.10084393 0.17523998
-0.19606344 0.12640545 0.07774921 -0.059163462 -0.09904345 0.3006851 0.35685077 0.18947428
0.023560585 -0.09352285 -0.29069096 0.19940071 0.07049347 0.30105603 0.7358775 0.2550856
0.035315074 0.15084034 0.040970724 -0.2308022 0.05659766 0.1877539 0.3992328 0.011113778
0.118455544 -0.07848004 0.17392041 0.15355863 0.115276255 0.35852942 0.42962617 0.14084058
-0.11816763 0.18197219 -0.03741724 0.13398834 0.20438386 0.04108432 0.33967927 0.391181
0.20217818 0.1463892 -0.041994233 0.13615777 -0.24839102 -0.13711898 0.31744394 0.19272812
0.013860572 0.2171024 -0.123945676 -0.040758178 0.35903263 0.060702436 0.4043534 -0.15029964
0.42866805 0.04745885 0.465018 0.4840423 -0.36701345 0.19999659 -0.11527564 0.055584464
-0.2235494 0.27272657 0.08003188 -0.019399539 -0.16605595 0.2762008 0.41505906 0.5522507
-0.21832807 -0.112489045 0.036068607 0.3205506 -0.05543579 0.1841834 0.30531645 0.34464774
0.25603566 0.43870038 0.093601935 -0.022759441 -0.0630911 0.3869826 0.26487753 0.02763074
0.088547096 -0.0507758 0.14192283 0.35315168 0.1091992 0.008067351 0.5005666 0.35208684
0.06695354 0.05722403 -0.05883476 -0.025297042 0.50984865 -0.15145677 0.28804174 0.56041825
-0.06910394 0.29534554 0.05039679 0.37669274 -0.46602976 -0.019366298 -0.013565136 0.34523213
-0.163619 0.15130629 -0.15829247 -0.11637774 0.40636224 0.32115275 0.17121994 -0.16853186
0.07506947 -0.011043286 0.33513004 0.20264745 -0.17547533 0.11485528 -0.043082975 -0.059884887
00000000: 1926 503d 8334 d83d a43e 0ebe 4036 8d3e
00000010: 5738 babe 5098 143e 77df 443e bdcb a13b
00000020: 007e 0b3e 4db3 bbbe 7ae9 7cbd 8a5e 843d
00000030: bac5 7cbe 8e1d 5f3d a64b 9d3d 3b2a 823e
00000040: 5981 3dbd a7bc 0c3e 757e 13be f839 e83d
00000050: d8ba 0d3e d9f6 7abd 0715 ef36 c328 b1be
00000060: 2b5e 8b3e a165 393e 8824 43be f0d6 60bd
00000070: 7a78 573d 21fc b1bd 0bf2 6b3c b47c bdbc
00000080: f373 483e ecbc d43c 2a0f c13c 7743 0c3c
00000090: 0c55 983d f6cd c63d 6914 4b3e 5f4a 013e
000000a0: 6ba8 183e c6ba e23d 5850 94bb 9e27 e9bb
000000b0: 4525 babd e252 78bb 2c30 433e 97c6 1bbd
000000c0: c156 be3e 859a 313d 0d8a 79be 817e b03e
000000d0: d728 07be e240 d8bc 2f23 5f3d 9349 81be
000000e0: b657 bdbd b179 a13e 2c92 f0bd c6de a8bc
000000f0: 97c8 4fbe 79fc debd aecf 213e 6414 773e
00000100: a95b 0cbf ee66 883e 7149 e4bd 64c8 d7bb
00000110: fd2d 84be 0ea2 303e 5e35 b53c d927 043f
00000120: 586b c7be 2ac5 43be 650f 87bd 2bd4 953e
00000130: 30e2 70be 0088 b03e 81da d63e 1639 583e
00000140: acd7 523d 72b3 513e 4b06 163d 0c03 62bd
00000150: 0b9d b03d 18a1 8e3e c59f 183e d0d9 133d
00000160: 8a15 c0bd cc8a d7be 64e7 233e 585e f63d
00000170: 7966 a13e fe58 5b3e 907d a53e 6c31 1f3e
00000180: 60da f23c 45e1 e33d 3b4f af3d 6181 0a3e
00000190: 4d09 a73e f51a 8cba 1a15 143e 9aca 803e
000001a0: 49f9 3c3e ed89 8d3e ffd2 403e 8b23 993e
000001b0: 8bf7 73be fb71 23be 00b1 d53d bfe7 833e
000001c0: f3b1 0dbe 9c46 843e 5195 be3c 58d9 4c3d
000001d0: 2596 c23e 57b7 553e 438b 8e3e ebad 41be
000001e0: aad5 533e bf59 b73d e7ad c03e 6311 2e3e
000001f0: fc88 b1bd abb3 a73e 4387 ce3d 1c72 333e
00000200: dbc4 48be 6e70 013e fa3a 9f3d 6355 72bd
00000210: 4bd7 cabd 66f3 993e 25b5 b63e 8c05 423e
00000220: 2102 c13c e888 bfbd 72d5 94be b32f 4c3e
00000230: e15e 903d 0424 9a3e 7862 3c3f 949a 823e
00000240: 8aa6 103d e475 1a3e ebd0 273d 6957 6cbe
00000250: f3d2 673d 8f42 403e 3e68 cc3e 9016 363c
00000260: d298 f23d 25ba a0bd 3118 323e 793e 1d3e
00000270: f515 ec3d 2b91 b73e f6f7 db3e 8338 103e
00000280: df01 f2bd eb56 3a3e d242 19bd 3d34 093e
00000290: 014a 513e 0848 283d 71ea ad3e e048 c83e
000002a0: cc07 4f3e 0de7 153e 2502 2cbd f16c 0b3e
000002b0: 375a 7ebe eb68 0cbe 0388 a23e 855a 453e
000002c0: 7417 633c 1750 5e3e 3bd7 fdbd 0cf2 26bd
000002d0: 20d3 b73e 1ea3 783d 6907 cf3e 26e8 19be
000002e0: 617a db3e 3664 423d d716 ee3e 64d4 f73e
000002f0: 30e9 bbbe e8cb 4c3e a215 ecbd 89ac 633d
00000300: 22ea 64be d1a2 8b3e c1e7 a33d c8eb 9ebc
00000310: 920a 2abe 316a 8d3e 9f82 d43e 4d60 0d3f
00000320: 6591 5fbe a860 e6bd adbc 133d 351f a43e
00000330: a410 63bd 939a 3c3e 7052 9c3e ab75 b03e
00000340: 1b17 833e 569d e03e 5fb2 bf3d 0272 babc
00000350: e835 81bd 9522 c63e 079e 873e dd59 e23c
00000360: 2e58 b53d 49fa 4fbd 3854 113e 4cd0 b43e
00000370: d5a3 df3d ec2c 043c 2225 003f ba44 b43e
00000380: f01e 893d bf63 6a3d b8fc 70bd be3b cfbc
00000390: 7185 023f 7c17 1bbe 357a 933e 9277 0f3f
000003a0: 5e86 8dbd 8837 973e dd6c 4e3d dfdd c03e
000003b0: 749b eebe 12a6 9ebc 4e40 5ebc 44c2 b03e
000003c0: bd8b 27be 09f0 1a3e 6c17 22be 7457 eebd
000003d0: b60e d03e 226e a43e 4854 2f3e 9e93 2cbe
000003e0: 06be 993d e6ee 34bc 2a96 ab3e d082 4f3e
000003f0: ceaf 33be 3f39 eb3d c677 30bd db49 75bd

network_body._body_endoder.seq_layers.2.bias f4 [64]
0.26672494 -0.009378503 -0.0024021647 -0.053055048 0.2702962 0.012343516 -0.06563015 0.23950037
-0.002996339 0.25549537 0.2274341 -0.0102360705 0.3407081 0.35501808 -0.1301051 -0.030445289
-0.15049393 -0.052780498 -0.032701056 -0.014526714 0.3529515 0.2958543 -0.13209496 -0.003916381
0.21939898 -0.04093756 -0.019338397 -0.06850436 0.17779763 0.37440407 0.23436658 0.28982717
0.19153656 -0.01681816 -0.020223385 -0.028083412 -0.1376186 0.23883006 0.2118837 -0.019073037
0.25902224 -0.061463084 0.16707516 0.24316958 0.026345212 0.28325546 0.02407272 -0.1287445
-0.044892117 0.2433833 0.25262702 -0.0041611036 0.29018882 -0.03398117 -0.11091724 0.021986848
-0.00920911 0.46047893 0.44583982 -0.040934913 -0.043568257 0.012034682 -0.036153242 0.23424888
00000000: 2c90 883e 4ba8 19bc a36d 1dbb 4050 59bd
00000010: 4364 8a3e 753c 4a3c 1a69 86bd 963f 753e
00000020: 3a5e 44bb 4ad0 823e 7ce4 683e 31b5 27bc
00000030: 4b71 ae3e eec4 b53e 453a 05be 6668 f9bc
00000040: 151b 1abe 5d30 58bd 8bf1 05bd 7401 6ebc
00000050: 0fb6 b43e 377a 973e e743 07be fc54 80bb
00000060: 20aa 603e 25ae 27bd 8f6b 9ebc 044c 8cbd
00000070: 9510 363e e4b1 bf3e cbfd 6f3e 3a64 943e
00000080: 2922 443e 3dc6 89bc 83ab a5bc 2f0f e6bc
00000090: e4eb 0cbe de8f 743e 0af8 583e 0f3f 9cbc
000000a0: 909e 843e b7c0 7bbd c015 2b3e 7201 793e
000000b0: ead1 d73c dc06 913e 2734 c53c 99d5 03be
000000c0: cce0 37bd 7939 793e 5458 813e de59 88bb
000000d0: a193 943e d72f 0bbd 9428 e3bd c31d b43c
000000e0: cfe1 16bc e5c3 eb3e 1e45 e43e 5eab 27bd
000000f0: a174 32bd 1d2d 453c 6c15 14bd f0de 6f3e

action_model._discrete_distribution.branches.0.weight f4 [11, 64]
-0.067307584 0.03083757 0.011451777 0.034521963 -0.017883554 -0.01063725 -0.11747374 -0.045579255
0.06678511 0.0031101322 -0.00091280835 0.017844567 0.024566324 -0.027557097 0.10039555 0.0260998
-0.120668784 0.017501678 0.039251857 0.03839254 -0.08128821 0.018446771 0.07099375 -0.11756747
-0.03483444 0.04196401 0.068962544 0.089338385 -0.009308849 -0.034327712 0.009740439 -0.011030736
-0.052088935 0.026097609 0.042482615 -0.1351968 0.029103845 -0.0050375797 0.00042631748 -0.12815875
0.08748029 0.020891672 -0.03967887 -0.08763454 0.013702113 -0.014567592 0.005855589 0.098976634
0.037719622 -0.043868326 -0.06602006 0.021482527 0.012398997 0.033910636 -0.13914283 -0.18123266
-0.12972148 -0.025627574 -0.14562233 0.052664895 0.03342714 -0.123673156 0.0451732 0.003317414
0.036189064 -0.265942 -0.28756016 -0.2585039 0.038639408 -0.13182998 -0.2148743 0.054412376
-0.27446982 0.025821308 -0.01990391 -0.31468427 0.026581593 0.04483883 -0.336772 -0.23552206
-0.21835092 -0.29424983 -0.27600393 -0.28918034 0.0075942525 0.052539214 -0.055603813 -0.26035392
0.15032552 -0.2846472 -0.20122975 -0.18536621 -0.04912867 0.08033307 -0.009446848 0.05109205
0.014344433 -0.29266936 -0.2870041 -0.17314227 -0.2789322 0.033087347 0.032180883 -0.20051403
-0.007636293 -0.26135373 0.020142026 0.22824866 -0.1999145 -0.0228499 -0.2966052 -0.35614586
-0.24169144 0.031488147 0.02704753 -0.24432041 0.005791444 -0.25920385 -0.26132044 -0.124528475
-0.15935858 0.07740584 0.15408544 -0.23699401 -0.1595148 -0.17327332 -0.26739737 0.034217823
-0.028457873 0.20698848 0.17893426 0.23000164 0.0142627 -0.0020203108 -0.030557033 -0.0031369638
0.23389515 0.03401915 0.065205224 0.23563726 0.0895695 -0.07109304 0.05673839 0.20430683
-0.004023765 0.2171223 0.25623453 0.20488296 -0.074650206 0.039373104 0.11425357 0.09564913
-0.36538067 0.20893912 0.19443466 0.18563895 0.07764423 0.06953308 0.044120423 0.059262317
-0.023467122 0.25102752 0.24102542 0.021323878 0.1036506 0.04854721 0.02429606 -0.038187005
0.044535197 0.20602839 -0.010449473 -0.48145872 0.22138093 0.06698014 0.25975904 0.16092283
0.20613424 0.010695479 -0.09659556 0.2125046 0.03413426 0.17470025 0.029412659 0.13254796
0.05565927 -0.064819105 -0.036244277 0.23424582 0.17202038 0.052321106 0.20967016 0.015273555
-0.0040798946 -0.007115941 -0.015948385 -0.0062391413 -0.023009483 0.017174397 -0.023443405 0.013290889
0.0077258334 0.0034416628 -0.011995795 -0.01753576 -0.0034497995 -0.0070919343 -0.013709842 -0.005270205
-0.01072184 -0.00014899003 -0.028351426 0.022052186 -0.0024823043 -0.005672548 -0.01400582 0.015004426
-0.014155756 0.010998799 0.0033503473 -0.0020855607 -0.0010488742 -0.00079410535 -0.012154999 -0.019571645
0.021225477 -0.016094437 -0.023368407 -0.008610167 -0.019928267 -0.011344306 0.006174144 0.008808196
-0.0033078124 -0.009543132 0.008132323 0.0071923323 -0.03112933 0.0134021705 -0.02716644 -0.00100316
-0.010753169 -0.0037271522 -0.019922983 -0.006516403 -0.01150649 -0.013227321 0.0090924045 0.01861128
0.00095127115 0.010992959 -0.006570156 0.008445757 0.008321854 -0.0109293 0.0148691675 -0.00912313
00000000: 8fd8 89bd 129f fc3c 3ca0 3b3c e766 0d3d
00000010: 8880 92bc dc47 2ebc 1296 f0bd 50b1 3abd
00000020: a2c6 883d 5cd3 4b3b 8849 6fba c52e 923c
00000030: 513f c93c 6cbf e1bc 2f9c cd3d 3fcf d53c
00000040: 3221 f7bd ae5f 8f3c 8ec6 203d 7f41 1d3d
00000050: 6f7a a6bd af1d 973c 2c65 913d 37c7 f0bd
00000060: 8fae 0ebd 74e2 2b3d 3c3c 8d3d 0bf7 b63d
00000070: 2584 18bc 379b 0cbd 5d96 1f3c 43ba 34bc
00000080: 355b 55bd a7ca d53c 4002 2e3d 0871 0abe
00000090: 306b ee3c 4812 a5bb 5d83 df39 0c3c 03be
000000a0: de28 b33d 0325 ab3c 5086 22bd bd79 b3bd
000000b0: d47e 603c e9ac 6ebc 3ee0 bf3b 43b4 ca3d
000000c0: e47f 1a3d 46af 33bd 8635 87bd 20fc af3c
000000d0: 2a25 4b3c e1e5 0a3d 757b 0ebe 0e95 39be
000000e0: b5d5 04be ebf0 d1bc 051e 15be 25b7 573d
000000f0: e6ea 083d 5a48 fdbd 8907 393d f968 593b
00000100: fc3a 143d 8d29 88be 163b 93be a05a 84be
00000110: 5b44 1e3d 70fe 06be 0208 5cbe 83df 5e3d
00000120: 4f87 8cbe 3587 d33c 860d a3bc 4c1e a1be
00000130: a4c1 d93c eca8 373d 616d acbe b22c 71be
00000140: 6297 5fbe eaa7 96be 6350 8dbe 720f 94be
00000150: 35d9 f83b 5c33 573d d3c0 63bd 1c4d 85be
00000160: efee 193e 47bd 91be 2c0f 4ebe a4d0 3dbe
00000170: 253b 49bd aa85 a43d f4c6 1abc e645 513d
00000180: ea04 6b3c c2d8 95be 34f2 92be 354c 31be
00000190: 34d0 8ebe 9986 073d 1ad0 033d 8d53 4dbe
000001a0: de39 fabb 28d0 85be e400 a53c 04ba 693e
000001b0: 63b6 4cbe b72f bbbc a3dc 97be c058 b6be
000001c0: f67d 77be b7f9 003d c892 dd3c 212f 7abe
000001d0: 27c6 bd3b 5eb6 84be cbcb 85be c908 ffbd
000001e0: e52e 23be f486 9e3d 93c8 1d3e 8fae 72be
000001f0: d957 23be 906e 31be 4fe8 88be fd27 0c3d
00000200: 7c20 e9bc caf4 533e 8b3a 373e 8d85 6b3e
00000210: 1aae 693c 3167 04bb be52 fabc 8595 4dbb
00000220: 3682 6f3e aa57 0b3d 518a 853d e54a 713e
00000230: 3770 b73d 3a99 91bd 8466 683d cf35 513e
00000240: cad9 83bb 4f55 5e3e 2c31 833e d7cc 513e
00000250: 35e2 98bd b145 213d c7fd e93d b1e3 c33d
00000260: 2d13 bbbe 23f4 553e e119 473e 2318 3e3e
00000270: f003 9f3d 5c67 8e3d 9eb7 343d 0bbd 723d
00000280: 1f3e c0bc ae86 803e 5ecf 763e 6aaf ae3c
00000290: c446 d43d 70d9 463d 8808 c73c fa69 1cbd
000002a0: 8a6a 363d 1bf9 523e 4434 2bbc c281 f6be
000002b0: afb1 623e e22c 893d 23ff 843e f4c8 243e
000002c0: db14 533e 173c 2f3c e5d3 c5bd ce9a 593e
000002d0: 5ed0 0b3d 9fe4 323e d1f2 f03c a7ba 073e
000002e0: fafa 633d e1bf 84bd e174 14bd 23de 6f3e
000002f0: 1c26 303e a84e 563d c6b3 563e ef3d 7a3c
00000300: a3b0 85bb d72c e9bb 30a6 82bc b671 ccbb
00000310: 627e bcbc 52b1 8c3c 620c c0bc 07c2 593c
00000320: fd28 fd3b 858d 613b 038a 44bc 27a7 8fbc
00000330: 0816 62bb 7563 e8bb 3f9f 60bc afb1 acbb
00000340: a8aa 2fbc 353a 1cb9 4041 e8bc c9a6 b43c
00000350: 28ae 22bb c8e0 b9bb ab78 65bc 20d5 753c
00000360: 8bed 67bc 4f34 343c 8091 5b3b e7ad 08bb
00000370: 617a 89ba 822b 50ba c325 47bc b754 a0bc
00000380: 0de1 ad3c 7bd8 83bc 1a6f bfbc a811 0dbc
00000390: 9b40 a3bc 78dd 39bc 7950 ca3b 4050 103c
000003a0: e2c7 58bb cc5a 1cbc 6f3d 053c a8ad eb3b
000003b0: f002 ffbc c794 5b3c 278c debc 777c 83ba
000003c0: 0f2e 30bc 3d43 74bb 8635 a3bc 8d87 d5bb
000003d0: b885 3cbc 68b7 58bc 4ff8 143c af76 983c
000003e0: ba5e 793a d01b 343c 774a d7bb 1360 0a3c
000003f0: 6358 083c cf10 33bc cf9d 733c 2e79 15bc

action_model._discrete_distribution.branches.0.bias f4 [11]
-0.16910067 0.15417737 -0.07211646 0.0 0.0 0.0 0.06465509 0.0363855
0.0 0.0 0.0
00000000: ba28 2dbe ace0 1d3e cbb1 93bd 0000 0000
00000010: 0000 0000 0000 0000 e369 843d f608 153d
00000020: 0000 0000 0000 0000 0000 0000

onnx::Div_185 f4 [4]
0.17812866 0.16669783 0.001581164 1.0458503
00000000: 5c67 363e d6b2 2a3e 0f3f cf3a 6cde 853f
