results/energy7/simple_deer/simple_deer-49971.onnx (onnx, 499978 bytes, 13 tensors)

network_body.observation_encoder.processors.0.self_ent_encoder.seq_layers.0.bias f4 [128]
0.0 0.0 0.0 0.0 0.0 0.0 0.0 0.0
0.0 0.0 0.0 0.0 0.0 0.0 0.0 0.0
0.0 0.0 0.0 0.0 0.0 0.0 0.0 0.0
0.0 0.0 0.0 0.0 0.0 0.0 0.0 0.0
0.0 0.0 0.0 0.0 0.0 0.0 0.0 0.0
0.0 0.0 0.0 0.0 0.0 0.0 0.0 0.0
0.0 0.0 0.0 0.0 0.0 0.0 0.0 0.0
0.0 0.0 0.0 0.0 0.0 0.0 0.0 0.0
0.0 0.0 0.0 0.0 0.0 0.0 0.0 0.0
0.0 0.0 0.0 0.0 0.0 0.0 0.0 0.0
0.0 0.0 0.0 0.0 0.0 0.0 0.0 0.0
0.0 0.0 0.0 0.0 0.0 0.0 0.0 0.0
0.0 0.0 0.0 0.0 0.0 0.0 0.0 0.0
0.0 0.0 0.0 0.0 0.0 0.0 0.0 0.0
0.0 0.0 0.0 0.0 0.0 0.0 0.0 0.0
0.0 0.0 0.0 0.0 0.0 0.0 0.0 0.0
00000000: 0000 0000 0000 0000 0000 0000 0000 0000
00000010: 0000 0000 0000 0000 0000 0000 0000 0000
00000020: 0000 0000 0000 0000 0000 0000 0000 0000
00000030: 0000 0000 0000 0000 0000 0000 0000 0000
00000040: 0000 0000 0000 0000 0000 0000 0000 0000
00000050: 0000 0000 0000 0000 0000 0000 0000 0000
00000060: 0000 0000 0000 0000 0000 0000 0000 0000
00000070: 0000 0000 0000 0000 0000 0000 0000 0000
00000080: 0000 0000 0000 0000 0000 0000 0000 0000
00000090: 0000 0000 0000 0000 0000 0000 0000 0000
000000a0: 0000 0000 0000 0000 0000 0000 0000 0000
000000b0: 0000 0000 0000 0000 0000 0000 0000 0000
000000c0: 0000 0000 0000 0000 0000 0000 0000 0000
000000d0: 0000 0000 0000 0000 0000 0000 0000 0000
000000e0: 0000 0000 0000 0000 0000 0000 0000 0000
000000f0: 0000 0000 0000 0000 0000 0000 0000 0000
00000100: 0000 0000 0000 0000 0000 0000 0000 0000
00000110: 0000 0000 0000 0000 0000 0000 0000 0000
00000120: 0000 0000 0000 0000 0000 0000 0000 0000
00000130: 0000 0000 0000 0000 0000 0000 0000 0000
00000140: 0000 0000 0000 0000 0000 0000 0000 0000
00000150: 0000 0000 0000 0000 0000 0000 0000 0000
00000160: 0000 0000 0000 0000 0000 0000 0000 0000
00000170: 0000 0000 0000 0000 0000 0000 0000 0000
00000180: 0000 0000 0000 0000 0000 0000 0000 0000
00000190: 0000 0000 0000 0000 0000 0000 0000 0000
000001a0: 0000 0000 0000 0000 0000 0000 0000 0000
000001b0: 0000 0000 0000 0000 0000 0000 0000 0000
000001c0: 0000 0000 0000 0000 0000 0000 0000 0000
000001d0: 0000 0000 0000 0000 0000 0000 0000 0000
000001e0: 0000 0000 0000 0000 0000 0000 0000 0000
000001f0: 0000 0000 0000 0000 0000 0000 0000 0000

network_body.observation_encoder.x_self_encoder.seq_layers.0.weight f4 [128, 6]
-0.0007013708 0.015304375 -0.037243675 -0.003935961 0.0072061163 0.04527962 0.02644494 -0.024644218
-0.0026850195 -0.005705204 -0.00011981589 0.03876361 0.053491037 0.00406547 0.047570795 -0.060360346
0.067348264 0.0063549015 -0.005732696 0.0056736083 -0.01822568 0.0071801026 0.010970288 -0.0070310608
-0.04348168 -0.029438242 0.034777742 0.005821825 -0.048542842 -0.018106652 -0.015420885 0.03299306
0.009772272 -0.0012558551 -0.0063329274 0.028066091 -0.017744195 -0.007896009 -0.016131323 -0.03769126
0.06454782 0.03748286 0.05150808 -0.030076658 -0.04225792 0.017599015 -0.00094801985 -0.0013419184
0.039020125 0.03636919 -0.06579278 -0.08632044 -0.007714757 -0.0017063994 0.0651094 0.037431628
-0.02955402 0.011793536 0.035102367 -0.008785115 0.009435579 -0.012518244 0.0022010487 -0.024396833
0.041298147 -0.033166826 0.044427335 0.03946448 0.020579375 0.018063517 0.021256747 -0.002224037
-0.022376241 -0.047737412 -0.010236755 -0.053630214 0.039951265 -0.003691152 -0.024686541 -0.031120988
0.0018509835 -0.024355007 0.030057237 0.009823072 -0.0029508458 -0.038808364 -0.050699387 0.011953603
-0.046920154 0.04902712 -0.022082184 -0.06536876 -0.0025010994 0.00551511 0.052161004 0.08606066
0.036997695 0.05249941 -0.06736553 0.04326573 -0.0075637423 0.034839556 0.019631134 0.018368889
-0.0019913344 -0.008127523 0.032596637 -0.02091503 -0.036965217 0.01125602 -0.014867873 -0.0077955793
-0.0029588514 -0.038044054 -0.036592003 -0.011805406 -0.025809612 0.0022859292 0.04595282 -0.01129399
-0.007831782 -0.030058704 0.04742265 0.03383548 0.010029102 -0.020669531 0.025943574 -0.051374953
0.024340628 -0.014305814 0.046341337 0.0022898405 0.04115905 -0.025942005 -0.034144968 0.035532996
-0.019278973 -0.015713377 0.00032312356 -0.013037913 0.07497876 0.05681966 0.004585603 0.034423705
0.030450705 -0.042932384 0.0004137062 0.063022785 -0.023801534 0.028497338 -0.013243385 0.04661401
-0.02078032 -0.013293096 0.036949005 -0.030723585 -0.027913488 -0.04119359 -0.06557419 -0.019838719
0.087317735 -0.028572492 -0.03231963 -0.029857747 -0.021259526 0.03656529 -0.055321474 0.022181453
0.010904095 0.0141167985 -0.05805143 0.044985246 0.021294424 0.037774976 0.013765875 -0.040446334
-0.046860535 -0.002890369 0.004895428 -0.0036553384 0.0138574485 -0.027743978 -0.011574377 -0.036510963
0.0003804811 -0.035690606 -0.032885615 -0.0014601502 0.02888731 0.05131255 0.049240142 -0.013536182
-0.029510265 0.00080358965 -0.042232502 0.07245641 -0.006245946 0.0039742826 0.0153741315 -0.030922633
-0.027337447 0.020211847 -0.027987303 0.040206037 0.029590754 -0.044246018 -0.036408335 0.006236595
0.032361437 0.01867174 0.06179359 0.007626013 -0.0062784213 -0.03173872 -0.033694673 0.031771
0.008040114 -0.049351096 0.014861236 -0.0076468945 -0.006358243 -0.05189951 0.001908763 0.015088011
0.0031789495 -0.010019589 0.023522059 -0.07678039 -0.042575043 -0.016569592 0.043143947 0.027555086
-0.019429097 0.057119668 0.10677547 -0.018551616 -0.0356018 -0.035618715 -0.002060157 0.015802432
0.012320014 -0.012061944 -0.020484367 -0.007265518 -0.040901083 0.005342025 0.012726377 0.01903781
0.02943648 -0.033748668 -0.0020039817 -0.0082817925 0.02728499 0.027960386 0.015569995 0.0302915
00000000: 33dc 37ba 34bf 7a3c d38c 18bd 3cf9 80bb
00000010: 4921 ec3b 1f77 393d 0fa3 d83c ace2 c9bc
00000020: 27f7 2fbb b8f2 babb ab45 fbb8 97c6 1e3d
00000030: 6b19 5b3d a237 853b 98d9 423d 693c 77bd
00000040: e3ed 893d c73c d03b 57d9 bbbb ade9 b93b
00000050: 054e 95bc 1147 eb3b b9bc 333c d064 e6bb
00000060: d919 32bd 7828 f1bc 1b73 0e3d 02c5 be3b
00000070: dcd4 46bd 6754 94bc e1a7 7cbc bb23 073d
00000080: e11b 203c 819b a4ba 7284 cfbb dcea e53c
00000090: 465c 91bc 435e 01bc d625 84bc 2762 1abd
000000a0: a631 843d a187 193d 23fa 523d 5363 f6bc
000000b0: a416 2dbd cf2b 903c 8984 78ba 4fe3 afba
000000c0: 91d3 1f3d dcf7 143d 5dbe 86bd c5c8 b0bd
000000d0: 13cc fcbb 43a9 dfba 1458 853d e851 193d
000000e0: 461b f2bc ad39 413c 80c7 0f3d 71ef 0fbc
000000f0: b097 1a3c 5219 4dbc 783f 103b dedb c7bc
00000100: 3f28 293d f0d9 07bd 70f9 353d 82a5 213d
00000110: 1496 a83c f1f9 933c a122 ae3c 26c1 11bb
00000120: 614e b7bc 4e88 43bd 10b8 27bc 5bab 5bbd
00000130: f0a3 233d 41e7 71bb 6e3b cabc 71f1 febc
00000140: b39c f23a 2784 c7bc 983a f63c f3f0 203c
00000150: fa62 41bb 85f5 1ebd 29aa 4fbd 0bd9 433c
00000160: 592f 40bd a9d0 483d b2e5 b4bc 0ee0 85bd
00000170: 7ce9 23bb 19b8 b43b c7a6 553d 9240 b03d
00000180: e58a 173d 9f09 573d f0f6 89bd 6837 313d
00000190: 45d9 f7bb ecb3 0e3d 79d1 a03c 5a7a 963c
000001a0: 0c81 02bb 4d29 05bc 0d84 053d ff55 abbc
000001b0: d768 17bd 2b6b 383c 6198 73bc 0f72 ffbb
000001c0: 4ae9 41bb 15d4 1bbd 7fe1 15bd 766b 41bc
000001d0: ae6e d3bc 87cf 153b 0639 3c3d 6d0a 39bc
000001e0: e050 00bc ac3d f6bc 413e 423d 1397 0a3d
000001f0: 1a51 243c 2653 a9bc 9e87 d43c 8b6e 52bd
00000200: ff65 c73c ef62 6abc 6ad0 3d3d 2611 163b
00000210: 6496 283d 5484 d4bc 98db 0bbd 0c8b 113d
00000220: f0ee 9dbc 57b9 80bc e968 a939 f89c 55bc
00000230: 778e 993d bbbb 683d d342 963b dfff 0c3d
00000240: c273 f93c ded9 2fbd b5e6 d839 1712 813d
00000250: 6ffb c2bc 4073 e93c c8fa 58bc 55ee 3e3d
00000260: 7d3b aabc 49cb 59bc d757 173d 07b0 fbbc
00000270: d4aa e4bc 9cba 28bd c34b 86bd cf84 a2bc
00000280: a4d3 b23d dc10 eabc 9761 04bd 3c98 f4bc
00000290: 7528 aebc 7cc5 153d c598 62bd e1b5 b53c
000002a0: 17a7 323c 254a 673c 56c7 6dbd 7342 383d
000002b0: a571 ae3c efb9 1a3d 448a 613c 0eab 25bd
000002c0: d5f0 3fbd 586c 3dbb d469 a03b 678e 6fbb
000002d0: 5a0a 633c 5747 e3bc 75a2 3dbc 858c 15bd
000002e0: 4f7b c739 5030 12bd 11b3 06bd 8362 bfba
000002f0: 14a5 ec3c 1c2d 523d 08b0 493d ddc6 5dbc
00000300: 83bf f1bc fda7 523a fdfb 2cbd 0764 943d
00000310: cbaa ccbb b33a 823b c8e3 7b3c 7651 fdbc
00000320: c8f2 dfbc 5193 a53c a145 e5bc 16af 243d
00000330: 4f68 f23c 503b 35bd e820 15bd 5a5c cc3b
00000340: 6d8d 043d 7af5 983c 471b 7d3d a2e3 f93b
00000350: 37bb cdbb 7600 02bd 6d03 0abd 4f22 023d
00000360: afba 033c 6024 4abd 8b7c 733c cd92 fabb
00000370: cf58 d0bb 9594 54bd 752f fa3a b433 773c
00000380: ec55 503b 3429 24bc 55b1 c03c 0a3f 9dbd
00000390: 2b63 2ebd f4bc 87bc b5b7 303d 34bb e13c
000003a0: c529 9fbc 50f6 693d 19ad da3d 8ff9 97bc
000003b0: 31d3 11bd eee4 11bd b303 07bb 1a74 813c
000003c0: e2d9 493c 769f 45bc d5ce a7bc 9513 eebb
000003d0: e587 27bd 270c af3b 4b82 503c 2ef5 9b3c
000003e0: c624 f13c 0b3c 0abd 3c55 03bb 5bb0 07bc
000003f0: c584 df3c 2e0d e53c 4b19 7f3c e125 f83c

network_body._body_endoder.seq_layers.0.weight f4 [128, 134]
0.0057476433 -0.021094285 -0.06997025 -0.19329835 -0.0036505607 -0.00918627 0.0076714284 0.038381223
-0.061764985 0.09713498 -0.12700863 -0.0157278 -0.0047220862 -0.05634481 -0.055503577 -0.14241327
0.046891518 0.06801643 -0.07592534 0.03044423 0.15572964 0.008959348 -0.032412045 0.02247279
0.023279708 0.045679767 0.043093465 0.10325436 0.07605459 -0.083750986 0.026266819 0.12895559
-0.054966107 0.08104044 0.043407235 0.07298314 0.10032632 0.019950354 -0.17264493 0.020848766
-0.04109223 -0.100071155 0.06205532 -0.10743731 0.04281092 0.06859821 0.045394927 0.16176201
-0.15714574 0.0951464 0.08245146 -0.02461837 0.069589354 0.04466093 -0.06899323 0.08390214
-0.021593621 0.056214646 -0.047792353 -0.056793723 0.004963555 0.12209258 0.022441255 0.040551
0.077345476 -0.060239088 -0.10926227 0.10594222 0.08193325 0.046555 0.1268291 0.0127393715
0.030174296 0.09308229 -0.062012546 0.021028142 -0.0007919743 -0.064446665 -0.026813587 -0.057048228
-0.12678522 0.06467338 0.04686959 0.08753756 -0.04721564 0.044349663 -0.13055936 -0.0013601767
0.062878 -0.11702026 -0.06648359 -0.11053103 0.076764196 0.043362837 0.1280279 -0.20361628
0.10682499 0.04204962 -0.148008 0.124115 -0.012403326 -0.18642439 0.18554597 -0.053269412
0.2543276 0.08720199 0.071579374 -0.053954966 0.07454117 -0.08365504 0.07993766 0.02056287
-0.020315718 0.09098723 0.11513449 0.12116401 0.06344746 -0.0014206927 -0.016181314 0.16404721
0.06422576 0.11190479 0.10112983 0.0053303954 -0.1363583 -0.1047254 0.03327284 -0.08356032
0.13521382 -0.03636018 -0.0117925 0.019998966 -0.05748203 0.0146769965 -0.0990324 -0.15560749
0.043257214 0.12762658 -0.05089177 -0.084658876 0.041243862 -0.035825875 0.023926867 0.086149395
0.044985607 -0.13408247 -0.01831823 0.011161744 -0.09049036 -0.09141363 -0.0065616914 0.058740243
0.021531075 0.09422799 -0.04606601 -0.19457799 0.1477435 -0.108329736 -0.02411824 0.044081356
0.062110607 -0.090842105 0.08375831 0.09244937 0.044129808 0.025651397 0.09988574 -0.0047212783
0.04790142 -0.0059601064 -0.18741742 0.07110513 0.13610472 0.09282735 -0.17627025 0.02380227
-0.00906228 -0.0075011067 -0.008698968 0.0707937 0.07040337 0.18759087 -0.005257731 0.00033628836
-0.22627978 0.096584596 -0.052033283 0.1562339 -0.00056191004 0.05337775 0.113077365 -0.091246255
0.06596956 0.04327866 0.17967673 -0.008048153 0.019553915 0.25080857 0.06388789 -0.03854171
-0.025665447 0.066163234 -0.11366048 0.17574933 -0.026959408 -0.077504 -0.13693474 -0.002056626
0.11721531 -0.13544779 0.04237245 -0.044292416 -0.106512055 -0.033050958 0.1545512 -0.15377513
-0.06465535 -0.13330357 -0.069009244 0.21904781 0.015503833 0.07362861 0.13259183 0.0020813535
-0.056617163 -0.08289466 -0.03318022 0.026732111 0.043542903 0.05325688 0.09988106 0.039496567
0.15313758 0.032890253 0.06586575 0.09125644 0.12599947 -0.0010522365 0.067302465 0.08401606
-0.072405644 0.07414093 0.18198217 0.016193384 -0.0068551535 0.024194598 -0.138379 0.10019432
0.09237938 -0.13430467 -0.069930226 0.11894321 -0.10732773 0.06997276 0.014687138 0.093740515
00000000: ba56 bc3b eccd acbc 904c 8fbd 01f0 45be
00000010: 3f3e 6fbb 0282 16bc 9b60 fb3b a135 1d3d
00000020: 48fd 7cbd b4ee c63d 8d0e 02be 96d7 80bc
00000030: bbbb 9abb d1c9 66bd b857 63bd c9d4 11be
00000040: 5211 403d 334c 8b3d bf7e 9bbd 2e66 f93c
00000050: 9777 1f3e 3bca 123c 7ec2 04bd db18 b83c
00000060: 16b5 be3c b51a 3b3d c682 303d 0677 d33d
00000070: 82c2 9b3d a385 abbd 832d d73c ef0c 043e
00000080: 2424 61bd 88f8 a53d c9cb 313d 2f78 953d
00000090: e377 cd3d ed6e a33c d5c9 30be 08cb aa3c
000000a0: 5350 28bd 1bf2 ccbd b82d 7e3d 1808 dcbd
000000b0: 815a 2f3d 387d 8c3d 08f0 393d f1a4 253e
000000c0: d0ea 20be 1edc c23d 50dc a83d 77ac c9bc
000000d0: dd84 8e3d 61ee 363d 534c 8dbd e3d4 ab3d
000000e0: 1be5 b0bc 5441 663d eac1 43bd 89a0 68bd
000000f0: 51a5 a23b ad0b fa3d b9d6 b73c ce18 263d
00000100: 4e67 9e3d 43bd 76bd e6c4 dfbd 3cf8 d83d
00000110: 9fcc a73d 75b0 3e3d 7ddf 013e ccb8 503c
00000120: 1630 f73c eda1 be3d de00 7ebd 3643 ac3c
00000130: 7f9c 4fba 9dfc 83bd 2ba8 dbbc 67ab 69bd
00000140: fcd3 01be 7a73 843d 54fa 3f3d e446 b33d
00000150: 3065 41bd fea7 353d 5ab1 05be f547 b2ba
00000160: 2ec6 803d 51a8 efbd 8c28 88bd 185e e2bd
00000170: 8c36 9d3d 3b9d 313d bf19 033e c980 50be
00000180: 0fc7 da3d 393c 2c3d 698f 17be 0130 fe3d
00000190: 5237 4bbc 09e6 3ebe c3ff 3d3e 0731 5abd
000001a0: 3a37 823e f596 b23d 3598 923d e2ff 5cbd
000001b0: 0aa9 983d 5553 abbd 5bb6 a33d 7773 a83c
000001c0: 266d a6bc 8357 ba3d a2cb eb3d d624 f83d
000001d0: bef0 813d 8936 baba ad8e 84bc fefb 273e
000001e0: cc88 833d 572e e53d 281d cf3d 99aa ae3b
000001f0: 83a1 0bbe 457a d6bd 1a49 083d ac21 abbd
00000200: 7e75 0a3e 69ee 14bd 5435 41bc dfd4 a33c
00000210: 4772 6bbd c977 703c 80d1 cabd 9257 1fbe
00000220: 7a2e 313d 8bb0 023e e373 50bd a261 adbd
00000230: 53ef 283d 27be 12bd 4702 c43c 186f b03d
00000240: d442 383d ea4c 09be 1d10 96bc bfdf 363c
00000250: 0353 b9bd 1237 bbbd 7503 d7bb 9c99 703d
00000260: f061 b03c 9bfa c03d b6af 3cbd 743f 47be
00000270: 124a 173e fbdb ddbd 9e93 c5bc a78e 343d
00000280: b167 7e3d 6d0b babd 7a89 ab3d 1856 bd3d
00000290: 75c1 343d e122 d23c e590 cc3d f4b4 9abb
000002a0: 4834 443d ff4c c3bb 5aea 3fbe 919f 913d
000002b0: 095f 0b3e 441c be3d 3080 34be fafc c23c
000002c0: f579 14bc d8cb f5bb 1e86 0ebc 4afc 903d
000002d0: a42f 903d d217 403e 0b49 acbb dc4f b039
000002e0: e3b5 67be 25ce c53d da20 55bd c8fb 1f3e
000002f0: 254d 13ba a1a2 5a3d 1b95 e73d 51df babd
00000300: 0c1b 873d f744 313d 2dfd 373e 66dc 03bc
00000310: 882f a03c fb69 803e a7d7 823d e9dd 1dbd
00000320: 5840 d2bc 9780 873d d3c6 e8bd a2f7 333e
00000330: fad9 dcbc 6bba 9ebd 9f38 0cbe 75c8 06bb
00000340: 950e f03d d3b2 0abe bc8e 2d3d f76b 35bd
00000350: fe22 dabd 7160 07bd ab42 1e3e 3a77 1dbe
00000360: 066a 84bd bb80 08be b854 8dbd 124e 603e
00000370: ca03 7e3c 99ca 963d 27c6 073e 5167 083b
00000380: 66e7 67bd adc4 a9bd fbe7 07bd 4dfd da3c
00000390: 0b5a 323d e323 5a3d 718e cc3d 27c7 213d
000003a0: 19d0 1c3e eeb7 063d 9fe4 863d a8e4 ba3d
000003b0: 0106 013e 33eb 89ba e0d5 893d 9d10 ac3d
000003c0: 6949 94bd 33d7 973d 8959 3a3e fda7 843c
000003d0: 32a1 e0bb c033 c63c 39b3 0dbe ae32 cd3d
000003e0: 6631 bd3d 2a87 09be 9437 8fbd 7f98 f33d
000003f0: a4ce dbbd e14d 8f3d 52a2 703c 07fb bf3d

network_body._body_endoder.seq_layers.0.bias f4 [128]
-0.012883619 -0.0060527427 -0.014949917 0.0031815756 0.008180722 0.042392086 -0.0010547473 0.027870167
-0.01762759 -0.0029050792 -0.0007113704 -0.04027852 0.0005635158 -0.010962634 0.0017405726 -0.0025071087
0.0061241654 0.051023558 0.01788651 -0.050551794 -0.014057152 -0.0009645493 0.028112136 -0.03298645
-0.007604423 0.013668602 0.014449371 -0.033128534 0.047905646 0.016374016 -0.0062373728 0.013371574
0.021935685 -0.0057616103 0.022698998 0.019924762 0.013708923 0.010718194 -0.013859183 0.013197077
-0.0019605167 0.007340878 0.007314133 -0.010834186 0.023048 0.0016910138 0.042934332 0.0034390267
0.02823407 0.009927006 0.0024585559 0.012812347 -0.004244296 0.0037871478 0.04879466 0.014369461
-0.016349021 -0.059189055 -0.015911674 0.030541793 0.042601142 0.0055940934 0.0007658214 0.03481383
-0.035578612 0.017145218 -0.033164334 0.020157794 0.009106394 0.013746547 0.0076860627 0.013341661
-0.04256959 0.0356177 0.010619392 -0.005043122 0.013509952 0.03420778 0.012955749 -0.02984032
0.032645058 0.0058399183 0.0053331433 0.034136258 0.008273531 0.0049252794 0.0032899545 0.004122067
0.012405649 0.04060416 0.018243022 0.019738406 -0.028758919 0.02860033 0.020836454 0.0016194518
-0.02178951 -0.003173207 -0.01062544 0.033662397 0.036800254 0.0358767 0.038944237 -0.04641456
-0.019640304 0.0005858305 0.022603199 0.002742167 0.020871233 0.019944139 0.016552767 0.017258449
0.04039466 0.014437412 0.0063103763 0.01625715 -0.018447703 0.020105923 0.019503422 0.016412832
0.011128727 0.016135644 0.00755619 0.005009149 -0.010898568 -0.0047242166 -0.00294973 -0.0018694056
00000000: d115 53bc 1656 c6bb 7ff0 74bc fb81 503b
00000010: 6f08 063c 53a3 2d3d 723f 8aba fa4f e43c
00000020: bc67 90bc 2463 3ebb 427b 3aba 17fb 24bd
00000030: e8b8 133a 9f9c 33bc ed23 e43a 4e4e 24bb
00000040: 39ad c83b 14fe 503d bb86 923c 660f 4fbd
00000050: f84f 66bc cfd9 7cba 6c4b e63c cd1c 07bd
00000060: 862e f9bb 46f2 5f3c 0ebd 6c3c c9b1 07bd
00000070: b638 443d cd22 863c e062 ccbb 7214 5b3c
00000080: 77b2 b33c e4cb bcbb 40f3 b93c 4139 a33c
00000090: 649b 603c 5d9b 2f3c a011 63bc 8e38 583c
000000a0: 037c 00bb bf8b f03b 65ab ef3b df81 31bc
000000b0: 29cf bc3c 02a5 dd3a e9db 2f3d 4b61 613b
000000c0: 234b e73c e2a4 223c b91f 213b e1ea 513c
000000d0: bc13 8bbb cc31 783b e9dc 473d e36d 6b3c
000000e0: 62ee 85bc 3970 72bd 3359 82bc c832 fa3c
000000f0: 897e 2e3d a84e b73b 67c1 483a f298 0e3d
00000100: e1ba 11bd 2174 8c3c 53d7 07bd f521 a53c
00000110: fc32 153c 3239 613c 5edb fb3b fb96 5a3c
00000120: 735d 2ebd dee3 113d f5fc 2d3c c640 a5bb
00000130: d958 5d3c 751d 0c3d 5a44 543c b073 f4bc
00000140: d3b6 053d c95c bf3b a6c1 ae3b 76d2 0b3d
00000150: b48d 073c 3d64 a13b 479c 573b 6712 873b
00000160: 1041 4b3c 8c50 263d 6472 953c 70b2 a13c
00000170: d397 ebbc 3d4b ea3c 36b1 aa3c c943 d43a
00000180: ea7f b2bc 94f5 4fbb 5316 2ebc 95e1 093d
00000190: ddbb 163d 72f3 123d fe83 1f3d 321d 3ebd
000001a0: b4e4 a0bc 6b92 193a 582a b93c eeb5 333b
000001b0: 26fa aa3c e461 a33c ab99 873c 9761 8d3c
000001c0: df74 253d e58a 6c3c 46c7 ce3b b72d 853c
000001d0: a31f 97bc 2db5 a43c a4c5 9f3c 3474 863c
000001e0: 4455 363c e62e 843c ea99 f73b ca23 a43b
000001f0: e88f 32bc 9acd 9abb 4250 41bb d806 f5ba

network_body._body_endoder.seq_layers.2.weight f4 [128, 128]
-0.15164855 -0.028587118 -0.0017333702 -0.030481454 -0.03787806 0.12822163 0.07775307 -0.0569661
-0.02570306 0.13559285 -0.0014693519 0.10300436 -0.10277685 -0.046612415 0.06663145 0.040659945
0.016067922 0.026836127 -0.004302469 0.17623468 -0.09838538 0.05719419 0.025171887 0.0069498783
-0.03909837 0.07036163 -0.019633146 0.07711349 0.099047855 0.087464936 0.021539599 0.091889784
-0.08017489 0.019441029 0.13502595 -0.07223033 -0.04474057 0.068965435 -0.068964854 -0.017730478
0.047776848 0.03850168 0.08913385 0.011430226 -0.035830684 -0.02563609 -0.11020915 0.04803031
-0.06811228 -0.099845335 0.07157625 -0.053767662 0.049265653 -0.085819125 0.13780186 -0.006565005
0.061733667 -0.14703715 -0.07396216 0.07356 0.014290523 0.037982687 0.012639859 0.21080504
-0.010229813 0.094337724 0.18979031 -0.041037854 -0.0005661491 0.074792504 0.010679333 0.08851487
0.032390688 0.07115827 -0.07951344 0.028610593 0.1395992 -0.09210806 0.061100222 0.059799477
-0.14161846 0.03314078 -0.049087886 0.15012422 -0.16489278 -0.14840166 0.035796944 -0.0626499
-0.03904534 -0.05533149 -0.011085788 0.101314574 0.0895274 0.15310937 0.08129887 0.06904967
0.030840296 -0.12425524 -0.0908702 0.14197744 -0.014236905 -0.030128254 -0.045492865 0.02727339
-0.13289961 0.17423669 0.0029243995 0.07577714 0.11712076 -0.011498451 -0.030128682 0.06687099
0.016138377 -0.09740114 0.16222751 -0.15479803 -0.0033364662 -0.044086296 0.09034827 0.0252646
0.11553519 -0.08562618 0.010580205 -0.109795 0.050422695 0.010089443 -0.09262421 -0.016003598
0.13217269 -0.040394176 0.12790929 -0.13730332 0.12224613 0.0634844 0.03806559 -0.056224793
0.009990099 -0.047401562 -0.10550797 -0.07707497 -0.019494437 -0.008725255 0.004264079 0.0510566
-0.09329422 0.05002104 0.03978487 0.018246777 0.12214312 0.062088046 -0.022123165 0.17364812
-0.044926576 -0.052666005 0.011100201 -0.037910357 -0.024857966 -0.08102357 0.048463676 0.029895958
-0.095446095 -0.056591716 0.056473736 0.10497247 -0.06025608 0.04527494 -0.071748696 -0.04179388
-0.11495346 -0.16569805 0.06683067 -0.119857244 -0.07017818 0.0014867136 -0.07435616 -0.059472628
0.10028279 0.029813506 0.0060095317 -0.06363942 -0.045306575 0.057020396 0.02561153 -0.07420447
0.0846321 -0.047226008 0.12258897 0.11053987 0.17601602 -0.21490172 0.027895749 -0.0010197911
0.016584946 -0.05124896 0.019105565 0.13666074 0.04404675 -0.03904613 0.086236276 0.0284622
-0.07841033 -0.11131397 -0.08921378 -0.15584697 -0.093253806 -0.00037182609 -0.077179946 0.02936667
0.007208926 0.007668352 -0.028395044 -0.050400782 -0.03907468 0.04370969 -0.11555916 -0.036788844
0.03729475 -0.042117175 0.19297643 0.057305504 0.16323572 -0.044585362 0.07612489 0.043133292
0.04786213 0.09150517 0.06888359 -0.03560149 -0.18775 -0.10438804 0.04609761 0.051872294
-0.16711873 0.06983935 0.092925526 0.104629055 -0.19121294 -0.078297526 0.052934296 0.06533215
0.064087294 -0.03350125 -0.009244055 -0.09463585 0.013593925 -0.011921254 -0.0467378 0.05477423
0.027647782 -0.1137976 -0.06140901 0.050669573 -0.013454613 0.00662376 -0.12276921 -0.008307026
00000000: c249 1bbe 882f eabc 4132 e3ba 3eb4 f9bc
00000010: 0626 1bbd 884c 033e 003d 9f3d 4955 69bd
00000020: 398f d2bc dad8 0a3e 4597 c0ba f3f3 d23d
00000030: ab7c d2bd a9ec 3ebd 1276 883d 0b8b 263d
00000040: e0a0 833c 70d7 db3c bafb 8cbb dd76 343e
00000050: 467e c9bd 7444 6a3d 4635 ce3c cebb e33b
00000060: 9d25 20bd c219 903d b1d5 a0bc aded 9d3d
00000070: 9ad9 ca3d d120 b33d d073 b03c b630 bc3d
00000080: bc32 a4bd cb42 9f3c 3e44 0a3e 7fed 93bd
00000090: e341 37bd c03d 8d3d 723d 8dbd 823f 91bc
000000a0: a8b1 433d f0b3 1d3d cf8b b63d d845 3b3c
000000b0: 32c3 12bd c702 d2bc 56b5 e1bd 6ebb 443d
000000c0: 737e 8bbd b67b ccbd 9296 923d 7b3b 5cbd
000000d0: c8ca 493d f0c1 afbd ee1b 0d3e 411f d7bb
000000e0: 71dc 7c3d e890 16be 7979 97bd a0a6 963d
000000f0: cc22 6a3c bc93 1b3d 6917 4f3c 47dd 573e
00000100: f29a 27bc 2334 c13d 6458 423e 4f17 28bd
00000110: 9f69 14ba d02c 993d 5ef8 2e3c 4947 b53d
00000120: 19ac 043d 6dbb 913d f1d7 a2bd c360 ea3c
00000130: 18f3 0e3e 27a3 bcbd 3a44 7a3d 4cf0 743d
00000140: 6e04 11be a0be 073d 6110 49bd 2aba 193e
00000150: a7d9 28be 9bf6 17be d19f 123d 974e 80bd
00000160: 02ee 1fbd 46a3 62bd 2aa1 35bc 047e cf3d
00000170: 245a b73d b4c8 1c3e 0680 a63d ea69 8d3d
00000180: caa4 fc3c 8879 febd 281a babd 8962 113e
00000190: e841 69bc 87cf f6bc ba56 3abd 726c df3c
000001a0: d616 08be 1a6b 323e 48a7 3f3b 0c31 9b3d
000001b0: 02dd ef3d 0064 3cbc 6dd0 f6bc a8f3 883d
000001c0: a134 843c 407a c7bd f81e 263e 6083 1ebe
000001d0: 9da8 5abb d593 34bd 8408 b93d b5f7 ce3c
000001e0: b79d ec3d c75c afbd 9958 2d3c 33dc e0bd
000001f0: 0788 4e3d 314e 253c c3b1 bdbd fa19 83bc
00000200: 4758 073e 5d74 25bd a7fa 023e 3e99 0cbe
00000210: 2e5c fa3d 1c04 823d aaea 1b3d f84b 66bd
00000220: 83ad 233c 2428 42bd 9014 d8bd 7bd9 9dbd
00000230: ccb2 9fbc 5ff4 0ebc b0b9 8b3b ba20 513d
00000240: 0a11 bfbd dde2 4c3d 76f5 223d 447a 953c
00000250: 2c26 fa3d 0950 7e3d a43b b5bc d0d0 313e
00000260: ee04 38bd 4fb8 57bd 9edd 353c e447 1bbd
00000270: efa2 cbbc afef a5bd d981 463d 5ee8 f43c
00000280: 3e79 c3bd b7cc 67bd 0151 673d cefb d63d
00000290: 14cf 76bd 3772 393d fbf0 92bd 0f30 2bbd
000002a0: b86c ebbd c0ac 29be 85de 883d b777 f5bd
000002b0: 94b9 8fbd d5dd c23a 0b48 98bd 9299 73bd
000002c0: 1061 cd3d 743b f43c 9beb c43b 6255 82bd
000002d0: 6393 39bd 388e 693d 45cf d13c 83f8 97bd
000002e0: 9853 ad3d 0f70 41bd ed0f fb3d ba62 e23d
000002f0: 8b3d 343e 320f 5cbe a085 e43c 83aa 85ba
00000300: 27dd 873c 6eea 51bd 4683 9c3c cbf0 0b3e
00000310: 5d6a 343d d6ee 1fbd a59c b03d 8f29 e93c
00000320: 9895 a0bd 94f8 e3bd b7b5 b6bd 5996 1fbe
00000330: dafb bebd a7f1 c2b9 8510 9ebd 5f92 f03c
00000340: db38 ec3b cd46 fb3b b99c e8bc 0d71 4ebd
00000350: c60c 20bd ef08 333d 48aa ecbd e6af 16bd
00000360: 61c2 183d 0f83 2cbd 9d9b 453e 2db9 6a3d
00000370: 4427 273e 249f 36bd 5ee7 9b3d 89ac 303d
00000380: 150b 443d 1067 bb3d d712 8d3d ded2 11bd
00000390: 8941 40be 66c9 d5bd d9d0 3c3d 0b78 543d
000003a0: 2c21 2bbe ef07 8f3d bd4f be3d c247 d63d
000003b0: 53cd 43be 745a a0bd a2d1 583d ddcc 853d
000003c0: 3340 833d 9b38 09bd 6074 17bc 71d0 c1bd
000003d0: 0eb9 5e3c 5d51 43bc 2370 3fbd f15a 603d
000003e0: 9a7d e23c b70e e9bd 0488 7bbd e68a 4f3d
000003f0: bd70 5cbc 200c d93b 6c6e fbbd 311a 08bc

network_body._body_endoder.seq_layers.2.bias f4 [128]
0.0050163297 -0.032462012 -0.026516963 0.02959562 -0.02266279 -0.048455205 -0.0065828585 -0.010521755
-0.041722175 0.03967899 0.005332241 -0.022769328 -0.04909861 -0.020158017 0.037285432 0.0015510931
0.04698933 -0.0069738314 0.012850411 -0.0072643594 -0.00033550436 0.034859657 0.004412474 -0.014993222
-0.0012339283 0.024540547 0.02397412 0.0014754174 0.041381538 0.017202191 0.0037466933 -0.02266803
-0.018956335 0.040210713 0.050132856 0.0052829296 0.02589492 0.017846208 -0.00033416296 0.02971196
-0.025414474 -0.01693042 0.040358085 -0.031914737 0.03865354 0.033422615 0.0020935135 -0.007795045
0.01738399 -0.021290513 0.009410477 -0.02770926 0.018212719 0.010488271 0.022545341 0.0029056938
-0.02294262 0.0013448691 0.02396951 -0.0037227846 0.02470416 0.025332654 0.023507258 0.027494768
0.0197827 -0.0069973846 -0.016855322 0.028696286 0.051405612 -0.03231168 -0.013108357 0.024353242
0.027129633 -0.0116607435 -0.00083414436 0.03156909 0.0060888664 0.04618728 0.015429559 -0.007895887
-0.008441514 -0.003555618 0.04844138 0.05278883 0.03951503 -0.016081447 -0.0023407731 -0.00080436986
0.025035357 -0.00026203383 0.019165598 -0.007988239 0.020142253 -0.0038888752 0.0073769665 -0.017318876
-0.0172849 -0.008521226 0.024003508 -0.013803534 -0.05387348 0.035618197 -0.03520712 0.013968375
-0.04999584 -0.017353624 0.019781163 0.009603919 0.015100991 -0.048509367 -0.02890723 0.024590148
-0.0074483044 -0.0043028425 0.01183352 0.01528738 -0.0015779189 -0.010707924 0.016618727 0.010560272
-0.009932623 0.0083723925 -0.045458984 0.06516728 0.03230322 0.014169575 0.044272736 -0.016412418
00000000: 0660 a43b e3f6 04bd 1a3a d9bc 8472 f23c
00000010: 51a7 b9bc f778 46bd 05b5 d7bb 7063 2cbc
00000020: dfe4 2abd 7086 223d 14ba ae3b be86 babc
00000030: a01b 49bd 6d22 a5bc 9cb8 183d 0c4e cb3a
00000040: e277 403d bd84 e4bb 888a 523c dd09 eebb
00000050: a2e6 afb9 00c9 0e3d 8496 903b 22a6 75bc
00000060: c3bb a1ba 4209 c93c 6065 c43c cb62 c13a
00000070: b07f 293d 9ceb 8c3c 158b 753b 4eb2 b9bc
00000080: 514a 9bbc fdb3 243d 1c58 4d3d 6d1c ad3b
00000090: 9521 d43c 3632 923c 9832 afb9 7f66 f33c
000000a0: 0432 d0bc aab1 8abc 854e 253d 07b9 02bd
000000b0: 2d53 1e3d 27e6 083d 5433 093b 946d ffbb
000000c0: df68 8e3c 7169 aebc 672e 1a3c 88fe e2bc
000000d0: d732 953c ffd6 2b3c 02b1 b83c 746d 3e3b
000000e0: 29f2 bbbc 5246 b03a b55b c43c f6f9 73bb
000000f0: 6160 ca3c 6d86 cf3c 4b92 c03c b53c e13c
00000100: 540f a23c 514a e5bb 2c14 8abc 7914 eb3c
00000110: b18e 523d 4159 04bd 6fc4 56bc 7380 c73c
00000120: f73e de3c b40c 3fbc 7baa 5aba 974e 013d
00000130: 1d85 c73b e02e 3d3d 43cc 7c3c c05d 01bc
00000140: 474e 0abc 5f05 69bb 786a 463d 1a39 583d
00000150: 83da 213d 3dbd 83bc a867 19bb 59dc 52ba
00000160: f316 cd3c 9661 89b9 2c01 9d3c 1ae1 02bc
00000170: 5e01 a53c 80dc 7ebb 7bba f13b 51e0 8dbc
00000180: 1099 8dbc 9d9c 0bbc 01a3 c43c 3828 62bc
00000190: 70aa 5cbd 63e4 113d 5735 10bd 9cdb 643c
000001a0: 70c8 4cbd 3029 8ebc 1b0c a23c c259 1d3c
000001b0: 266a 773c c2b1 46bd dbce ecbc 4771 c93c
000001c0: e810 f4bb dcfe 8cbb 61e1 413c eb77 7a3c
000001d0: 2cd2 ceba 4a70 2fbc ff23 883c fe04 2d3c
000001e0: 71bc 22bc 5c2c 093c 3333 3abd 6c76 853d
000001f0: 6250 043d 8127 683c 5457 353d 5673 86bc

action_model._discrete_distribution.branches.0.weight f4 [8, 128]
-0.02857601 0.012666667 -0.0057637086 -0.011574889 -0.00832651 -0.011803574 0.0053828894 0.0005549602
-0.0031721217 -0.003686594 -0.03608322 0.024814868 0.010145081 0.0032434873 -0.003717618 0.017126316
-0.0065704193 0.006321442 -0.005036933 -0.0015781086 0.012569963 -0.0033579073 0.019450517 -3.7612073e-05
0.032012794 -0.0017544968 -0.031820532 0.019999253 -0.019389804 -0.034633987 -0.01768083 0.022301812
0.003387304 -0.0068769846 0.0015176681 0.01231189 -0.0031675268 -0.008752879 -0.013781061 -0.014076248
-0.012210663 -0.008502054 -0.0013642398 0.0014815504 0.00025905 -0.038165845 0.0041126083 -0.007658186
0.0025043213 -0.00042752866 -0.03684522 0.00909082 -0.0150271375 -0.012947962 -0.010092224 -0.01938405
0.006575973 0.009656641 -0.0054974426 0.011067558 -0.0032266797 0.0045652073 0.0050079357 -0.0070285946
-0.0020615573 -0.0070357798 0.011070092 0.005694575 -0.0024635612 0.02330593 0.0025054817 -0.0139868315
-0.0004251463 0.007434949 -0.012381883 -0.036630917 -0.019329278 -0.0009529725 -0.011154695 -2.2055556e-05
-0.013994052 -0.006026262 -0.017223349 -0.005527487 -0.003414228 -0.022536427 -0.01762897 -0.010639443
0.0029086366 0.00866873 -0.026007822 0.01488678 0.0046703895 -0.0020536932 -0.00511176 0.010367813
0.0017856411 0.010113941 -0.030125983 -0.00664354 0.0088280765 -0.020012924 0.016833235 -0.012883475
0.012530082 0.0144213205 -0.04895388 0.0018109772 0.00474405 0.016214028 0.0134900315 -0.017985357
0.015010064 -0.015176706 -0.0003250927 -0.036264077 -0.012373963 -0.013895449 -0.026590226 -0.018861566
0.007438989 -0.0021115642 0.019742562 -0.007564102 0.010594479 -0.000922591 0.0016497005 -0.020773321
0.004489096 -0.0011769818 0.01734333 -0.018104665 -0.011636413 0.0034597719 -0.009303862 0.0023733012
-0.002536261 -0.0064967102 0.0069271848 0.015816025 0.02383472 0.0023327828 0.026430955 0.0015295797
0.010917938 0.010086695 -0.0032570858 0.022680169 -0.0023200153 -0.016381735 -0.013746353 -0.0042133117
-0.02100665 -0.01711717 0.01048243 0.019756343 -0.017069539 -0.0021751337 -0.016619625 0.018101374
0.012426498 -0.025837602 0.008037617 -0.0119446255 -0.00604873 0.00077122333 0.007542212 -0.0046904604
-0.008397032 -0.0014506177 0.023810038 0.007219349 -0.0037266233 0.0022413565 0.0003141055 -0.003969537
0.009793338 0.019951606 -0.023889115 0.010250822 -0.011800434 0.01181584 -0.018160036 0.005996502
-0.004098084 -0.0025431768 0.022860259 -0.008548973 -0.021259561 -0.014057944 0.0020523672 0.0012640372
0.0017229462 -0.0061927014 -0.006837283 -0.0034569267 0.00045076702 0.021807645 0.0013360865 0.011337602
-0.036218863 0.0065292995 0.0006877419 -0.016417906 -0.015218233 -0.0034679922 0.0029450106 -0.005680581
0.0009746533 -0.014588061 0.013112782 0.0015402001 -0.022144996 -0.0062884875 0.0027502012 0.03818913
-0.007910349 0.018679343 0.014770255 0.0049473816 -0.020296615 -0.00084430387 -0.0074528633 0.014467008
0.0054792613 -0.002163431 -0.0073390575 0.002770685 0.031691063 -0.0072597694 0.025770087 0.001328434
0.021250706 0.0057268334 0.009905317 -0.0030330655 -0.01781259 0.034921426 0.04193717 -0.009588126
-0.0044259033 -0.0040423716 -0.004775678 -0.0033567015 0.004088567 0.01081983 -0.009366894 -0.0084823575
0.022460287 -0.01018801 0.014534689 0.0056333668 -0.0024511411 -0.010388624 -0.0031543802 0.010021238
00000000: 3d18 eabc da87 4f3c 7edd bcbb 9aa4 3dbc
00000010: ea6b 08bc c763 41bc f362 b03b c07a 113a
00000020: 5fe3 4fbb c99a 71bb 00cc 13bd 8d48 cb3c
00000030: 8e37 263c b090 543b 48a3 73bb 7d4c 8c3c
00000040: ac4c d7bb 1924 cf3b db0c a5bb 8ad8 ceba
00000050: 3ff2 4d3c 5610 5cbb b156 9f3c a8c1 1db8
00000060: d91f 033d 25f7 e5ba 3f56 02bd 79d5 a33c
00000070: 5ed7 9ebc 5edc 0dbd 63d7 90bc 4ab2 b63c
00000080: 88fd 5d3b 5458 e1bb 7eec c63a cfb7 493c
00000090: 4896 4fbb 3c68 0fbc f6c9 61bc 10a0 66bc
000000a0: 3c0f 48bc 334c 0bbc 4bd0 b2ba 9530 c23a
000000b0: 1ad1 8739 ca53 1cbd 0fc3 863b 85f1 fabb
000000c0: 8a1f 243b ed25 e0b9 03eb 16bd aaf1 143c
000000d0: 6234 76bc b023 54bc db59 25bc 4dcb 9ebc
000000e0: 427b d73b e336 1e3c e423 b4bb b454 353c
000000f0: b476 53bb bc97 953b 9c19 a43b 2050 e6bb
00000100: 311b 07bb 668c e6bb 555f 353c 8f99 ba3b
00000110: b373 21bb 14ec be3c 0233 243b 0629 65bc
00000120: 2ce6 deb9 dfa0 f33b 62dd 4abc 4d0a 16bd
00000130: 6f58 9ebc e7d0 79ba 2fc2 36bc f203 b9b7
00000140: 4f47 65bc f377 c5bb fb17 8dbc ec1f b5bb
00000150: 3ec1 5fbb 509e b8bc a16a 90bc 0f51 2ebc
00000160: d39e 3e3b 4a07 0e3c 5b0e d5bc aee7 733c
00000170: 110a 993b 4197 06bb 8d80 a7bb c2dd 293c
00000180: 2c0c ea3a f1b4 253c c4ca f6bc 0eb2 d9bb
00000190: a3a3 103c 25f2 a3bc dae5 893c 3615 53bc
000001a0: f94a 4d3c 6747 6c3c dd83 48bd 505e ed3a
000001b0: fa73 9b3b 48d3 843c 4b05 5d3c 0756 93bc
000001c0: c5ec 753c b8a7 78bc 3471 aab9 a489 14bd
000001d0: 2abc 4abc bda9 63bc bfd3 d9bc 9283 9abc
000001e0: c3c2 f33b 2b62 0abb 27bb a13c 49dc f7bb
000001f0: 7794 2d3c 09da 71ba c33a d83a d02c aabc
00000200: 4419 933b f544 9aba 9913 8e3c 3c50 94bc
00000210: a7a6 3ebc 57bd 623b 3a6f 18bc 6389 1b3b
00000220: 6637 26bb 5be2 d4bb 70fd e23b 9c90 813c
00000230: 0841 c33c 9ae1 183b bb85 d83c 2e7c c83a
00000240: 27e1 323c aa42 253c d574 55bb c3cb b93c
00000250: 660b 18bb fd32 86bc 6238 61bc d20f 8abb
00000260: 2316 acbc 4f39 8cbc 80be 2b3c 0ed8 a13c
00000270: 6bd5 8bbc b08c 0ebb e125 88bc 5549 943c
00000280: 8398 4b3c 61a9 d3bc 36b0 033c 64b3 43bc
00000290: 6d34 c6bb ec2b 4a3a a924 f73b 6fb2 99bb
000002a0: b493 09bc a722 beba 450d c33c 4a90 ec3b
000002b0: 5d3a 74bb b9e3 123b 87ae a439 e412 82bb
000002c0: 3d74 203c 8d71 a33c 1bb3 c3bc 10f3 273c
000002d0: 9c56 41bc 3a97 413c 5bc4 94bc 4e7e c43b
000002e0: 3849 86bb 6dab 26bb 7045 bb3c fe10 0cbc
000002f0: 8828 aebc 4a53 66bc 0281 063b 0dae a53a
00000300: 7bd4 e13a 25ec cabb 490b e0bb 9b8d 62bb
00000310: ed54 ec39 f2a5 b23c a01f af3a 59c1 393c
00000320: 3b5a 14bd bcf3 d53b 9449 343a d87e 86bc
00000330: e555 79bc 4147 63bb 1401 413b 2b24 babb
00000340: e07f 7f3a c302 6fbc fed6 563c 8ae0 c93a
00000350: 6c69 b5bc a80f cebb b83c 343b 356c 1c3d
00000360: 699a 01bc 6c05 993c f1fe 713c a51d a23b
00000370: 1645 a6bc 4654 5dba 2637 f4bb 0807 6d3c
00000380: 608b b33b 59c8 0dbb 7a7c f0bb 6194 353b
00000390: 7dce 013d 5ce3 edbb ca1b d33c d91e ae3a
000003a0: f615 ae3c 29a8 bb3b e949 223c 65c6 46bb
000003b0: b5eb 91bc c509 0f3d 4fc6 2b3d 8417 1dbc
000003c0: 2b07 91bb df75 84bb 4a7d 9cbb 1bfc 5bbb
000003d0: 63f9 853b a845 313c 9a77 19bc 96f9 0abc
000003e0: a3fe b73c 9ceb 26bc e722 6e3c 1b98 b83b
000003f0: 53a3 20bb 0c35 2abc b8b9 4ebb 1e30 243c

action_model._discrete_distribution.branches.0.bias f4 [8]
-0.0011702272 -0.021106306 0.06354977 -0.010901065 -0.022167437 0.002003102 0.014139492 -0.020536711
00000000: 4f62 99ba 22e7 acbc 6226 823d 619a 32bc
00000010: 7c98 b5bc 7a46 033b 54a9 673c 9b3c a8bc

onnx::MatMul_154 f4 [131, 128]
-0.015925433 -0.061399385 -0.010417272 0.031503625 -0.03079984 0.0035026085 0.0041495548 -0.08676669
-0.043645754 0.0031157937 0.011489666 0.007872175 0.030209085 0.043870535 -0.008555812 -0.021685587
-0.026830012 0.0055739745 -0.0012531234 0.032749187 0.01968522 -0.007980293 -0.014900375 0.05573143
-0.009150211 -0.003795217 -0.02104381 -0.03383518 -0.033866443 0.01129668 0.036716897 -0.05389031
0.019787135 -0.0044623287 -0.06615085 -0.030796109 0.047525086 0.01716631 0.030436678 0.012150237
-0.010858976 0.0050360854 -0.017545138 -0.06469766 -0.066613235 -0.010980329 0.058289904 0.01327917
-0.044117253 -0.05730793 -0.01770112 -0.0066630803 0.050910935 -0.05934858 -0.044931702 0.031976476
-0.041831903 0.04094349 0.026510626 -0.0074107307 0.015998708 -0.0015566824 0.043486133 -0.04597513
-0.01951307 -0.030527582 -0.009074892 0.014064926 0.0031358965 0.01836691 -0.039123677 -0.0009957107
0.024236957 -0.025168927 -0.02561357 -0.009236023 0.008122351 -0.0021116764 -0.006283769 -0.03230015
-0.023463942 -0.031103475 0.023511413 -0.057911973 -0.01975474 0.042159185 0.017660107 -0.0032664791
-0.0028036581 -0.00229363 -0.017879924 0.014486498 0.010107985 0.014187352 0.0052720364 -0.09257358
0.00125659 -0.02600832 0.03820081 -0.028564569 0.06330757 0.011829476 -0.03165724 0.047002673
-0.050017286 -0.03980179 0.006748591 -0.02897567 0.02863518 0.022243872 -0.02553968 -0.013510078
0.003335311 0.006556286 0.06421878 0.05772511 0.00823626 -0.02025691 0.047312234 0.019626286
-0.03845486 -0.036375016 -0.0078080753 -0.033777457 -0.029987201 -0.025387228 -0.0020426868 0.03594537
-0.041404516 -0.015065378 0.022429373 -0.0053828293 0.026230384 -0.041456006 -0.0032192275 0.024000697
-0.012535268 -0.0160046 0.028199788 -0.024560895 0.02403994 -0.004359944 0.046030484 0.004293003
-0.018526372 -0.08486329 -0.1064853 -0.030518772 -0.094495066 -0.081130736 -0.013294288 -0.04666518
-0.012818103 0.07597059 0.027056372 0.0074744564 -0.0072529083 0.03768876 -0.0064991447 -0.0102411695
0.02873587 -0.018978765 -0.012551891 -0.044887338 -0.019480655 0.027374383 0.03337162 0.0038111154
-0.00810993 -0.06118917 -0.053072892 0.066265956 0.00943785 -0.038941376 -0.028264157 -0.008365434
0.006590371 -0.040677436 -0.031616453 -0.02198821 -0.0151510285 0.0013113583 -0.01751298 -0.02820682
0.0130766 0.035475876 -0.056182086 -0.023745358 0.024418639 0.040504534 -0.0023687663 -0.016355691
-0.01688126 0.041985113 -0.02609863 0.0012878617 -0.005445272 -0.03611753 0.035546813 -0.036100205
-0.029343752 0.058246035 -0.042494696 -0.022108585 -0.012651332 -0.0056409943 0.030917024 -0.034237627
-0.043370396 -0.043432258 -0.027763037 0.0022553687 -0.021303898 -0.012185112 -0.036415588 0.019966405
-0.0106372805 0.0014047215 -0.026575442 -0.008303743 0.028804746 0.025082514 -0.02852562 -0.028653855
-0.023084024 0.025790827 0.057414994 -0.03738583 -0.03893739 0.02767984 -0.019550104 -0.0020680893
-0.049479987 0.015357749 -0.009812739 -0.014338583 -0.04245921 0.072293475 -0.02020681 -0.025679262
-0.0026699624 -0.055560328 -0.048505396 -0.026934095 0.008126283 -0.029368287 0.035553414 0.026678132
0.0107048405 0.06201891 -0.0076244026 -0.013795174 0.06186203 0.03186545 0.0016044473 0.018797582
00000000: 0e76 82bc ec7d 7bbd 35ad 2abc f209 013d
00000010: f24f fcbc 058c 653b fdf8 873b bcb2 b1bd
00000020: e4c5 32bd 5832 4c3b 273f 3c3c 4cfa 003c
00000030: 0b79 f73c 97b1 333d ad2d 0cbc f9a5 b1bc
00000040: 9dca dbbc e3a5 b63b d83f a4ba 0324 063d
00000050: e642 a13c c6bf 02bc b420 74bc a446 643d
00000060: c4ea 15bc 2db9 78bb 1164 acbc c296 0abd
00000070: 8ab7 0abd b615 393c 7564 163d 16bc 5cbd
00000080: a118 a23c ba38 92bb 197a 87bd 1f48 fcbc
00000090: aaa9 423d 5da0 8c3c 5756 f93c ca11 473c
000000a0: d9e9 31bc bf05 a53b d2ba 8fbc 3580 84bd
000000b0: 856c 88bd d6e6 33bc 65c1 6e3d e090 593c
000000c0: 4bb4 34bd b8bb 6abd f001 91bc f855 dabb
000000d0: fc87 503d 7f17 73bd 4e0a 38bd c4f9 023d
000000e0: ee57 2bbd 5cb4 273d d02c d93c b7d5 f2bb
000000f0: b90f 833c 9809 ccba 841e 323d 6b50 3cbd
00000100: e0d9 9fbc fb14 fabc dbae 14bc 9370 663c
00000110: 9d83 4d3b 3476 963c 2640 20bd 8282 82ba
00000120: 958c c63c 112f cebc 8dd3 d1bc b052 17bc
00000130: 9c13 053c 0d64 0abb 13e8 cdbb 294d 04bd
00000140: 7437 c0bc b7cc febc 029b c03c 1b35 6dbd
00000150: b1d4 a1bc 1caf 2c3d eeab 903c 6d12 56bb
00000160: 94bd 37bb ba50 16bb eb78 92bc c758 6d3c
00000170: f69b 253c 1172 683c 0cc1 ac3b 3897 bdbd
00000180: 2ab4 a43a 660f d5bc 7478 1c3d 3e00 eabc
00000190: 66a7 813d 6bd0 413c 06ab 01bd e085 403d
000001a0: edde 4cbd 3407 23bd 4923 dd3b 625e edbc
000001b0: 5394 ea3c c838 b63c 9738 d1bc 6059 5dbc
000001c0: 3c95 5a3b 1dd6 d63b 2385 833d 2a71 6c3d
000001d0: 61f1 063c d2f1 a5bc 79ca 413d 4ec7 a03c
000001e0: d882 1dbd f8fd 14bd e2da ffbb 3b5a 0abd
000001f0: b8a7 f5bc e0f8 cfbc 99de 05bb 743b 133d
00000200: c897 29bd c6d4 76bc cebd b73c 7262 b0bb
00000210: 1ae1 d63c c6cd 29bd adf9 52bb 1c9d c43c
00000220: ba60 4dbc 141c 83bc 3e03 e73c ee33 c9bc
00000230: 69ef c43c dcdd 8ebb 768a 3c3d 52ac 8c3b
00000240: 9ec4 97bc cecc adbd f714 dabd 8102 fabc
00000250: a186 c1bd df27 a6bd 49d0 59bc fd23 3fbd
00000260: 0503 52bc 7896 9b3d 53a5 dd3c 49ec f43b
00000270: cea9 edbb 875f 1a3d c7f6 d4bb 94ca 27bc
00000280: 7d67 eb3c 5b79 9bbc 72a6 4dbc c9db 37bd
00000290: e595 9fbc 3e40 e03c aeb0 083d e8c3 793b
000002a0: 83df 04bc 7fa1 7abd f662 59bd 72b6 873d
000002b0: 36a1 1a3c fe80 1fbd 3c8a e7bc 2c0f 09bc
000002c0: 0af4 d73b 629d 26bd 4180 01bd 9e20 b4bc
000002d0: 053c 78bc e2e1 ab3a 6277 8fbc fd11 e7bc
000002e0: 3c3f 563c 274f 113d 301f 66bd a085 c2bc
000002f0: 9909 c83c 15e8 253d 4e3d 1bbb 5ffc 85bc
00000300: 914a 8abc 95f8 2b3d cbcc d5bc 78cd a83a
00000310: 416e b2bb faef 13bd 8999 113d cfdd 13bd
00000320: 4f62 f0bc 6593 6e3d eb0e 2ebd 101d b5bc
00000330: 8847 4fbc 17d8 b8bb b345 fd3c c13c 0cbd
00000340: 28a5 31bd 06e6 31bd 4f6f e3bc cfce 133b
00000350: 8385 aebc 10a4 47bc 8328 15bd 9690 a33c
00000360: fd47 2ebc a21e b83a beb4 d9bc 6c0c 08bc
00000370: eef7 eb3c d879 cd3c 90ae e9bc 7dbb eabc
00000380: b51a bdbc 4947 d33c fc2b 6b3d e221 19bd
00000390: d07c 1fbd d5c0 e23c 8a27 a0bc c888 07bb
000003a0: 87ab 4abd 119f 7b3c 9cc5 20bc 60ec 6abc
000003b0: b5e9 2dbd 9a0e 943d c188 a5bc 515d d2bc
000003c0: 89fa 2ebb 3a93 63bd 98ad 46bd e4a4 dcbc
000003d0: 1a24 053c c395 f0bc 75a0 113d 198c da3c
000003e0: 5b63 2f3c 8a07 7e3d 20d6 f9bb 2705 62bc
000003f0: 0a63 7d3d 5985 023d 514c d23a 63fd 993c

onnx::MatMul_156 f4 [128, 128]
0.013291429 -0.055677135 -0.024206154 0.006162878 0.0071615544 -0.03641385 -0.015303095 -0.04928887
-0.007836793 0.027206285 -0.011103902 0.022054791 0.036521528 0.02357795 -0.022849515 0.0069725774
-0.06295279 0.036973305 -0.063569605 0.02195445 0.014661171 0.014363709 -0.022617122 -0.0041091214
0.018863533 0.049496453 -0.013176531 -0.0027135424 -0.03678521 -0.056675952 0.061153457 -0.01625814
0.040142257 -0.0029863473 0.01674463 -0.01669287 0.01854568 -0.08727339 0.018322209 0.026380558
0.009173528 0.049780633 -0.013225491 0.0032252131 0.04771067 -0.0016740229 -0.03026421 -0.04726655
-0.10477426 -0.008625717 0.005730953 -0.021412566 0.0020762368 -0.018330155 0.010887741 -0.0023018124
0.011645571 -0.053955946 -0.007045604 -0.03674879 0.0024653831 -0.010741605 -0.039639298 0.010062446
0.0035089958 -0.07238891 -0.0032347722 0.043560587 0.054415487 0.0067213224 0.0017464488 -0.0042480184
0.032852832 0.00928715 -0.024164854 0.02109355 -0.012311637 -0.07115494 0.006703229 -0.003340511
0.013634796 -0.013277765 -0.050056137 0.0047958274 -0.019344369 -0.029592387 -0.0462923 0.02009668
0.011994456 -0.021839213 -0.001326103 -0.021753935 -0.06128661 -0.0068307435 -0.002220338 0.052497257
-0.009627179 -0.01818498 0.007101309 -0.07093552 -0.07039323 -0.018970212 0.011580775 0.0026593513
-0.0057455534 -0.053123284 0.022867376 0.007801523 0.00048002184 0.027749354 0.0034743838 -0.0064186
0.0007742002 -0.03190687 0.03346892 -0.0006843323 0.022212114 0.0004743943 0.0018617167 -0.029946744
-0.012982377 -0.027849445 -0.014809406 0.009242918 0.04362301 -0.036358207 -0.015612179 -0.04413264
0.041427754 -0.008428556 0.012523017 -0.0070308265 -0.00089457794 -0.025942223 -0.044850823 -0.002755091
0.014326388 -0.026844416 0.047924515 -0.0069852252 -0.002074133 0.042900376 0.022789218 0.054364208
-0.0069040465 -0.0069608013 -0.012493103 0.013306413 -0.0067468635 -0.044880193 -0.0360973 -0.032251958
0.012555984 0.019427199 -0.05123645 -0.049336493 0.024228116 0.018729081 -0.048642546 -0.0041637397
-0.07053796 -0.006306983 -0.005887207 -0.0023768493 0.02467929 -0.03643894 -0.029392548 0.023433657
0.03194454 0.015152655 -0.03361668 -0.0015505364 0.057370182 0.029935561 -0.03206522 -0.05047842
0.009911125 -0.057485566 0.0056980406 -0.028292913 -0.019308846 -0.011919921 0.008252749 -0.04920323
0.010548412 -0.04586938 -0.023150152 0.033994447 -0.0017478695 0.011692775 -0.048695877 -0.012452003
-0.038965367 0.04862524 0.0012124279 -0.018342586 -0.018268496 0.056392923 0.0067338166 -0.016515499
0.037353557 -0.039105315 0.010440168 -0.005646489 0.004975465 0.039436504 -0.029775985 0.044568088
0.016119396 0.006819556 0.050275642 0.044710286 0.04692494 0.02349353 -0.026477661 0.05175565
0.033289146 0.035929207 0.03784208 -0.035671484 -0.008438324 0.0004896604 -0.017252881 -0.0144273415
0.008485948 -0.028941808 -0.026039662 -0.021962186 0.018097803 0.010827243 -0.027035985 -0.026276149
-0.0017549029 0.013373031 -0.017648127 -0.00471498 -0.0063058943 0.0066829445 0.0937072 -0.00021791706
-0.015349965 0.03072082 0.037012357 0.07739793 0.045166455 0.05864702 -0.0026067337 -0.005434278
-0.04453529 0.0076019145 0.0047623976 -0.028123459 0.046484273 -0.034918338 -0.02250911 -0.020125857
00000000: 4bc4 593c b50d 64bd fc4b c6bc f8f1 c93b
00000010: 79ab ea3b b026 15bd d5b9 7abc 20e3 49bd
00000020: e465 00bc b7df de3c 24ed 35bc 40ac b43c
00000030: 9997 153d 8c26 c13c e82e bbbc 387a e43b
00000040: 64ed 80bd 5271 173d c830 82bd d2d9 b33c
00000050: 6835 703c c355 6b3c 8b47 b9bc cfa5 86bb
00000060: b287 9a3c cbbc 4a3d 60e2 57bc b0d5 31bb
00000070: 17ac 16bd 0b25 68bd 0c7c 7a3d ca2f 85bc
00000080: 356c 243d 98b6 43bb 092c 893c 7cbf 88bc
00000090: 1ced 973c 64bc b2bd 7518 963c 0a1c d83c
000000a0: 914c 163c c7e6 4b3d bbaf 58bc 195e 533b
000000b0: 436c 433d e36a dbba a6ec f7bc 929a 41bd
000000c0: e393 d6bd e152 0dbc b8ca bb3b 6869 afbc
000000d0: 7911 083b 1f29 96bc 7f62 323c 01da 16bb
000000e0: 11cd 3e3c e900 5dbd cfde e6bb e685 16bd
000000f0: 4492 213b 8ffd 2fbc d15c 22bd f5dc 243c
00000100: 2ef7 653b a340 94bd 79fe 53bb 966c 323d
00000110: c6e2 5e3d 8a3e dc3b 19e9 e43a f632 8bbb
00000120: b190 063d 2129 183c 5ff5 c5bc 61cc ac3c
00000130: c0b6 49bc aeb9 91bd c3a6 db3b 79ec 5abb
00000140: 7b64 5f3c fc8a 59bc aa07 4dbd 5126 9d3b
00000150: 1578 9ebc bc6b f2bc ff9c 3dbd cba1 a43c
00000160: 6584 443c 26e8 b2bc a2d0 adba 4f35 b2bc
00000170: ab07 7bbd 6ed4 dfbb 1783 11bb 5d07 573d
00000180: 51bb 1dbc abf8 94bc 19b2 e83b a446 91bd
00000190: 532a 90bd 6b67 9bbc 4abd 3d3c 8348 2e3b
000001a0: 3245 bcbb cd97 59bd 5d54 bb3c eba3 ff3b
000001b0: 71ab fb39 9d52 e33c 7db2 633b 1f53 d2bb
000001c0: b2f3 4a3a c7b0 02bd b516 093d c364 33ba
000001d0: 2ef6 b53c 20b8 f839 d904 f43a e052 f5bc
000001e0: 09b4 54bc 8524 e4bc 27a3 72bc 9c6f 173c
000001f0: 0bae 323d 58ec 14bd 3aca 7fbc 6dc4 34bd
00000200: 26b0 293d ed17 0abc 572d 4d3c d962 e6bb
00000210: 1c82 6aba c984 d4bc 7fb5 37bd c28e 34bb
00000220: 3ab9 6a3c d2e8 dbbc 7f4c 443d 51e4 e4bb
00000230: 2dee 07bb 4eb8 2f3d 74b0 ba3c 01ad 5e3d
00000240: 573b e2bb 6f17 e4bb dfaf 4cbc 2403 5a3c
00000250: cb14 ddbb 4bd4 37bd c3da 13bd a11a 04bd
00000260: 9db7 4d3c ca25 9f3c 50dd 51bd 1015 4abd
00000270: 0b7a c63c bb6d 993c 683d 47bd fb6f 88bb
00000280: 3576 90bd cfaa cebb 79e9 c0bb eac4 1bbb
00000290: 392c ca3c ff40 15bd a4c8 f0bc f1f7 bf3c
000002a0: 47d8 023d d742 783c a5b1 09bd 5e3b cbba
000002b0: fffc 6a3d 6c3b f53c d256 03bd 76c2 4ebd
000002c0: 4562 223c fc75 6bbd a1b6 ba3b 8ac6 e7bc
000002d0: 962d 9ebc c64b 43bc 8a36 073c 5389 49bd
000002e0: 3fd3 2c3c 88e1 3bbd 63a5 bdbc c33d 0b3d
000002f0: c518 e5ba 0e93 3f3c 5475 47bd 7c03 4cbc
00000300: 269a 1fbd 422b 473d 54ea 9e3a 3143 96bc
00000310: d0a7 95bc 44fc 663d 59a7 dc3b 834b 87bc
00000320: 0b00 193d e52c 20bd 3d0d 2b3c 2f06 b9bb
00000330: 3a09 a33b 2c88 213d c4ec f3bc 078d 363d
00000340: d30c 843c 9576 df3b d5ed 4d3d 2222 373d
00000350: 5e34 403d 8175 c03c aee7 d8bc bcfd 533d
00000360: 335a 083d 812a 133d 4c00 1b3d 431c 12bd
00000370: e540 0abc 8e5c 003a ea55 8dbc a860 6cbc
00000380: a508 0b3c 5f17 edbc 2151 d5bc 0bea b3bc
00000390: d841 943c c064 313c 927a ddbc 1441 d7bc
000003a0: c504 e6ba 8f1a 5b3c ce92 90bc 1e80 9abb
000003b0: ada1 cebb 9afc da3b 8fe9 bf3d aa80 64b9
000003c0: 6b7e 7bbc 3baa fb3c 459a 173d ce82 9e3d
000003d0: 7600 393d dc37 703d bcd5 2abb 0712 b2bb
000003e0: a36a 36bd 7b19 f93b e30d 9c3b 2b63 e6bc
000003f0: 4b66 3e3d 8806 0fbd 0665 b8bc fbde a4bc
