results/3-23_poca3/simple_wolf/simple_wolf-99964.onnx (onnx, 836063 bytes, 20 tensors)

network_body.observation_encoder.processors.0.self_ent_encoder.seq_layers.0.bias f4 [128]
0	0xbce37ddb	-0.027769974
1	0x3b90845e	0.0044103106
2	0xbb943190	-0.00452251
3	0xbca0322f	-0.01955518
4	0x3ca5fbe2	0.020261709
5	0x3cb88f0c	0.022529148
6	0xbcc2ed06	-0.023794662
7	0x3ceeb637	0.029139621
8	0xbcb1efa6	-0.021720719
9	0xbce8cddf	-0.02841848
10	0x3b958c28	0.004563827
11	0xbcdc65d2	-0.02690402
12	0x3c336d86	0.010951405
13	0x3cf8b373	0.030359006
14	0xbc4026d7	-0.01172801
15	0x3c943369	0.01809092
16	0xbcde0eb0	-0.027106613
17	0xbccf8242	-0.025330666
18	0x3caa2756	0.02077071
19	0xbc61b333	-0.013775635
20	0x3cfed65d	0.031108076
21	0xbce87969	-0.028378205
22	0x3d1f1f2f	0.0388481
23	0x3cbb6281	0.022874119
24	0xb9312b4a	-0.00016896162
25	0xbc728862	-0.014803024
26	0xbcc04612	-0.023470912
27	0x3b9f0c78	0.0048537813
28	0x3ca833e6	0.02053256
29	0xbb4cfeda	-0.0031279833
30	0xbcba29aa	-0.022724945
31	0xbce72d4b	-0.02821984
32	0x3c84e795	0.016223708
33	0x3d068423	0.03284086
34	0xbd155375	-0.036456544
35	0xbba4bea6	-0.00502761
36	0xbc0c80c2	-0.00857562
37	0x3c001a37	0.00781875
38	0xbcb0f014	-0.021598853
39	0xbc556cc7	-0.013026423
40	0x3d0102c2	0.03149677
41	0xbc957a83	-0.018246895
42	0xbca5b53d	-0.020228023
43	0xbcd9e0cf	-0.026596455
44	0xbcb5f873	-0.022213196
45	0x3c8e953b	0.017405143
46	0x3c39c932	0.011339473
47	0xbcf8668e	-0.03032234
48	0xbcbf1a58	-0.023327991
49	0xbc9513cf	-0.018197922
50	0x3cc4d3eb	0.024026832
51	0xbcdfa5fc	-0.027300827
52	0x3b063c89	0.002048286
53	0x3caac30f	0.020844964
54	0x3c96a2e8	0.018388227
55	0x3c59fa91	0.013304369
56	0xbd0400e5	-0.032227416
57	0xbba676d5	-0.005080084
58	0x3cc753b4	0.024331905
59	0x3ce120bb	0.027481427
60	0x3ccabad7	0.024747295
61	0x3c32b394	0.010907073
62	0x3ca4d276	0.020119887
63	0xbcb5b6b9	-0.022181856
64	0xbc16fc7e	-0.009215472
65	0xbc0b8251	-0.008514957
66	0x3ca82fd5	0.02053062
67	0x3cb05552	0.021525059
68	0x3b5283ea	0.0032122084
69	0xbc4b13b5	-0.012394835
70	0x3c8d3179	0.017235504
71	0xbbbe7c32	-0.005813145
72	0xbd0037ae	-0.0313031
73	0xbcdb05f1	-0.026736232
74	0x3c881af0	0.016614407
75	0xbc75142c	-0.014958423
76	0x3a98ab1e	0.0011647677
77	0xbca50b8a	-0.020147104
78	0x3ad4cbb2	0.0016235022
79	0xbcf281b2	-0.02960286
80	0xbbc7f74f	-0.0061024795
81	0x3c4c8510	0.012482896
82	0xbb8b6c1d	-0.0042548315
83	0xbc24a733	-0.010049629
84	0x3aca1978	0.0015418967
85	0x3ce4a3ba	0.027910102
86	0xbcfc0d1a	-0.030767966
87	0x3d08d2cc	0.033404157
88	0x3c9548f8	0.01822327
89	0xbae654a6	-0.0017572835
90	0xbc8bf6da	-0.017085481
91	0x3c8d3164	0.017235465
92	0xbc145329	-0.00905303
93	0x3c8bf959	0.017086672
94	0xbc1cb776	-0.009565225
95	0x3c97f8d3	0.018551266
96	0xbb787de6	-0.0037916838
97	0xbc08dc3f	-0.008353292
98	0x3c1af0d8	0.009456836
99	0xbc9bc10e	-0.019012954
100	0x3a0dda4c	0.0005411252
101	0xbcb71c61	-0.0223524
102	0xbc16efda	-0.0092124585
103	0xbbc4ed4b	-0.006009733
104	0x3c086e3c	0.008327063
105	0xbc46b6f9	-0.012128585
106	0x3cfc87e3	0.030826515
107	0x3c23d460	0.009999365
108	0x3d1047f9	0.03522489
109	0x3caa48bd	0.020786637
110	0x3c4e602b	0.01259617
111	0xbc8fc9f1	-0.017552348
112	0x3c1e7361	0.009671063
113	0x3c961c99	0.018324183
114	0xbcd97960	-0.026547134
115	0x3cca8675	0.024722317
116	0x3c8f1a77	0.017468674
117	0x3bac2bd6	0.005254249
118	0x3cb614e9	0.022226768
119	0xbca0ef51	-0.019645365
120	0xbca6e5da	-0.020373274
121	0xbd05d929	-0.032677803
122	0x3cca3fb0	0.024688572
123	0xbc90e869	-0.017688947
124	0xbd03a2f3	-0.032137822
125	0x3cee1175	0.029061059
126	0xbc2e66a1	-0.010644586
127	0x3cdb6a86	0.026784193

network_body.observation_encoder.processors.1.self_ent_encoder.seq_layers.0.bias f4 [128]
0	0x00000000	0.0
1	0x00000000	0.0
2	0x00000000	0.0
3	0x00000000	0.0
4	0x00000000	0.0
5	0x00000000	0.0
6	0x00000000	0.0
7	0x00000000	0.0
8	0x00000000	0.0
9	0x00000000	0.0
10	0x00000000	0.0
11	0x00000000	0.0
12	0x00000000	0.0
13	0x00000000	0.0
14	0x00000000	0.0
15	0x00000000	0.0
16	0x00000000	0.0
17	0x00000000	0.0
18	0x00000000	0.0
19	0x00000000	0.0
20	0x00000000	0.0
21	0x00000000	0.0
22	0x00000000	0.0
23	0x00000000	0.0
24	0x00000000	0.0
25	0x00000000	0.0
26	0x00000000	0.0
27	0x00000000	0.0
28	0x00000000	0.0
29	0x00000000	0.0
30	0x00000000	0.0
31	0x00000000	0.0
32	0x00000000	0.0
33	0x00000000	0.0
34	0x00000000	0.0
35	0x00000000	0.0
36	0x00000000	0.0
37	0x00000000	0.0
38	0x00000000	0.0
39	0x00000000	0.0
40	0x00000000	0.0
41	0x00000000	0.0
42	0x00000000	0.0
43	0x00000000	0.0
44	0x00000000	0.0
45	0x00000000	0.0
46	0x00000000	0.0
47	0x00000000	0.0
48	0x00000000	0.0
49	0x00000000	0.0
50	0x00000000	0.0
51	0x00000000	0.0
52	0x00000000	0.0
53	0x00000000	0.0
54	0x00000000	0.0
55	0x00000000	0.0
56	0x00000000	0.0
57	0x00000000	0.0
58	0x00000000	0.0
59	0x00000000	0.0
60	0x00000000	0.0
61	0x00000000	0.0
62	0x00000000	0.0
63	0x00000000	0.0
64	0x00000000	0.0
65	0x00000000	0.0
66	0x00000000	0.0
67	0x00000000	0.0
68	0x00000000	0.0
69	0x00000000	0.0
70	0x00000000	0.0
71	0x00000000	0.0
72	0x00000000	0.0
73	0x00000000	0.0
74	0x00000000	0.0
75	0x00000000	0.0
76	0x00000000	0.0
77	0x00000000	0.0
78	0x00000000	0.0
79	0x00000000	0.0
80	0x00000000	0.0
81	0x00000000	0.0
82	0x00000000	0.0
83	0x00000000	0.0
84	0x00000000	0.0
85	0x00000000	0.0
86	0x00000000	0.0
87	0x00000000	0.0
88	0x00000000	0.0
89	0x00000000	0.0
90	0x00000000	0.0
91	0x00000000	0.0
92	0x00000000	0.0
93	0x00000000	0.0
94	0x00000000	0.0
95	0x00000000	0.0
96	0x00000000	0.0
97	0x00000000	0.0
98	0x00000000	0.0
99	0x00000000	0.0
100	0x00000000	0.0
101	0x00000000	0.0
102	0x00000000	0.0
103	0x00000000	0.0
104	0x00000000	0.0
105	0x00000000	0.0
106	0x00000000	0.0
107	0x00000000	0.0
108	0x00000000	0.0
109	0x00000000	0.0
110	0x00000000	0.0
111	0x00000000	0.0
112	0x00000000	0.0
113	0x00000000	0.0
114	0x00000000	0.0
115	0x00000000	0.0
116	0x00000000	0.0
117	0x00000000	0.0
118	0x00000000	0.0
119	0x00000000	0.0
120	0x00000000	0.0
121	0x00000000	0.0
122	0x00000000	0.0
123	0x00000000	0.0
124	0x00000000	0.0
125	0x00000000	0.0
126	0x00000000	0.0
127	0x00000000	0.0

network_body.observation_encoder.processors.2.normalizer.running_mean f4 [3]
0	0x3e1d2aec	0.15348405
1	0x3f3342c8	0.70023775
2	0x4060b20e	3.5108676

network_body.observation_encoder.rsa.fc_v.bias f4 [128]
0	0x3ba2f9dd	0.0049736337
1	0x3ba5808a	0.0050507234
2	0x3c179e7d	0.009254095
3	0x3bbf8aff	0.005845427
4	0xbb1a705f	-0.0023565514
5	0xbb6e6777	-0.0036377588
6	0x3b76d321	0.0037662464
7	0x3b8d11f4	0.0043051187
8	0xbbb495bd	-0.0055110143
9	0xba14b5e4	-0.0005672856
10	0xba025198	-0.0004971265
11	0x3b808cc2	0.0039230296
12	0xbbb1853b	-0.0054174936
13	0xbb2cc9b0	-0.0026365332
14	0x3b541dec	0.0032366468
15	0xbc0403a9	-0.008057513
16	0x3aeeee26	0.0018228933
17	0xb977110c	-0.00023562106
18	0xbb63ccc7	-0.0034759508
19	0x39d5b56a	0.0004076169
20	0xbb325df1	-0.0027216638
21	0x3a8d421e	0.0010777151
22	0x3b6be771	0.0035996104
23	0xbb1c4b10	-0.0023848452
24	0xbb24acf7	-0.002512751
25	0xb980ca0e	-0.00024564605
26	0x3b9e2ff3	0.0048274933
27	0xbbf0fadb	-0.007354123
28	0xba842953	-0.0010083116
29	0xbb42adc1	-0.0029705616
30	0x3ade0b2f	0.0016940589
31	0x3aa53927	0.0012605534
32	0xbb73847c	-0.0037157824
33	0xbb86cbc5	-0.0041136467
34	0x3bc29e9e	0.005939319
35	0x3acc1982	0.0015571567
36	0x3b664939	0.003513886
37	0xbb941e55	-0.0045202174
38	0x3914343c	0.00014133839
39	0xbb1f6867	-0.0024323703
40	0x3a6c9e78	0.0009026299
41	0x3ac6f0cb	0.0015177963
42	0x3b04e1d7	0.0020276213
43	0xbb8d9245	-0.004320415
44	0x3c044be6	0.008074736
45	0xbba3f44c	-0.0050034877
46	0xbbfb37f6	-0.007666583
47	0x3c1431af	0.009045049
48	0x3b6d5a59	0.0036217181
49	0x3beb1b60	0.007174894
50	0xba36cdbd	-0.00069734064
51	0xbba89413	-0.005144605
52	0xba38ae88	-0.000704505
53	0xbaf0c305	-0.0018368667
54	0x3b83b5d9	0.0040194807
55	0xba6d463b	-0.00090512977
56	0x3b500b45	0.0031744998
57	0xbc2fa161	-0.010719628
58	0x3c03f87d	0.00805485
59	0x3afd4ec5	0.0019325843
60	0xbbbe4869	-0.005806972
61	0x3b6d3764	0.0036196345
62	0xba8d0aae	-0.0010760629
63	0x3ab2c40c	0.0013638749
64	0xbb2adf2a	-0.0026072958
65	0x3b594afc	0.0033156266
66	0xb99f6e03	-0.00030408808
67	0x3bcd5986	0.0062667755
68	0x3a49b16e	0.00076939806
69	0xbb9a3e31	-0.004707121
70	0x3ba0316e	0.004888705
71	0xbaff9ffc	-0.0019502635
72	0x3a567001	0.0008180142
73	0xbb168b7c	-0.0022971323
74	0x3badc20a	0.0053026723
75	0xbad30f13	-0.0016102515
76	0x3bd32100	0.006443143
77	0x3bf91fc1	0.0076026623
78	0x3b53fea0	0.0032347813
79	0x3a46d96e	0.00075855
80	0x3a901042	0.0010991173
81	0xbbaa573e	-0.0051983884
82	0x3b356b0e	0.0027682218
83	0xbb984251	-0.0046465774
84	0x39e5c39f	0.00043824033
85	0xbb80ae13	-0.0039270013
86	0xbb664376	-0.0035135425
87	0x3ba4c548	0.0050284006
88	0xb9bc6f80	-0.00035941228
89	0xbacc237b	-0.0015574539
90	0x3aede21c	0.0018149051
91	0x3a9d1d03	0.0011986796
92	0x3bc69cd6	0.006061177
93	0x3b2f0010	0.0026702918
94	0xbba30576	-0.004975016
95	0x3b596acd	0.003317523
96	0x3b98f3b5	0.004667724
97	0xbb335a69	-0.002736712
98	0x3bd61cc4	0.006534191
99	0xbb729c98	-0.0037019607
100	0xbbb6ea23	-0.0055821105
101	0xbb95e21f	-0.004574075
102	0xbaba28db	-0.001420285
103	0x3acfd886	0.0015857376
104	0xbbc043df	-0.005867466
105	0x3ba07e1f	0.0048978473
106	0x3c4b66a8	0.012414612
107	0x3b9c15b7	0.004763331
108	0x3b5719c6	0.0032821759
109	0x3b15288e	0.0022759768
110	0xbb86571b	-0.0040997392
111	0x3a4dd51a	0.0007851884
112	0x3b8af974	0.004241163
113	0xbac7db3c	-0.0015247832
114	0x3c072025	0.00824741
115	0xbb70ebe9	-0.0036761707
116	0xbb0d396e	-0.0021549123
117	0x3b7bcabc	0.00384204
118	0x3a628b6b	0.0008641991
119	0xbb9738c9	-0.0046149236
120	0xbb60a021	-0.0034275132
121	0xba9375be	-0.00112503
122	0x3b957321	0.0045608436
123	0x3bffb764	0.0078038443
124	0x3adf5578	0.0017039021
125	0xbbacb535	-0.005270625
126	0xbbc38d97	-0.0059678066
127	0x3ae7902b	0.0017666867

network_body.observation_encoder.rsa.fc_out.bias f4 [128]
0	0xbc08294b	-0.008310626
1	0xbbd4438f	-0.00647778
2	0xbb0b99de	-0.0021301429
3	0x3b1c9427	0.0023892017
4	0x3c25f50c	0.0101292245
5	0x3baa1e50	0.005191602
6	0xba8c3f4d	-0.0010700017
7	0x3b82ce99	0.0039919135
8	0xbba57f17	-0.0050505507
9	0x3b9baab6	0.004750575
10	0xbb88446b	-0.0041585467
11	0xbb3166e7	-0.0027069391
12	0x3bddceb8	0.0067690276
13	0x3bf2c7ca	0.0074090706
14	0x3a152d39	0.00056906376
15	0x3c0f8285	0.008759146
16	0xbbe51492	-0.0069909776
17	0xbbd6d82c	-0.0065565314
18	0x39829db4	0.0002491303
19	0xbb103fd6	-0.0022010705
20	0x3c17acdf	0.009257524
21	0xbbd7c0dd	-0.0065842704
22	0x3be4cd2f	0.0069824676
23	0x3c2e606d	0.010643107
24	0xbc1494e7	-0.009068704
25	0x3b45a07f	0.0030155478
26	0x3ac4a93b	0.0015004048
27	0xbc2cb30e	-0.010540737
28	0x3bafe5c3	0.005367966
29	0x3c542187	0.012947447
30	0xbbd18b37	-0.0063947695
31	0xbb811895	-0.003939698
32	0x3bc1e3ae	0.005917034
33	0x3c12517b	0.008930559
34	0xbaef3a3a	-0.0018251606
35	0xbb51e05e	-0.0032024602
36	0xbb45363e	-0.0030092145
37	0xbb07e6e0	-0.0020736977
38	0x3b957a5b	0.004561705
39	0xbadf7bec	-0.0017050481
40	0x3bf3e0e0	0.0074425787
41	0xbbd4fade	-0.0064996323
42	0xbb44454c	-0.002994853
43	0xbb9b8467	-0.004746008
44	0xbb7ae8d4	-0.003828575
45	0xbc6b0f9b	-0.014346982
46	0x3bf38815	0.0074319937
47	0xbb61d5d0	-0.0034459718
48	0xbbe76523	-0.007061617
49	0xbba60a17	-0.005067121
50	0x3bb05ef3	0.0053824126
51	0xbc171fee	-0.009223921
52	0xbb7a472d	-0.0038189397
53	0x3b56680f	0.0032715832
54	0x3bc55850	0.0060224906
55	0x3aee5723	0.0018183928
56	0xbb8bf7f7	-0.004271503
57	0xbb740882	-0.0037236516
58	0xbbda72bc	-0.0066665094
59	0x3befa124	0.0073129106
60	0x3b82893d	0.0039836452
61	0x3be69c0b	0.0070376447
62	0xbbafb4f9	-0.00536215
63	0xba560843	-0.0008164683
64	0xbbb250b3	-0.005441749
65	0x3705bd68	7.971517e-06
66	0x3be934db	0.0071168966
67	0x3c257608	0.010098942
68	0xbb93e92b	-0.00451388
69	0xbb5c3cb9	-0.003360553
70	0x3b96ffc8	0.004608128
71	0x394a7bb0	0.00019310298
72	0xbc14ab8b	-0.009074102
73	0xbc01cd89	-0.007922539
74	0xbb9191b6	-0.004442419
75	0xbb83777b	-0.004012046
76	0xbb726a75	-0.0036989723
77	0xbc0fb45a	-0.0087710265
78	0xbba124cf	-0.004917718
79	0xbbcacd81	-0.0061890488
80	0x3c1e4b15	0.009661456
81	0xbbb305fb	-0.0054633594
82	0x3aedaa32	0.0018132387
83	0xbbc4e3a4	-0.006008582
84	0x3aa3c222	0.0012493769
85	0x3bd0a7c9	0.006367658
86	0xbbaffbf7	-0.0053706127
87	0x3be07f57	0.0068511176
88	0x3acfe809	0.0015861999
89	0xbbd233cd	-0.0064148665
90	0x3ace37aa	0.0015733142
91	0xba328565	-0.00068100385
92	0x3bb54aa2	0.0055325786
93	0x3c071f45	0.008247201
94	0xbc231fed	-0.009956342
95	0x3b4b9d74	0.0031069191
96	0xba587569	-0.00082572416
97	0xb9fa16a6	-0.0004770059
98	0xbbbb8601	-0.0057227616
99	0xbbe7439a	-0.0070576193
100	0xbab0f991	-0.0013502111
101	0xbb635a24	-0.003469118
102	0x3b2a1111	0.0025950114
103	0x3bfeaac9	0.007771824
104	0x3be969b7	0.007123198
105	0xbb3d1074	-0.0028848918
106	0x3bd0f0c0	0.006376356
107	0xbbab7ce0	-0.005233392
108	0x3bdf9c44	0.0068240482
109	0x3b85dc32	0.004085087
110	0x3b42f1cf	0.002974618
111	0x3a3e3ba5	0.00072568125
112	0x3bf01e61	0.00732784
113	0x3b93bc76	0.0045085503
114	0xbc1830dd	-0.009288994
115	0x3b992618	0.0046737306
116	0x3af39394	0.001858341
117	0x3b9dad06	0.0048118858
118	0x3bf11350	0.0073570386
119	0xbb51be32	-0.0032004234
120	0xbc3c75c1	-0.011502684
121	0xbc0b328d	-0.008495939
122	0xbab4b4c3	-0.0013786781
123	0xbc16e397	-0.009209535
124	0xbc038296	-0.00802674
125	0x3bed3340	0.0072387755
126	0xbc0e1806	-0.00867272
127	0x3bebbe10	0.007194288

network_body.observation_encoder.x_self_encoder.seq_layers.0.weight f4 [128, 3]
0	0x3c64696b	0.013941149
1	0x3ae4da68	0.001746011
2	0xbc9c5898	-0.019085214
3	0x399686dc	0.00028710708
4	0x3be7972f	0.007067583
5	0x3d9465f1	0.07246006
6	0xbd966cec	-0.07344994
7	0xbd632c63	-0.055462252
8	0x3d2f9848	0.042869836
9	0xbd204ae8	-0.039133936
10	0xba076a41	-0.00051656744
11	0x3cde6f86	0.027152788
12	0x3c69f8c3	0.014280501
13	0xbdb71933	-0.08940353
14	0x3d6900df	0.056885596
15	0x3d0b14e6	0.033955477
16	0x3b5aa1ad	0.0033360526
17	0x3d4184ab	0.047245663
18	0xbc1ff6cc	-0.009763431
19	0x3c93718a	0.017998476
20	0x3d39b3e3	0.04533757
21	0xbcdd3540	-0.02700293
22	0xbc50d993	-0.012747186
23	0xbd7e8e07	-0.062147167
24	0x3d178aad	0.036997486
25	0x3d0945b7	0.03351375
26	0xbd11020d	-0.035402346
27	0xbd4c1711	-0.049826685
28	0x3cdbe721	0.02684361
29	0x3c2beab6	0.010492971
30	0x3d1307b3	0.035896014
31	0xbc95d183	-0.01828838
32	0xbd690c30	-0.05689639
33	0x3d02fc57	0.03197893
34	0x3b84a12a	0.0040475326
35	0x3d402647	0.046911504
36	0xba8df042	-0.0010829049
37	0xbc01da9a	-0.007925654
38	0xbd276feb	-0.040878218
39	0x3cbd6943	0.023121482
40	0xbb9ed212	-0.0048468197
41	0x3dc57a81	0.096425064
42	0x3d2ff310	0.04295641
43	0x3d62dde9	0.05538741
44	0xbd872de5	-0.066005506
45	0x3da0c62d	0.07850299
46	0xbc74066c	-0.014894109
47	0xbba94c43	-0.005166562
48	0x3c1362d2	0.008995729
49	0xbd426d86	-0.04746773
50	0xbdb969d3	-0.090533875
51	0x3b992e8f	0.0046747397
52	0x3ccadd63	0.024763769
53	0xbcbedb5e	-0.023297962
54	0xbcb67af4	-0.022275425
55	0x3c8f3577	0.017481549
56	0xbbbf53e2	-0.005838857
57	0xbd22f8c7	-0.039788034
58	0x3a74a5ab	0.0009332548
59	0x3d732813	0.05936439
60	0xbd41bf50	-0.04730159
61	0x3d202361	0.03909624
62	0x3c07215f	0.008247702
63	0xba5b4a7d	-0.00083652866
64	0x3cfe2a8a	0.031026144
65	0xbd44e435	-0.048069198
66	0x3d299cca	0.04140929
67	0x3c956bef	0.018239943
68	0x3d4d5710	0.050131857
69	0x3bf8e1bc	0.007595269
70	0x3cb30490	0.021852762
71	0x3d635206	0.055498146
72	0x3cdffe06	0.027342808
73	0xbd21c4c2	-0.039494283
74	0xbcc07d7b	-0.023497334
75	0x3d4eeb14	0.050517157
76	0x3b31d3d7	0.0027134323
77	0xbc5dd56d	-0.013539654
78	0xbb18c1e2	-0.0023308923
79	0x3d5889dd	0.05286585
80	0xbdae7ebb	-0.08520266
81	0xbc6cb1eb	-0.014446716
82	0x3c4e50e3	0.012592527
83	0x3ced872b	0.028995117
84	0x3ce44c6d	0.027868474
85	0x3c135a3b	0.008993681
86	0x3d34497d	0.044015396
87	0x3cd99bf2	0.026563618
88	0xbc41da57	-0.011831841
89	0xbccef920	-0.025265276
90	0xbd4f8206	-0.05066111
91	0x3cabed71	0.020987244
92	0x3c878590	0.01654318
93	0xbd3f1f18	-0.046660513
94	0xbbdb5f31	-0.0066946973
95	0xba8a3ce8	-0.0010546716
96	0x3d2633a3	0.04057659
97	0x3bd0a716	0.0063675744
98	0xbca098dc	-0.019604139
99	0x3c2a43a6	0.010392105
100	0xbbe3b8ef	-0.006949536
101	0x3d098a32	0.03357906
102	0x3c1708b6	0.009218385
103	0xbd3da778	-0.04630229
104	0x3d1b2a39	0.037882064
105	0x3cae5e19	0.021285104
106	0x3d1779af	0.03698128
107	0xbd61cad5	-0.055125076
108	0xbc00753e	-0.007840453
109	0x3d28f1f1	0.04124636
110	0x3d57d306	0.052691482
111	0x3b7d9ca1	0.0038698094
112	0xbc27580b	-0.010213862
113	0x3c5cd499	0.013478422
114	0xbc950888	-0.018192545
115	0xbb439558	-0.0029843654
116	0xbc5ea954	-0.013590176
117	0x3d075719	0.033042047
118	0xbba04387	-0.0048908624
119	0x3d842b3f	0.06453561
120	0xbd0b7d9f	-0.03405535
121	0xbc84538a	-0.016153116
122	0x3d1f13be	0.038837187
123	0x3d0ea0aa	0.03482119
124	0xbcb190a4	-0.021675415
125	0x3da576f8	0.08079332
126	0x3a70b5ae	0.0009182346
127	0xbcd4a3e4	-0.025957055
128	0xbd4b58bc	-0.04964517
129	0xbd07312d	-0.033005882
130	0xbd8a5457	-0.06754368
131	0x3c09b0ba	0.008403951
132	0x3c87f38f	0.01659563
133	0xbcd61a63	-0.026135629
134	0xbbf3a897	-0.007435869
135	0x3d7a42bf	0.06109881
136	0xbd6780f8	-0.05651948
137	0xbcc65c7a	-0.024214018
138	0x3d43d131	0.047806922
139	0x3cbbbff0	0.022918671
140	0xbd3d59c6	-0.046228193
141	0xbd1c6bb4	-0.03818865
142	0x3c45d9ae	0.012075825
143	0x3cfbea8d	0.030751491
144	0x3c2fe29a	0.010735178
145	0xbd30b7f1	-0.04314417
146	0xbda3d7d6	-0.08000152
147	0x3d83d2b0	0.0643667
148	0xbc118124	-0.008880887
149	0xbcd9e894	-0.02660016
150	0x3d4f9b0a	0.050684966
151	0xbd19c716	-0.03754338
152	0xbd6e14e3	-0.058125388
153	0x3d29bcbe	0.041439764
154	0xbb448671	-0.002998736
155	0xbdc82329	-0.09772331
156	0x3c21b39b	0.009869481
157	0xbcda211d	-0.026627118
158	0x3d5e4f2f	0.054274734
159	0x3ce7f894	0.028316773
160	0xbbb4e9a3	-0.0055210157
161	0xbd0d957b	-0.034566384
162	0x3d2e8630	0.04260844
163	0x3b5226a4	0.0032066489
164	0x3c925e8a	0.017867345
165	0x3ba8a26e	0.0051463163
166	0x3cb48121	0.02203423
167	0x3c763eb9	0.015029603
168	0xbc9fe97a	-0.01952051
169	0xbca05105	-0.019569883
170	0xbd533e8e	-0.05157333
171	0xbcb7bda8	-0.022429302
172	0x3d141e30	0.0361616
173	0x3cabd481	0.020975353
174	0x3c2962e8	0.0103385225
175	0x3c96509d	0.018348986
176	0x3dc71db5	0.09722463
177	0xbd0472f0	-0.032336175
178	0xbccaca7c	-0.024754755
179	0xbd9717f6	-0.07377617
180	0x3aa592c5	0.0012632242
181	0xbc36f4a0	-0.011166722
182	0x3d98220b	0.07428368
183	0xbcf0ae38	-0.029379949
184	0xbc23b92e	-0.009992881
185	0xbc974890	-0.018467218
186	0x3c8fc722	0.017551009
187	0x3d031e05	0.03201105
188	0xbd0560b4	-0.032562926
189	0xbd387b16	-0.04503926
190	0xbd295813	-0.04134376
191	0x3bb07a5b	0.0053856797
192	0xbc0d2477	-0.008614651
193	0xbd52dac2	-0.051478155
194	0x3b86a7c6	0.0041093556
195	0xbacf8c06	-0.0015834577
196	0x3c87804d	0.01654067
197	0x3d0d4975	0.034493882
198	0x3c1fab31	0.009745405
199	0xbd34a0b4	-0.04409857
200	0xbdaee66f	-0.085400455
201	0xbd8852b1	-0.06656397
202	0x3c5021e0	0.012703389
203	0x3d477f37	0.048705306
204	0xbc6a5b46	-0.014303988
205	0x3bf02e9a	0.007329774
206	0x3c9ac85b	0.018894365
207	0x3cf178bc	0.029476516
208	0x3d9e6b1b	0.077352725
209	0x3bc30851	0.005951919
210	0x3d7eb683	0.062185775
211	0x3cd90542	0.026491765
212	0xbdc39766	-0.09550361
213	0xbae5b76a	-0.0017525975
214	0x3c7699ad	0.015051288
215	0xbd0e4706	-0.034735702
216	0xbc9895b5	-0.018626073
217	0xbc6f5ad2	-0.014609056
218	0xbdca1322	-0.098669305
219	0xbb9405ee	-0.0045173084
220	0xbcffc48f	-0.031221656
221	0xbd41a4b8	-0.04727623
222	0x3d61a096	0.055084787
223	0xbcf6f8db	-0.03014796
224	0x3bf2ef5f	0.007413789
225	0x3c02072e	0.007936282
226	0x3d0179cb	0.03161029
227	0x3d88f928	0.06688148
228	0xbc840389	-0.016114967
229	0x3c85aaf4	0.016316868
230	0xbda6945f	-0.08133768
231	0x3d9b3782	0.07578947
232	0x3cd0fd4a	0.025511403
233	0x3cb57104	0.022148617
234	0xbc81c554	-0.015841164
235	0xba8a9495	-0.0010572845
236	0x3d82df46	0.06390242
237	0xbcec2d96	-0.02883033
238	0xbd5f4666	-0.054510497
239	0x3d529128	0.051407963
240	0xbd6270bf	-0.055283304
241	0xbc0cb83d	-0.008588848
242	0x3ca83905	0.020535002
243	0xbc02c294	-0.007980961
244	0x3d003395	0.031299192
245	0x3ccccda5	0.025000403
246	0xbd1c023d	-0.038088072
247	0xbcb9e70b	-0.022693178
248	0x3d24258f	0.04007488
249	0xbcd667d3	-0.026172554
250	0x3c73d9d9	0.014883482
251	0xbdc3ccf2	-0.095605746
252	0xbd0cf601	-0.034414295
253	0x3cb4596b	0.022015294
254	0x3d544b0e	0.05182939
255	0x3d9c8a88	0.0764361

network_body.observation_encoder.x_self_encoder.seq_layers.0.bias f4 [128]
0	0xbcfb7c7f	-0.030699013
1	0x3d15f1ee	0.036607675
2	0x3cd44ae6	0.02591462
3	0x3ce5a886	0.02803446
4	0x3d21c854	0.03949769
5	0x3d20378b	0.03911547
6	0x3ce706b7	0.028201444
7	0xbc86eaa7	-0.016469313
8	0xbd03facd	-0.032221604
9	0x3c3be8e1	0.011469097
10	0xbcb20781	-0.021732094
11	0x3cea1736	0.028575521
12	0xbc4a30c8	-0.012340732
13	0x3d130d95	0.035901625
14	0xbd11b9ae	-0.03557747
15	0xbc9d598b	-0.019207736
16	0xbc6d9a70	-0.014502153
17	0x3ca29036	0.019844156
18	0x3c1f047f	0.009705662
19	0x3cb910c9	0.022591012
20	0x3c974a8d	0.018468166
21	0xbd14f9a8	-0.036370903
22	0x3d0740e1	0.033020858
23	0x3cf6fb2a	0.030149061
24	0xbc840c63	-0.016119188
25	0xbcbfb4c4	-0.023401625
26	0xbd2e2914	-0.042519644
27	0x3c6e3a79	0.014540308
28	0x3cfdc975	0.030979851
29	0xbcc459e9	-0.023968654
30	0x3c8312c5	0.016000161
31	0x3cd60ae1	0.026128234
32	0xbc88a487	-0.016680015
33	0x3cb33ee0	0.021880567
34	0x3d0eafeb	0.034835737
35	0xbce7f4d0	-0.028314978
36	0x3b7e39e3	0.0038791827
37	0x3cf58245	0.029969344
38	0xbcbc9e76	-0.023024779
39	0x3c8da148	0.017288819
40	0x3ccd6fac	0.025077663
41	0x3cea8d93	0.028631961
42	0xbd02e4d4	-0.03195651
43	0x3d1e4cbd	0.038647402
44	0xbc60dec1	-0.013724984
45	0x3c969186	0.018379938
46	0xbd25c2a9	-0.040468846
47	0x3c61f1dd	0.013790575
48	0xbc96f214	-0.018425979
49	0xbcce8b4f	-0.025212912
50	0xbcfa2cd7	-0.03053896
51	0xbca2dc57	-0.019880457
52	0x3cd39831	0.025829406
53	0xbd19d7f5	-0.03755947
54	0x3d06b331	0.032885734
55	0x3cd79ea8	0.02632077
56	0xbcb5f5e7	-0.022211982
57	0xbbf7df9b	-0.0075644976
58	0x3cff81b4	0.031189777
59	0xbc86cd3f	-0.01645529
60	0x3d0f1ba9	0.03493849
61	0xbcecb838	-0.028896436
62	0xbcbaab4e	-0.022786763
63	0x3cb00864	0.021488376
64	0x3c83b7d0	0.01607886
65	0xbca7d61a	-0.020487834
66	0xbcc7ce06	-0.024390232
67	0x3ce5ea90	0.02806595
68	0x3d1552b9	0.036455844
69	0xbcf6efd2	-0.030143652
70	0xbc981692	-0.01856545
71	0xbd197ad2	-0.037470646
72	0xbb8cc848	-0.0042963363
73	0xbcc078e7	-0.02349515
74	0xbca9e5a3	-0.020739382
75	0x3cdb2c3b	0.02675449
76	0xbcfdb74e	-0.030971196
77	0x3caa0676	0.020755034
78	0x3d1da0fd	0.03848361
79	0x3cb127db	0.02162545
80	0x3d15177d	0.036399353
81	0x3cd37c5a	0.025816131
82	0x3cce6535	0.025194744
83	0xbcfe33ad	-0.0310305
84	0x3cb090c6	0.021553408
85	0xbca8bf3c	-0.020599
86	0x3d14ef9d	0.036361326
87	0x3d139554	0.036031082
88	0xbc38e7a7	-0.011285699
89	0xbc283298	-0.010265969
90	0xbc3efca8	-0.011656918
91	0xbd0c71c5	-0.034288187
92	0x3cc772a1	0.024346652
93	0xbbb59361	-0.0055412506
94	0x3ce615e5	0.028086612
95	0xbcb9a2d1	-0.022660645
96	0xbcc52a72	-0.024068091
97	0xbc379f72	-0.011207448
98	0xbd1bda3a	-0.038049914
99	0xbd1407a9	-0.036140118
100	0xbc64679f	-0.013940721
101	0xbd199d01	-0.037503246
102	0x3c9644d8	0.018343374
103	0x3d189b05	0.037257213
104	0xbcff69b3	-0.031178331
105	0x3cd7373d	0.026271457
106	0x3cb82fa1	0.022483649
107	0x3c74a780	0.014932513
108	0x3cf4b8c5	0.029873261
109	0x3cc668ef	0.024219958
110	0x3cf8c564	0.03036756
111	0x3cd61175	0.026131371
112	0x3d04dbed	0.0324363
113	0xbd0ebec8	-0.034849912
114	0x3cbaa4c1	0.022783639
115	0x3c2ec0f0	0.010666117
116	0xbd15fee7	-0.036620047
117	0xbc96cd55	-0.018408457
118	0x3ce4a5c3	0.027911073
119	0xbd10950c	-0.035298392
120	0xbc823603	-0.015894895
121	0xbd1b8ced	-0.037976194
122	0x3d1811e5	0.03712644
123	0x3d0fe017	0.035125818
124	0xbd10de81	-0.035368446
125	0x3cd8b367	0.026452733
126	0x3c63b62c	0.013898414
127	0xbc451426	-0.01202873

network_body._body_endoder.seq_layers.0.weight f4 [256, 131]
0	0x3d1a3b96	0.03765448
1	0xbb87ce46	-0.0041444628
2	0xbd47af39	-0.04875109
3	0xbdb98807	-0.09059148
4	0x3e1ef031	0.15521313
5	0xbd591377	-0.05299708
6	0x3e3733b9	0.17890824
7	0x3dfb22ee	0.12262522
8	0x3d260fab	0.040542286
9	0x3b3d6b3a	0.0028903023
10	0x3c298bea	0.0103482995
11	0xbe08eeb4	-0.13372308
12	0xbcf34c76	-0.029699545
13	0x3df2571c	0.11833021
14	0xbd8150a8	-0.06314212
15	0xbc81be41	-0.01583779
16	0x3d9dca86	0.07704644
17	0xbd07ab23	-0.033122193
18	0xbd9312dc	-0.071813315
19	0xbd5f2a78	-0.05448386
20	0x3e05b1f6	0.13056168
21	0x3d30d1cc	0.043168828
22	0xbdc9f7ee	-0.09861742
23	0x3a9d853b	0.0012017855
24	0xbe636c86	-0.22209367
25	0xbd2f205e	-0.042755477
26	0x3c8bca29	0.01706417
27	0xbcc91c0c	-0.024549507
28	0x3e01b9a7	0.12668477
29	0xbe7bc619	-0.24587287
30	0xbbb651c0	-0.0055639446
31	0x3e2fea19	0.17179145
32	0xbd2e97c9	-0.042625222
33	0xbbdc499e	-0.006722643
34	0xbe17dac0	-0.1482954
35	0x3d847103	0.06466868
36	0xbcff49eb	-0.031163177
37	0xbda647bd	-0.08119152
38	0x3d9dbebd	0.07702396
39	0xbd42fe39	-0.047605727
40	0xbc62d188	-0.013843901
41	0x3c66a5fc	0.01407766
42	0x3e01649e	0.12636039
43	0xbe04ade7	-0.12956963
44	0xbe0a7916	-0.13522753
45	0x39b7f800	0.00035089254
46	0x3d5835f6	0.052785836
47	0x3d935abd	0.07195041
48	0x3d1ad4f2	0.037800737
49	0x3db37395	0.0876228
50	0xbd8f462e	-0.069958076
51	0x3d5549fa	0.052072503
52	0xbd1c2bf2	-0.038127847
53	0xbd6cdaa3	-0.057825696
54	0x3df70362	0.12061192
55	0x3db23eb9	0.0870337
56	0x3d1063a0	0.03525126
57	0xbce126e9	-0.027484374
58	0x3d8251a4	0.06363228
59	0x3d17d9c1	0.0370729
60	0x3e2a1d00	0.16612625
61	0x3da54dbd	0.08071468
62	0xbd8eb171	-0.06967438
63	0x3dfefd2b	0.12450632
64	0xbc64c4f5	-0.013962974
65	0xbdf8625a	-0.12128134
66	0x3da3d08c	0.079987615
67	0xbd0a56c2	-0.033774145
68	0x3d63b3b6	0.055591308
69	0x3a9c3578	0.001191779
70	0xbcc9b5f7	-0.0246229
71	0xbe04e00c	-0.12976092
72	0xbd8ad7fa	-0.067794755
73	0x3e11f90c	0.1425516
74	0x3de12fa6	0.10995416
75	0x3dff9aee	0.12480722
76	0x3d8d6f3c	0.06905982
77	0xbdfe43a6	-0.12415247
78	0xbd3f19dc	-0.04665552
79	0xbc7710a9	-0.015079656
80	0xbbbe5df9	-0.0058095423
81	0x3e41d3b7	0.18928419
82	0xbd9027fa	-0.07038875
83	0x3da6ccd9	0.0814454
84	0x3d90db01	0.07073022
85	0xbd8977e4	-0.067123204
86	0x3d57d828	0.052696377
87	0xbd93288a	-0.071854666
88	0xbd6dc6bd	-0.05805086
89	0xbda10b98	-0.078635395
90	0x3e33193c	0.17490095
91	0x3beeb79c	0.0072850715
92	0xbcc7cceb	-0.024389705
93	0xb9986c81	-0.0002907254
94	0xbddccd01	-0.10781289
95	0xbbfaf07e	-0.0076580634
96	0x3e2fd7c7	0.17172156
97	0xbd5a18cb	-0.0532463
98	0x3cbfed71	0.02342865
99	0xbe09d762	-0.13461068
100	0xbd865738	-0.065596044
101	0xbc8565fb	-0.01628398
102	0x3c24ace3	0.010050985
103	0xbc97be70	-0.018523425
104	0x3da4fd1b	0.080560885
105	0x3d411f93	0.047149252
106	0xbdaf19ed	-0.08549867
107	0x3caea701	0.021319868
108	0x3cd953ba	0.026529182
109	0x3ddd2e64	0.10799864
110	0x3e7e34b7	0.24824797
111	0xbcd18e9f	-0.025580702
112	0x3d1f6b22	0.03892053
113	0x3d440fd6	0.047866665
114	0xbd4ad69d	-0.049521077
115	0xbdec665e	-0.115429625
116	0x3d9cc290	0.07654297
117	0xbba0188d	-0.004885739
118	0xbc6cac1c	-0.014445331
119	0xbd2d70c8	-0.042343885
120	0xbc4fb1b9	-0.01267665
121	0xbdc6d8ad	-0.097092964
122	0xbd110259	-0.03540263
123	0x3c6e7980	0.014555335
124	0xbd1ed87d	-0.038780678
125	0x3d95cdd8	0.07314652
126	0x3e118191	0.14209582
127	0xbdbf32eb	-0.09335884
128	0xbd9d448e	-0.076790914
129	0x3e333fc2	0.1750479
130	0x3daf3ab7	0.08556121
131	0xbcb0a807	-0.021564497
132	0xbd383ded	-0.044980932
133	0x3e4dc47f	0.20094489
134	0xbd3ad0b0	-0.045609176
135	0xbded5be8	-0.11589795
136	0x3d0442d9	0.032290313
137	0x3d8cc02f	0.068725936
138	0xbd7968f4	-0.060891107
139	0x3a1407c8	0.00056469114
140	0xbd0d2291	-0.034456793
141	0x3dc96b5f	0.098349325
142	0xbc034bbe	-0.008013664
143	0xbd4d7889	-0.05016378
144	0xbdf06bdc	-0.117393225
145	0x3e589bc5	0.21153171
146	0x3dd91fc1	0.1060176
147	0xbda89ae6	-0.082326695
148	0xbca4609b	-0.020065596
149	0x3d334b6e	0.043773107
150	0xbd3f67ee	-0.046729974
151	0xbdddfe22	-0.108394876
152	0x3d03148d	0.03200202
153	0xbca3d48a	-0.019998807
154	0xbcfc77b4	-0.030818798
155	0x3da26b40	0.079306126
156	0x3ddeb037	0.10873454
157	0x3db31696	0.08744542
158	0xbc87030a	-0.016480941
159	0x3df8c680	0.12147236
160	0xbc9b8a0b	-0.018986722
161	0x3babe218	0.0052454583
162	0x3da14201	0.07873917
163	0xbd0b904a	-0.03407315
164	0xbd6401d4	-0.055665806
165	0xbe59d4b7	-0.2127255
166	0xbca92e24	-0.020651884
167	0xbd28f14f	-0.041245755
168	0x3d0e9ef4	0.03481956
169	0xbc808188	-0.015686765
170	0xbe46b39e	-0.19404456
171	0xbd5dca73	-0.05414815
172	0x3b693e41	0.0035590085
173	0x3c5c69d8	0.0134529695
174	0xbbfb181d	-0.0076627866
175	0xbc06a269	-0.008217433
176	0xbdd33ff7	-0.10314935
177	0x3bfb83b4	0.0076756123
178	0xbbbd7594	-0.0057818387
179	0x3a3d5784	0.00072228187
180	0xbbe0b89f	-0.006857946
181	0xbd796a7e	-0.060892574
182	0x3cfcffb7	0.030883653
183	0x3ddb6daf	0.1071428
184	0x3d5e3455	0.054249126
185	0x3da9dd94	0.08294216
186	0x3d846f1e	0.064665064
187	0x3dcb3257	0.09921711
188	0xbd7fcf58	-0.062453598
189	0x3e5f852c	0.21828145
190	0x3aba09b3	0.0014193564
191	0x3deacc8c	0.114647955
192	0x3c12f211	0.008968846
193	0xbd792c5b	-0.060833316
194	0x3e16ac7d	0.14714237
195	0xbdaf3858	-0.085556686
196	0x3e0b2107	0.13586818
197	0xbd4e0d53	-0.050305676
198	0x3dd9e5a8	0.106395066
199	0xbdb1c047	-0.08679252
200	0xbe1ab084	-0.15106398
201	0x3d937a53	0.07201066
202	0x3cde2970	0.027119368
203	0x3b491fde	0.003068916
204	0xbc8bc13b	-0.017059913
205	0xbd97c064	-0.074097425
206	0xbe469c46	-0.19395551
207	0x3da8dd55	0.08245341
208	0x3c305dcf	0.010764553
209	0xbd128c5f	-0.0357784
210	0x3d061f42	0.032744654
211	0x3cf6d12b	0.030129036
212	0x3d38abcf	0.045085724
213	0xbd4ac816	-0.049507223
214	0xbb9ee2b3	-0.004848802
215	0x3df979f9	0.121814676
216	0xbc2e114d	-0.010624242
217	0xbc09fae3	-0.008421632
218	0x3d191eb6	0.037382804
219	0x3d9c850a	0.07642563
220	0x3bcd3f5d	0.006263657
221	0x3aa5d1a7	0.0012650982
222	0x3d4662f4	0.048434213
223	0x3d94f883	0.07273962
224	0xbd746bcd	-0.05967312
225	0x3e22dae6	0.15903816
226	0xbc8040d3	-0.01565591
227	0x3e1a82d3	0.15088968
228	0xbd115127	-0.035477784
229	0xbbfc7e05	-0.0077054524
230	0xbd87996f	-0.06621062
231	0x3e39cc70	0.18144393
232	0x3df1f231	0.118137725
233	0xbd4ffc42	-0.05077768
234	0x3da8a646	0.08234839
235	0xbe25f95a	-0.16208401
236	0x3e2d7616	0.16939577
237	0xbca13186	-0.019676935
238	0xbdc7387e	-0.09727572
239	0xbce6281a	-0.028095294
240	0x3d54bd4f	0.05193835
241	0xba9dc842	-0.0012037831
242	0x3e91dc03	0.28488168
243	0x3e3de136	0.18542942
244	0xbe2a3605	-0.1662217
245	0xbc3981fa	-0.011322493
246	0x3d6f7847	0.058464315
247	0xbcb7ac9b	-0.022421172
248	0xbd1536ce	-0.03642922
249	0xbd0892b2	-0.033343025
250	0xbd559a43	-0.05214907
251	0x3d9c4b12	0.07631506
252	0x3d8e1228	0.06937057
253	0x3d5f94db	0.05458532
254	0xbdc24f3a	-0.094877675
255	0xbd2e6c33	-0.042583656

network_body._body_endoder.seq_layers.0.bias f4 [256]
0	0x3b61b327	0.0034439059
1	0xbb173b9d	-0.0023076304
2	0xbb5b9b9b	-0.0033509496
3	0xb834e2ac	-4.312645e-05
4	0x3c11f1f1	0.008907781
5	0x3b2f7d6a	0.0026777633
6	0x3bce70a1	0.0063000475
7	0x3bebab16	0.007192026
8	0x3c5c702e	0.01345448
9	0x3a67e8a2	0.00088466157
10	0x3c2a5117	0.01039531
11	0x3bd93b3b	0.0066293753
12	0x3c25b7a9	0.010114589
13	0x3b0b366b	0.0021242152
14	0x3a949d62	0.0011338408
15	0xbb8cd417	-0.004297744
16	0x3bb5abd8	0.005544167
17	0x3bfc77b8	0.0077047013
18	0x3b97ed4d	0.0046364428
19	0x3b9d13bb	0.004793612
20	0x3c0e3d7c	0.008681651
21	0x3c2695c3	0.010167542
22	0x3aaaeeb6	0.0013041112
23	0xbb8034e1	-0.0039125537
24	0xbc7fd9bf	-0.01561588
25	0x3bf8448a	0.00757653
26	0x3c13aba5	0.009013091
27	0x3cb91787	0.022594227
28	0x3b3ef38e	0.002913687
29	0x387a8dcc	5.9736703e-05
30	0xbbba6117	-0.0056878435
31	0x3ccaf0c3	0.024773007
32	0x39f20dca	0.0004616811
33	0xbbaaf900	-0.0052176714
34	0xbb3a93c0	-0.0028469414
35	0x3b68513e	0.0035448815
36	0x3ba32bf6	0.004979606
37	0x3bb67f8c	0.005569404
38	0x3bf660ba	0.007518855
39	0x3aba29a3	0.0014203083
40	0xbbc4b4cc	-0.006002998
41	0xbb8eac0d	-0.004354006
42	0xba32c928	-0.0006820136
43	0x3c350eea	0.011050919
44	0x3c0c663a	0.008569295
45	0x3bd04c1a	0.0063567283
46	0xbc3597fe	-0.011083601
47	0x3b69840c	0.0035631685
48	0x3abcb7ac	0.0014398
49	0x3bda1cd4	0.0066562686
50	0xbc0b11c0	-0.008488119
51	0x3bd984ec	0.00663816
52	0xbc35f603	-0.011106017
53	0xbbeee894	-0.007290909
54	0x3b67e43a	0.0035383836
55	0x39b5dc84	0.00034687307
56	0x389437fa	7.0676164e-05
57	0xba79a67a	-0.0009523403
58	0xbb7c4ef3	-0.0038499206
59	0x3ae22886	0.0017254509
60	0xbab2d2a2	-0.0013643096
61	0x3c83cdd8	0.016089365
62	0xbbad253a	-0.005283979
63	0x3cb964a8	0.022631004
64	0x3aec21b7	0.0018015419
65	0xbbaeab79	-0.0053304997
66	0x3b0b6e40	0.002127543
67	0xbaa6998c	-0.0012710555
68	0x3c3098db	0.010778631
69	0x3b68ac4f	0.0035503095
70	0x3b5b2127	0.0033436508
71	0x3c83cf22	0.01608998
72	0xbadedff5	-0.0017004
73	0x3ca24418	0.01980786
74	0xb9475e59	-0.00019013266
75	0x3b999c2a	0.0046878057
76	0x3a9b889d	0.0011866275
77	0xb8f1138a	-0.00011495415
78	0x3c25482e	0.01008801
79	0x3ad7431f	0.0016423202
80	0x3b20e21e	0.002454884
81	0x39ae9a2a	0.00033302727
82	0x3b81f54a	0.0039660083
83	0xbbb20e29	-0.005433817
84	0x3b51596e	0.0031944173
85	0x3b92b46b	0.004477074
86	0x3c237465	0.009976481
87	0x3b457421	0.0030129033
88	0x3b8d46cf	0.0043114196
89	0x3bc65303	0.0060523762
90	0x3cddcb9d	0.02707463
91	0x3be04119	0.0068436977
92	0x3b97dfd2	0.0046348358
93	0x3c2cfe4f	0.010558679
94	0x3c07d243	0.008289876
95	0x3c2610f4	0.010135878
96	0x3c74bd21	0.01493767
97	0x3ba05417	0.004892837
98	0xbb1596ff	-0.0022825596
99	0x3c24a427	0.010048903
100	0x3b91c293	0.004448244
101	0x3bc3dcae	0.005977235
102	0x3bdacc02	0.0066771517
103	0x3b3c41ee	0.002872582
104	0x3bc10f2f	0.0058917026
105	0x390b2bb0	0.00013272348
106	0xbb7f39a6	-0.0038944273
107	0x3c317f82	0.010833623
108	0x3bf2fee9	0.0074156416
109	0x3c368cdf	0.011141985
110	0x3c620f77	0.013797632
111	0x3b1d42b9	0.0023996069
112	0x3bca6a71	0.0061772396
113	0x3c90f27c	0.01769375
114	0x3b71665e	0.0036834697
115	0xbba38471	-0.0049901535
116	0x3c7aef58	0.015315853
117	0x3bc35ea4	0.00596221
118	0x3a96ad6c	0.0011495776
119	0x3c668ce7	0.01407168
120	0x3c1262bb	0.008934672
121	0x3bee36bd	0.007269709
122	0xbb017418	-0.0019753035
123	0x3bfb164c	0.00766257
124	0xba69d2d9	-0.00089196634
125	0xbb731126	-0.0037089079
126	0x3bb8f5ad	0.005644521
127	0x3bd8f23e	0.0066206744
128	0x3c04946a	0.008092025
129	0xbb1c2754	-0.0023827152
130	0xbc405f9d	-0.011741546
131	0x3c6691c7	0.014072842
132	0x3c056bdc	0.008143391
133	0xbbb9b2ce	-0.005667067
134	0x3ba2b45b	0.0049653477
135	0x3c04aa36	0.008097222
136	0xbb4c1ab0	-0.0031143837
137	0x3bc60c2e	0.0060439324
138	0xbb804c70	-0.003915362
139	0x3c9f0920	0.01941353
140	0xbb7dd8ca	-0.0038733953
141	0xbbaa28ad	-0.005192837
142	0xbb935608	-0.0044963397
143	0xbadc09bc	-0.0016787569
144	0x3c40bada	0.011763299
145	0xbc001c43	-0.007819238
146	0x3bdb3252	0.0066893483
147	0x3c0db6ff	0.008649587
148	0x3c56a69e	0.013101248
149	0x3c610d2f	0.013736053
150	0x3b2d7a2c	0.0026470525
151	0xbb829933	-0.003985548
152	0x39f9cdf5	0.0004764643
153	0x3b7522b6	0.0037404723
154	0x3bf79320	0.0075553805
155	0xbb928b52	-0.0044721747
156	0x3bbf557c	0.005839048
157	0x3ae9b568	0.0017830553
158	0x3ab2e828	0.001364951
159	0x3ac4c4cf	0.0015012267
160	0x3c6e94e2	0.014561864
161	0xbbe86f5b	-0.0070933527
162	0xbaa1e9dd	-0.0012353022
163	0x3bfc0dd1	0.0076920767
164	0xbae54435	-0.0017491641
165	0xbb95e732	-0.00457468
166	0x3a9bf821	0.001189951
167	0xbbd94fbd	-0.00663182
168	0xbb14041d	-0.002258546
169	0x3cb86d83	0.022513157
170	0x39fa3a17	0.00047726996
171	0x3c36df59	0.011161649
172	0x3c2a8d27	0.01040963
173	0x3b655008	0.003499033
174	0x3bc4ccd3	0.0060058623
175	0x3b8c6ce8	0.0042854436
176	0xbc0b5d8e	-0.008506192
177	0xbb8de369	-0.004330088
178	0x3ba2a010	0.0049629286
179	0xbbbeecf3	-0.0058265864
180	0x3c24c03f	0.010055601
181	0x3c630ec2	0.013858499
182	0x3bab9253	0.005235949
183	0x3b57e871	0.0032944942
184	0x3aca2b5f	0.0015424303
185	0x3c4b71ef	0.012417301
186	0x3bce8768	0.006302763
187	0x3c861b72	0.016370509
188	0x3c251a4d	0.010077071
189	0xba510e66	-0.0007974863
190	0x39c8d00a	0.00038301974
191	0x3cb31819	0.021862077
192	0x3c0f016c	0.008728366
193	0x3ba11bcb	0.0049166433
194	0x3b81fa6d	0.0039666207
195	0x3bca947f	0.006182253
196	0x3c7d50f3	0.015461194
197	0x3b1cbfca	0.0023918026
198	0x3c593cb4	0.013259102
199	0xbb5c806c	-0.0033645881
200	0x3bbda6d3	0.0057877093
201	0x3b3003f0	0.0026857816
202	0xbae72c0a	-0.0017637026
203	0x3afe13c3	0.0019384552
204	0xbb82c260	-0.0039904565
205	0x3c46801b	0.012115504
206	0x3c1ed2e2	0.009693833
207	0x3c2412d5	0.0100142555
208	0x3bb103e4	0.005402075
209	0x3c02d689	0.0079857195
210	0xb85dd9c8	-5.289333e-05
211	0x3b83deed	0.0040243776
212	0xbc9c3c43	-0.019071704
213	0xbab0996e	-0.001347346
214	0x3b37cf4b	0.002804714
215	0x3b86556c	0.0040995385
216	0x3c013403	0.007885936
217	0xbc53c73e	-0.012925921
218	0x3b656b0a	0.0035006427
219	0xbbc9ea09	-0.0061619324
220	0x3c04c947	0.008104629
221	0x3c1a1c42	0.009406151
222	0x3c1e30f7	0.009655229
223	0x3c040f21	0.008060248
224	0x3c32d8ad	0.010915917
225	0x3c074c5f	0.008257954
226	0x3c94b684	0.018153436
227	0x3bc18837	0.0059061307
228	0x3bfeb8d8	0.0077735
229	0x3bd3d618	0.006464731
230	0x39981fb8	0.00029015332
231	0x3bd3de93	0.006465742
232	0x3ba73e78	0.0051038824
233	0x3c3efc8d	0.0116568925
234	0x3bb62151	0.005558171
235	0x3b02ee75	0.0019978557
236	0xbbd457bd	-0.006480186
237	0x3bc662f4	0.0060542766
238	0x3c908bbc	0.017644756
239	0x3bdb1467	0.0066857818
240	0x3bfd5f19	0.007732284
241	0x377f5900	1.5219906e-05
242	0xbadbad15	-0.0016759956
243	0xbab1703a	-0.0013537474
244	0x3b84be0e	0.0040509766
245	0xbbb580a6	-0.0055390177
246	0x39e429ae	0.00043518603
247	0x3ba07ab2	0.004897439
248	0xbaf38b6b	-0.0018580979
249	0xbb91310b	-0.004430895
250	0x3c0dd909	0.008657702
251	0x3c2c6e85	0.010524397
252	0xbb7421fa	-0.0037251697
253	0x3bade29d	0.0053065554
254	0xba0abf78	-0.00052928133
255	0xbbaf82e3	-0.005356179

network_body._body_endoder.seq_layers.2.weight f4 [256, 256]
0	0x3c5929e6	0.013254618
1	0x3dc48b38	0.09596866
2	0x3d34edd6	0.04417213
3	0x3be54c48	0.006997619
4	0xbd1038a1	-0.035210256
5	0x3bdeb430	0.0067963824
6	0xbda6a9f3	-0.08137884
7	0xbdbbd35c	-0.09171173
8	0xbd1272ef	-0.03575414
9	0x3e18d707	0.14925776
10	0xbbd34c90	-0.006448336
11	0xbd26acf6	-0.040692292
12	0x3c258999	0.010103607
13	0xbca253b0	-0.019815296
14	0xbd321900	-0.043480873
15	0xbd26b779	-0.040702317
16	0xbc8fce9c	-0.017554574
17	0xbd75fc21	-0.060054902
18	0x3d236e5f	0.03990018
19	0xbbff83c3	-0.0077976896
20	0xbd2505fc	-0.04028891
21	0xbd83cc19	-0.06435413
22	0x3cd016fa	0.025401581
23	0x38facfcc	0.00011959634
24	0xbbc1ade7	-0.0059106234
25	0x3ceb7242	0.028741006
26	0xbd1fb239	-0.038988326
27	0xbd688b2d	-0.056773353
28	0x3c842b7a	0.016134012
29	0x3cd7d478	0.02634643
30	0x3d26b54d	0.040700246
31	0xbe0299e5	-0.12754019
32	0xbccf71cf	-0.025322823
33	0xbcb5f595	-0.02221183
34	0x3c8c3f79	0.01712011
35	0x3d32c8aa	0.0436484
36	0x3d720fbd	0.05909704
37	0xbcecf940	-0.028927445
38	0x3d22d900	0.03975773
39	0x3d81ee77	0.06344312
40	0xbd2ae530	-0.041722476
41	0xbc1a1833	-0.009405184
42	0x3ba1be23	0.004935996
43	0x3d864423	0.06555965
44	0xbdc035db	-0.09385272
45	0xbbb2eddb	-0.0054604835
46	0xbc46b9e2	-0.012129279
47	0x3d793526	0.060841702
48	0x3c7b8172	0.015350686
49	0xbcceb2d7	-0.025231762
50	0xbdb8bbaa	-0.09020169
51	0x3c985c76	0.018598776
52	0x3cab392f	0.02090129
53	0xbc525e46	-0.012839859
54	0xbdbb499c	-0.09144899
55	0x3dc3d2a2	0.095616594
56	0x3d9d71e3	0.07687738
57	0x3d5d30ca	0.054001607
58	0x3dce36ed	0.1006907
59	0x3d3e3b0d	0.046443034
60	0x3c1fcfdc	0.009754147
61	0x3d52168d	0.051291037
62	0xbc54e27d	-0.012993452
63	0xbdde6861	-0.108597524
64	0xbcaf7559	-0.02141826
65	0x3cfca423	0.030839985
66	0xbdfd8513	-0.123788975
67	0xbbdb7d53	-0.0066982894
68	0x3c307c36	0.010771802
69	0xbb953000	-0.004552841
70	0xbdd3cfc1	-0.1034236
71	0xbcbed85c	-0.023296528
72	0xbcabc03c	-0.020965688
73	0x3c1e94a6	0.009678995
74	0x3d835748	0.06413132
75	0x3baf2b73	0.0053457557
76	0x3c946c51	0.018118056
77	0x3d05b6b1	0.03264493
78	0x3c2f63ba	0.010704929
79	0x3c388e50	0.011264399
80	0x3e0911f9	0.13385762
81	0xbc75bfde	-0.014999358
82	0xbd9aeeff	-0.07565116
83	0xbd3d2319	-0.04617605
84	0x3dda09f3	0.10646429
85	0x3c4718f5	0.012151946
86	0x3d3f32f5	0.046679456
87	0x3e029b6e	0.12754604
88	0x3d1210c5	0.035660524
89	0xbd6a50c0	-0.057205915
90	0x3d5187eb	0.051155012
91	0x3cf87f66	0.030334186
92	0x3ce1b081	0.027549984
93	0xbc135eab	-0.008994739
94	0x3d8afeca	0.067868784
95	0x3d246fac	0.04014556
96	0x3d635915	0.055504877
97	0xbc352a7a	-0.0110574905
98	0xbda6058c	-0.08106527
99	0xbd9a117b	-0.075228654
100	0xbdb9cc1a	-0.090721324
101	0xbd98aae0	-0.07454467
102	0x3df01631	0.11722983
103	0x3d097cd0	0.033566296
104	0x3be1cd92	0.006890961
105	0x3d323d20	0.043515325
106	0xbcfb9bfe	-0.030714031
107	0xbca1a5ab	-0.019732317
108	0x3d44b141	0.048020605
109	0x3d6bebfc	0.0575981
110	0xbc57c66e	-0.013169868
111	0xbda91c3c	-0.082573384
112	0x3cc02a57	0.02345769
113	0x3deafe31	0.114742644
114	0xbd2b99bb	-0.041894656
115	0x3d9728be	0.07380818
116	0xbdc4a86a	-0.09602435
117	0x3d3cd6ab	0.04610316
118	0xbc0e2e89	-0.008678087
119	0x3dc052ba	0.09390779
120	0xbc984ecd	-0.018592263
121	0xbdd2479e	-0.10267566
122	0xbd5c6f17	-0.05381688
123	0xbe00514f	-0.12531017
124	0x3db1419f	0.08655094
125	0x3d927af7	0.0715236
126	0x3df15c7b	0.117852174
127	0xbd9061cc	-0.07049903
128	0xbca53ce8	-0.020170644
129	0x3d2b6f68	0.041854292
130	0xbc9d680a	-0.019214649
131	0xbd6bdfe3	-0.057586562
132	0x3da04a1c	0.07826635
133	0xbddb6be2	-0.107139364
134	0x3d16df95	0.03683432
135	0x3c7845c7	0.015153355
136	0xbc0f5325	-0.008747851
137	0xbd8ec3d2	-0.069709435
138	0xbe4a3553	-0.19746904
139	0x3d2d6f57	0.04234251
140	0x3cd9c822	0.026584689
141	0x3c88741b	0.016656926
142	0x3d477668	0.048696905
143	0x3da324be	0.079659924
144	0x3c87f4ce	0.016596224
145	0x3e2d61a5	0.1693178
146	0xbd88240c	-0.066475004
147	0x3d24a055	0.040191967
148	0x3b5426c1	0.0032371732
149	0xbce70c62	-0.028204147
150	0x3da5e8be	0.08101033
151	0xbd5a0087	-0.05322316
152	0x3df0f088	0.11764628
153	0xbe2c4cd7	-0.16826187
154	0x3d25556b	0.040364664
155	0x3cca6a6c	0.024708949
156	0x3bd5a109	0.006519441
157	0xbd0f972a	-0.03505627
158	0xbd598fb8	-0.053115577
159	0x3cb9b5ae	0.02266964
160	0xbcaa8683	-0.020816093
161	0x3c81ca27	0.015843464
162	0xbca1e76b	-0.019763669
163	0x3d32aff1	0.043624822
164	0xbd33b21e	-0.043871038
165	0xbcd1ff2d	-0.025634373
166	0x3c7facb9	0.015605145
167	0x3cc12f96	0.023582261
168	0x3c93e644	0.018054135
169	0x3d14ff05	0.036376018
170	0x3da05323	0.07828357
171	0x3b4b1cc7	0.0030992494
172	0xbe1c7742	-0.15279868
173	0xbd462f88	-0.048385173
174	0x3d3ec871	0.046577875
175	0x3bd44fc4	0.0064792354
176	0x3cdca89f	0.026935874
177	0x3c35dad6	0.011099538
178	0x3c3288e4	0.010896895
179	0xbdb4f51c	-0.088358134
180	0x3c8087e2	0.015689794
181	0x3cc485cf	0.023989586
182	0xbde2d444	-0.11075643
183	0xbd4975a4	-0.049184456
184	0xbcef63a4	-0.029222317
185	0xbc7f4b53	-0.015581924
186	0xbc00e57a	-0.0078672115
187	0x3c4c96c3	0.012487116
188	0xbd367690	-0.044546664
189	0xbd5a4476	-0.053287946
190	0xbd89c603	-0.06727221
191	0x3a80ef13	0.0009836875
192	0xbd236c49	-0.03989819
193	0x3c052816	0.008127233
194	0x3c27e148	0.010246582
195	0xbb842549	-0.004032765
196	0x3d3ff3f2	0.046863504
197	0x3bde17ae	0.006777725
198	0x3d0c4788	0.034247905
199	0x3cf4607f	0.02983117
200	0x3c5e57c7	0.013570732
201	0xbc79604f	-0.015220716
202	0x3c454d81	0.012042404
203	0x3d09531c	0.033526525
204	0xbd04e13f	-0.032441374
205	0xbdac4b8c	-0.08412847
206	0x3d5176d5	0.051138718
207	0x3daddad4	0.08489004
208	0xbc072e0d	-0.008250725
209	0xbd16a930	-0.036782444
210	0xbdbb3179	-0.091402955
211	0xbdfb5be3	-0.122733854
212	0x3db01969	0.085985966
213	0xbdb07015	-0.08615128
214	0x3d7e769c	0.062124833
215	0xbd91cfaf	-0.071196906
216	0x3d207d1a	0.039181806
217	0x3d1fe07d	0.039032448
218	0x3c35686c	0.011072259
219	0x3b3ba55b	0.0028632495
220	0xbdaff9c1	-0.08592559
221	0xbcff8331	-0.031190487
222	0xbd2a8dc9	-0.041639123
223	0x3d248354	0.040164307
224	0xbe0d975c	-0.1382727
225	0xbc2314e2	-0.009953709
226	0x3bebbb71	0.0071939756
227	0xbcd93a49	-0.02651705
228	0xbd362873	-0.04447217
229	0xbd250e25	-0.040296692
230	0xbe11038a	-0.14161506
231	0x3c316953	0.010828334
232	0x3c65f10c	0.014034521
233	0x3d0a5b3b	0.03377841
234	0xbd874fa0	-0.06606984
235	0xbc4ee466	-0.012627697
236	0x3d0be444	0.034153238
237	0xbd3c0a71	-0.045908395
238	0xbd36b4ed	-0.044606138
239	0xbcc6a131	-0.024246784
240	0x3d0c6703	0.034277927
241	0xbd7d6925	-0.06186785
242	0xbd40a270	-0.047029912
243	0x3c61619c	0.013756182
244	0xbc258b37	-0.010103992
245	0xbc36a1bf	-0.011146962
246	0x3d9500e9	0.07275564
247	0xbd92aa77	-0.0716142
248	0xbc04fbfc	-0.008116718
249	0x3cddf381	0.02709365
250	0x3c8757d5	0.016521374
251	0x3d794608	0.060857803
252	0xbdac17c5	-0.08402971
253	0x3da79278	0.081822336
254	0xbcd0270f	-0.02540925
255	0xbd985f9e	-0.074401125
