results/discrete_mask_test16/simple_deer/simple_deer-300219.onnx (onnx, 529279 bytes, 17 tensors)

network_body.observation_encoder.processors.0.self_ent_encoder.seq_layers.0.bias f4 [128]
00000000: a821 8a3c 28ed 6a3c 78e3 253d 88b3 b43c
00000010: 9f6b d63c 6b37 18bc 1685 8fbc 148b 0c3d
00000020: e964 01bd d0fd 1cbc 9a52 19bd de54 4e3d
00000030: a48b d23b 9375 c9ba 2d08 22bc ed7a b1ba
00000040: 496a a7bc b950 273c ad17 a6bc cc02 bd3b
00000050: 76a2 2abb c056 d63c f3f5 6bbc d159 d93c
00000060: 8c9b bfbc 0f47 27bc aff3 1f3a c943 8b3d
00000070: 6bb4 993c f8f5 90bc bcb1 a7bc a660 b9bc
00000080: b855 9a3c 6cba a43b 1107 493c 36ba 8f3c
00000090: 1ac2 8b3c e860 9d3b fc79 8a3b ea59 9a3c
000000a0: 8da5 06bd 6292 01bd 2282 bd3c 9ac8 de3b
000000b0: db83 98ba c1cf 9d3c cd29 2b3c 8d15 68bc
000000c0: 595d 0e3d b503 06bd 7f84 b13b f816 2ebc
000000d0: b5d4 8a3b 8cac a9bb 7210 2d3d 47d6 16bd
000000e0: 8408 963c 1ea9 c73c dc6c eb3b bdd6 013d
000000f0: 8337 643c 7d03 a03c ff71 f13c b45d 9fbc
00000100: 40c6 0bbc 6247 4e3c 3659 a43c 486a d43c
00000110: d911 733c 4cff fb3c 7205 553c 3d48 1cbc
00000120: 8c20 2b3c 64dc d9bc 3908 00bc 58f6 463c
00000130: c3f8 063a d4e7 33bc 3511 9ebb e05b 9bbb
00000140: 8832 84bc bf52 46bc 2ee5 fd3a 0d84 1e3d
00000150: 8633 a3bc 7c75 823c f615 8cbc e926 9c3c
00000160: e99b d13c 2e62 15ba 9368 f0bb db65 1c3c
00000170: 1dad 973c decd 1abc 094b 28bc 81ca d6bb
00000180: 83a4 0d3d ca21 fcbc c3e1 943a 5cb5 9e3b
00000190: a06c b7bc 24e6 37bd 66c3 a13c 27f5 a5ba
000001a0: 145e 40bc b44a b13a aba4 26bc fcb8 163c
000001b0: 0273 32ba 6fd3 693c 5105 0cbd f5ed 8c39
000001c0: 6318 163c f93b 58bc e6c2 2d3d 4576 1bbc
000001d0: ce6b e13c 9763 a3ba 37c9 0f3c 50e3 86bc
000001e0: 2891 38bc e5d7 0a3d 3277 1fbc eda8 babc
000001f0: 946d 1fbc e2dc 153c 2b24 aabb 1173 2cbb
0.016861752 0.014338769 0.040500134 0.022058263 0.026174365 -0.009290556 -0.017519515 0.034312323
-0.031590376 -0.009581998 -0.03743229 0.050373904 0.006425338 -0.0015370123 -0.009889645 -0.0013540663
-0.020436423 0.010212117 -0.020274961 0.0057681557 -0.0026036776 0.026164412 -0.014401901 0.026532086
-0.0233896 -0.010209813 0.00061016803 0.06800038 0.018762788 -0.017695412 -0.020470493 -0.022629093
0.018839702 0.005027106 0.012269751 0.017544847 0.017060328 0.004802812 0.0042259675 0.018841702
-0.032872725 -0.031633742 0.023133341 0.006798816 -0.0011635976 0.019264104 0.010446978 -0.014165294
0.034756992 -0.03271838 0.005417406 -0.010625593 0.0042367824 -0.00517804 0.04225201 -0.036825445
0.018314607 0.024372634 0.007184608 0.03169893 0.013929251 0.019532913 0.029473303 -0.01945386
-0.008531153 0.012590261 0.02006207 0.025929585 0.014835798 0.030761383 0.013001787 -0.009538707
0.0104447715 -0.026594348 -0.00781446 0.012143694 0.0005148763 -0.010980565 -0.0048238286 -0.004741177
-0.016137376 -0.012104689 0.0019370669 0.038700152 -0.01992203 0.015925162 -0.017100316 0.019061523
0.025587039 -0.0005698529 -0.007336685 0.009545769 0.018515164 -0.009448497 -0.010271796 -0.006554902
0.03458072 -0.03077783 0.0011358786 0.004843397 -0.022390664 -0.044897214 0.019746494 -0.0012661562
-0.01174118 0.0013526292 -0.010171096 0.009199377 -0.00068072986 0.014271601 -0.034184758 0.00026880173
0.009161088 -0.013197892 0.042422198 -0.009488647 0.027517226 -0.0012465593 0.008776001 -0.016465813
-0.011265077 0.0338973 -0.009733008 -0.022785628 -0.009730715 0.009146901 -0.0051923 -0.0026313702

network_body.observation_encoder.rsa.fc_q.bias f4 [128]
00000000: 0000 0000 0000 0000 0000 0000 0000 0000
00000010: 0000 0000 0000 0000 0000 0000 0000 0000
00000020: 0000 0000 0000 0000 0000 0000 0000 0000
00000030: 0000 0000 0000 0000 0000 0000 0000 0000
00000040: 0000 0000 0000 0000 0000 0000 0000 0000
00000050: 0000 0000 0000 0000 0000 0000 0000 0000
00000060: 0000 0000 0000 0000 0000 0000 0000 0000
00000070: 0000 0000 0000 0000 0000 0000 0000 0000
00000080: 0000 0000 0000 0000 0000 0000 0000 0000
00000090: 0000 0000 0000 0000 0000 0000 0000 0000
000000a0: 0000 0000 0000 0000 0000 0000 0000 0000
000000b0: 0000 0000 0000 0000 0000 0000 0000 0000
000000c0: 0000 0000 0000 0000 0000 0000 0000 0000
000000d0: 0000 0000 0000 0000 0000 0000 0000 0000
000000e0: 0000 0000 0000 0000 0000 0000 0000 0000
000000f0: 0000 0000 0000 0000 0000 0000 0000 0000
00000100: 0000 0000 0000 0000 0000 0000 0000 0000
00000110: 0000 0000 0000 0000 0000 0000 0000 0000
00000120: 0000 0000 0000 0000 0000 0000 0000 0000
00000130: 0000 0000 0000 0000 0000 0000 0000 0000
00000140: 0000 0000 0000 0000 0000 0000 0000 0000
00000150: 0000 0000 0000 0000 0000 0000 0000 0000
00000160: 0000 0000 0000 0000 0000 0000 0000 0000
00000170: 0000 0000 0000 0000 0000 0000 0000 0000
00000180: 0000 0000 0000 0000 0000 0000 0000 0000
00000190: 0000 0000 0000 0000 0000 0000 0000 0000
000001a0: 0000 0000 0000 0000 0000 0000 0000 0000
000001b0: 0000 0000 0000 0000 0000 0000 0000 0000
000001c0: 0000 0000 0000 0000 0000 0000 0000 0000
000001d0: 0000 0000 0000 0000 0000 0000 0000 0000
000001e0: 0000 0000 0000 0000 0000 0000 0000 0000
000001f0: 0000 0000 0000 0000 0000 0000 0000 0000
0.0 0.0 0.0 0.0 0.0 0.0 0.0 0.0
0.0 0.0 0.0 0.0 0.0 0.0 0.0 0.0
0.0 0.0 0.0 0.0 0.0 0.0 0.0 0.0
0.0 0.0 0.0 0.0 0.0 0.0 0.0 0.0
0.0 0.0 0.0 0.0 0.0 0.0 0.0 0.0
0.0 0.0 0.0 0.0 0.0 0.0 0.0 0.0
0.0 0.0 0.0 0.0 0.0 0.0 0.0 0.0
0.0 0.0 0.0 0.0 0.0 0.0 0.0 0.0
0.0 0.0 0.0 0.0 0.0 0.0 0.0 0.0
0.0 0.0 0.0 0.0 0.0 0.0 0.0 0.0
0.0 0.0 0.0 0.0 0.0 0.0 0.0 0.0
0.0 0.0 0.0 0.0 0.0 0.0 0.0 0.0
0.0 0.0 0.0 0.0 0.0 0.0 0.0 0.0
0.0 0.0 0.0 0.0 0.0 0.0 0.0 0.0
0.0 0.0 0.0 0.0 0.0 0.0 0.0 0.0
0.0 0.0 0.0 0.0 0.0 0.0 0.0 0.0

network_body.observation_encoder.rsa.fc_v.bias f4 [128]
00000000: 4093 3d3b bda1 adba 575a 8e3b 4489 cc3c
00000010: 6dc0 593a 7a07 333d ce15 4abc b827 ac3c
00000020: b0b4 b8bb 7ba5 5f3c eaad 4c3c 6721 373c
00000030: 40b2 6dbb db15 99bc 54d5 3b3c 416c 1dbd
00000040: 0d06 fc3c c790 763c f43a ca3b ee69 a33c
00000050: 0099 a6ba c1fc f639 25e3 f03b 35a6 dcbc
00000060: 34e9 0bbc 7f0e aebc df3a b03c 65ab e7bb
00000070: 4a32 84bc 6399 8ebb 9a35 93bc 840b 953c
00000080: 4850 13bc 972c cabc 38d1 b63b 9bca d8ba
00000090: fa51 963b f159 16bc a29e 703c 12f5 a0bc
000000a0: 875f bebc e8ac 89bb 8909 c8bb f175 d83c
000000b0: e930 9ebb efbe 083b 1344 9b3b d446 bf3c
000000c0: 4b89 c23c aa77 adbc 7079 56bc de30 883c
000000d0: 5cdb cc3c d206 953c a1fe 15bb 3646 ab3c
000000e0: f6cf a4bc aa0a b5bc 0236 6639 a252 e53b
000000f0: e080 203a 8e2d 033c f0e9 c63b d000 16bd
00000100: 74aa babc 8920 cd3b 488b dabc 00da 0f3c
00000110: 67bf e63c 9cb6 afbc 0e2e cebc d78a f43c
00000120: f3c2 cebc 26df f23b 6098 a83c bc0d 123c
00000130: 8b43 35bb 1b00 c83b acf5 26bd cdb9 a23c
00000140: 5a0b a8bb 02a3 d9bc 66ce bebb 2806 dcbb
00000150: 623e a8bc f320 42bd 9cf6 483c 2051 f03b
00000160: 316b 86bc bc5f 403c 5094 483c a7f2 e2ba
00000170: a1d0 053b fe44 12bc 2019 d63c 1974 ceb8
00000180: 3080 13bd 2fd7 bcbb dd61 d63c 73d1 6cbc
00000190: 502b 0fbc 73b2 bebc 7e6b b8bb 221c ae3c
000001a0: bcde 11bb b99c af3b 340d d8bc 4015 c9bb
000001b0: 56bf f4bc a100 853a 0144 f8bc fe9e 123d
000001c0: 0981 70bc e52e ce3c 8c21 163c f7b1 13bd
000001d0: 18c8 fbbc ce89 70bc 1461 003d b018 363c
000001e0: 8b36 a93c a9bb 343c b72c fbba 3113 23bc
000001f0: 2b2e 22bc 2567 61bb 4707 143b ad30 353b
0.002892688 -0.0013247054 0.0043442654 0.024967797 0.0008306567 0.043708302 -0.0123343 0.021015033
-0.005636774 0.013650293 0.012492636 0.011177397 -0.0036269575 -0.01868718 0.011464436 -0.038433317
0.030764604 0.015049166 0.0061715785 0.019947972 -0.0012710392 0.00047109093 0.0073512965 -0.026934722
-0.008539487 -0.021247147 0.021512447 -0.0070699924 -0.016137261 -0.004351781 -0.017969895 0.018193968
-0.0089913085 -0.024679465 0.00557914 -0.0016539873 0.004587409 -0.009176717 0.0146862585 -0.019648109
-0.02323891 -0.0042015202 -0.0061046523 0.026423426 -0.004827608 0.0020865758 0.0047383397 0.023349203
0.023747107 -0.021175224 -0.013090476 0.016624864 0.025006942 0.018191729 -0.0022887366 0.020907503
-0.020118695 -0.022099812 0.00021954629 0.006998376 0.00061227195 0.008006467 0.006070368 -0.03662187
-0.022786357 0.006259982 -0.026677743 0.008780003 0.02816744 -0.02144938 -0.025168445 0.02985136
-0.025239443 0.0074118553 0.02058047 0.008914407 -0.0027658667 0.006103528 -0.040761635 0.019863987
-0.0051283063 -0.026566986 -0.0058229445 -0.006714601 -0.020537559 -0.047394704 0.0122658275 0.0073338896
-0.016408535 0.011741575 0.012242392 -0.0017314748 0.0020418542 -0.008927582 0.026135027 -9.84447e-05
-0.03601092 -0.0057629566 0.026169712 -0.014454233 -0.008738354 -0.02327845 -0.0056280484 0.02125365
-0.0022258004 0.005359259 -0.026373483 -0.0061365664 -0.029876392 0.0010147282 -0.030305864 0.035796158
-0.014679202 0.025168845 0.009163272 -0.036058392 -0.03073506 -0.014681293 0.03134258 0.011114284
0.02065589 0.01103107 -0.0019163106 -0.009953306 -0.009898703 -0.0034393754 0.0022587345 0.0027647421

network_body.observation_encoder.rsa.fc_out.bias f4 [128]
00000000: 23b8 663c a51a a3bc 3a57 c73c 69a0 cc3c
00000010: 12e6 243c de0f 7ebb 1336 03bd 8033 953b
00000020: 06e0 b0bc 89be 1dbc 59dd b7bc dc1e fe3b
00000030: 3ddb 263a 3ef1 053c 065b 653c 3522 97bb
00000040: 8233 f03b 6b54 a53c 9789 ddba 27fd b93c
00000050: fd1b a3ba de27 dd3c b097 013d fe5f a03c
00000060: ccea 57bd a3d3 f0bc ea97 07bb b85b a93c
00000070: 1d38 d93b 3bed 893b dac9 2dbd 2365 53bc
00000080: 5a6e 153c a344 91bc 8011 94bb f122 333c
00000090: 1f5c 8d3c 57d5 68bb 876d 3e3c d718 cf3a
000000a0: fa05 6dbc eb16 c9bc 9b6d 173d b9e5 683c
000000b0: b857 903c 5875 283c 7851 603b 5802 39bc
000000c0: ad37 3e3b 17da a7bc df83 b73b eab9 3abd
000000d0: 7ea2 383d c0be 07bb dfc5 d33c d76c cebc
000000e0: 7321 863c acf1 ba3c 8d68 f3bc e7c5 d5bb
000000f0: 1090 d53c 3e23 233b 9137 e03c c3d1 debc
00000100: 2578 cb3b 62ff a33c 2eeb 8b3c 49f6 773c
00000110: aaae 953b c33b 433c 23d6 b4bb 17fd 413a
00000120: 9068 e43b f50e cabc 0e95 f6bb d31f 98bb
00000130: 8e09 99bc d5d0 673c bd9a 3bbb 7ba8 573c
00000140: df86 c2bc 38e6 523c c989 113c 46cb 923c
00000150: 72ae d9bc 43a9 0fbb 16a8 2cbd 05af 9b3c
00000160: 62d6 2a3b 76ac e13c feb2 2bbd 7bbb 06bc
00000170: ea81 213d 9814 c23b 9286 46bc 0277 793b
00000180: cdc3 9f3c ea99 61bb de5b 3fbc d2bb 38bb
00000190: 6083 34bc a75d 193b 6141 803c ed22 a5bc
000001a0: 069e 32bc 45b1 8ebc 325b a6bc 1855 0fbc
000001b0: f732 08bc eac7 693c 4a2f 2ebc c961 62bc
000001c0: 263c c33b 8d8d 05bd 4a11 3d3d cfd7 91bc
000001d0: f4ae c33c dac8 e6bb 2225 c43c 5ead 19bc
000001e0: df79 cdbb b7fd c53b 5af3 05bd 3aac 1a3c
000001f0: 025a a5bb c9d0 5d3b f42b 613c 50e2 12bd
0.014081988 -0.019910166 0.024333585 0.024978833 0.010064619 -0.0038766782 -0.03203399 0.0045532584
-0.021591198 -0.009627947 -0.022444414 0.0077551436 0.00063650665 0.008175192 0.013998752 -0.004612232
0.007330359 0.020181855 -0.0016901967 0.02270372 -0.0012444254 0.02699655 0.0316388 0.019577023
-0.052714154 -0.029397791 -0.0020689913 0.020673618 0.0066290037 0.0042091883 -0.04242883 -0.012902531
0.009120548 -0.017732924 -0.0045186877 0.010933624 0.01725584 -0.003552755 0.011622793 0.001580025
-0.014466757 -0.024547061 0.036969762 0.014214926 0.017619953 0.010281883 0.0034228247 -0.011292063
0.0029024885 -0.020489736 0.005600437 -0.045587458 0.04507684 -0.002071306 0.025851188 -0.025198383
0.016373372 0.022820316 -0.02971294 -0.006523836 0.02606967 0.0024892832 0.027370246 -0.027199632
0.0062093907 0.020019237 0.017079916 0.015134403 0.0045679407 0.011916104 -0.005518691 0.0007400079
0.0069704726 -0.024665335 -0.007525093 -0.0046424656 -0.018681314 0.0141489105 -0.0028626167 0.0131627275
-0.023745952 0.012872271 0.008882948 0.017919194 -0.02657244 -0.0021920956 -0.042152487 0.019004354
0.0026067724 0.027548056 -0.041918747 -0.00822341 0.039430536 0.005922865 -0.012117045 0.003806532
0.019502545 -0.0034424015 -0.011679618 -0.0028188122 -0.01101765 0.0023401768 0.015656175 -0.020158255
-0.010901934 -0.017418513 -0.020307157 -0.008748315 -0.008312932 0.014268855 -0.010631392 -0.013817259
0.005958098 -0.032605696 0.046159066 -0.0178031 0.023887135 -0.0070429863 0.023943488 -0.009379713
-0.0062706317 0.006042208 -0.03270278 0.009440476 -0.00504613 0.003384637 0.013743389 -0.03586036

network_body.observation_encoder.x_self_encoder.seq_layers.0.weight f4 [128, 30]
00000000: 0330 833d 45d6 26bc b722 6bbb af78 9dbc
00000010: cab3 4dbd 2a2b dc3c ff03 e5bc 9414 c53c
00000020: bed5 a7bb 04f7 64bd 74d1 003d ea82 ec3c
00000030: 4af0 64bd c4ed 343c 4efe 983a c357 70bd
00000040: d155 29bd eb10 7a3b 8515 333d 597a 613c
00000050: 8d89 da3c b4dc 093a ef44 8c3c 60c5 a93c
00000060: 4ff3 b2bc a8c3 103d 587e 8dbd 363d 21bd
00000070: fb7c 07bd d55a 063d 0f95 803c 1b4b 973c
00000080: 2055 e23c 5537 4c3c bfd6 1c3c 1229 dbbc
00000090: 38b4 62bb 1ccd b3bc 0cca 64bd 4fd3 cc3c
000000a0: 6ed3 00bd a0b2 d23b aa8f e139 9104 13bd
000000b0: f28c 183c 02f6 d33a 0d47 9a3c d264 3bbd
000000c0: 780a 293d 9c5a 47bd 4928 17bd f443 9438
000000d0: 3248 30bc ef74 633c a1df f83c e3d2 0b3c
000000e0: 728a 91bd 4cb0 46bd 4e41 83bc 281b 283d
000000f0: 112e 0c3d 968a 093d 6829 e3bc 0c9e 18bd
00000100: 6e64 16bd 1499 dbbd 8c08 923c f576 05bd
00000110: 5200 f03a d6ba 5bbd 4b42 1abd b08b d2bc
00000120: 0b35 053c 345f 473d d72d 00bd 24c7 563d
00000130: e8b3 2bbd f452 a83c c923 fc3b b355 adbc
00000140: 5b08 203d 15dd 41bd 3ff1 8a3c e184 a1bb
00000150: 4b75 303c 5154 89bb 5b38 97bb 2576 e2bb
00000160: de0b 43bb 962c 12bc ac32 1d3d adbd 2b3c
00000170: 7bcf fa3c ed78 3bbd c805 3138 5824 043c
00000180: 2d9c e1bc fc88 8ebc 01db 4a3c 8580 2bbd
00000190: 6514 b53c a137 02bc 7082 eb3c 7c0d 0ebd
000001a0: dfec 32bb d21f 92bd df45 84bc 404b 80bc
000001b0: a5f7 013d dd7d 793b 122b b8bd a826 0abc
000001c0: c271 36bc b088 ecbc 3543 0abd 5afd 7d3c
000001d0: e729 9bbd 125c 68bd 0eda 643b 7ea8 cbbb
000001e0: d644 4ebb 703c 3dbd 718a 9fba 9037 a53c
000001f0: 97b9 2bbc 916b 13bd 0bf3 233d 2b2c 5dbc
00000200: cbde 0cbd 0a1a acbc 1038 62bb cc3d 173d
00000210: b558 3cbd 4374 30bd 7fc8 3c3d e80b 183c
00000220: 4cea dabc e434 1b3d 0a22 293c f250 bb3c
00000230: 42ac 37bd a58b 3b3d 941e 493d 60ff 843d
00000240: 840c 8b3d 1670 4c3c 4c4d d2bb f4bd 323c
00000250: 79ca 01bd 8909 efbc 4984 3ebd 3c01 403d
00000260: 9d0a 653c 6756 7dbc 9e7b 4d3d 518e 953d
00000270: 82ce 003d 9bf2 5cbd ea6a 403d 9cbb 83bc
00000280: 135a 593d 5cf8 593d d105 66bd 25b1 803c
00000290: ed33 e0bc 8896 16bd 5baa 1dbc 1a97 2cbc
000002a0: c774 233d b0a3 94bb cae1 20bd 8aae 55ba
000002b0: 8f3b 363d a33b 763c fca1 22bd d1a7 1ebb
000002c0: b5ab a83c c5e6 d13c 5d85 ee3b 15e5 213d
000002d0: 116d a33c 10f7 2ebd e1fb 34bd 879f 23bc
000002e0: 53e3 2d3d e684 8e3c 3b91 99bb 3e85 07bd
000002f0: 24c9 3bbd 71f3 5f3d 2938 113c 7d9c 453d
00000300: 27f9 84bc 8674 b1bc 76ea 083d 5b51 6b3c
00000310: 57a7 27bb 0550 b63c c236 d33c 1b5e 09bd
00000320: bd28 aebc 2a3a 063d 20d5 8bbc c52a 0ebd
00000330: a92a c13b 4a46 753c 1e4f 1cbc ed8e bdbb
00000340: df28 0b3d 94de 013c b24c 283d beae 2abd
00000350: 3439 30bc 5cf5 3b3c b2c7 8abd 8cbd efbc
00000360: f8f1 2ebc 9b62 86bd aef8 02bd 6500 57bd
00000370: d416 5abd 2ec7 053d 76e8 33bd cf12 6abb
00000380: 323b 04bc f7ad 5ebd a1fc 023c 4bd1 95bd
00000390: 5b0e ba3c 9d48 84bc c6c1 f4bc 87fe 3c3b
000003a0: 62f9 5ebd 165f a33b d97e 1dbc 76d8 cbbc
000003b0: 2380 86bb 7be1 09bd e588 7abd dbb6 b2bc
000003c0: 8539 46bd aee6 88bd e4e5 1d3d 2b27 d63b
000003d0: 5d99 5b3c ece0 423d 9c50 55bd bec5 5dbd
000003e0: 9a01 463d 5949 1dba ad67 4dbc 8af5 b2bc
000003f0: 4bd7 723d bdfa 993c d6f1 12bd a25b 393c
0.06405642 -0.010182922 -0.0035878846 -0.019222585 -0.05022029 0.026876051 -0.027956007 0.024057664
-0.0051219156 -0.055899635 0.03144975 0.028871018 -0.05589322 0.011043016 0.0011672468 -0.058677446
-0.041341607 0.0038157057 0.043721694 0.01376208 0.026676917 0.00052590226 0.017122714 0.020723999
-0.021844534 0.035342842 -0.06908864 -0.039365016 -0.033078175 0.032801468 0.015696077 0.01846843
0.027628481 0.012464364 0.009572684 -0.026752982 -0.0034592282 -0.02194839 -0.05585675 0.025003104
-0.031451635 0.006429985 0.00043022382 -0.035893027 0.009310948 0.0016171339 0.018832708 -0.045750447
0.04126975 -0.048670396 -0.036903653 7.069847e-05 -0.0107594 0.01388286 0.030380072 0.008534166
-0.071064845 -0.048507974 -0.01602235 0.041041523 0.03422362 0.03357943 -0.027729705 -0.0372601
-0.03671687 -0.10722557 0.017826341 -0.03258415 0.0018310642 -0.053644978 -0.03766088 -0.025701374
0.008130322 0.048674777 -0.031293716 0.05243601 -0.04191962 0.020547368 0.0076946956 -0.021159029
0.03907047 -0.04732998 0.016960738 -0.0049291705 0.010770152 -0.0041909595 -0.0046148724 -0.0069110566
-0.0029761712 -0.008921763 0.038378403 0.010482234 0.030616513 -0.04576962 4.2205473e-05 0.008065306
-0.02754029 -0.017399304 0.012381316 -0.041870613 0.022104451 -0.007947833 0.02874872 -0.03468083
-0.002730183 -0.071349755 -0.016146598 -0.015660882 0.031730313 0.0038069405 -0.0899259 -0.008432068
-0.01113552 -0.028873771 -0.0337555 0.015502298 -0.075763516 -0.05672843 0.003492001 -0.006215154
-0.0031474135 -0.046200216 -0.0012171996 0.020168096 -0.01048126 -0.035991255 0.040026706 -0.0134993
-0.03439216 -0.02100851 -0.003451828 0.03692417 -0.045983035 -0.043079626 0.046089645 0.009280182
-0.02672305 0.037892237 0.010323057 0.022865746 -0.044842012 0.045787472 0.049101427 0.064940214
0.067894965 0.012477895 -0.006417906 0.010909546 -0.031687234 -0.029179351 -0.046512876 0.046876177
0.013979581 -0.015462494 0.05016672 0.07302535 0.03144694 -0.053942304 0.04697696 -0.01608067
0.053064417 0.05321537 -0.05615789 0.01570947 -0.02736851 -0.03676465 -0.009623135 -0.010534072
0.03990629 -0.0045361146 -0.03927783 -0.00081513135 0.044490393 0.015028867 -0.03970526 -0.0024208913
0.020589689 0.025622735 0.0072790817 0.03952511 0.019949468 -0.042716086 -0.044185523 -0.009986765
0.04245312 0.017397355 -0.0046865023 -0.033086054 -0.04584612 0.054675523 0.008863487 0.048244942
-0.016232086 -0.021662008 0.033426724 0.014362658 -0.002558192 0.022254953 0.025782946 -0.03353701
-0.02125966 0.032770313 -0.0170694 -0.034708757 0.005894978 0.0149703715 -0.009540347 -0.0057848603
0.033974525 0.007926602 0.041088767 -0.041670553 -0.010755826 0.011472072 -0.0677637 -0.029265188
-0.010677807 -0.06561776 -0.03197544 -0.05249061 -0.053244427 0.032660656 -0.043922864 -0.0035716777
-0.008070754 -0.054365125 0.007994802 -0.0731531 0.022711923 -0.016147906 -0.029877555 0.0028838234
-0.05443705 0.0049857004 -0.009612762 -0.02488349 -0.0041046306 -0.0336623 -0.06116571 -0.021815708
-0.0483947 -0.06684624 0.03854932 0.006535431 0.013403264 0.047577783 -0.05207883 -0.05414366
0.04834137 -0.00060000044 -0.012536925 -0.021845598 0.05928735 0.01879632 -0.035875164 0.011313351

network_body.observation_encoder.x_self_encoder.seq_layers.0.bias f4 [128]
00000000: 1d2c 68bc 1bd7 83ba faaf 0ebd 4eae 95bc
00000010: 80a1 933b c55e 173c 4f0c 993c 5687 11bc
00000020: 0817 133c 53a0 03bd 7bd7 01bc 83d9 303c
00000030: 35f6 bcbc f303 c83c 5111 0dbd 227d f7ba
00000040: 8b20 b7bc 9eec eabc 0e50 443c e5f7 36bc
00000050: b951 dabc 76cf b7bc 1e30 d3bc 4f71 8bbb
00000060: 9dad 0abc 3642 fe3c 33d9 9dbc 965e 353d
00000070: b86a 09bd d14a 59bb b99f babb 68dd 10bd
00000080: 2a6c 09bd 3e77 553c 99cb 183c 61e4 823c
00000090: 0658 12bc c7da 473c f309 93bc 4d8e d9bc
000000a0: ba9e 8c3b c32d b8bc 2bd1 55bb 66df 113c
000000b0: 1477 cebc 8b76 ddbc 0eef eebc 509c 133c
000000c0: 08ae 74bb 3d6f c6bc 5390 903c 30db 13bd
000000d0: b458 16bc e5fd 803c b78a 4939 166a 763a
000000e0: 2257 afbc 95a4 72bc aa0e 7a3d 7020 923a
000000f0: c431 86bb bd46 55bc abd6 bcba 50ac 1cbd
00000100: 8264 acbb 6ecf 77bc 6399 b63b 0a60 083d
00000110: b559 39bb acb6 cabb dfbf a8bc b4dc d7bb
00000120: b141 c53b 6883 003d e239 0f3c 50b8 953b
00000130: e174 ee3c ead5 ca3c b3f2 363b 4e54 9ebc
00000140: fb63 80bc 65fb 993b 10ff 833c 64cf c63b
00000150: e80c b9b8 8ee5 1dbd f205 57bd cf5d 7bbb
00000160: 11c9 b2bc 09d6 46bd 6df3 08bc 001c 4cbd
00000170: 077a 5e3d d72a 43bc 7921 c73c e946 803c
00000180: 3aae b4bc 7a4e bfbb 1edc 43bd c966 d93c
00000190: 2f3a 0bbd dc7f a5bc 5584 7a3b e8a8 28bd
000001a0: b2ea 673b 5813 183d 423e 193a 1e93 193d
000001b0: 6212 ee3b d10d cbbc bc84 833b 8fe4 d13a
000001c0: 787d 78bc 7119 633c 7643 58bc c350 70bb
000001d0: e2a2 14b9 71e2 f3bc 4020 69bd 6085 bb3c
000001e0: 0f6b efbc c154 da3c 641e 4bbc 82ef b5bb
000001f0: ee88 35bb 2bc8 6f3b 372d b43b 7bf2 293c
-0.014170674 -0.0010058613 -0.034835793 -0.018271592 0.0045053363 0.009238903 0.018682627 -0.008882364
0.008977659 -0.03213532 -0.00792491 0.010794046 -0.02306662 0.024415946 -0.034440342 -0.0018881897
-0.022354385 -0.028677281 0.011981977 -0.011167501 -0.026650297 -0.022437792 -0.02577978 -0.004255451
-0.008464244 0.031037431 -0.019268608 0.044279657 -0.03354904 -0.0033156166 -0.00569531 -0.0353674
-0.03355042 0.013028918 0.009325885 0.01597804 -0.008932119 0.012198157 -0.01794908 -0.026557112
0.0042913826 -0.022482758 -0.0032625895 0.00890336 -0.025203265 -0.027034065 -0.029166725 0.009009436
-0.0037335176 -0.024222964 0.017646944 -0.036097705 -0.009176422 0.015746066 0.00019220529 0.00093999633
-0.021403853 -0.014809747 0.06104914 0.0011148583 -0.004095288 -0.013017354 -0.0014407238 -0.038250268
-0.005261005 -0.015125139 0.0055724843 0.033294715 -0.002828223 -0.006186327 -0.020599304 -0.006587589
0.006019794 0.03137532 0.008741828 0.004569091 0.029108467 0.024760205 0.0027915656 -0.019327309
-0.015672674 0.004699158 0.016112834 0.0060672034 -8.8238914e-05 -0.038549 -0.052495904 -0.0038355475
-0.021824392 -0.048543964 -0.0083588185 -0.04983139 0.054315593 -0.011912069 0.024307953 0.015658813
-0.022055734 -0.0058382126 -0.047817342 0.02653827 -0.033991035 -0.02020257 0.0038225849 -0.041176707
0.0035387692 0.037127823 0.0005845764 0.037493818 0.007265375 -0.024786862 0.004013626 0.001601355
-0.015166633 0.013861046 -0.013199678 -0.0036669231 -0.00014175058 -0.029771062 -0.05691552 0.022890747
-0.029225854 0.026651742 -0.012397382 -0.005552233 -0.0027700025 0.0036587815 0.005498554 0.010372753

network_body._body_endoder.seq_layers.0.weight f4 [128, 158]
00000000: d119 a03d f78f 573d a6b9 df3d 2256 0b3e
00000010: f190 74bd 552a 1bbd 836b 0d3e d62a 493d
00000020: 297a c6bd 5ffd d7bd d353 00bc 61d3 aebc
00000030: ef81 febd 89af a1bd 4f9f 47bd 68df c9bd
00000040: 81c6 13be 9e8d f03d a981 813c 1067 52bc
00000050: f3df 923c 40c8 02bd 2d7d 69bd 44d1 e3bd
00000060: e35f 82bd 1182 163e 6f19 27bd cf4b ccbd
00000070: b53c 2cbd d617 93bd 415a 773d f48b 42be
00000080: d267 f83c f187 d7bd 0301 de3d e602 b83c
00000090: 224f 47bd c259 5b3d b400 533e 029d a3bd
000000a0: 66a8 70bd e145 eebc 2400 c53d 890b 1fbe
000000b0: d3cf d53c 4f41 60bc 3eda 22bd 8334 d43d
000000c0: 987e 8fbd dc32 c33d 93a5 8b3b 8424 fa3d
000000d0: 8e34 473e 2fa5 6ebd 7409 b4bc 56d9 133e
000000e0: f853 fcbc aa01 1f3d 61ab f63c 17e2 0bbd
000000f0: 1059 463b 69bc 55bc 7a6c 07bd 33ed 8cbd
00000100: 9914 573d f87c 5bbe a4b5 b23d dfb3 20bd
00000110: 5c38 2fbd d164 b63c 1376 c73c f565 11be
00000120: e49c 28bd 71ad 42bc 0b6f 513b 3f25 ea3c
00000130: 7a64 1bbd b5c6 87bc 4ddc 0a3d ac7e 1cbd
00000140: e8e5 913d f95d 0d3d deac 30be 8fdd 143e
00000150: dd69 793d 71b7 8dbd be81 53bd 3476 e13d
00000160: 80b1 173d 29e2 d4bd 2d89 3ebd 2339 7d3d
00000170: bce3 66bd ead1 403c 376b 9d3c 56d2 223d
00000180: 8de9 c73d 1ce1 bf3d e749 d5bd b190 a1bd
00000190: b7e5 b6bd 246c 1e3e 03a2 ebbb 5b4b 5d3d
000001a0: d35a 9d3d 1ea1 613d c74e ca3d 2f89 9cbd
000001b0: 1dd8 67bd 23bc 843d 4d73 65bd 8a3e 59bd
000001c0: bbaa 75bd ef64 143d 0091 33be 6b08 f0ba
000001d0: 90d4 e03c 2993 9abd 8950 d23b dbdc 24be
000001e0: 4f0b 7bbc ce05 44bd e749 c9bc 0c49 94bb
000001f0: 79eb 13be 1bf0 9fbc aee7 17bc 0aa0 8bbd
00000200: 46c3 b63d 4876 1fbe 16b3 253d 703f c73d
00000210: c005 b03d e88b 213d 30a4 9dbc 6d5e 813d
00000220: 4e89 5bbc c128 7bbd beeb 2b3e 6305 713b
00000230: 481c a3bc a14f 90bd ab44 863e 364c ebbc
00000240: 2b80 84bd fdd8 8e3d ad91 6e3d 5e07 1dbd
00000250: c5d3 07bd a80d bc3d 30b3 71bc 0c93 e53b
00000260: dd24 f1bc 60b5 02be 8742 b0bd 0947 82bb
00000270: 8d00 e63c 2ec9 b63c e63e 5d3d ed8a a13d
00000280: 814c 28bd 4bc7 d2bc bc18 96bc 3c35 c13c
00000290: c4d2 c0bd bb0b 923c dde3 cabc 7613 933d
000002a0: 237a 31bd e4ba a9bd c2a6 34bd ec48 553d
000002b0: c403 be3b f29e 92bd 97f9 91bd 89e2 bbbd
000002c0: dd57 38bc 0db1 1abe 9c59 bdbc 8488 14be
000002d0: 3f2b 0f3e d391 f2bb 39ea f4bc a119 44be
000002e0: 020d 4fbe 2ca4 9dbc e937 01be d7cb 883d
000002f0: 7f80 ec3d 2868 333c 2f3f 90bd 2f3b bfbc
00000300: a9f9 833b ab40 e33a d037 893d 2bb3 51bb
00000310: ce9c e63d c678 c6bb b718 0a3d bacd e5bd
00000320: 90e1 b5bd e294 0a3d 889a ff3c 95a4 70bd
00000330: c003 cc3d f2c8 573e 43f2 fcbd 94a5 b8bd
00000340: d2f7 c1bc 526d 06bd e247 b0bd 0d05 52bd
00000350: 8e21 cd3a 5100 483c b8b5 613c dd1a cc3d
00000360: c3e6 103c dd79 3e3e f40c 7e3c 6324 4a3d
00000370: def3 28bd 0d9f dabd d2a5 b5bd 3b82 6ebd
00000380: 8777 1fbd c3ef c2bc ff80 f23a 96c7 873a
00000390: 03c8 d2bc 3ff3 663e cf36 0ebd 8c3c cb3c
000003a0: cc8e d83c c9a2 d4bc d16f 2e3d 47ca 97bd
000003b0: 2024 0dbe 28d5 5d3d 7028 18bd fa14 f93b
000003c0: 0af7 1e3e 8b1b f2bb 0703 efbd 968d 393d
000003d0: b83c fcbc f404 0b3c 2266 053d 53c0 883c
000003e0: 65fa 943d 6c93 7fbd a25d 933d 1907 ef3c
000003f0: d192 b8bd c8bd adbc 372a 663d 425b 5abb
0.07817424 0.05262753 0.109240815 0.13607076 -0.05970854 -0.037882168 0.13810544 0.049113117
-0.09691269 -0.105463736 -0.007832485 -0.021341028 -0.124271266 -0.07894809 -0.048735913 -0.098570645
-0.14431192 0.11745761 0.015808897 -0.012841955 0.017929053 -0.031929255 -0.057004143 -0.111238986
-0.06365945 0.14698054 -0.04079574 -0.09975397 -0.042050082 -0.07182281 0.060388807 -0.189987
0.030322943 -0.10523976 0.10840037 0.02246232 -0.04865945 0.053552397 0.20605737 -0.07988931
-0.058754347 -0.029086055 0.096191674 -0.15531744 0.026100075 -0.013687446 -0.039758913 0.10361578
-0.07006568 0.09531185 0.0042616813 0.12213996 0.19453642 -0.058263 -0.021977164 0.14438376
-0.030801758 0.038819946 0.030111017 -0.034151163 0.0030265488 -0.013045409 -0.033062436 -0.0688118
0.052509878 -0.2143439 0.087260514 -0.03923404 -0.042778358 0.02226487 0.024348294 -0.1419905
-0.041165248 -0.011882172 0.0031957056 0.028582213 -0.03793762 -0.016574243 0.0339015 -0.03820674
0.07123929 0.034513447 -0.17253444 0.14537643 0.060891975 -0.06919754 -0.051637404 0.110088736
0.03703451 -0.10394699 -0.04651754 0.061822068 -0.05636953 0.011768797 0.019216163 0.039751373
0.09761343 0.09369108 -0.104144864 -0.07888926 -0.089305334 0.1547094 -0.007190944 0.054026943
0.07683339 0.055085294 0.09878307 -0.07643353 -0.056602586 0.06481197 -0.056018163 -0.053038158
-0.059977274 0.03622907 -0.17535782 -0.0018313056 0.027445108 -0.075476 0.006418292 -0.16099875
-0.01532252 -0.0478571 -0.024571372 -0.0045253094 -0.14445294 -0.01952367 -0.009271545 -0.068176344
0.08923964 -0.15572464 0.040453993 0.097288966 0.08594847 0.039440066 -0.01924333 0.063168384
-0.013399435 -0.061318163 0.16789147 0.0036776892 -0.019910946 -0.07046438 0.26224265 -0.028722864
-0.064697586 0.06974981 0.058244396 -0.038337104 -0.033160944 0.09182292 -0.014752194 0.0070060547
-0.029436523 -0.12764502 -0.08606439 -0.003975753 0.028076435 0.022312727 0.054015063 0.07887826
-0.041088585 -0.025729796 -0.018322341 0.023584954 -0.094152 0.01782786 -0.024766857 0.07181446
-0.04332937 -0.082876 -0.044104345 0.052071497 0.0057987887 -0.07159223 -0.071276836 -0.091740675
-0.011251417 -0.15106602 -0.023114018 -0.14505202 0.13981341 -0.0074026375 -0.029896842 -0.19150402
-0.20219806 -0.019243322 -0.12618984 0.06679504 0.11547946 0.010950126 -0.07043301 -0.02334365
0.0040275645 0.0017337998 0.067000985 -0.0031997662 0.11260377 -0.006056878 0.033714976 -0.1122088
-0.08880913 0.033833392 0.031201616 -0.058750708 0.09961653 0.21072748 -0.12350895 -0.090159565
-0.02367774 -0.0328191 -0.086074606 -0.051274348 0.0015650259 0.012207107 0.013776235 0.09966061
0.00884408 0.18601175 0.015506018 0.049351107 -0.041248195 -0.10674868 -0.08869518 -0.058229666
-0.03893235 -0.023795968 0.0018501579 0.0010359164 -0.025730139 0.22553729 -0.03472024 0.024809144
0.026435278 -0.025956528 0.042587105 -0.07411628 -0.13783312 0.05415836 -0.03714794 0.0076013776
0.15523925 -0.0073885373 -0.11670499 0.045301042 -0.030790672 0.008485068 0.032568105 0.01669327
0.072743215 -0.06239645 0.071955934 0.02917819 -0.09012378 -0.021208659 0.056192603 -0.0033318554

network_body._body_endoder.seq_layers.0.bias f4 [128]
00000000: e073 eabc c6d7 6238 2bdd 723c 7b2e 1f3d
00000010: c014 17bc c83e 913b 7f41 22bd e0c4 493c
00000020: 1e81 dfbb 8eaf 1ebc 81b7 333c 7b0a 2e3d
00000030: 3412 573d 25c2 6fbd 27f7 f63c 831c 2cbb
00000040: 007e 20bc 4e46 323d cf1f fbbc 7b87 b23c
00000050: 27da a8bc 35c3 05bd 0fc4 f63b b0e4 eebc
00000060: 126a 0c3d 7bcb 193c 6f3a 7bbb adb3 68bc
00000070: fd77 0dbb 26c2 1c3d ced4 833c 696d a134
00000080: 6db5 a8bb 3f38 b6bc c3b5 f5bb 938a d8bc
00000090: 913b dcbc af25 02bd bdd6 00bd ef91 27bb
000000a0: f6ad 7a3c 9c5c a03c 0b14 b4bc 9c01 86b9
000000b0: 5062 73bc ce36 893c 8050 f33c e2fa 1ebc
000000c0: 7778 d93b 7e2a a2bb d5f5 52bb 903d 103d
000000d0: 4ed0 42bd 342b 983b 5e7d 0fbc 850a 86bc
000000e0: 491c 1d3a 9ec4 26ba a00a d3bb 6048 c9bc
000000f0: d56f 7dbc 4faa fc3c 5258 743d d3fc adbc
00000100: 9500 013b 22f6 90bc 3f07 83bc 58da cd3c
00000110: 6a41 13bd f402 ec3b baf8 293c b7ac 42bc
00000120: 85b1 64bc 2227 3cbc 9570 e1bc 3a06 bfbc
00000130: b23e 57bd 2f86 b5bb b74c e73c 61e3 30bc
00000140: f9e7 0f3d 6660 22bb 89b8 d43c 4b67 4dbd
00000150: 3ced d1ba f8b4 63bc 04f5 9fbc b3c8 333d
00000160: 49eb 09bb f92f 733a 0835 bd3c fad7 e9bc
00000170: b774 b7bc 08d8 653c 03ab 213d 5629 eabb
00000180: 7518 dc3c 089f 353d 272e f43c b4e0 cf3b
00000190: e250 043d 5cd9 febb 0688 5dbc b31a 193d
000001a0: debf 2cbd 12b2 1c3d 053c be3c 8a6d 803d
000001b0: dbf7 21bc d024 9bbb c5fd b83c 06fd a7bb
000001c0: cf93 a93c 96d9 403d 570c f6bc 7354 e4bc
000001d0: c8b9 4b3b a833 16bd 9b67 d23a 5c3d a7bb
000001e0: 8224 5bbc e09d 71bc 2527 833b 3eda b73c
000001f0: 1e90 c8bb 374d 1d3d 8210 683b f7f1 2f3d
-0.028619707 5.4083554e-05 0.014823238 0.038862687 -0.009221256 0.004432533 -0.039613243 0.012315005
-0.006820812 -0.00968541 0.010969044 0.042490464 0.052507594 -0.05853476 0.030147148 -0.0026262111
-0.009795666 0.04352408 -0.030654816 0.021793118 -0.020611836 -0.032656867 0.007530696 -0.029161781
0.034280844 0.009386892 -0.003833439 -0.014202994 -0.0021586411 0.038271092 0.016092684 3.0068193e-07
-0.0051485808 -0.022243617 -0.0074984743 -0.026433265 -0.026883872 -0.03177422 -0.03145479 -0.002556916
0.015300265 0.01957541 -0.021982213 -0.0002555967 -0.0148549825 0.016749766 0.029701471 -0.00970337
0.006636675 -0.004948913 -0.0032189984 0.03521496 -0.047561936 0.004643822 -0.008757917 -0.016362438
0.00059932895 -0.00063616957 -0.0064404756 -0.024570644 -0.015468557 0.030842928 0.05965454 -0.02123872
0.0019684185 -0.01769549 -0.015994666 0.025128528 -0.035951056 0.0072025005 0.010374242 -0.011881999
-0.01395834 -0.011483939 -0.027519504 -0.023318399 -0.052550025 -0.0055396776 0.028234823 -0.010796399
0.035133336 -0.0024776696 0.0259669 -0.050147336 -0.0016016136 -0.013898127 -0.019526012 0.043892574
-0.0021044782 0.0009276863 0.023096576 -0.028545368 -0.022394521 0.014028557 0.03946973 -0.007146041
0.02686713 0.044341117 0.029807163 0.0063439254 0.0323037 -0.007777376 -0.0135212 0.037378978
-0.042175166 0.03825576 0.023221979 0.06270893 -0.0098857535 -0.004734613 0.022581944 -0.0051265983
0.020700363 0.047082506 -0.030035181 -0.0278723 0.0031086076 -0.036670357 0.0016052605 -0.00510375
-0.013375403 -0.014747113 0.004002469 0.022442933 -0.0061206957 0.038403716 0.003541023 0.042955365

network_body._body_endoder.seq_layers.2.weight f4 [128, 128]
00000000: c0e5 69bd ef22 80bd ce29 a33d 907c e3bc
00000010: 25ec af3d ecdc 2c3d a688 803b 40fc 3c3d
00000020: e3f4 6fbd db41 063c f76a 743e 5842 e13d
00000030: 4bf7 3e3c 9409 b03c 5fe3 b83d 6aca 84bd
00000040: bcb1 47be 539e a53c 228e 043e 7315 e4bc
00000050: 5c3d b3bd b51a 0bbe 8160 9a3d 5d4a babd
00000060: d8cc 693c 4c01 b5bd c31a 7ebd 0191 923d
00000070: 54b1 f0bc 2a72 f63c f34d 343d e894 733d
00000080: 1aab 9abc ad30 2abd ac3b 01bd c8c5 073d
00000090: 8d78 20bd 45a7 793d 8f56 d5bd 7551 0c3c
000000a0: 91b6 92bd 4993 7dbc 201a 31bd f2a8 4fbd
000000b0: a21d 5e3d 2d37 3cbd 9c86 b93a 1453 863d
000000c0: 9b4d 973d b93e d7bd dec3 e33c 74e2 9b3d
000000d0: 15fa 06bd b0b9 ee3c 0890 bf3b 7c69 86bd
000000e0: a3b5 37be 7cfc 10bc 12a5 99bc 3722 653e
000000f0: 5023 933d c410 143d 64b3 94bc c462 97bd
00000100: 9c0b c2bd 1bc8 d43c 4322 91bd 9cc6 d73c
00000110: 0067 523d ecdd 17be 12a1 33bd 9893 763c
00000120: b2a9 adbe 1acb ad3d a52a afbd 6fed 583c
00000130: 942b fb3d 4f91 10be 0fdd f6bc c7aa 26bd
00000140: 8ed0 37be 9420 eabc 91d7 13be eb6e bcbc
00000150: 67d6 443e 3c98 d0bd 40df b43d 9125 d8bc
00000160: 9274 d5bd 67b4 85bd 5e8d 26bd 4e5d 1b3d
00000170: 9b15 393d 6ab1 233e 3e32 b0bd 5ede a83d
00000180: d2b6 d23d 1a8b 86bd 578f fabd 35ea 633d
00000190: 8067 43be d38f 4cbd 2d74 de3d 59b4 4b3c
000001a0: 0370 203d 44ff 563e 6d06 08be 3127 183d
000001b0: a26f 793d 1757 f0bb 5e75 e83d 6c38 f33d
000001c0: 3625 de3c bc6e fbbc 775d fcbc 28a0 e43d
000001d0: f5e3 d53d be3b a83d 6d2c 913b 198c b8bb
000001e0: 8acf 883d 5335 cabd aee7 3c3e a806 973d
000001f0: 799a a33d 0bdc 87bd 59f3 8fbd c3d3 03be
00000200: d293 15be 5597 85bd f4a5 63be 7877 273d
00000210: 5792 b4bd 0d25 c9bd 05c6 e0bc 7d45 29bd
00000220: 69fb 613d 1ee7 eabd e2f1 cd3c 344f 99bd
00000230: ca36 a9bd 9932 11bd a7b2 173e b8bf d63d
00000240: a254 8dbd d50f 74be 4842 e83c d6c5 0e3d
00000250: 3b33 24be 34d5 823c 0a60 353d 4141 81bd
00000260: e2a9 753c 7abe 363d 38e2 8b3c dfa9 acbb
00000270: f147 0dbe 80a0 c4bd 8114 bf3c a3c0 d5bb
00000280: 2733 043e 809b 1ebe 0f27 513d b9cb 0d3e
00000290: 469a 8ebd c32a d43d 9182 653d 5cce e23c
000002a0: df8e b4bb db24 ecbd 5478 94bd 3510 a5bd
000002b0: ea8c 323d 62e6 c4bd 92af f13c 7032 cb3d
000002c0: 10cb a63d 3920 aabd 9ff3 8b3d 1cf3 67be
000002d0: 3e84 ab3d 07a4 06bc 4528 3dbd cb16 6c3d
000002e0: 263b f2bc 03f6 09be 1611 2bbd cbfc 81bd
000002f0: 7df4 b3bd 5888 a0bd 7770 edbd fac6 ddbd
00000300: 0c32 923d 39f2 0d3e 6ac3 5bbd 5082 40bd
00000310: bf93 05bc 42a8 6c3d 1d2b 94bd d79e e53c
00000320: 5067 7abe d893 ff3d 90be 043c 52c4 7f3d
00000330: 59fa ccbd 64a9 8dbd a6e4 083d 8e22 37be
00000340: f698 f93d b365 e93d 14dc b4bd 4e01 fb3c
00000350: 7d6b 043d bef0 c4bd b9d9 443e 1814 153e
00000360: 2ea4 d83d cb07 253e 407d a83b e6d7 333d
00000370: 8a3e 683d 52ac 003e d868 0d3d be4f 0fbe
00000380: 6ef2 85bb 3b0e 33be 17a3 813d 096b b3bd
00000390: a300 d33d a0b3 2fbd ab1d 3e3d 481a cabc
000003a0: d609 093d 420b ae3d 9f50 793d 02fe d53d
000003b0: 13f7 c4bd 6f37 163c 0976 4fbd 9275 403d
000003c0: e975 8dbd e3a2 9dbc 4c8f 6cbd 5892 9cbd
000003d0: de80 5f3d 600a 82be 79a0 dfbc 2dce aabd
000003e0: 9a27 d13d 8c99 f83c 477e 60bd e2e9 df3d
000003f0: 3a79 26be 2858 eabd 6233 c9bc 1e90 da3c
-0.057103872 -0.06256663 0.07966958 -0.027769357 0.08589963 0.042202875 0.0039225398 0.046139
-0.05858315 0.008194412 0.23868929 0.10998982 0.011655639 0.021488942 0.090277426 -0.0648392
-0.19501394 0.020217096 0.12944844 -0.027842259 -0.08751938 -0.13584407 0.07537938 -0.09096215
0.01427003 -0.08838138 -0.06203724 0.071565636 -0.029381432 0.030083735 0.04401965 0.05946818
-0.018880416 -0.041550327 -0.03155105 0.033147603 -0.039177466 0.060950536 -0.104169 0.008564343
-0.07163728 -0.01547701 -0.043237805 -0.05069823 0.05422748 -0.045951057 0.0014154497 0.06558815
0.07387849 -0.1051001 0.027803358 0.07611552 -0.03295334 0.029141277 0.0058460273 -0.06563088
-0.17940383 -0.0088492595 -0.01875547 0.22376333 0.0718447 0.0361488 -0.018151946 -0.07391885
-0.094748706 0.025974324 -0.07086613 0.026339822 0.05136776 -0.1483075 -0.04385478 0.0150498375
-0.3391853 0.08486004 -0.08553056 0.013240202 0.12264171 -0.14117931 -0.030134706 -0.04069021
-0.17950651 -0.028579988 -0.14437701 -0.023002109 0.19222413 -0.101852864 0.08831644 -0.0263851
-0.10422625 -0.0652855 -0.040662162 0.03793078 0.04518662 0.15985647 -0.08603333 0.08245538
0.102887765 -0.065695 -0.12234371 0.05564328 -0.19082451 -0.04994185 0.108620025 0.012433135
0.039169323 0.20995814 -0.13283701 0.03714675 0.060897477 -0.0073346007 0.11350511 0.11875996
0.027117353 -0.03069245 -0.030806286 0.1116336 0.1044387 0.0821452 0.004430345 -0.0056319353
0.0668021 -0.09873452 0.18447754 0.073743165 0.07988448 -0.06633767 -0.07028837 -0.1287375
-0.1460717 -0.06523005 -0.22231275 0.04088542 -0.088169746 -0.0982152 -0.027438173 -0.041326035
0.055171404 -0.11469863 0.025139753 -0.0748581 -0.08262403 -0.035448644 0.14814244 0.10485786
-0.06900908 -0.23834164 0.028351918 0.03485664 -0.16035168 0.015970804 0.044281043 -0.06311274
0.0149941165 0.044615246 0.017075643 -0.0052692736 -0.13796975 -0.096009254 0.023325207 -0.006523208
0.12910138 -0.15489006 0.05106264 0.13847245 -0.06963019 0.10359719 0.05603272 0.02768629
-0.0055101956 -0.11530467 -0.07249513 -0.08059732 0.043591417 -0.096142545 0.029502664 0.099217296
0.081442 -0.08306927 0.068335764 -0.22651333 0.083748326 -0.008217818 -0.046180982 0.057638925
-0.02956922 -0.13472752 -0.04176434 -0.063470446 -0.08786867 -0.078385055 -0.115937166 -0.108289674
0.07138452 0.13861932 -0.05365316 -0.046999276 -0.008152901 0.05777765 -0.07234786 0.028029842
-0.24453473 0.12479371 0.008102074 0.062443085 -0.100086875 -0.06917074 0.03342118 -0.17884275
0.12187378 0.11396351 -0.08831039 0.03064027 0.03232907 -0.096162304 0.1922368 0.14558446
0.1057819 0.16116254 0.005141884 0.04390707 0.056700267 0.12565735 0.034523815 -0.13995263
-0.0040877378 -0.17485897 0.06329935 -0.0876065 0.10302856 -0.042895913 0.046415012 -0.024670735
0.033456646 0.08498241 0.060867902 0.10448839 -0.09617438 0.00916849 -0.050649676 0.046987124
-0.06907255 -0.01924271 -0.057753846 -0.076451 0.054566257 -0.2539854 -0.027298199 -0.08340106
0.102126315 0.030346654 -0.054807927 0.109332815 -0.16257182 -0.11442596 -0.024560634 0.026680049

network_body._body_endoder.seq_layers.2.bias f4 [128]
00000000: 1869 84bc 08c3 34bc 2936 b03d c0a3 a3bc
00000010: ff59 f9bc d4ae 053b aa8a c0bc 553f 263c
00000020: ee47 a0bc 94f8 60bc 2745 80bc 2e40 a7bc
00000030: 4dec 143d b966 ec3a 1e6f ee38 f7d3 e23b
00000040: b7c5 4f3c eb94 343c d5ba 07b9 e7be dc3b
00000050: 9523 dfbc a37b 783c bcc9 88bb 7f46 9f3c
00000060: c712 fcbc 2c3d b13b 2222 483c cec4 0bb9
00000070: b7cd c2bc 2d90 983b 7c9e d3bc c298 7dbc
00000080: 8916 99bb ad66 073b 44b7 18bc 3e17 4d3c
00000090: a4e1 e43c a938 88bc 4186 28bc e741 83bc
000000a0: 2aa1 4fbc 9bc9 78bc f80f a23c d958 753d
000000b0: f7a0 96bc 0f35 e73b b369 37bb b08f 433d
000000c0: c222 b5bc 3bd2 b13b 4474 e53c 9a57 65bc
000000d0: bf62 513d d983 223c 09d2 d2bc 93d0 003d
000000e0: 1180 743b 16bc d0bb 4a61 44bd 9883 e1bc
000000f0: e409 a73c 508c 16bc ab62 a0bc 76e3 83bc
00000100: 2c0f bdbc bdb8 723b e666 333c 33bf 433c
00000110: 5282 093d 83d0 74bb 3b9f 17bd 3f8a 8ebc
00000120: 914f 0d3c 92a4 d53c a0b6 62bc 7b7a 85bc
00000130: ad5d 4f3c fa00 aebc 380f 11bc 685c 05bb
00000140: 79f6 c23c a829 073c cbb8 6cbc 7382 a3bc
00000150: bdd3 32bd 25f8 a4bc c7c3 abbb 5dd4 dc3c
00000160: c984 2bbc fa68 033d 8076 89bc 738f 2dbc
00000170: c800 90ba 188a 9d3c 300d 0b3a 64b7 1a3d
00000180: 388b 2fbc ad06 20bc 84d4 87bc 10f6 783b
00000190: c93e c13c 0139 f93c 29fa e93b 0bd0 d2bc
000001a0: 41bc 5b3c 1c47 f23c 900a d3ba 9e43 43bc
000001b0: c6bf e9bc a1b9 0e3d 1b97 11bd 2079 91bc
000001c0: 116d 123b 644a 0e3d cdfa 853a 3526 9bbc
000001d0: 1556 e3bc 5088 dcbc fc66 5dbc 8da6 803b
000001e0: 607b 48bb b943 21bc 50e5 0abc 53ee 1e3d
000001f0: 094b a2bb ccf5 fabc 6f6c f6bc 6da0 41bc
-0.016163394 -0.011032827 0.0860408 -0.019975543 -0.030438421 0.0020398395 -0.02350362 0.0101469355
-0.019565549 -0.013731141 -0.015657974 -0.020416345 0.036358166 0.0018035985 0.000113694216 0.006922241
0.012681416 0.011021833 -0.00012944204 0.0067366245 -0.027238647 0.015166196 -0.0041744392 0.019442795
-0.030770672 0.0054089036 0.012215169 -0.00013329388 -0.023779733 0.004655859 -0.025832407 -0.015478315
-0.004671876 0.0020660565 -0.009321038 0.012517748 0.027939625 -0.01662858 -0.010285915 -0.016022636
-0.012672702 -0.015184785 0.019783005 0.059899185 -0.0183873 0.0070558856 -0.0027986586 0.047744453
-0.0221113 0.0054266728 0.028009541 -0.013997937 0.051119562 0.00991913 -0.025734918 0.031448912
0.003730778 -0.006370078 -0.047944345 -0.02752857 0.020390458 -0.009188727 -0.019578299 -0.016099673
-0.023078524 0.0037036382 0.010949826 0.011947441 0.03357155 -0.0037355728 -0.03701709 -0.017399905
0.008624927 0.02607945 -0.0138374865 -0.016293755 0.012656611 -0.0212407 -0.008853726 -0.0020349268
0.023799168 0.008249678 -0.014448355 -0.019959664 -0.04365896 -0.020137856 -0.0052418443 0.026956731
-0.01046867 0.032082535 -0.016780138 -0.010593283 -0.0010986561 0.019230887 0.0005304394 0.03777255
-0.010714345 -0.009767217 -0.016580828 0.0037988462 0.023589509 0.03042269 0.007140417 -0.025733968
0.013411582 0.029574923 -0.001610117 -0.011917977 -0.028533828 0.034845 -0.035544496 -0.017757952
0.002234284 0.034738913 0.0010221839 -0.018939117 -0.027751008 -0.026920468 -0.013513323 0.0039261044
-0.0030591115 -0.0098428065 -0.008477524 0.038801502 -0.0049527925 -0.030634783 -0.030081002 -0.011818034

action_model._discrete_distribution.branches.0.weight f4 [14, 128]
00000000: 51fa 8d3b ea75 a1bc d046 c8bd a1c1 a9ba
00000010: 9a02 c03c b9d3 06bd 0d37 15bc 0779 45bc
00000020: ccff 00bc f303 3fbd 383d 61bc ddef aabb
00000030: 47f7 e7bb 7c39 3cbb c501 e2bc 1fa2 31bc
00000040: 5ee1 f8bc 55d2 6abb ab98 033c 5cbc 9f3c
00000050: 67cd 60bc 780d 243c 51d8 2fbd ebc7 96bc
00000060: aaea 11bc b04f 153c 859e 05bd 29a7 ccbc
00000070: aa9e b83c 6d8b 953a b770 82bc b72e 87bb
00000080: 4888 f6bb a5a9 46bc 9979 48bc de07 11bc
00000090: 3182 a0bc 3b4a 3abc b2ba 053c 426a f9bc
000000a0: 71ea b53b d742 2bbc f027 97bc bb7d b3bc
000000b0: 2617 693a 55c8 453c 92c7 6dbb d2e1 75bc
000000c0: 5e55 7f3c 1dcb cdbc 108a bbbc 4a20 acbb
000000d0: c1ba b2bc efbe ffbc b0a6 0f3c 219c 93bc
000000e0: 6655 64bc 970a e8bc 124e 1f3b a756 afbc
000000f0: acb9 2dbc ff3c 9cbc ac46 d3bb 0084 ea3b
00000100: e019 d23b 8126 aabd 538c 3bbc 76c4 12bc
00000110: ab72 27bd 0691 103c 7645 bb3c 2fea 86bc
00000120: 2177 0e3c 5d46 53bc 5c10 c5bb 5a54 6b3c
00000130: 90b9 17bd e6d3 73bc 463e c53b 415a 8a3a
00000140: d318 83ba 372d 0bbb 5e97 6fba 9c90 47bb
00000150: 4390 56bc 4608 f1bc fc9f 01bd f2e4 9cbc
00000160: 996a 583c 811a a53c f5f5 d33a c85d 5dbc
00000170: d488 283a 34b2 81bc 5a28 01bd 73f5 3dbc
00000180: e3b9 a23b 2ecc 9ebc 661c a1bc f58d c93b
00000190: a3fc 04bc 2421 8fbc abb2 79bb 4e99 ae3c
000001a0: ad7f d3bb e42e 1ebc 3bad e2bc bd9f 18bc
000001b0: e29c a3bc 7e9a b8bc ce4f 85bc 23fb fdbb
000001c0: 0b6d 8fbc 0e74 8bbb 0844 f8bc 8050 fcba
000001d0: 1de3 bcbc f3ff 373c 556c 68bc 5bba c53c
000001e0: 318c 5a3c d0b8 73bc 3dcc 493a 34a8 43bc
000001f0: 1750 54bc 771a 3abc 2439 86bc 38ef 553c
00000200: a0c8 1c3c b407 1a3c 9112 a63d 8f06 38bc
00000210: 59b7 56bb 86a8 153b 751d ff3b 83a4 0e3d
00000220: 37e5 beba 8895 cebc dfaa 3b3c 7d9b 533c
00000230: 1de9 4a3d 0292 69bc c5ed c2bc 7552 1a3c
00000240: eac7 d63b 14d7 9f3c af4e 19bc 8b28 8fbc
00000250: 274d 9b3b 8f88 dd3c 3c5b a93c 80f2 b83b
00000260: 78ce 8b3a 33a8 75bb 456d 91bd 58e1 6f3b
00000270: bed4 46bc 8fcc 293c 7171 463b 5519 ab3a
00000280: cee2 5a3c a2ba cd3a 0832 25bc c80c 3a3b
00000290: 4bb8 4e3d 621e 8c3c 8072 78bc 2080 41bc
000002a0: aaac a0ba 06f1 9d3c 20e3 2b3d 9806 873d
000002b0: 1ae9 69bc 35a9 563b e88b 0dbd 74dc 823d
000002c0: 9198 05bc eda0 bfbb 2bea 28bd cd80 edbb
000002d0: e1a8 753d a358 1cbb 8e6d e2bc a78a 433d
000002e0: bf78 6b3c 88f5 b93c c40b 283c 4252 97bb
000002f0: 4ca6 0b3d 8675 8d3b e68a 903c e3e8 cf3b
00000300: fa7b a5bc 5cef 7dbb c897 e63c 2084 3d3d
00000310: e0f6 6d3d dc82 89bc 13db 683b f1b5 44ba
00000320: 473c 533c 9fe4 5bbc 1f04 803c 7bd6 95bc
00000330: 83a6 153c d306 85bb 4e7c ccba aa60 d4bc
00000340: f861 4d3d b35a 183d fd25 2c3c 8c2f e5ba
00000350: 0138 403c a427 8d3b a09c 88bb 37be 093d
00000360: 11c6 4f3c 1bd2 21bd 6df9 623b 8c1a 03bc
00000370: c167 573c 4003 c63c 82ff ac3b b2be 3a3d
00000380: ec78 36bb ad1e e33c 6b60 65bc e637 843c
00000390: 8006 a4bc f4ae f83c 0acd 133c aa32 c93c
000003a0: a60e 753c da84 0f3d 17e8 83bb 061d 0f3c
000003b0: 9701 4fbc 5fe9 273d af6b d13b 92d3 9e3c
000003c0: 5cfd 16bd eff5 843d fc98 153d de71 b23c
000003d0: c0af 203c 161e efbb 48d1 7f3c 2d70 fe3c
000003e0: e714 c53b b55b 24bc 8f88 9cba 5b94 053d
000003f0: 2e16 273c 7800 fa3b 1163 b83b 8cf4 733a
0.0043328186 -0.019709546 -0.097791314 -0.0012951383 0.02343874 -0.03291676 -0.009107363 -0.012052781
-0.007873487 -0.046634626 -0.013747506 -0.005216582 -0.0070790383 -0.0028720787 -0.027588734 -0.010841875
-0.030380901 -0.0035830934 0.008032004 0.019498996 -0.013720847 0.010012977 -0.042930905 -0.018405875
-0.008906046 0.009113237 -0.03262188 -0.024982052 0.022536594 0.001140935 -0.015922887 -0.004125442
-0.00752357 -0.012125407 -0.012236022 -0.008851973 -0.01959333 -0.011370237 0.008162187 -0.030446175
0.0055516292 -0.010452948 -0.01845166 -0.021910539 0.0008891694 0.012071689 -0.0036282283 -0.015007453
0.015584318 -0.025121266 -0.022892982 -0.0052528726 -0.021817567 -0.031218974 0.008767769 -0.018018784
-0.013936376 -0.028325362 0.0024308008 -0.021403624 -0.01060335 -0.019072054 -0.0064476337 0.007156849
0.006411776 -0.08308125 -0.01144703 -0.008957973 -0.04088084 0.008823639 0.02286027 -0.01646909
0.008695395 -0.012895194 -0.006013913 0.014363373 -0.0370422 -0.0148820635 0.0060193865 0.0010555462
-0.0010001905 -0.0021236667 -0.0009139682 -0.0030451184 -0.013095918 -0.02942289 -0.031646714 -0.019152138
0.013209009 0.02015424 0.0016171323 -0.013511129 0.00064290804 -0.015832044 -0.031532623 -0.011594164
0.004966007 -0.01938447 -0.019666862 0.006150956 -0.008116874 -0.017471857 -0.003810088 0.021313336
-0.006454429 -0.009654734 -0.027670493 -0.009315428 -0.019972268 -0.022534605 -0.016273405 -0.007750885
-0.01750805 -0.004255778 -0.030305877 -0.0019250065 -0.023057515 0.011230457 -0.014185985 0.024136713
0.013339088 -0.014875606 0.00076979754 -0.011941958 -0.012958548 -0.011358849 -0.016384669 0.0130575225
0.009569317 0.009401251 0.0810901 -0.011232032 -0.0032763092 0.0022836043 0.007785494 0.03482486
-0.0014564161 -0.025217786 0.011454313 0.012915489 0.04953872 -0.014256002 -0.023795018 0.009419073
0.0065545933 0.019511737 -0.009357139 -0.017475387 0.004739422 0.027042655 0.020673387 0.0056441426
0.0010666391 -0.0037484288 -0.0710092 0.0036602821 -0.012135683 0.010363712 0.0030280019 0.0013053814
0.0133597385 0.001569588 -0.010082729 0.0028388966 0.050468724 0.017104331 -0.015164018 -0.011810333
-0.0012258489 0.019279968 0.04196465 0.065930545 -0.014276767 0.0032754664 -0.034557253 0.06389704
-0.00815405 -0.0058480413 -0.041238945 -0.0072480203 0.05997551 -0.0023856543 -0.02764013 0.04773965
0.01437205 0.022700086 0.010256711 -0.00461796 0.03409414 0.0043169884 0.017644357 0.006344901
-0.020200718 -0.0038747406 0.028148547 0.046268582 0.058096766 -0.016786031 0.003553097 -0.0007503918
0.012892789 -0.013421207 0.015626965 -0.018290749 0.009133938 -0.0040596514 -0.001560101 -0.025925
0.05014226 0.037195873 0.010507104 -0.0017485484 0.011732102 0.004307704 -0.004169062 0.03362867
0.0126815 -0.039507013 0.0034633533 -0.008001935 0.013147295 0.024171472 0.0052794823 0.045592017
-0.002784307 0.027724588 -0.014000039 0.016139936 -0.02002263 0.030356862 0.009021053 0.024560291
0.014957106 0.035038806 -0.00402547 0.008734947 -0.012634656 0.040994044 0.0063910107 0.019387994
-0.036862716 0.064922206 0.03652285 0.021782812 0.009807527 -0.0072972877 0.015613861 0.031059349
0.0060144546 -0.01003163 -0.0011942553 0.032612186 0.010198159 0.0076294504 0.005627044 0.00093061547

action_model._discrete_distribution.branches.0.bias f4 [14]
00000000: fdf7 d6bc 4c4e 073d 5a70 0bbc 6a2c 17bc
00000010: 903a a9bc 1275 98bb f51c 41b9 1489 28bb
00000020: aa45 84bc 23a9 a5bc b3b0 633c 9bd4 cb3b
00000030: dda9 683c 98e7 ef3b
-0.026241297 0.033033654 -0.008510673 -0.009226898 -0.020657808 -0.0046526277 -0.00018416702 -0.002571647
-0.0161465 -0.020222252 0.013897109 0.006220413 0.014200655 0.0073213093
