results/3-15_high_eat_reward/simple_deer/simple_deer-499953.onnx (onnx, 564180 bytes, 24 tensors)

network_body.observation_encoder.processors.0.self_ent_encoder.seq_layers.0.bias f4 [128]
0.00393522 -0.009338768 0.023853691 0.004699123 0.004005431 -0.036034234 0.016446665 -0.009357277
0.032093935 0.035971828 -0.0036747002 0.0356737 -0.02189615 0.009862537 -0.022859782 0.010506572
0.0002639519 -0.04145931 0.047164597 0.030154996 0.00965842 0.030891946 0.04066018 -0.0058886907
0.020171275 -0.0031209432 -0.04158123 -0.042276554 0.02265594 0.026249623 0.015810285 -0.023477083
-0.018062718 -0.007038693 0.011910236 -0.044646144 0.019466627 -0.005623912 -0.029611595 0.018621372
-0.02991599 -0.031216301 0.013064693 -0.024067892 0.022131085 0.040220022 -0.02145128 0.019040715
0.04202749 0.00928143 -0.0013864001 0.0029457572 0.006209078 0.043164708 -0.02388941 -0.041836806
0.027366633 -0.021110643 0.026722822 0.008784982 -0.007965383 0.040861767 0.015372064 -0.0075893346
-0.03438394 -0.004928856 0.02012115 -0.023697302 -0.0065637846 -0.013204117 0.049682975 -0.029607799
-0.016572379 0.03380236 -0.013008529 -0.03482351 0.02806304 0.028361987 -0.046048064 0.0156064425
-0.005002914 -0.0037722858 -0.0110448515 0.016203294 0.001315955 0.020462666 0.013256842 0.019656358
-0.026559236 -0.03226511 -0.017836595 3.467805e-05 0.026495807 -0.038613234 -0.021051252 0.012284119
-0.011161125 -0.039598383 0.040664174 0.019059684 -0.025656696 -0.017035043 0.012513817 0.0036849165
0.010033646 -0.028245883 -0.018914785 0.036595684 -0.019340377 0.02222262 0.015025354 0.0028442664
-0.004580736 -0.031900622 0.020453034 -0.016827943 -0.049237464 0.050413873 0.017479658 -0.04571697
0.00093501655 -0.009811519 0.03278322 -0.033127494 0.006277726 0.005527586 0.0035050458 -0.039398734
00000000: 05f3 803b a201 19bc d168 c33c 1afb 993b
00000010: fe3f 833b a298 13bd 28bb 863c 444f 19bc
00000020: ee74 033d 3257 133d 3dd3 70bb 961e 123d
00000030: 8e5f b3bc 7a96 213c 7044 bbbc c223 2c3c
00000040: 0663 8a39 3dd1 29bd aa2f 413d 9c07 f73c
00000050: 5a3e 1e3c 1b11 fd3c 4a8b 263d ebf5 c0bb
00000060: 3b3e a53c bd88 4cbb 1451 2abd 2e2a 2dbd
00000070: f398 b93c 7309 d73c 9284 813c 0353 c0bc
00000080: 44f8 93bc d6a4 e6bb 2723 433c e0de 36bd
00000090: 7a78 9f3c cb48 b8bb 0494 f2bc d98b 983c
000000a0: 6112 f5bc 54b9 ffbc 4b0d 563c 072a c5bc
000000b0: 404c b53c c0bd 243d 98ba afbc 46fb 9b3c
000000c0: 0425 2c3d 2411 183c deb7 b5ba 9b0d 413b
000000d0: 8575 cb3b 7acd 303d b9b3 c3bc 125d 2bbd
000000e0: fd2f e03c 3af0 acbc d2e9 da3c e3ee 0f3c
000000f0: 3d81 02bc ab5e 273d 1cdb 7b3c f4af f8bb
00000100: 2dd6 0cbd 3e82 a1bb 1cd5 a43c d820 c2bc
00000110: 0415 d7bb 1556 58bc 6080 4b3d 0e8c f2bc
00000120: ccc2 87bc 5874 0a3d ba21 55bc 19a3 0ebd
00000130: 76e4 e53c 6657 e83c e59c 3cbd 2ab2 7f3c
00000140: 7cef a3bb 7438 77bb 77f5 34bc c5bc 843c
00000150: 1f7c ac3a 52a1 a73c 3a33 593c 5f06 a13c
00000160: c192 d9bc 6c28 04bd 0d1e 92bc 4673 1138
00000170: bc0d d93c e928 1ebd ad73 acbc 5443 493c
00000180: 27dd 36bc ea31 22bd 7a8f 263d 0e23 9c3c
00000190: fe2d d2bc 138d 8bbc c106 4d3c a47e 713b
000001a0: 2964 243c e963 e7bc 2ef3 9abc 5be5 153d
000001b0: b66f 9ebc 360c b63c e72c 763c df66 3a3b
000001c0: 001a 96bb 3aaa 02bd 1f8d a73c c1da 89bc
000001d0: 39ad 49bd c77e 4e3d 8031 8f3c b841 3bbd
000001e0: e61b 753a 7ec0 20bc b347 063d b2b0 07bd
000001f0: 62b5 cd3b c120 b53b e9b4 653b 9160 21bd

network_body.observation_encoder.processors.1.self_ent_encoder.seq_layers.0.bias f4 [128]
0.0 0.0 0.0 0.0 0.0 0.0 0.0 0.0
0.0 0.0 0.0 0.0 0.0 0.0 0.0 0.0
0.0 0.0 0.0 0.0 0.0 0.0 0.0 0.0
0.0 0.0 0.0 0.0 0.0 0.0 0.0 0.0
0.0 0.0 0.0 0.0 0.0 0.0 0.0 0.0
0.0 0.0 0.0 0.0 0.0 0.0 0.0 0.0
0.0 0.0 0.0 0.0 0.0 0.0 0.0 0.0
0.0 0.0 0.0 0.0 0.0 0.0 0.0 0.0
0.0 0.0 0.0 0.0 0.0 0.0 0.0 0.0
0.0 0.0 0.0 0.0 0.0 0.0 0.0 0.0
0.0 0.0 0.0 0.0 0.0 0.0 0.0 0.0
0.0 0.0 0.0 0.0 0.0 0.0 0.0 0.0
0.0 0.0 0.0 0.0 0.0 0.0 0.0 0.0
0.0 0.0 0.0 0.0 0.0 0.0 0.0 0.0
0.0 0.0 0.0 0.0 0.0 0.0 0.0 0.0
0.0 0.0 0.0 0.0 0.0 0.0 0.0 0.0
00000000: 0000 0000 0000 0000 0000 0000 0000 0000
00000010: 0000 0000 0000 0000 0000 0000 0000 0000
00000020: 0000 0000 0000 0000 0000 0000 0000 0000
00000030: 0000 0000 0000 0000 0000 0000 0000 0000
00000040: 0000 0000 0000 0000 0000 0000 0000 0000
00000050: 0000 0000 0000 0000 0000 0000 0000 0000
00000060: 0000 0000 0000 0000 0000 0000 0000 0000
00000070: 0000 0000 0000 0000 0000 0000 0000 0000
00000080: 0000 0000 0000 0000 0000 0000 0000 0000
00000090: 0000 0000 0000 0000 0000 0000 0000 0000
000000a0: 0000 0000 0000 0000 0000 0000 0000 0000
000000b0: 0000 0000 0000 0000 0000 0000 0000 0000
000000c0: 0000 0000 0000 0000 0000 0000 0000 0000
000000d0: 0000 0000 0000 0000 0000 0000 0000 0000
000000e0: 0000 0000 0000 0000 0000 0000 0000 0000
000000f0: 0000 0000 0000 0000 0000 0000 0000 0000
00000100: 0000 0000 0000 0000 0000 0000 0000 0000
00000110: 0000 0000 0000 0000 0000 0000 0000 0000
00000120: 0000 0000 0000 0000 0000 0000 0000 0000
00000130: 0000 0000 0000 0000 0000 0000 0000 0000
00000140: 0000 0000 0000 0000 0000 0000 0000 0000
00000150: 0000 0000 0000 0000 0000 0000 0000 0000
00000160: 0000 0000 0000 0000 0000 0000 0000 0000
00000170: 0000 0000 0000 0000 0000 0000 0000 0000
00000180: 0000 0000 0000 0000 0000 0000 0000 0000
00000190: 0000 0000 0000 0000 0000 0000 0000 0000
000001a0: 0000 0000 0000 0000 0000 0000 0000 0000
000001b0: 0000 0000 0000 0000 0000 0000 0000 0000
000001c0: 0000 0000 0000 0000 0000 0000 0000 0000
000001d0: 0000 0000 0000 0000 0000 0000 0000 0000
000001e0: 0000 0000 0000 0000 0000 0000 0000 0000
000001f0: 0000 0000 0000 0000 0000 0000 0000 0000

network_body.observation_encoder.processors.2.self_ent_encoder.seq_layers.0.bias f4 [128]
-0.021301646 0.028837986 0.0007217668 -0.002770954 -0.009902906 -0.03330226 -0.016939202 -0.0062931944
0.005886639 -0.0029087781 0.0418273 -0.01429717 -0.022381032 -0.0089526875 0.023864882 -0.023497347
0.01640707 0.020949377 -0.0036845861 0.02294213 -0.025538165 0.018176142 -0.005772419 -0.008239282
-0.043838654 -0.0109733995 -0.0028704454 -0.018443393 0.026499664 -0.026818402 -0.022661217 -0.043442056
-0.08790899 0.013272565 -0.008252585 0.017595997 0.03253915 0.01056573 0.018627685 -0.0020888827
-0.024886584 -0.00084263174 -0.019915888 0.03499587 0.043154843 0.0011174005 -0.019180063 -0.026376374
-0.0063434835 -0.007503951 0.00015225631 0.0068868515 -0.0128731 -0.003672287 -0.040955704 -0.014353581
-0.009463173 -0.008924416 0.044388425 -0.008176907 -0.039218374 -0.012141292 -0.012593547 -0.030375836
0.009151134 0.015746363 -0.024507929 -0.0045065135 -0.02350747 -0.023207163 0.0074652187 -0.006240287
-0.0019814693 -0.0011926125 -0.017868498 -0.011568529 -0.035138145 0.013030399 0.0049749524 0.04851202
-0.005772317 -0.025456598 -0.014288756 -0.03508698 0.010125905 -0.048479624 0.030326173 0.029936409
-0.013317207 -0.040791802 -0.03874798 0.029334417 0.025235917 -0.06954763 -0.03201165 0.0017384832
-0.032109037 -0.017938234 0.022928284 0.018494954 -0.009149102 -0.0027203443 -0.012872029 -0.037555117
-0.034489337 0.029799376 -0.031708553 -0.030819971 -0.01894781 -0.0051426226 0.021621663 -0.02375108
0.00917861 -0.019184764 0.028235309 -0.009738049 -0.0076273507 -0.021419447 0.03551521 -0.015184158
-0.00038160564 0.05839939 0.0042420793 -0.03276143 -0.0055598207 0.020216968 -0.02106775 0.016981635
00000000: ca80 aebc a43d ec3c f334 3d3a e598 35bb
00000010: cc3f 22bc f367 08bd 15c4 8abc 2437 cebb
00000020: b5e4 c03b 33a1 3ebb 1a53 2b3d ad3e 6abc
00000030: 6d58 b7bc 4bae 12bc 4980 c33c 827d c0bc
00000040: 1f68 863c 079e ab3c 1979 71bb 22f1 bb3c
00000050: 6a35 d1bc 22e6 943c 8f26 bdbb 0efe 06bc
00000060: 2990 33bd c6c9 33bc 151e 3cbb 9916 97bc
00000070: d315 d93c 44b2 dbbc 04a4 b9bc 4cf0 31bd
00000080: a109 b4bd 2c75 593c da35 07bc 7b25 903c
00000090: c647 053d e21b 2d3c 1699 983c a3e5 08bb
000000a0: f3de cbbc 0fe4 5cba a526 a3bc d457 0f3d
000000b0: 22c3 303d bd75 923a 821f 9dbc 4413 d8bc
000000c0: ffdc cfbb b4e3 f5bb fea6 1f39 19ab e13b
000000d0: b2e9 52bc c1aa 70bb 2bc1 27bd 482b 6bbc
000000e0: 6d0b 1bbc b737 12bc a3d0 353d 6ff8 05bc
000000f0: 72a3 20bd 45ec 46bc 2a55 4ebc bfd6 f8bc
00000100: a3ee 153c 84fe 803c dac4 c8bc 60ab 93bb
00000110: bd92 c0bc f31c bebc cb9e f43b 527b ccbb
00000120: 8adb 01bb 6f51 9cba f560 92bc ed89 3dbc
00000130: 04ed 0fbd 747d 553c ed04 a33b 8ab4 463d
00000140: b425 bdbb 5b8a d0bc 631b 6abc 5db7 0fbd
00000150: 20e7 253c 9292 46bd 986e f83c 333d f53c
00000160: 6a30 5abc 4e15 27bd 34b6 1ebd bb4e f03c
00000170: 8ebb ce3c fd6e 8ebd a61e 03bd d1dd e33a
00000180: c484 03bd 34f3 92bc 19d4 bb3c bb82 973c
00000190: 1de6 15bc ce47 32bb 34e5 52bc 65d3 19bd
000001a0: b144 0dbd d21d f43c d4e0 01bd 2a7a fcbc
000001b0: 7038 9bbc 7283 a8bb ea1f b13c a091 c2bc
000001c0: e161 163c 5e29 9dbc bc4d e73c 568c 1fbc
000001d0: dbee f9bb d677 afbc 6678 113d fac6 78bc
000001e0: 3e12 c8b9 3334 6f3d 2401 8b3b d930 06bd
000001f0: 282f b6bb 0e9e a53c 4696 acbc 121d 8b3c

network_body.observation_encoder.processors.3.normalizer.running_mean f4 [13]
0.69415563 0.2354377 0.4999895 0.30353513 0.2932709 0.4393745 0.40330482 0.68646055
0.66793436 1.2170908 1.5067687 3.0006545 3.4485874
00000000: 2fb4 313f 9516 713e a0fe ff3e f568 9b3e
00000010: 9a27 963e b2f5 e03e f87d ce3e e1bb 2f3f
00000020: bffd 2a3f a2c9 9b3f ccdd c03f b90a 4040
00000030: a8b5 5c40

network_body.observation_encoder.rsa.fc_q.bias f4 [128]
0.013399856 -0.0110648 -0.005261033 -0.023643995 -0.0011169787 0.013125203 -0.007496523 0.018022504
0.008957279 0.0029334638 0.013833916 0.0053274143 0.032520108 -0.004012287 -0.009755693 0.015848769
-0.0125572495 -0.01605675 0.017509678 -0.013742214 0.0033463042 0.0025049387 0.0163997 0.0062737186
-0.0071397405 0.0039303345 0.005655345 0.011384556 -0.023452183 0.0043308106 -0.009835348 -0.014081873
0.012885256 0.00318116 -0.021897236 -0.017021805 0.0217293 0.005154175 0.021709837 -0.0018234884
-0.004114346 0.0059530362 0.0150444135 0.017227763 0.019381378 -0.011730751 -0.0051130876 -0.0057238084
0.0015027416 0.019765453 -0.00118492 -0.0035181802 0.021829586 -0.017965488 -0.0025257163 0.00525783
0.0046587475 -0.0027100602 0.0008791949 -0.008565877 0.004858926 0.0013227053 0.009988726 0.008319885
-0.0018847312 0.009118991 -0.0025733921 -0.003332291 -0.0084356405 0.016982483 -0.0067521753 0.0017998155
-0.011414372 -0.008319365 -0.0073082605 0.011738211 -0.011145395 -0.010008332 0.003627671 0.011630784
0.0023178419 0.013763682 -0.019082077 -0.0017187265 -0.017454032 0.005258492 0.0010276248 0.0004381942
-0.004805311 0.018058227 0.0019480414 0.0031849106 -0.0009304437 0.014224741 0.0012347912 0.012870457
0.022824896 -0.018100822 -0.0066995025 -0.010028821 -0.0072844075 0.0017869731 0.017901534 -0.026608543
0.012314068 0.008226117 -0.015249606 0.0031281752 0.014788192 0.010694976 -0.0068572583 -0.0075536286
-0.0043429034 -0.007127902 0.028576292 -0.01735096 0.0127601465 -0.0087055685 -0.022332588 -0.020557897
0.010917807 -0.01097203 0.012240812 -0.0011596434 0.010175749 0.0073929257 0.021049213 -0.00016590444
00000000: 128b 5b3c 2349 35bc be64 acbb 0db1 c1bc
00000010: 9667 92ba 170b 573c 65a5 f5bb eea3 933c
00000020: 8dc1 123c 5b3f 403b a6a7 623c 9791 ae3b
00000030: ce33 053d 8179 83bb 58d6 1fbc 47d5 813c
00000040: ecbc 4dbc 7289 83bc 7570 8f3c 0627 61bc
00000050: ab4d 5b3b e629 243b aa58 863c c493 cd3b
00000060: 7cf4 e9bb 09ca 803b 7950 b93b 4a86 3a3c
00000070: cb1e c0bc 79e9 8d3b 7124 21bc a8b7 66bc
00000080: ae1c 533c 027b 503b d561 b3bc 5071 8bbc
00000090: a501 b23c 5be4 a83b d4d8 b13c 1e02 efba
000000a0: a3d1 86bb b011 c33b d87c 763c 3d21 8d3c
000000b0: b2c5 9e3c 5632 40bc b08b a7bb c98e bbbb
000000c0: a4f7 c43a 29eb a13c 514f 9bba 4591 66bb
000000d0: f6d3 b23c 5c2c 93bc 7d86 25bb e049 ac3b
000000e0: 68a8 983b 449b 31bb c579 663a e457 0cbc
000000f0: a037 9f3b a05e ad3a c1a7 233c 2050 083c
00000100: 1609 f7ba d267 153c 5ba6 28bb 9162 5abb
00000110: a435 0abc d91e 8b3c 5a41 ddbb c9e7 eb3a
00000120: 5903 3bbc f24d 08bc 227a efbb a051 403c
00000130: 2d9b 36bc fdf9 23bc 38be 6d3b 0b8f 3e3c
00000140: efe6 173b 1181 613c 0452 9cbc e446 e1ba
00000150: c2fb 8ebc 6e4f ac3b 5eb1 863a 6ebd e539
00000160: df75 9dbb d9ee 933c 6c55 ff3a efb9 503b
00000170: 05e9 73ba e30e 693c b8d8 a13a 9cde 523c
00000180: 47fb ba3c 2d48 94bc 8087 dbbb ed4f 24bc
00000190: 0ab2 eebb de38 ea3a 3da6 923c 29fa d9bc
000001a0: f2c0 493c d6c6 063c 7cd9 79bc 1202 4d3b
000001b0: 2c4a 723c fb39 2f3c dab2 e0bb 6e84 f7bb
000001c0: ea4e 8ebb 2d91 e9bb d418 ea3c 9a23 8ebc
000001d0: ef0f 513c cda1 0ebc d5f2 b6bc 0969 a8bc
000001e0: 9ae0 323c 08c4 33bc b08d 483c 2dff 97ba
000001f0: 2fb8 263c 5b40 f23b 666f ac3c a2f6 2db9

network_body.observation_encoder.rsa.fc_k.bias f4 [128]
-3.2335716e-05 -1.9781532e-05 -5.1325867e-05 -1.3437855e-05 7.953908e-05 2.4288966e-05 2.3415952e-05 1.7628347e-05
-3.1731746e-05 -1.05959125e-05 4.3995933e-05 -1.3639695e-05 0.00012910788 8.119925e-05 -2.7437036e-05 7.845411e-05
-6.654942e-05 -9.7378776e-05 7.766007e-05 3.8821723e-05 -1.0954635e-06 -3.6870035e-05 -8.393864e-05 -1.4585155e-05
4.5703615e-05 -1.784279e-05 -2.4808645e-05 -3.1916286e-05 -8.080878e-06 7.023624e-05 -1.5302585e-05 5.1196246e-05
5.0258877e-06 -0.00011683555 8.990977e-05 3.0098992e-05 -8.0900514e-05 1.3318934e-05 -0.000104794635 0.00016099276
4.4242483e-05 7.036677e-05 0.00035294786 -2.9593164e-05 -6.5797045e-05 -0.00017385716 -0.00020101304 -0.00020069205
0.00012915568 1.4958517e-05 -0.00016749321 0.00022584191 -8.430999e-05 -0.00027794292 0.0002027757 0.00025810182
-6.585978e-05 -0.00015940882 -0.000118707125 -0.0002169091 0.00024373794 -0.0001364967 0.0002122609 0.00014963397
8.9748806e-05 0.00013840833 0.000139392 5.005806e-05 0.000106188425 1.04886985e-05 -0.00013545108 0.00012315228
0.00013382714 -8.603091e-05 -0.0001736226 -6.1604995e-05 -2.2101892e-06 1.0232282e-05 -8.580855e-05 0.00019414659
-0.00013804011 6.0766015e-05 8.789888e-05 4.4112756e-05 -0.00013246512 0.00012949451 0.00012064883 -0.00012146761
-0.00016169192 -4.7288067e-05 0.00022756927 -9.0711226e-05 -0.00014353853 -1.72328e-05 -0.00010679228 -8.6756874e-05
-3.175294e-05 2.261511e-05 -2.7354696e-05 -3.1893705e-06 6.036904e-05 -9.852729e-05 -2.0961888e-05 7.223812e-05
2.4386274e-05 -1.570358e-05 6.9318953e-06 -5.9667087e-05 5.837263e-05 -3.8486032e-05 2.4479878e-06 -7.167529e-05
-3.587224e-05 -2.9192493e-05 -5.136757e-05 -7.93487e-06 4.1988733e-05 -5.4234744e-05 -3.5187073e-05 -2.6911417e-05
-8.360392e-05 5.4273532e-06 1.1065906e-05 9.4822135e-05 -1.0421914e-05 5.057657e-05 -3.5447454e-06 -8.580289e-05
00000000: 36a0 07b8 84f0 a5b7 bb46 57b8 2673 61b7
00000010: 38ce a638 28c0 cb37 606d c437 96e0 9337
00000020: b417 05b8 19c5 31b7 4688 3838 0bd6 64b7
00000030: 2261 0739 8449 aa38 9628 e6b7 bb87 a438
00000040: 7390 8bb8 d537 ccb8 6fdd a238 82d4 2238
00000050: d707 93b5 e6a4 1ab8 3708 b0b8 c4b2 74b7
00000060: e2b1 3f38 1aad 95b7 291c d0b7 dadd 05b8
00000070: 1b93 07b7 cb4b 9338 0d5e 80b7 8dbb 5638
00000080: 0ca4 a836 9c05 f5b8 f18d bc38 187d fc37
00000090: 22a9 a9b8 6374 5f37 31c5 dbb8 2ad0 2839
000000a0: 0191 3938 df91 9338 dc0b b939 d63e f8b7
000000b0: 85fc 89b8 6d4d 36b9 07c7 52b9 dd70 52b9
000000c0: f76d 0739 57f6 7a37 1ea1 2fb9 facf 6c39
000000d0: 95cf b0b8 deb8 91b9 30a0 5439 d751 8739
000000e0: 331e 8ab8 fb26 27b9 67f2 f8b8 1872 63b9
000000f0: e893 7f39 8e20 0fb9 5a92 5e39 10e7 1c39
00000100: 8637 bc38 b421 1139 c129 1239 6ff5 5138
00000110: 7ab1 de38 9ef8 2f37 df07 0eb9 7022 0139
00000120: f353 0c39 7e6b b4b8 760e 36b9 ee31 81b8
00000130: c352 14b6 51ab 2b37 1df4 b3b8 d493 4b39
00000140: dcbe 10b9 03df 7e38 5a56 b838 b605 3938
00000150: 56e6 0ab9 ebc8 0739 d904 fd38 6dbc feb8
00000160: d88b 29b9 2d57 46b8 a99f 6e39 383c beb8
00000170: d582 16b9 288f 90b7 abf5 dfb8 3ef1 b5b8
00000180: 762e 05b8 94b5 bd37 c377 e5b7 f808 56b6
00000190: c334 7d38 70a0 ceb8 50d7 afb7 8c7e 9738
000001a0: 2091 cc37 2ebb 83b7 8798 e836 0c43 7ab8
000001b0: 22d5 7438 106c 21b8 1c48 2436 6150 96b8
000001c0: 8675 16b8 67e2 f4b7 8273 57b8 0220 05b7
000001d0: 0f1d 3038 1d7a 63b8 d595 13b8 d4bf e1b7
000001e0: 8354 afb8 9c1c b636 b4a7 3937 3fdb c638
000001f0: c8d9 2eb7 2e22 5438 43e2 6db6 13f1 b3b8

network_body.observation_encoder.rsa.fc_v.bias f4 [128]
0.024635216 -0.02121006 -0.00747219 -0.024792645 -0.023722751 -0.001974626 -0.017421288 -0.03975596
0.0041486253 0.03156384 0.013218156 0.020255113 0.026147656 0.045351908 0.034797132 -0.020005386
0.027847502 0.040898476 0.01358989 0.0105980905 0.0003315234 -0.06374905 0.04142095 -0.015811006
-0.0009015372 -0.0054473365 -0.004516762 -0.00046472903 0.00954015 0.021714432 -0.03356604 0.023534205
0.019008655 -0.0037040692 -0.0307695 0.0061043077 0.032158922 -0.0049592154 0.015015119 0.016805075
0.038714714 -0.017953824 -0.04038212 0.0283376 -0.010681897 -0.016304936 0.0143630095 0.0019963654
0.020809475 -0.011835615 0.02176066 -0.011552476 0.01637197 -0.0029196525 -0.015600907 0.005485385
0.0077089025 0.003577303 -0.021758988 0.029420245 -0.04587548 0.008805553 -0.008450752 0.0366245
-0.027231218 0.041670673 -0.024824403 -0.02085255 0.0318171 -0.010231411 -0.018429242 -0.02135595
0.031625472 0.0021021047 -0.025920544 0.021903042 -0.029774697 0.043515608 0.011604976 -0.006753143
0.008740167 0.021451239 -0.012713132 0.04018129 -0.02792422 -0.019943934 0.013854468 0.0044047013
0.014308791 0.0019083204 -0.008624991 0.019669576 -0.019444702 0.019375712 -0.029823968 0.02928513
-0.026602712 -0.013296053 -0.0047233906 -0.03292557 0.014121148 0.00558638 0.02685897 0.009701534
0.038103472 -0.02416119 0.017011102 -0.023702266 -0.013287124 -0.02276561 0.010256932 -0.015730254
0.009175408 -0.022006415 0.0130409775 -0.016016359 0.026375344 -0.0008201658 -0.038103044 -0.0069553177
0.008129513 0.003211208 -0.00210616 -0.02272529 -0.0085135 0.008840767 -0.018753693 0.034366675
00000000: cbcf c93c b8c0 adbc 46d9 f4bb f219 cbbc
00000010: 3756 c2bc ba68 01bb 17b7 8ebc 25d7 22bd
00000020: 31f1 873b 1649 013d f790 583c 0dee a53c
00000030: 9c33 d63c ecc2 393d 7087 0e3d 56e2 a3bc
00000040: 7220 e43c 2985 273d 21a8 5e3c 9da3 2d3c
00000050: 51d0 ad39 dd8e 82bd 04a9 293d 1586 81bc
00000060: 2355 6cba 927f b2bb 5901 94bb e0a6 f3b9
00000070: 4a4e 1c3c 77e2 b13c 8b7c 09bd ceca c03c
00000080: 0ab8 9b3c f8bf 72bb 5210 fcbc a506 c83b
00000090: 13b9 033d ea80 a2bb f901 763c ccaa 893c
000000a0: 5293 1e3d e613 93bc b967 25bd 4124 e83c
000000b0: 2003 2fbc ee91 85bc d452 6b3c 74d5 023b
000000c0: a278 aa3c 2bea 41bc 6943 b23c 9946 3dbc
000000d0: 821e 863c a457 3fbb f29a 7fbc bfbe b33b
000000e0: f69a fc3b 2f71 6a3b e83f b2bc ba02 f13c
000000f0: ede7 3bbd 2b45 103c 0675 0abc 9203 163d
00000100: 0114 dfbc deae 2a3d 8c5c cbbc f8d2 aabc
00000110: a652 023d a6a1 27bc ecf8 96bc acf2 aebc
00000120: b689 013d 77c3 093b 5257 d4bc 026e b33c
00000130: 11ea f3bc 6c3d 323d cc22 3e3c 7849 ddbb
00000140: eb32 0f3c 82ba af3c be4a 50bc 2395 243d
00000150: 55c1 e4bc 7661 a3bc dafd 623c 5055 903b
00000160: 6b6f 6a3c 9b20 fa3a d64f 0dbc 1722 a13c
00000170: 7f4a 9fbc d0b9 9e3c 6551 f4bc 5ee7 ef3c
00000180: eeed d9bc b0d7 59bc acc6 9abb f6dc 06bd
00000190: 635c 673c f40d b73b 5807 dc3c 2ff3 1e3c
000001a0: 6312 1c3d b0ed c5bc de5a 8b3c 412b c2bc
000001b0: 3db2 59bc f27e babc b10c 283c bcdc 80bc
000001c0: 7354 163c cc46 b4bc d3a9 553c bd34 83bc
000001d0: 1b11 d83c 6500 57ba f011 1cbd 6fe9 e3bb
000001e0: a631 053c 2173 523b 8007 0abb 632a babc
000001f0: 357c 0bbc ddd8 103c 58a1 99bc 12c4 0c3d

network_body.observation_encoder.rsa.fc_out.bias f4 [128]
-0.058801733 -0.02236636 0.035539895 0.020355023 0.0009009343 -0.0149729755 0.058860827 -0.007999605
0.010561012 0.023614623 0.0055563822 0.051323872 -0.032057937 0.014543495 -0.023648864 -0.048735816
0.030430824 -0.025709815 0.045126583 0.008945909 0.004291556 0.021300638 0.030449284 0.008773989
-0.012894234 -0.0137012275 -0.007666355 -0.018165236 0.052091528 -0.017654737 -0.03421245 -0.005587005
-0.030661637 -0.02630016 -0.00453843 -0.011619914 0.014474245 -0.010507773 -0.02569176 0.012484268
-0.019069253 -0.013901773 0.023090143 -0.016806016 0.0035411662 0.053832058 -0.013569605 0.03639226
0.032990616 0.0059706504 0.034278702 0.019291673 0.011058329 0.02287912 -0.032984916 -0.0074145705
0.005005638 -0.028205594 0.023301223 0.0059612957 -0.02787849 0.027212739 0.025599351 0.028966166
-0.016107468 -0.0076254066 -0.016476735 -0.0069196466 -0.029997582 -0.030658336 0.010375327 -0.0076328726
-0.031912025 0.028875979 -0.020944776 -0.017929578 0.026162509 0.0056571886 -0.021129431 0.020993505
-0.025686342 -0.030793281 -0.006756011 0.02980939 -0.004442017 0.029489847 0.017755628 0.031408697
-0.02695663 -0.047770828 -0.025471132 -0.008318509 0.014117734 -0.018195217 -0.007312438 0.020171538
0.018145382 -0.012317326 0.0650052 0.035155535 -0.037924737 -0.026085414 -0.01934539 -0.0026930228
0.026351662 -0.020484347 0.014573934 0.00034602807 -0.022343123 0.013519022 0.020767605 0.005126334
-0.001092236 -0.019518618 0.018924283 -0.024672778 -0.028518055 0.023799215 -0.0059494805 -0.04076366
-0.01872503 0.014870922 0.02977582 -0.028794661 0.010592269 0.024384573 0.017729674 -0.018784214
00000000: 16da 70bd a839 b7bc 4892 113d 94bf a63c
00000010: ad2c 6c3a 3651 75bc 0d18 713d c610 03bc
00000020: 1808 2d3c 7473 c13c 5012 b63b fb38 523d
00000030: 2f4f 03bd d747 6e3c 43bb c1bc 359f 47bd
00000040: 104a f93c 649d d2bc a7d6 383d dd91 123c
00000050: 2ea0 8c3b ad7e ae3c c770 f93c c7c0 0f3c
00000060: 5642 53bc 1d7b 60bc 0c36 fbbb 43cf 94bc
00000070: ed5d 553d aba0 90bc 5b22 0cbd 3213 b7bb
00000080: 1d2e fbbc 6f73 d7bc 1cb7 94bb 7461 3ebc
00000090: 6225 6d3c cb28 2cbc 8777 d2bc d18a 4c3c
000000a0: 1f37 9cbc 43c4 63bc 8a27 bd3c c5ac 89bc
000000b0: e912 683b 017f 5c3d 0c53 5ebc 0d10 153d
000000c0: 2b21 073d 72a5 c33b d367 0c3d 9209 9e3c
000000d0: fe2d 353c fe6c bb3c 311b 07bd edf5 f2bb
000000e0: 5606 a43b 6b0f e7bc 35e2 be3c f956 c33b
000000f0: 6e61 e4bc 40ed de3c bbb5 d13c 744a ed3c
00000100: cff3 83bc 8cde f9bb 38fa 86bc 34be e2bb
00000110: 7dbd f5bc 3127 fbbc 47fd 293c 2d1d fabb
00000120: 2fb6 02bd 518d ec3c 6194 abbc 0de1 92bc
00000130: c252 d63c f05f b93b a117 adbc 92fa ab3c
00000140: 2a6c d2bc 3142 fcbc 8761 ddbb d232 f43c
00000150: 578e 91bb b194 f13c 4074 913c 68a6 003d
00000160: 27d4 dcbc 58ab 43bd d6a8 d0bc 5b4a 08bc
00000170: 114e 673c 230e 95bc 2d9d efbb c83e a53c
00000180: a0a5 943c 9cce 49bc 7221 853d 40ff 0f3d
00000190: f856 1bbd 14b1 d5bc 397a 9ebc 6d7d 30bb
000001a0: 71df d73c cace a7bc 82c7 6e3c 1a6b b539
000001b0: ed08 b7bc e37e 5d3c d320 aa3c cefa a73b
000001c0: 5c29 8fba 82e5 9fbc 1907 9b3c 911e cabc
000001d0: b29e e9bc 92f6 c23c dcf3 c2bb ccf7 26bd
000001e0: 3c65 99bc 2ba5 733c 6cec f33c c8e2 ebbc
000001f0: 328b 2d3c 28c2 c73c d23d 913c 5ae1 99bc

network_body.observation_encoder.x_self_encoder.seq_layers.0.weight f4 [128, 13]
0.036229156 0.07666844 0.02886605 -0.030833822 0.015097117 0.01626808 -0.015017734 0.0119853355
0.044043593 0.040063333 -0.0058865948 -0.033736754 0.061853595 0.047442332 -0.016773919 -0.0061942297
0.04402654 -0.025741402 -0.022214223 -0.031625614 0.048314314 0.03267899 -0.032210726 0.006448118
0.025211234 0.043881208 0.015142886 -0.0031275612 0.027012007 -0.02914139 -0.000512816 -0.02064238
-0.03914932 0.021579294 -0.017791698 -0.018550811 -0.040952265 -0.003701335 0.0013341391 -0.011615421
-0.0035067187 0.030361833 0.073907144 0.0068474943 0.08182906 0.045991793 0.0026097698 -0.033855848
0.02787204 -0.043648336 -0.00045899264 0.03760863 -0.041223366 -0.07116512 -0.026171846 -0.03402727
-0.018033383 -0.016122703 -0.014524074 -0.040431883 0.0061956374 0.001025173 -0.026193224 0.00945979
-0.0007808922 0.08349291 0.075302094 0.018617239 -0.032853533 -0.060179237 0.014277634 -0.0052790497
0.034582593 -0.022070734 0.05079689 0.0053144274 0.043587837 0.048722982 -0.036714975 -0.006366321
0.03586863 0.022624983 0.00041390894 -0.050487142 -0.058144893 -0.005192551 -0.031166714 -0.0042327447
0.012894683 0.037048236 0.007846382 -0.017502446 0.04876315 -0.009471937 0.034552354 0.028989479
0.04624104 -0.025255108 0.0545173 0.02713004 -0.012452322 0.012486672 -0.032398738 0.006119701
0.0171578 0.03651638 -0.0063745403 0.03901696 0.00862111 0.075462356 0.008658674 0.07020335
0.06446707 0.0034148623 0.002674596 0.009866821 0.026437746 0.051590394 -0.0038279253 -0.02020301
0.031517334 0.043270808 0.09544153 0.027437674 0.033772334 0.08053627 0.0015110779 0.029641699
0.05115895 0.017835138 0.0003420496 -0.0060761245 0.0009821387 0.040713105 0.04629661 0.036861856
-0.05244478 -0.00993357 0.035764616 0.02969989 0.04925075 0.002112064 0.033807773 0.060988154
0.077372916 0.0080095995 0.004948965 -0.016541906 -0.046540037 0.032451745 0.004899046 0.015465567
-0.06787444 -0.06870361 0.014639435 0.00832787 -0.031555507 -0.018917201 -0.07241947 -0.08465943
-0.03282515 -0.04363385 0.0035435767 0.0033949162 -0.04827094 -0.026775151 0.025520597 -0.030512657
0.018763147 0.024982272 -0.031379193 -0.04236823 0.007576713 0.017689038 0.047292214 0.08506455
0.03475449 0.010064078 0.038590588 0.02951791 -0.032088004 0.04140829 0.007614849 0.042059008
-0.017046295 -0.04235014 -0.023719234 0.03167161 -0.015060709 0.040161528 0.004676765 0.012861423
-0.022651589 -0.0032954253 0.02825497 0.078643486 -0.026871782 -7.1558665e-05 -0.002291167 0.046371724
-0.00046186938 0.040329844 -0.024277676 -0.008478969 -0.007941711 -0.018498566 0.034709316 0.016838714
0.040831625 0.047966585 -0.011371287 -0.020095682 0.0068204114 0.011734981 0.005567856 -0.0055203456
0.048234217 -0.018637577 -0.0318442 0.015118931 -0.0005331832 -0.023257261 -0.02631478 -0.043132525
0.021351326 0.023318578 -0.08623305 -0.08817402 0.05745991 -0.03073003 -0.0147929955 -0.021920417
-0.053816747 -0.008244934 -0.008973041 0.003429912 0.015321171 0.009511599 0.05639063 0.05565533
0.0012369752 0.012132289 -0.01831234 0.053389523 0.028949717 -0.020928826 0.07222891 0.036145207
0.021614486 0.023301676 0.026105976 -0.016338207 0.008541981 -0.034034844 -0.006373468 0.027162666
00000000: 0665 143d 5804 9d3d 7f78 ec3c 3697 fcbc
00000010: e659 773c a344 853c f10c 76bc 245e 443c
00000020: 0e67 343d 7319 243d 56e4 c0bb 8d2f 0abd
00000030: 325a 7d3d e452 423d 7569 89bc f7f8 cabb
00000040: 2c55 343d a2df d2bc 9afa b5bc dc89 01bd
00000050: 3be5 453d 68da 053d 65ef 03bd bc4a d33b
00000060: ca87 ce3c c8bc 333d de19 783c c5f7 4cbb
00000070: 4948 dd3c edb9 eebc 806e 06ba 351a a9bc
00000080: 0a5b 20bd 0fc7 b03c e5bf 91bc dff7 97bc
00000090: 90bd 27bd 1992 72bb 48de ae3a 9b4e 3ebc
000000a0: fad0 65bb 61b9 f83c a15c 973d f260 e03b
000000b0: ff95 a73d e461 3c3d ac08 2b3b 6eac 0abd
000000c0: e853 e43c 99c8 32bd f3a4 f0b9 820b 1a3d
000000d0: d5d9 28bd 05bf 91bd 5766 d6bc 2e60 0bbd
000000e0: bfba 93bc c213 84bc 62f6 6dbc e79b 25bd
000000f0: c604 cb3b 195f 863a 2c93 d6bc 3cfd 1a3c
00000100: cab4 4cba 55fe aa3d fc37 9a3d 2e83 983c
00000110: 6d91 06bd 817e 76bd bdec 693c e1fb acbb
00000120: 7aa6 0d3d afcd b4bc 6610 503d a624 ae3b
00000130: 2989 323d c091 473d 7162 16bd 929c d0bb
00000140: fcea 123d 0758 b93c eb01 d939 9bcb 4ebd
00000150: 5729 6ebd 4626 aabb 5651 ffbc d6b2 8abb
00000160: 3844 533c e4bf 173d 1d8e 003c 4a61 8fbc
00000170: debb 473d 2f30 1bbc c586 0d3d 587b ed3c
00000180: 3f67 3d3d cde3 cebc 884d 5f3d d13f de3c
00000190: d304 4cbc e694 4c3c 8ab4 04bd c687 c83b
000001a0: 848e 8c3c 3392 153d 85e1 d0bb 3fd0 1f3d
000001b0: 8e3f 0d3c 028c 9a3d 1cdd 0d3c c6c6 8f3d
000001c0: 5007 843d e2cb 5f3b 4648 2f3b 72a8 213c
000001d0: f993 d83c 7350 533d eedd 7abb c880 a5bc
000001e0: 5218 013d bb3c 313d d976 c33d f9c4 e03c
000001f0: dc54 0a3d 33f0 a43d 5c0f c63a 26d3 f23c
00000200: 0c8c 513d ff1a 923c 1f55 b339 3a1a c7bb
00000210: 1bbb 803a c9c2 263d 84a1 3d3d 75fc 163d
00000220: 56d0 56bd 6ac0 22bc eb7d 123d 2f4d f33c
00000230: 28bb 493d 8e6a 0a3b 057a 0a3d b7ce 793d
00000240: b175 9e3d b23a 033c ed2a a23b e482 87bc
00000250: c4a0 3ebd 1fec 043d 2d88 a03b 4a63 7d3c
00000260: c101 8bbd 7ab4 8cbd 3eda 6f3c 9e71 083c
00000270: 5940 01bd 3ff8 9abc a950 94bd ec61 adbd
00000280: aa73 06bd 68b9 32bd 5a3b 683b 3e7d 5e3b
00000290: c0b7 45bd 9057 dbbc 9210 d13c aef5 f9bc
000002a0: 2cb5 993c 9fa7 cc3c 7887 00bd 4f8a 2dbd
000002b0: 1346 f83b 9ae8 903c 7bb5 413d 5336 ae3d
000002c0: b95a 0e3d cde3 243c 2a11 1e3d 8bcf f13c
000002d0: b66e 03bd bd9b 293d fc85 f93b 1146 2c3d
000002e0: aca4 8bbc 5777 2dbd d74e c2bc 17ba 013d
000002f0: 31c1 76bc 6a80 243d 8c3f 993b b8b8 523c
00000300: d38f b9bc 10f8 57bb f876 e73c d60f a13d
00000310: 3622 dcbc c411 96b8 6727 16bb 47f0 3d3d
00000320: 0f27 f2b9 e830 253d fae1 c6bc 60eb 0abc
00000330: f31d 02bc 4e8a 97bc 5b2b 0e3d 58f1 893c
00000340: 103f 273d 9c78 443d a24e 3abc b39f a4bc
00000350: c27d df3b 1444 403c 9072 b63b 04e4 b4bb
00000360: 3e91 453d d5ad 98bc 106f 02bd 65b5 773c
00000370: 52c5 0bba 0386 bebc 1892 d7bc bbab 30bd
00000380: fae8 ae3c 9a06 bf3c f49a b0bd 9594 b4bd
00000390: 155b 6b3d 8bbd fbbc 525e 72bc 7292 b3bc
000003a0: f36e 5cbd c215 07bc a903 13bc 60c8 603b
000003b0: a605 7b3c 8ad6 1b3c dcf9 663d d8f6 633d
000003c0: 0022 a23a 82c6 463c c303 96bc f9ae 5a3d
000003d0: f527 ed3c ee72 abbc c0ec 933d ff0c 143d
000003e0: dd10 b13c 28e3 be3c 33dc d53c b4d7 85bc
000003f0: aaf3 0b3c 1f68 0bbd 86d8 d0bb 3d84 de3c

network_body.observation_encoder.x_self_encoder.seq_layers.0.bias f4 [128]
-0.012332872 0.006859552 0.022385165 0.029047906 -0.017795913 0.008555426 -0.0102613 0.01634731
0.02492822 0.021031158 0.029160893 0.0006907581 -0.031526804 -0.0136961015 -0.029126754 0.006633621
-0.0031138195 0.019035885 -0.02058412 0.010000993 0.02319832 -0.012080424 0.024189342 -0.020074254
-0.007762971 -0.00829055 0.0061616893 -0.00017047967 0.023898337 -0.020157838 0.024860216 -0.01132049
0.021412391 0.014363431 0.032201566 -0.01691353 0.00774835 0.018136846 -0.014651374 -0.022845717
0.022839759 -0.0017244986 0.009157371 0.0008849322 0.0507935 0.001877803 0.0075745955 -0.027055468
0.049930677 -0.012557137 0.019555446 -0.0031434484 0.043285716 -0.018817715 0.0085966205 -0.023690036
-0.017776884 0.017915457 -0.001778997 0.017662715 0.021013705 -0.02014367 -0.0042840573 0.017647834
-0.008052952 -0.010557125 -0.008732788 0.028798608 0.028614677 0.021982796 0.008810544 0.023998525
0.03158714 -0.025210561 0.011108854 0.018576073 0.023204463 -0.004547974 0.020467445 0.020935547
-0.014723293 0.017688124 0.040799312 -0.019389817 0.030976295 -0.015450469 -0.0060633044 0.012197135
0.024974393 0.008468444 -0.043897904 -0.020173546 -0.009616699 -0.01410071 0.00030156187 -0.004435977
0.014895666 0.024532538 -0.020918516 -0.00869597 -0.012606487 0.019506698 0.006069242 -0.0077149
0.009766315 -0.037058398 -0.01310917 0.028023677 0.02576881 0.031162709 0.029751021 0.016179996
-0.009472035 -0.018816268 0.020358244 0.018033694 -0.026846606 -0.015047173 0.02703173 0.021013996
0.010093553 -0.0011137779 -0.015433245 -0.0020176012 0.025352893 -0.005903731 0.02191519 -0.005059499
00000000: d00f 4abc 18c6 e03b 1861 b73c e0f5 ed3c
00000010: bcc8 91bc 0f2c 0c3c 031f 28bc cbea 853c
00000020: 4436 cc3c 8949 ac3c d3e2 ee3c fe13 353a
00000030: 4022 01bd 9d65 60bc 3b9b eebc d95e d93b
00000040: 3911 4cbb 25f1 9b3c 07a0 a8bc 34db 233c
00000050: 670a be3c f9ec 45bc ba28 c63c c372 a4bc
00000060: 8560 febb 16d5 07bc ffe7 c93b cac2 32b9
00000070: 72c6 c33c 0d22 a5bc a7a7 cb3c 9479 39bc
00000080: 0a69 af3c 9954 6b3c cae5 033d 3e8e 8abc
00000090: dfe5 fd3b b993 943c 510c 70bc f126 bbbc
000000a0: 721a bb3c 9208 e2ba cc08 163c cbfa 673a
000000b0: d80c 503d 9d20 f63a 5034 f83b 6ea3 ddbc
000000c0: 1c84 4c3d 73bc 4dbc be32 a03c 5002 4ebb
000000d0: 5d4c 313d 9c27 9abc d7d8 0c3c 9b11 c2bc
000000e0: d4a0 91bc 70c3 923c 3c2d e9ba 66b1 903c
000000f0: ef24 ac3c 5604 a5bc 4761 8cbb 3192 903c
00000100: 87f0 03bc cbf7 2cbc f813 0fbc 0feb eb3c
00000110: 5469 ea3c 4415 b43c 1a5a 103c 8e98 c43c
00000120: 8461 013d 6186 cebc e901 363c d92c 983c
00000130: 4917 be3c 2c07 95bb 58ab a73c 0681 ab3c
00000140: f739 71bc afe6 903c 2e1d 273d 65d7 9ebc
00000150: 00c2 fd3c f723 7dbc afae c6bb 7ed6 473c
00000160: 1997 cc3c 3bbf 0a3c 4ace 33bd fe42 a5bc
00000170: 5c8f 1dbc aa06 67bc f31a 9e39 ac5b 91bb
00000180: f40c 743c 76f8 c83c 4f5d abbc 8b79 0ebc
00000190: 708b 4ebc 83cc 9f3c 7ee0 c63b 46cd fcbb
000001a0: e502 203c 8cca 17bd d8c7 56bc e991 e53c
000001b0: 1d19 d33c f048 ff3c 6ab8 f33c e98b 843c
000001c0: 9830 1bbc 9324 9abc 55c6 a63c 66bb 933c
000001d0: 6aed dbbc 6b88 76bc a671 dd3c 8b25 ac3c
000001e0: 6e5f 253c 2ffc 91ba b9db 7cbc bb39 04bb
000001f0: dfb0 cf3c 1674 c1bb 7c87 b33c 27ca a5bb

network_body._body_endoder.seq_layers.0.weight f4 [64, 141]
-0.06365894 -0.023911478 0.013320989 -0.008230636 -0.11999983 0.14014503 -0.027741322 0.07636023
0.11309856 0.057986215 -0.095232375 0.15476736 0.2044596 0.010661151 -0.048158094 -0.09469272
-0.07281645 -0.08313552 -0.10329062 0.19439182 0.06802244 0.057727087 0.03164733 0.106016785
0.02862199 0.015659688 0.12552275 -0.11939988 -0.2160423 0.13338146 0.019086044 -0.005782785
0.06120273 0.046956185 0.14508303 0.051674176 0.06760892 -0.09335151 -0.023888366 -0.03696988
-0.046692923 0.10738127 0.055069182 0.16211203 -0.22471456 0.036600575 0.10019548 0.13855879
-0.012810747 -0.031790186 -0.063980244 -0.18840066 0.16958165 -0.12075079 0.018204335 0.082092315
-0.21039978 0.0014698858 -0.018843332 -0.054697666 0.14101374 0.13435984 0.105633005 0.013136337
0.08516685 0.065060094 -0.0002626863 -0.097213514 0.009153335 0.07406396 0.0012259395 0.13920194
-0.034595985 -0.072190255 0.10712427 -0.0290267 -0.05839822 -0.117797986 -0.04372936 -0.09102097
-0.22319382 0.026870346 0.18390559 0.16395184 -0.18512836 -0.014228937 0.13858604 -0.15104017
-0.055860657 0.016206175 0.10285635 -0.13369338 0.058859732 0.1428293 -0.08196889 -0.028003827
0.03948689 0.0024723304 0.0032454059 0.013073192 0.097184025 -0.28021717 0.059717458 -0.021883262
0.052671615 0.042232957 -0.00096726575 -0.01491443 0.15104729 -0.07130246 -0.18609625 -0.04274166
0.08635017 -0.021111608 -0.067595266 -0.07060316 -0.065012835 0.05781505 -0.16160995 -0.21476376
0.05884973 0.011375413 0.008415586 0.10780961 -0.03738214 -0.017398521 0.05298562 0.03529751
0.091641285 -0.07584419 -0.0030827897 0.0845867 -0.027794534 0.0018777862 -0.018911684 0.12664628
0.034864243 -0.08045227 0.21780998 -0.015582818 -0.103008665 0.06297257 -0.034741864 0.014146287
0.071801424 -0.057039745 -0.06639517 -0.07316024 -0.0056629316 0.12257119 -0.08906074 -0.11098621
-0.038724903 0.070786744 -0.03216896 -0.045186426 0.18126984 -0.030133195 -0.018032633 -0.18319267
0.028761012 -0.06318274 -0.017459031 0.17629677 -0.001536408 0.09376074 0.10971906 -0.16909951
-0.11631424 -0.15754645 -0.03644864 -0.08408409 0.01958147 -0.09708441 -0.018973472 0.19970553
0.08499464 -0.13880196 0.0010090899 0.020223996 0.015669309 -0.0838175 0.2193425 0.21325184
-0.12429307 -0.040011916 -0.12597421 0.04466546 0.0163543 0.06539363 0.06607963 0.0697625
-0.15186997 0.15096797 -0.056829873 0.03076825 0.03536217 -0.055001684 -0.113206394 0.034275237
-0.15662941 -0.10577144 0.024401283 0.10878807 -0.055302106 0.22455502 0.050508432 0.12002354
-0.07646188 -0.07462254 -0.03858794 -0.06017215 0.057669718 0.08782845 -0.12842615 0.023659697
0.025713384 -0.017493404 -0.015265834 -0.0676697 -0.041749932 -0.072751135 -0.12775038 -0.13550155
0.0890069 0.031542588 -0.22906041 -0.018287702 -0.07875815 -0.088436395 0.07690904 0.018631782
-0.11536625 0.0873983 -0.07771839 -0.105859384 0.0085524665 0.09281061 -0.08671169 0.20239057
0.0058587696 0.23052947 -0.008924685 -0.092964716 0.07290875 -0.01929059 0.07057094 -0.117346436
-0.13716139 0.1076103 0.06806651 0.016074495 0.048465803 0.037628904 -0.13845837 -0.0020236918
00000000: 9e5f 82bd 01e2 c3bc 4740 5a3c cad9 06bc
00000010: 79c2 f5bd 2e82 0f3e c541 e3bc c162 9c3d
00000020: 38a0 e73d f482 6d3d 3109 c3bd 567b 1e3e
00000030: db5d 513e 1cac 2e3c 6c41 45bd 42ee c1bd
00000040: ca20 95bd f542 aabd 088a d3bd a60e 473e
00000050: 594f 8b3d 3d73 6c3d a1a0 013d 541f d93d
00000060: aa78 ea3c bf48 803c 0989 003e ed87 f4bd
00000070: 313a 5dbe 2695 083e 565a 9c3c 847d bdbb
00000080: b7af 7a3d 2155 403d a590 143e 4da8 533d
00000090: 8c76 8a3d 142f bfbd 89b1 c3bc bb6d 17bd
000000a0: 1441 3fbd b6ea db3d 3990 613d b200 263e
000000b0: 931b 66be 7cea 153d 4a33 cd3d 5be2 0d3e
000000c0: 2be4 51bc 6d36 02bd 1308 83bd 1aec 40be
000000d0: d0a6 2d3e 314c f7bd 4221 953c 0420 a83d
000000e0: 0a73 57be 2fa9 c03a 555d 9abc a90a 60bd
000000f0: e865 103e a095 093e 1e56 d83d ca39 573c
00000100: f56b ae3d 3a3e 853d 29b9 89b9 e117 c7bd
00000110: dff7 153c d8ae 973d b4af a03a f48a 0e3e
00000120: 85b4 0dbd 7cd8 93bd f863 db3d 67c9 edbc
00000130: f932 6fbd 1240 f1bd 8f1d 33bd 3469 babd
00000140: ec8c 64be 331f dc3c bf51 3c3e fee2 273e
00000150: 4a92 3dbe 7d20 69bc 80e9 0d3e 46aa 1abe
00000160: 25ce 64bd d0c2 843c 5aa6 d23d ebe6 08be
00000170: e716 713d d841 123e 4edf a7bd 4868 e5bc
00000180: 01bd 213d d206 223b e0b0 543b f130 563c
00000190: 6b08 c73d a078 8fbe 4b9a 743d 8744 b3bc
000001a0: 31be 573d 77fc 2c3d 1b90 7dba a75b 74bc
000001b0: 24ac 1a3e 0607 92bd 0490 3ebe e111 2fbd
000001c0: 5cd8 b03d 40f2 acbc 636f 8abd 6498 90bd
000001d0: 7325 85bd 79cf 6c3d 147d 25be 08eb 5bbe
000001e0: 6a0c 713d f15f 3a3c 87e1 093c 49cb dc3d
000001f0: 041e 19bd 5887 8ebc 7307 593d 1f94 103d
00000200: 6dae bb3d 3354 9bbd a108 4abb cb3b ad3d
00000210: 5db1 e3bc 0d20 f63a adec 9abc 90af 013e
00000220: cfcd 0e3d 29c4 a4bd 9409 5f3e 134f 7fbc
00000230: 35f6 d2bd c3f7 803d 7c4d 0ebd d4c5 673c
00000240: a00c 933d 82a2 69bd 31fa 87bd 09d5 95bd
00000250: 1d90 b9bb 9b06 fb3d 7a65 b6bd bd4c e3bd
00000260: 019e 1ebd a4f8 903d 99c3 03bd 6715 39bd
00000270: cd9e 393e e4d9 f6bc 2cb9 93bc dc96 3bbe
00000280: 379c eb3c f465 81bd 3e06 8fbc 2487 343e
00000290: 4c61 c9ba a105 c03d 63b4 e03d 6c28 2dbe
000002a0: 2936 eebd db53 21be 2b4b 15bd 4834 acbd
000002b0: 5269 a03c 31d4 c6bd 416e 9bbc 9b7f 4c3e
000002c0: ab11 ae3d 1a22 0ebe 7043 843a cbac a53c
000002d0: ec5c 803c 82a8 abbd 529b 603e b15e 5a3e
000002e0: 5d8d febd 89e3 23bd 62ff 00be 21f3 363d
000002f0: 74f9 853c 18ed 853d c254 873d a4df 8e3d
00000300: cd83 1bbe 5997 1a3e 71c6 68bd b20d fc3c
00000310: ecd7 103d 7249 61bd c1d8 e7bd 3164 0c3d
00000320: 7663 20be b29e d8bd 33e5 c73c 48cc de3d
00000330: 7684 62bd c0f1 653e eee1 4e3d e7ce f53d
00000340: 0c98 9cbd b4d3 98bd 630e 1ebd 1377 76bd
00000350: 1537 6c3d 67df b33d 2582 03be fbd1 c13c
00000360: e0a4 d23c 544e 8fbc 8c1d 7abc 6996 8abd
00000370: fa01 2bbd 8cfe 94bd ffd0 02be ebc0 0abe
00000380: 4049 b63d cd32 013d d08e 6abe 17d0 95bc
00000390: f44b a1bd 241e b5bd 7d82 9d3d aea1 983c
000003a0: 2445 ecbd e1fd b23d d22a 9fbd cecc d8bd
000003b0: a51f 0c3c 7d13 be3d e695 b1bd 793f 4f3e
000003c0: ecfa bf3b eb0f 6c3e d838 12bc 4964 bebd
000003d0: 2f51 953d 4d07 9ebc 7f87 903d 5453 f0bd
000003e0: 0974 0cbe ca62 dc3d 7466 8b3d a9ae 833c
000003f0: 1484 463d c420 1a3d 08c8 0dbe ea9f 04bb

network_body._body_endoder.seq_layers.0.bias f4 [64]
0.025297543 0.048016325 0.019333264 -0.0015221776 0.02968527 -0.1324658 -0.07505908 -0.031480826
0.06551257 0.03606374 0.022561599 0.111643694 0.030684445 0.045089625 -0.00014548609 0.031121543
0.08306432 -0.02043904 0.016574511 0.14263101 -0.077213585 0.031206785 -0.069704205 -0.058879994
0.08150236 0.2389262 0.01895281 0.19150975 0.047623076 -0.114401415 0.1835508 -0.10348516
0.03181156 0.036096584 -0.04276009 0.13241045 0.035185188 0.06096128 0.21388169 0.077682465
-0.007818438 0.042147424 -0.05495975 0.014680932 -0.031310063 0.053822823 0.027827665 -0.043444984
0.12598115 0.038045727 0.0025897908 0.09611709 -0.10322045 -0.09944236 0.05761779 0.06721432
0.013737463 0.05018715 0.26118454 0.14011614 0.12794016 0.08379212 0.085553944 0.1482943
00000000: cb3c cf3c c4ac 443d cb60 9e3c ce83 c7ba
00000010: 862e f33c 1da5 07be 93b8 99bd 0af2 00bd
00000020: 742b 863d 92b7 133d 1ad3 b83c 73a5 e43d
00000030: f25d fb3c e6af 383d a08d 18b9 9bf2 fe3c
00000040: a01d aa3d c66f a7bc 45c7 873c dd0d 123e
00000050: 2822 9ebd 5fa5 ff3c 14c1 8ebd 262c 71bd
00000060: b6ea a63d 12a9 743e ec42 9b3c 221b 443e
00000070: 6a10 433d 4a4b eabd bef4 3b3e 07f0 d3bd
00000080: d74c 023d 03da 133d 3425 2fbd 9b96 073e
00000090: 581e 103d 89b2 793d cd03 5b3e fc17 9f3d
000000a0: e818 00bc c7a2 2c3d 7a1d 61bd 4b88 703c
000000b0: fb3e 00bd 5275 5c3d d8f6 e33c 5ef3 31bd
000000c0: 3401 013e d6d5 1b3d 7bb9 293b 09d9 c43d
000000d0: 3e65 d3bd 70a8 cbbd a200 6c3d a9a7 893d
000000e0: 1913 613c 0a91 4d3d fbb9 853e 9b7a 0f3e
000000f0: bf02 033e 349b ab3d e836 af3d 76da 173e

network_body._body_endoder.seq_layers.2.weight f4 [64, 64]
-0.041364927 0.0012347477 -0.08416795 0.12940131 0.27284205 0.035578974 -0.10129897 0.008704079
-0.17662714 -0.18486455 -0.13240261 0.30950132 -0.07830567 0.0217723 0.31961372 -0.2703163
0.16411993 0.026693499 -0.22781873 0.18383662 -0.2515898 0.0908627 -0.00729896 -0.056017876
0.099251084 0.05092474 -0.0471413 -0.07672686 0.03803322 0.037585538 0.2019984 -0.19059633
0.1671338 0.08868625 0.05778278 0.1882825 0.14895335 -0.082187474 0.005185304 0.08547914
0.12702347 0.042037193 -0.0455213 0.059340596 -0.041356828 0.304628 0.07575169 -0.0903206
-0.26712736 0.078740954 -0.23899476 0.27708197 -0.09165075 -0.25285894 -0.15037318 0.06944156
-0.28702834 -0.14762284 0.19813296 0.1517499 0.05610291 -0.04525482 -0.101696044 0.046802823
-0.19425938 0.1632483 -0.031697404 -0.10407331 -0.03246464 -0.50600004 -0.33441246 -0.08006622
0.13153432 0.0068372423 -0.09583506 0.43598813 -0.32752654 0.22533016 -0.13659008 -0.13605809
0.058251817 -0.08247159 0.044324 0.5176744 -0.04649133 -0.022418307 -0.16531332 -0.19638763
0.38266715 0.77057046 -0.16574766 0.20928685 0.044137754 -0.16053274 0.5172433 -0.3114039
0.05715037 0.08445246 -0.27845138 -0.07718927 -0.074490674 0.08745423 0.10109638 -0.25910428
0.11602889 -0.119246356 -0.46960065 -0.0014160512 -0.13396615 0.08895329 -0.013905561 -0.18686172
0.15347247 -0.099615924 -0.52009237 0.30228248 -0.12547389 -0.31033677 0.15448773 0.03110418
-0.28843534 -0.12669253 0.32926488 0.27857497 0.103929296 -0.0004750694 -0.28734624 0.13724877
-0.018569082 0.21684001 0.07668389 0.0641797 0.097709306 -0.17465961 0.0001133822 -0.13548563
0.18891029 0.06398876 0.22884274 -0.077275716 0.0863401 0.02936542 0.07195835 0.061843764
-0.0041031432 0.109827355 0.10699542 0.110184036 0.021659298 0.080902465 0.19142938 -0.25935042
-0.09962662 -0.32429528 -0.2581113 -0.18522725 0.1127378 -0.038687285 -0.05942532 0.04996726
-0.019221269 -0.13373725 0.07537676 0.15043704 -0.0070111607 -0.17788172 -0.03078065 0.13468044
-0.091975965 -0.1278556 -0.106007755 -0.105281495 -0.021844734 0.008711324 -0.113785796 -0.19753753
0.050548077 -0.03858293 0.110276364 0.037947576 -0.22938552 -0.0358181 0.19765061 0.011770299
0.029798007 0.18876812 -0.023826713 -0.11592891 -0.09227149 0.017155629 0.038614303 0.21058787
-0.14470907 -0.12336637 -0.014098313 0.0068646353 -0.007301395 -0.3472853 -0.29389122 -0.080742374
-0.110430196 0.043146167 -0.2467757 0.26515362 -0.06714301 0.22493263 -0.1313726 -0.11171795
0.11509343 -0.3608961 -0.13268133 0.043625813 -0.31869316 -0.16343461 -0.015261792 -0.15689579
0.51253784 0.3558368 -0.21789022 0.036098436 -0.08583893 -0.29773045 0.2065968 -0.3810277
-0.081074074 0.06966764 0.39564383 -0.05259534 0.12204488 -0.04706781 0.14312007 -0.021808097
-0.26951617 0.03945976 -0.31217575 0.16838558 -0.35853335 -0.05855191 0.011359096 -0.095505446
0.37820652 -0.08111551 -0.18095008 0.19888707 0.020904621 -0.23182027 -0.102149986 0.2139318
-0.22646345 -0.006364995 0.23485236 0.012946668 0.11188595 0.25186437 -0.057752166 0.14280082
00000000: 456e 29bd 42d7 a13a 3f60 acbd c781 043e
00000010: f4b1 8b3e 42bb 113d d675 cfbd 8e9b 0e3c
00000020: bfdd 34be 224d 3dbe 8d94 07be f576 9e3e
00000030: b95e a0bd d35b b23c 69a4 a33e e666 8abe
00000040: 0e0f 283e 53ac da3c 5049 69be ab3f 3c3e
00000050: 61d0 80be 3916 ba3d 1d2c efbb 0073 65bd
00000060: 2744 cb3d 7696 503d 3c17 41bd f922 9dbd
00000070: b9c8 1b3d 4bf3 193d abd8 4e3e af2b 43be
00000080: 1f25 2b3e 23a1 b53d a3ad 6c3d 21cd 403e
00000090: 3a87 183e e851 a8bd 7ce9 a93b b00f af3d
000000a0: 7112 023e 312f 2c3d 8b74 3abd 200f 733d
000000b0: c765 29bd 34f8 9b3e b423 9b3d 02fa b8bd
000000c0: ebc4 88be f042 a13d 0bbb 74be b0dd 8d3e
000000d0: 63b3 bbbd ba76 81be 6dfb 19be 6037 8e3d
000000e0: 61f5 92be 712a 17be 5ee3 4a3e 5364 1b3e
000000f0: 2acc 653d 1e5d 39bd 0446 d0bd 51b4 3f3d
00000100: eeeb 46be 902a 273e 23d5 01bd 6324 d5bd
00000110: a4f9 04bd 3889 01bf 1c38 abbe c2f9 a3bd
00000120: efb0 063e f20a e03b 2c45 c4bd d639 df3e
00000130: 8fb1 a7be f3bc 663e 45de 0bbe d052 0bbe
00000140: 7599 6e3d dde6 a8bd 158d 353d 4f86 043f
00000150: b16d 3ebd 99a6 b7bc e547 29be d719 49be
00000160: f3ec c33e 1b44 453f c1b9 29be 4b4f 563e
00000170: cac9 343d b262 24be 0f6a 043f 5570 9fbe
00000180: 8216 6a3d 69f5 ac3d 2e91 8ebe 6815 9ebd
00000190: 918e 98bd 341b b33d 9e0b cf3d 51a9 84be
000001a0: 8ea0 ed3d 6f37 f4bd 7f6f f0be cb9a b9ba
000001b0: 6c2e 09be 242d b63d 26d4 63bc ae58 3fbe
000001c0: e327 1d3e 6f03 ccbd c624 05bf c5c4 9a3e
000001d0: 3a7c 00be 76e4 9ebe 0832 1e3e 31ce fe3c
000001e0: ccad 93be b0bb 01be 6895 a83e 61a1 8e3e
000001f0: e2d8 d43d bc12 f9b9 0c1f 93be f18a 0c3e
00000200: 301e 98bc 4f0b 5e3e 710c 9d3d a670 833d
00000210: d11b c83d f8d9 32be 9bc7 ed38 bfbc 0abe
00000220: b371 413e 8a0c 833d c055 6a3e bb42 9ebd
00000230: 14d3 b03d c08f f03c e65e 933d e34f 7d3d
00000240: a973 86bb 2aed e03d 6a20 db3d 2ba8 e13d
00000250: d76e b13c 31b0 a53d 1006 443e 94c9 84be
00000260: 0b09 ccbd 080a a6be 2a27 84be 36ac 3dbe
00000270: 13e3 e63d 8f76 1ebd f767 73bd 78aa 4c3d
00000280: ec75 9dbc 6bf2 08be 215f 9a3d 2b0c 1a3e
00000290: e1bd e5bb a026 36be b427 fcbc abe9 093e
000002a0: e55d bcbd 94ec 02be 981a d9bd d39d d7bd
000002b0: baf3 b2bc f1b9 0e3c 8708 e9bd 4747 4abe
000002c0: 800b 4f3d 2209 1ebd 93d8 e13d eb6e 1b3d
000002d0: 0ae4 6abe 00b6 12bd ec64 4a3e 36d8 403c
000002e0: f31a f43c 6e4c 413e 3d30 c3bc 236c edbd
000002f0: d6f8 bcbd f689 8c3c 082a 1e3d 59a4 573e
00000300: 9d2e 14be 82a7 fcbd 9cfc 66bc bcf0 e03b
00000310: 8a40 efbb 61cf b1be e978 96be 425c a5bd
00000320: 3a29 e2bd 09ba 303d c5b2 7cbe 37c2 873e
00000330: 4682 89bd bd54 663e 8a86 06be 61cc e4bd
00000340: 1bb6 eb3d 60c7 b8be 9ddd 07be fbb0 323d
00000350: c02b a3be 675b 27be 980c 7abc 4aa9 20be
00000360: ae35 033f 3e30 b63e 9d1e 5fbe f4db 133d
00000370: 52cc afbd 2070 98be 1d8e 533e 1016 c3be
00000380: 2a0a a6bd e8ad 8e3d d491 ca3e 366e 57bd
00000390: abf2 f93d 2dca 40bd 118e 123e e5a6 b2bc
000003a0: 06fe 89be 8fa0 213d 80d5 9fbe 456d 2c3e
000003b0: af91 b7be 21d4 6fbd 801b 3a3c 5c98 c3bd
000003c0: 49a4 c13e e31f a6bd fa4a 39be 0da9 4b3e
000003d0: 2b40 ab3c 4b62 6dbe 0334 d1bd f010 5b3e
000003e0: 09e6 67be 7391 d0bb 237d 703e 431e 543c
000003f0: 7624 e53d 5ef4 803e 898d 6cbd 613a 123e

network_body._body_endoder.seq_layers.2.bias f4 [64]
0.058623627 0.3002556 0.028909428 0.1312787 -0.035517763 -0.035136506 -0.015755832 0.015886037
0.049426705 0.11050991 0.03311063 0.09101386 0.05620363 0.15045302 0.11522262 0.053931884
0.04189122 0.008499632 0.06548463 -0.023527715 -0.013005997 0.010918274 0.008761665 0.016841449
0.13132654 0.038687527 0.047849696 0.050541483 0.02748793 0.055806812 -0.123288326 -0.001323575
0.04026492 0.016057374 0.04005009 -0.05036562 0.036602974 0.20436984 0.02795514 0.13171001
0.06462804 -0.08014171 0.04186793 0.040687125 0.10184122 0.08046769 0.047976244 -0.07742945
0.17352611 0.18709683 0.122182846 0.11403955 0.10510391 0.00020403284 -0.031605866 0.038484935
0.027612843 -0.022373125 0.063991085 0.04231523 0.022456175 0.001999724 0.10994446 -0.016952313
00000000: 541f 703d 1abb 993e 77d3 ec3c ec6d 063e
00000010: 137b 11bd 4ceb 0fbd 6012 81bc 6f23 823c
00000020: a873 4a3d 0553 e23d 039f 073d 7a65 ba3d
00000030: c735 663d 5b10 1a3e d6f9 eb3d aee7 5c3d
00000040: 2196 2b3d 0a42 0b3c ce1c 863d 32bd c0bc
00000050: 1b17 55bc 8fe2 323c 168d 0f3c 14f7 893c
00000060: 777a 063e d076 1e3d 0bfe 433d 9604 4f3d
00000070: 5e2e e13c af95 643d 977e fcbd cf7b adba
00000080: d4ec 243d c18a 833c 900b 243d 2e4c 4ebd
00000090: 00ed 153d 5446 513e 2e02 e53c fdde 063e
000000a0: b55b 843d 5621 a4bd b57d 2b3d 8ba7 263d
000000b0: 2192 d03d 3fcc a43d bd82 443d 5593 9ebd
000000c0: d4b0 313e 5096 3f3e 003b fa3d 918d e93d
000000d0: b840 d73d a6f1 5539 2775 01bd 61a2 1d3d
000000e0: 5434 e23c d847 b7bc c20d 833d bc52 2d3d
000000f0: 03f6 b73c cd0d 033b 902a e13d 94df 8abc
