results/3-2-run2/simple_wolf/simple_wolf-27548.onnx (onnx, 412160 bytes, 19 tensors)

network_body.observation_encoder.processors.0.self_ent_encoder.seq_layers.0.bias f4 [128]
0.007903147 0.020416195 0.00191863 -0.0013831274 -0.011411564 0.0031077417 0.018621828 0.0074292435
0.007999103 0.020172684 0.009689873 0.018501414 0.008907123 0.0044428166 -0.022117686 -0.014954494
-0.012761217 0.00053152797 -0.0075004995 4.3533386e-05 0.016158763 0.014187399 -0.0014158937 0.003940492
0.005746915 0.006178841 2.727272e-05 -0.014020007 0.023322864 0.008923629 -0.012672198 0.0054604337
0.00082058075 -0.0007897372 -0.012993453 -0.016069563 0.012085505 -0.010288924 0.00018620418 -0.02048226
-0.00713281 0.018616151 -0.015099011 -0.012731713 -0.0035637913 0.017222436 0.0053859013 0.013215838
0.0074722413 -0.008724344 -0.008720023 -0.009848069 -0.016128955 0.017904768 0.013857453 0.003136048
-0.022884682 0.026786745 -0.012646861 -0.007946899 -0.0036954961 0.0002866634 -0.017729176 0.0015430629
-0.0092866225 0.013384752 0.0055387383 0.009541747 -0.0013488842 -0.0073509756 -0.0049455017 -0.00828261
0.0017775944 0.0026029758 0.009277543 -0.008141447 0.004941654 -0.00034141476 0.021920238 0.0023130274
-0.011744569 -0.0136308 -0.015067914 -0.018368049 -0.009491101 0.017049225 0.011304579 -0.0019940694
0.01280271 0.008666507 0.013422595 0.008831216 -0.025519934 0.010644912 0.007716349 0.001353344
-0.016137319 -0.0058970097 -0.00029632507 0.010077892 -0.013166529 -0.0052509806 -0.0014692971 -0.0026437067
-0.014338947 -0.012319977 -0.016269272 0.011165929 -0.01065484 -0.0019365561 -0.0029286179 -0.012726215
0.020312628 0.0017430282 -0.004512667 0.0043740235 0.0009088762 0.007766754 -0.012072579 0.0039510895
0.010103358 -0.010976154 -0.0053767464 0.018888177 0.012345856 0.004344234 -0.012762567 0.009021288
00000000: 337c 013c dd3f a73c 8a7a fb3a 0e4a b5ba
00000010: 92f7 3abc 41ab 4b3b ce8c 983c 0371 f33b
00000020: ab0e 033c 2f41 a53c 46c2 1e3c 4790 973c
00000030: 2eef 113c 0c95 913b 2630 b5bc b203 75bc
00000040: 6c14 51bc 3d56 0b3a c0c6 f5bb 9e97 3638
00000050: 625f 843c 4472 683c 8295 b9ba 3e1f 813b
00000060: 9e50 bc3b e077 ca3b b8c7 e437 2cb4 65bc
00000070: 970f bf3c 6a34 123c 0d9f 4fbc 70ed b23b
00000080: 3e1c 573a 5e06 4fba 7ee2 54bc 51a4 83bc
00000090: 4802 463c e092 28bc ce3f 4339 6aca a7bc
000000a0: 59ba e9bb e680 983c d861 77bc ad98 50bc
000000b0: 7f8e 69bb 1116 8d3c 377c b03b 3e87 583c
000000c0: b4d9 f43b 8df0 0ebc 6dde 0ebc cc59 21bc
000000d0: df20 84bc 05ad 923c 5f0a 633c 2886 4d3b
000000e0: a878 bbbc e06f db3c c834 4fbc b633 02bc
000000f0: 2330 72bb 4f4b 9639 c73c 91bc 9940 ca3a
00000100: eb26 18bc b84b 5b3c 4e7e b53b fd54 1c3c
00000110: 0bcd b0ba 74e0 f0bb e00d a2bb c9b3 07bc
00000120: 2cfe e83a b096 2a3b d600 183c b463 05bc
00000130: 99ed a13b eaff b2b9 1292 b33c 2996 173b
00000140: 4b6c 40bc b853 5fbc 69df 76bc 9778 96bc
00000150: 9080 1bbc d1aa 8b3c d736 393c efae 02bb
00000160: 75c2 513c f7fd 0d3c 72ea 5b3c ceb0 103c
00000170: 2e0f d1bc ff67 2e3c 6dd9 fc3b b062 b13a
00000180: 6932 84bc b43b c1bb 145c 9bb9 be1d 253c
00000190: 6db8 57bc 6b10 acbb 6e95 c0ba 0a42 2dbb
000001a0: e7ed 6abc bbd9 49bc 2347 85bc 4df1 363c
000001b0: a391 2ebc 0ad4 fdba 0eee 3fbb 9d81 50bc
000001c0: ab66 a63c 5276 e43a ffde 93bb f853 8f3b
000001d0: a641 6e3a 4180 fe3b 11cc 45bc 2478 813b
000001e0: 8e88 253c 54d5 33bc 6b2f b0bb 61bb 9a3c
000001f0: 4646 4a3c 135a 8e3b 161a 51bc 06ce 133c

network_body.observation_encoder.processors.1.normalizer.running_mean f4 [3]
0.5590753 0.7318292 2.299317
00000000: 8f1f 0f3f 2959 3b3f 0228 1340

network_body.observation_encoder.rsa.fc_q.bias f4 [128]
0.0 0.0 0.0 0.0 0.0 0.0 0.0 0.0
0.0 0.0 0.0 0.0 0.0 0.0 0.0 0.0
0.0 0.0 0.0 0.0 0.0 0.0 0.0 0.0
0.0 0.0 0.0 0.0 0.0 0.0 0.0 0.0
0.0 0.0 0.0 0.0 0.0 0.0 0.0 0.0
0.0 0.0 0.0 0.0 0.0 0.0 0.0 0.0
0.0 0.0 0.0 0.0 0.0 0.0 0.0 0.0
0.0 0.0 0.0 0.0 0.0 0.0 0.0 0.0
0.0 0.0 0.0 0.0 0.0 0.0 0.0 0.0
0.0 0.0 0.0 0.0 0.0 0.0 0.0 0.0
0.0 0.0 0.0 0.0 0.0 0.0 0.0 0.0
0.0 0.0 0.0 0.0 0.0 0.0 0.0 0.0
0.0 0.0 0.0 0.0 0.0 0.0 0.0 0.0
0.0 0.0 0.0 0.0 0.0 0.0 0.0 0.0
0.0 0.0 0.0 0.0 0.0 0.0 0.0 0.0
0.0 0.0 0.0 0.0 0.0 0.0 0.0 0.0
00000000: 0000 0000 0000 0000 0000 0000 0000 0000
00000010: 0000 0000 0000 0000 0000 0000 0000 0000
00000020: 0000 0000 0000 0000 0000 0000 0000 0000
00000030: 0000 0000 0000 0000 0000 0000 0000 0000
00000040: 0000 0000 0000 0000 0000 0000 0000 0000
00000050: 0000 0000 0000 0000 0000 0000 0000 0000
00000060: 0000 0000 0000 0000 0000 0000 0000 0000
00000070: 0000 0000 0000 0000 0000 0000 0000 0000
00000080: 0000 0000 0000 0000 0000 0000 0000 0000
00000090: 0000 0000 0000 0000 0000 0000 0000 0000
000000a0: 0000 0000 0000 0000 0000 0000 0000 0000
000000b0: 0000 0000 0000 0000 0000 0000 0000 0000
000000c0: 0000 0000 0000 0000 0000 0000 0000 0000
000000d0: 0000 0000 0000 0000 0000 0000 0000 0000
000000e0: 0000 0000 0000 0000 0000 0000 0000 0000
000000f0: 0000 0000 0000 0000 0000 0000 0000 0000
00000100: 0000 0000 0000 0000 0000 0000 0000 0000
00000110: 0000 0000 0000 0000 0000 0000 0000 0000
00000120: 0000 0000 0000 0000 0000 0000 0000 0000
00000130: 0000 0000 0000 0000 0000 0000 0000 0000
00000140: 0000 0000 0000 0000 0000 0000 0000 0000
00000150: 0000 0000 0000 0000 0000 0000 0000 0000
00000160: 0000 0000 0000 0000 0000 0000 0000 0000
00000170: 0000 0000 0000 0000 0000 0000 0000 0000
00000180: 0000 0000 0000 0000 0000 0000 0000 0000
00000190: 0000 0000 0000 0000 0000 0000 0000 0000
000001a0: 0000 0000 0000 0000 0000 0000 0000 0000
000001b0: 0000 0000 0000 0000 0000 0000 0000 0000
000001c0: 0000 0000 0000 0000 0000 0000 0000 0000
000001d0: 0000 0000 0000 0000 0000 0000 0000 0000
000001e0: 0000 0000 0000 0000 0000 0000 0000 0000
000001f0: 0000 0000 0000 0000 0000 0000 0000 0000

network_body.observation_encoder.rsa.fc_v.bias f4 [128]
-0.01458439 0.0024129464 0.0049920683 0.01985865 0.01585507 -0.011250222 -0.0046974444 -0.010503206
0.008429072 -0.012726134 0.006270238 -0.0057949596 -0.017047526 0.0031115813 0.014501311 -0.0066354903
0.012370142 0.009279333 0.010753925 -0.008270648 0.0019810332 -0.012338272 -0.00066402095 0.008270293
-0.004985013 -0.008253988 0.011666039 -0.012939942 -0.0059139878 0.014613509 -0.015949909 0.00067754276
0.007791307 0.015429675 0.01347602 0.010338507 0.0061344765 0.01423552 -0.00033750804 0.006513721
-0.014838187 -0.011768599 -0.014607102 -0.016071271 0.0020631393 0.0049842685 -0.012283338 0.014486298
-0.013183911 0.00770803 -0.0146945845 -0.01438695 -0.011647609 -0.020120641 -0.01696365 0.015769618
0.0023349407 0.010932255 -0.012353738 -0.01362931 -0.0065793977 0.0015031873 -0.011937462 -0.008249357
-0.0056741745 0.013314641 0.008420992 -0.013746463 0.0037266456 0.005973191 -0.012319295 0.0071945456
-0.010647668 -0.012657151 -0.007987162 -0.012697398 0.010899979 -0.0041386997 -0.018913222 0.005090575
-0.004185621 -0.0135827605 0.0134413 0.012268027 -0.009206119 -0.015555454 -0.0028137174 -0.011886228
0.0126378555 0.003929177 0.012153863 0.007815661 -0.006206535 -0.0091791935 0.004740797 0.007601153
0.014527748 0.003893571 0.01696031 -0.009490607 0.0215443 0.013651743 -0.007089467 -0.0123091135
-0.018560385 0.016849522 0.0072428 -0.013321805 -0.012236336 -0.00046517956 0.011274944 -0.0039358754
0.013720859 0.009547883 -0.0062403097 0.0034408208 0.0057995403 -0.012700676 0.011633305 0.011066073
-0.01462343 -0.014685211 0.012704684 0.011399815 0.0057565514 -0.013288274 -0.011051175 -0.013643731
00000000: 5ef3 6ebc 8622 1e3b 8194 a33b 9cae a23c
00000010: 7ee2 813c da52 38bc 05ed 99bb a415 2cbc
00000020: 171a 0a3c 4681 50bc 9276 cd3b a5e3 bdbb
00000030: 41a7 8bbc aceb 4b3b e896 6d3c 876e d9bb
00000040: 23ac 4a3c 5808 183c 3b31 303c 9d81 07bc
00000050: 39d4 013b 7726 4abc b111 2eba 1f80 073c
00000060: 5259 a3bb bc3b 07bc ea22 3f3c 0d02 54bc
00000070: 20ca c1bb 806d 6f3c 62a9 82bc 209d 313a
00000080: 384e ff3b bfcc 7c3c 86ca 5c3c d762 293c
00000090: b803 c93b 193c 693c 90f3 b0b9 0d71 d53b
000000a0: de1b 73bc 15d1 40bc a052 6fbc e6a7 83bc
000000b0: bc35 073b 1353 a33b 0e40 49bc f057 6d3c
000000c0: 5501 58bc a493 fc3b 8ec1 70bc 3eb7 6bbc
000000d0: 9dd5 3ebc 0bd4 a4bc 5af7 8abc 492f 813c
000000e0: ce05 193b 331d 333c 5567 4abc 784d 5fbc
000000f0: fd97 d7bb 9906 c53a 5895 43bc 5028 07bc
00000100: 6dee b9bb a725 5a3c 33f8 093c d838 61bc
00000110: bd3a 743b c2ba c33b ded6 49bc 39c0 eb3b
00000120: 8e73 2ebc f05f 4fbc 96dc 02bc bf08 50bc
00000130: d395 323c ee9d 87bb e7ef 9abc d7ce a63b
00000140: 8927 89bb 3a8a 5ebc e638 5c3c d6ff 483c
00000150: 43d5 16bc 4edc 7ebc 5866 38bb 74be 42bc
00000160: 020f 4f3c 53c0 803b ff20 473c 420d 003c
00000170: 3060 cbbb 5464 16bc b058 9b3b 1813 f93b
00000180: cb05 6e3c 482b 7f3b 59f0 8a3c 7e7e 1bbc
00000190: ac7d b03c 8fab 5f3c c24e e8bb 2aac 49bc
000001a0: f30b 98bc 0208 8a3c 0355 ed3b b343 5abc
000001b0: ea7a 48bc 58e3 f3b9 8bba 383c 84f8 80bb
000001c0: 74cd 603c b96e 1c3c 837b ccbb 657f 613b
000001d0: 120a be3b 7f16 50bc 9e99 3e3c 794e 353c
000001e0: 1c97 6fbc 3d9a 70bc 4f27 503c 4ac6 3a3c
000001f0: 74a1 bc3b 10b7 59bc fd0f 35bc f589 5fbc

network_body.observation_encoder.rsa.fc_out.bias f4 [128]
0.0026074785 -0.0037860142 -0.0011920952 -0.0063942005 -0.0026103158 0.010089349 0.0047573345 0.006831267
0.00022248918 0.005290011 0.016552342 0.015244035 -0.0035895598 -0.012947294 -0.017595973 0.0025040163
-0.0065161237 0.0064162607 -0.010061786 -0.004632612 -0.0020318346 0.012330848 -0.0027311349 -0.0003266685
0.008166915 -0.0031552128 -0.008982892 -0.00070022914 -0.0029872097 -0.0037325136 -0.013616282 -0.011398094
-0.0010512988 0.0007659871 -0.01614022 -0.014636561 0.0063776798 0.0054970803 -0.008656258 0.0048426515
-0.0052645644 0.016843747 -0.0143771125 -0.010530039 0.0025932677 0.013356843 0.003001522 0.0131928
0.0025935345 -0.0028441898 -0.010502655 -0.0029256344 -0.010985904 0.00087724667 -0.013585041 0.0054443534
-0.018374614 -0.011064043 0.005702222 -0.010532172 -0.010587781 -0.0015193074 -0.004039275 -0.0069450364
-0.002747404 0.009723336 -0.003592566 0.011330349 -0.013282302 0.0065048123 0.014240813 -0.0018999185
0.0073774187 -0.0012799755 -0.014266938 -0.0060424097 0.0038449191 0.0019086894 0.0059803976 -0.0042198854
-0.0073142005 -0.012391202 0.0011918923 -0.015148953 -0.0038942716 0.01686514 -0.0030094513 0.0084748035
0.017609613 0.011254907 0.012867844 -0.008496389 -0.023270216 -0.00085507164 -0.00011915341 0.00514898
-0.011773827 0.0013693508 -0.0039934055 -0.005332484 -0.010244671 0.008381233 0.0064777513 0.0026864116
-0.004847299 0.004229238 -0.015280169 0.002000699 0.003862034 -0.0073566614 -0.0040216134 -0.0064441813
0.008989056 0.007522604 -0.008261792 0.00024137778 0.012827332 -0.005574953 -0.0109927915 0.007947292
0.014049575 0.0042032576 -0.004417282 0.010966929 0.011951623 0.0015752796 -0.0045336746 0.0074299816
00000000: 3be2 2a3b c71e 78bb 1440 9cba 7186 d1bb
00000010: d511 2bbb cc4d 253c 6ae3 9b3b d2d8 df3b
00000020: fc4b 6939 d457 ad3b c798 873c 1ec2 793c
00000030: d23e 6bbb e320 54bc 6e25 90bc 6c1a 243b
00000040: 3585 d5bb 7f3f d23b 30da 24bc 2bcd 97bb
00000050: 8728 05bb 5307 4a3c d7fc 32bb b444 abb9
00000060: 86ce 053c b0c7 4ebb fb2c 13bc 958f 37ba
00000070: 10c5 43bb 309d 74bb d316 5fbc 12bf 3abc
00000080: bccb 89ba 86cc 483a 7f38 84bc 30ce 6fbc
00000090: dbfb d03b da20 b43b fad2 0dbc 1baf 9e3b
000000a0: 5e82 acbb e6fb 893c fb8d 6bbc 2f86 2cbc
000000b0: d0f3 293b a9d6 5a3c 2fb5 443b 9d26 583c
000000c0: 4af8 293b 9665 3abb 5413 2cbc 00bc 3fbb
000000d0: 39fe 33bc 07f7 653a cb93 5ebc 8c66 b23b
000000e0: 5c86 96bc f645 35bc b5d9 ba3b 228f 2cbc
000000f0: 5f78 2dbc 7f23 c7ba e55b 84bb 3093 e3bb
00000100: ca0d 34bb a14e 1f3c 4171 6bbb eea2 393c
00000110: 039e 59bc 5226 d53b 4d52 693c b006 f9ba
00000120: 46be f13b dac4 a7ba e0bf 69bc 68ff c5bb
00000130: 0afb 7b3b fd2c fa3a 36f7 c33b f746 8abb
00000140: f6ab efbb 7804 4bbc 4539 9c3a 5033 78bc
00000150: 0937 7fbb c328 8a3c 373a 45bb e7d9 0a3c
00000160: 0942 903c 8066 383c a6d3 523c 7034 0bbc
00000170: 2ea1 bebc e326 60ba 00e2 f9b8 c6b8 a83b
00000180: 02e7 40bc ca7b b33a 1ddb 82bb 1ebc aebb
00000190: 44d9 27bc 7051 093c 5143 d43b 820e 303b
000001a0: 17d6 9ebb 6b95 8a3b ad59 7abc 291e 033b
000001b0: 2e1a 7d3b 2610 f1bb bdc7 83bb b629 d3bb
000001c0: d546 133c 2d80 f63b 785c 07bc 5b1a 7d39
000001d0: bb29 523c 18ae b6bb 1c1b 34bc 5c35 023c
000001e0: 3030 663c 7bbb 893b d9be 90bb a2ae 333c
000001f0: bdd0 433c 9d79 ce3a 388f 94bb 3477 f33b

network_body.observation_encoder.x_self_encoder.seq_layers.0.weight f4 [128, 3]
-0.014643556 0.010099902 0.029119322 -0.04204046 0.04026859 0.03358759 -0.0095725 -0.035918005
0.07017693 0.038856998 0.008906513 -0.03465647 -0.02577434 0.018788552 -0.032701105 0.004950181
0.072648704 0.03733044 -0.029359784 0.017930612 0.050831098 -0.05310913 -0.007120365 -0.04560493
0.0043756645 0.026230788 -0.034479998 -0.00016438148 0.00057893666 0.064040035 0.0153857395 0.05632112
0.06696117 -0.022854868 -0.041698482 -0.04867555 0.039045654 0.022650508 -0.028457671 0.067617
-0.022736812 -0.08264064 0.034391556 -0.013714591 0.036961272 0.017257156 0.014891043 0.029451132
-0.04009901 -0.040879376 -0.044906277 -0.028796067 -0.021749161 -0.029600006 0.0146029545 0.048279174
0.07362088 0.048382264 -0.06480371 0.047884163 -0.10382148 0.01833603 -0.058165073 -0.03369198
-0.0138313435 -0.0010827265 -0.07939035 0.020399315 0.043980055 -0.07202738 0.09535414 0.011563182
0.04286296 -0.015350488 -0.022371026 0.022304477 -0.006048384 -0.027573468 0.012046606 0.07240187
-0.046637043 -0.011652827 -0.0323964 0.054324385 -0.033907644 0.03828191 0.026291965 0.03596374
0.023993628 -0.0050558145 -0.041668802 0.03948445 -0.03959909 0.05137108 -0.041082557 0.011570098
-0.013419921 -0.03504461 -0.09026652 0.0018533787 0.03694066 -0.05348864 0.009790288 0.07293769
0.004569505 0.033597432 -0.051580686 -0.043169253 -0.027446432 0.043944243 6.353483e-05 0.1088056
-0.072762676 0.04907337 0.029506708 -0.028341787 0.030501602 -0.04958747 0.036718547 0.044481307
-0.03839513 0.00066718255 0.031323984 -0.12652169 -0.033371005 -0.0010374693 0.03367346 -0.04760694
-0.026516555 0.043506525 -0.021360489 0.077737235 -0.005337954 -0.027360784 0.019688675 -0.050990477
0.018676784 0.015775962 -0.037155375 0.076281644 -0.0054718503 -0.05289491 -0.035213068 -0.022271257
-0.023243451 0.037416827 -0.012771751 -0.055407196 -0.0014994557 0.020301707 -0.024557885 -0.016995959
0.03904087 0.028116982 0.029054463 -0.045910846 -0.0531708 0.0060397587 -0.008291623 -0.028010568
0.008648984 0.036940917 -0.004562496 0.016242761 0.048642658 -0.06587095 0.02465834 0.034735844
0.025376689 0.026614891 -0.021663656 -0.023712093 0.00026870385 0.026353503 0.026296604 -0.04218544
-0.01017135 -0.07630842 -0.018555393 -0.06694266 0.031248292 -0.06286518 0.045543432 -0.034927245
-0.0054693385 -0.068076305 0.050160524 -0.0137792155 0.0003252461 0.07727959 -0.0013152359 0.004738895
-0.019045625 0.052419975 0.032772094 -0.026868066 0.008649006 -0.034007736 0.030979078 0.035177767
-0.036917746 0.004622357 -0.0038448835 0.061512895 -0.057054427 0.0025063136 0.019617666 -0.024474682
0.023580056 0.06242006 -0.06471375 0.047018453 -0.01936573 -0.02470685 -0.0076009473 -0.053402122
-0.05551532 -0.002884464 -0.012316064 -0.028087527 -0.00677713 0.02754704 0.035563916 0.0052747047
-0.038041815 0.057017628 0.023627993 -0.043932077 0.04845137 -0.013004555 0.060490854 -0.015181245
0.016562128 -0.03827067 -0.04390296 0.054179944 0.06826639 -0.03517755 -0.010310968 -0.018498233
0.061881613 -0.037364647 0.10932892 -0.0024331748 0.020750279 0.04018059 -0.0415217 -0.021301435
0.035910588 0.08306015 0.028039403 0.012274094 0.051199075 0.06350821 -0.032220677 0.06998113
00000000: 87eb 6fbc 0f7a 253c a58b ee3c 9e32 2cbd
00000010: adf0 243d 2493 093d fad5 1cbc c21e 13bd
00000020: ecb8 8f3d 8428 1f3d a0ec 113c f1f3 0dbd
00000030: b524 d3bc 73ea 993c 98f1 05bd 2135 a23b
00000040: d8c8 943d cee7 183d ee83 f0bc 38e3 923c
00000050: 4534 503d f688 59bd f351 e9bb 3ccc 3abd
00000060: bc61 8f3b f3e1 d63c e63a 0dbd d15d 2cb9
00000070: c8c3 173a 6c27 833d 7814 7c3c fab0 663d
00000080: f022 893d 223a bbbc 07cc 2abd 0360 47bd
00000090: 56ee 1f3d 8f8d b93c 1020 e9bc c87a 8a3d
000000a0: 8d42 babc 7f3f a9bd 29de 0c3d 2ab3 60bc
000000b0: b464 173d e15e 8d3c 90f9 733c 8043 f13c
000000c0: dc3e 24bd 2271 27bd a5ef 37bd bbe5 ebbc
000000d0: 4c2b b2bc b67b f2bc 3b41 6f3c 62c0 453d
000000e0: 8bc6 963d 7b2c 463d cfb7 84bd 2f22 443d
000000f0: 5ba0 d4bd 7135 963c 803e 6ebd 9a00 0abd
00000100: dc9c 62bc 46ea 8dba 6897 a2bd 771c a73c
00000110: 6e24 343d 1783 93bd 0849 c33d 8073 3d3c
00000120: 1291 2f3d 9d80 7bbc 7143 b7bc e1b7 b63c
00000130: 8631 c6bb c1e1 e1bc 215f 453c 6e47 943d
00000140: 7c06 3fbd 80eb 3ebc 16b2 04bd 3f83 5e3d
00000150: bee2 0abd 7ecd 1c3d 3f62 d73c b74e 133d
00000160: 498e c43c 3fab a5bb e8ac 2abd 72ba 213d
00000170: a832 22bd 7b6a 523d 2f46 28bd 8290 3d3c
00000180: 3adf 5bbc f08a 0fbd a7dd b8bd 12ed f23a
00000190: 174f 173d e716 5bbd 7267 203c 5b60 953d
000001a0: c9bb 953b 769d 093d 4546 53bd 3ed2 30bd
000001b0: 57d7 e0bc e1fe 333d 013e 8538 78d5 de3d
000001c0: 9904 95bd 2801 493d 0db8 f13c 092d e8bc
000001d0: 7fde f93c 3b1c 4bbd 3066 163d 0832 363d
000001e0: 3644 1dbd dde5 2e3a 944d 003d e78e 01be
000001f0: 09b0 08bd b1fb 87ba 2fed 093d 7fff 42bd
00000200: 3f39 d9bc e633 323d 31fc aebc b334 9f3d
00000210: 01ea aebb b923 e0bc 254a a13c 64db 50bd
00000220: 0e00 993c 973c 813c 3c30 18bd 8d39 9c3d
00000230: 354d b3bb 55a8 58bd 943b 10bd 3672 b6bc
00000240: 0d69 bebc 6342 193d 9b40 51bc a8f2 62bd
00000250: 6289 c4ba c44f a63c 9e2d c9bc 1c3b 8bbc
00000260: 52e9 1f3d 9655 e63c a003 ee3c 030d 3cbd
00000270: a0c9 59bd 2be9 c53b 96d9 07bc 6b76 e5bc
00000280: 78b4 0d3c 5c4f 173d fe80 95bb 8a0f 853c
00000290: 863d 473d 59e7 86bd 4900 ca3c 2c47 0e3d
000002a0: c6e2 cf3c 7907 da3c fb77 b1bc dd3f c2bc
000002b0: d2e0 8c39 4de3 d73c fa6b d73c a4ca 2cbd
000002c0: bca5 26bc 9747 9cbd 7b01 98bc 3c19 89bd
000002d0: 6bfc ff3c 76bf 80bd c08b 3a3d df0f 0fbd
000002e0: 2338 b3bb 976b 8bbd 1f75 4d3d 38c2 61bc
000002f0: cb85 aa39 c344 9e3d fe63 acba bc48 9b3b
00000300: 9205 9cbc 54b6 563d 083c 063d 6b1a dcbc
00000310: 8fb4 0d3c b24b 0bbd d6c7 fd3c 9016 103d
00000320: 1037 17bd 2477 973b 71fa 7bbb f2f4 7b3d
00000330: e7b1 69bd f740 243b 3ab5 a03c 217f c8bc
00000340: f62a c13c 2dac 7f3d a488 84bd 6c96 403d
00000350: e1a4 9ebc 0566 cabc 5e11 f9bb 2fbc 5abd
00000360: 0864 63bd 4709 3dbb 51c9 49bc d017 e6bc
00000370: b012 debb 54aa e13c 78ab 113d 6ed7 ac3b
00000380: bcd1 1bbd 518b 693d 7e8f c13c 1ff2 33bd
00000390: f274 463d 0f11 55bc 42c5 773d c2ba 78bc
000003a0: 4dad 873c b5c1 1cbd 97d3 33bd caeb 5d3d
000003b0: 40cf 8b3d 5616 10bd 56ef 28bc 9b89 97bc
000003c0: 9377 7d3d ac0b 19bd d7e7 df3d e675 1fbb
000003d0: 7dfc a93c 6794 243d a812 2abd 5980 aebc
000003e0: fb16 133d 711b aa3d e4b2 e53c 4819 493c
000003f0: 1fb6 513d 9810 823d d4f9 03bd 4452 8f3d

network_body.observation_encoder.x_self_encoder.seq_layers.0.bias f4 [128]
-0.012520848 -0.012375608 0.0040481696 0.014195792 -0.013007775 -0.012244613 -0.00997864 -0.000108705
-0.004828894 -0.0078644315 0.009321227 -0.0050752633 -0.02401114 0.014740228 0.023246903 0.0072490643
0.006389041 -0.0018565848 -0.000110536144 0.02328945 -0.0067060795 0.0029627807 0.018519366 -0.017471556
0.006295189 0.010328994 -0.01319691 0.00014570175 -0.0031239693 -0.014890576 -0.01911489 -0.0030043176
0.005923698 -0.0009900454 -0.016690895 0.018166736 -0.024252232 0.019628908 0.023602797 -0.0030523953
-0.013948232 -0.0008078756 0.018372383 0.017199108 0.014166367 -0.00039921934 -0.012989634 0.0041465377
-0.011514913 0.0029692308 -0.013068639 -0.01199102 0.0071181045 -0.01367706 -0.014957663 -0.003357482
-0.0032413297 -0.0014713227 0.028054716 0.009241012 0.022793502 0.004234217 0.024699984 0.019794721
-0.021226276 -0.0042166854 0.001887256 0.020787219 -0.012128127 0.00916813 -0.00956709 -0.011502011
0.008362143 0.0039286707 0.005789214 0.00546571 0.019348236 -0.010354254 -0.0022437412 -0.00988443
0.024548825 0.0007071542 0.0020611023 -0.0038523274 0.0024591724 0.019417726 0.023922939 0.015891388
0.022857435 -0.017419057 0.00731209 -0.023960002 0.013588634 -0.0033896305 0.020795345 0.0072449846
0.016918736 -0.0073876823 0.013764169 0.023795737 0.023470733 0.008337377 0.016434899 -0.01089598
0.0066107083 -0.0037462527 -0.0027472635 0.019489808 0.008037329 -0.0017742953 0.007914977 -0.028185245
0.012990983 0.008652765 -0.0034108374 -0.0034676201 -0.0006220003 0.01855811 -0.008922794 0.008847641
0.011677877 0.0058376966 0.01948169 0.010917314 0.005045189 0.0010731024 -0.0021257093 0.019022286
00000000: 3e24 4dbc 10c3 4abc 82a6 843b 7895 683c
00000010: 901e 55bc a19d 48bc 737d 23bc 8df8 e3b8
00000020: b33b 9ebb d1d9 00bc 0fb8 183c 654e a6bb
00000030: 03b3 c4bc ff80 713c 4a70 be3c 8f89 ed3b
00000040: 295b d13b a658 f3ba a4cf e7b8 84c9 be3c
00000050: acbe dbbb 362b 423b edb5 973c 8220 8fbc
00000060: df47 ce3b f13a 293c da37 58bc 84c7 1839
00000070: 82bb 4cbb 9af7 73bc d496 9cbc 16e4 44bb
00000080: 951b c23b 69c4 81ba 58bb 88bc 68d2 943c
00000090: 9eac c6bc cecc a03c a75a c13c b20a 48bb
000000a0: 2087 64bc 9dc7 53ba ae81 963c 25e5 8c3c
000000b0: 0d1a 683c 504e d1b9 79d2 54bc aedf 873b
000000c0: 0ca9 3cbc 6d97 423b d81d 56bc fc75 44bc
000000d0: fd3e e93b bf15 60bc fc10 75bc 3309 5cbb
000000e0: 7d6c 54bb 66d9 c0ba 01d3 e53c 9d67 173c
000000f0: 70b9 ba3c 30bf 8a3b 9f57 ca3c 8a28 a23c
00000100: bae2 adbc 1f2c 8abb ce5d f73a f549 aa3c
00000110: 0db5 46bc ed35 163c 49bf 1cbc ee72 3cbc
00000120: 5f01 093c 14bc 803b 72b3 bd3b b319 b33b
00000130: 3180 9e3c e4a4 29bc bb0b 13bb 4ef2 21bc
00000140: 9e1a c93c 5160 393a 8f13 073b 5477 7cbb
00000150: 112a 213b ec11 9f3c 0afa c33c a82e 823c
00000160: 843f bb3c 69b2 8ebc 429a ef3b c447 c4bc
00000170: dda2 5e3c 9024 5ebb 005b aa3c 5667 ed3b
00000180: 2999 8a3c 5f14 f2bb 1c83 613c 47ef c23c
00000190: b245 c03c 7e99 083c 7ba2 863c 0d85 32bc
000001a0: a49e d83b b183 75bb 6f0b 34bb 17a9 9f3c
000001b0: 00af 033c 798f e8ba d2ad 013c bee4 e6bc
000001c0: 22d8 543c 54c4 0d3c 5b88 5fbb 0341 63bb
000001d0: bc0d 23ba 2d07 983c e930 12bc b2f5 103c
000001e0: 9154 3f3c 264a bf3b 1198 9f3c 89de 323c
000001f0: 1d52 a53b 57a7 8c3a 7c4f 0bbb a0d4 9b3c

network_body._body_endoder.seq_layers.0.weight f4 [64, 131]
-0.09100256 -0.04774938 -0.0867829 0.11197111 -0.18526672 -0.0071017668 0.08717313 0.11936537
0.0043173567 -0.070332736 -0.0113028195 0.12544313 0.04996753 0.07257357 0.038145326 -0.050550114
-0.020821813 0.06840749 -0.019533122 -0.09316551 0.21268249 -0.048309073 0.12259623 0.058357574
0.026996024 -0.06483848 0.08875151 -0.04119394 0.09803509 0.08202176 0.031474967 0.18147829
-0.017099341 0.07205146 -0.13029543 -0.07092844 -0.10433258 -0.052933976 0.09985593 0.025898108
-0.025247073 -0.09408132 -0.07269398 0.07394864 -0.09874805 -0.07533187 0.19863816 0.015231719
0.17585902 -0.16940573 0.011677134 0.04134771 0.14041916 0.04290246 0.08557099 0.07732135
-0.018780084 -0.041103985 0.0064497157 0.013700567 -0.06359231 -0.11780578 0.02406734 0.06864865
0.07157202 -0.0045941225 0.005668297 0.041296463 -0.10227251 0.14123717 -0.025298765 0.1322113
0.33934703 -0.058311895 0.12945132 0.049048 0.07558102 -0.031909514 -0.013197287 0.019273939
-0.06977866 0.060730893 -0.14536618 -0.08549714 -0.022677727 -0.03864226 -0.012305212 -0.10009935
-0.13881265 0.06966866 0.076401494 -0.040935375 0.007784523 0.09569229 -0.03888604 -0.17183846
-0.09624202 -0.04916605 -0.17238985 -0.03141972 0.017162137 0.12975822 -0.02300304 0.022358317
0.08172587 0.11985495 0.12672788 0.24629122 -0.110945165 -0.18334183 -0.032356825 -0.064670786
-0.026048424 0.01793356 0.04192943 -0.13620692 0.11481731 0.053088844 0.021680519 0.07391912
0.13234986 -0.043633506 0.0364442 0.09484144 0.03399378 -0.054942884 -0.0010083208 0.085434884
-0.06739299 -0.037584633 -0.0326482 -0.06616252 -0.059267547 -0.18989515 0.03995309 -0.16800386
0.041663554 -0.01917062 -0.11746148 -0.04711525 -0.051122606 -0.060300365 0.16264305 -0.027769191
-0.020841565 0.011630224 -0.0060854447 0.04588747 0.0012527233 -0.090511315 -0.021305041 0.06823032
0.04817527 -0.009343673 0.07260722 -0.016345233 -0.0046094507 0.052317668 -0.024878785 0.0559843
-0.06712835 0.037677072 0.0063927937 -0.13390376 -0.0055122953 -0.09303269 0.10338221 -0.058029894
-0.1345054 -0.1269772 -0.14428596 0.08019389 0.06845206 0.038458586 0.034516923 -0.023883754
0.12515529 -9.2075796e-05 0.15066366 0.07710758 0.09623014 0.0028258318 0.06332519 0.07844155
0.09250845 -0.011854086 -0.04511913 0.19287705 0.1518614 -0.093863964 -0.06643971 0.05391101
-0.034071673 -0.14743167 -0.0725066 0.024368282 -0.1515142 -0.034890763 -0.11180875 0.048989777
0.18267629 -0.042847186 -0.09788252 -0.049273487 0.12151063 -0.02816748 -0.12505242 0.058685802
0.032121677 -0.10676164 0.14874294 0.10900267 0.07710462 0.0194544 -0.06267397 0.13207966
0.0516552 0.042721093 0.08956767 0.034735702 0.048418626 -0.024586571 0.12558708 -0.13423465
-0.09454459 -0.08903727 -0.0017232336 -0.19470905 -0.021230126 -0.1061822 0.033981066 0.01783394
0.022299614 -0.023934856 -0.09991233 0.020671401 -0.03785354 -0.09618338 -0.18473239 0.059942394
0.065631166 -0.014262094 -0.040525574 -0.11070123 0.15339248 0.0010122171 0.08011232 0.03204056
-0.0072255805 0.10186151 -0.289606 -0.08643241 0.10300509 -0.015566541 -0.13833736 -0.02070922
00000000: 8d5f babd db94 43bd 3cbb b1bd 1c51 e53d
00000010: 8fb6 3dbe f0b5 e8bb d387 b23d d575 f43d
00000020: 9d78 8d3b 9c0a 90bd 762f 39bc 2a74 003e
00000030: c1aa 4c3d 74a1 943d 463e 1c3d a30d 4fbd
00000040: 8292 aabc 3a19 8c3d ed03 a0bc 8fcd bebd
00000050: 70c9 593e bcdf 45bd bb13 fb3d 5a08 6f3d
00000060: c426 dd3c 09ca 84bd 5ac3 b53d faba 28bd
00000070: 9fc6 c83d 06fb a73d e5eb 003d 72d5 393e
00000080: eb13 8cbc b78f 933d 2a6c 05be ee42 91bd
00000090: 52ac d5bd 4cd1 58bd 4481 cc3d 4528 d43c
000000a0: f3d2 cebc b5ad c0bd 95e0 94bd 6272 973d
000000b0: 6b3c cabd 9847 9abd cd67 4b3e 768e 793c
000000c0: 6314 343e b278 2dbe 7351 3f3c 375c 293d
000000d0: 0aca 0f3e 7dba 2f3d d83f af3d a85a 9e3d
000000e0: b1d8 99bc a75c 28bd 2358 d33b 5878 603c
000000f0: af3c 82bd 2844 f1bd df28 c53c aa97 8c3d
00000100: 5a94 923d 4b8a 96bb 1fbd b93b 7b26 293d
00000110: 4074 d1bd 7aa0 103e 5b3f cfbc 6662 073e
00000120: e5be ad3e 74d8 6ebd e38e 043e 8ee6 483d
00000130: 39ca 9a3d 8db3 02bd 6f39 58bc 61e4 9d3c
00000140: 1de8 8ebd f5c0 783d dfda 14be 2019 afbd
00000150: a4c6 b9bc 5947 1ebd cd9b 49bc e300 cdbd
00000160: e724 0ebe 71ae 8e3d 6378 9c3d daab 27bd
00000170: 5015 ff3b 52fa c33d f846 1fbd 6cf6 2fbe
00000180: 891a c5bd 5762 49bd f786 30be f7b1 00bd
00000190: 9c97 8c3c 57df 043e df70 bcbc ca28 b73c
000001a0: e55f a73d 8376 f53d f4c4 013e c433 7c3e
000001b0: 3837 e3bd f6bd 3bbe 9788 04bd 1e72 84bd
000001c0: 8163 d5bc 67e9 923c 32be 2b3d d479 0bbe
000001d0: 5625 eb3d b073 593d 589b b13c e862 973d
000001e0: b986 073e 0cb9 32bd 8346 153d 3b3c c23d
000001f0: 103d 0b3d ca0b 61bd a229 84ba 7cf8 ae3d
00000200: 5605 8abd 58f2 19bd 1eba 05bd 3780 87bd
00000210: 87c2 72bd e073 42be daa5 233d 3409 2cbe
00000220: 67a7 2a3d b40b 9dbc a58f f0bd ecfb 40bd
00000230: f065 51bd 84fd 76bd e68b 263e 377c e3bc
00000240: eebb aabc b28c 3e3c 6968 c7bb 80f4 3b3d
00000250: 6b32 a43a ff5d b9bd e987 aebc 57bc 8b3d
00000260: 6f53 453d 3416 19bc 18b3 943d 70e6 85bc
00000270: e00a 97bb 0d4b 563d 98ce cbbc cb4f 653d
00000280: 977a 89bd 4653 1a3d a47a d13b 111e 09be
00000290: 7ca0 b4bb ec87 bebd 0dba d33d c1b0 6dbd
000002a0: c9bb 09be 5006 02be b3bf 13be b23c a43d
000002b0: 9830 8c3d c086 1d3d 9e61 0d3d dda7 c3bc
000002c0: b528 003e d118 c1b8 9347 1a3e 94ea 9d3d
000002d0: 4f14 c53d 9731 393b a3b0 813d f7a5 a03d
000002e0: 1275 bd3d a437 42bc d6ce 38bd 9081 453e
000002f0: 8e81 1b3e c03b c0bd 8b11 88bd cbd1 5c3d
00000300: bd8e 0bbd 54f8 16be 577e 94bd fe9f c73c
00000310: 8a26 1bbe 9ee9 0ebd fcfb e4bd 81a9 483d
00000320: 7e0f 3b3e 8880 2fbd a176 c8bd ffd2 49bd
00000330: 91da f83d 7dbf e6bc be0d 00be 8660 703d
00000340: 0592 033d d9a5 dabd 1250 183e cb3c df3d
00000350: 07e9 9d3d d55e 9f3c 365b 80bd e43f 073e
00000360: 6794 533d 50fc 2e3d 416f b73d 0647 0e3d
00000370: 9c52 463d c769 c9bc e699 003e cf74 09be
00000380: 98a0 c1bd 2c59 b6bd 20de e1ba cf61 47be
00000390: cdea adbc 0e76 d9bd bb2f 0b3d 7c18 923c
000003a0: aead b63c 0813 c4bc d69e ccbd 1257 a93c
000003b0: 500c 1bbd cbfb c4bd 7d2a 3dbe 2886 753d
000003c0: a269 863d 8fab 69bc 25fe 25bd 54b7 e2bd
000003d0: eb12 1d3e 5fac 843a ee11 a43d f63c 033d
000003e0: 90c4 ecbb c49c d03d 3d47 94be 7a03 b1bd
000003f0: 55f4 d23d ce0a 7fbc 4fa8 0dbe 62a6 a9bc

network_body._body_endoder.seq_layers.0.bias f4 [64]
-0.08438092 0.07044395 0.051790323 0.033683404 0.09557327 0.07712273 -0.08324016 0.03728638
-0.061508726 -0.07535539 0.079613 0.010666806 0.059796646 0.021416584 0.07665434 -0.05385302
0.059289295 0.057499133 0.0816398 0.0472799 -0.08502494 0.038509008 0.05712497 -0.07617991
0.042613693 -0.086440586 -0.13287659 -0.08625325 0.04610145 0.029104479 -0.08167003 -0.106609665
-0.09151437 -0.00088137935 -0.05556433 -0.04887701 0.0764659 -0.0959375 0.045715507 -0.054874964
0.049090903 -0.058574963 -0.11001753 -0.10247128 -0.0825861 0.07500472 0.058677334 0.05159025
0.040074516 0.065737486 -0.09135348 0.053250127 0.052084316 -0.11283941 0.062513925 -0.08401356
0.061485846 0.08529816 -0.06548474 -0.07585623 0.08984701 0.0753339 0.07938497 0.057293218
00000000: e7cf acbd eb44 903d 1722 543d 9cf7 093d
00000010: ebbb c33d 86f2 9d3d d179 aabd 9ab9 183d
00000020: 93f0 7bbd ed53 9abd 240c a33d d4c3 2e3c
00000030: 54ed 743d d571 af3c f3fc 9c3d fc94 5cbd
00000040: 55d9 723d 3684 6b3d c432 a73d 92a8 413d
00000050: 8e21 aebd 9fbb 1d3d dffb 693d 3604 9cbd
00000060: b28b 2e3d c307 b1bd cd10 08be 8ba5 b0bd
00000070: e0d4 3c3d 846c ee3c 9e42 a7bd 2b56 dabd
00000080: e36b bbbd 5e0c 67ba 6c97 63bd 4233 48bd
00000090: 279a 9c3d e17a c4bd 2f40 3b3d 92c4 60bd
000000a0: 8b13 493d 4dec 6fbd df50 e1bd 76dc d1bd
000000b0: e722 a9bd 139c 993d a557 703d 4c50 533d
000000c0: 2d25 243d 60a1 863d 8917 bbbd ce1c 5a3d
000000d0: 5d56 553d 5918 e7bd 4d07 803d 4d0f acbd
000000e0: 95d8 7b3d cdb0 ae3d dd1c 86bd 835a 9bbd
000000f0: b601 b83d a948 9a3d 9694 a23d 4bac 6a3d

network_body._body_endoder.seq_layers.2.weight f4 [64, 64]
-0.02735733 -0.21758567 -0.053310465 0.10834471 -0.0074186297 0.27395642 0.08151825 0.09412513
-0.03708213 -0.044105217 0.05140334 0.07169618 0.040037524 -0.06542111 0.09010872 -0.08392612
-0.06605368 -0.15480416 0.17910011 -0.045261487 0.178049 -0.095418334 0.06916026 0.09699196
0.017778872 -0.1196521 0.05240746 0.29488307 0.009353627 0.24700388 0.09504708 -0.024189763
-0.09924102 0.058220018 -0.11055981 -0.097212814 0.058301747 -0.1832196 0.023669593 0.045143645
-0.06363995 0.06647762 0.14465292 -0.22743587 0.09738071 0.15092793 0.11651387 -0.030527588
0.13297357 0.09853501 -0.16968866 0.16153985 -0.32995805 -0.050746206 0.049191035 -0.08758309
-0.06700277 -0.14421028 -0.026689904 -0.10064037 -0.03756548 0.025682393 0.18572628 0.1644932
-0.023395088 -0.016872492 -0.104628205 0.19721168 0.111411475 -0.09621145 0.11815604 0.040201973
-0.005448094 -0.07316056 -0.07219244 0.26817438 0.07976275 0.017847123 -0.045170326 0.035577297
-0.08686771 -0.024648227 0.036044005 0.0067579574 -0.18409131 -0.07478678 -0.1321401 0.11263337
0.13825347 0.010097151 -0.009623709 0.08736069 0.020990336 0.102968566 0.039795592 0.01555026
-0.005124294 0.06986765 -0.031547982 -0.32773057 -0.09638114 0.14033943 0.10895037 0.0856068
-0.14973746 -0.14616394 0.24833421 -0.12134286 -0.23409328 0.081666894 0.05388788 0.1633722
0.11451465 0.13737363 -0.14472744 0.19469918 0.07870397 0.019608589 0.110351525 0.05830106
0.013959197 -0.11011888 -0.07894701 -0.039887488 -0.06689561 0.017467191 0.055963792 0.019039003
0.083888024 -0.17773685 0.15373635 -0.12553957 0.31099927 0.061267428 0.15061006 -0.0139328055
0.029176077 -0.11439351 0.104924075 0.11333426 0.19204088 -0.0052062455 0.13363235 0.021557435
0.15738446 0.08175844 -0.17670818 0.003035795 -0.16716364 0.30331808 0.17173949 -0.12015238
0.06226288 -0.086827554 -0.08434886 -0.06614237 0.38778225 0.01873149 0.014679533 0.1585843
0.1851094 -0.14125696 0.007927786 -0.045158632 0.16911578 -0.02475469 -0.21779533 -0.043748945
0.14173731 -0.12161436 -0.14284132 0.0017773365 0.051920105 0.25913292 0.22865562 0.20212047
-0.043675408 0.15212852 0.022738695 -0.10279318 0.03458321 -0.1690318 0.11804906 -0.24862254
0.058909588 -0.065521784 -0.15803817 -0.18199183 0.12017611 -0.0464383 0.08768348 -0.03711165
-0.18834968 -0.18209603 0.04945138 0.03862614 0.12944885 0.01421097 -0.31438884 -0.06331918
-0.16793017 0.13084196 0.06538272 -0.46833232 0.107989736 -0.005173701 -0.10298224 -0.060561724
0.09520212 -0.038706258 0.047009245 0.13423584 -0.08116551 0.23224364 0.08095609 0.014549681
-0.029961979 0.04293713 0.17736135 -0.11906169 0.12671871 0.18026847 -0.10493213 -0.19978608
-0.11090627 -0.06878887 0.040342543 0.03906622 0.08603299 0.15031597 0.089184314 0.06736654
0.2612802 0.14891553 0.022259245 -0.18899715 -0.08052343 -0.08627905 -0.03255781 0.13560514
-0.06762932 -0.029446037 0.025777293 0.047979195 -0.16939451 0.11932477 -0.14492092 0.14560618
0.07077203 -0.081831485 0.13165067 0.0020900292 0.14472847 -0.12696531 -0.063733205 0.072666675
00000000: 7b1c e0bc c7ce 5ebe 135c 5abd d5e3 dd3d
00000010: fa17 f3bb 0444 8c3e 0af3 a63d adc4 c03d
00000020: 6ee3 17bd aca7 34bd 4f8c 523d 72d5 923d
00000030: 63fe 233d 81fb 85bd ec8a b83d 75e1 abbd
00000040: 2747 87bd fb84 1ebe 0566 373e 1c64 39bd
00000050: 7a52 363e b06a c3bd e5a3 8d3d b9a3 c63d
00000060: ffa4 913c 290c f5bd 34a9 563d eafa 963e
00000070: f53f 193c 96ee 7c3e 0ba8 c23d 9c29 c6bc
00000080: e03e cbbd 1d78 6e3d 2f6d e2bd 8317 c7bd
00000090: d0cd 6e3d eb9d 3bbe bce6 c13c 8be8 383d
000000a0: a955 82bd 6b25 883d e51f 143e f3e4 68be
000000b0: 8a6f c73d da8c 1a3e d39e ee3d fe14 fabc
000000c0: 392a 083e b9cc c93d ddc2 2dbe b46a 253e
000000d0: 43f0 a8be 41db 4fbd 8a7c 493d c35e b3bd
000000e0: c038 89bd dcab 13be c9a4 dabc 8a1c cebd
000000f0: 43de 19bd e263 d23c 082f 3e3e e870 283e
00000100: 0ea7 bfbc 2e38 8abc 5047 d6bd dcf1 493e
00000110: b32b e43d 820a c5bd cbfb f13d d3aa 243d
00000120: ed85 b2bb 34d5 95bd a1d9 93bd 274e 893e
00000130: a75a a33d 2134 923c 8504 39bd 80b9 113d
00000140: b3e7 b1bd 14eb c9bc e1a2 133d db71 dd3b
00000150: 6f82 3cbe d029 99bd bc4f 07be 53ac e63d
00000160: 5192 0d3e 856e 253c c3ac 1dbc 29ea b23d
00000170: edf3 ab3c 2fe1 d23d b400 233d 85c6 7e3c
00000180: b2e9 a7bb c516 8f3d 7538 01bd 4dcc a7be
00000190: 7a63 c5bd 24b5 0f3e 5f21 df3d 9e52 af3d
000001a0: c754 19be 00ac 15be 534b 7e3e 9b82 f8bd
000001b0: 26b6 6fbe f940 a73d 8ab9 5c3d 0b4b 273e
000001c0: a886 ea3d acab 0c3e 6e33 14be 395f 473e
000001d0: 8c2f a13d 31a2 a03c fbff e13d 18cd 6e3d
000001e0: 1eb5 643c 0286 e1bd f8ae a1bd 1061 23bd
000001f0: 9100 89bd 5b17 8f3c 4a3a 653d aff7 9b3c
00000200: 7ccd ab3d a600 36be 106d 1d3e 728d 00be
00000210: 4c3b 9f3e 8ef3 7a3d 8639 1a3e 6c46 64bc
00000220: ab02 ef3c 2547 eabd 6fe2 d63d cb1b e83d
00000230: 5da6 443e 2799 aabb ebd6 083e 3899 b03c
00000240: 6429 213e f870 a73d fdf2 34be 30f4 463b
00000250: f22c 2bbe 824c 9b3e 7adc 2f3e 7312 f6bd
00000260: 5d07 7f3d a5d2 b1bd 18bf acbd a775 87bd
00000270: 658b c63e c872 993c 6d82 703c ec63 223e
00000280: 528d 3d3e aaa5 10be 8be3 013c 42f8 38bd
00000290: b02c 2d3e 59ca cabc bd05 5fbe 1832 33bd
000002a0: 9623 113e f310 f9bd ff44 12be 84f5 e83a
000002b0: 2daa 543d 12ad 843e b324 6a3e abf8 4e3e
000002c0: fce4 32bd 94c7 1b3e 8046 ba3c 3b85 d2bd
000002d0: 20a7 0d3d ac16 2dbe b5c3 f13d e896 7ebe
000002e0: 2e4b 713d 4930 86bd c2d4 21be 115c 3abe
000002f0: e41e f63d 1636 3ebd 6593 b33d 6302 18bd
00000300: bdde 40be 6277 3abe 888d 4a3d 7236 1e3d
00000310: 3d8e 043e 21d5 683c 93f7 a0be 7cad 81bd
00000320: e3f5 2bbe 6ffb 053e 60e7 853d 41c9 efbe
00000330: b929 dd3d 2688 a9bb 5ae8 d2bd 920f 78bd
00000340: 54f9 c23d 748a 1ebd c48c 403d 1f75 093e
00000350: 1a3a a6bd 47d1 6d3e 4ecc a53d c961 6e3c
00000360: d372 f5bc d8de 2f3d 379e 353e 9ed6 f3bd
00000370: 8dc2 013e 4c98 383e a8e6 d6bd b994 4cbe
00000380: d422 e3bd 2ee1 8cbd 393e 253d e703 203d
00000390: 1032 b03d 6eec 193e 44a6 b63d 78f7 893d
000003a0: 85c6 853e 507d 183e 0559 b63c 7888 41be
000003b0: 78e9 a4bd 12b3 b0bd 575b 05bd 13dc 0a3e
000003c0: 3e81 8abd d138 f1bc e72a d33c d585 443d
000003d0: c175 2dbe 8c60 f43d 2666 14be c919 153e
000003e0: edf0 903d 4497 a7bd 6fcf 063e dff8 083b
000003f0: b333 143e 3203 02be 8e86 82bd 44d2 943d

network_body._body_endoder.seq_layers.2.bias f4 [64]
0.0560504 -0.013003367 0.04188064 0.025892898 0.057832066 0.026081273 0.035547692 0.046606854
0.028625825 -0.06994105 0.043837015 -0.07784252 0.05162365 0.08202522 -0.08127834 0.04082895
0.058971927 0.041398358 0.035155617 0.06496816 0.057026602 -0.08091892 0.007063075 0.052339368
0.05813938 -0.041638926 0.06877465 -0.011526659 0.059268698 0.06735129 0.110014156 -0.05411557
0.032849673 0.058699656 -0.11554337 -0.078722745 -0.016915165 0.047358546 0.068271846 0.07374593
0.06453139 -0.070431784 -0.01149698 0.040214956 0.064380825 -0.073865265 0.044497482 0.04936533
-0.034860272 0.0593725 -0.09605679 -0.047241673 0.027844556 0.12405721 0.05695542 0.035556927
0.010452447 -0.09447616 -0.07061259 0.03323028 -0.083491154 -0.10158519 0.04942321 0.04111003
00000000: 1b95 653d 130c 55bc 098b 2b3d 581d d43c
00000010: 51e1 6c3d 65a8 d53c 759a 113d d4e6 3e3d
00000020: b580 ea3c 413d 8fbd 718e 333d e66b 9fbd
00000030: 5273 533d d7fc a73d 4275 a6bd 423c 273d
00000040: 8c8c 713d 5391 293d 56ff 0f3d 070e 853d
00000050: ba94 693d d2b8 a5bd 5e71 e73b ce61 563d
00000060: 8f23 6e3d 948d 2abd b9d9 8c3d 50da 3cbc
00000070: bcc3 723d 79ef 893d 1a4f e13d 4aa8 5dbd
00000080: 618d 063d 0d6f 703d 01a2 ecbd 6439 a1bd
00000090: ac91 8abc 09fb 413d 1cd2 8b3d 1b08 973d
000000a0: 0929 843d 8a3e 90bd d45d 3cbc 70b8 243d
000000b0: 18da 833d ac46 97bd fe42 363d 4d33 4a3d
000000c0: a5c9 0ebd 9430 733d 6cb9 c4bd 7c80 41bd
000000d0: 441a e43c b511 fe3d 164a 693d 24a4 113d
000000e0: be40 2b3c b87c c1bd 559d 90bd 791c 083d
000000f0: 69fd aabd e50b d0bd fe6f 4a3d fe62 283d

action_model._discrete_distribution.branches.0.weight f4 [6, 64]
-0.01436144 -0.019776706 -0.014224561 -0.010286067 -0.00498682 -0.024068248 0.023043418 -0.011086788
-0.021370484 0.008355187 -0.0033089074 -0.020366404 -0.009119035 -0.012400769 -0.023000527 -0.007136869
0.0053839823 0.016183257 -0.0139739625 0.006561225 0.013508839 -0.022634732 -0.026587943 0.00032846088
0.0072209006 0.0115561765 0.0037219308 0.011318753 0.00072497694 -0.0062167826 0.039753232 -0.019823331
-0.015987158 0.009713745 -0.015311862 -0.015367806 0.013976843 0.029209489 0.0004519071 0.0030530978
-0.017562607 0.00101799 0.015537426 0.010207407 -0.01936231 0.0014842012 -0.017890822 0.008727308
-0.027695939 -0.0031363966 -0.038648844 -0.0096251825 -0.014031268 0.051247053 0.00534277 -0.016409388
0.005258632 -0.0029752182 -0.0019687596 -0.026231369 -0.005868252 -0.052348 0.0064248503 0.0135181965
-0.028769504 -0.0016848614 -0.024888445 -0.00938386 -0.031623818 -0.028510021 0.0019769992 -0.040594794
-0.030572098 0.043661874 -0.022013184 0.016242372 -0.03336913 -0.034509722 0.029268533 -0.025675366
-0.02617383 -0.040180754 -0.022707725 -0.014079098 -0.03791717 0.023713298 -0.0074970624 -0.012974943
-0.019527588 0.030959403 -0.045791253 0.005177413 -0.030997293 -0.04501693 -0.019224161 0.009793801
-0.018081069 -0.03172114 0.021898137 0.02633727 0.010203715 -0.0061530494 -0.050876193 -0.04052475
-0.03998635 0.04016481 0.0036495125 -0.00050730584 -0.044451308 0.03192193 -0.03417928 -0.03478239
0.016359694 -0.062885374 0.020112462 0.015381725 -0.018796455 -0.023208572 -0.02020934 -0.024983745
-0.0038705217 0.028873876 0.014126548 -0.024999363 0.031658962 0.024290133 -0.027066572 -0.024201207
0.042420328 0.0083485395 0.04627782 0.046410345 0.006688621 0.028853051 -0.017715152 0.04785352
0.014194858 -0.013636302 0.06354001 -0.0036077674 0.017360931 0.026715647 -0.009826206 0.027943457
0.033067286 0.033619307 0.031150889 0.034549013 0.025867868 0.0043720435 0.029899657 0.01779909
0.054151952 -0.027318472 0.03403508 -0.0032906784 0.044112958 0.031673197 -0.023165777 -0.012579434
0.03899871 0.020891877 -0.020880893 -0.04570014 -0.0004665156 -0.036748126 0.036556166 0.017951794
0.050024346 -0.012241626 0.03457676 0.039228216 0.021481516 -0.014275572 0.030957459 0.036678467
-0.00054352573 0.023911359 0.0033299336 0.0283175 0.04293358 -0.023115536 0.03781112 0.030314226
0.0628471 -0.0031005498 -0.011688651 0.04902303 -0.03400579 -0.038019683 0.048281 0.060559686
-0.00050587975 0.026786298 0.010682135 0.045982704 0.0059352056 0.023731545 -0.010073996 -0.001188739
-0.0044059055 -0.0077064005 0.006068867 0.013299033 0.014893072 0.015688537 -0.0064656693 0.022553671
0.011846361 0.034979675 0.034552105 0.019787699 0.01263284 0.0030800558 0.038499337 0.023863237
0.012975319 0.0011222715 0.019152764 0.0037190493 0.033198122 -0.013476209 -0.024365464 -0.02621742
0.030221097 0.032525323 -0.026112633 -0.03708071 -0.021731751 -0.0031293528 -0.008900803 0.00963014
0.00659494 -0.01225445 -0.028593235 0.02768359 -0.002555634 -0.014730346 0.027459301 0.01461773
0.010835559 -0.004441702 0.009197158 -0.028087635 0.008882872 -0.007180927 0.01546187 0.027352648
-0.008470375 0.0028644947 -0.0015889086 0.028190322 0.00033720504 -0.012054353 0.019253153 0.03388042
00000000: 3f4c 6bbc c202 a2bc 220e 69bc e486 28bc
00000010: 7a68 a3bb c62a c5bc 8dc5 bc3c 5ca5 35bc
00000020: 2711 afbc 32e4 083c 41da 58bb 72d7 a6bc
00000030: 0168 15bc 982c 4bbc 9a6b bcbc 65dc e9bb
00000040: 1e6c b03b c092 843c 0cf3 64bc 8bff d63b
00000050: 2d54 5d3c 796c b9bc f5ce d9bc 4635 ac39
00000060: 4e9d ec3b 1e56 3d3c a3eb 733b 4a72 393c
00000070: 610c 3e3a 27b6 cbbb 49d4 223d 8a64 a2bc
00000080: 80f7 82bc 6626 1f3c 9bde 7abc 40c9 7bbc
00000090: 21ff 643c bd48 ef3c f2ed ec39 7b16 483b
000000a0: 75df 8fbc 146e 853a b090 7e3c f83c 273c
000000b0: b59d 9ebc 8789 c23a c68f 92bc fcfc 0e3c
000000c0: 98e2 e2bc 018c 4dbb 404e 1ebd f1b2 1dbc
000000d0: 67e3 65bc 6ee8 513d 6712 af3b fb6c 86bc
000000e0: 9a50 ac3b e1fb 42bb 4e06 01bb 2be3 d6bc
000000f0: 774a c0bb db6a 56bd 8d87 d23b 6d7b 5d3c
00000100: 06ae ebbc 91d6 dcba dae2 cbbc c3be 19bc
00000110: fa87 01bd d98d e9bc 8b90 013b ba46 26bd
00000120: 5672 fabc cbd6 323d fe54 b4bc b90e 853c
00000130: 12ae 08bd 115a 0dbd 90c4 ef3c 2555 d2bc
00000140: 806a d6bc 9394 24bd 8d05 babc 04ac 66bc
00000150: 094f 1bbd 6442 c23c eba9 f5bb db94 54bc
00000160: 52f8 9fbc 939e fd3c 9c8f 3bbd 4aa7 a93b
00000170: 09ee fdbc ac63 38bd fd7b 9dbc 2e76 203c
00000180: c01e 94bc 07ee 01bd b963 b33c 42c1 d73c
00000190: 7c2d 273c 859f c9bb 8e63 50bd 48fd 25bd
000001a0: bac8 23bd db83 243d a92c 6f3b b8fc 04ba
000001b0: 9312 36bd 92c0 023d 93ff 0bbd fb77 0ebd
000001c0: c404 863c 0cca 80bd e4c2 a43c a103 7c3c
000001d0: 06fb 99bc e71f bebc 0f8e a5bc b6aa ccbc
000001e0: 94a8 7dbb e888 ec3c 0973 673c 77cb ccbc
000001f0: d4ac 013d 1afc c63c b7ba ddbc 9c41 c6bc
00000200: f0c0 2d3d 50c8 083c d08d 3d3d c618 3e3d
00000210: 382c db3b 3c5d ec3c 5e1f 91bc 0d02 443d
00000220: 8d91 683c cc6a 5fbc 4421 823d 4b70 6cbb
00000230: 8338 8e3c c6da da3c 18fe 20bc ade9 e43c
00000240: 9071 073d 66b4 093d 2630 ff3c 4483 0d3d
00000250: dae8 d33c 5c43 8f3b 20f0 f43c 66cf 913c
00000260: 70ce 5d3d fdca dfbc 5e68 0b3d 6ca8 57bb
00000270: caaf 343d c1bb 013d 28c6 bdbc f819 4ebc
00000280: 1dbd 1f3d 7125 ab3c 680e abbc 1230 3bbd
00000290: aa96 f4b9 3485 16bd ebbb 153d a40f 933c
000002a0: 54e6 4c3d 1a91 48bc 5ca0 0d3d c4ad 203d
000002b0: 01fa af3c 17e4 69bc 7f9a fd3c 293c 163d
000002c0: 657b 0eba c1e1 c33c 043b 5a3b 1afa e73c
000002d0: 1fdb 2f3d cb5c bdbc d5df 1a3d 8a55 f83c
000002e0: fbb5 803d 9832 4bbb c181 3fbc 5fcc 483d
000002f0: a849 0bbd 87ba 1bbd 4cc2 453d 6f0d 783d
00000300: 049d 04ba f06e db3c 1f04 2f3c 5c58 3c3d
00000310: 1d7c c23b a868 c23c 670d 25bc 76cf 9bba
00000320: 6a5f 90bb f985 fcbb 59dd c63b 30e4 593c
00000330: 1202 743c 3f85 803c f7dd d3bb 7ac2 b83c
00000340: 3d17 423c d946 0f3d 8286 0d3d d019 a23c
00000350: f9f9 4e3c c3da 493b 7bb1 1d3d d67c c33c
00000360: 6f96 543c 2f19 933a 42e6 9c3c 4bbb 733b
00000370: c1fa 073d 51cb 5cbc 159a c7bc eac5 d6bc
00000380: 3c92 f73c 4639 053d 29ea d5bc f1e1 17bd
00000390: c906 b2bc d415 4dbb acd4 11bc bcc7 1d3c
000003a0: 5e1a d83b e3c6 48bc 5c3c eabc b2c8 e23c
000003b0: 6c7c 27bb 8d57 71bc 54f2 e03c 347f 6f3c
000003c0: a187 313c b28b 91bb adaf 163c 0a18 e6bc
000003d0: 7789 113c fb4d ebbb c853 7d3c a912 e03c
000003e0: 54c7 0abc 3fba 3b3b ed42 d0ba 64ef e63c
000003f0: e5ca b039 9f7f 45bc cab8 9d3c 32c6 0a3d

action_model._discrete_distribution.branches.0.bias f4 [6]
0.06900319 -0.042426262 0.016658997 0.014968107 0.0022707474 0.038457442
00000000: 8b51 8d3d 29c7 2dbd 7378 883c cb3c 753c
00000010: d2d0 143b 8d85 1d3d

onnx::Div_164 f4 [3]
0.31404066 0.1583855 1.688797
00000000: f0c9 a03e cf2f 223e 802a d83f
