results/3-23_poca1/simple_wolf/simple_wolf-99987.onnx (onnx, 836063 bytes, 20 tensors)

network_body.observation_encoder.processors.0.self_ent_encoder.seq_layers.0.bias f4 [128]
000000 13 91 7d bb f9 bb 68 3b 50 f8 5c 3c 7e 75 30 3c
       -0.0038691207 0.003551243 0.013486937 0.0107702
000010 a2 81 46 3b 3b ea 51 bb f2 67 9b 3b 30 7d 09 bc
       0.003028967 -0.0032030481 0.004742616 -0.008391663
000020 f2 32 89 3c f5 25 a3 3c 34 27 1b bc 28 c8 59 bc
       0.016747925 0.01991556 -0.009469796 -0.01329235
000030 c6 ff 90 bb a2 34 37 3c 9e 74 85 3b 95 f9 d3 3c
       -0.004425022 0.011181982 0.0040727397 0.025875846
000040 a4 c0 a0 3c 89 e6 36 bc c3 03 cf bc 52 04 c0 bc
       0.019623108 -0.011163362 -0.025270348 -0.02343956
000050 9d 74 80 bc a1 e5 2f bc 30 f9 6d 3b 18 65 8f 3b
       -0.015680606 -0.0107359 0.0036311857 0.004376065
000060 f7 98 8c bc f0 2a 8b bc b6 e9 6e 3c 86 7d d4 ba
       -0.017162783 -0.016988248 0.014582088 -0.0016211725
000070 09 38 f6 bb c6 1d ae 3b 48 9b 12 3a 5b 8b 82 bc
       -0.007514004 0.005313608 0.0005592597 -0.01593559
000080 7c 99 9f 3c 37 5e 83 3a 2c 50 4b 3a c6 4d 6d 3a
       0.019482367 0.0010022585 0.0007755782 0.00090524217
000090 5b 38 f2 3b 6a 52 82 3c 26 d0 46 bc 9f 96 14 3c
       0.007391972 0.015908439 -0.012134587 0.009069114
0000a0 e5 6e 79 bb d7 13 13 bc 72 db 3a bc 39 1a ae 3a
       -0.0038060483 -0.008976898 -0.011404859 0.0013282961
0000b0 62 b9 98 3a a8 f5 c6 3b 61 63 2b 3b 5d 6a 89 ba
       0.0011651928 0.006071765 0.0026151764 -0.0010483969
0000c0 1b 60 29 3c d1 b1 30 bc ab fb 71 3c af 60 99 bb
       0.010337855 -0.010784582 0.014769475 -0.004680715
0000d0 00 46 17 bc ca 00 54 bc 8b 34 1f bc b6 8b 9f 3a
       -0.009232998 -0.012939641 -0.009717117 0.0012172374
0000e0 c6 95 dc bb 69 bc 3c ba d1 40 a0 3c 12 9c 29 3c
       -0.0067317216 -0.0007199706 0.019562157 0.0103521515
0000f0 b1 1c 86 3c a8 aa b4 3c cb 2f 4b bc 2f 28 63 3b
       0.016371103 0.022054031 -0.012401531 0.0034661402
000100 a5 db 7a 3c 13 37 52 3c a1 e5 a1 3b 1f cf 5f 3c
       0.015311156 0.0128305135 0.004940704 0.013660221
000110 8b bd 8e bb e7 e8 97 37 bf 60 89 bb 66 0e 37 bc
       -0.0043560914 1.8109056e-05 -0.0041924412 -0.011172866
000120 1a f4 8e 3c a7 c2 ae 3a 20 5e 15 bc af 34 a0 bb
       0.017450381 0.0013333157 -0.009116679 -0.004889093
000130 49 fd 10 3c 1b ea 81 3b d2 ac c8 3b 5a fb 43 bc
       0.00884945 0.003964675 0.0061241174 -0.011961782
000140 03 ff b2 3c 15 30 47 bc 55 e9 90 bb 44 49 00 3c
       0.021850115 -0.01215746 -0.0044223466 0.007829968
000150 b9 ef 74 bc 01 a5 bd bb 98 55 5b bc 6f ee 4f bc
       -0.014949732 -0.0057874923 -0.013387106 -0.012691124
000160 af 5e 4e 3c ba b6 22 bc 7e 67 64 bc 0b 87 7a bc
       0.0125958165 -0.009931261 -0.01394069 -0.015290986
000170 9d e7 a4 bb e9 b8 89 3c e5 d4 92 bb 27 19 8f 3c
       -0.0050324933 0.016811805 -0.0044809454 0.017468048
000180 11 bf aa 3c 34 9c 93 bb 70 7a 51 bc f3 b7 74 3b
       0.02084306 -0.004504705 -0.012785539 0.0037341088
000190 47 b4 5e 3c f2 e3 c0 3c 44 04 13 3c 61 40 99 3b
       0.013592786 0.023546193 0.008973185 0.004676864
0001a0 64 0b f8 3b 72 d0 c0 bc 71 27 99 3c 7b 24 49 bb
       0.0075697172 -0.023536894 0.018695565 -0.003069191
0001b0 46 5b 10 bc e4 e4 88 3b 30 62 10 bc d4 68 c0 bc
       -0.008810824 0.0041776765 -0.008812472 -0.023487486
0001c0 eb 47 6f 3c bd ad 43 3c db 4e 02 bc 01 cf a0 bc
       0.014604549 0.011943278 -0.007953371 -0.019629957
0001d0 e8 e6 53 bc 6c 58 a1 3c ef c9 40 bc d1 ef c8 ba
       -0.01293347 0.019695483 -0.011766895 -0.001533026
0001e0 de f5 51 bc 0e ab a2 3c 48 75 24 bc c8 38 16 3c
       -0.012814967 0.019856956 -0.010037728 0.009168811
0001f0 a5 09 83 bc e9 a4 0f 3c 26 f8 0d bc 7e 6b 4b bb
       -0.01599581 0.008767345 -0.00866512 -0.0031039412

network_body.observation_encoder.processors.1.self_ent_encoder.seq_layers.0.bias f4 [128]
000000 00 00 00 00 00 00 00 00 00 00 00 00 00 00 00 00
       0.0 0.0 0.0 0.0
000010 00 00 00 00 00 00 00 00 00 00 00 00 00 00 00 00
       0.0 0.0 0.0 0.0
000020 00 00 00 00 00 00 00 00 00 00 00 00 00 00 00 00
       0.0 0.0 0.0 0.0
000030 00 00 00 00 00 00 00 00 00 00 00 00 00 00 00 00
       0.0 0.0 0.0 0.0
000040 00 00 00 00 00 00 00 00 00 00 00 00 00 00 00 00
       0.0 0.0 0.0 0.0
000050 00 00 00 00 00 00 00 00 00 00 00 00 00 00 00 00
       0.0 0.0 0.0 0.0
000060 00 00 00 00 00 00 00 00 00 00 00 00 00 00 00 00
       0.0 0.0 0.0 0.0
000070 00 00 00 00 00 00 00 00 00 00 00 00 00 00 00 00
       0.0 0.0 0.0 0.0
000080 00 00 00 00 00 00 00 00 00 00 00 00 00 00 00 00
       0.0 0.0 0.0 0.0
000090 00 00 00 00 00 00 00 00 00 00 00 00 00 00 00 00
       0.0 0.0 0.0 0.0
0000a0 00 00 00 00 00 00 00 00 00 00 00 00 00 00 00 00
       0.0 0.0 0.0 0.0
0000b0 00 00 00 00 00 00 00 00 00 00 00 00 00 00 00 00
       0.0 0.0 0.0 0.0
0000c0 00 00 00 00 00 00 00 00 00 00 00 00 00 00 00 00
       0.0 0.0 0.0 0.0
0000d0 00 00 00 00 00 00 00 00 00 00 00 00 00 00 00 00
       0.0 0.0 0.0 0.0
0000e0 00 00 00 00 00 00 00 00 00 00 00 00 00 00 00 00
       0.0 0.0 0.0 0.0
0000f0 00 00 00 00 00 00 00 00 00 00 00 00 00 00 00 00
       0.0 0.0 0.0 0.0
000100 00 00 00 00 00 00 00 00 00 00 00 00 00 00 00 00
       0.0 0.0 0.0 0.0
000110 00 00 00 00 00 00 00 00 00 00 00 00 00 00 00 00
       0.0 0.0 0.0 0.0
000120 00 00 00 00 00 00 00 00 00 00 00 00 00 00 00 00
       0.0 0.0 0.0 0.0
000130 00 00 00 00 00 00 00 00 00 00 00 00 00 00 00 00
       0.0 0.0 0.0 0.0
000140 00 00 00 00 00 00 00 00 00 00 00 00 00 00 00 00
       0.0 0.0 0.0 0.0
000150 00 00 00 00 00 00 00 00 00 00 00 00 00 00 00 00
       0.0 0.0 0.0 0.0
000160 00 00 00 00 00 00 00 00 00 00 00 00 00 00 00 00
       0.0 0.0 0.0 0.0
000170 00 00 00 00 00 00 00 00 00 00 00 00 00 00 00 00
       0.0 0.0 0.0 0.0
000180 00 00 00 00 00 00 00 00 00 00 00 00 00 00 00 00
       0.0 0.0 0.0 0.0
000190 00 00 00 00 00 00 00 00 00 00 00 00 00 00 00 00
       0.0 0.0 0.0 0.0
0001a0 00 00 00 00 00 00 00 00 00 00 00 00 00 00 00 00
       0.0 0.0 0.0 0.0
0001b0 00 00 00 00 00 00 00 00 00 00 00 00 00 00 00 00
       0.0 0.0 0.0 0.0
0001c0 00 00 00 00 00 00 00 00 00 00 00 00 00 00 00 00
       0.0 0.0 0.0 0.0
0001d0 00 00 00 00 00 00 00 00 00 00 00 00 00 00 00 00
       0.0 0.0 0.0 0.0
0001e0 00 00 00 00 00 00 00 00 00 00 00 00 00 00 00 00
       0.0 0.0 0.0 0.0
0001f0 00 00 00 00 00 00 00 00 00 00 00 00 00 00 00 00
       0.0 0.0 0.0 0.0

network_body.observation_encoder.processors.2.normalizer.running_mean f4 [3]
000000 5c 04 81 3e 8e 3d 3c 3f 80 73 4e 40
       0.25198638 0.73531425 3.2257996

network_body.observation_encoder.rsa.fc_v.bias f4 [128]
000000 cf 3e 9f 3a b3 20 6e bb 92 f2 ce ba e0 f2 f0 ba
       0.0012149456 -0.0036335408 -0.0015788844 -0.0018382929
000010 1d e6 0b bb b7 e6 1e bb d8 bc 0e 3b 34 d4 14 ba
       -0.0021346875 -0.0024246403 0.002178004 -0.00056773727
000020 c6 95 81 39 a6 5e 80 3b 05 dc 45 39 1f 6b 07 bb
       0.00024716387 0.003917533 0.00018869348 -0.0020663214
000030 24 11 96 3b 44 1e cf 3a d7 41 db 3b 8c 04 8b ba
       0.00457968 0.0015801867 0.0066911983 -0.0010606213
000040 39 ba 25 3b 34 97 e8 b9 48 29 85 3b 6f c4 74 3b
       0.0025288 -0.00044363143 0.004063759 0.003734853
000050 d5 4e 0d 3a a5 91 ed 3b 0d 4f 8a 39 df da be 3a
       0.000539047 0.007250028 0.0002638031 0.0014561078
000060 bf 80 38 ba 6d 4f cf 3a 1b 95 f3 3a d3 69 89 3b
       -0.00070382276 0.0015816517 0.0018583866 0.0041935234
000070 03 de 68 39 8f 92 27 3b 5d bf 37 3b 03 d3 1a 39
       0.0002220795 0.0025569533 0.0028037645 0.00014765192
000080 4a ae b0 ba b8 c3 11 bb cd 75 84 bb 96 e0 0b 3b
       -0.0013479677 -0.0022241902 -0.0040423633 0.002134358
000090 6a 7a 65 ba f9 91 ac ba d1 10 c4 3b 2e 9d 4c bb
       -0.0008753898 -0.0013166062 0.00598345 -0.0031221616
0000a0 60 b7 29 3b 11 b8 42 3b 2f 8a a6 39 94 fd 45 3b
       0.0025896654 0.0029711763 0.00031764942 0.0030210959
0000b0 ed af 62 bb 50 11 2a b9 d9 62 9d 3b f7 5b 38 bb
       -0.0034589723 -0.00016218913 0.0048030433 -0.0028130987
0000c0 f4 98 40 3a 5c 4f a4 b9 70 40 be ba 33 80 93 3b
       0.00073470105 -0.00031339645 -0.0014515053 0.0045013665
0000d0 d0 c1 5e bb a8 5c 86 3b 96 9f db ba 4a 46 93 3a
       -0.0033990033 0.004100401 -0.0016755934 0.0011236158
0000e0 a3 3b c2 b7 bd d7 4d 3a ed 31 8d ba c8 12 bb bb
       -2.3154373e-05 0.0007852277 -0.0010772325 -0.005709026
0000f0 29 4c 61 b9 95 db 03 bb 19 19 27 3b 04 c7 9f 3b
       -0.00021486044 -0.0020119895 0.0025497137 0.0048760194
000100 7e 20 ae 3a 6d 4d 63 ba db ec 0b 3b 60 d4 1e 3b
       0.001328483 -0.00086709 0.0021350894 0.0024235472
000110 50 eb ac 3b 16 3b a2 ba dc a5 7f 3a ff 81 25 bb
       0.005277075 -0.0012377228 0.0009752193 -0.0025254486
000120 e5 57 20 bb 53 ab 88 bb f3 6f bf bb 84 87 15 bb
       -0.0024466452 -0.004170814 -0.005842203 -0.002281637
000130 f9 fd c4 3a f6 97 f0 b9 91 06 a1 bb be ec 17 3b
       0.0015029303 -0.00045889587 -0.004914113 0.002318188
000140 23 e5 25 ba 56 ba 0f b9 67 fd d2 ba 57 c5 05 bb
       -0.00063283945 -0.00013706958 -0.0016097248 -0.0020411813
000150 af c8 7e bb 9c d2 bb 3a a1 54 25 39 8c 41 19 bb
       -0.003887694 0.0014329734 0.00015767153 -0.0023385016
000160 36 5a 26 bb 9e 29 ce 3b 03 9b 17 3b bf 1c 90 b9
       -0.002538336 0.0062915822 0.0023133166 -0.00027487238
000170 04 2c 95 b9 52 14 bf 3a 1a 68 c6 ba 06 53 0b 3b
       -0.0002845229 0.00145782 -0.0015137226 0.0021259203
000180 50 e4 8a bb 9d ca 71 3a 03 4c 8e b8 0b 12 af 3a
       -0.0042386428 0.0009223612 -6.785246e-05 0.0013356818
000190 7e 50 93 ba 92 b0 a2 bb a4 0c 90 3b 08 9c eb 3a
       -0.0011239199 -0.0049648965 0.004396038 0.0017975578
0001a0 c9 8a 38 bb e9 5a 23 ba 07 dc 1f 3a 38 28 94 ba
       -0.0028158894 -0.0006231503 0.0006098155 -0.001130349
0001b0 a3 b0 d2 3b 74 ab 56 b9 e5 7d 86 bb 91 4b 34 3b
       0.006429748 -0.00020472502 -0.0041043633 0.0027510861
0001c0 6f 7e 94 3b f9 62 02 3a dd 9b dd 3a 63 4f f0 ba
       0.0045316736 0.00049738545 0.0016907413 -0.0018334206
0001d0 95 9b bb 3b 1a c3 d7 ba 15 49 36 3a d1 ec 81 3b
       0.005725334 -0.0016461343 0.0006953639 0.0039649983
0001e0 7c 1d e7 bb de 96 b1 3a 98 65 9c 39 b6 b8 f3 ba
       -0.0070530754 0.001354899 0.00029830332 -0.0018594477
0001f0 c7 3f d6 ba ae 90 01 3b a3 9f 95 3b bd bf a6 3b
       -0.0016345911 0.0019770074 0.0045661493 0.005088775

network_body.observation_encoder.rsa.fc_out.bias f4 [128]
000000 33 b4 a7 3b ee fc 1c bc 57 f4 63 3c 43 0a 47 bb
       0.005117917 -0.0095817875 0.013913236 -0.0030371107
000010 0d d4 03 bb 66 13 18 3c de 5c ae bb 3d 3e d1 3b
       -0.0020115406 0.009281969 -0.005321129 0.006385593
000020 64 1f 0d bb 0f 05 c9 3b 41 97 f8 3a 96 74 83 bc
       -0.0021533603 0.0061346362 0.0018965976 -0.016046803
000030 d9 10 0e 3c 0e b6 b7 3b 18 c6 84 bb 21 09 b4 3a
       0.008671009 0.0056064194 -0.004051935 0.0013735631
000040 3f 06 86 3b 63 08 20 3b 6d 0a bc bb 83 c4 23 bc
       0.0040901 0.0024419061 -0.0057385475 -0.0099955825
000050 08 a5 65 ba 00 ea bf 3b 0a 6a f2 39 b6 32 7e bb
       -0.00087602483 0.0058567524 0.00046236842 -0.003878755
000060 10 90 f9 bb 12 94 d6 bb ed 5e aa 3b d4 df 07 bb
       -0.0076160505 -0.006548413 0.0051993043 -0.0020732777
000070 31 08 26 3c 03 e0 22 3c 2c 36 b7 bb 09 58 86 bb
       0.010133789 0.009941104 -0.0055911746 -0.00409985
000080 86 5a f2 3b ca 50 32 3a e3 56 88 bb d2 ac 72 bb
       0.007396045 0.00068021996 -0.0041607483 -0.0037029278
000090 5e bb 38 3b a4 cf aa bb c7 2a d4 bb fe 8a b4 bb
       0.0028187851 -0.005212741 -0.006474826 -0.005509733
0000a0 b3 c2 bc bb 12 00 e5 ba 55 19 e2 bb 5a d8 79 ba
       -0.0057605146 -0.0017471334 -0.0068999925 -0.0009530835
0000b0 77 86 a5 ba 9c 49 fb bb 33 49 63 3b 35 0e b6 3b
       -0.0012628575 -0.007668687 0.0034681081 0.005555893
0000c0 8e f2 26 3a d8 6e c3 bb 54 40 81 3b e0 78 77 bb
       0.0006368541 -0.0059641413 0.003944436 -0.0037761256
0000d0 1b 06 1d bb 0c f6 8a 3a 83 13 79 3b 08 51 2f 3a
       -0.0023959938 0.0010601892 0.0038006015 0.0006687795
0000e0 cf 46 12 3c 06 f6 f4 bb 09 7c db 39 7d bb 34 3b
       0.008928015 -0.0074756173 0.00041863348 0.0027577572
0000f0 15 dd 58 bb 60 80 30 3b 00 5a be 3b 00 f0 93 b9
       -0.003309076 0.0026931986 0.0058090687 -0.0002821684
000100 d9 4c 2e 3b 2c cd 94 3b 5e b9 26 ba 15 22 53 3a
       0.0026596098 0.00454106 -0.00063600193 0.000805409
000110 5d 87 2e bb c8 b7 0a 3c 6e 87 24 ba 80 b9 34 ba
       -0.0026630976 0.008466668 -0.0006276284 -0.0006894097
000120 40 3c e3 3b 52 f8 76 3c 3b 7e 9d bb 8c 5a 46 bb
       0.0069346726 0.015073853 -0.0048063076 -0.0030266372
000130 f1 46 08 b9 bc 50 fc 3b 0e 53 ba 3b af 5f 6d 3a
       -0.00012996398 0.007700054 0.0056861704 0.00090550905
000140 42 b3 ee 3b fd ef b4 bb 07 d5 84 3b 6a 95 70 bb
       0.007284553 -0.005521773 0.004053715 -0.0036710151
000150 a8 14 58 bb ce 04 b6 3b 9d 4f 8b bb 1b 35 ca b8
       -0.0032971296 0.005554772 -0.004251434 -9.642002e-05
000160 09 ed 9b bb f7 7c 95 3b b0 83 d7 ba 07 0a 27 bc
       -0.0047584814 0.004562016 -0.0016442444 -0.010195262
000170 16 d8 67 3b 45 60 cd 3a 8c cf 18 3c 02 89 7f 3b
       0.00353766 0.0015668949 0.009326827 0.0038991575
000180 df 00 49 3b 71 89 6f 3b b1 5d 19 bb 43 f6 f8 bb
       0.0030670685 0.0036550427 -0.0023401792 -0.007597716
000190 0b 29 8b 38 4d 9e a9 3b e6 77 af 3b c4 af b2 bb
       6.635681e-05 0.0051763416 0.005354869 -0.005453082
0001a0 06 9f ea 3a 67 db 37 bc 2f 05 a3 3b 0a 22 2b 3b
       0.0017900176 -0.011221743 0.004974983 0.0026112818
0001b0 a5 a2 94 b9 22 db 36 3c 10 e0 fa 3b 6a 59 8e bb
       -0.0002834994 0.011160644 0.007656105 -0.004344155
0001c0 1c 69 01 bb 2e a9 8e bb 58 2d 79 bb 82 5c 21 bc
       -0.0019746488 -0.004353664 -0.0038021412 -0.009848716
0001d0 49 9b 8e bb 3b 56 1f 3b 42 ce 83 bb 45 0a 1d bb
       -0.0043520075 0.0024312872 -0.0040223906 -0.002396242
0001e0 b9 a4 94 bb 7c 4e 73 39 17 18 9b bb b1 09 1c 3c
       -0.004536238 0.00023203524 -0.0047330963 0.009523795
0001f0 18 c7 4c 3b a1 8c d3 b7 1a cc a0 ba bf 0a 1b 3b
       0.0031246599 -2.5218646e-05 -0.0012267858 0.0023657528

network_body.observation_encoder.x_self_encoder.seq_layers.0.weight f4 [128, 3]
000000 72 99 9a 3d 6e 56 36 3c 7c 60 0f bd 34 a5 a3 bc
       0.075487986 0.011129005 -0.035004124 -0.019976236
000010 5b 54 b8 bb 98 e2 c7 3c 27 52 7b 3c a2 71 11 3c
       -0.0056252903 0.02440004 0.015339411 0.00887719
000020 7e b2 3c bd 19 75 21 3d b6 77 38 bc de bc 5b bd
       -0.04606866 0.039418314 -0.01125901 -0.053646915
000030 92 cc 00 bd 15 93 b7 bb 26 ea ac bc 8a c3 f1 3c
       -0.031445093 -0.0056022503 -0.021107744 0.029512186
000040 5b bc 67 bc e9 e4 5a bd 59 80 8b 3d 3c e7 10 bb
       -0.014144029 -0.053440962 0.0681159 -0.0022110483
000050 8d 62 22 bc 4f f4 7d 3d 9c d2 a7 3c 6e 68 6e bc
       -0.009911192 0.06200057 0.020486169 -0.014551265
000060 59 b7 8c 3d e0 44 29 3b a4 7e 6d 3c 6b 9c 38 3d
       0.06870908 0.0025828406 0.0144955255 0.045071047
000070 0c 6b 82 3c 54 13 96 bd 7b 2d c4 bc b6 83 3e 3b
       0.015920185 -0.07327905 -0.023947468 0.0029070205
000080 88 08 7d 3b e0 26 88 3c f1 5c f0 bc 5e 95 8c bd
       0.0038609821 0.0166201 -0.029341193 -0.06864427
000090 09 f2 34 3d 39 70 e5 3b f2 8e 22 bd b0 18 fc bc
       0.044176135 0.0070019034 -0.039687105 -0.03077349
0000a0 5e f3 62 bd 85 8c 93 3d 67 6a 52 3d 21 90 8f 3b
       -0.055407874 0.07204536 0.051371004 0.004381195
0000b0 af 3b 92 3a ba ac 64 bd e0 04 93 3b 3c c8 2c 3c
       0.0011156703 -0.055828787 0.004486665 0.0105457865
0000c0 08 3e 32 3d 66 e9 a9 3c 3a 20 98 bc 6b 61 07 bc
       0.04351619 0.020741176 -0.018570054 -0.008262972
0000d0 be db aa 3c 4b 77 74 3c b9 33 8b 3d bb ea 24 bd
       0.020856734 0.01492102 0.06796975 -0.04026292
0000e0 39 38 08 3a 0a b4 24 bd 1c 4c e0 3c 04 c3 b7 bc
       0.0005196366 -0.04021076 0.027380042 -0.022431858
0000f0 00 06 6b 3d dd 67 49 3d 84 52 52 bc d3 c2 f5 bc
       0.05737877 0.049171317 -0.012837056 -0.030000126
000100 9e fa 00 bd 62 5e 98 3d af 7c ac bc e9 1c b3 3c
       -0.031489007 0.07439877 -0.021055548 0.021864371
000110 64 53 d7 3c c7 50 fd bc 54 6c 46 bc 29 54 42 bc
       0.026284881 -0.030922307 -0.012110788 -0.011860886
000120 bb c2 1a bc 48 96 79 bc a1 88 97 3d 1e 00 df 3c
       -0.009445841 -0.015233584 0.07399107 0.027221736
000130 7d cb bc 3a 95 01 04 bd aa 34 28 bd 3b 36 b3 3b
       0.0014403906 -0.03222807 -0.04106585 0.0054691113
000140 83 3e 49 3d 20 b4 8c bd 72 ab d3 3c a6 ac 74 3c
       0.04913188 -0.068702936 0.025838587 0.014933741
000150 ac 0d 67 3d b4 fd 65 bc c7 91 a0 bc 5a 91 82 ba
       0.056409523 -0.014037538 -0.019600762 -0.0009961531
000160 31 4f 1e bc 32 f6 be bc 5d eb 03 bd 05 27 14 bc
       -0.009662435 -0.023310754 -0.03220688 -0.009042506
000170 35 c0 97 3c 0a d8 e2 3c 2b ae b7 3b d5 65 3e b9
       0.018524269 0.027690906 0.0056054792 -0.00018157747
000180 a8 17 69 3d 12 d3 28 3b c1 d3 85 bd b8 d7 cd 3b
       0.056907326 0.0025760573 -0.065345295 0.006281819
000190 83 88 27 3d fd 73 be bc 1a 32 e7 3c e6 70 c0 bc
       0.040901672 -0.023248667 0.028222132 -0.023491334
0001a0 91 f2 a0 bd 75 fc 2a 3d c8 4d 0e 3c 12 13 29 3c
       -0.07858766 0.041744668 0.008685537 0.010319488
0001b0 0b dd 91 3d e6 57 93 bc 3c c3 9e 3c aa 2f 05 bd
       0.07122239 -0.01798625 0.019380204 -0.03251616
0001c0 53 68 30 3c 93 dd e3 bc 17 5d 4b 3d 1d 72 1e bb
       0.01076706 -0.027815616 0.049649324 -0.0024176904
0001d0 b6 44 75 bc 6d fa 68 bd ed 5e a4 3c 3b 25 62 3d
       -0.014969995 -0.05687945 0.020064795 0.055211287
0001e0 e9 7b 6a 3c 0a f9 dd bc c6 37 25 bd 47 80 ad 3c
       0.014311769 -0.02709629 -0.040336393 0.021179331
0001f0 45 3b e3 bc 1e 01 fc 3c c3 78 0d 3d 9f 54 15 bc
       -0.027738223 0.030762251 0.034538995 -0.0091144135
000200 c5 11 9a bd 5d c6 9b bc c7 a4 57 3c 2f 85 b0 bd
       -0.075229205 -0.019015485 0.013161845 -0.08619153
000210 a4 7f 82 bd 4f 17 31 3d d7 94 3f 3d 39 3a 1e 3d
       -0.06372002 0.04323512 0.046772804 0.038629744
000220 0f 95 04 3d a0 64 e6 bb 63 86 3b bd 3c 15 a6 3c
       0.032368716 -0.0070310384 -0.045782458 0.020273797
000230 6c 5f bb bc 9a 2a 6f 3c c8 1d 26 3d 42 0d 58 bd
       -0.02287265 0.014597559 0.040555745 -0.05274702
000240 40 12 b0 bc 66 7c 62 bc 69 36 e6 3c 96 14 7e 3d
       -0.021493077 -0.013823604 0.028102117 0.06203135
000250 7c 28 b7 bc 3f e3 07 bd ef 46 73 bd 26 3a 10 bd
       -0.022358172 -0.033175703 -0.05939382 -0.035211705
000260 e9 94 8d 3d 7b 38 cd 3b f2 13 43 bd 5d 02 89 3d
       0.06913168 0.0062628365 -0.047626443 0.06689904
000270 70 74 1a 3d 1a 9a 5c 3d 8b 36 39 3c e7 04 4e bc
       0.0377087 0.0538579 0.011304508 -0.012574411
000280 d2 2d 67 ba 61 cb 0d bc a4 d8 af bd 64 f5 04 3c
       -0.00088187784 -0.008654446 -0.08586243 0.008115146
000290 03 93 ca bb d9 1b e3 bc 9a 2b 20 ba 68 c1 e9 3c
       -0.006182076 -0.02772324 -0.0006110013 0.028534606
0002a0 4e b8 66 bd 26 78 d1 3c 84 71 99 bc 11 83 2e 3d
       -0.05632811 0.025569987 -0.018730886 0.042605463
0002b0 25 14 d2 3c 3a 94 cd 39 4f 2e 0b 3d 8d 62 2e bd
       0.025644371 0.00039211084 0.03397971 -0.042574454
0002c0 b5 0e 5f bd ba 27 0a 3d 45 3a e1 bc 22 5d 4d 3c
       -0.054457385 0.033729292 -0.027493605 0.012534412
0002d0 2c 56 2c 3d 41 e4 68 bb 03 70 45 bc 3e 33 43 bd
       0.042074367 -0.003553644 -0.012050631 -0.04765629
0002e0 17 25 64 3d e2 b5 9b bc 13 91 8c b9 aa bb 34 3d
       0.055699434 -0.019007627 -0.0002681097 0.044124283
0002f0 8f f2 88 bd 41 a4 89 bd 02 3b a9 bc 7e 57 30 bd
       -0.066868894 -0.06720782 -0.02065802 -0.04305219
000300 12 3f 6f 3d 55 93 d6 bc 65 82 17 3d 86 71 52 bd
       0.058409758 -0.0261933 0.03698959 -0.051377796
000310 c4 58 49 3c fd cd 86 3d df 6e 63 3c bc 78 c0 bc
       0.01228923 0.06582258 0.013881414 -0.02349507
000320 07 05 06 3d 95 1e c3 3c f7 cb 80 bc 73 04 29 bd
       0.03271964 0.023818294 -0.015722258 -0.04126401
000330 50 ec d7 3d 60 49 e5 3c 63 bd e5 bc b8 c9 72 3d
       0.1054312 0.02798909 -0.028044408 0.059274405
000340 c7 ba 4b 3d 5b 33 c4 bb 48 29 0e 3b 35 bd a9 3c
       0.04973867 -0.0059875674 0.0021692086 0.020720104
000350 41 6b 79 bc 99 ab 99 3c bf 6f 34 3c 95 53 12 bd
       -0.015223325 0.018758582 0.0110129705 -0.03572424
000360 60 c1 0b bd ba 5b a3 3b 4f 7c d0 3c 38 56 29 bd
       -0.034119964 0.0049853 0.0254499 -0.04134199
000370 95 7b 86 bc f7 84 95 3c 94 ae de bd 3f de 17 bd
       -0.01641635 0.01825188 -0.10873142 -0.037077185
000380 95 11 ca 3a 2a 41 54 3c 4b 68 c5 3d 48 7c aa 3d
       0.0015416617 0.012954989 0.09639033 0.08324486
000390 c6 bb 17 bc 85 66 c3 bd 50 b7 b1 3c 3f eb 12 3d
       -0.009261077 -0.095410384 0.021693856 0.03586888
0003a0 ad ac ce bb 07 70 88 bd c6 5d 18 3d 4c 63 d5 3b
       -0.0063072057 -0.066619925 0.037198804 0.0065120813
0003b0 2d ec 68 bd d0 13 5a 3c 46 d6 c1 3b d1 75 d4 3c
       -0.05686586 0.013310388 0.005915436 0.025935085
0003c0 59 d7 37 bc 1c cf 0d bc fb bd c2 3c 56 fe 99 bb
       -0.0112207765 -0.008655336 0.02377223 -0.0046995087
0003d0 42 92 18 bc 78 99 3e 3d 8a 22 85 bc c0 2b 3e 3b
       -0.009312214 0.046533078 -0.016251821 0.0029017776
0003e0 6a 09 73 3c 76 31 25 3d 8d 0c 8f bd 9d 2a 94 3a
       0.014833787 0.040330373 -0.06984816 0.0011304204
0003f0 11 37 10 3d 5a 78 a5 3c 93 64 8d bc f8 9b 3a bd
       0.035208765 0.02019899 -0.017259872 -0.0455589

network_body.observation_encoder.x_self_encoder.seq_layers.0.bias f4 [128]
000000 f0 65 4c bc 1a 4e 47 3c ee 97 4b bc 8b 98 de bb
       -0.012475476 0.012164617 -0.01242636 -0.006793087
000010 b1 bc 14 3c 08 12 c1 bc 94 d2 55 b9 a7 c5 ce bb
       0.009078191 -0.023568168 -0.0002039171 -0.006310183
000020 c4 b3 71 b9 c2 34 9d bc 9c 57 3b 3c 5b a9 b1 bc
       -0.00023050519 -0.019190196 0.011434462 -0.0216872
000030 c9 21 90 bc 66 ca f6 3b 75 69 19 bc b9 7a 44 3c
       -0.017594235 0.007531452 -0.009363522 0.01199215
000040 f3 8a 87 3a 9f 47 e9 3b fa 4e 69 bb 39 b9 c4 bb
       0.0010341093 0.0071191336 -0.0035600052 -0.0060035256
000050 c3 b3 ea 3a ac 89 aa 3c 92 5b db 3b cf 5c 04 3c
       0.0017906356 0.0208176 0.0066942656 0.008078768
000060 bf e9 6b 3c 2c d5 15 bb 1c 46 88 3c 40 d7 6c bb
       0.014398991 -0.0022862656 0.016634993 -0.0036139041
000070 7f e6 5e bc c1 53 20 bc e6 f8 97 3c c9 92 8a 3b
       -0.013604759 -0.0097855935 0.018551301 0.004228924
000080 ee 62 05 bc 89 d1 d1 3b 1c ce 77 bc 7b 86 e7 bb
       -0.008141262 0.0064031524 -0.015124824 -0.007065592
000090 a6 b2 27 bc b9 e3 51 bc e5 e7 85 bc 4f ca 59 3c
       -0.010235464 -0.012810641 -0.016345927 0.013292863
0000a0 f9 bf 5e bc 83 ae bc 3b 34 a4 6b bc cb 93 1b bc
       -0.013595575 0.005758108 -0.014382411 -0.009495686
0000b0 10 9c a5 3c cb c6 03 3b df 90 d3 3b 92 e3 16 bc
       0.020216018 0.0020107504 0.006456479 -0.00920953
0000c0 ef 2b 60 3c d7 91 d3 bb 6d ca 8d 3c 32 77 0f 3b
       0.01368235 -0.0064565944 0.017308438 0.0021891114
0000d0 84 f8 6c bc 17 1a e6 bb 33 6a 63 3c b9 89 4b 3c
       -0.014463548 -0.007022153 0.0138803 0.012422972
0000e0 36 cd 54 3a a6 82 0a bc 19 ed ab bc 01 b2 9f ba
       0.0008117737 -0.008454001 -0.02098708 -0.0012183787
0000f0 4b 61 f7 ba cb 24 3a 3c 70 ee a4 bb 14 7d 01 3b
       -0.00188736 0.011361311 -0.005033307 0.001975839
000100 3a e3 91 bc 88 ed d6 3b 5f 42 07 3b 89 7f 07 bc
       -0.017808545 0.0065590777 0.0020638925 -0.008270153
000110 9c 3d 16 bc 79 29 34 3b c4 08 7e bc 20 af 9d bc
       -0.009169962 0.002749054 -0.01550502 -0.019248545
000120 da 6c 39 3c 08 aa 52 3c ab f3 eb 3b da ef 9b 3c
       0.011317456 0.012857921 0.0072006783 0.019035269
000130 57 a2 9f 3c bb 10 a6 bb 9a 56 13 bc ae 3d 6c 3c
       0.01948659 -0.0050679124 -0.008992815 0.014419002
000140 a4 36 3a 3c 0a d8 86 3c 0e d5 5a 3c 6f bf 9b bc
       0.011365566 0.016460437 0.01335646 -0.019012181
000150 7d bc e8 bb a6 59 88 3c f0 b0 e0 39 27 15 94 bc
       -0.0071025477 0.01664431 0.00042856438 -0.018076492
000160 4c 1b 9d bb 86 c4 e7 bb 9b 94 19 bc da 00 34 bc
       -0.004794514 -0.007072988 -0.009373809 -0.010986531
000170 da 7f ea bb e2 4a 61 bb 11 6b 47 bc ba 9c 5c 3c
       -0.0071563544 -0.003437691 -0.012171523 0.013465101
000180 74 36 1d 3b 65 a7 ec 3b bf 9c 71 bb 1c 04 3d 3c
       0.0023988755 0.0072221034 -0.003686711 0.011536624
000190 69 62 82 bb 15 54 59 3c 61 35 36 3b 7f 47 77 3c
       -0.0039790166 0.013264676 0.0027802812 0.01509273
0001a0 98 f6 85 3c bb d6 15 3c 43 f6 ca 3a 89 8d bc 3b
       0.016352937 0.009145434 0.0015484769 0.005754177
0001b0 4f db 0a bc 9b d0 9b bb c6 b3 55 bc 4e 92 7a 3c
       -0.008475139 -0.0047550923 -0.01304335 0.015293671
0001c0 ad bb 94 3c 9c d2 e5 3a e4 a2 cf bc 1f 89 9b 3c
       0.018155897 0.001753408 -0.025346227 0.018986283
0001d0 35 f1 cd 3b 05 62 66 bc 3c cf 53 3c ed 42 58 3c
       0.0062848576 -0.014061456 0.0129278265 0.01319955
0001e0 54 dc d6 3c 6a 7f 44 bc 40 8e 8c bb 1d 34 8e 3c
       0.026228108 -0.0119932685 -0.0042894185 0.017358834
0001f0 60 ff c5 3b 39 56 5e 3c 2e e7 58 3c af c7 d2 bb
       0.006042406 0.013570362 0.013238711 -0.0064324955

network_body._body_endoder.seq_layers.0.weight f4 [256, 131]
000000 6a dd bd bd db 9a 18 bc f8 76 07 bd 15 bb 55 bc
       -0.09270747 -0.009314264 -0.03307244 -0.013045092
000010 2f 67 a0 3c 61 ea 98 3d d4 0b 9f 3d 95 c3 3f 3d
       0.019580452 0.07466579 0.07765928 0.04681738
000020 da 3a 3e bd c9 1b d7 3d d0 90 2c 3e bd 5e b1 3d
       -0.046442844 0.105033465 0.16852117 0.08660648
000030 c9 31 9d 3c 18 31 fb 3d 76 b0 d0 3d e8 92 fe bd
       0.019188778 0.12265223 0.10189907 -0.12430364
000040 22 8f 6e 3d 78 c7 1c bd 2a e6 26 3d 2b 77 2b bd
       0.05824197 -0.038276166 0.040746845 -0.041861694
000050 70 8b 90 bd fe b9 4d 3d 30 e5 fe 3d 03 b7 f5 3d
       -0.070578456 0.050226204 0.12446058 0.11997797
000060 c0 46 6e bc 6f 55 9c bd 76 e6 55 bd d5 14 9e bd
       -0.014543235 -0.07633483 -0.052221738 -0.07718817
000070 87 05 d7 bd 74 d1 30 3e 52 f4 a7 bd 14 d7 fd bd
       -0.10499101 0.172674 -0.08200897 -0.123945385
000080 c5 0e 59 3c 9c 3b d6 bc 6e 72 5b be 11 04 13 bd
       0.01324815 -0.02615147 -0.2143037 -0.03589255
000090 a8 4f 03 3c 80 d7 45 3d ed 85 5d bb 96 f0 ff 3b
       0.008014597 0.04830122 -0.003380175 0.0078106625
0000a0 ea 65 07 bc 0e c1 0d bc 0d ce 08 3e ac 7c d7 bd
       -0.008264044 -0.008651985 0.13359852 -0.10521826
0000b0 c1 ed b2 3d b9 d5 20 3d e6 68 95 bd 9e df 99 bd
       0.08736754 0.03926632 -0.072953984 -0.07513355
0000c0 c2 64 1e 3e 69 e3 7e 3d f7 d7 24 be c6 74 97 3c
       0.15468124 0.062228594 -0.16098009 0.0184883
0000d0 eb 49 05 3e ae 56 f8 bc 27 59 2a bd 11 1f 13 bb
       0.13016479 -0.03031477 -0.04158893 -0.0022448937
0000e0 f5 b1 2f 3d c6 de be 3d f2 e3 30 3d 60 cc fe bd
       0.042894322 0.093198344 0.043186136 -0.12441325
0000f0 ee 19 84 3d 23 74 8b 3d ff 00 28 3e 8b 5a 54 3c
       0.06450258 0.06809261 0.1640663 0.01296104
000100 06 0a 2a bd f5 77 ec bc 03 cf 9f b8 87 3b 86 3c
       -0.041513465 -0.028865794 -7.62027e-05 0.016385807
000110 63 ac de bc d0 04 bd bc d9 50 7e 3d dc 1b 2b 3e
       -0.02718181 -0.023073584 0.06208882 0.16709846
000120 ee 42 3c 3e 3e 9c 60 3d 26 58 db bd 8b 54 cc 3c
       0.18384907 0.054836504 -0.10710172 0.024942657
000130 dc 90 89 bd 4f a5 41 3e 70 b0 7d 3d 3f 92 00 3d
       -0.06717083 0.18910716 0.061935842 0.03138947
000140 32 2d 68 3d 9d c1 51 3e 56 14 b2 3d 8b 45 d8 3c
       0.056683727 0.20484014 0.08695285 0.026400348
000150 72 0b 88 3d b7 57 62 3d 9f 19 fd bd 91 b0 00 be
       0.06642808 0.055259433 -0.123584025 -0.12567355
000160 34 0d 6c 3d 8b 06 ae 3d 1c 14 2b be 58 5b dd 3d
       0.05762978 0.08497342 -0.1670689 0.10808438
000170 c8 f3 ca bd 17 3d 71 bc 65 ae 40 bd 53 79 62 bc
       -0.09909779 -0.014724038 -0.047041316 -0.013822871
000180 14 e5 c2 3d 62 3e a3 bd c6 d2 61 bc 0b ee 91 3d
       0.095163494 -0.07970883 -0.013783162 0.07125481
000190 4f 45 93 bd f7 29 87 bd bd 0a e7 3d af 29 2a 3d
       -0.07190954 -0.06599801 0.11281345 0.04154366
0001a0 c7 63 5a bd b4 ac d5 3c d4 b3 88 bd 73 75 b8 3d
       -0.05331781 0.026083328 -0.066749245 0.09006777
0001b0 7e 64 34 bd d2 2c 31 be 49 4e bf 3d e6 2f ad bd
       -0.04404115 -0.17302254 0.093411036 -0.084564015
0001c0 43 87 e7 3d 47 cd cf bb 8f a5 9f 3d ff a7 ac 3c
       0.11305096 -0.0063416096 0.0779525 0.0210762
0001d0 95 26 be 3d 39 3f a2 3d 60 17 e6 bd d6 fb 37 be
       0.09284703 0.07922215 -0.11234927 -0.17967162
0001e0 71 f3 51 bd b8 4b 29 be de b9 cd bb 90 2b da bd
       -0.051257554 -0.1653279 -0.0062782606 -0.1065284
0001f0 c1 ef ad 3c e7 0d c2 3c a9 ab 0f 3b c8 dd bb bd
       0.021232488 0.02368827 0.0021922386 -0.09173161
000200 72 bf be bd a5 2c a4 3d 4d e8 bb bd 70 12 0b 3e
       -0.09313859 0.08016328 -0.09175167 0.13581252
000210 8e d5 85 bd 22 08 c7 3d 72 c3 37 3d 05 8f 1b 3d
       -0.06534873 0.09718348 0.044864126 0.03797819
000220 a9 d2 c0 bd b1 7f ba bd f4 a7 cd 3d 14 fa 05 bb
       -0.0941518 -0.091063865 0.100418 -0.0020443248
000230 ff 77 11 3e 32 c9 2d 3e dd 58 38 3d ca d5 11 be
       0.14205931 0.16971281 0.04500662 -0.1424171
000240 48 fc 4f bb 30 6e 42 be ce 79 24 bd 1f 93 3e bd
       -0.0031736065 -0.18987346 -0.040155225 -0.046527024
000250 35 d5 ad bc fc a0 46 bd ed 02 6a bd 86 a2 71 bd
       -0.02121983 -0.04849337 -0.057131696 -0.058992885
000260 30 1d c6 bd ec 1d a2 bd aa 6a 09 bd d4 4c 60 3d
       -0.09673536 -0.079158634 -0.03354899 0.05476077
000270 d8 83 8e 3d f6 62 45 3c 77 22 90 bd b0 b0 7b bd
       0.06958741 0.01204752 -0.07037824 -0.0614478
000280 1c 7f 77 3d 8d 54 2c bd 15 52 dd 3d ba 53 bc bd
       0.060423955 -0.04207282 0.108066715 -0.09195657
000290 de 6f 64 3c 02 54 5f bc 1a 87 a7 3c 08 d9 e5 3d
       0.013942687 -0.013630869 0.020450164 0.11223036
0002a0 66 e3 96 bd 60 1a 05 3e 2f 57 b5 bd 6c a7 c5 3d
       -0.073675916 0.12998343 -0.088545196 0.09651074
0002b0 c5 39 16 3d 88 f5 ca bd be a0 93 3d 12 21 a3 3d
       0.036676187 -0.099101126 0.072083935 0.07965292
0002c0 70 2c 60 bc fc 7b fe bd 5d 03 bb 3c 6a ea be 3d
       -0.01368247 -0.12425992 0.022828752 0.09322055
0002d0 a6 13 01 3e ac a3 82 3c 96 2b 63 bd 85 5b 9c 3d
       0.12605152 0.015947185 -0.05546149 0.076346435
0002e0 f6 1e 04 3d 4a 32 d5 bd 4a c0 b7 bc 35 a1 2d 3e
       0.03225609 -0.104099825 -0.022430558 0.16956027
0002f0 8e 31 b8 3d af 95 51 bc 8d 36 eb bd d0 9e 12 3d
       0.08993827 -0.012792035 -0.11485014 0.035795987
000300 0e cb 26 bc b3 d1 c4 bd b3 5c df 3d 79 d3 20 3e
       -0.010180248 -0.096103095 0.10906353 0.1570567
000310 f9 00 9d 3c 6a 31 2e be c9 2e da 3d 91 c0 a9 bd
       0.019165503 -0.17011037 0.10653455 -0.08288682
000320 00 e1 c4 3d 9b cd 05 3c 7b ff cf bc 5b dd 09 be
       0.09613228 0.008166696 -0.025390377 -0.13463347
000330 60 67 7b bc 3d a1 f1 3d 3f 73 9b 3c bd 13 3a 3c
       -0.015344471 0.11798332 0.018975852 0.011357245
000340 f7 83 11 be 8a c7 fd 3d 21 65 f7 bd 4c 3e 76 bd
       -0.14210497 0.12391575 -0.12079836 -0.060118005
000350 a9 c7 24 3d eb 8f 84 bd f9 8f 24 be f6 c6 29 bb
       0.040229473 -0.06472763 -0.16070546 -0.0025905943
000360 e7 58 71 bd 02 22 e9 bd 9f f8 51 3d 38 58 5a 3d
       -0.058922675 -0.113834396 0.051262494 0.05330679
000370 15 fb 0c bc 26 7d 66 3d 6a b1 ad bc 69 f3 39 3c
       -0.0086047845 0.056271695 -0.021202762 0.011349537
000380 79 13 01 3d 10 a9 0a be ab 7d 00 3d 70 d7 1b 3d
       0.03151271 -0.13541055 0.031369846 0.038047254
000390 d6 7d 00 3d 90 00 cf bb 49 33 e4 bc 64 80 bc 3d
       0.031370007 -0.0063172057 -0.027856486 0.09204176
0003a0 2b 5b b3 3d eb fd 02 3d b0 df 36 bd 96 83 2d 3d
       0.08757623 0.031980436 -0.04464692 0.04236182
0003b0 f7 e3 bf bd 7d 05 ac 3d aa 3f 37 be b4 98 1a bd
       -0.09369653 0.08399484 -0.1789538 -0.037743285
0003c0 82 64 08 bd ea 3f eb 3c 4c e2 75 3d d8 cc d7 3d
       -0.033298977 0.028717 0.060030267 0.10537118
0003d0 c4 89 22 3c d7 1a ae 3d f9 4a 09 bd 39 a0 d5 3d
       0.009920541 0.08501213 -0.033518765 0.10430951
0003e0 7a 06 df 3c dc 29 a9 be 4d 7a 74 3d 67 9a da 3c
       0.027224768 -0.3303975 0.059686948 0.026684953
0003f0 f5 4d 17 be 65 0b ce 3d df 22 a4 bb 4e 46 16 3e
       -0.14775832 0.10060767 -0.00500904 0.14675257

network_body._body_endoder.seq_layers.0.bias f4 [256]
000000 2f 4b f9 3b ac 3a 31 bc d6 98 44 3c 2a 12 e3 ba
       0.0076078395 -0.010817211 0.01199933 -0.0017324139
000010 83 f5 eb bb b4 6e c7 bb 3f 56 c0 3b 1b d3 21 3c
       -0.007200898 -0.006086195 0.0058696563 0.009876992
000020 01 fc eb 3a e2 70 f3 3b 20 c6 97 bb 49 5a de 3b
       0.001800418 0.007429228 -0.0046317726 0.006785665
000030 6a 15 f6 b9 65 7b c9 39 f8 13 3d bb 87 6f ea 3b
       -0.0004693673 0.00038429644 -0.0028851014 0.0071544084
000040 36 84 5b bc 42 0e 23 3a 5e e8 02 3c b1 3a 39 3b
       -0.013398221 0.0006220081 0.007989971 0.0028263743
000050 e3 94 c5 ba e4 2f f7 3a 85 f6 b3 3b bc dd bb bb
       -0.0015074279 0.0018858877 0.005492034 -0.00573322
000060 1c 49 95 3b 11 55 a6 bb ca 01 c0 3b 38 70 da 3b
       0.0045558345 -0.0050760587 0.0058595883 0.0066662095
000070 bb d3 be 3a 30 58 23 ba 28 1e c0 3b 80 c6 d8 3b
       0.001455895 -0.00062310975 0.00586297 0.00661546
000080 25 0f df bb 5c d4 ce 39 1a 5b 08 bc d5 28 67 3b
       -0.0068072253 0.00039449602 -0.008322502 0.003527214
000090 88 8e 9c b8 2f bd 8b bb fc f4 ea 3b 9d 02 6d 3c
       -7.465208e-05 -0.004264496 0.0071703177 0.014465955
0000a0 87 77 7a 3b b3 fc e5 3b 6e 4c d4 3b a3 27 91 3b
       0.0038218217 0.0070186495 0.0064788377 0.004429774
0000b0 94 54 29 3c af 5b 2c ba a6 cd 2c 3c 17 ef 03 3b
       0.010335106 -0.0006574941 0.010547077 0.0020131522
0000c0 e4 c0 89 bb 2e 71 96 3b 90 da 0e bc 5e 5f 07 bb
       -0.0042039026 0.004591129 -0.008719102 -0.0020656209
0000d0 c0 11 8c 3b 55 50 2c bb 40 22 ff 3b 16 61 23 3c
       0.004274577 -0.0026292999 0.0077860653 0.009971878
0000e0 83 f5 a5 3b 9c 8a 79 3b 8b 4f 4e bb ce 2b 2d bc
       0.0050646677 0.0038077002 -0.0031480517 -0.010569526
0000f0 d0 cc bb 3b c0 e3 79 3b 4b 1a cb 3c 0a 03 8b ba
       0.0057312027 0.0038130134 0.02479281 -0.0010605764
000100 6a 81 d1 3b bc da 3f 3c be 71 3f bc 6e aa e6 3b
       0.006393601 0.011709865 -0.011684833 0.00703936
000110 e7 4f 12 3c 78 c4 8e 3b 4d a3 9b ba e9 81 e5 3a
       0.008930183 0.004356917 -0.0011874229 0.001751003
000120 d6 8b ce 3b 78 26 76 bb c8 9c eb 3b f2 2e cd 37
       0.006303291 -0.003755955 0.0071903206 2.4459765e-05
000130 da 03 88 bb 30 84 0e 3c 66 f7 64 3b 90 3e 9b 3b
       -0.0041508498 0.008698508 0.00349375 0.0047376826
000140 1d 22 bf 3b f7 8a 78 3b 2a be 25 bc a3 42 40 3b
       0.005832924 0.0037924626 -0.010116139 0.0029336594
000150 a3 0c 42 3c 72 e7 f7 3b 2d a4 39 bc 02 23 91 bb
       0.011843833 0.007565432 -0.011330646 -0.004429222
000160 6d 29 16 bc c6 26 5e bb 8d 54 d7 3b 55 f3 4c 3b
       -0.00916515 -0.0033897622 0.0065713585 0.0031272967
000170 73 fa 7b 3b e2 09 f5 3b ac 14 63 3b 59 6b 8a 3c
       0.003844884 0.0074779848 0.0034649773 0.01689689
000180 d1 52 09 3c b0 04 ad 3c 22 d3 8c bb e0 4a a2 b8
       0.008381561 0.0211204 -0.00429763 -7.7387085e-05
000190 39 79 09 3c 0b 08 bd bb de 19 03 bc 3a 5a d6 bb
       0.008390718 -0.005768781 -0.008001773 -0.0065415176
0001a0 78 72 b6 3c b4 bb 0e bc 24 22 fd ba 21 0b f9 bb
       0.02227138 -0.008711744 -0.0019312543 -0.0076002036
0001b0 b4 4a ad bb 4f 3e 0d bc d2 48 90 3b f4 a9 32 3c
       -0.0052884463 -0.008620813 0.004403212 0.010904778
0001c0 5f 3f 01 3c 35 8c 22 bb 70 8f 06 3c e6 e0 44 3c
       0.007888644 -0.0024802808 0.008212909 0.012016511
0001d0 75 79 bf bb d1 6e fb 3a 20 4a 03 3c 7b c1 e2 3b
       -0.005843336 0.0019182806 0.008013278 0.0069200373
0001e0 0f fe b9 3b bf 0b 0d 3c 80 7a cd 3b 8a ab fb bb
       0.005676038 0.0086087575 0.0062707067 -0.007680361
0001f0 00 c5 01 bc 37 b7 9f 3b 38 dd 40 3c 94 dd 0c 3c
       -0.007920504 0.004874136 0.011771493 0.00859775
000200 1d c8 86 3b ef 31 d2 bb da 29 f7 3b 85 11 12 bb
       0.004113211 -0.006414644 0.007542831 -0.0022288274
000210 81 b5 01 bc cd 33 b5 bb b2 33 c6 bb 3f 19 7f bb
       -0.007916809 -0.005529857 -0.006048643 -0.003892496
000220 c0 fb 95 b9 d9 38 23 bc 45 e2 a4 3b d1 88 1f 3c
       -0.00028607063 -0.009962284 0.0050318562 0.009737209
000230 b1 20 dc 3b 23 30 50 bc 56 4d 47 bc c3 cf 1d 3c
       0.0067177643 -0.012706789 -0.012164434 0.009632054
000240 e0 d0 17 bc f2 d2 f3 bb ac d8 94 b9 15 5e ed bb
       -0.009266108 -0.007440918 -0.00028390193 -0.0072438815
000250 7c 84 a0 3b 55 cc d9 ba 24 08 06 3c 7f 1f 09 3c
       0.004898606 -0.0016616682 0.008180652 0.008369326
000260 5f f9 76 3b 42 9d a5 bb cc 4b 4b b9 9f 36 06 bc
       0.0037685258 -0.005054147 -0.00019387825 -0.008191734
000270 9c 1e a7 3a 8b 3c e8 bb 18 fa 8f bb 82 e7 61 3b
       0.0012750211 -0.0070872954 -0.004393827 0.0034470265
000280 e7 c2 61 b9 c8 7a 38 bc 5f 71 32 bc dc ba 4a bc
       -0.00021530279 -0.011259742 -0.010891288 -0.012373652
000290 07 51 94 38 67 41 b0 3b ee cf 56 3b 9c 32 4d bc
       7.0722825e-05 0.0053788903 0.0032777744 -0.012524273
0002a0 35 ce e6 3b 96 be 9a 3a 46 21 b0 3b e2 d2 8f bb
       0.0070436248 0.0011806067 0.0053750603 -0.004389153
0002b0 02 b9 5f ba c4 c5 58 bc 76 6d 6e 3c a8 e5 32 ba
       -0.0008534343 -0.013230745 0.014552465 -0.00068243826
0002c0 bb f6 e6 ba bd de ca 3b 30 36 f5 3a 20 fa 18 bb
       -0.0017621139 0.0061911033 0.0018708166 -0.0023342445
0002d0 0e 6b 44 bb b5 2d a6 3a 04 96 f0 3a ec 03 f4 ba
       -0.0029971036 0.0012678417 0.0018355255 -0.0018616891
0002e0 27 7a 2a 3c fb 31 2b 3b 72 f0 e7 bb cd 5a c6 39
       0.0104051 0.002612232 -0.007078224 0.00037833155
0002f0 b6 f0 00 39 28 0a b5 3b c3 26 a0 3b c5 3a 85 bc
       0.00012296703 0.0055248924 0.0048874333 -0.016263375
000300 8c c3 93 bc 65 cf 17 3c c4 b4 5d 3a 4b a6 3e 3b
       -0.01803758 0.009265755 0.0008457417 0.0029090818
000310 c9 e0 18 bc 00 e2 a8 3b 21 21 06 3c 3e ff cd 3b
       -0.009330937 0.0051538944 0.0081866095 0.0062865308
000320 d0 f4 c9 3b a4 01 85 3c ed 46 83 3b 80 68 06 bb
       0.006163217 0.016236134 0.0040062577 -0.0020509064
000330 c3 1c 55 3c 0d e9 2e 3b 34 27 1c bc ed 92 53 bc
       0.013007346 0.0026689202 -0.009530831 -0.012913448
000340 78 a6 9f bb eb f6 0e ba f2 47 fe bb 66 41 3c 3c
       -0.0048721395 -0.0005453664 -0.0077600414 0.011490202
000350 ca de 9f bb a1 76 b4 bb ac 5f a3 bb c6 ef 07 3b
       -0.0048788534 -0.0055073057 -0.00498577 0.0020742281
000360 b9 32 f1 bb 53 6a a6 bb 75 7d a2 3b 4e cb 26 3c
       -0.007360783 -0.005078593 0.0049588033 0.010180308
000370 f7 21 d6 3b ed 85 be 3b 88 22 4d 3b 03 b1 03 bc
       0.0065348106 0.005814305 0.00313011 -0.008037808
000380 06 7e 23 bc 44 b9 3a bc 53 f2 19 3a 04 fc 00 bc
       -0.009978777 -0.01139671 0.0005872596 -0.007872585
000390 17 a1 73 3b 07 75 c1 3b 6e df 99 3b 77 ef 97 3b
       0.0037174874 0.0059038433 0.0046958243 0.0046367007
0003a0 02 f2 d0 bb 89 fc ef 3b 08 95 82 3c 88 eb 59 3a
       -0.006376506 0.0073238057 0.015940204 0.000831299
0003b0 ba 45 00 3c fe 39 e0 b9 51 d6 6c bc bd fe 02 bc
       0.007829124 -0.00042767817 -0.014455394 -0.007995305
0003c0 77 2f e6 3b 5f 5d d7 3b 11 4e b3 3b 21 2f 64 bc
       0.007024701 0.00657241 0.0054719527 -0.013927252
0003d0 1b 22 ec 3b f3 d8 55 3b 16 2a a1 bb 3b fa 32 bc
       0.007206214 0.0032630533 -0.004918347 -0.010923917
0003e0 70 0a ba 37 34 1e 60 3c 84 d4 09 ba 7a f5 1f 3a
       2.2177788e-05 0.013679076 -0.00052578025 0.00061019475
0003f0 5b 5f a0 3b 89 af 49 bb 04 6c 81 3b d1 77 77 3b
       0.0048941798 -0.0030774793 0.003949644 0.0037760625

network_body._body_endoder.seq_layers.2.weight f4 [256, 256]
000000 f7 36 a3 bb c7 f4 c0 bc f0 74 61 3c 1d 87 a3 3d
       -0.0049809176 -0.023554219 0.01376079 0.07984755
000010 35 7d cf bd 54 c9 22 3c c0 e8 e1 3c 18 2f 8b bd
       -0.10131303 0.009935696 0.027576804 -0.06796092
000020 4e c1 cc 3d f6 9a 54 bd 55 12 13 bb 21 9e c0 3d
       0.099978074 -0.051905595 -0.0022441347 0.09405161
000030 3e ce ec bc e0 55 b8 bd 75 62 91 3c a2 51 2e bd
       -0.028906938 -0.09000754 0.017747143 -0.04255832
000040 9f c1 c1 bd d7 a1 aa bd d8 a2 a2 bd 82 b7 1f be
       -0.094607584 -0.0833165 -0.07941216 -0.15597346
000050 e5 6f 77 3d d4 01 ad 3c 0e 2e ca bc 2f 26 96 3c
       0.060409445 0.021119036 -0.024680164 0.018328754
000060 6d 01 de 3b d9 74 16 be bc 4b 1b bd 2a b3 46 3d
       0.0067750723 -0.14693011 -0.037914023 0.048510708
000070 fc bd a3 bd 95 87 03 bc 35 b4 af 3d 77 c8 9e 3d
       -0.07995221 -0.008027931 0.08579294 0.077530794
000080 88 89 6c bc 23 9f 04 3c 89 6e 81 bd 59 7a a4 bd
       -0.014437087 0.008094582 -0.06319911 -0.080311485
000090 64 e2 b0 bd b7 b9 8f 3d 16 c1 eb 3d 8b e1 2d bd
       -0.086369306 0.07017844 0.115114376 -0.042451423
0000a0 89 18 84 bd 0e 2c 50 3b 30 54 06 3e cc 96 9c 3c
       -0.06449992 0.003176454 0.13118052 0.019114874
0000b0 4c 4f ac bd 70 6b 62 bc ad 19 bc bd f0 67 4c bd
       -0.08413562 -0.01381956 -0.09184585 -0.04990381
0000c0 20 5f cd bc f7 8b 2f 3c 49 8f 91 ba 52 35 23 3d
       -0.025069773 0.010714523 -0.0011105324 0.039845772
0000d0 96 2c ea 3d 94 58 86 bd 3c 9c 3d 3d b4 f8 e9 ba
       0.11434285 -0.06559864 0.046291575 -0.0017850609
0000e0 08 5a 11 bc 3b 14 19 3e 76 db 7c bd 3f dd b5 3d
       -0.008871563 0.14949124 -0.06173273 0.0888009
0000f0 8c 8a f1 bc c1 43 2b 3b 51 d6 ab 3c a5 e4 d7 3b
       -0.02948501 0.0026132914 0.020976217 0.006588536
000100 5d ca b0 3d 74 7e 96 bc 55 90 ba 3b d0 5b 31 bd
       0.08632348 -0.018370844 0.0056934753 -0.04330045
000110 bd 38 5e bc d7 58 eb 3d e1 70 bd bc 62 7d 25 be
       -0.013563332 0.11491554 -0.023125114 -0.16161111
000120 76 ff 70 3d 4c c5 04 bd 89 4b 8f 3c e9 cd 03 bd
       0.058837377 -0.03241472 0.017492073 -0.032178793
000130 d7 87 9c bd 31 04 1f bd fe b7 33 3d f6 02 94 bd
       -0.07643097 -0.038822357 0.04387664 -0.07227127
000140 23 d3 a4 3c 1c b4 49 bd 79 cc c1 3d 89 e4 a0 3b
       0.02012021 -0.04924403 0.09462828 0.004910056
000150 0e 8b b7 bc 76 7c 47 3d f9 c6 21 bd 08 89 82 bc
       -0.022405174 0.04870268 -0.039496396 -0.015934482
000160 8c 5f a9 3d 82 29 cb bd 87 bd 2e bd 96 11 47 bb
       0.08270177 -0.09920026 -0.042661216 -0.0030375472
000170 f2 3c ed bd 1c e0 5f bd 8a 31 42 3d 22 7f 15 3d
       -0.1158389 -0.054657087 0.047410525 0.036498196
000180 f3 c2 00 be e5 f1 b7 bc fd 75 70 bd ca 40 ab 3d
       -0.12574367 -0.022454211 -0.058706272 0.08361967
000190 f3 aa 61 ba 48 12 4d 3e 5d be 02 bd e4 3b bf 3b
       -0.0008608542 0.20026505 -0.031919826 0.005835997
0001a0 27 7f c8 3c a3 35 36 bd a9 74 c5 bd 73 9f 54 bd
       0.024474693 -0.044484746 -0.09641392 -0.051909875
0001b0 1a 80 9c 3d a9 ee 3d 3c 66 d1 f3 bd 79 f1 cf bc
       0.07641621 0.011592546 -0.11905174 -0.025383698
0001c0 a9 0a 26 3d 8f 6a 06 3d ad de bd 3c 39 a1 3d 3c
       0.04053751 0.032816466 0.02317747 0.011574083
0001d0 f0 7e 38 3d 9a fa 44 3b 1e 49 39 3d ff f8 f2 3c
       0.045042932 0.0030056597 0.045235746 0.029659746
0001e0 d3 3e c1 3d ca 5d ac 3d 1d 21 b9 bd 78 60 a7 3b
       0.09435811 0.08416326 -0.09039519 0.0051079355
0001f0 db cc 45 3d bb ee 3d bd a5 07 5c 3d bf 3a 1a be
       0.04829107 -0.04637025 0.053718228 -0.15061472
000200 e1 88 89 bb 04 2a 7d 3d b1 6f 58 3a ce ac 28 bd
       -0.0041972254 0.061807647 0.00082563894 -0.041180424
000210 75 8a ad 3d cf c2 a3 bc d3 f9 c8 bc 99 20 8b bd
       0.08473674 -0.019990353 -0.024533188 -0.06793327
000220 09 c0 90 3b 39 14 5c 3c e4 a4 2a 3d f1 70 51 3b
       0.0044174236 0.013432556 0.04166116 0.0031958187
000230 fe 15 cc 3c 2a d7 be 3d 3e ff 78 bd f1 70 7e 3c
       0.02491283 0.09318383 -0.060790293 0.015529857
000240 fc df ee bd b2 c8 7f 3c 77 c1 ff bd d2 a0 07 bd
       -0.116638154 0.015611814 -0.12488072 -0.033112355
000250 7e a7 84 3c c4 57 06 3d d9 78 5b bc 3a 22 a6 bb
       0.016193148 0.032798544 -0.013395512 -0.005069998
000260 91 d6 f5 3c 24 7c 6e bd 51 96 b9 3d 7e 72 ab 3d
       0.03000954 -0.05822386 0.09061874 0.08371447
000270 4e a4 fc bd c5 1b a3 bd 6d 06 69 3d 90 51 06 bd
       -0.12336026 -0.07964281 0.056890894 -0.032792628
000280 3d 93 ad 3d 71 ca 20 3e ce 9c c2 3d 9f fe d6 bd
       0.08475349 0.15702225 0.09502564 -0.10497784
000290 8f 1a 95 3d e8 af 7d bd 8c df 2c 3c 94 d0 c1 3b
       0.07280456 -0.061935335 0.010551345 0.005914757
0002a0 30 6c c9 bd 2c 3f 94 3d a4 3e 30 3d 66 84 e9 3c
       -0.09835088 0.072386116 0.04302849 0.028505515
0002b0 24 32 79 3d 76 d1 c5 3c a4 26 b3 3d c4 53 b3 bd
       0.060838833 0.02414773 0.087476045 -0.087562114
0002c0 05 07 da bd c9 a6 bd 3d a5 6c 95 bd 39 fe 6c 3d
       -0.1064587 0.09260327 -0.07296113 0.057859633
0002d0 6d 75 8c bd 2e 16 13 3d 6b 46 89 3c 90 4a 66 bc
       -0.06858335 0.035909824 0.01675721 -0.014055863
0002e0 eb 8c cc bd f7 56 69 bd 0e b9 34 bd a5 f0 83 bd
       -0.099878155 -0.0569677 -0.044121794 -0.06442384
0002f0 d9 b0 6c bd ae 68 e1 3c 4f 4b 4b 3d ab a5 bf 3c
       -0.057785843 0.027515735 0.049632367 0.023394426
000300 6a 7a 89 3b f6 a5 a8 3b 32 5d ac bd b7 8e f2 bc
       0.004195501 0.005146737 -0.08416213 -0.029609067
000310 d5 a4 de bd 21 5b 2c 3d 89 b8 71 3c f6 cb 88 bc
       -0.10871283 0.042079095 0.014753469 -0.016698819
000320 12 61 b9 bd 20 a8 6c bb 4b 80 c2 bb 0f cd 4b 3d
       -0.09051718 -0.0036110952 -0.005935704 0.049756106
000330 5d 6d ee 3d 6f eb 3d bd ef 3a 93 bd f8 6b 97 ba
       0.11641953 -0.046367105 -0.07188975 -0.0011552563
000340 a4 fa 5f 3c bb 06 e8 bd 17 9b 82 bd 7e 06 72 bd
       0.013670597 -0.11329409 -0.06377237 -0.059088223
000350 9b 21 23 3d 09 01 38 bd da e7 bd 3d db 36 6a 3a
       0.03982697 -0.044922862 0.09272738 0.00089345657
000360 ed 62 8a bc 85 03 3e 3c 66 ff 5d 3d da ba 59 3d
       -0.016892875 0.011597519 0.054198645 0.05315671
000370 5e 87 07 3e 29 da 73 bc 16 a0 d0 3b 6e 62 0b 3e
       0.13235232 -0.014883556 0.00636674 0.13611767
000380 c8 29 25 bd 79 2c 37 3d 8f 2f 4b be f9 51 ae bd
       -0.04032305 0.044720147 -0.19842361 -0.08511729
000390 78 79 63 bd 8f e2 1a 3a 79 18 99 bd d0 22 bf bd
       -0.055535764 0.00059083937 -0.07475371 -0.09332812
0003a0 01 78 c1 bd e5 2f 09 3d aa 59 bf 3c f9 75 7a bd
       -0.09446717 0.03349294 0.023358185 -0.061147664
0003b0 69 6d a4 bc 38 06 c5 bc 79 8d d3 bb 01 e2 4b 3c
       -0.020071702 -0.024050817 -0.006456074 0.01244402
0003c0 7a 2c 35 bc f6 4a 87 3d 7e 15 ec 3c ce 9b a3 bd
       -0.011057967 0.066060945 0.028818842 -0.07988702
0003d0 41 69 ee 3d 63 62 60 3e 6f d6 b0 3c 3e 19 b4 3c
       0.11641169 0.21912532 0.021586625 0.021984693
0003e0 e3 47 d4 3a d1 2c 81 bd 13 d3 c0 bd 6c d8 85 bc
       0.001619574 -0.06307376 -0.09415259 -0.01633855
0003f0 70 38 cb bd 13 30 50 bd 1a 25 7e 3b 10 94 30 bd
       -0.09922874 -0.050827097 0.0038779438 -0.043109953
