results/3-2-run2/simple_deer/simple_deer-734.onnx (onnx, 480881 bytes, 15 tensors)

network_body.observation_encoder.processors.0.self_ent_encoder.seq_layers.0.bias f4 [128]
0	0x00000000	0.0
1	0x00000000	0.0
2	0x00000000	0.0
3	0x00000000	0.0
4	0x00000000	0.0
5	0x00000000	0.0
6	0x00000000	0.0
7	0x00000000	0.0
8	0x00000000	0.0
9	0x00000000	0.0
10	0x00000000	0.0
11	0x00000000	0.0
12	0x00000000	0.0
13	0x00000000	0.0
14	0x00000000	0.0
15	0x00000000	0.0
16	0x00000000	0.0
17	0x00000000	0.0
18	0x00000000	0.0
19	0x00000000	0.0
20	0x00000000	0.0
21	0x00000000	0.0
22	0x00000000	0.0
23	0x00000000	0.0
24	0x00000000	0.0
25	0x00000000	0.0
26	0x00000000	0.0
27	0x00000000	0.0
28	0x00000000	0.0
29	0x00000000	0.0
30	0x00000000	0.0
31	0x00000000	0.0
32	0x00000000	0.0
33	0x00000000	0.0
34	0x00000000	0.0
35	0x00000000	0.0
36	0x00000000	0.0
37	0x00000000	0.0
38	0x00000000	0.0
39	0x00000000	0.0
40	0x00000000	0.0
41	0x00000000	0.0
42	0x00000000	0.0
43	0x00000000	0.0
44	0x00000000	0.0
45	0x00000000	0.0
46	0x00000000	0.0
47	0x00000000	0.0
48	0x00000000	0.0
49	0x00000000	0.0
50	0x00000000	0.0
51	0x00000000	0.0
52	0x00000000	0.0
53	0x00000000	0.0
54	0x00000000	0.0
55	0x00000000	0.0
56	0x00000000	0.0
57	0x00000000	0.0
58	0x00000000	0.0
59	0x00000000	0.0
60	0x00000000	0.0
61	0x00000000	0.0
62	0x00000000	0.0
63	0x00000000	0.0
64	0x00000000	0.0
65	0x00000000	0.0
66	0x00000000	0.0
67	0x00000000	0.0
68	0x00000000	0.0
69	0x00000000	0.0
70	0x00000000	0.0
71	0x00000000	0.0
72	0x00000000	0.0
73	0x00000000	0.0
74	0x00000000	0.0
75	0x00000000	0.0
76	0x00000000	0.0
77	0x00000000	0.0
78	0x00000000	0.0
79	0x00000000	0.0
80	0x00000000	0.0
81	0x00000000	0.0
82	0x00000000	0.0
83	0x00000000	0.0
84	0x00000000	0.0
85	0x00000000	0.0
86	0x00000000	0.0
87	0x00000000	0.0
88	0x00000000	0.0
89	0x00000000	0.0
90	0x00000000	0.0
91	0x00000000	0.0
92	0x00000000	0.0
93	0x00000000	0.0
94	0x00000000	0.0
95	0x00000000	0.0
96	0x00000000	0.0
97	0x00000000	0.0
98	0x00000000	0.0
99	0x00000000	0.0
100	0x00000000	0.0
101	0x00000000	0.0
102	0x00000000	0.0
103	0x00000000	0.0
104	0x00000000	0.0
105	0x00000000	0.0
106	0x00000000	0.0
107	0x00000000	0.0
108	0x00000000	0.0
109	0x00000000	0.0
110	0x00000000	0.0
111	0x00000000	0.0
112	0x00000000	0.0
113	0x00000000	0.0
114	0x00000000	0.0
115	0x00000000	0.0
116	0x00000000	0.0
117	0x00000000	0.0
118	0x00000000	0.0
119	0x00000000	0.0
120	0x00000000	0.0
121	0x00000000	0.0
122	0x00000000	0.0
123	0x00000000	0.0
124	0x00000000	0.0
125	0x00000000	0.0
126	0x00000000	0.0
127	0x00000000	0.0

network_body.observation_encoder.processors.2.normalizer.running_mean f4 [2]
0	0x3f3acda7	0.7297005
1	0x3f3edd56	0.7455648

network_body.observation_encoder.x_self_encoder.seq_layers.0.weight f4 [128, 2]
0	0xbb0b5064	-0.0021257633
1	0xbce3ccef	-0.02780768
2	0x3c9acd43	0.018896705
3	0x3c13dacd	0.009024334
4	0xbc007058	-0.007839285
5	0x3d01346e	0.03154414
6	0xbd40daa3	-0.04708351
7	0xbdb7d2a1	-0.08975721
8	0xbcacee1d	-0.021109635
9	0xbc28d9c8	-0.010305829
10	0x3c7788e1	0.015108318
11	0x3c75c432	0.01500039
12	0xbc23d230	-0.009998843
13	0xbc9f899e	-0.0194748
14	0xbc9107c5	-0.0177039
15	0x3cfa4e62	0.030554954
16	0xbc8ee477	-0.017442925
17	0x3b1eb286	0.0024215295
18	0x3d91bcb5	0.07116071
19	0x3c3af7ea	0.011411646
20	0x3c80eadc	0.01573699
21	0xbd263a8e	-0.040583186
22	0x3bc5264b	0.006016528
23	0xbd004496	-0.03131541
24	0xbd0551fc	-0.03254889
25	0xbcc856d0	-0.024455458
26	0xbbf26afc	-0.0073980074
27	0xbce34332	-0.027742002
28	0x3d301773	0.042991113
29	0xbd2d1741	-0.042258505
30	0xbc78f21b	-0.015194441
31	0xbc789300	-0.015171766
32	0xbd5236d2	-0.051321812
33	0x3b8e2e1a	0.004338992
34	0xbd25752d	-0.04039495
35	0x3c7633b0	0.015026972
36	0x3c038ec6	0.008029645
37	0x3c2a6682	0.010400416
38	0x3d430251	0.04760963
39	0xbd2903d0	-0.0412634
40	0x3cb96fe1	0.022636356
41	0xbd4a21b0	-0.049348533
42	0xbc39b410	-0.011334434
43	0xbc0fffa0	-0.008788973
44	0xbcc0322e	-0.023461428
45	0xbcf3ad0a	-0.029745597
46	0xbb92b0b5	-0.0044766315
47	0xbd17b8d3	-0.037041496
48	0x3beca47c	0.0072217565
49	0x3ccbb070	0.024864405
50	0xbc47340d	-0.012158406
51	0xbcb5eced	-0.022207702
52	0xbd368cf9	-0.044568036
53	0xbc32f96b	-0.010923724
54	0xbc88e1d7	-0.016709251
55	0xbd3c3941	-0.04595304
56	0xbb198724	-0.0023426497
57	0xbd6ad8d6	-0.057335697
58	0x3d58ced6	0.05293163
59	0x3d646584	0.055760875
60	0xbcf016a4	-0.02930767
61	0x3c84f1d4	0.016228594
62	0xbd15cae0	-0.03657043
63	0xbcd7ab50	-0.026326805
64	0xbd2b9b04	-0.04189588
65	0xbd19891f	-0.037484284
66	0x3c9fa0ef	0.019485919
67	0xbb37fc50	-0.0028073974
68	0xbc984daa	-0.01859172
69	0x3cb5ee46	0.022208344
70	0xbcb03606	-0.021510135
71	0xbc789dd7	-0.015174351
72	0x3c07ad7e	0.00828111
73	0x3ccb9af0	0.024854153
74	0x3c6319b8	0.013861112
75	0xbc5cad50	-0.013469055
76	0x3d07afd8	0.033126682
77	0xbd46e275	-0.04855581
78	0x3d7eb601	0.06218529
79	0xbcb8ee84	-0.02257467
80	0xbca9dd02	-0.020735268
81	0xbb9182e2	-0.0044406513
82	0x3c191e01	0.009345532
83	0x3ccc6deb	0.024954757
84	0x3b842a14	0.0040333364
85	0xb93ed936	-0.0001820073
86	0x3b5cc3af	0.0033685972
87	0x3bedcf47	0.0072573754
88	0xbcb5ee8d	-0.022208476
89	0x3cbb37ff	0.02285385
90	0x3cf2e02f	0.029647915
91	0xba3f45b4	-0.00072964584
92	0xbcdcf3d4	-0.026971735
93	0xbbef783b	-0.0073080338
94	0xbd014069	-0.031555567
95	0xbd130270	-0.035890996
96	0xbc7df894	-0.01550116
97	0xbd5d874b	-0.054084104
98	0xbc84c290	-0.016206056
99	0x3d972065	0.07379226
100	0xbcb4a6aa	-0.022052128
101	0x3b15d57c	0.0022862842
102	0x3c822cbe	0.015890475
103	0xbb0b5f1c	-0.0021266406
104	0xbd4218c5	-0.047386903
105	0x3badc463	0.005302952
106	0xbc70228b	-0.014656673
107	0xbbf95496	-0.0076089604
108	0x3c6e8648	0.014558382
109	0xbcc35af3	-0.023847079
110	0x3b0147d1	0.0019726644
111	0xbd3914eb	-0.045185965
112	0x3bd619c1	0.006533832
113	0x3d037e5e	0.032102935
114	0xbd0f8208	-0.035036117
115	0xbcf0b9fb	-0.029385557
116	0xbd151068	-0.0363926
117	0x3d5b1dd1	0.053495232
118	0x3d00c18d	0.031434584
119	0x3d5b2db4	0.053510383
120	0xbc8968c1	-0.016773583
121	0xbc8c4ec2	-0.017127398
122	0xbc594ff2	-0.013263689
123	0x3d014bbc	0.031566367
124	0xbd004092	-0.03131158
125	0x3d2b5986	0.041833423
126	0xbd087eef	-0.03332418
127	0x3c93e019	0.018051194
128	0xbb24c814	-0.002514367
129	0xbcb2b724	-0.021815844
130	0xbc978c00	-0.018499374
131	0xbd608443	-0.054813635
132	0x3c86dfdc	0.016464166
133	0x3c3f8a65	0.011690711
134	0x3b80a8d7	0.0039263773
135	0xbaa7d52a	-0.0012804617
136	0x3c1498d9	0.009069645
137	0xbc31b6c7	-0.0108468
138	0x3d56ffb1	0.05248994
139	0x3b7ffb03	0.0039059527
140	0xba872b35	-0.0010312559
141	0x3c142863	0.009042832
142	0x3aae6788	0.0013306001
143	0x3c5f91b6	0.01364558
144	0x3c800f43	0.015632277
145	0x3c4162d6	0.0118033495
146	0xbc36bbc9	-0.01115317
147	0x3d27c492	0.04095895
148	0xb9b89764	-0.0003520801
149	0x3ce2796c	0.02764579
150	0x3bcc1473	0.0062280237
151	0xbc08a84d	-0.008340907
152	0xbc20c1a2	-0.009811791
153	0x3d0b8154	0.034058884
154	0xb9dac916	-0.0004173002
155	0x3b4351c7	0.0029803382
156	0x3cf27bbb	0.029600015
157	0xbbc7d02b	-0.0060978136
158	0x3c506c4d	0.012721133
159	0x3cfa9416	0.030588191
160	0x3c4479b9	0.011991912
161	0x3ba0181c	0.0048856866
162	0xbcc6fc81	-0.024290325
163	0x3bd1f600	0.0064074993
164	0x3ba45249	0.005014692
165	0xbc9744c9	-0.018465417
166	0xbced6f7a	-0.02898382
167	0x3ced1931	0.028942676
168	0x3bb2b79f	0.0054540182
169	0x3cdd8370	0.027040213
170	0xbce4a271	-0.02790949
171	0xbb545766	-0.0032400726
172	0x3ae182f4	0.0017205165
173	0x3bd2cdc4	0.0064332206
174	0xbd33c9bd	-0.043893564
175	0xbd5d9894	-0.054100588
176	0x3b614eb2	0.0034379181
177	0xbd776906	-0.060402893
178	0x3c9083f1	0.01764104
179	0x3c5c4948	0.013445206
180	0xbd2381cb	-0.039918702
181	0x3c9da656	0.019244354
182	0x3bd0897e	0.0063640466
183	0x3cc0f98c	0.023556493
184	0xbb9d42a1	-0.0047992026
185	0xbb63e7ca	-0.0034775608
186	0x3b1a97f2	0.0023589102
187	0xbb8377d0	-0.0040120855
188	0xbd0b9315	-0.034075815
189	0xbc2d1c32	-0.010565804
190	0xbca06781	-0.019580605
191	0x3ca14814	0.01968769
192	0xbcd2d0c7	-0.025734318
193	0xbd61e903	-0.055153858
194	0x3ca03e8b	0.019561073
195	0xbcfb56d0	-0.030681044
196	0xbc970eb1	-0.018439623
197	0xbc781750	-0.015142277
198	0xbd895934	-0.06706467
199	0xbb16b2f0	-0.0022994839
200	0x3d5b7f1c	0.053588018
201	0x3d7d3ea5	0.06182732
202	0xba98ccea	-0.0011657749
203	0x3cbf11fd	0.023324007
204	0xbcc7318d	-0.02431562
205	0xbbcfa341	-0.0063366
206	0xbbd9b4da	-0.0066438736
207	0xbc8d8749	-0.017276423
208	0xba4d79ef	-0.0007838299
209	0x3cf01015	0.029304544
210	0x3b782e66	0.0037869452
211	0xbd1cd641	-0.038290266
212	0x3c359b22	0.01108435
213	0x3afd7413	0.0019336961
214	0xbd143a2d	-0.036188293
215	0xbd07f7d2	-0.033195324
216	0xbcc00795	-0.023441115
217	0xb9f1a99a	-0.00046093465
218	0xbcd9aca0	-0.026571572
219	0x3aff4d9f	0.0019478089
220	0xbc7f9111	-0.015598551
221	0x3d8ab7e7	0.06773358
222	0xbb10905d	-0.0022058703
223	0x3d27c148	0.04095581
224	0xbd58e6f0	-0.052954614
225	0x3cb62b0f	0.022237329
226	0x3d8845e4	0.066539556
227	0xbcf83452	-0.030298386
228	0xbd1deb28	-0.03855434
229	0x3bfdc70f	0.007744677
230	0x3c9c99c8	0.019116297
231	0x3d20503a	0.03913901
232	0x3d6dce2d	0.058057953
233	0xbb819a14	-0.003955135
234	0x3d000b4d	0.031260777
235	0xbcc09e60	-0.02351302
236	0xbc9ed74d	-0.019389773
237	0xbc66f6b0	-0.014096901
238	0xbd467240	-0.0484488
239	0x3c1af42f	0.009457632
240	0x3c951135	0.018196682
241	0xbc252e59	-0.010081851
242	0x3cc251e2	0.023720685
243	0x3aa8fb93	0.0012892358
244	0xbcc249e9	-0.023716884
245	0xb92ac606	-0.00016286233
246	0xbc548d2b	-0.01297311
247	0xbd2450a3	-0.040115964
248	0xbd379498	-0.044819444
249	0xbd1e7cd5	-0.038693268
250	0x3ccbf622	0.024897639
251	0x3cac8964	0.021061607
252	0x3c42b20f	0.011883273
253	0xbca97f6f	-0.020690648
254	0xbbdeac4e	-0.0067954427
255	0x3cfebe91	0.031096729

network_body._body_endoder.seq_layers.0.weight f4 [64, 130]
0	0x3cee3b8f	0.029081134
1	0x3caae781	0.020862343
2	0xbdb95d19	-0.0905096
3	0xbc98254c	-0.018572472
4	0x3e00ab99	0.1256546
5	0xbd61df59	-0.05514464
6	0xbc281112	-0.010257976
7	0xbcb999ce	-0.022656348
8	0x3db95318	0.09049052
9	0x3e171e8b	0.14757745
10	0xbd7a4dbe	-0.061109297
11	0xbb0ee41d	-0.0021803447
12	0x3cfe4365	0.031037996
13	0xbd64d3ab	-0.055865925
14	0x3cd92dfd	0.026511187
15	0x3ce4f14e	0.027947094
16	0xbda45ea7	-0.08025866
17	0x3db5ac50	0.088707566
18	0xbe0c12db	-0.13679068
19	0xbd80c5f6	-0.06287758
20	0xbbf1b02e	-0.0073757386
21	0x3cf0acb6	0.02937923
22	0xbd55e76c	-0.052222654
23	0x3c14eee9	0.009090164
24	0xbdc1ed5d	-0.094691016
25	0x3ded18c0	0.11576986
26	0xbb853a96	-0.004065822
27	0x3d116bba	0.035503127
28	0xbdff5cc1	-0.12468863
29	0xbdb8a5eb	-0.09016021
30	0xbc82962e	-0.015940752
31	0x3e1ef3f7	0.15522753
32	0xbdac0d82	-0.08401014
33	0x3c93cec8	0.018042937
34	0x3c824153	0.01590029
35	0xbd8f8bf5	-0.070091166
36	0xbc0fdd61	-0.008780808
37	0x3d5a4fdb	0.053298812
38	0x3e28155a	0.16414395
39	0x3d272dcf	0.04081517
40	0x3de749d3	0.11293378
41	0x3d32c1c1	0.04364181
42	0xbbb56a06	-0.0055363206
43	0x3dad1800	0.08451843
44	0x3ce850b4	0.028358795
45	0x3ce45bec	0.027875863
46	0xbca5ba8d	-0.020230556
47	0xbd230f83	-0.039809715
48	0x3ddaf700	0.10691643
49	0xbc70879b	-0.014680768
50	0x3c3e789d	0.011625436
51	0xbe2b80a2	-0.16748288
52	0x3d80a840	0.06282091
53	0x3dfd68e3	0.12373521
54	0x3e02f6db	0.1278948
55	0xbd442cd4	-0.047894314
56	0xbd125978	-0.035729855
57	0x3d9dcc72	0.077050105
58	0x3d9e45bd	0.07728145
59	0x3c5be0ad	0.013420266
60	0xbbbde703	-0.005795361
61	0x3d45b9a0	0.04827273
62	0xbda90bcb	-0.082542025
63	0xbd4da3e7	-0.050205138
64	0xbd43cf8c	-0.047805354
65	0x3d878e7c	0.066189736
66	0xbd34137d	-0.043963898
67	0x3e052ce5	0.13005407
68	0xbc21e921	-0.009882242
69	0x3df9c735	0.12196199
70	0xbdb0253c	-0.08600852
71	0xbbd9c60c	-0.0066459235
72	0x3d8f4275	0.069950975
73	0x3e257863	0.16159205
74	0x3d43d54f	0.04781085
75	0x3e29a8e2	0.1656833
76	0x3da2658d	0.079295255
77	0x3dc7cde9	0.09756071
78	0x381ac8a8	3.6903337e-05
79	0x3d3e3e5a	0.04644618
80	0xbd2c7735	-0.042105872
81	0xbd9f21bf	-0.077701084
82	0xbe0d58f6	-0.13803467
83	0x3d3d71ee	0.04625123
84	0xbe05b670	-0.13057876
85	0xbb1544f4	-0.0022776695
86	0x3de643f9	0.112434335
87	0x3ca1109d	0.019661242
88	0xbd8723b2	-0.06598605
89	0x39695472	0.0002225207
90	0x3d571cd2	0.05251772
91	0x3c4d23be	0.012520729
92	0xbd3a64ce	-0.04550629
93	0x3ce98588	0.028506055
94	0xbcb2c81e	-0.021823939
95	0xbb7334c0	-0.00371103
96	0xbe074930	-0.13211513
97	0x3c47a5cb	0.012185524
98	0xbe14ed1e	-0.14543578
99	0xbe0cfea6	-0.13769016
100	0x3dca19d1	0.09868205
101	0xbcb31087	-0.021858467
102	0xbdefe900	-0.11714363
103	0xbd3ebd9f	-0.046567556
104	0x3e066250	0.1312344
105	0x3bf7ff82	0.0075683007
106	0xbe145715	-0.14486344
107	0x3d11d60e	0.03560453
108	0x3c1025aa	0.008798042
109	0xbd5ffcd6	-0.054684483
110	0x3dba9358	0.09110135
111	0xbe13be93	-0.14428167
112	0x3d38667c	0.04501961
113	0xbc922476	-0.017839652
114	0x3d80e719	0.062940784
115	0xbcc98e56	-0.024604004
116	0xbdc27091	-0.094941266
117	0xbd502522	-0.050816663
118	0x3e74776a	0.23873678
119	0x3d8e496a	0.06947596
120	0xbd5e3288	-0.05424741
121	0x3d8dd330	0.069250464
122	0x3e341fe8	0.17590296
123	0xbd4c59c5	-0.0498903
124	0xbd07c1ab	-0.03314368
125	0xbd7cf063	-0.06175269
126	0xbdb6675b	-0.08906432
127	0xbba3080b	-0.004975324
128	0xbbf19e05	-0.0073735737
129	0xbdb145d8	-0.086559
130	0xbc808bc4	-0.015691645
131	0xbe19e195	-0.15027459
132	0xbd27e378	-0.040988415
133	0xbda51d83	-0.080622695
134	0x3d9a9291	0.075474866
135	0x3d7a0983	0.061044227
136	0xbcb40efa	-0.021979798
137	0xbe1b582f	-0.15170358
138	0xbbc5cef4	-0.0060366336
139	0xbd606006	-0.054779075
140	0x3d3a70bf	0.04551768
141	0xbdc30567	-0.09522515
142	0xbc837c83	-0.016050583
143	0x3c8ba8c5	0.017048249
144	0x3c44591d	0.011984137
145	0x3cb0ccc1	0.02158201
146	0x3bb8b305	0.005636575
147	0xbcf2b7be	-0.02962863
148	0x3cac164c	0.021006726
149	0xbdf3def9	-0.11907763
150	0xbd445371	-0.04793114
151	0x3d7b7278	0.061388463
152	0x3a0a591b	0.000527756
153	0x3ce42080	0.027847528
154	0x3c802e98	0.015647218
155	0x3d61ce91	0.055128638
156	0xbc582948	-0.013193436
157	0x3ca17883	0.019710785
158	0xbd6a93b2	-0.05726976
159	0xbd3ded74	-0.04636903
160	0xbc001c26	-0.007819211
161	0xbccdd92a	-0.025127966
162	0x3d8add43	0.067804836
163	0xbd279228	-0.04091087
164	0x3cb20e3c	0.021735303
165	0xbd8f2f07	-0.06991392
166	0xbe5d8e2b	-0.21636264
167	0xbdac8753	-0.084242485
168	0x3cfc82f9	0.030824171
169	0xbcf449ba	-0.029820312
170	0xbbc47230	-0.0059950575
171	0xbe0eac60	-0.13932943
172	0xbde0aec4	-0.10970834
173	0x3d9a1401	0.07523347
174	0x3d9cdda2	0.076594606
175	0xbdd2ff3a	-0.10302587
176	0x3e053241	0.13007452
177	0xbd75b661	-0.059988383
178	0x3e1ab7d2	0.15109184
179	0x3de9c55f	0.11414599
180	0x3dacb685	0.0843325
181	0x3d44fbc2	0.048091657
182	0x3cf8f033	0.030387973
183	0xbd49cbb8	-0.049266547
184	0xbc1a0632	-0.009400891
185	0xbdd820ec	-0.10553154
186	0xbc179610	-0.009252086
187	0xbddc7def	-0.107662074
188	0x3dbbe419	0.091743656
189	0xbc0aff1f	-0.008483677
190	0xbd0e520d	-0.03474622
191	0xbdc7d061	-0.09756542
192	0xbda9f596	-0.08298795
193	0x3b48578a	0.0030569755
194	0xbd81006c	-0.062989086
195	0xbdde2897	-0.10847586
196	0xbd7374fb	-0.059437733
197	0x3cda42e4	0.026643224
198	0x3c49b6b4	0.012311626
199	0xbc8eece6	-0.017446946
200	0x3ca6f798	0.020381734
201	0xbd26da12	-0.04073531
202	0x3c8f1b6e	0.017469134
203	0xbd6a50c8	-0.057205945
204	0xbda08c06	-0.07839207
205	0xbdcfd693	-0.10148349
206	0x3d2d9ba6	0.042384766
207	0x3becd220	0.0072271973
208	0xbc6d3512	-0.014477985
209	0x3cc156f8	0.02360104
210	0xbc8ae756	-0.016956013
211	0xbdd9e356	-0.10639064
212	0x3e318767	0.17336808
213	0x3d847b2b	0.06468805
214	0x3c292315	0.010323306
215	0xbdbe2385	-0.092841186
216	0xbd033499	-0.032032583
217	0xbdfab224	-0.12241009
218	0xbe07e4b4	-0.13270837
219	0x3e0105b0	0.12599826
220	0x3e096e6d	0.1342103
221	0x3e8ba975	0.27277723
222	0xbdbc96b4	-0.09208432
223	0x3def2cee	0.116784915
224	0x3d4e2aad	0.050333668
225	0xbe336609	-0.17519392
226	0x3da9ecc3	0.08297112
227	0x3dba3372	0.09091844
228	0xbc6f5f43	-0.0146101145
229	0xbda1743b	-0.07883497
230	0xbde18294	-0.11011234
231	0x3de057c9	0.10954244
232	0x3dc8a77c	0.0979757
233	0x3d9d22df	0.07672667
234	0x3de6c0a4	0.11267212
235	0x3e1f767a	0.15572539
236	0x3e790dbe	0.24321648
237	0x3df55f71	0.11981095
238	0xbc822b93	-0.015889918
239	0x3d8e5aa2	0.069508806
240	0xbe5a0793	-0.21291952
241	0x3b41bd90	0.002956245
242	0x3de85107	0.1134358
243	0xbd5829d6	-0.052774273
244	0x3c0c8d59	0.008578622
245	0x3deaefb5	0.11471502
246	0xbdbec143	-0.093142055
247	0x3e42531b	0.18977015
248	0xbe12b209	-0.14325728
249	0x3de54915	0.1119558
250	0xbde29865	-0.11064223
251	0xbd5473ad	-0.05186813
252	0x3d1c6efb	0.038191777
253	0xbd620f7d	-0.055190552
254	0x3cfe267c	0.03102421
255	0xbc8336af	-0.016017286

network_body._body_endoder.seq_layers.0.bias f4 [64]
0	0x00000000	0.0
1	0x00000000	0.0
2	0x00000000	0.0
3	0x00000000	0.0
4	0x00000000	0.0
5	0x00000000	0.0
6	0x00000000	0.0
7	0x00000000	0.0
8	0x00000000	0.0
9	0x00000000	0.0
10	0x00000000	0.0
11	0x00000000	0.0
12	0x00000000	0.0
13	0x00000000	0.0
14	0x00000000	0.0
15	0x00000000	0.0
16	0x00000000	0.0
17	0x00000000	0.0
18	0x00000000	0.0
19	0x00000000	0.0
20	0x00000000	0.0
21	0x00000000	0.0
22	0x00000000	0.0
23	0x00000000	0.0
24	0x00000000	0.0
25	0x00000000	0.0
26	0x00000000	0.0
27	0x00000000	0.0
28	0x00000000	0.0
29	0x00000000	0.0
30	0x00000000	0.0
31	0x00000000	0.0
32	0x00000000	0.0
33	0x00000000	0.0
34	0x00000000	0.0
35	0x00000000	0.0
36	0x00000000	0.0
37	0x00000000	0.0
38	0x00000000	0.0
39	0x00000000	0.0
40	0x00000000	0.0
41	0x00000000	0.0
42	0x00000000	0.0
43	0x00000000	0.0
44	0x00000000	0.0
45	0x00000000	0.0
46	0x00000000	0.0
47	0x00000000	0.0
48	0x00000000	0.0
49	0x00000000	0.0
50	0x00000000	0.0
51	0x00000000	0.0
52	0x00000000	0.0
53	0x00000000	0.0
54	0x00000000	0.0
55	0x00000000	0.0
56	0x00000000	0.0
57	0x00000000	0.0
58	0x00000000	0.0
59	0x00000000	0.0
60	0x00000000	0.0
61	0x00000000	0.0
62	0x00000000	0.0
63	0x00000000	0.0

network_body._body_endoder.seq_layers.2.weight f4 [64, 64]
0	0xbdb7397c	-0.08946511
1	0x3e5f0411	0.21778895
2	0xbe408f3c	-0.1880464
3	0x3dc32bae	0.095298156
4	0x3e78e822	0.24307302
5	0xbd8a7853	-0.06761231
6	0xbca32b0d	-0.01991799
7	0xbe2c1dc8	-0.16808236
8	0xbd1353bc	-0.035968527
9	0xbd1f85f3	-0.038946103
10	0xbe84cd8e	-0.25938076
11	0xbd4514ee	-0.048115663
12	0x3d54acb6	0.051922522
13	0x3e08b115	0.13348801
14	0x3d3471ef	0.044053968
15	0x3d65ffa8	0.056152016
16	0xbe13953c	-0.14412397
17	0x3ddf1dd8	0.10894364
18	0x3c53567e	0.012899039
19	0xbdbd1ccd	-0.09234009
20	0x3dad4b04	0.08461574
21	0xbd31f3c8	-0.04344538
22	0x3db60338	0.08887333
23	0xbd7f15af	-0.06227654
24	0x3e05c527	0.13063489
25	0x3d2ad529	0.04170719
26	0x3d11a8cf	0.03556138
27	0x3c9775f8	0.01848887
28	0xbeb99b8a	-0.3625148
29	0xbe04bdae	-0.12962982
30	0x3d051ee1	0.03250015
31	0x3dc9a1a5	0.098452844
32	0xbd99be36	-0.07506983
33	0xbded06ab	-0.115735374
34	0x3c157cdb	0.009124006
35	0xbce98eb0	-0.028510422
36	0x3c26592d	0.010153097
37	0xbe0a74bb	-0.13521092
38	0xbda44564	-0.08021048
39	0x3d475cb5	0.048672397
40	0x3e011e08	0.12609112
41	0x3d8547d2	0.06507839
42	0xbd5b5312	-0.05354602
43	0xbc4bbda5	-0.0124353515
44	0x3c91fd75	0.017821053
45	0xbd898273	-0.06714334
46	0x3e4fce71	0.20293595
47	0xbd95c8c1	-0.073136814
48	0xbd9f28a2	-0.07771422
49	0xbd7a5e67	-0.061125185
50	0xbcfca5bf	-0.030840753
51	0xbd81c2f6	-0.06336014
52	0xbc27d651	-0.010243968
53	0xbe3ce2dd	-0.18445916
54	0xbdd3a5ff	-0.103343956
55	0x3de2d307	0.110754065
56	0x3c1ea4c0	0.009682834
57	0x3d3e4322	0.04645074
58	0xbbd1e498	-0.0064054243
59	0x3e382483	0.17982678
60	0x3daf42da	0.08557673
61	0x3e18a7cb	0.14907758
62	0x3e367fa4	0.17822129
63	0xbe4b0880	-0.19827461
64	0xbe03b037	-0.1286019
65	0xbdd2ee63	-0.10299375
66	0x3c3b7024	0.011440311
67	0xbe62d957	-0.22153221
68	0x3cddeb49	0.027089732
69	0xbd8877db	-0.066634856
70	0xbd5891be	-0.052873366
71	0xbda8da2c	-0.08244738
72	0xbe96c442	-0.29446608
73	0x3dccebae	0.1000589
74	0xbdc355f8	-0.095378816
75	0x3c889328	0.016671732
76	0xbe12a1fb	-0.14319603
77	0xbe016b9d	-0.12638707
78	0xbd04ac2b	-0.032390755
79	0x3e207e28	0.15673125
80	0x3e2b0a7f	0.16703223
81	0x3c489a9f	0.012243896
82	0xbdbba95f	-0.09163164
83	0xbd0d4971	-0.034493867
84	0x3ba4c81a	0.005028737
85	0x3d7d7522	0.061879285
86	0x3b884c17	0.0041594612
87	0xbdf52234	-0.11969414
88	0x3caf14d1	0.02137223
89	0x3d469911	0.04848582
90	0x3d9d4f81	0.0768118
91	0xbe414377	-0.18873392
92	0xbe416aec	-0.18888444
93	0x3dfb1a0a	0.12260826
94	0x3d88a746	0.0667253
95	0x3d776cb4	0.0604064
96	0xbe0dd2a2	-0.13849881
97	0x3db41763	0.08793523
98	0xbe5815e4	-0.211021
99	0x3c50c37b	0.012741919
100	0x3de46240	0.11151552
101	0x3d5a45cd	0.053289223
102	0xbdd0b537	-0.10190814
103	0x3e4d0508	0.2002145
104	0x3dc9352e	0.09824596
105	0x3de1b640	0.110210896
106	0xbe7e480c	-0.24832171
107	0xbdbfb952	-0.09361519
108	0x3d86c547	0.065805964
109	0x3e5c6334	0.21522218
110	0xbe79bb66	-0.24387893
111	0xbec722bd	-0.3889369
112	0x3d33a439	0.043857787
113	0x3d1603e2	0.036624797
114	0x3b839521	0.0040155803
115	0x3e042375	0.12904151
116	0x3e69d24a	0.22834125
117	0x3d8eb3ac	0.069678634
118	0x3e0b714e	0.13617441
119	0xbd181288	-0.037127048
120	0xbdd32c3c	-0.103111714
121	0xbe82b313	-0.25527248
122	0x3dbab06f	0.09115683
123	0xbe1996a2	-0.14998868
124	0x3e26073c	0.16213697
125	0xbe99a2fa	-0.30007154
126	0x3e199b17	0.15000568
127	0x3d855ffe	0.0651245
128	0xbd36476b	-0.044501703
129	0xbd62d82d	-0.055381943
130	0xbde0575e	-0.10954164
131	0x3d8f3e8f	0.06994354
132	0x3d150c41	0.03638864
133	0x3d2275e1	0.0396632
134	0x3d270d4b	0.04078416
135	0x3cd18541	0.025576236
136	0x3d613272	0.05497975
137	0x3dbbb538	0.09165424
138	0xbe393fbf	-0.18090723
139	0x3d9311d4	0.07181135
140	0xbd689bda	-0.056789257
141	0xbe032a32	-0.12809065
142	0xbd7d7e72	-0.061888166
143	0x3c9d3a3e	0.019192811
144	0xbe401521	-0.1875806
145	0x3e12cf19	0.14336814
146	0xbdfa7c80	-0.12230778
147	0x3d3715a9	0.04469839
148	0xbcdb1577	-0.026743634
149	0xbc847611	-0.01616958
150	0xbd68afea	-0.05680839
151	0xbda2e4a5	-0.07953767
152	0x3dce66a1	0.10078169
153	0xbe2ed90f	-0.17074989
154	0x3d6de863	0.05808295
155	0xbe921ed0	-0.28539133
156	0xbe714d00	-0.2356453
157	0x3e0ae00a	0.13562027
158	0x3e39e087	0.18152057
159	0xbda2be47	-0.07946449
160	0x3d71049a	0.05884228
161	0x3e70560b	0.23470323
162	0x3e6d2ea9	0.2316233
163	0xbd91953a	-0.07108541
164	0xbd8f43ab	-0.069953285
165	0xbdbff826	-0.093735024
166	0x3d3c4ba4	0.045970574
167	0xbe342337	-0.17591558
168	0xbda4ec26	-0.08052854
169	0x3db64d1e	0.08901428
170	0x3e38b805	0.18038948
171	0xbc38bb41	-0.011275114
172	0xbdc8ce42	-0.098049656
173	0xbe31c1e7	-0.17359124
174	0xbc3e62f1	-0.011620269
175	0xba22ba03	-0.00062075275
176	0x3d71dd48	0.05904892
177	0x3e7c1568	0.24617541
178	0x3e14f5d5	0.14546902
179	0xbdf17f3b	-0.117918454
180	0x3e84e6b5	0.25957265
181	0x3e39e85e	0.18155047
182	0xbe376c8a	-0.17912498
183	0xbd969dff	-0.07354354
184	0x3d0ddd61	0.03463495
185	0x3e31d8ec	0.17367905
186	0x3d235da2	0.039884217
187	0x3d1f6f82	0.0389247
188	0xbd80f531	-0.062967665
189	0x3d128bcf	0.035777863
190	0x3eac82d5	0.33693567
191	0xbdabdad4	-0.083913475
192	0xbe748871	-0.23880173
193	0xbce684fb	-0.028139582
194	0xbd2dd73a	-0.042441584
195	0xbcb5d97f	-0.022198437
196	0xbd914dd2	-0.07094921
197	0xbb57e0fb	-0.0032940495
198	0xbc8aaf83	-0.016929394
199	0xbd05166e	-0.032492094
200	0xbd908b01	-0.07057763
201	0xbd9fc67e	-0.07801531
202	0xbdcca736	-0.099928305
203	0x3d31e570	0.0434317
204	0x3d92a9ad	0.07161269
205	0xbe781b04	-0.24229056
206	0xbd8acc35	-0.06777231
207	0x3e5b95a9	0.2144381
208	0xbe565384	-0.20930296
209	0x3d0ef99d	0.03490602
210	0x3d46e748	0.04856041
211	0xbd2a7c9a	-0.041622736
212	0x3e6fa4ac	0.23402661
213	0xbe385e2a	-0.1800467
214	0xbd9f0fd4	-0.07766691
215	0x3d581bf7	0.052761044
216	0x3d87939a	0.0661995
217	0x3e3e4d55	0.18584187
218	0xbd32112a	-0.0434734
219	0x3ddfa780	0.1092062
220	0x3b35986e	0.0027709263
221	0x3d904e69	0.070462056
222	0x3c77ea14	0.015131492
223	0xbda65737	-0.08122104
224	0x3cc60c0b	0.024175664
225	0x3d498407	0.049198177
226	0x3dc44ba1	0.095847376
227	0xbd9ad046	-0.07559256
228	0x3c8827d2	0.01662055
229	0x3e4caec5	0.19988544
230	0x3e237ad1	0.1596482
231	0xbdb93f50	-0.09045279
232	0xbe3787b5	-0.17922862
233	0x3d668baf	0.056285556
234	0x3ba4bc35	0.005027319
235	0xbbcf703e	-0.006330519
236	0x3dc35661	0.0953796
237	0xbdde21db	-0.10846301
238	0xbdb61a07	-0.08891683
239	0xbdce247d	-0.10065553
240	0x3dcc5cae	0.09978615
241	0xba1ceaad	-0.0005985897
242	0x3d620ba3	0.05518688
243	0x3c7f6f46	0.0155904945
244	0xbd67ae7e	-0.056562893
245	0x3bf7f98f	0.0075675915
246	0x3d51665c	0.051123008
247	0x3d4443bf	0.04791617
248	0xbe204616	-0.15651736
249	0xbd7c73bb	-0.061633807
250	0xbdd72aba	-0.10506196
251	0xbe3e4bce	-0.18583605
252	0xbe72489b	-0.2366051
253	0xbc903c1b	-0.017606786
254	0x3decd4ce	0.11564027
255	0xbd242eeb	-0.040083807

action_model._discrete_distribution.branches.0.weight f4 [9, 64]
0	0xbc224061	-0.009903044
1	0xbc03ac07	-0.00803662
2	0xbc2c2d3d	-0.0105088325
3	0xbbb972af	-0.0056594233
4	0x3c80ed6f	0.015738217
5	0x3cd3103a	0.025764573
6	0xba042dbd	-0.0005042216
7	0xbca03ef6	-0.019561272
8	0xbc54546a	-0.012959579
9	0x3b1353a9	0.0022480285
10	0x3c626b80	0.013819575
11	0xba15d173	-0.00057151093
12	0xbb5db33a	-0.0033828751
13	0xbb2c3d15	-0.0026281525
14	0x3babc155	0.005241553
15	0x3b324e06	0.002720715
16	0xbc9440f9	-0.018097388
17	0x3c7b8a5f	0.015352814
18	0x3b336bd2	0.0027377498
19	0xbbaa08bf	-0.005189031
20	0x3b729af7	0.0037018636
21	0x3c0272b6	0.0079619195
22	0xbc6ea987	-0.014566786
23	0xbc30e559	-0.010796868
24	0x3b941c32	0.0045199627
25	0xbc9f8ecd	-0.019477272
26	0x3c824a3d	0.01590454
27	0x3c218e0e	0.009860529
28	0x3c1745b2	0.009232925
29	0x3b481ef3	0.0030536025
30	0x3b33b93e	0.0027423645
31	0x3bf37c55	0.007430593
32	0x3b792375	0.0038015519
33	0x3c689ead	0.0141979875
34	0x3a03ee97	0.0005032806
35	0x3b4ff2b7	0.0031730363
36	0xbc1f94a8	-0.009740032
37	0xbc02887b	-0.00796711
38	0xbc73a8cf	-0.01487179
39	0xbc416067	-0.011802769
40	0xbcaa6116	-0.020798247
41	0xbc9d5e4f	-0.019210009
42	0xbcf41598	-0.029795453
43	0x3ab026c5	0.0013439289
44	0xbb39385f	-0.002826236
45	0x3a957496	0.0011402543
46	0xbc0ae182	-0.008476617
47	0x3c04f30c	0.0081145875
48	0xbb1d5d39	-0.0024011864
49	0x3c21f4af	0.009884997
50	0xbab743f7	-0.0013982047
51	0xbc09543c	-0.008381899
52	0x3bcaf42b	0.006193658
53	0xbcb0dd5b	-0.021589926
54	0xbc84afb5	-0.016197065
55	0xbc99f58d	-0.018793846
56	0x3b5552df	0.0032550616
57	0xbc25e5ec	-0.010125618
58	0x3cc2cbb4	0.023778774
59	0xbbb18d89	-0.0054184836
60	0x3c49197b	0.012274141
61	0x3c197cb8	0.009368114
62	0x3c8f362f	0.017481891
63	0x3c62500f	0.013813033
64	0xbc32ac1d	-0.010905293
65	0x3bf35a4a	0.007426535
66	0x3bd9d1eb	0.0066473386
67	0x3ca3f808	0.020015731
68	0x3a59a4f0	0.00083024707
69	0x3c91e9e0	0.017811716
70	0x3bbb3350	0.005712904
71	0x3c0337bb	0.008008893
72	0xbb93abc3	-0.0045065596
73	0xbc38aacf	-0.011271193
74	0x3add8343	0.0016900081
75	0x3c94cba4	0.01816351
76	0x3a2bbc1a	0.00065511616
77	0x3c2ec304	0.010666613
78	0x3b0334c8	0.0020020474
79	0xbaf2fb8a	-0.0018538099
80	0x3bc548ff	0.0060206647
81	0xbb8c1b9b	-0.0042757518
82	0x3c1b1acb	0.009466837
83	0xbb06f97d	-0.0020595484
84	0xbb13b117	-0.0022535974
85	0xbc800b76	-0.015630465
86	0xbc828a97	-0.015935225
87	0xbc54295d	-0.012949315
88	0xbc0b77a0	-0.008512408
89	0x3c111c2a	0.0088568125
90	0x3cecd36d	0.02890941
91	0x3c976363	0.018480008
92	0xbcd938fd	-0.026516432
93	0xbc5a2bda	-0.013316119
94	0xbcaeeab5	-0.021352151
95	0x3c65af6a	0.014018873
96	0xbbde1daa	-0.0067784386
97	0x3b7dac6b	0.0038707505
98	0x3ac14c33	0.0014747441
99	0x3b859797	0.004076909
100	0xbb401acd	-0.002931285
101	0x3c79b45f	0.015240758
102	0xba1a8823	-0.000589492
103	0x3945dd5b	0.00018869845
104	0xbc15d679	-0.009145373
105	0xbb807624	-0.0039203335
106	0xbca90dee	-0.020636525
107	0xbb5d9f33	-0.0033816814
108	0x3bf7c4b2	0.0075612897
109	0xbb6faea0	-0.003657259
110	0xbc4e5173	-0.012592661
111	0xbbe3955d	-0.0069452957
112	0x3c72185a	0.014776314
113	0xbc03937b	-0.008030768
114	0x3bcd5de0	0.0062672943
115	0x3a1399fa	0.0005630549
116	0x3c44b0a7	0.012005008
117	0xbc313578	-0.010815971
118	0xbc000807	-0.007814414
119	0xbc4fbacf	-0.012678816
120	0x3900abbb	0.00012271006
121	0x3cecf8cb	0.028927227
122	0xbacd631b	-0.0015669795
123	0xbc9f898c	-0.019474767
124	0x3c942573	0.018084263
125	0x3a528cca	0.00080318435
126	0xbc2d2c07	-0.010569579
127	0xbc42d3a4	-0.011891279
128	0x3b6f4c0f	0.003651384
129	0xbc559763	-0.013036582
130	0x3c53d6f7	0.01292967
131	0x3b3f674d	0.002920586
132	0x3b389f17	0.0028170997
133	0x3b24f855	0.0025172431
134	0x3c053c47	0.008132047
135	0xbbabc4fb	-0.0052419878
136	0xbcc33a9f	-0.023831664
137	0xbc806c4b	-0.015676638
138	0x3b6b5152	0.0035906625
139	0xbbbd0ffc	-0.0057697278
140	0x3cb09b43	0.02155841
141	0xbc0acee9	-0.008472183
142	0xbc2189c0	-0.009859502
143	0x3b1e19fd	0.0024124377
144	0xbc86ec3b	-0.016470065
145	0xbc0d760b	-0.008634101
146	0xbb94d129	-0.0045415354
147	0xbb4f8467	-0.0031664611
148	0xbc22e6a8	-0.009942688
149	0x3cabc729	0.02096899
150	0x3b091a0d	0.0020920068
151	0x3bb0f1dd	0.005399926
152	0xbc152998	-0.009104155
153	0x3bd2064d	0.0064094425
154	0x3c23dfa7	0.010002053
155	0xbb5af312	-0.0033409041
156	0x3ba18193	0.0049287765
157	0x3c0be59f	0.008538633
158	0xbc09d89c	-0.00841346
159	0xbc25e9a0	-0.010126501
160	0xbc482f76	-0.012218347
161	0x3ce458c7	0.027874364
162	0xbc15a637	-0.009133867
163	0x38d12b8d	9.9740086e-05
164	0xbce83f5d	-0.028350526
165	0x3c25ab20	0.0101116
166	0xb96d14eb	-0.00022609874
167	0xbc680f1f	-0.014163761
168	0xbcc524db	-0.024065426
169	0x3c57fe03	0.01318312
170	0x3c4dda48	0.012564249
171	0x3beedcca	0.0072895037
172	0xbbb69e6b	-0.005573084
173	0xbcbbd72f	-0.022929756
174	0xba140422	-0.0005646368
175	0xbc98f8ae	-0.018673267
176	0xbae1fcea	-0.0017241512
177	0x3a9631ef	0.0011458973
178	0x3c3be00d	0.011466992
179	0x3c4d0383	0.012513044
180	0x3c845fbf	0.016158937
181	0xba840907	-0.0010073491
182	0xbc12fdbd	-0.008971629
183	0xbc833cb3	-0.016020155
184	0xbc1fd2fb	-0.0097548915
185	0x3c557e9a	0.013030672
186	0xbca94c67	-0.020666314
187	0x3c6f5190	0.014606848
188	0xb9de6058	-0.0004241492
189	0xbb60aa28	-0.0034281109
190	0x3c00f433	0.007870722
191	0xbad1c8fb	-0.0016005331
192	0x39f8f870	0.00047487346
193	0xbc0a5c7f	-0.008444904
194	0x3c5a86cf	0.013337805
195	0xbbc1a69f	-0.0059097554
196	0xbb83648b	-0.0040097884
197	0xbca992f1	-0.02069995
198	0x394f2592	0.00019755054
199	0xbaf60e70	-0.0018772613
200	0xbc7fbdff	-0.015609263
201	0xbc7cf6f8	-0.015439741
202	0xba86a10d	-0.0010271386
203	0x3c1e857f	0.009675383
204	0x3c63af0b	0.013896714
205	0x3c0e120a	0.008671293
206	0xbcaa149a	-0.020761777
207	0xba68137a	-0.0008853
208	0x3c583abd	0.013197598
209	0x3c2d62cb	0.010582636
210	0xbc4c85c7	-0.012483067
211	0x3c967292	0.018365178
212	0xbb3fca25	-0.0029264775
213	0x3c74368f	0.014905586
214	0xbc36ea3f	-0.011164247
215	0x3bd629e2	0.0065357545
216	0xbc76b327	-0.015057362
217	0x3c87860b	0.016543409
218	0x3c906034	0.017623998
219	0x3c70c4a2	0.014695318
220	0xbbbd6fc9	-0.005781148
221	0x3bffe55f	0.0078093256
222	0x3bf7cc0b	0.0075621656
223	0x3bd89a57	0.0066101956
224	0x3a3d7c57	0.0007228306
225	0xbc33c593	-0.010972398
226	0x3c9d286b	0.019184312
227	0xbc7dab4f	-0.015482738
228	0xba706608	-0.0009170477
229	0x3b550405	0.0032503617
230	0x3ca5f6e1	0.020259323
231	0x3c943db3	0.018095827
232	0xbc420eeb	-0.011844377
233	0xbb715cca	-0.0036828988
234	0xbc063557	-0.008191428
235	0xbc2939a1	-0.010328681
236	0x3b89dbd7	0.004207115
237	0x3ab6b4be	0.0013939363
238	0x3b9752c6	0.0046180217
239	0x3c1761e8	0.009239651
240	0xbc171324	-0.009220872
241	0x3c1a2878	0.009409063
242	0xbc01216f	-0.007881506
243	0xbbd1d7b7	-0.006403889
244	0xbb95716c	-0.00456064
245	0x3c83f0ab	0.01610597
246	0x39bf9899	0.00036544053
247	0xbc64f10a	-0.013973484
248	0xbc3ff766	-0.011716699
249	0x3bc222bb	0.0059245504
250	0x3bc6c971	0.006066494
251	0xbcb96111	-0.022629293
252	0x3b0f99d4	0.0021911757
253	0xbbace548	-0.005276356
254	0xbbf53d6a	-0.007484128
255	0x3b6fd2eb	0.0036594223

action_model._discrete_distribution.branches.0.bias f4 [9]
0	0x00000000	0.0
1	0x00000000	0.0
2	0x00000000	0.0
3	0x00000000	0.0
4	0x00000000	0.0
5	0x00000000	0.0
6	0x00000000	0.0
7	0x00000000	0.0
8	0x00000000	0.0

onnx::Div_186 f4 [2]
0	0x3e1e4baf	0.15458558
1	0x3e217c53	0.15770082

onnx::MatMul_189 f4 [129, 128]
0	0xbccfa9ac	-0.02534946
1	0xba2dc314	-0.0006628495
2	0x3d9829d9	0.07429857
3	0x3ca91f7b	0.020644894
4	0x3cdcb0d2	0.026939783
5	0x3c1934c8	0.009350963
6	0x3d64b141	0.055833105
7	0xbcf762cb	-0.030198475
8	0x3b38316a	0.0028105625
9	0xbd0e80ae	-0.034790687
10	0xbc9b00d3	-0.018921291
11	0xbca68d18	-0.02033095
12	0x3d16f7cd	0.036857415
13	0x3cafc40c	0.021455787
14	0x3ccb916a	0.024849612
15	0x3c2b4d28	0.010455407
16	0x3c326557	0.010888419
17	0xbb98a6c1	-0.0046585505
18	0xbd22823b	-0.03967498
19	0x3bfc4ba3	0.0076994463
20	0x3d6a4615	0.05719574
21	0x3cd8c07a	0.026458967
22	0x3b5e5c4a	0.003392952
23	0x3cddd237	0.027077777
24	0x3d81c49f	0.063363306
25	0xbd0868e1	-0.033303145
26	0xbc8fdedf	-0.017562328
27	0x3b596a8f	0.0033175086
28	0xbc68e151	-0.014213876
29	0x3c42720b	0.01186801
30	0x3a48d25a	0.00076607394
31	0x3b6754ff	0.0035298464
32	0x3d8d6828	0.06904632
33	0x3d178292	0.036989756
34	0x3d421aa1	0.047388677
35	0xbab5e104	-0.0013876264
36	0x3c723388	0.014782794
37	0x3cc1b958	0.02364795
38	0x3d0a94e8	0.033833414
39	0xbccedae9	-0.025250869
40	0x3c8cd06c	0.017189227
41	0xbc3bf847	-0.011472768
42	0xb6fce493	-7.536795e-06
43	0x3d39f4c2	0.045399435
44	0xbd5c0ccd	-0.053723145
45	0x3cf9d765	0.030498216
46	0xbd93f659	-0.072247215
47	0x3ccdd1ec	0.025124513
48	0x3b376f68	0.0027989987
49	0x3d24ec71	0.04026455
50	0x3c8db276	0.01729701
51	0xbd26510d	-0.04060464
52	0xbca8232b	-0.020524582
53	0x3c76256a	0.015023569
54	0x3c0555ea	0.008138159
55	0xbcdd4058	-0.02700822
56	0x3c524966	0.012834882
57	0xbb93f430	-0.0045151934
58	0xbc0f23f7	-0.008736602
59	0xbc7d530e	-0.015461696
60	0x3c648847	0.013948507
61	0x3d3e500d	0.04646306
62	0x3c046395	0.008080383
63	0x3d208fe5	0.03919973
64	0x3d736bc4	0.059428945
65	0xbced222f	-0.028946964
66	0xbd1ca2a2	-0.038241036
67	0x3d852f18	0.06503123
68	0xbc1abaae	-0.009443922
69	0xba22d00e	-0.0006210812
70	0xbd438333	-0.047732543
71	0xbcf40b91	-0.029790672
72	0x3c122451	0.008919791
73	0x3d02876e	0.031867437
74	0xbd58b60a	-0.05290798
75	0xbcabb10c	-0.020958446
76	0x3bb3559c	0.005472852
77	0xbd60801a	-0.054809667
78	0x3d53aa03	0.051675808
79	0x3d54283b	0.05179618
80	0x3cb8e799	0.022571372
81	0x3c3c1c68	0.011481382
82	0x3c85911c	0.016304545
83	0xbcc2fcfa	-0.02380227
84	0xbc23e2bc	-0.010002788
85	0xbcc679e1	-0.024228038
86	0x3bfda3ed	0.0077404887
87	0xb9795ca9	-0.00023781009
88	0x3c4e68c4	0.01259822
89	0x3d497354	0.04918225
90	0xbc6af4fb	-0.014340634
91	0x3cf17b74	0.029477812
92	0x3d79e39e	0.06100809
93	0x3d0e139b	0.034686666
94	0x3ccf63c2	0.025316123
95	0xbbe82b72	-0.007085257
96	0xbc84babb	-0.016202321
97	0x3b1db144	0.0024061957
98	0xbd0c29c3	-0.034219515
99	0x3c910441	0.017702224
100	0x3b93c24a	0.004509245
101	0x3d04c0a5	0.032410283
102	0xbd0cb3fc	-0.034351334
103	0x3cc46c85	0.023977527
104	0xbd4d4235	-0.050111968
105	0x3cad5942	0.021160726
106	0x3c8ea9e2	0.01741499
107	0xbd350245	-0.044191618
108	0x3d317eb0	0.04333371
109	0xbd218603	-0.039434444
110	0x3c8d8efb	0.017280092
111	0xbc00f693	-0.007871288
112	0xbc5757cd	-0.013143492
113	0x3be635cf	0.0070254575
114	0x3c32c635	0.010911514
115	0xbcf2242c	-0.029558264
116	0xbd4bd306	-0.049761795
117	0xbd40f1b9	-0.047105525
118	0xbc628650	-0.013825968
119	0x3bb915d1	0.0056483527
120	0x3b2d3f58	0.002643546
121	0x3d5d125d	0.05397259
122	0x38cd3f75	9.7869815e-05
123	0xbcab2ff4	-0.02089689
124	0xbd47c732	-0.04877395
125	0xbd22d659	-0.0397552
126	0xbac6775e	-0.0015141775
127	0x3b8a8b62	0.0042280415
128	0x3acfa419	0.0015841752
129	0x3c82abbf	0.015951036
130	0x3c9f8944	0.019474633
131	0xbce999c7	-0.02851571
132	0x3c014402	0.0078897495
133	0x3c81f0b9	0.015861856
134	0x3c8e4108	0.017364994
135	0xbd6c0af2	-0.057627626
136	0xbb9ead08	-0.0048424043
137	0xbd3dcca7	-0.04633775
138	0xbcb94bb8	-0.022619113
139	0x3d314503	0.043278705
140	0x3ca8833b	0.020570388
141	0xbc84b0c6	-0.016197573
142	0xbba45667	-0.005015183
143	0x3d0fbd22	0.03509248
144	0xbc0a6bf0	-0.008448586
145	0xbc288be4	-0.010287259
146	0xbcaaaf03	-0.020835405
147	0x3c1e5fc6	0.009666389
148	0x3c55f347	0.01305849
149	0x3d021ece	0.03176766
150	0x3be11bdf	0.0068697776
151	0x3d6e5d30	0.05819434
152	0xbd5f2e23	-0.05448736
153	0x3cf29609	0.029612558
154	0xbd52ce43	-0.051466238
155	0xbd4985a8	-0.04919973
156	0x3d0d1962	0.034448035
157	0xbd2589a7	-0.04041448
158	0x3cc04809	0.023471849
159	0x3b9c14a2	0.004763202
160	0xbd056a4c	-0.032572076
161	0xbca4b300	-0.020104885
162	0x3d1a9914	0.037743643
163	0x3be0b567	0.0068575623
164	0x3b82f7d4	0.0039968286
165	0xbd0ec2ee	-0.03485387
166	0xbca30f6d	-0.019904817
167	0xbd6078ca	-0.054802693
168	0xbcd28e5c	-0.025702648
169	0xbba5ab26	-0.005055803
170	0x3d2e93e8	0.042621523
171	0x3c8592e5	0.016305396
172	0x3c1d4298	0.009598397
173	0xbd89161a	-0.06693669
174	0xbc145f6e	-0.009055955
175	0x3c2bc20b	0.010483275
176	0xbabc7d51	-0.0014380609
177	0x3ca625a9	0.02028163
178	0x3dae4142	0.08508541
179	0xbc947dc7	-0.018126382
180	0xba48534f	-0.00076418085
181	0xbbce8ddd	-0.0063035325
182	0xbcc127e5	-0.023578594
183	0x392ff3ee	0.00016780171
184	0x3c88e5cb	0.016711136
185	0x3b3d6b44	0.0028903047
186	0x3d213519	0.03935728
187	0xbd18ce81	-0.037306312
188	0xbd18968b	-0.037252944
189	0x3a60bfd3	0.0008573506
190	0x3d45db6d	0.048304964
191	0x3d69ec3e	0.057110064
192	0xbb163cff	-0.002292454
193	0x3d02150b	0.03175835
194	0xbcc86f75	-0.02446721
195	0xbc5807c3	-0.013185444
196	0xbb341d78	-0.0027483385
197	0x3b9e97fa	0.0048398944
198	0x3ce218e7	0.027599765
199	0x3aa922ca	0.0012904045
200	0xbd6894c7	-0.05678251
201	0xbcb48368	-0.022035316
202	0xba560a50	-0.0008164989
203	0x3c936245	0.017991195
204	0x3b5a56e1	0.0033315944
205	0xbbbb93f4	-0.0057244245
206	0x3cb86344	0.022508271
207	0xbd5c7c2a	-0.05382935
208	0xbd06681d	-0.032814134
209	0x3cfb402b	0.030670246
210	0xbc7a135b	-0.015263404
211	0x3d3b3b2c	0.045710728
212	0x3c624317	0.013809941
213	0x3c977846	0.018489968
214	0xbd03aeaf	-0.032149013
215	0xbc45e7fa	-0.012079233
216	0xbcb90b88	-0.022588506
217	0xbc86b71c	-0.016444735
218	0xbc6080d8	-0.013702594
219	0x3d273a9f	0.04082739
220	0xbc3c6d27	-0.011500633
221	0xbc3a169d	-0.0113579305
222	0x3c9302e9	0.017945724
223	0xbd74a5c3	-0.059728395
224	0xbcab24bc	-0.02089154
225	0x3c38d11b	0.011280323
226	0xbcf0297c	-0.029316656
227	0x3cc90e60	0.024542987
228	0x3c293e18	0.010329746
229	0xbb864cc3	-0.004098506
230	0xbc708697	-0.014680526
231	0xbd8f2955	-0.06990305
232	0x3c1520db	0.009102072
233	0xbd51688e	-0.0511251
234	0x3d8bc148	0.06823975
235	0x3c9a2396	0.018815797
236	0xbd56e7ae	-0.05246704
237	0xbc87b9b6	-0.016568046
238	0xbd38e740	-0.045142412
239	0xbd1f460a	-0.038885154
240	0x39f17107	0.00046051314
241	0x3c101db6	0.008796146
242	0xb96977b3	-0.00022265203
243	0x3d26f6f5	0.04076286
244	0xbc95ce90	-0.018286973
245	0xbc7979b9	-0.015226775
246	0x3c572728	0.013131894
247	0xbc8995f5	-0.016795138
248	0xbc849010	-0.016181976
249	0xbb9552ed	-0.0045570047
250	0x3ca61a95	0.020276347
251	0x3d1925b8	0.037389487
252	0x3d0dfc96	0.034664713
253	0x3c9d7569	0.019221025
254	0x3cc347d1	0.023837956
255	0xbc930ded	-0.017950976

onnx::MatMul_190 f4 [129, 128]
0	0xb9c0fd06	-0.0003680961
1	0xbbb04a26	-0.005379933
2	0x3d2bf7b7	0.041984286
3	0x3ceedd22	0.029158179
4	0x3ba69e1b	0.0050847656
5	0xbd068fbe	-0.032851927
6	0x3d40ae72	0.047041364
7	0xbbc7fb58	-0.0061029606
8	0x3d5e1963	0.05422343
9	0xb96677d6	-0.00021979152
10	0x3cd72acc	0.026265524
11	0x3bcaeacb	0.0061925403
12	0xbd72c018	-0.059265226
13	0xbc178e59	-0.009250247
14	0xbca01293	-0.019540107
15	0xbd1bb44e	-0.03801375
16	0x3d419cc4	0.047268644
17	0x3c9b635c	0.018968277
18	0x3c4c273f	0.012460529
19	0x3c0b2930	0.008493707
20	0xbd46cabe	-0.048533194
21	0xbafed065	-0.0019440769
22	0x3cb6aa37	0.022297962
23	0xbcd5a330	-0.02607879
24	0xbd2316f7	-0.039816823
25	0xbce1df04	-0.027572162
26	0xb9d606d0	-0.00040822336
27	0x3bcf5914	0.0063277576
28	0xbd0ee8af	-0.034889873
29	0xbd02301a	-0.031784154
30	0xbd03f171	-0.03221268
31	0x3b807bcb	0.0039210073
32	0x3a577be5	0.0008220061
33	0x3c2f76a8	0.010709442
34	0xbc6cd261	-0.014454455
35	0xbb691f15	-0.0035571505
36	0xbb22892d	-0.0024801001
37	0xbc4473f2	-0.011990534
38	0xbd1b4fcf	-0.03791791
39	0xbd2b25c4	-0.041784063
40	0xbaf08bf1	-0.0018352253
41	0x3d547a6c	0.051874563
42	0x3cd9c3bd	0.026582593
43	0xbb39763e	-0.0028299238
44	0x3b7ba2a3	0.00383965
45	0x3d3d0614	0.046148375
46	0x3cbd5ecc	0.023116492
47	0xbbe01d13	-0.0068394034
48	0xbc2ed52a	-0.010670939
49	0x3cd81dec	0.026381455
50	0xbc667ec6	-0.014068311
51	0x3c2443ba	0.010025913
52	0x3c25947b	0.010106201
53	0x3d308189	0.043092284
54	0xbcf07272	-0.029351447
55	0x3bf2f8fc	0.007414935
56	0xbd212367	-0.039340403
57	0x3cae37e1	0.02126688
58	0x3c65ee2f	0.014033838
59	0xbcda6297	-0.02665834
60	0xbcbcccb0	-0.023046821
61	0x3cd7994b	0.026318213
62	0x3cef595e	0.029217418
63	0x3c813cf7	0.01577614
64	0x3d67c6b8	0.056585997
65	0x3d3aaabe	0.04557299
66	0xbdbf0b13	-0.09328284
67	0xbbe384e7	-0.0069433334
68	0x3d1360bc	0.035980925
69	0x3d3c4d21	0.045971993
70	0x3ca10175	0.019654015
71	0x3ce1a0b6	0.027542453
72	0xbd1e605c	-0.038666114
73	0x3d0f6b4d	0.03501444
74	0x3d0c4139	0.03424189
75	0xbb9391dd	-0.0045034722
76	0x3d36190a	0.044457473
77	0xbcda653b	-0.026659599
78	0x3cdbbe7f	0.026824234
79	0x3cdf0887	0.027225746
80	0x3d3cc409	0.04608539
81	0x3d8cba92	0.06871523
82	0xbc050ba3	-0.00812045
83	0x3a8e8940	0.0010874644
84	0x3ceda8e4	0.029011197
85	0x3c809aee	0.015698876
86	0x3d969156	0.073519394
87	0x3caf4b3f	0.021398185
88	0x3c62b3e9	0.013836839
89	0x3d1bf5a9	0.038076077
90	0xbc845f05	-0.01615859
91	0x3bfa9490	0.0076471046
92	0xbbf3f93f	-0.007445484
93	0x3d411c49	0.047146115
94	0xbd959ccf	-0.073052995
95	0xbc95cd9b	-0.018286517
96	0x3cddc859	0.027073072
97	0x391e1eb8	0.00015079498
98	0xbd021674	-0.031759694
99	0xbd4da8b5	-0.05020972
100	0x3957ff49	0.00020599099
101	0x3cde520c	0.027138732
102	0xbc366a34	-0.011133719
103	0x3c1d580e	0.009603513
104	0xbd96df92	-0.073668614
105	0x3cfbb8c9	0.03072776
106	0xbbd2134f	-0.006410993
107	0x3ceab835	0.02865229
108	0xbc16324f	-0.009167268
109	0x3cba0fd1	0.02271262
110	0xbb3ad71f	-0.002850957
111	0x3d14e7e9	0.03635398
112	0xbc1e6715	-0.009668131
113	0xba940bac	-0.0011294982
114	0xbb64013c	-0.0034790775
115	0xbc54068a	-0.012941012
116	0xbccf52cc	-0.025308035
117	0xbce6a165	-0.02815313
118	0xbcf0d606	-0.02939893
119	0xbd65074b	-0.05591516
120	0x3d3c471b	0.04596625
121	0xbd293c35	-0.041317184
122	0x3d1bc1d9	0.038026664
123	0x3cbe8260	0.023255527
124	0x3d13fc97	0.03612956
125	0x3ca3dd60	0.02000302
126	0x3d95fad4	0.07323232
127	0x3b81c2ae	0.003959975
128	0x3d475f5f	0.048674937
129	0x3c5ccf33	0.0134771345
130	0xbb985309	-0.0046485704
131	0xbd042dd8	-0.032270283
132	0x3cb7f3cf	0.022455124
133	0x3d0b0618	0.03394136
134	0x3cd41dc7	0.025893105
135	0xbcf0a748	-0.02937664
136	0x3c57b257	0.013165078
137	0xbc344517	-0.0110028
138	0xbc5be31a	-0.013420844
139	0xbc0c9597	-0.008580587
140	0xbd5c06d9	-0.053717468
141	0x3d0f1e53	0.03494103
142	0xbd043b96	-0.032283388
143	0x3cec12f6	0.028817635
144	0x3cfe92b9	0.031075822
145	0x3d08c4ed	0.033390928
146	0x3ceb149c	0.02869635
147	0x3d9785af	0.07398545
148	0x3b752db7	0.0037411281
149	0xbc870182	-0.016480211
150	0xba627e17	-0.00086400047
151	0x3d80c22c	0.06287035
152	0x3bea62e5	0.0071529024
153	0x3ca31bae	0.01991066
154	0xbceac278	-0.028657183
155	0xbce08e28	-0.027411535
156	0x3a920839	0.0011141367
157	0x3d3abb6e	0.045588903
158	0xbca4445e	-0.020052131
159	0xbbbe2394	-0.005802581
160	0x3c50537a	0.012715215
161	0x3d934020	0.07189965
162	0x3c7156f9	0.014730209
163	0xbd80da8c	-0.062916845
164	0xbb2857a6	-0.0025687008
165	0xbd88498f	-0.06654655
166	0x3c03e047	0.008049077
167	0x3cc4f15d	0.024040872
168	0x3d39b947	0.04534271
169	0xbc6dc156	-0.014511427
170	0x3a0ddb59	0.00054114085
171	0xbd9571f1	-0.07297123
172	0xbd1e9a5c	-0.038721427
173	0xb8e7f13e	-0.00011059873
174	0x3d6d22e5	0.057894606
175	0xbcea7ba7	-0.028623415
176	0x3d4ef11b	0.050522905
177	0xb99ece84	-0.00030289975
178	0xbc8f9cc2	-0.017530803
179	0xbcd9f9b8	-0.026608333
180	0x3a1835d1	0.0005806359
181	0x3c1228c1	0.008920849
182	0xbcaa2836	-0.020771127
183	0x3cd51b7d	0.026014084
184	0xb9e47537	-0.0004357488
185	0xbbdb91b1	-0.0067007174
186	0xba81d09d	-0.000990409
187	0x3d16030a	0.036623992
188	0xbcb280ac	-0.021789871
189	0x3d0752a4	0.033037797
190	0xbc4d5b7b	-0.012534018
191	0x3d31a30b	0.04336838
192	0x3cb69110	0.022285968
193	0x3d052391	0.032504622
194	0xbd467283	-0.04844905
195	0xbb96576e	-0.004588059
196	0x3d29c3ca	0.041446485
197	0xbd68a0e5	-0.056794066
198	0x3c62e961	0.013849587
199	0x3d8db5b7	0.06919425
200	0xbc8baa42	-0.017048959
201	0xbd0447d1	-0.032295052
202	0xbd1a736b	-0.037707727
203	0x3c9e253e	0.019304868
204	0xbd9eb90b	-0.07750138
205	0xbd84e864	-0.064896375
206	0x3d5a80db	0.053345542
207	0x3bab3400	0.0052247047
208	0xbc81e8fd	-0.015858168
209	0x3bf7e9f1	0.00756573
210	0x3aa083d7	0.0012246323
211	0xba8b077c	-0.0010607089
212	0xb9ead37b	-0.00044789523
213	0xbcf76cb7	-0.030203206
214	0xbcd8576c	-0.026408873
215	0xbad3d72e	-0.0016162151
216	0x3d13df52	0.036101647
217	0x3d0bb4a2	0.03410781
218	0xbd30b8fd	-0.04314517
219	0x3ac4b5c4	0.0015007784
220	0x3bd5ee8e	0.006528682
221	0x3ca12020	0.019668639
222	0x3a5b1ac9	0.00083581783
223	0xbc9a2344	-0.018815644
224	0x3d16d1c1	0.03682113
225	0x3c79bb1e	0.015242366
226	0xbcf2b5e1	-0.029627742
227	0x3c9694bb	0.018381467
228	0x3cd4a460	0.025957286
229	0x3d0afa39	0.033930037
230	0xbcd1b91a	-0.025600959
231	0xbc7b4cec	-0.015338164
232	0x3c701c6f	0.014655217
233	0xbcfec286	-0.031098615
234	0xbc6e1ed1	-0.014533714
235	0xbcd937c5	-0.02651585
236	0x3caa1bc3	0.020765191
237	0xbcf8a1c1	-0.030350568
238	0xbd80e3a2	-0.062934175
239	0x3c16e7c2	0.009210529
240	0xbd3e183a	-0.046409823
241	0xbba2338b	-0.004949992
242	0x3d14c985	0.036324997
243	0xbc73af6c	-0.014873367
244	0x3ceb5acc	0.028729819
245	0xbd01361d	-0.031545747
246	0xbc8cabc9	-0.017171757
247	0xbab35fae	-0.0013685131
248	0xbcdebed0	-0.027190596
249	0xbd013ea2	-0.031553872
250	0xbbd2a8a6	-0.006428796
251	0x3d35d02a	0.044387974
252	0xbc80e75b	-0.015735319
253	0xbbf9ee99	-0.00762732
254	0xbd1b0097	-0.03784236
255	0xbcbed439	-0.023294555
