results/new_test_run_4/simple_wolf.onnx (onnx, 412160 bytes, 19 tensors)

network_body.observation_encoder.processors.0.self_ent_encoder.seq_layers.0.bias f4 [128]
-0.004711191 -0.04781195 -0.009060466 0.013905255 -0.06445426 -0.016079035 -0.0073676733 0.0594324
0.013001876 0.05215679 0.03522874 0.03297399 -0.032505184 0.03798215 -0.020477757 -0.02908134
0.049948294 -0.01869402 0.028299334 0.05153025 -0.047368646 0.054415572 0.039541725 -0.043624826
-0.038572367 0.00676172 0.05076084 0.05384406 0.014188545 0.036445364 -0.058277417 -0.0011596803
0.020094272 0.0064500296 0.0066815154 0.034855977 0.020241227 -0.008912231 0.02999837 -0.04870258
0.060811184 -0.03805234 -0.012181591 -0.032992676 -0.0003693411 -0.03931691 0.01734952 -0.029764041
0.0015432059 -0.03877674 -0.0028630875 -0.015129365 -0.027792644 0.048177492 -0.022154402 -0.012818196
-0.035258476 0.0339316 0.029059548 -0.011814662 0.003144162 0.039583202 -0.050509784 0.015758304
-0.015524496 -0.04702647 0.058273744 0.06326822 0.013652235 -0.021403877 0.007023387 0.0043922965
-0.047130864 0.033251297 -0.012345854 0.059645053 -0.032221444 0.05170622 -0.017748298 -0.029492222
0.046044666 -0.056909088 -0.044236574 -0.02892929 -0.030341797 -0.026707605 0.067585744 0.063948974
-0.013578193 0.018941473 0.021599539 0.07493532 0.061546303 -0.008993065 0.035760254 0.007280414
0.031719983 -0.0038843234 0.011303176 -0.034369636 0.043790154 -0.051382992 -0.013111359 -0.014041699
-0.04999067 0.03889058 0.032938804 -0.045654066 -0.044706404 -0.005407554 0.03551096 0.0092685195
-0.03819315 0.04757562 -0.020180242 0.04174721 0.0067053107 0.009135003 0.016175149 0.04377163
0.034673985 0.028030206 -0.013201186 0.005577258 0.055020813 0.03981716 0.055335168 0.043640137
00000000: 5660 9abb 77d6 43bd 5972 14bc ded2 633c
00000010: 9800 84bd 2eb8 83bc 866c f1bb 636f 733d
00000020: d205 553c 5ca2 553d 034c 103d bc0f 073d
00000030: 2824 05bd 2c93 1b3d f8c0 a7bc fe3b eebc
00000040: 9596 4c3d 3424 99bc 01d4 e73c 6211 533d
00000050: a005 42bd dde2 5e3d 81f6 213d f2af 32bd
00000060: 0ffe 1dbd 6b91 dd3b 99ea 4f3d 978b 5c3d
00000070: 1277 683c bc47 153d 4db4 6ebd 6a00 98ba
00000080: be9c a43c c55a d33b 9df0 da3b 24c5 0e3d
00000090: eed0 a53c 9b04 12bc 24bf f53c 5b7c 47bd
000000a0: 2615 793d c5dc 1bbd 4c95 47bc 5423 07bd
000000b0: 20a4 c1b9 c50a 21bd 9520 8e3c b8d3 f3bc
000000c0: 6645 ca3a 5cd4 1ebd a3a2 3bbb 28e1 77bc
000000d0: 66ad e3bc c355 453d 267d b5bc 6903 52bc
000000e0: 316b 10bd ddfb 0a3d 4a0e ee3c 4992 41bc
000000f0: 490e 4e3b ff21 223d 59e3 4ebd 8f17 813c
00000100: 755a 7ebc d49e 40bd 73b0 6e3d c592 813d
00000110: a0ad 5f3c 2f57 afbc 7124 e63b 41ed 8f3b
00000120: 4b0c 41bd 8332 083d 4446 4abc 5f4e 743d
00000130: a2fa 03bd e7c9 533d e164 91bc ac99 f1bc
00000140: 5599 3c3d 8119 69bd 6931 35bd 1efd ecbc
00000150: 5c8f f8bc e8c9 dabc 656a 8a3d aef7 823d
00000160: 1277 5ebc 262b 9b3c 84f1 b03c b077 993d
00000170: fa17 7c3d a657 13bc 5879 123d 8a90 ee3b
00000180: d0ec 013d 2290 7ebb f530 393c 2dc7 0cbd
00000190: 4e5d 333d f976 52bd 07d1 56bc 270f 66bc
000001a0: 04c3 4cbd bb4b 1f3d d7ea 063d c2ff 3abd
000001b0: 101e 37bd da31 b1bb f173 113d fdda 173c
000001c0: 6c70 1cbd a7de 423d 0951 a5bc 1fff 2a3d
000001d0: 39b8 db3b fbaa 153c bf81 843c e149 333d
000001e0: 4f06 0e3d 9a9f e53c ca49 58bc 6ec1 b63b
000001f0: 815d 613d 5217 233d 21a7 623d 00c0 323d

network_body.observation_encoder.processors.1.normalizer.running_mean f4 [3]
0.45225173 0.72907615 2.699937
00000000: 8a8d e73e bca4 3a3f c5cb 2c40

network_body.observation_encoder.rsa.fc_q.bias f4 [128]
0.0 0.0 0.0 0.0 0.0 0.0 0.0 0.0
0.0 0.0 0.0 0.0 0.0 0.0 0.0 0.0
0.0 0.0 0.0 0.0 0.0 0.0 0.0 0.0
0.0 0.0 0.0 0.0 0.0 0.0 0.0 0.0
0.0 0.0 0.0 0.0 0.0 0.0 0.0 0.0
0.0 0.0 0.0 0.0 0.0 0.0 0.0 0.0
0.0 0.0 0.0 0.0 0.0 0.0 0.0 0.0
0.0 0.0 0.0 0.0 0.0 0.0 0.0 0.0
0.0 0.0 0.0 0.0 0.0 0.0 0.0 0.0
0.0 0.0 0.0 0.0 0.0 0.0 0.0 0.0
0.0 0.0 0.0 0.0 0.0 0.0 0.0 0.0
0.0 0.0 0.0 0.0 0.0 0.0 0.0 0.0
0.0 0.0 0.0 0.0 0.0 0.0 0.0 0.0
0.0 0.0 0.0 0.0 0.0 0.0 0.0 0.0
0.0 0.0 0.0 0.0 0.0 0.0 0.0 0.0
0.0 0.0 0.0 0.0 0.0 0.0 0.0 0.0
00000000: 0000 0000 0000 0000 0000 0000 0000 0000
00000010: 0000 0000 0000 0000 0000 0000 0000 0000
00000020: 0000 0000 0000 0000 0000 0000 0000 0000
00000030: 0000 0000 0000 0000 0000 0000 0000 0000
00000040: 0000 0000 0000 0000 0000 0000 0000 0000
00000050: 0000 0000 0000 0000 0000 0000 0000 0000
00000060: 0000 0000 0000 0000 0000 0000 0000 0000
00000070: 0000 0000 0000 0000 0000 0000 0000 0000
00000080: 0000 0000 0000 0000 0000 0000 0000 0000
00000090: 0000 0000 0000 0000 0000 0000 0000 0000
000000a0: 0000 0000 0000 0000 0000 0000 0000 0000
000000b0: 0000 0000 0000 0000 0000 0000 0000 0000
000000c0: 0000 0000 0000 0000 0000 0000 0000 0000
000000d0: 0000 0000 0000 0000 0000 0000 0000 0000
000000e0: 0000 0000 0000 0000 0000 0000 0000 0000
000000f0: 0000 0000 0000 0000 0000 0000 0000 0000
00000100: 0000 0000 0000 0000 0000 0000 0000 0000
00000110: 0000 0000 0000 0000 0000 0000 0000 0000
00000120: 0000 0000 0000 0000 0000 0000 0000 0000
00000130: 0000 0000 0000 0000 0000 0000 0000 0000
00000140: 0000 0000 0000 0000 0000 0000 0000 0000
00000150: 0000 0000 0000 0000 0000 0000 0000 0000
00000160: 0000 0000 0000 0000 0000 0000 0000 0000
00000170: 0000 0000 0000 0000 0000 0000 0000 0000
00000180: 0000 0000 0000 0000 0000 0000 0000 0000
00000190: 0000 0000 0000 0000 0000 0000 0000 0000
000001a0: 0000 0000 0000 0000 0000 0000 0000 0000
000001b0: 0000 0000 0000 0000 0000 0000 0000 0000
000001c0: 0000 0000 0000 0000 0000 0000 0000 0000
000001d0: 0000 0000 0000 0000 0000 0000 0000 0000
000001e0: 0000 0000 0000 0000 0000 0000 0000 0000
000001f0: 0000 0000 0000 0000 0000 0000 0000 0000

network_body.observation_encoder.rsa.fc_v.bias f4 [128]
-0.0036164185 0.0076589473 0.007843291 -0.0053194645 -0.008150385 -0.008496463 0.0020208203 0.007884958
0.0005116185 -0.0010775449 -0.013158855 0.005719453 -0.00065628445 -0.0054185903 -0.0093638385 -0.0037283667
-0.0052787866 0.001691622 0.0006207021 0.0139043825 -0.0025549342 0.008302465 -0.0004104283 -0.00096228905
-0.008674318 -0.0001529835 -0.002748138 0.00840095 -0.008619221 -0.01908301 0.0016863155 0.0035833702
0.0055440133 -0.006354481 0.0102923475 0.003309357 -0.0040661353 0.010921031 -0.007470047 0.00860624
0.001023229 0.00064050336 -0.004588819 0.0061275307 -0.0009006352 -0.007744351 -0.0013689891 -0.0047475025
-0.001040569 0.0028629596 -0.0016464287 0.000381106 0.014601087 0.013405298 -0.003358269 0.004457339
0.0010175665 -0.0030522458 0.0073228213 -0.008522414 -0.0029107917 0.009422633 -0.011065039 -0.0030535844
-0.0071574594 0.006735782 -0.0059993053 0.0031137797 -0.0010893286 0.0056964587 0.007584172 0.007071944
-0.009084015 -0.005289109 -0.0036575443 -0.012331883 -0.0051486725 -0.0079697715 -0.0039133956 1.5214326e-05
-0.0025758927 -0.002317876 0.006684527 0.0014244766 -0.0061893766 -0.0049138097 0.010496538 -0.0030977014
0.008659133 0.006064598 -0.0034881867 -0.008633602 0.00055358035 -0.0053214203 0.0008650473 0.0029211948
-0.010112083 -0.00404101 -0.015336272 0.0066011334 0.00044755125 0.0094804615 0.008593399 0.000383084
-0.0053059617 -0.005879163 0.004209816 -0.0020894161 -0.0029958887 -0.004592129 0.0048746928 0.0009071983
0.006973574 0.010703345 0.009804411 -0.0013919197 -0.006379835 0.0016853105 0.0040523936 -0.012867061
-0.0027213707 -0.009567667 -0.012183812 -0.0020874355 -0.014551009 -0.008388893 0.0037328468 -0.0014372829
00000000: 6f01 6dbb e8f7 fa3b 2681 003c e74e aebb
00000010: 3189 05bc c034 0bbc bd6f 043b e92f 013c
00000020: 231e 063a 683c 8dba 3d98 57bc 406a bb3b
00000030: 810a 2cba 6e8e b1bb c96a 19bc 9d57 74bb
00000040: acf9 acbb 6ab9 dd3a 9db6 223a 35cf 633c
00000050: af70 27bb 1007 083c c12e d7b9 2042 7cba
00000060: ba1e 0ebc 326a 20b9 1b1a 34bb 23a4 093c
00000070: a237 0dbc f953 9cbc 5c07 dd3a fad6 6a3b
00000080: 8eaa b53b 4039 d0bb 3ca1 283c cce1 583b
00000090: 373d 85bb 20ee 323c 4cc7 f4bb 3001 0d3c
000000a0: de1d 863a 74e7 273a ce5d 96bb 74c9 c83b
000000b0: 9b18 6cba 53c4 fdbb a76f b3ba f090 9bbb
000000c0: b463 88ba 7ea0 3b3b fbcc d7ba 2ecf c739
000000d0: 6639 6f3c e5a1 5b3c 6816 5cbb df0e 923b
000000e0: de5f 853a 3008 48bb 47f4 ef3b 98a1 0bbc
000000f0: fbc2 3ebb 6361 1a3c 234a 35bc a51e 48bb
00000100: 1f89 eabb d6b7 dc3b d295 c4bb 8e10 4c3b
00000110: cdc7 8eba 5ca9 ba3b a584 f83b c4bb e73b
00000120: 1fd5 14bc 4350 adbb 69b3 6fbb ab0b 4abc
00000130: 32b6 a8bb a593 02bc f13b 80bb 0841 7f37
00000140: 4fd0 28bb 82e7 17bb e009 db3b 81b5 ba3a
00000150: 41d0 cabb 0604 a1bb acf9 2b3c ce02 4bbb
00000160: 09df 0d3c 89b9 c63b 109a 64bb f473 0dbc
00000170: 261e 113a 4f5f aebb 57c4 623a 8471 3f3b
00000180: 26ad 25bc 736a 84bb fd44 7bbc 524e d83b
00000190: 50a5 ea39 f053 1b3c 54cb 0c3c aad8 c839
000001a0: a2dd adbb fea5 c0bb 7ff2 893b 96ee 08bb
000001b0: ac56 44bb 9279 96bb e3bb 9f3b 0cd1 6d3a
000001c0: 9482 e43b 155d 2f3c aea2 203c 1371 b6ba
000001d0: ef0d d1bb a3e5 dc3a f1c9 843b 5ed0 52bc
000001e0: 0659 32bb b4c1 1cbc 9d9e 47bc 5bcd 08bb
000001f0: 5b67 6ebc 9171 09bc c7a2 743b 3663 bcba

network_body.observation_encoder.rsa.fc_out.bias f4 [128]
-0.0033049865 -0.020774044 0.0005454698 -0.0019367867 -0.023756953 0.0068972176 0.026200714 -0.016894326
0.030852776 -0.009591059 0.014794169 0.0011778692 0.015995247 -0.014821757 0.0063779037 -0.015116989
0.03436119 0.0009998935 -0.010159283 0.019216001 -0.017155636 -0.01796343 -0.008184224 0.0005414968
-0.008355398 0.0034181187 -0.0019739948 0.0057995794 -0.0019304273 0.011564264 -0.018628951 -0.011799425
0.020626573 -9.871206e-05 0.014776692 0.0058926404 0.0032499176 0.019126318 -0.017137274 -0.022718538
-0.0011964851 0.020023927 0.00013282412 -0.0132192625 0.0077642133 0.0107187675 0.0118044745 0.027476871
0.008554399 -0.0055152904 0.009168919 0.0010827724 0.013004959 -0.013446612 -0.0085915085 0.028733902
0.015143432 0.0013589002 0.037144743 -0.007760256 0.008068669 0.010491844 -0.024549399 0.03479361
-0.0014464016 -0.0038901875 -0.014694013 -0.006335724 0.027244216 0.0021769882 -0.014883419 -0.010919023
-0.009192094 -0.030390775 0.006168562 0.0051847766 0.015598645 -0.0075949077 -0.012177749 -0.012415458
0.018789198 -0.029723074 -0.005617566 -0.01691815 -0.008506826 0.025362857 -0.008390682 0.004446452
-0.010487597 0.016445927 0.007640259 0.024808802 0.019597627 0.018967636 -0.004457359 -0.0017923841
-0.010014505 0.0076302756 0.005154994 0.010571471 0.013103762 -0.019616535 0.023780942 0.016880166
-0.016867355 -0.020468518 0.01823186 -0.02189226 0.0033116662 -0.014169775 0.0028559614 0.0037367323
-0.026390523 -0.010046959 -0.010617443 0.022295369 -0.016842742 -0.00570709 -0.0065413075 0.00501234
-0.0023576927 -0.025399584 -0.007407571 -0.01822115 -0.008234014 0.020590872 -0.009804337 -0.011843839
00000000: 7998 58bb 542e aabc dcfd 0e3a c7db fdba
00000010: f19d c2bc 0e02 e23b e1a2 d63c f865 8abc
00000020: f6be fc3c d123 1dbc 3e63 723c bb62 9a3a
00000030: 7708 833c f4d6 72bc bcfd d03b 3fad 77bc
00000040: 52be 0c3d dc0e 833a 1f73 26bc e06a 9d3c
00000050: fa89 8cbc 0b28 93bc 2017 06bc 3cf3 0d3a
00000060: 14e5 08bc 8402 603b 235e 01bb 660a be3b
00000070: 6406 fdba 0a78 3d3c be9b 98bc 6052 41bc
00000080: 0ff9 a83c a203 cfb8 f019 723c 0d17 c13b
00000090: 92fc 543b ccae 9c3c 7863 8cbc 3a1c babc
000000a0: 61d3 9cba 3809 a43c b446 0b39 9b95 58bc
000000b0: f16a fe3b c59d 2f3c 8e67 413c 2d17 e13c
000000c0: c027 0c3c 9cb9 b4bb 3c39 163c d0eb 8d3a
000000d0: c012 553c 2e4f 5cbc 66c3 0cbc 5c63 eb3c
000000e0: 281c 783c 201d b23a 1625 183d bf49 febb
000000f0: 7332 043c fce5 2b3c d21b c9bc bf83 0e3d
00000100: 2f95 bdba 84f2 7ebb 28bf 70bc e89b cfbb
00000110: 432f df3c cdab 0e3b 95d9 73bc b4e5 32bc
00000120: 709a 16bc 13f6 f8bc a621 ca3b 0fe5 a93b
00000130: 7691 7f3c b4de f8bb 2e85 47bc 356a 4bbc
00000140: ceeb 993c ce7d f3bc 8f13 b8bb ef97 8abc
00000150: 3760 0bbc c4c5 cf3c 1279 09bc 8bb3 913b
00000160: 2cd4 2bbc 9cb9 863c 235b fa3b d43b cb3c
00000170: 348b a03c 0462 9b3c 0a0f 92bb 6eee eaba
00000180: e113 24bc 6407 fa3b 39eb a83b f733 2d3c
00000190: 29b1 563c dbb2 a0bc 40d0 c23c 4648 8a3c
000001a0: 682d 8abc 98ad a7bc fb5a 953c 6657 b3bc
000001b0: 8a08 593b 5828 68bc 152b 3b3b f7e3 743b
000001c0: f030 d8bc 009c 24bc c9f4 2dbc c7a4 b63c
000001d0: caf9 89bc 8a02 bbbb 7758 d6bb 8e3e a43b
000001e0: 8583 1abb ca12 d0bc 36bb f2bb 8544 95bc
000001f0: f5e7 06bc 30ae a83c 5fa2 20bc a90c 42bc

network_body.observation_encoder.x_self_encoder.seq_layers.0.weight f4 [128, 3]
-0.14067866 0.08195308 -0.016041767 0.13292482 -0.0723965 -0.019422032 0.14742932 -0.05121938
0.033498242 -0.13471997 -0.0028722275 -0.076471366 -0.09266704 -0.04521951 0.15933031 -0.15340728
-0.014514253 0.09554232 -0.10318788 0.013843454 0.05178836 -0.11733795 0.037909184 0.0025931706
0.13587394 -0.061588522 0.040949628 -0.101520814 0.031752884 -0.010331179 -0.17885682 -0.044370484
0.06886037 -0.11871971 -0.020783208 -0.068502136 0.03760044 -0.061069787 -0.11171569 0.1593277
-0.058541197 -0.025592841 0.0669463 -0.08775517 0.068715714 -0.12956646 0.029845487 -0.008209193
0.1368004 0.011108755 -0.0773822 -0.1584449 0.0058069867 0.007285476 -0.023100665 -0.076526955
0.058633983 -0.038814116 -0.027911773 0.12817508 -0.15005547 0.07694208 -0.050350327 0.16572458
-0.036358446 -0.0025513382 0.13726467 -0.059181575 -0.11200982 0.140315 -0.0332299 0.0217256
-0.11502742 0.037238058 0.06395595 0.15440537 0.015703259 -0.03124556 -0.16347629 -0.023560548
-0.0003939592 0.12491434 -0.007131275 -0.073482916 0.20773542 -0.0029461647 -0.0776615 0.17165087
-0.049333062 -0.044230662 0.109796144 -0.0731493 0.061478492 0.11621871 -0.08432788 -0.000566989
0.15279986 -0.016074134 0.001786555 -0.055718575 -0.002395111 -0.10694108 0.10107202 -0.08445661
0.0023921924 0.12594698 -0.050067183 0.01479498 0.123904854 -0.067372106 0.012021668 -0.13219436
0.014628166 0.092446625 0.16315015 -0.058986936 0.044706877 -0.04497873 0.041281823 -0.11104237
-0.124672845 0.10580668 0.015779452 -0.11434251 0.04434757 -0.051835798 -0.13075733 0.0028363222
-0.047175415 0.06620005 0.013126791 -0.11914792 0.014956218 -0.013887436 -0.085862994 0.12409749
-0.055748675 -0.0484516 0.09712597 -0.031989913 -0.112756856 -0.10689089 -0.02111292 0.11853173
-0.053254392 0.10743287 0.09931623 -0.12139789 0.03416101 -0.010248656 -0.14599282 0.075696036
-0.019310152 0.12533234 -0.034251496 -0.04171052 0.12811548 -0.015751522 0.00020185168 -0.16912618
0.010087604 0.066647924 -0.15091015 0.011240932 0.083247885 -0.16467294 0.012316589 -0.02059585
-0.11055728 0.05825361 -0.07321751 0.11097798 -0.06720696 -0.029887602 0.11710645 -0.047242682
-0.0009740682 -0.13308486 0.036732502 0.02755309 0.1321133 -0.012923574 -0.012088242 -0.17960252
0.050777644 0.055440236 -0.08153688 -0.043338742 0.08730341 0.04668177 -0.00983435 -0.1366909
-0.12039482 0.06094951 0.028741019 -0.10523294 0.08516866 -0.014781245 0.12734276 -0.06823822
0.016240818 0.13833843 -0.002660053 -0.03546675 -0.10214716 0.029131876 0.10402371 0.1467008
-0.02990296 0.017238844 -0.17054719 0.018745646 0.0111222295 0.08351538 -0.04943259 0.08639087
0.14778996 -0.07682417 -0.070476934 0.047008388 -0.07053772 0.12941036 -0.0034952492 -0.041790526
0.17141058 -0.13348119 0.025932988 -0.06869659 0.05444762 -0.100044474 0.036538154 0.14463006
-0.09615733 0.03543986 -0.12883848 0.038572848 -0.020375058 0.16138686 0.0075284415 -0.028571177
-0.11489408 0.05866093 -0.0003104458 0.17221867 -0.040255282 -0.03340227 0.12981884 0.0026389083
-0.023992252 0.009678559 0.053388763 -0.120800264 0.096867226 -0.04504235 -0.029985644 -0.1429003
00000000: 110e 10be 04d7 a73d 066a 83bc 721d 083e
00000010: 9e44 94bd f41a 9fbc b6f7 163e 6acb 51bd
00000020: 7435 093d 08f4 09be fb3b 3cbb 059d 9cbd
00000030: 38c8 bdbd 1838 39bd 7c27 233e cc16 1dbe
00000040: 30cd 6dbc b1ab c33d 2b54 d3bd a8cf 623c
00000050: 0820 543d e14e f0bd a946 1b3d 2ff2 293b
00000060: 8a22 0b3e 3f44 7cbd ccba 273d 25ea cfbd
00000070: 500f 023d 1b44 29bc 3e26 37be d3bd 35bd
00000080: aa06 8d3d 5223 f3bd 8c41 aabc d94a 8cbd
00000090: eb02 1a3d 5024 7abd 32cb e4bd cd26 233e
000000a0: e5c8 6fbd 14a8 d1bc 241b 893d fcb8 b3bd
000000b0: d3ba 8c3d 12ad 04be 867e f43c da7f 06bc
000000c0: 6715 0c3e 7f01 363c 8f7a 9ebd 613f 22be
000000d0: 8948 be3b 01bb ee3b 9b3d bdbc 2aba 9cbd
000000e0: 302a 703d 8dfb 1ebd 3ba7 e4bc 5440 033e
000000f0: 24a8 19be cf93 9d3d 253c 4ebd b4b3 293e
00000100: 98ec 14bd 5a34 27bb 1c8f 0c3e 6168 72bd
00000110: 6865 e5bd bcae 0f3e 131c 08bd e3f9 b13c
00000120: 7f93 ebbd ef86 183d 56fb 823d 711c 1e3e
00000130: 1fa4 803c b0f6 ffbc 5466 27be 0d02 c1bc
00000140: 4f8c ceb9 17d3 ff3d 78ad e9bb 367e 96bd
00000150: 98b8 543e 7114 41bb fe0c 9fbd 3fc5 2f3e
00000160: 7711 4abd 362b 35bd cddc e03d 4dcf 95bd
00000170: dfd0 7b3d 1304 ee3d 18b4 acbd fda1 14ba
00000180: 9177 1c3e e7ad 83bc d72a ea3a 2939 64bd
00000190: 4bf7 1cbb ed03 dbbd d9fe ce3d 96f7 acbd
000001a0: 54c6 1c3b 3ff8 003e 3f13 4dbd a566 723c
000001b0: d4c1 fd3d 63fa 89bd 88f6 443c f55d 07be
000001c0: faaa 6f3c a854 bd3d d510 273e 499c 71bd
000001d0: 8f1e 373d 9e3b 38bd 2117 293d 2f6a e3bd
000001e0: 7a54 ffbd 2cb1 d83d e943 813c 682c eabd
000001f0: cca5 353d c651 54bd 40e5 05be 97e1 393b
00000200: 023b 41bd e493 873d c111 573c d303 f4bd
00000210: ed0a 753c 2188 63bc f0d8 afbd d326 fe3d
00000220: b958 64bd 2f75 46bd fbe9 c63d db07 03bd
00000230: 11ed e6bd 9ce9 dabd 01f5 acbc c3c0 f23d
00000240: 4721 5abd c405 dc3d 4f66 cb3d 759f f8bd
00000250: 6aec 0b3d fbe9 27bc 247f 15be 8606 9b3d
00000260: 5330 9ebc 1f57 003e 4c4b 0cbd a6d8 2abd
00000270: b430 033e 5609 81bc 26a8 5339 6a2f 2dbe
00000280: 7a46 253c b57e 883d 3188 1abe e32b 383c
00000290: de7d aa3d 06a0 28be 85cb 493c a1b8 a8bc
000002a0: db6b e2bd 569b 6e3d 10f3 95bd 6c48 e33d
000002b0: cda3 89bd d8d6 f4bc 82d5 ef3d 8b81 41bd
000002c0: 9c58 7fba 6647 08be d274 163d 05b7 e13c
000002d0: b548 073e 66bd 53bc c30d 46bc b9e9 37be
000002e0: 38fc 4f3d 4d15 633d cffc a6bd f783 31bd
000002f0: 21cc b23d 6235 3f3d 4120 21bc b3f8 0bbe
00000300: 8f91 f6bd 32a6 793d 4972 eb3c 5e84 d7bd
00000310: e86c ae3d 092d 72bc 2466 023e 7bc0 8bbd
00000320: 770b 853c 97a8 0d3e 4954 2ebb 9545 11bd
00000330: 8832 d1bd f9a5 ee3c 620a d53d bc38 163e
00000340: 0df7 f4bc 7a38 8d3c eca3 2ebe 7890 993c
00000350: 033a 363c 1d0a ab3d d479 4abd b2ed b03d
00000360: 4056 173e fe55 9dbd 3656 90bd de8b 403d
00000370: 1576 90bd 2684 043e 8d10 65bb 8b2c 2bbd
00000380: 4186 2f3e 4baf 08be 6b71 d43c ccb0 8cbd
00000390: 7804 5f3d 1ee4 ccbd 08a9 153d e719 143e
000003a0: 22ee c4bd 6329 113d 3cee 03be 90fe 1d3d
000003b0: 98e9 a6bc 9942 253e 25b1 f63b 1a0e eabc
000003c0: 964d ebbd 7146 703d 54c3 a2b9 175a 303e
000003d0: b9e2 24bd d2d0 08bd 3bef 043e 89f1 2c3b
000003e0: 668b c4bc d292 1e3c 2dae 5a3d 2166 f7bd
000003f0: 5362 c63d 547e 38bd 74a4 f5bc 7554 12be

network_body.observation_encoder.x_self_encoder.seq_layers.0.bias f4 [128]
0.05003916 -0.03878982 -0.020015422 0.024275117 0.07060179 0.06849748 0.058175478 0.04695315
-0.007327766 0.02135017 0.054966237 0.0076703066 -0.054705996 -0.019292269 0.006303221 0.030173186
-0.061672904 0.05715673 0.0732966 0.05885176 0.04205066 -0.03223936 -0.046019703 -0.015974002
0.052607764 -0.03405782 0.041476496 -0.052604064 -0.021243704 -0.021054974 -0.007552563 -0.033312097
-0.021343663 -0.022686398 -0.028241118 -0.029643737 -0.024930445 0.047192402 -0.015395486 -0.03369334
0.04905067 0.03093856 0.019957615 -0.052639738 -0.05773115 -0.03044144 -0.05067308 0.057640754
0.046963084 0.03013399 0.04945336 -0.035462286 -0.034085065 0.056327343 0.055278465 0.04431103
0.007703825 -0.02867845 -0.01968173 0.04955509 -0.0500043 0.057073914 0.082576804 -0.044982757
0.04070121 0.030906871 -0.025451263 -0.019819614 0.048638314 -0.018846482 0.05386533 0.025965665
-0.029272696 0.04976576 0.05838507 0.025807803 0.0065265815 -0.021089897 0.02748009 -0.015452537
0.047047652 -0.016274873 -0.021557119 -0.043451887 -0.027587954 0.040950555 -0.04689007 0.048369836
-0.060321786 0.02494133 0.026589904 -0.007579771 0.057267718 0.05858825 -0.04511429 -0.03421301
-0.0054464345 -0.024057012 -0.04551709 -0.022729944 0.04421656 -0.032082975 -0.016835388 -0.030350408
-0.023184076 0.070953205 0.05811583 0.0037663644 0.027422598 -0.029419461 0.03762027 0.046038516
0.044075787 -0.0064450772 -0.033099405 0.047571745 -0.016057909 -0.040266592 -0.023632294 0.043080077
-0.03685253 0.038502567 -0.026985554 0.047804102 0.044309348 -0.032623813 -0.02857533 0.044262204
00000000: ddf5 4c3d 13e2 1ebd 62f7 a3bc 9cdc c63c
00000010: ac97 903d 6848 8c3d 6949 6e3d f251 403d
00000020: c21d f0bb 8de6 ae3c 4724 613d 3257 fb3b
00000030: 6513 60bd d20a 9ebc 408b ce3b c22d f73c
00000040: ba9c 7cbd 2d1d 6a3d 871c 963d 8b0e 713d
00000050: 503d 2c3d 6b0d 04bd 287f 3cbd e9db 82bc
00000060: 3d7b 573d 3680 0bbd 42e3 293d 5c77 57bd
00000070: 4707 aebc 7b7b acbc 7e7b f7bb 4472 08bd
00000080: e8d8 aebc d3d8 b9bc eb59 e7bc 6cd7 f2bc
00000090: ef3a ccbc d24c 413d 593d 7cbc 0702 0abd
000000a0: 5be9 483d dd72 fd3c 277e a33c c49c 57bd
000000b0: 8077 6cbd 5460 f9bc 938e 4fbd b618 6c3d
000000c0: 5d5c 403d 8fdb f63c 9b8f 4a3d e740 11bd
000000d0: c89c 0bbd 80b7 663d ac6b 623d 7c7f 353d
000000e0: 5e70 fc3b 12ef eabc 943b a1bc 47fa 4a3d
000000f0: 4fd1 4cbd 56c6 693d 071e a93d d73f 38bd
00000100: 50b6 263d 6830 fd3c 2b7f d0bc be5c a2bc
00000110: f838 473d f063 9abc e4a1 5c3d f2b5 d43c
00000120: 4bcd efbc 2ed7 4b3d 2f25 6f3d e36a d33c
00000130: efdc d53b b8c4 acbc ed1d e13c a32c 7dbc
00000140: 0ab5 403d e252 85bc 8e98 b0bc 9bfa 31bd
00000150: 2200 e2bc c5bb 273d cd0f 40bd 731f 463d
00000160: fa13 77bd c351 cc3c 12d3 d93c ba5f f8bb
00000170: 8e91 6a3d 3cfa 6f3d c3c9 38bd f122 0cbd
00000180: 0178 b2bb 3613 c5bc 2170 3abd 2634 babc
00000190: 6c1c 353d 7069 03bd 5eea 89bc 6ba1 f8bc
000001a0: 88ec bdbc ea4f 913d dd0a 6e3d 1cd5 763b
000001b0: 5ba5 e03c 1501 f1bc b617 1a3d e292 3c3d
000001c0: d088 343d 3a31 d3bb 3e93 07bd 97da 423d
000001d0: e08b 83bc 95ee 24bd 8398 c1bc bc74 303d
000001e0: aef2 16bd deb4 1d3d cf10 ddbc 3cce 433d
000001f0: b87d 353d 8ca0 05bd cf16 eabc 494c 353d

network_body._body_endoder.seq_layers.0.weight f4 [64, 131]
-0.10521649 0.011639776 -0.061196614 -0.027491745 0.044166576 0.04265162 0.22172634 -0.048852056
0.04293422 -0.03347617 -0.09122099 0.06338516 0.0020773327 0.03681455 -0.12786771 -0.011711712
0.14827065 0.045799084 0.17016363 0.063009456 0.043416817 0.014484249 0.088884994 0.03936295
0.015176091 -0.09015591 0.12562631 0.020819169 -0.09823942 0.06172159 -0.07376814 0.08068461
-0.07603053 0.02916853 0.03791265 -0.025127085 -0.05724239 -0.07281295 -0.16551687 0.11069242
-0.0018206515 0.014277978 0.18475215 0.017409476 -0.0048311525 -0.044890948 -0.1180042 0.013967265
-0.017533755 -0.103768095 -0.07993155 -0.09852192 0.09843679 -0.03805105 -0.004119601 -0.07825695
0.07636266 0.05753425 0.062633656 -0.08738267 0.034831878 0.054424863 -0.19053406 -0.25009143
0.04509694 0.023538755 0.07812925 0.0023016233 -0.16646847 0.052586433 -0.072751455 0.2237598
0.040314388 0.05391659 -0.11802558 0.022027628 -0.07295281 0.1365187 -0.09094027 0.14837399
-0.042525686 0.030329548 -0.102688454 0.11456059 0.045041084 -0.04572641 -0.026801916 -0.016248787
0.009662224 0.03188841 0.14535801 -0.18401057 -0.010950209 0.04029757 -0.21266747 -0.0045115906
-0.014696099 0.038888324 0.12781507 0.06322986 -0.090012036 0.042373676 0.019752517 -0.001186322
-0.08858931 -0.08572122 -0.032029398 -0.08265482 0.057918373 -0.15002754 -0.05159051 -0.06297098
0.009880441 0.06676006 0.0072255176 -0.008254686 0.09283815 -0.07698259 -0.06361751 -0.002465348
-0.00424761 0.04900653 0.06997069 0.089786224 -0.11932123 -0.16367991 0.25324047 0.22564471
-0.04358657 0.043701716 0.13516904 0.27707344 -0.21260989 -0.0115877325 -0.11321698 0.037120055
-0.09432552 0.052528024 -0.0033343919 -0.032473102 -0.058412544 -0.025900872 -0.012638379 0.00284299
-0.13929062 0.05861396 0.15039453 -0.012294953 -0.013588361 0.085369796 0.07023077 0.22032712
0.0041480795 -0.12672058 0.10440814 -0.0832993 0.03504289 0.066137366 0.00040854668 0.03557785
0.0068985247 -0.030386044 -0.028499166 0.07151619 -0.115692765 -0.051159237 -0.002634312 0.14016765
0.0062815286 -0.101255976 -0.02848936 -0.084925346 0.06284351 0.023287477 0.018705219 0.024430659
-0.018389763 0.016469162 0.046123255 0.09207205 -0.013723639 -0.029726736 0.2342737 0.18049446
-0.030194215 0.10876139 0.13173229 -0.1342571 -0.12156412 0.058072217 -0.061841857 -0.10378137
0.10176734 -0.13228974 -0.06367019 -0.073107414 -0.05502921 -0.10323113 -0.006136345 0.08278094
0.05885578 -0.05215788 0.19579896 0.0027402656 -0.1315312 -0.17493132 0.124931455 -0.060032547
0.24907899 0.07029297 -0.07982998 -0.14341335 0.08839279 0.098103546 0.06075602 0.06580216
0.053570554 -0.010001856 0.046520427 0.012384272 0.06627427 0.06229474 -0.037010197 -0.001267515
-0.14694487 -0.031131484 -0.010347087 0.020043176 -0.016168114 -0.13461995 0.020140495 -0.24304676
-0.05035825 -0.050746035 0.07875898 0.07706862 0.19536817 -0.06596423 -0.018187031 -0.2083995
-0.08503894 -0.010580963 -0.0158452 -0.015897159 0.1289609 0.089479245 -0.14637849 -0.013916617
0.113718756 -0.04096435 -0.084118605 -0.04557176 -0.010311871 0.036608085 -0.24444766 -0.03347092
00000000: be7b d7bd c2b4 3e3c 4da9 7abd 5e36 e1bc
00000010: 03e8 343d 77b3 2e3d 3b0c 633e 1819 48bd
00000020: cbdb 2f3d 4f1e 09bd 12d2 babd 14d0 813d
00000030: dc23 083b dbca 163d c1ef 02be 7be2 3fbc
00000040: 43d4 173e d297 3b3d 603f 2e3e 1a0b 813d
00000050: d5d5 313d 584f 6d3c 5609 b63d 0b3b 213d
00000060: 24a5 783c a9a3 b8bd 2fa4 003e f68c aa3c
00000070: c031 c9bd c7cf 7c3d c013 97bd f93d a53d
00000080: e5b5 9bbd d7f2 ee3c 4b4a 1b3d 51d7 cdbc
00000090: ff76 6abd f51e 95bd 417d 29be b5b2 e23d
000000a0: eda2 eeba 2eee 693c ab2f 3d3e 519e 8e3c
000000b0: a54e 9ebb 92df 37bd 30ac f1bd f5d6 643c
000000c0: f3a2 8fbc 5e84 d4bd 27b3 a3bd dcc5 c9bd
000000d0: 3a99 c93d 6bdb 1bbd b8fd 86bb 2e45 a0bd
000000e0: 0764 9c3d 09a9 6b3d 1346 803d aff5 b2bd
000000f0: dfab 0e3d 9bec 5e3d 5c1b 43be fc0b 80be
00000100: 92b7 383d 59d4 c03c 3a02 a03d d5d6 163b
00000110: b676 2abe df64 573d b7fe 94bd 4a21 653e
00000120: b320 253d a4d7 5c3d 65b7 f1bd 4973 b43c
00000130: 4868 95bd 8fcb 0b3e e43e babd 5aef 173e
00000140: 6a2f 2ebd ac75 f83c 534e d2bd be9e ea3d
00000150: 007d 383d 9e4b 3bbd b18f dbbc 2d1c 85bc
00000160: 4e4e 1e3c 6c9d 023d bbd8 143e 446d 3cbe
00000170: 8168 33bc 110f 253d 80c5 59be f7d5 93bb
00000180: e8c7 70bc 5d49 1f3d f4e1 023e a87e 813d
00000190: 3b58 b8bd 0590 2d3d 08d0 a13c 5c7e 9bba
000001a0: 506e b5bd 9b8e afbd 4231 03bd ee46 a9bd
000001b0: d13b 6d3d d2a0 19be 9250 53bd eef6 80bd
000001c0: 93e1 213c 80b9 883d 09c4 ec3b aa3e 07bc
000001d0: ee21 be3d 0ca9 9dbd e649 82bd ad91 21bb
000001e0: 892f 8bbb 12bb 483d cb4c 8f3d d7e1 b73d
000001f0: b05e f4bd b59b 27be bca8 813e 680f 673e
00000200: d587 32bd 9200 333d c169 0a3e 92dc 8d3e
00000210: 68b6 59be 79da 3dbc 4ede e7bd 330b 183d
00000220: bd2d c1bd a027 573d d085 5abb 8402 05bd
00000230: fe41 6fbd 112e d4bc 3411 4fbc 7551 3a3b
00000240: 33a2 0ebe 3115 703d 0601 1a3e c570 49bc
00000250: b8a1 5ebc 5cd6 ae3d 26d5 8f3d 6f9d 613e
00000260: 9dec 873b 0ac3 01be efd3 d53d d398 aabd
00000270: 2289 0f3d 0773 873d 3532 d639 14ba 113d
00000280: 050d e23b 27ec f8bc 1577 e9bc 1577 923d
00000290: 54f0 ecbd 598c 51bd 6ca4 2cbb 1c88 0f3e
000002a0: 48d5 cd3b 4b5f cfbd 8562 e9bc 57ed adbd
000002b0: 19b4 803d 61c5 be3c b03b 993c ce22 c83c
000002c0: 21a6 96bc 56ea 863c bdeb 3c3d 4590 bc3d
000002d0: 1dd9 60bc 7c85 f3bc 72e5 6f3e 8ad3 383e
000002e0: dc59 f7bc 4bbe de3d d4e4 063e b17a 09be
000002f0: 9cf6 f8bd 22dd 6d3d e34d 7dbd 548b d4bd
00000300: 656b d03d f676 07be 8465 82bd 57b9 95bd
00000310: 4f66 61bd d86a d3bd 6513 c9bb 0e89 a93d
00000320: c212 713d 80a3 55bd 867f 483e 0796 333b
00000330: 1db0 06be 3221 33be 10dc ff3d b0e4 75bd
00000340: 900e 7f3e c3f5 8f3d e77d a3bd f3da 12be
00000350: 4707 b53d 83ea c83d 4edb 783d 48c3 863d
00000360: cc6c 5b3d d3de 23bc 348c 3e3d 67e7 4a3c
00000370: ceba 873d c528 7f3d 0198 17bd bf22 a6ba
00000380: b778 16be 7407 ffbc d486 29bc 9631 a43c
00000390: fe72 84bc d0d9 09be aefd a43c 40e1 78be
000003a0: 7444 4ebd 13db 4fbd 634c a13d 27d6 9d3d
000003b0: 980e 483e 4118 87bd f8fc 94bc ae66 55be
000003c0: e528 aebd c75b 2dbc cbcd 81bc c23a 82bc
000003d0: 530e 043e e540 b73d 3ee4 15be 8602 64bc
000003e0: 61e5 e83d 3cca 27bd 6046 acbd 74a9 3abd
000003f0: 1ff3 28bc 5cf2 153d 7d50 7abe ce18 09bd

network_body._body_endoder.seq_layers.0.bias f4 [64]
-0.08625044 0.04089979 0.002598436 0.019770533 0.0683939 0.08742398 0.05937616 0.019254958
0.006283524 0.040479977 0.02917702 0.14077549 0.06953257 0.054504286 0.009337708 0.05398057
0.078194335 -0.026932817 0.011390287 0.072920404 0.10642446 0.16346687 -0.006783516 0.0015333354
0.05431503 0.06889855 0.046736944 0.051041536 0.09413833 0.039209288 0.059751723 0.09320972
0.055821527 0.06490541 0.031275913 -0.056829643 0.1598704 0.041837636 0.06080677 0.07079812
0.04180677 0.059826635 -0.010259775 0.026038216 0.06483051 0.097164005 0.032534294 0.10083055
0.009969633 0.039018106 -0.0027130842 0.02998177 0.006109931 0.020956907 0.03080749 0.025794737
0.066843055 -0.08890509 -0.12294406 0.048678637 0.0055202646 0.16726534 0.016949553 0.05361328
00000000: 12a4 b0bd 8a86 273d 864a 2a3b d0f5 a13c
00000010: 1a12 8c3d 580b b33d 6b34 733d 93bc 9d3c
00000020: 05e6 cd3b 55ce 253d a504 ef3c 7327 103e
00000030: 1867 8e3d e33f 5f3d 30fd 183c bb1a 5d3d
00000040: 5a24 a03d 36a2 dcbc 549e 3a3c 4b57 953d
00000050: 11f5 d93d dc63 273e 4248 debb 33fa c83a
00000060: 7079 5e3d af1a 8d3d 3d6f 3f3d ee10 513d
00000070: 99cb c03d eb99 203d 39be 743d bde4 be3d
00000080: 1da5 643d 21ed 843d 2c1b 003d 33c6 68bd
00000090: 11b5 233e f15d 2b3d 8510 793d 9bfe 903d
000000a0: 933d 2b3d c60c 753d 9e18 28bc 194e d53c
000000b0: dcc5 843d ecfd c63d ae42 053d 3f80 ce3d
000000c0: ac57 233c 73d1 1f3d 00ce 31bb 549c f53c
000000d0: d135 c83b d2ad ab3c fd5f fc3c 7c4f d33c
000000e0: 03e5 883d df13 b6bd 18ca fbbd 4063 473d
000000f0: 56e3 b43b 9b47 2b3e cad9 8a3c 9999 5b3d

network_body._body_endoder.seq_layers.2.weight f4 [64, 64]
-0.2115177 -0.08822435 0.09088417 -0.20835446 -0.032796755 -0.28568316 -0.1455115 0.18800884
-0.10549901 -0.24724273 -0.08621348 -0.02681272 -0.010698414 0.082643695 0.10190334 0.30287108
-0.031001125 0.017998867 -0.14227885 -0.17278713 -0.048970815 -0.06719442 -0.15608923 0.11796534
0.057790697 0.092191964 0.067414775 0.02301858 -0.09101449 0.082795165 -0.034324124 -0.12758549
0.06498936 0.020121744 -0.046350807 0.079744704 -0.073479116 -0.003530904 -0.036319904 -0.03216826
-0.015164659 0.29456356 0.02459796 -0.09920853 0.278992 -0.069482304 -0.0018912198 0.24343996
0.13353895 -0.08155224 -0.029611135 0.043447368 0.037415218 -0.16022618 0.19307938 -0.011131327
-0.093151726 0.25425354 0.041936506 0.19347556 0.061664775 -0.20446661 0.04995519 -0.1449013
-0.039214395 -0.16466485 0.11546743 -0.07941796 0.047409516 0.122954525 0.1899077 -0.24411853
0.1129958 -0.11615396 -0.04346925 0.13495047 -0.13928455 0.0032219244 -0.03934694 -0.10252886
-0.063514456 0.03063308 -0.05176279 0.00035127447 -0.049572047 -0.034802906 0.07123489 -0.270782
0.061229836 -0.10150503 0.06770341 0.14800982 0.12522897 0.07912739 0.16513628 0.092785105
-0.017398948 0.038114775 -0.11492232 -0.027193297 -0.12805185 0.3596215 -0.1394108 0.08037434
-0.03953054 -0.06813437 0.010759618 -0.03588407 0.1250142 -0.034820456 -0.0021155088 -0.05555369
-0.03727159 -0.008602454 -0.089887604 0.050952394 -0.2539014 0.021567069 -0.029182626 -0.179837
0.009742749 -0.1617809 -0.051861595 -0.20347992 0.035198342 0.035615638 -0.15050346 0.09111412
-0.21635352 -0.14366606 -0.15717937 -0.05402063 -0.0077131586 -0.23182829 -0.2499469 0.124957725
0.03222727 -0.013604072 0.027487513 -0.07356655 0.05682936 0.28743768 -0.26837438 -0.12967762
0.074403204 0.006781161 -0.18515334 -0.0711472 0.11157184 -0.09680457 0.0889554 0.09843152
0.07182119 0.2862212 0.11430663 0.0793305 -0.16782391 0.09187251 -0.034181073 0.007492957
-0.059082672 0.26943773 -0.16191724 -0.029061927 0.19266775 0.26076803 0.13414562 0.22058211
0.05799338 -0.020954756 0.11881739 0.23429081 -0.0720371 0.051556833 0.2751972 0.19028415
-0.0030483734 0.040322922 -0.1699681 0.03131687 -0.06715341 -0.007582442 -0.018006133 0.058399178
0.076004885 0.16984797 -0.050985973 0.0331854 -0.04388256 0.04349587 0.2016314 0.07840729
0.032370325 -0.2207188 -0.011812698 0.17796306 0.09680441 -0.0034045272 0.15874101 0.06561594
0.1759998 0.28062356 0.030060368 0.058887407 0.18661804 0.05488113 -0.13870694 -0.06494233
0.06536283 7.6855824e-05 0.27013823 -0.021313544 0.107484 -0.032699488 -0.18879735 -0.088040665
0.05460646 0.1047857 0.09624732 -0.3763506 -0.018560791 0.03333377 -0.35883215 -0.054459896
-0.2631155 -0.025572533 0.029862761 -0.074024975 -0.21160945 0.013492722 0.32963946 0.04971257
0.12031249 0.19201352 -0.09071983 0.06101147 0.27101585 -0.13304885 -0.12985913 -0.25930947
0.035314716 0.24648534 -0.07530921 -0.04931886 0.052595105 0.02287877 0.062276162 -0.02671989
0.06827325 -0.07155815 -0.022790397 0.15355036 0.07615285 0.047485102 -0.06447917 0.12570624
00000000: 1998 58be f8ae b4bd 7b21 ba3d df5a 55be
00000010: e455 06bd 1045 92be f700 15be 6485 403e
00000020: dd0f d8bd 332d 7dbe b190 b0bd 59a6 dbbc
00000030: 6748 2fbc 1941 a93d b3b2 d03d eb11 9b3e
00000040: 12f6 fdbc 5c72 933c 8cb1 11be 1cef 30be
00000050: 9f95 48bd 3a9d 89bd dbd5 1fbe d097 f13d
00000060: f0b5 6c3d 24cf bc3d c210 8a3d 7691 bc3c
00000070: ce65 babd 8390 a93d 7497 0cbd c5a5 02be
00000080: 2419 853d 5bd6 a43c 58da 3dbd 3151 a33d
00000090: 387c 96bd bd66 67bb 2ec4 14bd dec2 03bd
000000a0: 3175 78bc 09d1 963e a981 c93c d72d cbbd
000000b0: 0ad8 8e3e bd4c 8ebd cee2 f7ba 5348 793e
000000c0: 6fbe 083e dc04 a7bd 0d93 f2bc def5 313d
000000d0: b340 193d 5512 24be 9ab6 453e 2b60 36bc
000000e0: 55c6 bebd 852d 823e 9dc5 2b3d 751e 463e
000000f0: 3494 7c3d b25f 51be d09d 4c3d 0261 14be
00000100: 469f 20bd e79d 28be 307a ec3d e2a5 a2bd
00000110: 7b30 423d 95cf fb3d 2a77 423e 35fa 79be
00000120: 586a e73d 21e2 edbd d00c 32bd 7530 0a3e
00000130: 9ca0 0ebe ec26 533b 422a 21bd a7fa d1bd
00000140: de13 82bd 3af2 fa3c 3805 54bd 432b b839
00000150: 0f0c 4bbd 7e8d 0ebd 99e3 913d f0a3 8abe
00000160: 23cc 7a3d dfe1 cfbd 16a8 8a3d e38f 173e
00000170: 063c 003e 8b0d a23d 7c19 293e 1e06 be3d
00000180: 3d88 8ebc 3d1e 1c3d 655c ebbd 7ac4 debc
00000190: 0620 03be 4f20 b83e b4c1 0ebe 4d9b a43d
000001a0: c7ea 21bd 088a 8bbd 1c49 303c 2dfb 12bd
000001b0: b903 003e e59f 0ebd 59a4 0abb 448c 63bd
000001c0: 18aa 18bd 4ff1 0cbc fe16 b8bd 75b3 503d
000001d0: 5dff 81be 6cad b03c 6710 efbc 3127 38be
000001e0: 0da0 1f3c e4a9 25be d36c 54bd 0a5d 50be
000001f0: 232c 103d b4e1 113d 941d 1abe 0a9a ba3d
00000200: c78b 5dbe 321d 13be a1f3 20be bc44 5dbd
00000210: aabe fcbb 6564 6dbe 15f2 7fbe d6e9 ff3d
00000220: be00 043d 9de3 5ebc 7e2d e13c 0faa 96bd
00000230: e7c5 683d 082b 933e 5e68 89be 36ca 04be
00000240: b560 983d 8034 de3b d698 3dbe a0b5 91bd
00000250: c77f e43d 7941 c6bd 402e b63d 7796 c93d
00000260: fd16 933d 968b 923e 9819 ea3d 0778 a23d
00000270: 08da 2bbe a827 bc3d 7401 0cbd 7b87 f53b
00000280: ac00 72bd bef3 893e a2cd 25be 4713 eebc
00000290: b24a 453e 6383 853e 785d 093e 47e0 613e
000002a0: 778a 6d3d 4fa9 abbc 8856 f33d eee9 6f3e
000002b0: 3088 93bd 422d 533d a6e6 8c3e d9d9 423e
000002c0: 38c7 47bb a629 253d 1e0c 2ebe 1e46 003d
000002d0: ba87 89bd 2276 f8bb 9981 93bc fa33 6f3d
000002e0: 73a8 9b3d a0ec 2d3e abd6 50bd 6aed 073d
000002f0: 33be 33bd ba28 323d 7678 4e3e 0094 a03d
00000300: bf96 043d 1c04 62be 0c8a 41bc f33b 363e
00000310: 6441 c63d 7d1e 5fbb 018d 223e a661 863d
00000320: 4b39 343e e4ad 8f3e 2941 f63c ec33 713d
00000330: cd18 3f3e 09cb 603d 3109 0ebe 7c00 85bd
00000340: f3dc 853d a82d a138 8f4f 8a3e be99 aebc
00000350: 9220 dc3d e6ef 05bd 1854 41be aa4e b4bd
00000360: 06ab 5f3d e399 d63d 511d c53d 07b1 c0be
00000370: cd0c 98bc fe88 083d d9b8 b7be 5711 5fbd
00000380: 13b7 86be 7d7d d1bc c0a2 f43c 689a 97bd
00000390: 26b0 58be 9410 5d3c 81c6 a83e 689f 4b3d
000003a0: 6566 f63d 319f 443e 51cb b9bd 2ae7 793d
000003b0: 97c2 8a3e f53d 08be cbf9 04be 36c4 84be
000003c0: 2aa6 103d a766 7c3e b73b 9abd 9302 4abd
000003d0: f76d 573d 426c bb3c 4a15 7f3d ace3 dabc
000003e0: d8d2 8b3d 148d 92bd edb2 babc 4e3c 1d3e
000003f0: 07f6 9b3d bd7f 423d a80d 84bd 23b9 003e

network_body._body_endoder.seq_layers.2.bias f4 [64]
0.022855172 0.03754764 0.053203914 0.035739567 0.030702613 0.03648502 0.015326276 0.018081665
0.1494281 0.087082736 0.038669173 -0.02185392 0.06980452 0.016712012 0.02394391 0.042019058
0.04309281 -0.0059263776 0.049861673 0.044365823 0.07169124 0.019538464 0.11297983 0.040360574
0.034740657 -0.0036244881 0.07117289 0.029866802 0.10513912 0.024312137 0.036406927 0.022799533
0.031474873 0.024589173 0.09232353 0.048605755 0.024982784 -0.0041820137 0.03282283 0.117416546
0.057650007 0.03315341 0.042517312 -0.020200102 0.062598296 0.053848203 0.08348654 0.011102781
0.023186231 0.13262644 0.053225435 -0.001059128 0.037277576 -0.027611103 0.031023905 0.014914241
0.051469143 -0.014442246 0.049317915 0.047676314 0.033096716 0.10496831 0.021632437 0.03155027
00000000: c53a bb3c 8ecb 193d 59ec 593d a763 123d
00000010: 0c84 fb3c 5171 153d 101b 7b3c 0020 943c
00000020: ae03 193e 6f58 b23d 9163 1e3d fe06 b3bc
00000030: acf5 8e3d a1e7 883c 0526 c43c 2d1c 2c3d
00000040: 1682 303d 0f32 c2bb c13b 4c3d f0b8 353d
00000050: dbd2 923d 210f a03c f861 e73d 2151 253d
00000060: 384c 0e3d d288 6dbb 18c3 913d 39ab f43c
00000070: 2e53 d73d 3f2a c73c 6e1f 153d 16c6 ba3c
00000080: cceb 003d 3c6f c93c 1e14 bd3d d416 473d
00000090: b2a8 cc3c 4609 89bb 3b71 063d 1678 f03d
000000a0: 6a22 6c3d dfcb 073d a226 2e3d af7a a5bc
000000b0: 8933 803d ef8f 5c3d fefa aa3d 70e8 353c
000000c0: 0df1 bd3c 3acf 073e ea02 5a3d 70d2 8aba
000000d0: 5fb0 183d ae30 e2bc d825 fe3c dc5a 743c
000000e0: 4fd1 523d 2c9f 6cbc 9501 4a3d 3d48 433d
000000f0: 6c90 073d a0f9 d63d 8236 b13c db3a 013d

action_model._discrete_distribution.branches.0.weight f4 [6, 64]
0.020047644 -0.0032734636 0.0068409992 -0.020183902 -0.048651323 -0.0012004502 0.012228097 -0.039555606
-0.07065139 -0.021779433 0.013384022 0.042939983 -0.049283262 -0.035674643 -0.027061608 -0.038903195
0.024577873 0.020858759 -0.0611758 0.001768766 -0.060687628 -0.028496405 -0.029651403 0.03234637
-0.00092442794 0.024738343 -0.032449115 0.056200724 -0.073861375 -0.01725454 0.017143853 0.019030662
0.02410215 0.0014901104 -0.054129615 -0.008877299 0.016874228 0.039379954 -2.4933734e-06 -0.019047856
-0.0010892678 -0.053119943 -0.04875402 0.037540633 -0.07044251 -0.021686563 -0.07199247 0.012203733
0.00023475423 -0.09143552 0.015877621 0.000926777 -0.033331648 0.046435304 -0.011033041 0.024646452
-0.037491933 0.052519444 -0.043031793 -0.05434126 -0.017215615 -0.07872835 -0.04465142 -0.023808738
-0.055831064 0.043795362 -0.021816371 -0.052151594 -0.05342473 -0.020875402 -0.03571405 -0.041232076
0.060021833 0.038944904 -0.03413589 -0.0021499638 0.0609318 -0.055223815 -0.068892464 0.08908998
-0.036352683 0.009489854 0.018345144 0.01803264 0.07936958 -0.03792522 0.002865572 -0.013931336
0.059798386 -0.052457266 0.06720319 -0.05789716 0.07472801 -0.04573564 -0.05686068 -0.07663836
-0.06014349 -0.0465991 0.027284246 -0.041430134 -0.034496546 -0.021133903 -0.06955673 0.0359274
0.0685688 -0.065946415 0.06159791 -0.021705665 0.09417818 -0.019376157 0.10797019 0.020323336
-0.04801611 0.13002728 -0.04331491 -0.041193534 0.05494757 -0.017328095 -0.044289798 0.029331911
-0.047165774 0.009419573 0.0025479656 0.03905559 -0.049873896 0.059156146 -0.039848734 -0.060591895
0.019311104 -0.036684655 0.09387995 0.011407855 0.02913973 0.069458045 0.037470378 0.0041421866
0.049486276 -0.04436469 0.03948548 -0.03802666 -0.035140883 0.0014723992 0.024704725 0.041696023
0.07277944 -0.036583595 -0.04489814 -0.066309996 0.06299316 0.044552714 -0.065552756 0.08254699
0.0322763 0.02375298 -0.05782888 0.065541014 0.0048782458 0.0036955315 0.05314462 0.025797563
0.066374965 0.039656892 0.00097485445 0.057327654 0.03709283 0.08448955 0.031786025 -0.042986173
0.04733051 0.013249899 -0.062034063 -0.04422 0.0699668 0.06299576 0.08059696 -0.041565817
0.034017276 0.088984914 0.052973647 -0.0005507909 -0.04275322 -0.029695127 0.03000558 -0.04220792
0.007544052 -0.05105327 -0.0430698 -0.029222175 0.02673435 0.030651558 0.008527752 0.008621508
-0.031668574 0.014432411 -0.007831026 0.014359795 0.023697197 -0.022399375 -0.03093099 -0.014682283
0.05177083 0.03996466 0.00094701955 0.006530162 0.035413966 0.0252516 -0.013803332 -0.021149065
-0.010092811 0.023470337 0.046605077 0.014561758 -0.0040343343 -0.027916836 0.036710996 -0.051593464
0.052784815 -0.019053841 0.07437953 -0.035781074 0.059496704 0.034602776 -0.006796563 -0.010485531
-0.022185598 -0.014064066 0.07900754 -0.013243629 -0.065594435 -0.050261363 -0.02406766 0.057643637
0.015008811 0.03143578 0.07600903 0.021368386 0.0451714 -0.034558095 0.027086018 0.0039349245
0.0068432335 0.05227354 -0.018572196 -0.014220147 0.049864292 -0.012721405 0.002578357 -0.004384764
0.025641399 0.024549283 0.036663372 0.05664475 0.0058813402 0.05838651 0.0018910437 -0.050939612
00000000: f53a a43c 9b87 56bb 762a e03b b658 a5bc
00000010: 9c46 47bd 6d58 9dba 5b58 483c 0f05 22bd
00000020: adb1 90bd c86a b2bc a848 5b3c d6e1 2f3d
00000030: 3fdd 49bd 931f 12bd 4eb0 ddbc f558 1fbd
00000040: 8957 c93c fddf aa3c 7a93 7abd f0d5 e73a
00000050: 9793 78bd 4b71 e9bc 80e7 f2bc a17d 043d
00000060: 4f55 72ba 11a8 ca3c 5de9 04bd bb32 663d
00000070: a244 97bd 6559 8dbc 4471 8c3c 31e6 9b3c
00000080: df71 c53c cf4f c33a 04b7 5dbd 1772 11bc
00000090: d23b 8a3c e04c 213d d453 27b6 400a 9cbc
000000a0: c3c5 8eba 4c94 59bd 4cb2 47bd 35c4 193d
000000b0: 2a44 90bd 05a8 b1bc ca70 93bd 2bf2 473c
000000c0: 5c28 7639 8c42 bbbd c911 823c f4f2 723a
000000d0: c486 08bd f232 3e3d eec3 34bc 5be7 c93c
000000e0: 2491 19bd a11e 573d 1b42 30bd f194 5ebd
000000f0: c307 8dbc 543c a1bd 68e4 36bd 8b0a c3bc
00000100: 1daf 64bd c462 333d 3fb8 b2bc e99c 55bd
00000110: e4d3 5abd e402 abbc e548 12bd f7e2 28bd
00000120: 74d9 753d b184 1f3d 13d2 0bbd 68e6 0cbb
00000130: a093 793d 5e32 62bd 7e17 8dbd cf74 b63d
00000140: 8de6 14bd 557b 1b3c 8e48 963c 30b9 933c
00000150: 858c a23d 7a57 1bbd 52cc 3b3b 4240 64bc
00000160: 27ef 743d 6edd 56bd d3a1 893d 9325 6dbd
00000170: 000b 993d 4b55 3bbd bfe6 68bd 93f4 9cbd
00000180: 0559 76bd b3de 3ebd 3683 df3c a5b2 29bd
00000190: 404c 0dbd 0221 adbc c273 8ebd 9c28 133d
000001a0: cd6d 8c3d ea0e 87bd 174e 7c3d 14d0 b1bc
000001b0: 7de0 c03d bfba 9ebc 7a1f dd3d 207d a63c
000001c0: 8aac 44bd df25 053e fa6a 31bd 8dba 28bd
000001d0: b410 613d a6f3 8dbc 3869 35bd 7a49 f03c
000001e0: e630 41bd 8d54 1a3c c5fb 263b c1f8 1f3d
000001f0: 9248 4cbd b74d 723d 6d38 23bd 352f 78bd
00000200: 5232 9e3c a642 16bd 2244 c03d 03e8 3a3c
00000210: 71b6 ee3c 0540 8e3d 8a7a 193d 2ebb 873b
00000220: 1fb2 4a3d c0b7 35bd 87bb 213d d8c1 1bbd
00000230: e3ef 0fbd 85fd c03a 9061 ca3c 73c9 2a3d
00000240: 630d 953d aed8 15bd 1de7 37bd 89cd 87bd
00000250: 8f02 813d e87c 363d 8640 86bd 650e a93d
00000260: 2734 043d 9c95 c23c fadd 6cbd 5e3a 863d
00000270: b1d9 9f3b bb30 723b 2cae 593d 6955 d33c
00000280: 99ef 873d 446f 223d 608d 7f3a 67d0 6a3d
00000290: a7ee 173d db08 ad3d 1032 023d 4512 30bd
000002a0: a3dd 413d 1b16 593c 6e17 7ebd 0820 35bd
000002b0: c14a 8f3d ec03 813d 0510 a53d eb40 2abd
000002c0: b355 0b3d b93d b63d e5fa 583d f462 10ba
000002d0: 001e 2fbd 3243 f3bc 43ce f53c 36e2 2cbd
000002e0: 1834 f73b 3c1d 51bd f569 30bd 5863 efbc
000002f0: ff01 db3c fa18 fb3c fcb7 0b3c 3a41 0d3c
00000300: e8b6 01bd eb75 6c3c b44d 00bc 5845 6b3c
00000310: a020 c23c e57e b7bc fd62 fdbc f58d 70bc
00000320: a60d 543d fcb1 233d 6841 783a f8fa d53b
00000330: 3c0e 113d 72dc ce3c 5f27 62bc ce40 adbc
00000340: 515c 25bc dd44 c03c f7e4 3e3d 7194 6e3c
00000350: 7332 84bb d9b1 e4bc 455e 163d ab53 53bd
00000360: e434 583d cd16 9cbc 4c54 983d 2d8f 12bd
00000370: d1b2 733d a4bb 0d3d b4b5 debb 81cb 2bbc
00000380: 92be b5bc f86c 66bc b5ce a13d cefb 58bc
00000390: 6056 86bd dcde 4dbd 8b29 c5bc bc1b 6c3d
000003a0: 84e7 753c cec2 003d 9faa 9b3d c10c af3c
000003b0: a505 393d ca8c 0dbd 7fe3 dd3c 8af0 803b
000003c0: 343d e03b c81c 563d b824 98bc 9ffb 68bc
000003d0: 803e 4c3d 716d 50bc a7f9 283b 11ae 8fbb
000003e0: e90d d23c 941b c93c 552c 163d 5304 683d
000003f0: 42b8 c03b b126 6f3d e6dc f73a 0ea6 50bd

action_model._discrete_distribution.branches.0.bias f4 [6]
-0.017263278 0.005243584 0.017695222 -0.005339903 -0.015520967 0.109454624
00000000: b86b 8dbc 5fd2 ab3b 92f5 903c 5afa aebb
00000010: a74b 7ebc bf29 e03d

onnx::Div_164 f4 [3]
0.32159665 0.1619311 1.7741063
00000000: 51a8 a43e 44d1 253e ea15 e33f

onnx::MatMul_166 f4 [129, 128]
0.0819298 -0.08148569 -0.051389102 -0.037399255 -0.013974067 -0.07550506 -0.068698734 0.01691443
0.07580594 0.052576117 0.06681864 0.05673853 0.0063838423 -0.02346755 -0.036939353 -0.096582055
0.066691816 -0.090878695 -0.019475453 0.026895253 -0.117199615 0.009130987 0.06334438 0.022818133
-0.07770506 -0.04949152 0.05630819 0.014025846 0.022157004 0.03406192 -0.13377275 0.010686865
0.017167242 -0.050945997 0.09938116 0.046841227 -0.012481666 0.09832565 0.104973994 -0.109342694
0.06832954 -0.09982463 -0.020436415 0.05832823 0.066905245 -0.06404367 0.04107851 0.0151823005
-0.059587553 0.007940917 0.010035321 0.10128744 0.015427507 0.015758276 0.07004738 -0.046852812
0.012531324 0.08232681 0.05597057 0.094423234 0.11058472 0.042303186 -0.017058898 -0.018373257
-0.0908085 -0.040780902 0.07106217 0.074158624 0.0552594 -0.11236307 0.12746833 -0.04724094
-0.03826314 0.06559211 -0.09201773 0.036392685 0.02647203 0.016202407 -0.04048694 -0.10316959
0.032065835 -0.13129096 -0.07665557 0.029064534 -0.08100688 -0.08703159 0.014835958 -0.009606705
0.031479098 0.111878365 0.09674026 0.08891482 0.06973357 -0.026775608 0.028204767 -0.015656259
-0.032015566 0.07373137 -0.079185225 0.011942703 0.08587122 -0.07924508 -0.07135613 -0.02203568
-0.035231873 0.044956975 0.056767624 -0.10428778 -0.021337457 -0.06552878 -0.05464152 -0.046658065
0.08470298 0.04673609 -0.13020296 0.04711349 0.0986974 0.113064066 -0.027918702 0.02253457
0.05599305 0.0012646585 -0.042723045 -0.060249876 0.06276067 0.095578834 0.08904433 -0.058934983
-0.01059889 0.07800826 0.026852898 -0.025458492 0.072203405 0.06714582 0.07182671 -0.04853784
0.009372355 -0.06290038 -0.054562937 -0.13677701 0.012921737 0.03354734 0.08524766 0.044605102
-0.13633318 0.12712404 0.0071589616 -0.09254475 0.09510851 -0.07388573 -0.029471353 0.09331311
0.13531329 0.073037274 -0.041925598 -0.07832693 -0.075705804 -0.10633831 0.12552108 -0.08115146
-0.0074240942 0.032163102 -0.061978232 -0.0836028 -0.0019087504 -0.01191567 -0.081336245 0.0863771
-0.069207855 0.04640033 0.007911041 0.030706832 -0.06858875 0.105952516 -0.038454287 0.00916778
0.024163356 0.01769212 0.0073125344 -0.07191976 0.02530543 -0.07893721 -0.056762025 0.100119755
0.03263608 -0.062377796 -0.01491552 0.001667131 -0.07003827 -0.0672237 -0.018136803 0.06936817
0.053551994 0.035198756 -0.05694292 -0.028337756 -0.008817347 0.11810486 -0.09381551 0.03293545
0.098274626 -0.049739 0.030163521 -0.061139803 0.01057106 -0.012286424 0.017151715 0.0830854
-0.12671229 0.13179076 0.076739766 0.0014981776 0.115878694 0.11253375 -0.05857653 -0.06035059
-0.031717125 -0.0809671 -0.12355626 -0.0022071076 -0.11096611 0.0012565929 -0.044354785 0.027240828
0.015303175 -0.078053474 0.08515039 0.016898185 -0.08394284 0.12945986 0.10514196 0.06035864
0.10581909 -0.00028392966 -0.07975956 0.09913106 -0.00816697 0.039554004 -0.0052401433 0.0053934003
0.00031118572 -0.08975814 0.081564106 -0.05285791 -0.067771815 -0.0869768 0.013009009 -0.0010364671
-0.07077485 -0.02114229 0.011664654 0.054610826 -0.057151496 -0.03464994 -0.032116886 0.0027053456
00000000: d0ca a73d f8e1 a6bd 617d 52bd f62f 19bd
00000010: 7cf3 64bc 66a2 9abd ecb1 8cbd 2190 8a3c
00000020: 2540 9b3d 0e5a 573d 36d8 883d a966 683d
00000030: 8d2f d13b 053f c0bc b84d 17bd d0cc c5bd
00000040: b895 883d 9c1e babd fc8a 9fbc 6f53 dc3c
00000050: 5a06 f0bd 239a 153c b3ba 813d 18ed ba3c
00000060: d523 9fbd 9fb7 4abd 6ba3 663d a9cc 653c
00000070: 9b82 b53c 8384 0b3d b9fb 08be f617 2f3c
00000080: 51a2 8c3c c0ac 50bd 5a88 cb3d 96dc 3f3d
00000090: e77f 4cbc f55e c93d 9bfc d63d 10ef dfbd
000000a0: 5cf0 8b3d db70 ccbd 456a a7bc 95e9 6e3d
000000b0: 9e05 893d 5429 83bd f141 283d 2fbf 783c
000000c0: 1412 74bd 9f1a 023c 306b 243c ca6f cf3d
000000d0: a8c3 7c3c 8017 813c 0075 8f3d bce8 3fbd
000000e0: 2f50 4d3c f59a a83d 6541 653d f860 c13d
000000f0: 3e7a e23d 1b46 2d3d 1abf 8bbc 8383 96bc
00000100: cff9 b9bd e009 27bd 0b89 913d 7ae0 973d
00000110: ae57 623d 9c1e e6bd 0f87 023e b77f 41bd
00000120: cfb9 1cbd 2855 863d cb73 bcbd 7f10 153d
00000130: dfdb d83c e9ba 843c a2d5 25bd 944a d3bd
00000140: 7757 033d 2371 06be 98fd 9cbd bf18 ee3c
00000150: efe6 a5bd 9e3d b2bd 8512 733c 7165 1dbc
00000160: 3af0 003d 7c20 e53d c21f c63d f918 b63d
00000170: 79d0 8e3d 8558 dbbc af0d e73c 8e41 80bc
00000180: c122 03bd 7900 973d dd2b a2bd 54ab 433c
00000190: 40dd af3d 3f4b a2bd 2a23 92bd 2c84 b4bc
000001a0: 4c4f 10bd ce24 383d 2b85 683d d594 d5bd
000001b0: e4cb aebc f433 86bd c9cf 5fbd 871c 3fbd
000001c0: c278 ad3d 586e 3f3d ed53 05be 13fa 403d
000001d0: dd21 ca3d 228e e73d c3b5 e4bc 6b9a b83c
000001e0: f858 653d e6c2 a53a 5cfe 2ebd 93c8 76bd
000001f0: ab88 803d d6be c33d e05c b63d cf65 71bd
00000200: f7a6 2dbc cbc2 9f3d 9cfa db3c 548e d0bc
00000210: 61df 933d bf83 893d e219 933d 9dcf 46bd
00000220: 828e 193c ead1 80bd 637d 5fbd 460f 0cbe
00000230: b1b5 533c f068 093d 5396 ae3d d7b3 363d
00000240: ed9a 0bbe ce2c 023e b995 ea3b 1a88 bdbd
00000250: 40c8 c23d 6751 97bd e86d f1bc f21a bf3d
00000260: 918f 0a3e 9194 953d 2dba 2bbd df69 a0bd
00000270: a50b 9bbd e6c7 d9bd 9988 003e bd32 a6bd
00000280: d145 f3bb 75bd 033d e3dc 7dbd f237 abbd
00000290: 092f faba f139 43bc 9e93 a6bd 7ae6 b03d
000002a0: d9bc 8dbd 460e 3e3d 509d 013c e58c fb3c
000002b0: 4278 8cbd a2fd d83d 3e82 1dbd 7534 163c
000002c0: 3bf2 c53c 11ef 903c fc9d ef3b ab4a 93bd
000002d0: 554d cf3c d5a9 a1bd 4c7f 68bd 960b cd3d
000002e0: 69ad 053d dc7f 7fbd 3a60 74bc a283 da3a
000002f0: 3970 8fbd 94ac 89bd a293 94bc e610 8e3d
00000300: 5659 5b3d 922c 103d fb3c 69bd 9524 e8bc
00000310: a276 10bc f6e0 f13d 5922 c0bd 53e7 063d
00000320: 3544 c93d 1fbb 4bbd 7d19 f73c bb6d 7abd
00000330: 3d32 2d3c ff4c 49bc c181 8c3c ae28 aa3d
00000340: dec0 01be 28f4 063e bd29 9d3d 805e c43a
00000350: cf51 ed3d 1878 e63d f2ed 6fbd 2e32 77bd
00000360: d1e9 01bd 14d2 a5bd 100b fdbd 1fa5 10bb
00000370: 3342 e3bd 43b4 a43a 5dad 35bd 2828 df3c
00000380: 2bba 7a3c 80da 9fbd 5463 ae3d 106e 8a3c
00000390: 39ea abbd 2091 043e ab54 d73d 9f3a 773d
000003a0: aeb7 d83d 65dc 94b9 fb58 a3bd 3a05 cb3d
000003b0: c1ce 05bc 6103 223d 82b5 abbb 1fbb b03b
000003c0: a426 a339 1ed3 b7bd 150b a73d 8981 58bd
000003d0: f3cb 8abd e420 b2bd bd23 553c 11da 87ba
000003e0: 68f2 90bd 9932 adbc 1b1d 3f3c 9aaf 5f3d
000003f0: b017 6abd 18ed 0dbd ff8c 03bd 2b4c 313b
