results/3_24_ppo2/simple_wolf.onnx (onnx, 504326 bytes, 18 tensors)

network_body.observation_encoder.processors.0.self_ent_encoder.seq_layers.0.bias f4 [128]
000000 41 89 f4 3a 97 6d d1 b9 a6 bf e7 ba 93 58 aa ba
       0.0018656628 -0.00039945237 -0.0017681017 -0.0012996368
000010 22 1a 45 38 5f 56 d4 ba f8 e6 86 3b 60 57 04 ba
       4.6992798e-05 -0.0016200057 0.004116889 -0.000504842
000020 8d bb f4 39 28 8d a8 3a 18 70 13 3b a1 ed 3a b9
       0.00046679043 0.0012859451 0.0022497233 -0.00017826866
000030 9b 5a 63 3b b6 ef 31 3b 82 0d f8 3a 07 21 49 b9
       0.0034691456 0.0027150935 0.0018924924 -0.00019181157
000040 83 42 02 bb 39 19 a6 3a b5 9d 62 bb 9d 89 71 3b
       -0.001987607 0.0012672312 -0.0034578864 0.0036855706
000050 b4 95 6a bb 90 9a fb ba 19 a1 ab ba 12 7a 5c 3b
       -0.0035794796 -0.0019195843 -0.0013094275 0.0033642096
000060 fa 46 3c 39 d0 25 75 3b fd 59 d2 38 0c f6 66 3a
       0.00017955518 0.0037406571 0.00010030342 0.00088104676
000070 73 02 99 ba fa f5 ca ba 9a e3 2c ba f3 04 09 3a
       -0.0011673704 -0.0015484684 -0.00065951946 0.0005226873
000080 2c 92 08 3b 3c 72 04 3b 29 c9 0d bb 0d 71 dc ba
       0.0020839078 0.002020969 -0.0021634793 -0.001681836
000090 74 ab df b9 a3 15 43 3a 90 bd aa ba 84 32 0a 3b
       -0.00042661617 0.0007441884 -0.0013026465 0.0021087239
0000a0 fb 35 bc ba 90 68 b0 ba 7c 0f 58 3b 46 28 67 3a
       -0.0014359349 -0.0013458896 0.0032968214 0.0008817952
0000b0 23 fb d2 ba 76 4d c3 ba a1 54 3c bb 9d 69 9b 3a
       -0.0016096573 -0.0014900404 -0.0028736966 0.0011857037
0000c0 fa c9 b3 39 23 3c 26 3b ae 7e c5 bb e2 ae 60 3b
       0.00034292025 0.0025365434 -0.0060270643 0.0034283926
0000d0 91 7b de ba 83 44 fc 3a 7a d0 ab 3a df a8 19 3b
       -0.0016974082 0.0019246492 0.0013108396 0.0023446602
0000e0 ef 48 06 bb 13 1c 7d 3b 39 bd 84 bb 22 81 d2 b9
       -0.002049025 0.003862147 -0.0040508774 -0.00040150533
0000f0 c3 b0 7a ba 44 93 9a 3a 52 3c a7 bb 65 d1 07 ba
       -0.0009563083 0.0011793156 -0.0051036263 -0.00051810435
000100 7d 57 a1 3a fa e7 b0 3b 58 01 de 3a 66 5e aa b9
       0.0012309399 0.0053987475 0.0016937656 -0.0003249526
000110 20 de 4a bb 3f 8a 09 3b 71 0f 8e 3b 5e 8b 52 3b
       -0.003095515 0.0020986942 0.004335337 0.0032126526
000120 d5 85 57 ba 9a 40 7c bb 2f 60 40 ba 31 c9 56 3b
       -0.00082215416 -0.0038490654 -0.0007338551 0.0032773728
000130 3b 93 00 bb 52 6f c3 3a 07 c6 33 3a a1 ef 1f 3b
       -0.0019619006 0.0014910495 0.00068578165 0.0024404305
000140 3b 15 3a 3b c1 db 40 3b 46 f7 54 3b 2d 3d 04 b9
       0.0028394002 0.0029427859 0.003249602 -0.00012611291
000150 53 f1 8b 3b 1b dd 16 bb ea 45 2d 3b 91 0d 91 3a
       0.0042707114 -0.0023019973 0.0026439377 0.0011066665
000160 7c e1 26 38 89 96 d2 b9 99 56 d6 ba 68 53 8f 3b
       3.9787483e-05 -0.0004016648 -0.0016352712 0.0043739565
000170 03 da e2 b9 71 f0 98 3a 65 c8 a3 b9 b4 f4 0d bb
       -0.0004326851 0.0011668337 -0.00031239088 -0.0021660747
000180 a5 90 a8 3a 9b ff 67 ba 62 17 30 bb c6 04 59 3a
       0.001286049 -0.0008850039 -0.0026869406 0.00082786044
000190 c2 3f 24 3b f5 8a 73 bb 82 07 03 bb e6 a4 89 ba
       0.0025062417 -0.0037161682 -0.0019993489 -0.0010501414
0001a0 79 27 9b 39 08 b4 e8 38 52 d5 c9 3b 8c 37 3d 3b
       0.00029593313 0.000110961555 0.006159463 0.002887222
0001b0 e8 31 ea 3b af 95 d6 b9 20 9a 10 ba 7b bd 8d bb
       0.0071470626 -0.00040928784 -0.00055161305 -0.0043255663
0001c0 94 29 b0 bb d3 18 d3 ba 5c 1c 46 bb 8c 7e d8 b9
       -0.0053760502 -0.0016105421 -0.0030229306 -0.00041293015
0001d0 e1 de 65 bb 55 8f 49 3b 06 d7 43 3a 45 d2 84 ba
       -0.0035075473 0.0030755599 0.00074707007 -0.0010133466
0001e0 a0 20 8e 3a c2 7b 7e 3b 86 7e 1f 3a a7 f6 05 ba
       0.0010843463 0.003883109 0.0006084222 -0.00051103014
0001f0 ae 52 96 bb 70 f0 49 3b e6 5d 4a b9 a3 06 98 b9
       -0.004587493 0.0030813478 -0.00019299201 -0.00028996644

network_body.observation_encoder.processors.1.self_ent_encoder.seq_layers.0.bias f4 [128]
000000 00 00 00 00 00 00 00 00 00 00 00 00 00 00 00 00
       0.0 0.0 0.0 0.0
000010 00 00 00 00 00 00 00 00 00 00 00 00 00 00 00 00
       0.0 0.0 0.0 0.0
000020 00 00 00 00 00 00 00 00 00 00 00 00 00 00 00 00
       0.0 0.0 0.0 0.0
000030 00 00 00 00 00 00 00 00 00 00 00 00 00 00 00 00
       0.0 0.0 0.0 0.0
000040 00 00 00 00 00 00 00 00 00 00 00 00 00 00 00 00
       0.0 0.0 0.0 0.0
000050 00 00 00 00 00 00 00 00 00 00 00 00 00 00 00 00
       0.0 0.0 0.0 0.0
000060 00 00 00 00 00 00 00 00 00 00 00 00 00 00 00 00
       0.0 0.0 0.0 0.0
000070 00 00 00 00 00 00 00 00 00 00 00 00 00 00 00 00
       0.0 0.0 0.0 0.0
000080 00 00 00 00 00 00 00 00 00 00 00 00 00 00 00 00
       0.0 0.0 0.0 0.0
000090 00 00 00 00 00 00 00 00 00 00 00 00 00 00 00 00
       0.0 0.0 0.0 0.0
0000a0 00 00 00 00 00 00 00 00 00 00 00 00 00 00 00 00
       0.0 0.0 0.0 0.0
0000b0 00 00 00 00 00 00 00 00 00 00 00 00 00 00 00 00
       0.0 0.0 0.0 0.0
0000c0 00 00 00 00 00 00 00 00 00 00 00 00 00 00 00 00
       0.0 0.0 0.0 0.0
0000d0 00 00 00 00 00 00 00 00 00 00 00 00 00 00 00 00
       0.0 0.0 0.0 0.0
0000e0 00 00 00 00 00 00 00 00 00 00 00 00 00 00 00 00
       0.0 0.0 0.0 0.0
0000f0 00 00 00 00 00 00 00 00 00 00 00 00 00 00 00 00
       0.0 0.0 0.0 0.0
000100 00 00 00 00 00 00 00 00 00 00 00 00 00 00 00 00
       0.0 0.0 0.0 0.0
000110 00 00 00 00 00 00 00 00 00 00 00 00 00 00 00 00
       0.0 0.0 0.0 0.0
000120 00 00 00 00 00 00 00 00 00 00 00 00 00 00 00 00
       0.0 0.0 0.0 0.0
000130 00 00 00 00 00 00 00 00 00 00 00 00 00 00 00 00
       0.0 0.0 0.0 0.0
000140 00 00 00 00 00 00 00 00 00 00 00 00 00 00 00 00
       0.0 0.0 0.0 0.0
000150 00 00 00 00 00 00 00 00 00 00 00 00 00 00 00 00
       0.0 0.0 0.0 0.0
000160 00 00 00 00 00 00 00 00 00 00 00 00 00 00 00 00
       0.0 0.0 0.0 0.0
000170 00 00 00 00 00 00 00 00 00 00 00 00 00 00 00 00
       0.0 0.0 0.0 0.0
000180 00 00 00 00 00 00 00 00 00 00 00 00 00 00 00 00
       0.0 0.0 0.0 0.0
000190 00 00 00 00 00 00 00 00 00 00 00 00 00 00 00 00
       0.0 0.0 0.0 0.0
0001a0 00 00 00 00 00 00 00 00 00 00 00 00 00 00 00 00
       0.0 0.0 0.0 0.0
0001b0 00 00 00 00 00 00 00 00 00 00 00 00 00 00 00 00
       0.0 0.0 0.0 0.0
0001c0 00 00 00 00 00 00 00 00 00 00 00 00 00 00 00 00
       0.0 0.0 0.0 0.0
0001d0 00 00 00 00 00 00 00 00 00 00 00 00 00 00 00 00
       0.0 0.0 0.0 0.0
0001e0 00 00 00 00 00 00 00 00 00 00 00 00 00 00 00 00
       0.0 0.0 0.0 0.0
0001f0 00 00 00 00 00 00 00 00 00 00 00 00 00 00 00 00
       0.0 0.0 0.0 0.0

network_body.observation_encoder.rsa.fc_q.bias f4 [128]
000000 80 1d 84 b8 b5 ca 1f 3a 4e a1 eb 39 1f 1f 03 3a
       -6.299745e-05 0.00060955744 0.00044942874 0.0005001891
000010 36 80 b4 39 0b 1b a7 ba 4b c4 b1 b9 a4 bd 41 ba
       0.000344278 -0.0012749148 -0.0003390632 -0.00073906244
000020 2e 0b 44 ba 9e c4 3f 3b fe 0c 63 39 3b 8b 4e ba
       -0.00074784725 0.002926148 0.00021653247 -0.00078790233
000030 3b 19 29 ba df af f0 b9 6f 09 ba 39 21 72 12 3a
       -0.0006450598 -0.000459074 0.00035483713 0.00055864645
000040 63 54 cc 38 05 99 0b 3a 0f d8 2a 3a 02 c8 af ba
       9.743196e-05 0.0005325231 0.00065171806 -0.0013411047
000050 21 50 90 ba ae ba ff b9 c4 65 1f ba 6e 72 34 3a
       -0.0011010208 -0.00048776477 -0.0006080533 0.00068835064
000060 d0 b5 67 b9 08 e0 d4 39 44 6b 4b b9 6d bb 42 39
       -0.00022097607 0.00040602707 -0.00019399548 0.00018571103
000070 43 25 71 b9 7e ab 1c ba 91 c0 b3 3a c7 52 50 3a
       -0.00022997432 -0.0005976482 0.0013714005 0.0007946905
000080 93 c2 b5 b8 16 e2 88 ba 39 1b 17 3a ef 15 8a b9
       -8.666995e-05 -0.0010443355 0.00057642494 -0.00026337753
000090 63 54 34 ba f7 9b f7 b9 da 4f 84 b9 6b 68 f6 39
       -0.00068790297 -0.00047227714 -0.00025236496 0.00046998574
0000a0 a8 61 97 b9 6f 4a e2 38 8c 7e 30 38 a6 60 7e 38
       -0.00028873724 0.00010790384 4.2079526e-05 6.064833e-05
0000b0 b5 c7 5f 39 09 a6 ad 39 cc 5e fa 37 e8 4b 5b ba
       0.00021341334 0.00033120837 2.9846466e-05 -0.0008365498
0000c0 f2 04 83 38 0c 00 fe 38 92 de 7a b8 b9 bc 2a ba
       6.247488e-05 0.000121116725 -5.981193e-05 -0.0006513107
0000d0 c7 1a 9c 39 d9 2a f2 39 97 0d 84 ba 4e 89 91 38
       0.0002977459 0.0004618976 -0.0010074851 6.939714e-05
0000e0 31 ac 3a 39 90 cd 84 39 84 06 9d 39 98 34 30 39
       0.00017802489 0.00025330158 0.00029950228 0.0001680426
0000f0 82 ca 94 39 4d 98 9d b9 bf 5c d8 ba 6b 96 a2 39
       0.0002837964 -0.00030058846 -0.0016507133 0.00031011118
000100 fb 76 87 b8 e9 92 92 39 0d 7e 69 bb aa 63 27 ba
       -6.4594635e-05 0.00027956747 -0.003562811 -0.00063853955
000110 0c 6e 59 b9 ca c4 30 3a 0a 6c 9e b9 ea e0 b8 b9
       -0.00020735728 0.0006743191 -0.00030216604 -0.0003526279
000120 9e 12 4f b9 e4 b6 10 3b 5b 70 65 39 76 95 24 ba
       -0.00019747994 0.0022081668 0.00021880998 -0.0006278375
000130 41 a8 4d 3a 37 e9 cd 39 01 32 d7 b9 41 8c 61 3a
       0.0007845201 0.00039274406 -0.0004104525 0.00086039683
000140 c2 19 61 ba 2b f9 15 b9 d7 f1 c5 b9 bc 53 42 ba
       -0.0008586907 -0.0001430257 -0.00037754953 -0.000741299
000150 13 a2 23 39 09 fb 71 3a a2 5d 2d 39 1c 05 49 3a
       0.00015605269 0.00092308276 0.00016533447 0.0007668303
000160 32 0c 8f ba 1e b0 33 38 9c e1 57 ba da c4 39 3a
       -0.0010913669 4.2840948e-05 -0.00082352175 0.0007086523
000170 b1 cd 93 3a b4 e1 27 3b 10 88 2a ba ae 08 34 38
       0.0011276511 0.0025616707 -0.000650526 4.2923428e-05
000180 2b de 00 bb 3d 52 51 3b 8e 8b 4d 3b 65 ed 4a 3a
       -0.0019663672 0.0031939887 0.0031363699 0.0007741063
000190 93 43 4e bb 73 76 23 3b c6 4a 15 bb 84 ed 45 3b
       -0.0031473383 0.0024942427 -0.0022780164 0.0030201385
0001a0 40 c5 49 3b c1 8b 48 3b e7 89 12 3a bf 27 8d bb
       0.0030787736 0.0030600878 0.0005590007 -0.0043077166
0001b0 a8 70 24 bb cf db 4a bb 47 9e e5 3a 71 0c 1f bb
       -0.0025091562 -0.003095377 0.0017518484 -0.002426889
0001c0 85 b7 4e bb e9 ae a1 ba a1 50 b5 3a 0a b5 38 bb
       -0.0031542492 -0.0012335452 0.0013833233 -0.002818408
0001d0 d4 4e 95 b9 46 67 50 bb 35 47 74 3b a9 bd 13 bb
       -0.00028478226 -0.0031799837 0.0037273888 -0.0022543466
0001e0 73 62 4a 3b e7 ec 49 bb e5 39 89 bb c0 a0 47 3b
       0.0030881434 -0.003081137 -0.00418781 0.0030460805
0001f0 ca a3 df 3a f6 de f9 39 52 f1 b8 3a 7c f9 fa ba
       0.0017062363 0.000476591 0.0014110005 -0.0019147838

network_body.observation_encoder.rsa.fc_k.bias f4 [128]
000000 28 69 85 b3 69 da 05 b4 0a 1d 96 33 ce bb 57 33
       -6.212423e-08 -1.2466047e-07 6.9902015e-08 5.0229396e-08
000010 d7 a1 b2 33 24 9a 3e 33 6e af f0 33 1e ba 06 34
       8.3182094e-08 4.4378012e-08 1.12077814e-07 1.2547432e-07
000020 b2 fb 19 b3 d9 37 85 b4 a5 1b 91 b4 bc f9 ac 33
       -3.5852004e-08 -2.4813815e-07 -2.702847e-07 8.0548006e-08
000030 9e 8a f6 b3 51 71 86 b4 a6 75 f0 31 87 98 fd 33
       -1.1480482e-07 -2.5041894e-07 6.9982944e-09 1.1808975e-07
000040 c3 86 99 b3 f0 b6 11 34 a8 98 20 34 07 ae 28 b3
       -7.149131e-08 1.357073e-07 1.4956697e-07 -3.9273825e-08
000050 b2 69 36 34 ae 46 18 34 87 c8 cf b2 aa 30 87 33
       1.6988523e-07 1.4181816e-07 -2.4189161e-08 6.295279e-08
000060 a9 4c 60 33 c0 d4 98 33 44 97 79 32 20 3a 4a b2
       5.2223786e-08 7.1167506e-08 1.4528101e-08 -1.1771164e-08
000070 14 09 89 b3 0f 27 29 b3 4b 0d 07 b4 63 0e 53 30
       -6.381211e-08 -3.9383902e-08 -1.2577691e-07 7.67818e-10
000080 b0 a1 09 35 d4 6b e4 b5 6c 1d 0f b4 b4 e5 c0 33
       5.1271763e-07 -1.7018706e-06 -1.3328616e-07 8.9824795e-08
000090 14 ac 16 35 ea 5c 29 34 ec ed 51 b4 d4 88 39 34
       5.612976e-07 1.5773153e-07 -1.9551197e-07 1.7279245e-07
0000a0 64 19 ab b4 db 05 b4 b3 ef 47 96 34 3b 61 84 b4
       -3.1869706e-07 -8.382968e-08 2.7992016e-07 -2.465766e-07
0000b0 d5 f1 4e b2 1d f7 ca b4 8d f0 d3 b4 72 f9 89 b2
       -1.2045764e-08 -3.780523e-07 -3.9476836e-07 -1.6062334e-08
0000c0 15 2c 02 35 d4 5f 05 35 18 cf e7 b4 b2 6a 20 b4
       4.849292e-07 4.968581e-07 -4.3177783e-07 -1.4939977e-07
0000d0 75 e2 84 34 7b 69 99 b4 e0 a4 98 b4 45 d3 36 b5
       2.4751685e-07 -2.8575218e-07 -2.843217e-07 -6.810772e-07
0000e0 58 9d f0 34 e5 f6 d6 b3 c0 61 14 35 6b 8a 74 b3
       4.4817966e-07 -1.00100614e-07 5.527654e-07 -5.6936567e-08
0000f0 20 cf d2 34 f8 ac 70 34 aa c3 1d 34 70 07 22 35
       3.926625e-07 2.2414667e-07 1.4692947e-07 6.0360526e-07
000100 1a 86 49 34 7d 32 dd 34 2f 1d ac b3 22 1d f2 33
       1.876837e-07 4.1201193e-07 -8.0146826e-08 1.12743024e-07
000110 21 9d 85 34 90 db 64 b4 d5 70 14 b3 8c b0 98 b3
       2.4887507e-07 -2.1314031e-07 -3.4561555e-08 -7.110165e-08
000120 12 fc 00 35 a4 ac 8b 33 c2 35 d5 b4 96 93 6f 34
       4.8050526e-07 6.504095e-08 -3.9713456e-07 2.2312301e-07
000130 cd a5 4b 34 48 5a 01 34 d1 bf 7e 33 0c 32 c9 32
       1.8966166e-07 1.2046905e-07 5.931344e-08 2.3422238e-08
000140 17 e1 dd 33 c8 ee 82 34 cb 8d cf 33 fb 5a 2c 34
       1.0332058e-07 2.4388123e-07 9.6649806e-08 1.6051847e-07
000150 d6 2a ed 33 e3 a7 0a 35 a7 5c d5 34 a6 a8 9c 34
       1.1043964e-07 5.1653313e-07 3.9741755e-07 2.9179972e-07
000160 47 48 8d b3 ad d7 2a 35 c1 73 28 34 bd 5a 72 34
       -6.578971e-08 6.3643785e-07 1.568833e-07 2.2571017e-07
000170 82 1c ac 33 a2 cd 02 b4 61 4b 98 b4 6d 65 d4 32
       8.01456e-08 -1.2182002e-07 -2.8367052e-07 2.4726171e-08
000180 74 93 79 33 f8 8e 2a b3 6c 24 3e b4 64 24 0f b4
       5.8108938e-08 -3.971124e-08 -1.7708379e-07 -1.3331152e-07
000190 eb d0 c6 33 cc 49 85 b3 56 ca 85 b3 37 73 3f b3
       9.2580954e-08 -6.206719e-08 -6.2301e-08 -4.457544e-08
0001a0 ec ad bf b2 f3 da 06 b1 00 e0 82 b2 e5 f9 57 33
       -2.2314417e-08 -1.9624025e-09 -1.5235855e-08 5.0285866e-08
0001b0 e6 05 fc 32 90 2c e1 33 72 81 10 b3 74 09 bc 33
       2.9339343e-08 1.0485485e-07 -3.3645343e-08 8.756152e-08
0001c0 00 63 06 b2 9d a8 65 b3 16 a9 2f b3 7c ab 83 31
       -7.822337e-09 -5.347157e-08 -4.0899145e-08 3.8320973e-09
0001d0 af 02 ad b3 2f da 93 33 fb b0 a9 b3 47 46 57 33
       -8.0564284e-08 6.884908e-08 -7.901868e-08 5.0122505e-08
0001e0 84 bb a7 b3 7d f5 a1 33 6d 18 db 33 4d 40 f2 b2
       -7.8106524e-08 7.541801e-08 1.0202425e-07 -2.8201748e-08
0001f0 a3 08 ab b2 8f b2 6e b3 ae ca 77 33 4a 4b 17 30
       -1.9910948e-08 -5.557609e-08 5.7693505e-08 5.504047e-10

network_body.observation_encoder.rsa.fc_v.bias f4 [128]
000000 d3 40 3e 3b be cf f8 bb f3 01 23 bb bc 9d 08 bc
       0.0029030337 -0.007593124 -0.0024872988 -0.008338388
000010 8f db 03 bc 5d 11 04 3c 6e 11 04 bb 1b 2b c9 bb
       -0.008047952 0.00806078 -0.002015199 -0.006139172
000020 50 1f b8 bb 06 79 80 bb 95 ba b9 3b c6 ec fb 39
       -0.005618967 -0.003920677 0.0056679943 0.0004805086
000030 3f 08 d3 ba 14 54 90 bb 0f a9 f2 3b 92 4d 0d bc
       -0.001610048 -0.004404554 0.0074054073 -0.008624451
000040 f7 1e 1b bc f8 9b 2b bb a1 c6 1d 3c 1a 43 eb 3b
       -0.009467832 -0.0026185494 0.009629876 0.00717963
000050 c8 31 1b 3c c5 d8 fe bb dd 2b 8b 3b e1 02 a8 bb
       0.009472318 -0.007777306 0.0042471723 -0.0051272963
000060 20 94 21 3b 7b 47 da 3b a5 9e eb bb 47 e1 15 3c
       0.002465494 0.006661353 -0.0071905428 0.009147949
000070 21 3e 89 3b 02 ef ce 3b 06 48 c7 bb 70 e2 85 3b
       0.0041883145 0.006315113 -0.006081584 0.0040858313
000080 6e b9 07 bc e0 38 d5 bb c2 dd 73 3b 76 c9 40 3c
       -0.008283956 -0.006507024 0.0037211035 0.011766782
000090 82 4c 0e bc dd 24 db bb b4 74 43 bb 1d f0 1b 3c
       -0.008685233 -0.006687744 -0.00298242 0.009517697
0000a0 0b e3 ef 3b ea b3 07 3b b2 de 8e 3a a2 4e 76 bb
       0.007320767 0.0020706602 0.0010900109 -0.003758349
0000b0 69 13 0b 3c 42 f3 0c 3c 45 e6 56 3a 23 58 1d 3c
       0.008488514 0.008602919 0.0008197765 0.009603533
0000c0 3b 6f 21 bc 89 3d 80 3a 05 7a 7f 3a 75 51 13 bc
       -0.00985318 0.0009783964 0.00097456604 -0.008991589
0000d0 0f a4 83 b9 26 81 94 bb 74 f6 41 3a 7e b5 bb bb
       -0.000251085 -0.0045319973 0.000739909 -0.0057284227
0000e0 21 82 17 3c a8 2b ea bb b7 70 cb 3b 5e 04 2b 3b
       0.009247334 -0.0071463175 0.006208505 0.0026095132
0000f0 81 ef a2 bb c4 db 92 bb e1 dc 60 3a 13 09 df bb
       -0.0049723987 -0.0044817645 0.00085778354 -0.0068065017
000100 50 dc 58 b9 80 17 24 b9 e8 87 f5 3b 52 33 06 bc
       -0.00020681438 -0.00015649013 0.007493008 -0.008190947
000110 d2 b5 23 bb cc ee 44 3c e9 ce cb 3b 5b 34 26 bc
       -0.00249802 0.012019824 0.006219734 -0.010144318
000120 7f e7 f3 3b f8 4b 03 3c 89 b5 b8 3b 34 77 56 3a
       0.007443368 0.008013718 0.005636875 0.0008181215
000130 79 21 1d bb a0 76 20 bc 29 d8 45 ba f0 a0 ec bb
       -0.002397625 -0.009793907 -0.0007547164 -0.0072213337
000140 02 f7 1e 3b 4f 74 fa bb 1e d5 17 39 95 73 01 bc
       0.0024256115 -0.0076432596 0.00014479875 -0.007901092
000150 06 b9 11 bb a8 19 b4 3b 61 6d 37 bc 8a 01 1b 3c
       -0.0022235527 0.0054962225 -0.011195512 0.009460816
000160 00 10 0c bc d1 74 95 bb 92 e0 6c bb 04 a2 e5 ba
       -0.008548737 -0.0045610447 -0.0036144597 -0.0017519598
000170 94 78 96 3a 41 e7 19 3c 3d 15 37 bc da 6e 10 bb
       0.0011480027 0.009393514 -0.011174497 -0.002203873
000180 0a 98 08 3c 71 15 8a 3b 98 43 c2 bb 39 6b 8d 3b
       0.00833703 0.004213982 -0.005928468 0.0043157605
000190 94 97 28 3c c8 45 55 bb 4b f5 c1 bb 90 b3 17 bc
       0.010290045 -0.0032542814 -0.005919134 -0.00925912
0001a0 3d 7a 28 bc 2b 9d 41 3b f0 bf 51 bb 77 77 a6 3b
       -0.01028305 0.0029543142 -0.0032005273 0.0050801593
0001b0 bf ff d4 bb 65 45 ed ba 3d c3 14 bc b6 11 9c 3a
       -0.006500214 -0.0018102346 -0.009079752 0.0011907134
0001c0 7f 72 96 bb ef 15 2a 3b d0 b6 18 bc 88 48 3a 3c
       -0.0045912857 0.0025953015 -0.00932093 0.011369832
0001d0 a8 f2 ea 3b 99 e6 fb 3b 8f 76 36 bb c9 42 c2 b9
       0.00717004 0.0076874015 -0.0027841663 -0.00037052322
0001e0 83 4e d6 3b 34 9a a9 3b 7e 6b b2 bb 04 0d f9 3b
       0.006540121 0.005175853 -0.005444943 0.0076004285
0001f0 f2 4c d8 3b db ed a5 3b 0d 31 a2 bb 93 9d 3c 3a
       0.0066009695 0.005063755 -0.004949695 0.0007195111

network_body.observation_encoder.rsa.fc_out.bias f4 [128]
000000 0a 01 dd bb 94 42 76 3b 3c 50 96 3b bf 63 a4 3b
       -0.0067445086 0.0037576305 0.0045872014 0.0050167735
000010 36 e1 02 bb ae 45 1b ba 75 73 03 3b 42 e8 d3 3a
       -0.0019970662 -0.0005923164 0.0020057831 0.0016167241
000020 fc 70 05 3b aa da dd b9 b5 27 fa ba 98 38 80 39
       0.0020361533 -0.00042315322 -0.001908532 0.00024456228
000030 90 1c ac 3a ce fe 61 3b b4 3d e3 ba f3 41 84 3b
       0.0013131071 0.003448415 -0.0017337115 0.004036182
000040 60 66 78 3b 29 35 c5 ba e2 39 4c bb 28 60 c2 3b
       0.0037902817 -0.001504575 -0.003116243 0.005931873
000050 10 63 c7 3b 5d 2d bd b9 11 03 99 b9 98 27 3f bb
       0.006084807 -0.00036082687 -0.0002918472 -0.0029167887
000060 43 b0 4d bb 66 fc 7b 39 a0 fb a5 bb a1 de ce bb
       -0.0031385578 0.00024031251 -0.0050653964 -0.0063131605
000070 2f 2e 0e 3c 9c 43 b2 b9 97 f0 e2 3b 15 03 cb 3b
       0.008678003 -0.0003400118 0.006925653 0.0061954358
000080 17 b0 10 bc 5f a6 ae ba 97 5f e9 b9 d2 36 32 36
       -0.008831046 -0.0013324729 -0.00044512443 2.6555977e-06
000090 90 91 e1 ba de 96 4d 3b 49 28 c5 bb 16 d1 89 3b
       -0.0017209519 0.0031370441 -0.0060167653 0.004205833
0000a0 91 3f 8c bb 49 b3 9f bb 27 c4 ad 3b 06 d1 9a bb
       -0.0042800386 -0.0048736674 0.005302924 -0.0047246246
0000b0 95 82 3f bb 00 b7 01 3c 93 88 b0 bb 7b 90 8f 3a
       -0.002922212 0.007917166 -0.0053873747 0.0010953093
0000c0 76 05 92 3b 30 77 64 ba 0e 0b ce bb 20 fc bd bb
       0.0044562174 -0.000871527 -0.006287939 -0.005797878
0000d0 38 a4 b3 ba 52 cf c5 bb 7d 0e be bb 97 54 fb bb
       -0.0013705557 -0.0060366774 -0.005800067 -0.007669996
0000e0 b6 38 a1 39 ce 18 08 3b 5e 7d 06 bb b8 78 94 3b
       0.00030750566 0.0020766738 -0.0020521502 0.0045309924
0000f0 d9 01 bb bb 4f 1e 63 3a f0 f4 f9 bb 61 d6 b1 3b
       -0.0057070074 0.0008663879 -0.007628076 0.0054271673
000100 dc 29 9b 3b 5a 1f a5 3b 99 a1 8f b9 7d e7 17 3c
       0.0047352146 0.005039138 -0.00027395485 0.0092715
000110 72 f1 82 bb 4f e2 42 ba b3 c6 1c b9 a7 89 e2 bb
       -0.0039960677 -0.00074342353 -0.0001495134 -0.006913382
000120 a3 98 9e ba dc 49 84 bb af b7 f8 ba ec ef 83 3b
       -0.0012099933 -0.004037125 -0.001897564 0.0040264037
000130 5e 71 f6 3b da 5a 0a bc 2d 38 b1 3b b5 d7 7f 3a
       0.0075208386 -0.008444512 0.005408308 0.0009759621
000140 60 9f 18 38 17 10 08 3b 93 25 b6 bb e7 f9 8b 3b
       3.6388054e-05 0.0020761543 -0.0055586784 0.004271734
000150 38 1e 3b 3b a0 97 bb bb 69 e9 bf ba 76 de 16 3b
       0.0028551947 -0.005724862 -0.0014641705 0.002302078
000160 9f 34 cd 3b 52 2d bc 3b 11 4b e3 bb f9 23 9f 3a
       0.0062623764 0.0057427073 -0.006936439 0.0012141458
000170 3b 99 02 3c f7 2a bd 3b 33 aa 23 3c ee d6 49 3b
       0.007971103 0.005772944 0.009989309 0.0030798274
000180 06 76 8c 3b 80 99 3c bb cd 05 f3 ba 45 07 e9 bb
       0.0042865304 -0.0028778017 -0.0018541157 -0.0071114623
000190 d1 fe cf 3a c7 7d 0c bc 5a 75 56 bb 2c 6b a5 bb
       0.0015868788 -0.0085749095 -0.0032723756 -0.0050481763
0001a0 4c ac ed bb a0 07 9f bb 18 0f ea 3b a6 30 b3 3b
       -0.0072532054 -0.004853204 0.0071429126 0.005468446
0001b0 dd 12 f4 3b 91 7b 60 3b 9f 2b 64 ba 3d 94 91 bb
       0.0074485377 0.0034253339 -0.000870401 -0.00444272
0001c0 3d f9 b5 bb 3a 84 85 bb ac 1c 06 bb 33 8b 8d 3b
       -0.005553393 -0.0040746005 -0.0020463867 0.0043195724
0001d0 ce 79 a1 bb 4f 22 e8 b9 fc bf fb 3a ce 73 8a bb
       -0.0049278503 -0.0004427605 0.0019206996 -0.004225231
0001e0 d2 50 e4 bb e3 d4 d5 3b ee 1c bc bb 6b d0 34 bb
       -0.0069676423 0.006525622 -0.0057407534 -0.0027590047
0001f0 bf ef a3 bb 3e 8d 0f 3c a5 a4 a0 bb 6a 1a 36 3c
       -0.005002945 0.008761702 -0.0049024397 0.011114696

network_body.observation_encoder.x_self_encoder.seq_layers.0.weight f4 [128, 4]
000000 06 50 d5 3c a6 f2 9f 3c 53 4c ff 3b 1e db 10 bd
       0.026039135 0.019524883 0.007791081 -0.035365216
000010 f9 8b 5d 3d aa 92 be bc 2f 2a 99 3c 48 01 2b 3d
       0.054088566 -0.023263294 0.018696873 0.04174927
000020 de 56 95 bc 76 fe 1b bd f5 60 02 3d 94 87 3a 3d
       -0.018229898 -0.03808447 0.031830747 0.045539454
000030 05 00 b0 3c 06 46 31 3d d1 7d ed bb 9a aa 2e 3c
       0.021484384 0.04327967 -0.0072476645 0.010660792
000040 83 8f f2 b8 71 e5 02 bd c2 01 22 3d 36 73 66 bc
       -0.000115661904 -0.031957094 0.039552458 -0.014065554
000050 8e ba 81 bc ed 16 11 3c 77 7e 77 3c 61 7e fa 3b
       -0.015836027 0.008855564 0.015105835 0.00764446
000060 fb 2b 14 bc a1 c8 55 bc 17 e2 22 bd 16 92 6f bc
       -0.009043689 -0.013048322 -0.039766397 -0.014622232
000070 51 7b 80 3d d4 cd 63 3c 48 a3 e4 3c 2a 5e 38 bd
       0.06273521 0.013904054 0.02790989 -0.045011677
000080 ea a1 59 3c 74 db 7e 3d ae c8 1e 3c d3 ed da 3c
       0.013283232 0.062221006 0.0096914 0.026724732
000090 a7 6d 06 bd 4f 32 b9 bc 96 55 bd bc 5d 18 58 bc
       -0.032819416 -0.022606997 -0.0231121 -0.013189402
0000a0 66 a8 1e 3d e4 9d 15 bb a9 a8 ab bc 85 4b d6 3c
       0.038734816 -0.0022829706 -0.020954447 0.026159057
0000b0 96 07 16 bd db 45 3b bd 37 e0 9a bc e7 1e 98 ba
       -0.03662833 -0.045720916 -0.018905742 -0.0011605889
0000c0 2e c9 fb 3c 06 b1 0c bd 66 7d eb 3c 98 9f 42 3d
       0.030735578 -0.03434851 0.028746318 0.04751548
0000d0 1b 28 1f bb 74 e0 6e 3d ec 41 b2 bc 1b 2f 75 bc
       -0.002428538 0.058319524 -0.02175995 -0.014964844
0000e0 46 ea 4c 3d 54 57 96 3b dc 32 74 3d 11 4c 3c bb
       0.050028108 0.004588047 0.059618816 -0.0028731863
0000f0 93 b5 87 bc 0b 6b 16 3c 1a ca 31 bd fa cc 1f bd
       -0.016566074 0.0091807945 -0.04340563 -0.03901384
000100 ad 2a f5 3c 59 7b 41 bc 56 2d 19 3d 03 a4 3a bb
       0.029927576 -0.0118091935 0.03739675 -0.0028479106
000110 06 41 44 3a 4a 00 88 bb 50 7b e2 bb 21 fa 0f 3c
       0.0007486496 -0.004150425 -0.0069116727 0.008787663
000120 5e 5e 0f 3d 06 1c af bd 7e 15 2c 3c 43 c3 52 3c
       0.035002105 -0.08550267 0.010503171 0.012863937
000130 57 39 04 3d 6f b7 0f bd 55 58 95 bd b4 92 02 3d
       0.032281246 -0.035087045 -0.072922386 0.03187819
000140 df 85 3b 3d 0b 24 85 3c 8a d2 be 3c cd aa 08 bd
       0.045781966 0.016252538 0.023293752 -0.033366013
000150 7f fb af bb f4 d7 6c 3d 93 b8 06 3d a8 b9 bc bb
       -0.005370557 0.057823136 0.032890867 -0.0057594366
000160 0c cb d6 3d 4d f4 7c 3c 88 0f e3 bc ab 44 de bc
       0.10487947 0.015439105 -0.027717367 -0.027132353
000170 16 9d 05 bd 78 4d c9 3c f7 1b bf bb 4f 66 d7 3c
       -0.032620512 0.024573073 -0.005832191 0.026293902
000180 3d 83 2c 3d fc 13 4c 3c bf 55 b8 3d ad 1c 3d 3d
       0.042117346 0.0124559365 0.0900073 0.046169925
000190 b6 24 5d 3c 6e 6e 8d 3b 6b 78 35 3d 33 15 3b 3c
       0.013497522 0.0043161428 0.044304293 0.0114186285
0001a0 bc ba 47 bd 79 2f 86 3b 97 45 5b 3c bd 87 33 3d
       -0.04876207 0.0040950147 0.013383291 0.043830622
0001b0 15 38 4d bd aa d5 d4 ba 1e ce c3 bc 82 9c 29 3c
       -0.050102312 -0.0016237993 -0.023901995 0.010352256
0001c0 35 0a 28 bd d9 a8 02 bc 0a af 1c bd b1 a8 b0 ba
       -0.04102536 -0.007974827 -0.038252868 -0.0013478008
0001d0 8c 13 a1 bc e6 f6 67 bd 59 df 7d 3c 52 73 98 3d
       -0.019662641 -0.056631945 0.015495145 0.074438706
0001e0 69 1b 88 3c 8c 2a 45 3c 0d 1c b8 3b 40 56 df 3b
       0.016614633 0.01203407 0.0056185783 0.0068157017
0001f0 6f 7c 07 bd e5 f0 fd 3c 15 e2 21 3c 05 54 2e 3c
       -0.033077653 0.030998657 0.009880562 0.010640149
000200 76 57 38 bd 1f 4b 66 bd f9 48 08 bc 15 50 87 bc
       -0.045005284 -0.056223985 -0.008318179 -0.016517678
000210 c9 8f 88 bd b2 80 8c bc 30 06 52 bd 5a d3 b1 3d
       -0.0666805 -0.01715121 -0.051275432 0.0868289
000220 83 e4 17 bd 80 22 28 bc b1 64 07 3c e1 a7 3e bd
       -0.03708316 -0.010262132 0.008263753 -0.04654682
000230 aa 59 81 bc 58 e9 67 3b ff 20 0c 3d 15 c9 76 bc
       -0.015789825 0.0035386886 0.034211155 -0.01506259
000240 66 a2 d6 bc 5e 80 25 3c 17 b4 89 3d 42 86 2e 3b
       -0.026200484 0.010101406 0.067238025 0.0026630317
000250 b3 1a 17 bd 56 ce c4 3c e8 3f bb bc c7 80 82 3b
       -0.036890697 0.02402417 -0.022857621 0.0039826366
000260 13 9b 9f 3d 72 1d ba bc 8b 85 15 bd 2e 83 d3 bc
       0.0779325 -0.022719119 -0.03650431 -0.025819387
000270 51 0a 19 bd bc 80 1b bd 95 0a 44 bd a5 4c 9b 3d
       -0.037363354 -0.037964568 -0.047861654 0.07582978
000280 e4 c1 a4 b9 cd c1 8f 3c 54 04 20 bd 7f e8 cd 3c
       -0.00031424977 0.017548466 -0.039066628 0.025135277
000290 58 68 b9 3a 7e 44 79 3c 8b dc db 3c f3 33 3d 3d
       0.0014145477 0.015214084 0.026838562 0.04619212
0002a0 06 46 ab 3c fc e9 41 bd 60 08 99 bc 54 c5 77 3a
       0.020907413 -0.047342286 -0.018680751 0.00094517064
0002b0 6a 95 d3 bc b0 52 b0 3c 17 01 1d bd 22 1b 96 bc
       -0.025828082 0.021523803 -0.038331117 -0.018323485
0002c0 d2 83 df 3b d5 2c 8d 3c 07 36 a8 3b fc ac 01 bd
       0.006821134 0.017233292 0.0051333937 -0.03165911
0002d0 91 d9 23 3d de 44 22 3c cd c4 f1 bb 6e 02 49 3c
       0.04000241 0.0099041145 -0.007378197 0.012268646
0002e0 2b 0f 9a bc 40 67 49 bc 84 b1 77 bc e7 df 39 bd
       -0.01880606 -0.012292683 -0.015118007 -0.045379546
0002f0 44 ef 68 bb ba 15 45 3c 6f 0d 10 3b f9 65 c3 bd
       -0.0035543004 0.012029106 0.0021980663 -0.09540934
000300 13 72 2c 3c ca 3c 23 bc 69 1f 8d bc 46 aa 86 bc
       0.010525244 -0.009963224 -0.017226892 -0.016438615
000310 11 3c 9f 3c cd 5d 15 3d 72 82 b3 3c 11 7a 0f bd
       0.019437822 0.03646641 0.021912787 -0.03502852
000320 1e 51 48 bc 98 95 57 3d bc 01 5e 3c 3e cc d3 3b
       -0.012226371 0.052632898 0.013550218 0.0064635566
000330 8c f1 0d bd 19 68 4e 3c 38 c7 bb 3c 94 a0 b3 bd
       -0.034654185 0.012598061 0.022922143 -0.08770862
000340 9b e4 65 3d 24 71 61 37 2c b0 a9 bc fb 7b cb 3c
       0.05612622 1.3437388e-05 -0.020713888 0.024839392
000350 e4 2e 00 3c 6c 6f f8 bc 97 2b b3 3d 4d fe 91 bc
       0.00782368 -0.030326568 0.087485485 -0.017821455
000360 c9 84 8f 3c 67 3f 05 3c ae 80 d8 bc ea 8a 97 bc
       0.017519372 0.008132792 -0.026428547 -0.018498857
000370 1e f9 99 bc 23 ca 8b 3c 2e d2 9a ba b9 cd 64 bd
       -0.018795546 0.01706416 -0.0011811906 -0.055860255
000380 ba fe 21 3d 1b e7 35 3d cb 69 11 bd b0 0d 4e 3c
       0.039549567 0.044409852 -0.035501283 0.012576506
000390 41 84 9f 3b 8d 07 b4 ba b9 51 88 3d 9e 15 31 3b
       0.004868061 -0.001373516 0.06656212 0.0027020941
0003a0 c1 2b 47 ba 29 fd 9d bc d2 d2 d9 36 25 38 4a bd
       -0.00075977674 -0.019285755 6.4916467e-06 -0.04936995
0003b0 9d a4 95 bc 52 4b 76 bc cc 10 11 3d fc 50 c4 3c
       -0.01826697 -0.015032606 0.03541641 0.023964398
0003c0 a2 8b 52 bd 57 49 79 bd bb 3e 01 bb 44 86 d9 3c
       -0.051402695 -0.060860958 -0.0019721228 0.02655328
0003d0 8a 3e 3d 3c c6 6f 25 bd 00 46 3a bd c8 35 af 3c
       0.011550555 -0.0403898 -0.045476913 0.02138795
0003e0 3a ae 35 3c 64 8d 7c bc 69 9c 38 3c 35 4b 30 3d
       0.011088902 -0.0154145695 0.01126776 0.043040473
0003f0 f3 64 76 bd 07 77 3a 3d 06 a5 87 bd 7f 12 4d bd
       -0.060154866 0.04552367 -0.066232726 -0.050066467

network_body.observation_encoder.x_self_encoder.seq_layers.0.bias f4 [128]
000000 24 80 44 3a fd fb 48 3a c2 36 05 ba 64 32 05 3b
       0.0007495901 0.0007666944 -0.0005081707 0.0020324225
000010 bc 5b f3 ba f4 37 ae 3a 75 80 a4 38 62 4b b7 3a
       -0.0018566768 0.0013291822 7.8440564e-05 0.0013984258
000020 f0 34 1a 39 fa e8 6e 3a bc 85 12 bb 5c 27 21 b9
       0.00014706305 0.00091136957 -0.0022357544 -0.00015368819
000030 92 31 db 3a 06 9d 94 bb 08 20 8f 3b 30 d9 90 3b
       0.0016723147 -0.00453532 0.004367832 0.004420422
000040 62 f6 0c bb 76 81 34 ba e9 77 02 bb 3f 12 e0 bb
       -0.002150916 -0.0006885746 -0.0019907898 -0.0068381126
000050 bd f0 52 3b d7 39 e6 3b ea f0 28 bb cf 60 dc ba
       0.0032186948 0.007025938 -0.0025778362 -0.0016813519
000060 3b 06 60 3b 55 8d 53 3b 8f 07 9e 3b ab 99 63 bb
       0.00341834 0.0032280285 0.0048226784 -0.0034729044
000070 27 93 d6 ba ab 0c 45 bb 91 46 4b 3b 8a 39 8c 3a
       -0.0016370759 -0.0030067365 0.0031017403 0.00106983
000080 d7 fe 89 ba 6e 0f 34 ba f2 ed a9 3b b5 32 f6 ba
       -0.0010528219 -0.0006868754 0.005185836 -0.0018783422
000090 e6 48 6c 3b 42 ba df bb 0d 20 74 bb f8 41 85 ba
       0.0036054193 -0.0068276236 -0.003725055 -0.0010166755
0000a0 d9 db 27 bb 8a 03 25 3b 82 4a 41 3b 85 b0 e3 ba
       -0.0025613217 0.0025179111 0.0029493873 -0.0017371333
0000b0 24 ef 6f bb bf c8 fa 3a fe a1 ac 39 9f fd 0e bb
       -0.0036611045 0.0019133313 0.0003292709 -0.002181865
0000c0 db 00 cc 39 5f cf 0f 3a c5 83 13 3b ef 5c 00 bc
       0.0003891055 0.0005485918 0.002250896 -0.007834657
0000d0 1c bb 2e 3b 7d ab 5f 3a d5 d4 23 3a 66 87 92 bb
       0.002666182 0.00085323286 0.0006249671 -0.004471707
0000e0 4e 55 3a b8 28 22 2a 3b c5 5f c7 39 d9 0f 0d ba
       -4.4425302e-05 0.00259603 0.00038027592 -0.00053810846
0000f0 6c fb d5 ba ba d5 20 bb 8f b6 ee ba ec 53 0c 3b
       -0.001632554 -0.0024541453 -0.0018212366 0.0021412326
000100 5d f0 5d 3b 07 64 5c 3b c7 b5 27 3b 7a 8b 27 ba
       0.0033865192 0.0033628957 0.0025590525 -0.0006391328
000110 ec c5 9b 3a a8 4b 58 bb ca 1c 37 bb 92 dc 4b 3b
       0.0011884547 -0.003300408 -0.0027940744 0.0031106812
000120 74 80 8a 3a 44 56 b3 bb 0f ab 63 3b a8 c2 77 bb
       0.0010566846 -0.00547293 0.003473941 -0.0037805233
000130 c5 1e 22 3a 4e a6 56 3a 87 3b 70 bb 8f 0f d0 3a
       0.00061843946 0.00081882335 -0.0036656575 0.0015873777
000140 ef 98 be 3a 7d 13 c1 ba 3f 8a 5a bb fa d1 52 3b
       0.0014541427 -0.0014730539 -0.0033346561 0.0032168613
000150 95 4b 83 ba 03 99 90 3a 22 b9 82 ba 29 06 15 bb
       -0.0010017032 0.0011031929 -0.0009973387 -0.0022739267
000160 9a c0 ed ba b8 2e f0 3b f0 f0 8c 3b f2 72 5d 3b
       -0.0018139065 0.007329788 0.004301183 0.0033790437
000170 0a 9e c5 ba 96 5e 4a 3b 4e 25 11 bb 66 9f 26 ba
       -0.0015077007 0.0030879132 -0.002214748 -0.00063561497
000180 c8 e5 85 bb fe 92 98 3a 91 7f 8b ba 8a 7c 46 3b
       -0.00408623 0.0011640487 -0.0010642876 0.0030286633
000190 75 a9 83 bb e2 a8 db ba 47 eb 94 bb b2 ef 80 3b
       -0.0040180036 -0.0016758705 -0.004544649 0.003934824
0001a0 44 fe 19 bb 8f e4 5a bb c9 0a a0 3b cf c5 8c bb
       -0.0023497501 -0.0033400392 0.004884098 -0.0042960416
0001b0 9c f0 2f ba 10 82 3b bb fc ca 39 3a 13 b4 21 bb
       -0.0006711574 -0.002861146 0.0007087437 -0.0024673983
0001c0 c2 32 dd ba 22 dc 0c 39 35 48 05 3b e9 6f 41 3b
       -0.0016876089 0.00013433446 0.0020337228 0.0029516167
0001d0 2d 48 0a ba 07 7e 17 bb 79 72 40 b9 08 fc 6c bb
       -0.0005275037 -0.002311589 -0.00018353191 -0.0036160965
0001e0 f6 96 6e bb b0 a0 56 3a 9e 0a cd ba 40 11 04 3b
       -0.0036405898 0.00081873965 -0.0015643423 0.0020151883
0001f0 7c 63 c6 3b 80 4f 5a 3b 70 bd be bb e8 84 25 b9
       0.00605434 0.0033311546 -0.0058209226 -0.00015785138

network_body._body_endoder.seq_layers.0.weight f4 [128, 132]
000000 2c 13 9d bd 26 61 c3 bd 44 0d 94 3c ff 00 5d bd
       -0.07669672 -0.09540014 0.018072732 -0.053956028
000010 06 44 75 3d c2 dc 6b 3d 00 f8 38 bc 8e 87 b0 3d
       0.059879325 0.057583578 -0.011289597 0.08619605
000020 ff a7 85 bd 8c bd 1f 3d 32 d5 cb bd 5f dd 8a 3d
       -0.06526183 0.038999125 -0.09952773 0.067805044
000030 5a 4d 00 3d aa 44 09 3e 45 7f 6a 3c 33 f6 cf bd
       0.03132377 0.134051 0.01431257 -0.10154381
000040 fe 06 13 3d 78 04 ba 3d a0 b6 86 bd 20 7a ea bb
       0.03589534 0.090828836 -0.06577802 -0.0071556717
000050 f1 d2 a4 3c 15 b4 31 bd 7d 96 78 bd 39 9f 99 3d
       0.020120116 -0.04338463 -0.06069039 0.075010724
000060 00 d6 9c 3d 05 88 3f 3d 31 d9 06 3e bd 65 9c bd
       0.07658005 0.046760578 0.1316879 -0.076365925
000070 03 66 86 bd 3d 5a 19 bd 7c 26 35 3d 6d 87 62 3d
       -0.06562426 -0.037439574 0.044226155 0.055304933
000080 51 fb 5d bd 68 5f 1f be c1 b0 7c bd c0 95 64 3d
       -0.054194752 -0.15563738 -0.061692003 0.055806875
000090 64 b7 be bc 88 ee ae bd a6 10 41 bd ae 15 a8 bd
       -0.023280807 -0.0854159 -0.047135018 -0.0820726
0000a0 e7 ac 19 3e 72 e3 cd bd 97 07 14 be b1 09 13 3e
       0.15007363 -0.100531474 -0.1445602 0.14359166
0000b0 af a3 57 bd 04 4f f4 3c 41 7b 8e 3d ae 87 8b bd
       -0.052646335 0.029822834 0.069571026 -0.06812988
0000c0 f7 a4 9b bb 76 8d f7 3d ab a0 8e bd e1 3c 8c bd
       -0.00474989 0.120875284 -0.06964239 -0.06847549
0000d0 28 49 3e 3d 5a 94 25 be 05 11 ee bc 0f 10 09 3e
       0.046456486 -0.16169873 -0.02906085 0.13385032
0000e0 4b c4 26 be b2 90 ee bd dd 99 a4 3d c5 b5 92 bd
       -0.16285817 -0.11648692 0.080371596 -0.07163576
0000f0 55 27 3e bc 12 d1 ee bd a5 9b 33 3c 61 1c 8e 3d
       -0.011606057 -0.11660971 0.0109624015 0.069390066
000100 cb c7 09 be 15 de 73 bd 94 4a 75 bd ab 48 02 3e
       -0.13455121 -0.059537966 -0.059885576 0.12723033
000110 25 35 bf 3c cc 88 15 be 40 19 a2 3d 32 de 6d 3d
       0.023340771 -0.14602965 0.07914972 0.05807323
000120 ab 33 97 3d bd 6f 6d 3c 15 9c 4e be 68 ac ae bc
       0.07382902 0.0144919725 -0.20176728 -0.021322444
000130 e1 ab b3 3d 04 69 03 bd 1f 86 3f 3c 7f d6 ec bc
       0.08773018 -0.032082573 0.011689692 -0.028910873
000140 72 d6 84 3e b3 4b 35 3d 9d 08 87 3c f9 0b 5f 3d
       0.2594486 0.044261646 0.0164836 0.054454777
000150 a6 8e 88 3c a7 e0 5c 3d 0c a1 1c be 9d e8 cb 3d
       0.016669583 0.053925183 -0.1529581 0.09956477
000160 78 0c 11 3e 26 5d e9 3c 20 60 21 3e 0d 83 b2 bd
       0.14164913 0.0284868 0.15759325 -0.08716402
000170 cb 56 ab bd 3b b7 2d be c5 ee 47 be f2 05 f3 3c
       -0.08366164 -0.16964428 -0.19524677 0.02966592
000180 63 04 8e bd 73 d1 28 3c 78 20 73 bb 22 d6 77 bc
       -0.069344305 0.010303843 -0.003709821 -0.015126737
000190 ca e8 cd bd 47 fc a0 bb e1 fb b1 bc 06 87 36 bc
       -0.100541666 -0.0049128863 -0.02172655 -0.0111405905
0001a0 74 c6 7b bd ae 34 c0 3d d2 a5 d6 bd a1 be e2 3d
       -0.061468557 0.09385048 -0.104808465 0.11071516
0001b0 ea 81 18 be 7d 2e f8 bc a6 f2 d8 3d 61 74 06 3d
       -0.14893308 -0.030295605 0.105931565 0.03282583
0001c0 a7 ad 99 3d b3 e4 79 bd 18 d6 12 bd 63 b2 4b bb
       0.07503825 -0.06100912 -0.035848707 -0.0031081669
0001d0 bf 40 08 3e 9b 7f e1 3d e0 2c 4b 3c 94 66 95 3c
       0.13305949 0.11010667 0.012400836 0.01823739
0001e0 27 61 05 3e a5 1a f0 3d 85 c7 a8 3d 09 1d c1 bd
       0.13025342 0.11723832 0.0824118 -0.09429366
0001f0 35 bc 8a bd 5c ed e2 bd e5 89 1d 3e 7b e2 fa bb
       -0.06774179 -0.11080429 0.15384634 -0.007656393
000200 71 6d 0e be 37 3b f9 3c 20 db d8 bd ef 1b 21 bd
       -0.13908936 0.030423744 -0.1058867 -0.03933328
000210 3b ca 69 bd 96 e3 90 bb 3e 0f 4a 3e 78 65 f6 bd
       -0.057077628 -0.0044216616 0.19732377 -0.120310724
000220 e8 a7 40 3e 08 60 d6 3c ea 80 29 bd fc 7f a1 bc
       0.18814051 0.026168838 -0.041382708 -0.019714348
000230 ef a5 09 3e 79 b7 d6 3d bd 25 01 3d b7 3c ff 3c
       0.13442205 0.104842134 0.03153013 0.03115688
000240 6a 90 14 bd f7 1c 23 3d 9f ff 3c bc 83 6a 2a be
       -0.036270536 0.039822545 -0.011535554 -0.16642193
000250 3b 59 e0 bc 86 fc 03 be 64 dc 67 3c c2 59 92 3c
       -0.027386298 -0.12889299 0.014151666 0.017865065
000260 db f4 2c 3c 15 57 92 bd 8d a4 8d bc bf d2 9b bd
       0.010556425 -0.07145516 -0.017290378 -0.07608556
000270 3f 31 08 bd aa 57 ee 3a af b3 b7 bd aa 7f 8e 3d
       -0.03325009 0.0018184085 -0.08969819 0.06957944
000280 66 35 ac bd 5a 3a 60 3d 3a 6b 18 be c8 48 0d 3d
       -0.084086224 0.05474315 -0.14884654 0.034493238
000290 9a 79 ec bd 62 26 b6 3d 9a ce f1 3c 2c 5b 00 be
       -0.11546631 0.0889404 0.02951746 -0.1253478
0002a0 6a 43 fa 3c 01 cc 04 bd 0d e0 9c bd e2 85 a8 3d
       0.030549724 -0.032421116 -0.07659922 0.08228661
0002b0 2a 90 9b 3c b4 cf 0b 3d 7a fb 72 bd 34 19 a1 bd
       0.018989641 0.034133628 -0.059321858 -0.07866135
0002c0 6d 83 41 bd d0 2e 57 3c 3b 28 44 bd ee 79 ac 3a
       -0.047244478 0.01313372 -0.04788993 0.0013158896
0002d0 43 db ce 3b 6c 31 5a 3d 27 32 f3 bc 79 e6 56 3d
       0.006312759 0.05326979 -0.029687 0.05246589
0002e0 09 32 fa 3d 2c 8b 36 3d 4a 46 09 bc 8d d5 64 3d
       0.12216575 0.04456632 -0.008378575 0.05586772
0002f0 3c 47 09 bc b9 ff b5 3d 24 c1 90 3d 36 27 fe 3d
       -0.0083788 0.08886666 0.07068089 0.12409823
000300 51 d0 89 3d 71 1b 8c bd 6b 4d 26 3e 6a f6 bf bd
       0.06729186 -0.068411715 0.1624047 -0.09373172
000310 49 bc 09 3d 77 e1 bd bb 68 e3 c4 3d 1e 61 5a 3d
       0.03362683 -0.0057947 0.09613687 0.053315274
000320 b4 e9 25 3e 72 a7 73 3d e0 c1 1d bd c3 c8 76 bd
       0.16202432 0.05948586 -0.03851497 -0.060250055
000330 16 d1 c2 bd 2a a7 99 3d 1b 40 ac 3d bc dc b6 bb
       -0.09512536 0.07502587 0.08410665 -0.005580513
000340 2b 21 7d 3d a0 53 65 bd 4b 36 81 bd 88 44 9d bc
       0.06179921 -0.055987954 -0.06309184 -0.019197717
000350 a3 b3 be 3c e9 86 e9 3d f6 ae 8e bc 84 97 99 bd
       0.023279017 0.11402685 -0.017417412 -0.074996024
000360 26 8f 88 bd f3 da b2 bd 13 35 7a bb 88 18 0d 3e
       -0.066679284 -0.087331675 -0.0038178607 0.13778889
000370 b0 54 9d b9 b6 b1 1f 3e 10 13 24 be a9 d0 41 bc
       -0.0003000847 0.15595135 -0.16022897 -0.011829534
000380 e7 17 74 3d d3 2c c6 3d 77 1d be bc 02 0b 8d 3d
       0.059593108 0.09676518 -0.02320741 0.06886865
000390 12 b3 13 bd d6 81 c0 bd 22 75 60 bd 80 15 dc 3c
       -0.036059447 -0.09399764 -0.054799207 0.02686572
0003a0 3b 79 ac 3b 48 cb 14 3e 66 9e 42 3c be c2 ac bc
       0.0052634752 0.1453067 0.011878585 -0.021088954
0003b0 40 43 6f 3d 2b 54 eb 3d 2f a3 fb bc 42 46 85 bd
       0.058413744 0.11490663 -0.03071746 -0.06507541
0003c0 2f 55 34 bd 5f fb f3 3d 58 b0 aa 3c 2b ec b6 bb
       -0.04402655 0.119131796 0.02083604 -0.0055823526
0003d0 6a bf 31 3d 25 17 9e bd 38 54 18 3e d5 05 18 bd
       0.043395437 -0.07719258 0.14875877 -0.037114937
0003e0 d1 f9 a8 bd 04 93 d0 3d 80 cd 38 be d2 47 d7 3d
       -0.08250774 0.10184291 -0.18047142 0.105117455
0003f0 68 1e ba 3d 55 51 ad bd a4 48 56 3c 82 fb b8 bc
       0.09087831 -0.084627785 0.013078842 -0.022580866

network_body._body_endoder.seq_layers.0.bias f4 [128]
000000 db f6 08 3c 50 5c ee bb 65 17 16 3c 1b 74 89 bb
       0.008359636 -0.007274188 0.009160851 -0.004194749
000010 d6 30 de bb 50 9c 96 3b bf 80 44 3c 1a fd cb 3b
       -0.006780724 0.0045962706 0.011993586 0.0062252404
000020 00 07 a4 3b 0b b8 09 3b d5 bb 3e bb c2 2a c1 3a
       0.0050057173 0.002101424 -0.0029103656 0.0014737474
000030 cc e0 7a 3b ae 15 23 3c d0 2e 4f 3c 2b 82 35 3c
       0.0038280962 0.009953899 0.012645438 0.011078398
000040 6a 50 88 bb 45 58 42 3c 0c bb 12 3b a9 b4 9c bb
       -0.0041599767 0.011861865 0.002238932 -0.0047822786
000050 5b 84 72 bb 81 43 0a 3c 35 27 9f b9 10 30 85 bb
       -0.003700516 0.008438946 -0.00030356055 -0.0040645674
000060 75 7d 34 3c d0 86 49 3c f7 29 0c bc f5 4b df 3b
       0.011016239 0.012300208 -0.008554927 0.0068144747
000070 6f fe d5 3b ed 32 03 3c 84 af 55 bc 5e 47 39 bc
       0.006530575 0.008007747 -0.0130423345 -0.011308519
000080 b4 bc d0 b9 99 da f2 ba fe e9 e5 3b 79 2e 3d b9
       -0.00039813446 -0.0018528282 0.0070164194 -0.00018041757
000090 09 4a 1a 3c b9 73 f2 ba 94 68 16 3c 6c 87 1f 3c
       0.009417065 -0.0018497623 0.009180207 0.009736877
0000a0 52 c3 49 bc 8a 74 d9 3b 64 0b ee bb 01 73 4c 3b
       -0.012314634 0.006636207 -0.0072645415 0.0031196477
0000b0 9f 3d 19 bc 4c b7 e4 ba e9 cb 23 3c e8 80 98 bb
       -0.0093530705 -0.0017449646 0.009997346 -0.0046540387
0000c0 1f d2 60 3c b8 71 ce bb 01 b2 23 3b 58 8e a9 b9
       0.013721972 -0.0063001774 0.0024977925 -0.00032340246
0000d0 2f 06 f8 b8 d6 01 d2 bb 3a 95 2c 3c ea 2f 6e 3b
       -0.00011826713 -0.0064089103 0.010533625 0.0036344477
0000e0 4a 40 9e 3b 79 2e ed bb 17 be 82 3a 70 64 9b 3b
       0.004829441 -0.007238206 0.0009974864 0.0047421977
0000f0 84 3c 18 bc ff ab ef bb 9f 4a 35 bb 68 ea 39 bb
       -0.009291772 -0.0073142047 -0.0027662886 -0.0028368477
000100 8c ce e6 bb 8d 9f 85 bb e1 8f c1 3b b9 f0 93 3b
       -0.0070436653 -0.004077858 0.0059070443 0.0045147804
000110 03 c7 45 bb 2b 21 cc 3b fe 99 58 3c cf 06 f9 bb
       -0.0030178435 0.00622954 0.013220308 -0.0075996886
000120 4f 11 31 3b d2 b9 49 bb b3 1d bb bb 4e dd 35 3c
       0.0027018373 -0.0030780924 -0.0057103275 0.011100126
000130 2f 53 59 3c 27 d2 3d 3b 68 20 af 3b 2d 1d fd 3b
       0.013264461 0.0028964372 0.0053444393 0.0077244253
000140 3d 84 23 3b 16 ad 16 ba 59 5a 7c bb 72 2b 22 ba
       0.0024950646 -0.0005747838 -0.0038506 -0.00061862834
000150 28 f1 4d bc 2f c2 c8 bb 03 67 ed 3a fe 0a 26 bc
       -0.012569703 -0.006126664 0.0018112365 -0.010134457
000160 c6 f2 6a bb 16 a0 09 bc 63 61 dc 3b 0a ad a0 bb
       -0.003585027 -0.008399984 0.0067254766 -0.0049034404
000170 95 6e 42 3c 34 36 07 3b d8 b7 0c 3b 29 61 9d 3b
       0.011867185 0.0020631673 0.0021471884 0.004802842
000180 42 e1 ca 3b bf 43 2b 3c 16 bd 3d 3c 69 8a 29 bc
       0.0061914036 0.010453164 0.011580726 -0.010347941
000190 b2 08 82 bb 02 57 2b 3c 89 32 e8 3b 12 3e 8e 3a
       -0.0039683217 0.010457756 0.0070861024 0.0010852239
0001a0 84 58 0c bc 65 c2 42 3c a8 62 99 bb 2c cb f0 ba
       -0.008566026 0.011887168 -0.00468095 -0.0018371097
0001b0 b4 a6 e1 3b 18 af d6 3b 20 82 92 ba 43 2f 0f 3c
       0.0068863276 0.0065516345 -0.0011177696 0.008739295
0001c0 65 48 b4 ba ee 04 2d 3c e5 64 08 3b 08 cb 50 3a
       -0.0013754485 0.010560257 0.002081209 0.00079648243
0001d0 81 53 e3 3b 45 4e 39 bb d9 4e 49 3c 66 b7 14 3b
       0.0069374447 -0.0028275412 0.012286865 0.0022692322
0001e0 3a 94 55 3c b9 f8 d5 3b 8b 25 6d 3a b0 dc 29 3c
       0.013035828 0.006529894 0.0009046427 0.010367557
0001f0 dd 41 79 bb 99 cf 0d 3c a1 37 f7 3b aa d7 12 3c
       -0.0038033642 0.008655452 0.0075444733 0.008962551

action_model._discrete_distribution.branches.0.weight f4 [10, 128]
000000 46 ce b1 3b 81 6c 99 3c 35 a4 09 3b f6 3a 84 3c
       0.005426201 0.018728497 0.0021002416 0.016141396
000010 0e d2 87 3c ac 91 17 bc 12 c9 eb bb c5 28 30 bc
       0.016579654 -0.0092510395 -0.0071956003 -0.010751908
000020 e8 37 b6 bc 3b 23 c0 ba bb 4e 05 3c e5 2b d3 bb
       -0.022243455 -0.0014658937 0.008136447 -0.0064444416
000030 54 a4 8e 3b 54 fc 36 bb de a6 77 bb 3b 0b 89 bb
       0.0043530855 -0.0027921395 -0.003778867 -0.004182247
000040 e5 42 ff 3b 60 c5 2a bc 89 e2 8d bc b9 03 b1 bb
       0.007789957 -0.010423034 -0.017319934 -0.005402055
000050 4b 25 33 3c dc 12 d8 bb e6 c8 0f bc 5d 40 8c bb
       0.010934184 -0.006594045 -0.008775925 -0.0042801336
000060 32 81 e3 3b 85 fb 35 bc 3e e2 c7 ba 4c 9c 2a bc
       0.0069428915 -0.01110733 -0.001524992 -0.010413241
000070 dd a7 8e bc eb 0a 72 3c b7 c2 86 3b bc 27 06 bb
       -0.017414028 0.014773111 0.0041125673 -0.002047046
000080 a8 2e dc bb 64 3a f8 3a 3b f4 30 bc 57 dd 3b 3c
       -0.006719429 0.00189383 -0.010800417 0.011466346
000090 0a 96 df ba 06 83 eb bb df 18 cf bc 12 d0 06 3c
       -0.0017058265 -0.00718725 -0.025280414 0.008228319
0000a0 1a 12 0c bc 17 7c 36 bb dd 54 5f 3a 1f d6 45 bb
       -0.008549238 -0.002784496 0.00085194205 -0.003018744
0000b0 03 83 97 b7 91 e8 5b 3c 69 cd be 3b 52 ab 8b 3b
       -1.806161e-05 0.013422147 0.0058228266 0.0042623663
0000c0 f5 8f be bb 0a 84 c0 39 b8 eb 49 3c 05 06 2e 3c
       -0.005815501 0.0003671947 0.012324266 0.010621552
0000d0 2f 55 07 bb 37 2a f6 3a 0d 10 36 3c 04 a9 94 bc
       -0.0020650139 0.0018780892 0.011112225 -0.018147
0000e0 7e 70 9f bb 73 cd 5b bb cb 8e c4 3b a9 98 9a bb
       -0.004865705 -0.0033539205 0.0059984676 -0.0047179055
0000f0 8d 77 51 bb 2d 01 87 3b 56 9a 24 3c f9 f1 a0 bb
       -0.0031962127 0.004120013 0.010046562 -0.004911658
000100 17 e4 6f 3b 2a 3d ed 3a 87 fc c8 3b 17 9b 11 3c
       0.0036604458 0.0018099893 0.006133619 0.008887074
000110 1e cd bc 3b ea c5 12 3c 85 3a a5 b9 72 5b cc bb
       0.0057617566 0.008958319 -0.00031514853 -0.006236487
000120 93 0d 6a bb 78 0f 9f 3c 9d b0 60 ba a4 45 22 bb
       -0.0035713657 0.019416556 -0.00085712393 -0.0024760747
000130 77 c3 f9 bb 83 f0 93 3c 17 70 74 3b 73 dc b4 3b
       -0.007622178 0.01805902 0.0037298256 0.0055194437
000140 b2 9a 18 3c 13 95 22 3c e0 9b 20 bc 3a b1 18 bc
       0.009314226 0.009923237 -0.0098027885 -0.009319598
000150 fc 51 51 bb 5a c2 bb bb e6 81 3b 3c 74 33 89 ba
       -0.0031939736 -0.0057299556 0.011444544 -0.0010467605
000160 4f 40 19 bb f9 90 f7 bb 67 20 8a 3c 15 b6 78 3b
       -0.0023384278 -0.007555124 0.016861154 0.0037950326
000170 e9 82 14 bc ff 51 7f 3c 94 b5 96 bb 53 eb 91 3b
       -0.009064415 0.015583514 -0.0045992825 0.0044531017
000180 b0 10 b5 bc 2e 59 6c 3b ff e9 02 3b b9 ee 2c bc
       -0.022102684 0.0036063897 0.0019975898 -0.010554963
000190 2e f9 d6 3b 26 b4 07 bc 14 91 a8 bc b1 c1 b9 3b
       0.0065604663 -0.008282697 -0.020576991 0.005668842
0001a0 24 5d 47 3c 4b 44 52 bb c4 30 14 bb c8 d8 f8 3b
       0.012168203 -0.0032084163 -0.0022612074 0.0075942017
0001b0 29 60 6e bc 15 d0 65 3b 72 a9 14 3c e5 bf 25 bc
       -0.014549294 0.0035066654 0.009073602 -0.010116552
0001c0 f5 4a a6 bb 90 29 a5 bb 23 17 1f bb b5 3e 4f bb
       -0.0050748535 -0.005040355 -0.0024275265 -0.003162307
0001d0 b3 57 6a 3c f7 ff c1 3c 98 b5 02 bb 0a 24 45 bb
       0.014303136 0.023681624 -0.0019944664 -0.0030081295
0001e0 42 2c 0a bb 73 18 a6 3b f1 af 83 3a cc c6 f3 ba
       -0.0021083509 0.0050688325 0.0010046941 -0.0018598675
0001f0 ec f4 ae 3a 3f 64 fe bb bd 54 9d bc 11 7e 0a 3c
       0.0013348139 -0.007763415 -0.019205445 0.008452908
000200 c7 66 73 3a 88 c9 25 3c 93 a7 e0 3b c2 20 a9 bb
       0.00092850294 0.01011885 0.006855914 -0.0051613757
000210 8a f4 f5 3a 6d eb 9b 3b a7 d0 24 bb c0 6c 33 bc
       0.0018764895 0.0047582895 -0.002514878 -0.010951221
000220 dc 2e 25 3c 94 d9 b3 3b 88 dc eb bb 44 68 4d 3a
       0.010081973 0.005488584 -0.0071979202 0.0007835666
000230 47 59 af 3b 29 a2 0f ba d8 6e f6 3b fb 4e 43 3b
       0.005351219 -0.0005479181 0.007520538 0.0029801715
000240 2c 73 84 3a 53 76 67 3a 22 d4 b5 bb 30 89 d6 3a
       0.0010105125 0.00088295824 -0.00554897 0.0016367789
000250 71 86 7b bb 4d 7c 2f bc 0a 65 12 ba 46 a4 05 bc
       -0.0038379694 -0.010710788 -0.0005584514 -0.008156842
000260 ec ca 08 ba 91 17 d9 bb c1 f3 11 3c dc 42 8b ba
       -0.0005218226 -0.006625124 0.008908213 -0.0010624784
000270 13 11 a7 3c e4 e2 03 3c 48 26 d8 3b 71 e0 a8 3b
       0.020393884 0.0080497 0.0065963604 0.0051537086
000280 08 a6 cb 3b 73 07 83 3b 26 8b 2b bc 29 c5 1c bc
       0.006214861 0.0039986908 -0.010470187 -0.009568491
000290 7a c1 2b bc 1d 89 8b 3c 3d 83 9f 3b d2 86 81 3c
       -0.01048314 0.017033154 0.0048679397 0.015811358
0002a0 84 60 9d bb aa 27 3b bb e5 e9 11 bb f3 54 47 bc
       -0.0048027653 -0.0028557577 -0.0022264656 -0.01216625
0002b0 11 a5 d4 3b 97 de 9f 3b 6d 47 bc ba c9 af 8b 39
       0.006489404 0.0048788297 -0.0014364548 0.00026643116
0002c0 a4 2a 79 3a ba 91 87 bc 93 a1 62 bc 2d 25 d1 bb
       0.000950495 -0.01654898 -0.013832468 -0.0063826055
0002d0 fa 6c 28 3c 4b 9d 87 3b 1e 0d 78 bb 6a d2 50 3c
       0.010279888 0.004138624 -0.0037849615 0.012745479
0002e0 03 ea d8 3a 69 35 84 3b 68 19 79 3a 68 2d 2c bb
       0.0016549233 0.0040346873 0.0009502382 -0.0026272181
0002f0 99 17 e1 3b 45 af 91 3b f4 51 bb 3b 3e 81 a3 3c
       0.006869268 0.0044459426 0.0057165567 0.019959088
000300 df 18 b4 3c 65 66 74 3b 04 3f bd 3b fa b5 0a bc
       0.021984516 0.0037292477 0.0057753343 -0.008466238
000310 10 49 91 bb ed a0 3c bb 61 8f ec 3b 5c b8 40 ba
       -0.0044337586 -0.0028782443 0.0072192405 -0.00073516904
000320 4f 18 f6 39 87 c5 6b bc 4b e3 36 bc b0 0a 37 b8
       0.00046938888 -0.014390356 -0.011162589 -4.3640553e-05
000330 76 c8 00 bc 34 4a 07 39 fe 12 01 3c 56 fc b4 ba
       -0.007860294 0.00012902246 0.007878063 -0.0013808112
000340 e1 62 a0 3c c1 69 89 bc 49 cb f4 3b f4 36 9a 3b
       0.0195784 -0.01677406 0.0074705225 0.004706258
000350 74 3d 0d 3b f0 55 04 3c f4 85 21 bc 93 f9 88 3b
       0.0021551521 0.00807713 -0.009858597 0.004180142
000360 8f 10 57 bb 84 f3 e6 3b 9d bf 07 bc 8d 00 a7 bc
       -0.0032816266 0.0070480723 -0.00828543 -0.020386005
000370 a7 fc 93 bb 84 1e 73 bb 6f e1 71 bb b8 d8 90 bb
       -0.0045162025 -0.0037097046 -0.003690805 -0.004420366
000380 5e 21 01 3c 90 dc d9 ba c8 f3 84 bb 63 ae 73 3b
       0.0078814905 -0.0016621519 -0.0040573813 0.00371828
000390 f3 bb d6 3b dc 74 93 bc 00 83 ab 3b 6f a3 83 bb
       0.006553167 -0.018000059 0.0052341223 -0.0040172855
0003a0 d6 83 27 3c 19 6b b7 3a 6f 03 36 bc 5c 21 1b bc
       0.010224303 0.001399371 -0.011109217 -0.009468403
0003b0 2c 33 c7 ba 14 4c 2c bb f8 b9 25 bb 90 f7 07 3c
       -0.0015197746 -0.0026290463 -0.0025287848 0.00829877
0003c0 0d 63 f6 3c f5 d8 2e 3c 57 14 c7 bb d8 d2 2e bc
       0.030076528 0.010671844 -0.0060754227 -0.010670386
0003d0 ef 9d 34 b8 5c 64 14 bc 91 9d f7 bb b6 82 6d bc
       -4.306243e-05 -0.009057131 -0.007556625 -0.014496496
0003e0 e4 78 86 3b 7f d3 4e 3c 80 d5 1b bc 4f 6d 95 bc
       0.0041037668 0.012623667 -0.009511352 -0.018240599
0003f0 1c c4 90 ba d6 51 08 3c fa 3c f6 ba c6 ff 84 37
       -0.0011044773 0.008320292 -0.0018786483 1.585473e-05
