results/curiosity16/simple_deer/simple_deer-999968.onnx (onnx, 413907 bytes, 20 tensors)

network_body.observation_encoder.processors.0.self_ent_encoder.seq_layers.0.bias f4 [128]
000000 22 40 00 bd 19 5f 45 3e 0d 89 59 3e 08 3e 79 bd
       -0.03131116 0.19274558 0.21243687 -0.060850173
000010 c8 d5 96 bc 60 34 51 3e 65 de 8b 3d b7 4a f4 3d
       -0.018412486 0.20430136 0.06829528 0.11928313
000020 8f d4 fd bd 85 6b eb 3d d9 91 14 be 9c 41 74 38
       -0.12394058 0.11495117 -0.14508761 5.8235237e-05
000030 65 08 ec bd 06 d8 4e 3e 43 75 60 3e 97 c8 7c 3e
       -0.11525039 0.20199594 0.21919732 0.24685894
000040 e3 c0 bd bd ba e6 b0 bd 95 06 61 bd 8e d5 9f bd
       -0.09265306 -0.086377576 -0.054937918 -0.07804404
000050 07 80 71 3e 3e 4a 21 bc 0f f8 60 3e 49 33 10 3e
       0.23583995 -0.009844361 0.21969627 0.14082064
000060 e4 88 a7 bd df 25 32 3e ff 7a 17 3e 32 43 be 3d
       -0.08180407 0.17397259 0.14793013 0.0929016
000070 15 7d 8b 3d 2c 1e c4 bd 20 35 79 3e d3 d0 dc bd
       0.06810967 -0.09576067 0.24336672 -0.107820176
000080 ed 79 d0 bd 14 9d 0f 3e d7 fc 77 3c 07 d8 bd 3d
       -0.101795055 0.14024764 0.015135965 0.092697196
000090 d2 d5 e1 bd 36 09 c0 3c f6 88 b6 3d 0f d3 3a 3e
       -0.11027111 0.023441892 0.08912842 0.18244575
0000a0 8c 21 f1 bd 69 89 69 bd 26 d9 95 3b 45 4f fc bd
       -0.11773977 -0.05701581 0.0045730053 -0.12319807
0000b0 30 11 1a bd b2 cd 64 bd 30 11 16 be 58 93 d5 bc
       -0.037614048 -0.05586023 -0.14654994 -0.026071236
0000c0 b7 2f 19 bd 6f f9 e0 bd 8d 73 de bc e7 d7 13 be
       -0.03739902 -0.10985076 -0.027154708 -0.14437829
0000d0 d1 24 b7 bc 1e 83 d7 bd 3a 41 10 be 19 9e aa bd
       -0.022356423 -0.105230555 -0.14087382 -0.08330936
0000e0 60 67 1a 3c 7a ae 71 3e 5a 94 8f bd c5 b7 5c 3e
       0.009424061 0.23601714 -0.07010718 0.21554478
0000f0 ff 74 43 be 31 c8 18 be f0 85 cd bd e2 66 47 bd
       -0.19087599 -0.14920117 -0.10035312 -0.0486821
000100 c6 d6 e2 bc db ef 8b 3d ed e8 72 3e 5d b5 f4 bd
       -0.027690303 0.06832858 0.23721667 -0.11948655
000110 50 23 eb bd 8a c2 f8 3d ca a4 b2 bd 91 a7 fe bc
       -0.11481345 0.121464804 -0.08722837 -0.031085761
000120 51 c4 19 3e 3b cc 2c 3e 20 84 03 bd 0b 19 91 bd
       0.15016295 0.16874783 -0.032108426 -0.07084855
000130 fc 7e e1 3b 5d ef 19 be a9 11 8d 3d 66 7a d1 3d
       0.006881593 -0.15032716 0.06888134 0.10228424
000140 f1 88 47 bd da 68 21 be b4 23 4f 3c 89 b1 1e be
       -0.048714582 -0.15762654 0.01264279 -0.15497412
000150 4e d6 7a bc 32 51 5d bc 20 99 b2 bd 3a 28 50 bc
       -0.015309883 -0.013508128 -0.087206125 -0.012704903
000160 de 2f c5 bc ef 4e 47 be 49 9c f2 3d 6d c3 04 3d
       -0.024070676 -0.19463705 0.11846215 0.032412935
000170 5e b9 1b be d3 4f 39 3e 26 86 86 bc 59 55 d2 bd
       -0.1520743 0.18096857 -0.016421389 -0.10270185
000180 4e 33 2e 3e 7a ed d4 bb 5f bd 82 3e 35 67 5a bd
       0.17011759 -0.006498036 0.25535104 -0.053321082
000190 bd 55 09 be 57 38 ae bd 9d ab ff bd c5 ca 13 3d
       -0.13411613 -0.0850684 -0.124839045 0.036082048
0001a0 18 26 1b 3e 96 7a e9 bd 04 a2 57 bc 66 36 64 bc
       0.1515125 -0.114003345 -0.013161186 -0.013928985
0001b0 0c 7d 4c 3c 73 c5 45 3d ab af 8e 3e 46 84 90 3d
       0.012480985 0.048284005 0.278684 0.07056479
0001c0 64 d7 50 3e 0b f6 a9 3d 55 44 58 3d 81 fc cb bc
       0.20394665 0.08298882 0.05279954 -0.024900677
0001d0 85 1b e3 3d 7e c9 e8 3d 9a eb 43 3e e4 81 15 3e
       0.11089233 0.113665566 0.19132844 0.1460033
0001e0 41 b8 23 be 28 fa 2d 3e bb 16 26 3e 33 74 8f bd
       -0.15988256 0.16989958 0.16219608 -0.07004585
0001f0 e8 3c a4 3d 8e bd 6b 3d ff 64 07 bd f8 ed c2 3d
       0.080194294 0.05755382 -0.0330553 0.09518045

network_body.observation_encoder.processors.1.normalizer.running_mean f4 [4]
000000 4c be 63 3e 4c 79 3a 3f 9c c4 79 3d db 09 05 40
       0.22240561 0.72841334 0.060978517 2.0787265

network_body.observation_encoder.rsa.fc_q.bias f4 [128]
000000 da ba d4 3d 9b 24 21 3d e6 ca 37 3b 9e be 3d bd
       0.103872016 0.03934155 0.002804452 -0.046324365
000010 53 48 73 bd 92 a0 bd bd 11 f9 7e bb e9 38 82 3d
       -0.059395146 -0.09259142 -0.003890578 0.06358511
000020 1a c5 f6 bd a6 6c fc b9 61 f1 30 bd 07 e9 19 3d
       -0.12049313 -0.00048146135 -0.043198947 0.037575748
000030 4a b2 8c 3c 59 4d 1b bb 7c 4b 67 bb 35 a2 63 bd
       0.017174859 -0.0023697226 -0.0035292795 -0.055574615
000040 7d 21 0b 3d 53 60 9d 3c 76 1c b4 bc 50 35 38 3c
       0.033967484 0.01921097 -0.021986227 0.011243179
000050 4a f0 af 3d 6c a4 e3 bc cd 92 4f bd 81 01 65 bd
       0.085907534 -0.027788363 -0.05067711 -0.055909637
000060 10 3b 93 3b 56 b6 0c 3d 99 51 d6 bd c1 cc da 3c
       0.004493125 0.034353577 -0.10464782 0.026708962
000070 d6 da af 3c e2 76 74 3d 39 5f 66 bd 26 75 8a 3b
       0.021466654 0.059683688 -0.056243155 0.004225391
000080 da 2b af 3d 15 d0 7c 3d fa 9b 29 3d a0 81 ba 3d
       0.08553286 0.06172188 0.041408516 0.09106755
000090 a7 23 96 3d 9c 19 78 bc 12 16 a0 3d 51 9e 5f 3c
       0.07331019 -0.0151428245 0.078167096 0.013648585
0000a0 8d ea c3 bd f4 1f 0c bd e5 5b 87 bd 7f 5f 30 3d
       -0.095662214 -0.03421016 -0.06609324 0.043059822
0000b0 78 db 93 bd 40 7f a4 3d 3b 06 7f bc 33 c7 b2 3d
       -0.07219595 0.080320835 -0.01556545 0.087294005
0000c0 d9 87 a3 bd 4c 18 9d bd 3f 78 ac 3d 6a ed 8d bd
       -0.07984895 -0.0767065 0.084213726 -0.06930049
0000d0 87 10 71 bd 49 3e a5 bd 09 d6 f2 3c a7 3f cc 3c
       -0.058853652 -0.080685206 0.029643076 0.024932696
0000e0 eb e0 58 3d b9 3e 59 bc 72 b6 96 bd 58 50 b0 bd
       0.052948873 -0.013259583 -0.073590174 -0.08609074
0000f0 48 f8 97 3d 63 b6 f7 bc 88 10 9f bd 26 a2 54 bd
       0.07420403 -0.030238336 -0.07766825 -0.05191245
000100 ac 1e c9 3d 6b 28 8d 3d 19 16 bb bd 0b d2 09 3e
       0.09820303 0.06892475 -0.09135074 0.13459031
000110 e0 07 1b 3e 0c 02 e1 bd 56 d4 35 be 8b 6f 04 3e
       0.15139723 -0.109867185 -0.17756781 0.12933175
000120 74 72 02 3e 75 90 04 be 5a 79 24 3e c6 73 f4 bd
       0.12738973 -0.12945731 0.16061917 -0.119361445
000130 b2 d5 a9 3d 63 24 0e be 58 c3 1a be 6e dc 01 3e
       0.08292712 -0.13881068 -0.1511358 0.12681744
000140 f7 1b e0 3d a1 70 f5 bd e5 e6 ec 3d 0c e0 02 3e
       0.10942834 -0.11984373 0.11567477 0.1278078
000150 fb 89 18 be 0e a5 25 be 08 5b 01 be c4 50 22 be
       -0.14896385 -0.16176245 -0.12632382 -0.15851122
000160 b7 7b 21 be 15 83 ed bd c9 c7 f8 bd a6 92 d1 3d
       -0.1576985 -0.115972675 -0.12147481 0.10233049
000170 4b b8 f4 3d 4a 7a 38 be e4 85 db bd e7 ba 06 be
       0.119492136 -0.180154 -0.10718897 -0.13157235
000180 7a 84 a1 3d 7d 60 ca bd 0b 76 d9 bd 3e bc ea 3d
       0.07886596 -0.09881685 -0.10618218 0.114616856
000190 c5 5e df bd 63 89 7a bd 96 f7 de bd 6d 8b 94 bd
       -0.10906748 -0.06116618 -0.10887067 -0.07253156
0001a0 10 5e d6 3d fe 8e 00 3e a9 7c 0d 3e 1d 91 f5 3d
       0.1046716 0.12554547 0.13817085 0.11990569
0001b0 65 04 b3 bd b4 c6 dc 3d 4b 0a 8c 3c 60 15 6c bd
       -0.087410726 0.10780087 0.017094752 -0.057637572
0001c0 bd a3 e0 bd bb 47 9f 3d 3a 86 c8 3d 60 b7 d3 bd
       -0.109687306 0.077773534 0.09791227 -0.103377104
0001d0 a6 11 fb 3d 50 39 a4 bd 74 ed 49 3d ec 64 f4 bd
       0.122592255 -0.08018744 0.04929872 -0.11933312
0001e0 b0 55 df bd d6 bd 32 3d e0 15 ff 3d db 63 81 3d
       -0.109050155 0.043638073 0.12455344 0.06317874
0001f0 cc aa fa bd 59 6f c4 3d 39 95 fe 3d 97 52 ae bd
       -0.12239608 0.095915504 0.12430806 -0.085118465

network_body.observation_encoder.rsa.fc_k.bias f4 [128]
000000 a0 fc 1b b7 b0 5a 9d b7 94 c2 4d b8 b7 43 8d 37
       -9.297539e-06 -1.8758088e-05 -4.9057024e-05 1.6840042e-05
000010 d0 7b 05 37 bc 5c 55 37 65 19 3c b8 d0 ff 04 b6
       7.956245e-06 1.2717381e-05 -4.4846343e-05 -1.9818435e-06
000020 0a 78 51 37 c2 50 1f b8 8c bf 88 37 6c 21 10 b8
       1.24853195e-05 -3.7983766e-05 1.630166e-05 -3.4363402e-05
000030 9b 65 3f 35 57 8f 0d 38 f3 68 19 38 20 53 a2 36
       7.13009e-07 3.3750515e-05 3.6575784e-05 4.8376533e-06
000040 59 71 65 37 de 9c c1 b7 ed 3c dd 37 7b f7 e5 37
       1.36758545e-05 -2.308044e-05 2.6373624e-05 2.741417e-05
000050 0c d6 27 35 6a 38 9a b6 c3 b6 b1 37 05 f9 38 37
       6.252383e-07 -4.596125e-06 2.118515e-05 1.1025234e-05
000060 15 71 0a 38 9f 70 2e 38 12 d8 01 38 e3 58 0a b8
       3.300708e-05 4.158972e-05 3.0957228e-05 -3.2984546e-05
000070 d4 bc 4f b7 57 55 3e b7 5e cd 50 35 17 2c 63 37
       -1.2382126e-05 -1.1344752e-05 7.7784887e-07 1.354052e-05
000080 c7 ac f6 37 f0 e2 ea 37 23 d3 19 37 c2 7c 81 37
       2.9405941e-05 2.800065e-05 9.16867e-06 1.5436093e-05
000090 bc f9 50 38 cb ee 1d 37 58 81 48 38 b6 ff c8 b7
       4.9823648e-05 9.413528e-06 4.7804177e-05 -2.3960933e-05
0000a0 bc 5d df b7 3c 24 d1 35 52 03 03 b7 46 7f 8a 37
       -2.662732e-05 1.5582259e-06 -7.8089815e-06 1.6510148e-05
0000b0 9c 60 a2 b8 b3 90 5a 38 e5 3f ce b5 d2 18 9c 37
       -7.742757e-05 5.2110012e-05 -1.5366792e-06 1.8608207e-05
0000c0 d5 c6 08 b8 0d 03 26 b7 42 8c d7 36 77 e9 1f b7
       -3.2610104e-05 -9.895081e-06 6.4238275e-06 -9.531496e-06
0000d0 04 3d 13 b8 e6 89 ba b8 de 46 5a 37 48 50 a0 37
       -3.5104356e-05 -8.894857e-05 1.3010313e-05 1.911087e-05
0000e0 89 4b 40 38 25 81 2f b7 1e 0b 45 b8 d9 13 2a b8
       4.5846715e-05 -1.0460882e-05 -4.6978814e-05 -4.0549643e-05
0000f0 7a 34 93 38 ae 7f 19 b7 bc cb 62 b8 c7 90 c6 b6
       7.019281e-05 -9.149238e-06 -5.407234e-05 -5.917714e-06
000100 fd 72 bf b8 9d 52 74 b9 62 ac 4f 39 73 9d 26 b9
       -9.129008e-05 -0.00023300429 0.00019805276 -0.00015889648
000110 a9 17 2b b9 56 46 fc 38 39 97 23 39 90 c2 19 b9
       -0.00016316645 0.000120293975 0.00015601226 -0.00014663697
000120 75 7e 38 b9 a6 d7 0d 39 14 b0 48 b9 a1 22 10 39
       -0.00017594716 0.00013527143 -0.0001913908 0.0001374581
000130 7c 01 3c b9 d2 5e 0d 39 e6 1d 4d 39 53 24 20 b9
       -0.0001792963 0.00013482131 0.00019561462 -0.00015272321
000140 0f c1 6f b9 0c a2 4b 39 11 29 01 b9 7d 43 43 b9
       -0.00022864736 0.00019419956 -0.00012317697 -0.0001862179
000150 cd 48 10 39 0f f7 38 39 e4 47 55 39 8e 70 16 39
       0.0001376003 0.00017639644 0.00020340044 0.00014347045
000160 e8 5a 16 39 99 bb cb 38 41 42 62 39 c1 c8 5f b9
       0.0001433898 9.714737e-05 0.00021577721 -0.00021341724
000170 7e 4d 09 b9 f3 0b 23 39 63 16 10 39 2d 53 6e 39
       -0.00013094206 0.00015549343 0.0001374125 0.00022728434
000180 8f b3 d2 38 37 d9 4f b8 fd 79 66 b8 4d 4e c7 38
       0.00010047026 -4.9554943e-05 -5.4949884e-05 9.503644e-05
000190 7e 3c 52 b8 b0 c3 dd b8 39 cd aa b8 c8 05 8b b8
       -5.012424e-05 -0.00010574551 -8.1444574e-05 -6.629113e-05
0001a0 00 91 fb 38 88 86 dd 38 f9 c0 93 38 ee 57 95 38
       0.00011995621 0.000105631596 7.04545e-05 7.121252e-05
0001b0 ce d1 73 b8 d5 f4 86 38 6c cd 04 b9 b7 89 e6 b8
       -5.813111e-05 6.4352214e-05 -0.00012665027 -0.00010992906
0001c0 67 3e b7 b8 53 3e eb 38 76 ad b5 38 ca be 62 b8
       -8.737743e-05 0.00011217282 8.663062e-05 -5.4060285e-05
0001d0 7b 9c a1 38 f7 ab 0c b9 cd 2f fc 38 69 a1 ab b8
       7.706225e-05 -0.00013415502 0.000120252 -8.1839804e-05
0001e0 25 d0 50 b8 a7 39 ee 38 ec a8 82 38 e4 05 93 b7
       -4.9784914e-05 0.00011359463 6.230347e-05 -1.7526509e-05
0001f0 a6 1a cd b8 99 a9 90 38 05 3c a7 38 04 ea 4f 37
       -9.7801254e-05 6.898045e-05 7.97436e-05 1.23926475e-05

network_body.observation_encoder.rsa.fc_v.bias f4 [128]
000000 c8 ee 16 bb 6d f4 6b bc ff c5 01 3c 75 65 72 3b
       -0.0023030508 -0.014401537 0.007920741 0.0036986743
000010 9b 6c 0d 3c 1f 87 1b 3b 0c c9 64 bb 66 06 f2 bc
       0.008631851 0.0023731661 -0.0034909872 -0.029544067
000020 43 55 84 ba e5 49 24 bc ca b6 29 3c ea c8 56 bc
       -0.0010096211 -0.010027383 0.010358522 -0.013109425
000030 f3 f3 97 bc 01 94 33 3c f6 75 44 bc 79 db b2 3c
       -0.018548941 0.01096058 -0.011991015 0.021833168
000040 18 ad 94 bc 7e ac d2 bc cf 28 aa bc 02 46 10 bc
       -0.018148944 -0.025717016 -0.020771412 -0.008805754
000050 08 21 d4 bb 56 2c 7f bc f0 70 47 3c ec 6b 91 3c
       -0.006473664 -0.015574535 0.0121729225 0.017751656
000060 40 97 63 39 6b 98 55 bc b2 09 82 bc ab 7e 2e 3c
       0.00021704752 -0.013036828 -0.015873764 0.010650317
000070 bf 3c cf bc f7 32 45 bb e5 f5 61 bc d3 8a a4 3c
       -0.02529752 -0.0030090192 -0.013791536 0.020085728
000080 2d 26 38 3c 46 a4 94 3c 4c 32 bd bb 85 8f 11 bb
       0.011239571 0.018144738 -0.005773818 -0.0022210788
000090 99 9e 8c bc a0 ef 5d bc 7a 83 16 bc e5 f4 c1 3b
       -0.017165469 -0.013545901 -0.00918662 0.0059190863
0000a0 38 a0 12 bc de ab 1e 3b 31 bd 47 3b e7 b4 07 3d
       -0.008949332 0.0024211328 0.0030477757 0.033131506
0000b0 9c f0 9b 3c eb f2 a6 3c 88 e1 cb bc 97 20 9e 3c
       0.01903563 0.020379504 -0.024887815 0.01930265
0000c0 14 39 d3 bb eb 33 c4 3c c8 54 8e bc 60 ef 7b bc
       -0.006446013 0.023950538 -0.017374411 -0.015376896
0000d0 7a 71 cf 3b 15 4a 2b 3c 49 11 12 3d bd 4e df bc
       0.006330666 0.010454674 0.035661016 -0.027259225
0000e0 da eb 28 bc 9d 0f 07 bc 29 91 b7 3b 89 86 66 3c
       -0.010310138 -0.008243469 0.0056020212 0.014070162
0000f0 01 43 a6 ba 33 36 14 3c f0 9e 53 bc 54 7c dd bc
       -0.0012684764 0.009046125 -0.012916312 -0.027036823
000100 9c 43 70 bb be cf 4a bc bd 59 4b 3c d6 d6 4d bc
       -0.0036661392 -0.012378631 0.012411532 -0.012563428
000110 d9 97 9d 3c 59 d2 01 bd 44 ee 85 3b 0c dd c6 bc
       0.019237446 -0.031694744 0.0040872414 -0.024275325
000120 db cd 81 bb b2 5d d1 bc 9d 53 07 bc 39 ad 29 bc
       -0.0039613075 -0.025557373 -0.008259681 -0.010356241
000130 d1 0c cc 3c 51 59 1f 3c 17 4b 1d bb c7 94 4f 3c
       0.024908455 0.009725885 -0.0024001056 0.012669749
000140 ec 24 e0 3b 44 2d 82 bc 66 5a fd 3b 66 00 6c bc
       0.006840339 -0.015890725 0.0077317236 -0.014404392
000150 11 67 b2 bc 39 0e 87 3c 97 7a ae bc 4a 9d bb 3b
       -0.021777662 0.016486274 -0.02129869 0.0057255374
000160 f6 df 7c 3c 6c 39 19 3c 30 5e 5b bb db 31 40 bc
       0.015434256 0.009352069 -0.0033472888 -0.0117306365
000170 be 78 44 bc bf dd a3 3c aa 42 48 3c da 60 50 3c
       -0.011991678 0.020003198 0.012222925 0.012718404
000180 03 07 08 3c 79 5a 15 3b aa b0 10 3b 62 9c e7 3b
       0.008302453 0.0022789522 0.0022077956 0.007068203
000190 57 06 9e 3b c7 99 12 bc 09 18 7d bc 6a cf 8b 3c
       0.004822533 -0.008947796 -0.015447625 0.017066676
0001a0 bf 22 17 bc 26 1c 6b bc be 99 a5 bc c3 e8 6a bc
       -0.009224593 -0.014349973 -0.020214912 -0.014337721
0001b0 7d dd 79 3c 06 73 3a bd 70 e3 67 3b c1 69 c5 bc
       0.015250561 -0.04551985 0.0035383366 -0.024098279
0001c0 64 da e9 bc 79 12 92 bb 74 9e 49 bb be f0 31 bb
       -0.02854652 -0.0044577685 -0.0030764611 -0.002715155
0001d0 47 3d 5a 3c c5 86 80 bc 57 27 2a bc af 2f 5f 3c
       0.013320274 -0.015689263 -0.010385356 0.0136222085
0001e0 40 ea 8a ba 70 88 aa bb 0b 28 9e 3c 20 cd 49 3c
       -0.0010598376 -0.005204253 0.019306203 0.012316972
0001f0 55 5f 8d bc 94 62 3e 3c e3 a1 94 bc cb ea ce 3a
       -0.017257372 0.011620183 -0.0181436 0.0015786526

network_body.observation_encoder.rsa.fc_out.bias f4 [128]
000000 1e 09 a4 be 58 36 b3 bc ff a2 ba bb 35 80 46 3b
       -0.32038206 -0.021876499 -0.0056957 0.003028882
000010 d7 70 2b bb 24 d3 ee bb 60 30 e7 3b 01 77 19 bc
       -0.0026159787 -0.0072883535 0.0070553273 -0.009366752
000020 6e 80 27 bd 69 e4 b5 3c f4 b1 64 bd ce ec 6b 3e
       -0.040893964 0.022203641 -0.05583377 0.23039553
000030 c3 5d a8 3c 3d a1 2c 3c 93 d7 ab 3c 49 55 67 3c
       0.020552522 0.010536489 0.020976817 0.014119455
000040 eb 7b 94 bd 70 24 a2 3c f5 71 d5 bb c3 b2 8a bb
       -0.07250198 0.019792765 -0.006513829 -0.004232736
000050 9f 48 50 3c 9a 64 79 bc 11 8b 8a 3c 01 f2 0f 3c
       0.012712627 -0.015221739 0.016912015 0.008785726
000060 0e af a5 bc e1 7e 35 3b 96 aa 30 bd b0 82 9b 3c
       -0.020225074 0.0027694034 -0.043131433 0.018983215
000070 06 2d 99 3d 75 e4 e7 3c 74 6a e6 3c da c2 21 bd
       0.07479291 0.028307179 0.028126933 -0.039492466
000080 57 c9 91 bd e0 b1 0f 3c c4 0d d1 bb 35 95 96 3c
       -0.07118481 0.008770436 -0.006379815 0.018381694
000090 ac 07 de bc bb ff 61 bc 89 c9 03 3d b4 62 b5 bb
       -0.027103268 -0.013793881 0.03217462 -0.005535448
0000a0 7b c3 a5 3c 10 ec b0 bc 9f 6e 61 bc 91 e6 99 bc
       0.020234814 -0.021596938 -0.013759284 -0.0187867
0000b0 a0 d4 0c bd 93 b2 47 ba 5b 21 23 3c e6 ad bd 38
       -0.034382463 -0.0007617857 0.009956683 9.0446134e-05
0000c0 1c fe b2 3b 9c cc 2d bc ae 7b 9a 3b 10 2c 29 bd
       0.005462421 -0.010607865 0.004714451 -0.041301787
0000d0 19 5c 86 3c 70 1c 73 bb 09 75 73 3d 77 73 07 3c
       0.016401337 -0.0037095807 0.059437785 0.008267275
0000e0 ea 43 79 3b cc a5 37 3b 5b 47 7f 3c cd ee 0d bc
       0.0038034865 0.0028022407 0.015580977 -0.008662892
0000f0 7f df 8e bc fb 16 1e bd 23 94 a5 bc 41 fc d7 3b
       -0.017440556 -0.038596135 -0.020212239 0.0065913503
000100 b3 22 10 bc e8 b7 0a 3d 8c 17 2b 3d 28 d8 09 3d
       -0.008797335 0.033866793 0.041770503 0.03365341
000110 26 27 b7 bc ad ed 60 3d 72 e4 72 3c 91 1e e3 3a
       -0.022357535 0.054914165 0.014824973 0.0017327835
000120 92 96 1a bc a8 6e e4 bb 09 ce 14 bc 0c bc a8 bd
       -0.009435313 -0.006971199 -0.009082326 -0.08238992
000130 5e 04 1d bc 43 c8 62 3c ef 64 68 ba d3 e7 4d bd
       -0.009583561 0.013841691 -0.0008865138 -0.050269913
000140 11 04 33 3b 04 3e 1b 3c 76 7c 38 3b 80 4a 36 3c
       0.0027315656 0.009475235 0.0028150356 0.011126161
000150 66 04 20 3c a3 05 90 3c 7a 76 c1 3d 19 d5 31 bc
       0.009766674 0.017580813 0.09446426 -0.010854029
000160 4f f8 b0 3c 4e ee 49 bc 72 79 28 3c 13 43 b0 3c
       0.021602778 -0.012324883 0.010282861 0.021516358
000170 c9 a8 08 3c c8 d2 d9 3c ec d9 bf bc b3 d7 b4 3b
       0.008341023 0.026589766 -0.023419343 0.0055188774
000180 e3 ac 3d 3c ef 58 b6 3c 48 1e 0f bd d9 14 8b 3c
       0.011576864 0.022259204 -0.034940988 0.016977714
000190 a8 45 1a bc b4 4c 06 bc 2e 55 87 bb 03 27 f0 3c
       -0.009416021 -0.008196998 -0.0041300273 0.029315477
0001a0 49 f4 aa 3b 32 30 b8 bc fd e1 c7 ba 86 1f 56 3c
       0.0052171093 -0.022483919 -0.0015249845 0.013069039
0001b0 f8 ad c9 bb 88 98 76 bb fe f7 bb bb 25 7f e5 3c
       -0.006154772 -0.0037627537 -0.00573635 0.028014729
0001c0 ec 70 28 bc 00 34 e9 3b 68 38 c4 bc 9c 6a 63 bc
       -0.010280829 0.0071167946 -0.023952678 -0.013880398
0001d0 4f 60 33 3e fb df bd bb f3 be 62 3c 0a f6 00 3c
       0.17517208 -0.005794523 0.013839471 0.00787116
0001e0 81 7e e1 3a d6 13 9f bc a3 27 34 3d 3a 54 af bc
       0.0017203839 -0.019418638 0.043983113 -0.021402467
0001f0 4e a4 b1 3c c4 74 8b bc ea 0b 85 bb 1f 5e f3 bb
       0.021684792 -0.017023452 -0.004060258 -0.0074269916

network_body.observation_encoder.x_self_encoder.seq_layers.0.weight f4 [128, 4]
000000 99 7d 16 be 0f c8 d6 3d 82 68 e4 bd bb 13 fd bd
       -0.14696349 0.10487377 -0.11152746 -0.12357279
000010 39 e2 9b bc 5c 63 ae 3d 97 89 19 3e 3e ae c2 bb
       -0.01902877 0.08515045 0.14993893 -0.0059411814
000020 a2 c6 02 be 19 5e 55 bb cb f6 d7 bd 0b a0 a9 3d
       -0.12771085 -0.0032557307 -0.10545119 0.08282479
000030 35 d2 97 be 7a b1 9e bd 10 59 03 3e 2c a2 74 3d
       -0.29652563 -0.07748695 0.12826943 0.05972497
000040 99 27 e7 bd 2f 43 05 3e 5a 34 1c be 39 b5 b4 bd
       -0.112868495 0.1301391 -0.15254346 -0.08823628
000050 92 ad e9 3d 04 40 a0 bd 12 55 00 3e 48 13 70 3e
       0.11410059 -0.0782471 0.12532452 0.23444855
000060 e8 ae 2a be 06 04 0a bc 1c 34 e4 3d 48 89 84 3c
       -0.16668284 -0.008423811 0.111427516 0.016178742
000070 2f 77 34 bd 70 5d b2 3c 00 73 aa 3c 3b d6 66 3e
       -0.044058975 0.02177307 0.02080679 0.2254266
000080 cf 8c 3a be 63 ff 61 3d 63 16 5c 3d 97 22 67 bd
       -0.18217777 0.055175196 0.053732287 -0.05642947
000090 0e 8e 91 3c 6f 64 d2 bd 76 05 8a 3d 15 29 7f 3d
       0.017767932 -0.102730624 0.06739323 0.06229504
0000a0 c1 53 88 3c 89 02 0e 3e 3c 55 9b bd fa f9 b8 bd
       0.0166415 0.13868155 -0.075846165 -0.09032054
0000b0 0a 7e cb bd 01 f2 96 3d 43 17 56 bd 6b 52 53 bd
       -0.099361494 0.07370377 -0.052268278 -0.05159227
0000c0 4d ee 8e 3d 45 45 fd 3d 39 ec 73 bd 39 19 e5 bd
       0.06979046 0.12366728 -0.05955145 -0.111864515
0000d0 bd cc 2b be ed f3 81 3d 57 3c fc bb 79 8e 0f bd
       -0.1677732 0.06345353 -0.0076976228 -0.035047982
0000e0 c3 74 d0 bd 03 75 02 bd 8c c1 01 be 9d ea af 3d
       -0.101785205 -0.031849872 -0.12671489 0.08589671
0000f0 1b ab 98 be 1a 7e b8 bc 02 85 af 3d 74 01 16 bd
       -0.29818043 -0.022521067 0.08570291 -0.03662248
000100 cd 3e f3 bd dc 8b 2b 3d 7c 62 ff bd 1b 19 fa 3b
       -0.11877213 0.041881427 -0.12469956 0.0076323873
000110 20 ec 99 3d 91 a9 eb 3d 13 1c 82 bd 21 5a 27 be
       0.075157404 0.115069516 -0.06353011 -0.16342975
000120 91 1d 9b be 42 23 2b bd 59 57 fb 3c c4 cf 9f 3d
       -0.30295995 -0.04178167 0.030681299 0.078033
000130 63 18 59 be d3 35 dc 3c 2d 8d 15 bd ee f6 22 bd
       -0.21200709 0.026881134 -0.03651159 -0.03978627
000140 05 8c 24 be b9 57 60 3d 0b 76 05 3d 74 b4 26 bb
       -0.16069038 0.05477116 0.032583278 -0.0025437148
000150 bb 76 6f 3e 8c a4 9f 3d 94 bb 88 bd 8c d2 dc bc
       0.23385136 0.07795057 -0.06676403 -0.026955865
000160 17 4a 0d 3e 13 98 8e 3e 0e f3 5f be 8a 6c 42 be
       0.13797794 0.27850398 -0.21870062 -0.18986717
000170 37 bd 61 3e e5 dd 94 3d 63 dc e5 bd dc 1f 0c be
       0.22044836 0.072688855 -0.11223676 -0.13684028
000180 52 0c 6d be f8 8d 0b 3c 1d 32 8a 3d 3b d1 0d bd
       -0.23149231 0.008517735 0.067478396 -0.034623366
000190 58 e3 9f 3d 37 37 14 be 02 29 2b 3e b7 e9 de 3d
       0.07807034 -0.14474188 0.16714862 0.10884421
0001a0 b6 4b 5e bd 8e 46 17 be e2 71 18 3e 69 93 6f 3d
       -0.054271422 -0.14773008 0.14887193 0.05849019
0001b0 ae 26 0f 3e 8c 68 03 bd 0e 87 7b 3d 8a f0 ea 3d
       0.13979599 -0.032082126 0.061408095 0.114716604
0001c0 33 32 4f be d7 c9 5d bd 51 bc 84 bd 97 6c 18 bb
       -0.20233993 -0.054147568 -0.06481231 -0.0023258084
0001d0 d8 85 38 3e f7 d4 8b 3d 4c a4 3f bd 4c a6 c0 bd
       0.18019807 0.06827729 -0.046787545 -0.094067186
0001e0 e1 6b 6d 3e 1b d3 31 3c a0 9d fb bc 81 a4 7d bd
       0.23185684 0.010853554 -0.03071481 -0.06192446
0001f0 76 61 75 3e 87 53 e3 3d 6f 42 9d bd 8e 48 ac bd
       0.2396296 0.11099916 -0.07678687 -0.08412276
000200 22 10 6b 3e 71 ae 82 3b d7 10 c6 3c 6c 86 c6 bb
       0.22955373 0.00398808 0.024177952 -0.006058505
000210 9c 39 69 3e a8 41 09 bd 72 cc 0e bb 8e c6 6a bc
       0.22775882 -0.03350988 -0.002178934 -0.014329566
000220 1c af 82 3e ef 95 0f bd 09 ec 34 3d 55 de 5e bd
       0.25524223 -0.035055097 0.044170413 -0.05441125
000230 03 d7 4c 3d 1a 3f 88 bd c0 e2 b1 3d 3f 56 49 bd
       0.05000974 -0.06652661 0.08685827 -0.049154516
000240 3d 77 5b be ff d1 14 3d 23 c1 c1 3d 95 54 87 bd
       -0.21432205 0.03633308 0.09460666 -0.066079296
000250 b8 57 a7 be 9c 22 9e bb fa 48 7a 3d d0 61 75 ba
       -0.32684112 -0.004825903 0.061104752 -0.00093605835
000260 e3 6c 52 be 6a 79 2c bd 2a 8e a5 3d d9 89 61 bc
       -0.2054935 -0.042107977 0.08083756 -0.013765776
000270 9c a5 0f be 96 df ab 3d 2f de a2 bd ba ad b3 bd
       -0.14028019 0.08392255 -0.079525344 -0.0877337
000280 8f 6a 4e be 36 cd 22 3d b0 27 f7 3b c6 3c aa bd
       -0.20157836 0.039746486 0.007542573 -0.08312373
000290 a7 3b c6 bd 68 ee c5 bb 42 67 17 bb 82 7d 67 3e
       -0.096793465 -0.006040383 -0.0023102318 0.22606471
0002a0 53 b9 46 3e 6d b5 63 bd 68 54 89 3d 76 36 50 bd
       0.19406633 -0.055592943 0.06705552 -0.050833188
0002b0 ed e4 16 3e ce 11 3f bd 73 43 24 3d 89 d2 8c 3d
       0.14735766 -0.04664784 0.040103387 0.06876094
0002c0 e0 7a 68 3e 72 91 b4 3d b8 6b db bd 7c f8 b1 bd
       0.22703123 0.08816804 -0.10713905 -0.08689973
0002d0 63 62 5c 3e 0e 4d 9a 3b 72 fd cf 3c 88 2f d7 3c
       0.21521907 0.0047088927 0.025389407 0.026267782
0002e0 be fa 75 be 65 ed 53 3d 8b 39 87 bd 6c 3e 92 bd
       -0.24021432 0.05174007 -0.06602772 -0.07140812
0002f0 d7 28 87 3e d6 04 4a 3d 27 9b 21 bd 26 0d ac bd
       0.26398346 0.04932102 -0.039454605 -0.08400945
000300 85 23 86 3e 0b 33 36 3d 28 27 10 bd 48 de b5 bd
       0.26198974 0.044482272 -0.035193592 -0.088802874
000310 dd a7 ec bd 5a 59 35 3d 91 2d 20 bc 34 9f 8e bd
       -0.11555455 0.044274665 -0.009776489 -0.06963959
000320 dd 2a 7a 3e e4 0f 10 3d 28 37 8f bc 3f 29 65 bd
       0.24430414 0.035171404 -0.017482355 -0.05594754
000330 b9 ea 16 be d3 3a 05 3d ad ee c0 bd 5e 5a 2f bc
       -0.14737977 0.032526802 -0.09420524 -0.010702698
000340 bc b2 61 3d 89 a1 c7 3d 0c 96 2a be cd ed 9e 3c
       0.055102095 0.09747607 -0.16658801 0.019400502
000350 2a da 38 3e 3e ff eb bc 06 20 32 bd 6b 0a 13 3d
       0.18051973 -0.028808232 -0.04348757 0.035898607
000360 61 ac 90 be 5a 8d 67 3d 8d 35 6d bd 3c 5c a0 bd
       -0.28256515 0.056531288 -0.057912398 -0.07830092
000370 5e d2 78 3e fa d3 c1 bc 28 f4 5e bd b5 f1 6b bd
       0.24298999 -0.023660649 -0.054432064 -0.057603557
000380 ca 1d 1d be 13 b6 f6 3d a4 59 d4 3c 3a 6e c1 bd
       -0.15343395 0.12046447 0.02592165 -0.09444852
000390 8a eb 43 3e 58 a0 8d bc c1 e9 16 bb bd 72 97 3c
       0.1913282 -0.017288372 -0.0023027512 0.018487329
0003a0 1b 35 3a be 1b 67 c6 bc 3c f8 c2 bd ae e3 0a 3e
       -0.1818432 -0.024219086 -0.09520003 0.13563415
0003b0 02 ac 48 3e 64 e8 30 bd 63 10 c2 3c 76 27 9f 3d
       0.19596866 -0.043190375 0.023689454 0.077711985
0003c0 bd 7e 8e be 19 0b 8f bc f3 56 fb 3d 4d b5 66 3e
       -0.2783107 -0.017461346 0.122724436 0.22530098
0003d0 1d ea 76 bd c6 f1 46 bd 0e da 85 be e0 9e ba 3d
       -0.06028186 -0.048570417 -0.26142925 0.09112334
0003e0 13 ff 0e 3e 1f 63 d4 bb d3 49 98 3d 4d a3 45 3e
       0.1396449 -0.0064815427 0.07435956 0.19300576
0003f0 38 df 36 3e 07 69 c8 bd 31 5d b2 3d 71 45 44 3d
       0.17858589 -0.097856574 0.08709181 0.047917787

network_body.observation_encoder.x_self_encoder.seq_layers.0.bias f4 [128]
000000 4a 18 ee 3c dc 6d 21 3e ba ad e0 3d 46 33 3e 3c
       0.029064316 0.15764564 0.10970636 0.011608904
000010 45 17 23 bd 61 4b 18 ba e5 cd 13 be 0f 2f 0a 3e
       -0.039817113 -0.0005809572 -0.14434011 0.13494514
000020 be 37 f0 3d 5a 12 21 be 75 40 23 3e 75 02 dc 3d
       0.11729382 -0.15729657 0.15942557 0.10742656
000030 98 30 0d be f4 c3 57 3d 5d 03 09 3e 1b 9d bc 3c
       -0.13788068 0.05267711 0.13380189 0.023024132
000040 af 4e 0e 3e 6e 0f 1b be 2d 94 b0 bc e6 f0 93 3d
       0.13897203 -0.15142605 -0.02155503 0.07223682
000050 d0 38 c7 3d b3 c5 9f bc 5b 60 f9 3d 50 a8 f1 bc
       0.09727633 -0.01950345 0.121765815 -0.029499203
000060 76 a5 4d 3d 39 2a 2f 3d 93 6f 2a 3e ed d6 04 bd
       0.050206624 0.042764876 0.16644125 -0.03243153
000070 4f 2c a2 3d 08 9c b9 bd 1f 13 bf 3c 8f 5e fb bc
       0.079186074 -0.09062964 0.023324547 -0.030684737
000080 71 94 1d 3d 41 17 65 3d ca 03 a1 3d 9f 7a 1e be
       0.038471643 0.05593038 0.07862051 -0.15476464
000090 02 20 11 3d f9 1a 2f bc b8 d4 8f 3d 32 b2 0e bd
       0.035430916 -0.010687583 0.07022995 -0.03483791
0000a0 ac ab c0 3d af 66 97 3d de 53 9b 3c ac 08 2f bb
       0.09407744 0.07392632 0.01896089 -0.002670805
0000b0 ef 0e d5 bc 8c 74 52 3c 5c 92 15 3d e7 5a 3a 3d
       -0.026008097 0.01284517 0.036516532 0.045496847
0000c0 5c e0 6b 3d bd e4 b2 3d 40 1a 26 3c 7d d8 f3 3d
       0.057587013 0.087350346 0.010138094 0.11906526
0000d0 27 bd 17 3e 49 b4 2d 3d 66 0c 92 bd 2a 31 12 3d
       0.1481825 0.04240826 -0.07131271 0.035691418
0000e0 77 b2 1b 3d f1 b1 73 bc 29 1e 8c 3d 09 7b 43 3d
       0.038011994 -0.0148739675 0.0684169 0.047724757
0000f0 1b 3d 39 bd 63 3f 17 3e 68 d4 d9 bc c8 e7 88 3d
       -0.04522429 0.14770274 -0.026590541 0.06684834
000100 db e8 b4 3b c2 39 4a b8 81 c5 4f 3c 25 ee e6 bc
       0.0055209226 -4.8214344e-05 0.012681366 -0.028189728
000110 c4 1d 79 3d 90 ad 92 3d b2 71 6e 3d 8e 0c bc 3d
       0.060819402 0.07162011 0.058213897 0.09182082
000120 45 f3 71 3d 95 fc 44 bd 08 f4 01 bd 70 7a d7 3d
       0.05906989 -0.048092443 -0.031726867 0.105214
000130 f1 69 d1 3c 21 04 95 3c f9 03 09 3c 4a fe 1b 3d
       0.025563212 0.018190445 0.008362764 0.038084306
000140 1f 73 01 3e 1a 4c 23 bd ca 8d e0 3d fb b9 63 bc
       0.12641571 -0.039867498 0.10964544 -0.013899322
000150 0d d9 3f 3d 09 97 99 bd 3b 8d 95 bd 37 12 f6 3c
       0.046837855 -0.07499511 -0.07302328 0.030037982
000160 c7 ef 85 bb ed 46 93 3c a6 ce 26 3d 62 6c bf 3d
       -0.0040874216 0.017978156 0.04072442 0.09346844
000170 23 fa 7f 3c 50 1d 8f bc 86 17 ca bd 89 cf 02 3d
       0.015623602 -0.017470032 -0.09867768 0.031936202
000180 de 9d 85 3d 3a f0 2c bd eb af e7 bc e4 17 41 3d
       0.065242514 -0.042221285 -0.028282126 0.047141925
000190 5d a0 1d 3c de be 17 3e 3e c2 12 bd 95 98 82 3d
       0.009620753 0.14818904 -0.035829775 0.06376759
0001a0 bb 9c 75 bd e0 0c 7c 3d 6f 06 a2 bd 2b 12 a6 3c
       -0.059963923 0.061535716 -0.07911383 0.020272335
0001b0 30 6a 16 be 8a c6 b8 3d 76 c8 e8 3c 7c d9 2b 3d
       -0.14688945 0.09022243 0.0284159 0.041955456
0001c0 1a 9a 74 3d b5 07 86 bc 76 e2 3c 3d 7e ab 7f bb
       0.059717275 -0.016361097 0.046114407 -0.003901213
0001d0 9c 50 b3 bc cd d9 11 bb 99 6f 33 be ff 65 92 3c
       -0.021889023 -0.0022255064 -0.1752304 0.017870901
0001e0 22 31 00 bd 20 be ee 3c 36 b4 bb 3d 77 54 b6 3d
       -0.031296857 0.029143393 0.09165232 0.08902829
0001f0 56 84 9a 3d 22 2f 87 bd 28 65 e1 bb 2f b0 0f 3d
       0.07544772 -0.06600787 -0.006878514 0.03508013

network_body._body_endoder.seq_layers.0.weight f4 [64, 132]
000000 4e a9 10 3f c6 27 71 be bc 6c e9 3c a2 e3 06 bd
       0.5650834 -0.23550329 0.028494231 -0.03293193
000010 60 65 d6 bd 18 35 14 be af ec 21 3d 73 85 a2 bb
       -0.104685545 -0.14473379 0.03953236 -0.004959756
000020 64 04 b7 bd 0f da 8d bd 87 0d 6c 3c d4 df 69 3d
       -0.08936384 -0.06926357 0.014407522 0.057098225
000030 6d 52 2f 3d ab 17 ad bd 85 08 32 bd 76 a3 cd 3d
       0.042803217 -0.0845178 -0.043465156 0.10040943
000040 ca 4a e1 3c fd 64 9a bd eb 79 a2 3d 00 0f 42 3e
       0.027501483 -0.07538793 0.0793341 0.18951035
000050 50 c6 33 bc ad 26 5c 3d f7 26 4b bd 20 e2 ac bd
       -0.010972574 0.05374782 -0.049597707 -0.084415674
000060 d7 16 31 bd 99 3c 27 be b5 03 ac 3c 2d ab 80 3d
       -0.043234672 -0.1633171 0.020997861 0.06282649
000070 ff 31 93 bc 24 52 a5 3d 96 7c 12 3e 82 07 92 3c
       -0.017968176 0.08072308 0.14305338 0.017825846
000080 2f f0 84 bb 29 e6 03 be 29 f8 89 bd 5b 4d e7 3b
       -0.0040569524 -0.12880768 -0.06736786 0.007058782
000090 6e a7 4d be cd 5d ad bc 66 02 da 3c c2 44 c9 bd
       -0.200834 -0.021162892 0.026612472 -0.09827568
0000a0 9f 5a d2 bd 51 b7 8a 3e 2f 5a 52 bd d0 6c 34 3d
       -0.10271191 0.27092984 -0.051355537 0.044049084
0000b0 d2 92 8d bd da b6 f8 3d cc a8 00 3e ec b9 02 bd
       -0.069127694 0.12144251 0.12564391 -0.03191559
0000c0 c3 cc 27 3e 9e 59 9d be 0d 21 a6 3c e2 a4 e7 3d
       0.16386704 -0.30732435 0.020279432 0.11310746
0000d0 94 7c 0d 3d c4 b4 e4 bc 05 e1 bb bd 3d dc 8c bc
       0.034542635 -0.027918227 -0.091737784 -0.017194862
0000e0 81 ca 2f be fa f3 0a be a0 36 ec bd d9 e7 de 3d
       -0.17167093 -0.13569632 -0.115338564 0.10884065
0000f0 29 9a fe 3d 47 26 91 3d 63 ca 3c be 3c f2 86 3d
       0.124317475 0.07087379 -0.1843658 0.06589171
000100 87 91 7b 3d 05 a5 5d bc 46 fb 32 be be 8e 16 be
       0.061418083 -0.013528113 -0.17478666 -0.1470289
000110 c3 c6 f5 bd 20 26 e8 3d 22 3f 4e 3d 90 39 0b bd
       -0.120008014 0.11335397 0.050353177 -0.033990443
000120 12 ab b8 bd 65 49 27 bd f9 8c 95 3c 86 58 0b bd
       -0.09017004 -0.04084148 0.018255698 -0.03401997
000130 ad 35 72 3c 2d 09 1a bd 12 b4 06 be 73 b5 b1 bd
       0.014783305 -0.037606407 -0.13154629 -0.08677187
000140 ab 30 04 3e ad d5 de bd ee 55 71 3e 0f cd 32 3e
       0.1290919 -0.10880599 0.23567936 0.17461036
000150 b5 a3 88 3d 18 b1 12 bd 28 95 5c be 7d 26 50 3d
       0.0667185 -0.03581342 -0.21541274 0.050817955
000160 cc 13 5f bd 8c cd 17 3d 14 c9 69 be 1a 6e d9 3d
       -0.05446224 0.03706126 -0.22830611 0.10616703
000170 df 7b 14 3d 09 b9 d5 3d 05 b4 93 bd d1 aa 0f be
       0.036250945 0.10435683 -0.072120704 -0.14030005
000180 9c 1b 4c 3e 83 88 dc 3d 4c 9b 34 3d e0 da 3e be
       0.19932407 0.10768225 0.044093415 -0.18638182
000190 e4 49 59 3e 54 00 c8 3c bf 6d e8 bb ef 25 a7 3d
       0.21219593 0.024414219 -0.007093161 0.08161532
0001a0 91 27 5c 3c 15 19 ce bd f3 5b 33 3e 17 10 ad bd
       0.013437168 -0.10063378 0.17515545 -0.084503345
0001b0 6b f9 88 bc 7d 8f 54 3d 28 71 91 3c 8d 92 a6 3d
       -0.016720494 0.051894654 0.017754152 0.08133421
0001c0 a8 2e b2 3d dc 8b 27 be a9 2d 24 3e d4 62 e3 bc
       0.08700305 -0.16361946 0.16033043 -0.027757086
0001d0 05 4a c4 3d ad bb 81 bd a8 04 07 3e 4b 1d 0f bd
       0.095844306 -0.063346244 0.1318537 -0.034940045
0001e0 97 2c ef bd 9c d0 81 3d 3c 78 cf 3d 50 30 32 3e
       -0.11678427 0.06338617 0.10130355 0.17401242
0001f0 d6 08 a4 bc 93 cb 8c 3c 25 fe 43 3e fe eb b7 bd
       -0.020023745 0.017186916 0.19139917 -0.08980559
000200 b7 91 b4 3c ec 42 86 3d b6 f4 a4 3d 36 30 41 bd
       0.022042139 0.06555733 0.080544874 -0.04716512
000210 15 93 c8 3e 8a d1 0c bf 68 f3 ac 3d e2 a4 6f 3e
       0.39174715 -0.5500723 0.084448636 0.23402742
000220 79 67 81 bc c7 84 18 be 28 4a 9c bd bf 04 b1 3d
       -0.01579641 -0.148944 -0.07631332 0.08643483
000230 2c aa 4d 3d 08 d8 6f 3c 52 29 61 be 3d dc 43 3c
       0.050211117 0.014638908 -0.21988419 0.011954364
000240 b5 71 22 be 2e ea a4 3d c0 f4 0b bd 3f 33 bc 3d
       -0.15863688 0.08052479 -0.03416896 0.09189462
000250 75 57 60 3c 11 3d 4c 3e 01 cb cf 3d 4d 9a 90 3d
       0.013692726 0.1994517 0.10146142 0.070606805
000260 41 9b fd bc 6b d5 fe 3d 12 89 d0 3d af 34 a6 bc
       -0.03095782 0.1244305 0.10182394 -0.020288793
000270 54 ea bd bb 2a f8 b6 bd 65 e0 19 3e 35 77 67 3d
       -0.0057957564 -0.08934052 0.15027006 0.05651017
000280 35 ea f4 bd 0c 57 37 3d 19 a3 4e 3d 7f 46 4d bc
       -0.11958734 0.04476075 0.05044851 -0.012529015
000290 bf 8d 3d bd f0 8d 51 bd 23 c6 92 bc 88 b0 4d 3c
       -0.046277758 -0.051160753 -0.017916745 0.012554295
0002a0 b8 c2 17 be 3e 47 1e 3d f7 fa c9 3d 80 fa bb 3b
       -0.14820373 0.03864216 0.09862321 0.005736649
0002b0 c4 4a 4d 3d 64 15 41 b8 46 41 96 bc 6e 42 a4 3c
       0.05012013 -4.6034707e-05 -0.018341672 0.020051207
0002c0 c2 fc 00 3d 05 0a c6 bc e2 31 ad bd 3b b2 d8 bd
       0.03149105 -0.0241747 -0.0845678 -0.1058087
0002d0 23 5d 92 bd 19 64 a5 3d 3a c2 0b 3d db ff 3e 3d
       -0.07146671 0.08075733 0.034120776 0.04663072
0002e0 af 86 ac 3d 5c 9f 96 3c e9 49 db 3d 9a 31 e7 bd
       0.08424126 0.018386535 0.107074566 -0.112887576
0002f0 ae 54 09 bd 54 15 32 3d 28 05 f6 3d 03 cc a4 3d
       -0.033528022 0.04347737 0.12012702 0.08046725
000300 81 83 ec bd fe 0d 85 3d 7f f4 82 3d 2d f5 e2 b9
       -0.1154852 0.064968094 0.0639429 -0.0004328875
000310 8d 38 f9 3b 39 86 74 3d 13 64 df 3d 28 bf 5f 3d
       0.0076056183 0.059698317 0.109077595 0.05462566
000320 29 ca d1 bc b3 70 9f 3d 22 d6 21 bc 3f 58 d3 3d
       -0.025609093 0.077851675 -0.009877713 0.10319566
000330 57 ff 0f be 2c be 65 bd d0 3f 28 3e f5 66 5a 3e
       -0.14062248 -0.056089565 0.16430593 0.21328337
000340 93 70 e5 bc dd fb 00 3e 05 5e b9 bd f7 42 47 bd
       -0.028007781 0.12596078 -0.09051136 -0.048647847
000350 fc 7d 02 be bd ba 6c 3c 95 74 21 bd 42 ed 5d 3d
       -0.12743372 0.014448819 -0.039417822 0.054181345
000360 61 2e 62 3e 9f 79 55 be 69 00 a7 3c 7d 97 8c 3d
       0.22088005 -0.20847176 0.020385938 0.068648316
000370 21 be 9e bd c7 f4 f4 3d 5d 7a 7a bd 1c 3c 4c 3e
       -0.07751108 0.1196075 -0.06115185 0.19944805
000380 63 a0 8d 3d 39 c0 e5 3d 4e 76 5b bd af e3 1a 3d
       0.06915357 0.11218304 -0.05357962 0.037814792
000390 59 b6 21 be 50 df 2d bd 76 e1 1c 3d 37 79 e7 3c
       -0.15792216 -0.042449296 0.038300954 0.028256042
0003a0 5c c1 b6 bd 41 3a 11 3d ff 2e ed 3d 6b 95 b9 3d
       -0.08923599 0.035455946 0.115812294 0.09061702
0003b0 45 a4 03 bd 13 97 54 bd f1 77 de bc cb 0d aa 3d
       -0.03213908 -0.051901888 -0.027156802 0.08303412
0003c0 32 8a db 3c 94 2a ea bd 33 b1 87 3d 7f 79 0e 3c
       0.026799295 -0.114339024 0.06625595 0.008695959
0003d0 d6 be 6c bc 29 e8 17 3e b2 cb b7 3d bc 58 66 3e
       -0.014449796 0.14834656 0.08974399 0.22494787
0003e0 5f 59 27 3d e2 3c 6c bd 4a 80 34 3e e9 11 04 3d
       0.040856715 -0.05767525 0.17627063 0.032243643
0003f0 e8 bd da bd 39 c7 30 be 3d 48 79 3d a3 11 3d be
       -0.10680753 -0.17263497 0.060859907 -0.18463759

network_body._body_endoder.seq_layers.0.bias f4 [64]
000000 7d 2f 22 3e 12 ad bd 3d 21 9c 70 3e ec 30 c4 3e
       0.15838428 0.09261526 0.23497058 0.38318574
000010 a7 39 ab 3d 19 4e 79 3d 36 dc e6 3d 8e 8f c3 3d
       0.08360606 0.060865495 0.11272471 0.09548865
000020 07 79 3c be e8 e6 69 3d a8 29 8f be f4 20 85 3c
       -0.18405543 0.057104975 -0.2796147 0.016251065
000030 cf e4 1a 3e 83 20 37 3c cf 65 c9 bd ea 9d a2 3e
       0.15126346 0.011177185 -0.098338716 0.31761104
000040 40 13 6f 3e 77 02 0d 3e 4a 3a 3f 3e de 72 76 3b
       0.23347187 0.13770472 0.1867458 0.0037605087
000050 9e c3 f5 3d 98 3c 53 3d 95 85 c0 3b cc dc 80 be
       0.12000202 0.05157146 0.005875299 -0.25168455
000060 11 b0 28 bd 44 69 de 3d 78 24 1e 3e 70 93 84 3d
       -0.041183535 0.108599216 0.15443599 0.06473434
000070 35 20 04 3e 49 e0 07 3c 3b 94 3d 3e 66 5e e2 3e
       0.12902911 0.00829322 0.18513577 0.44212645
000080 a7 b3 18 3e 0e ac 97 3e 6b 6b 2b 3d 9a c5 06 3e
       0.14912282 0.29623455 0.04185049 0.13161317
000090 d8 a5 5b 3f f1 18 3c 3d 40 17 20 3e 94 bb 21 be
       0.8579993 0.045922223 0.15633869 -0.15794212
0000a0 bc 55 15 3d ef de c9 3d a5 ab 5d 3e 30 85 ba 3d
       0.036458716 0.09856974 0.21647508 0.09107435
0000b0 47 7e e9 3d eb c8 88 be af a0 73 3e e6 ff b5 3d
       0.114010386 -0.26715788 0.23791765 0.088866994
0000c0 36 e1 37 be 8d a3 15 3e 27 79 57 3e dd 45 02 3e
       -0.17957005 0.14613171 0.2104231 0.12721963
0000d0 fe c8 97 3e 65 5e 34 3d 38 b8 de 3e 98 f2 e7 3d
       0.29645532 0.044035334 0.43499923 0.11325568
0000e0 b0 60 15 3d 75 0f 0c 3e 1c 13 a5 3c e4 c8 bf 3c
       0.03646916 0.13677771 0.020150714 0.023411222
0000f0 60 f9 18 3e 0e f9 43 be a9 89 22 3e a7 e1 16 3e
       0.14938879 -0.19137976 0.15872826 0.14734517

network_body._body_endoder.seq_layers.2.weight f4 [64, 64]
000000 0d d2 28 3d d0 87 74 3c 6a 8f 8f be 9e 46 14 3e
       0.041215945 0.014924958 -0.28039104 0.14480063
000010 42 d7 b0 3d 2e a6 31 3b 34 62 a6 3e d9 89 f3 bc
       0.08634807 0.0027107107 0.32496798 -0.029728817
000020 f9 31 23 3c 08 ce 10 3d 49 50 44 be 84 37 81 3e
       0.009960645 0.035352737 -0.19171251 0.25237668
000030 41 a8 0f be bd 42 72 be e6 70 5b be 07 d3 4b bd
       -0.14029028 -0.23658271 -0.21429786 -0.0497618
000040 9c 64 8d 3c 6f c1 76 bc 52 6e 06 3e 09 0a a4 bc
       0.017259888 -0.015060767 0.13128021 -0.020024316
000050 13 6b ed bc be 56 bf 3d cf 55 24 3e f5 91 90 be
       -0.028981721 0.09342717 0.16048358 -0.28236356
000060 94 be 89 3d 46 8e 04 be 45 f7 04 bb 50 55 fd bc
       0.06725803 -0.12944898 -0.0020288986 -0.03092447
000070 e1 d6 34 be 95 8f dd bc ed b6 94 3e 4f 75 dd 3c
       -0.17660095 -0.027046004 0.2904581 0.027033476
000080 b1 04 cb bd 8a 39 87 3d d2 d6 0b be 0e 59 8c bd
       -0.09913004 0.066027716 -0.13656166 -0.06852923
000090 49 fc 1f 3f 69 04 02 3e 3c 5e 67 3e c0 f8 31 be
       0.6249433 0.12696995 0.22594541 -0.17380047
0000a0 15 d4 4f 3e bf 39 fb bc cb c3 90 bd 6f ff 3a 3d
       0.20295747 -0.030667184 -0.070685945 0.045653757
0000b0 62 80 72 bd 83 3e 68 be cb 49 be 3d ef 68 8b 3e
       -0.059204467 -0.22680096 0.09291419 0.27228495
0000c0 54 8d ab bd 37 fb 4a 3d 7e a2 be 3d eb 3c f4 bb
       -0.083765656 0.049555983 0.09308337 -0.007453551
0000d0 5d 53 6b be bc 80 db 3e d1 21 9b 3d 46 d3 fc 3c
       -0.2298102 0.42871654 0.07574809 0.030862462
0000e0 71 c5 8a be 22 64 4c 3e 1e bc 49 3d d6 e2 d6 3d
       -0.2710376 0.19960073 0.04925167 0.10492484
0000f0 e6 fb 8e 3e bc 08 b5 bd 64 a5 6d bd f8 00 f1 bb
       0.27926558 -0.088395566 -0.058019057 -0.007354852
000100 5b 1f 5a be 8a e4 28 be 89 39 01 3e 57 81 a2 be
       -0.21301024 -0.1649343 0.12619604 -0.31739303
000110 d1 d3 cb bd 30 e9 27 3e d5 d5 2c 3e a1 cf a1 be
       -0.0995251 0.16397548 0.16878445 -0.3160372
000120 4a 51 80 3e 10 a6 c4 3d 93 8d 17 bd 4f ad a5 3b
       0.2506202 0.096019864 -0.03700025 0.0050560604
000130 80 ce be be b1 29 f7 3d 55 57 c1 bc 95 81 11 be
       -0.37266922 0.12068499 -0.023601213 -0.14209588
000140 b8 84 1b 3b 8a 09 db bc ad aa 96 bd df d5 81 3d
       0.002373023 -0.026737947 -0.073567726 0.06339621
000150 0d 7d 96 bd c8 e7 68 3d 56 82 e0 3d 9e ca 56 3d
       -0.0734807 0.05686167 0.109623596 0.052439325
000160 24 4f 5d 3e 24 58 a1 3c 69 3a 0c 3e eb f6 8f bc
       0.21612221 0.019695349 0.13694157 -0.017573794
000170 2d 6b a9 bc 77 ee af bd 7d 7c cc 3d 3c 89 a0 3d
       -0.020680988 -0.085904054 0.09984682 0.078386754
000180 62 5e f3 3d 48 25 9d 3d 0b 03 40 bd b8 a4 fa 3b
       0.118832365 0.076731265 -0.046877902 0.0076490305
000190 f1 5e 37 3e 33 19 2e 3e 67 d2 1d 3e f4 03 04 3d
       0.17907311 0.170018 0.15412293 0.032230332
0001a0 26 19 29 3d 90 0d a6 3c 75 f8 d1 bc 12 33 6c be
       0.04128375 0.020270139 -0.025631169 -0.23066357
0001b0 f6 bf 68 bc cf 5f 5d 3e 90 4a 32 3d 63 6a 20 3e
       -0.014205923 0.2161858 0.04352814 0.15665583
0001c0 5e 0f bc 3d 53 a8 d0 bd bd ad cf 3c 1b 5d bb bc
       0.091826186 -0.10188355 0.0253514 -0.022871545
0001d0 aa 1b 49 3e 6d ae 12 3e ab 38 e6 3d 5b b4 cf bc
       0.19639459 0.1432435 0.11241277 -0.025354555
0001e0 32 04 7b bc da a5 37 3e fd b3 33 3e a0 3e 64 3e
       -0.015320824 0.17934361 0.17549129 0.22289515
0001f0 48 fe a3 3e 6a ad 19 bd eb 2c 7e 3c 3d 1f e4 bd
       0.3202994 -0.037518896 0.015513639 -0.11138771
000200 a7 e3 d2 3d 09 f1 2e be af 04 5e be 08 25 8e 3d
       0.102973275 -0.17084135 -0.21681474 0.06940657
000210 c5 f4 7e be 3f 6f 5a 3e d4 a9 59 3c 53 62 83 be
       -0.2489806 0.213315 0.013285119 -0.25660953
000220 70 1a d5 be b6 96 a5 3e fd a9 95 be 47 7a c5 3d
       -0.41621733 0.32341546 -0.29231253 0.09642463
000230 96 f8 2e 3e e1 42 1c 3d cd 29 65 3e 11 da ef bd
       0.17087016 0.03814972 0.22379227 -0.11711515
000240 a9 f5 42 3e 66 da 79 3e bc 62 05 3e a2 66 3f be
       0.19039024 0.24399719 0.13025945 -0.18691495
000250 c3 29 ed 3a 41 83 8a 3e e1 31 a6 3d 30 4b b8 bc
       0.0018094111 0.27053264 0.081149824 -0.02249679
000260 3e 2a 34 be 8c 55 10 3e 70 de 11 3e 34 d9 ff 3d
       -0.17594239 0.14095134 0.1424501 0.124926
000270 51 17 b9 bc 48 a6 fd bc 25 2d 39 be c1 40 ae 3c
       -0.022594126 -0.030963078 -0.18083628 0.021271111
000280 ff 27 68 3e 84 4e 96 3c 41 ad ce 3d 56 f0 15 3d
       0.22671507 0.018347986 0.10091639 0.036606155
000290 61 1c 58 3e c1 60 02 be 19 07 e7 3d e5 07 01 bd
       0.21104576 -0.12732221 0.11280651 -0.03150167
0002a0 5a f4 83 bd 3f 74 33 bc 0a 3a 55 bc 87 01 69 3c
       -0.06443091 -0.010953008 -0.013014326 0.014221556
0002b0 58 12 fd 3d 70 9a 4e be 9a f5 70 3d a9 0c c2 bd
       0.123570144 -0.201761 0.058827974 -0.09475071
0002c0 13 3e 6a be 0f 09 1d 3d 87 bf fe bb ef d1 92 3e
       -0.22875242 0.038338717 -0.0077742967 0.28675792
0002d0 35 10 32 3e ed 86 0e be a4 5e 2c bd d5 ea e3 bd
       0.17388995 -0.13918658 -0.042082444 -0.11128775
0002e0 a1 c9 48 be 6c f0 5b bd 8e d9 07 bf 39 10 5e 3e
       -0.19608165 -0.05369608 -0.5306634 0.21685876
0002f0 bd c2 91 3e f9 3c 97 3e 39 a3 ad 3d eb df fc 3d
       0.28468886 0.29538706 0.08478398 0.123473965
000300 54 57 35 3d ae a7 ba be 8a 99 63 be af 23 40 3d
       0.044272736 -0.36456054 -0.22226539 0.04690903
000310 d1 d7 a4 bd 1b 7e 71 3e f2 50 71 3e f4 98 e5 bd
       -0.08048976 0.23583262 0.23566034 -0.11210814
000320 31 68 55 bd 3d bf c2 3e b7 91 1f 3d 1d 93 7e be
       -0.052101318 0.38036528 0.038957324 -0.24860807
000330 dd 0c eb bc 96 b8 25 3e 03 71 29 3e fe 07 65 3e
       -0.028692657 0.16183695 0.16547017 0.2236633
000340 f2 98 94 bc 5f 52 51 bc d5 5e a9 3d 56 0c 75 3e
       -0.018139336 -0.012775986 0.08270041 0.23930487
000350 ca ed c4 3e 59 70 ea 3d 93 23 6e 3e f5 0d 11 3e
       0.3846267 0.1144721 0.23255758 0.1416548
000360 5f d3 0d 3e 98 19 2d be e1 e5 33 3d af 22 7f 3e
       0.13850163 -0.16904294 0.0439204 0.24915574
000370 5d 9c e0 bd ae 53 53 3d 17 2e 87 3e 98 3e 86 3e
       -0.10967324 0.051593475 0.2640235 0.2621963
000380 7a 78 2b bd 59 d4 ff bd 3c 8d a5 bd 21 60 06 3e
       -0.041862942 -0.12491674 -0.08083579 0.13122608
000390 e0 5f be 3e d3 0f 82 3d b8 4c 44 be e9 8e 94 be
       0.37182522 0.063506745 -0.19169891 -0.29015282
0003a0 97 9c 8d 3d b2 81 5f 3d 6c e4 e8 3d e6 04 82 3e
       0.06914633 0.054567046 0.11371693 0.25394362
0003b0 14 8f 06 3e 25 48 4e 3e ee 4f 83 3c 3b 3d 6d 3d
       0.13140517 0.20144708 0.016029324 0.057919722
0003c0 87 d0 2c 3e 01 c2 80 bd 2a 4c 3a bd 29 d1 06 be
       0.16876422 -0.06287003 -0.045482792 -0.13165726
0003d0 e2 c2 e0 3d 96 5e 9a 3d 32 7a 3a 3e 0a 39 c7 3c
       0.10974671 0.07537572 0.18210676 0.02431919
0003e0 c9 a3 0b 3e f2 87 11 bd 86 23 4b 3e f0 28 80 3e
       0.13636698 -0.03553004 0.1983777 0.25031233
0003f0 2b cc 52 3e f8 b9 95 bd b1 c8 72 bd 45 db 40 bd
       0.20585696 -0.07310861 -0.059273425 -0.04708411

network_body._body_endoder.seq_layers.2.bias f4 [64]
000000 2b 74 5c 3e b3 cd 4a bc bf bf 5d 3e dc b5 ae 3c
       0.2152869 -0.012378144 0.21655177 0.021326952
000010 4a ab ae 3b 99 1b fb 3c 23 62 88 3d 33 0e ba be
       0.005330478 0.030652808 0.06659343 -0.36338958
000020 8b d8 af 3d 4e 68 da 3c 19 2c a2 be d0 a6 9c 3d
       0.08586224 0.026661064 -0.3167427 0.076490045
000030 02 31 a3 be b0 9e 1f 3d 21 f3 94 3d 19 fd c3 3d
       -0.31873327 0.038969696 0.07272936 0.09569759
000040 eb fb 24 3e 60 fd 6a 3d 08 44 3e 3c 4e 02 8c be
       0.16111724 0.057370543 0.0116129 -0.27345508
000050 f6 07 6c 3e 05 de dc 3d f3 c8 46 3d 49 88 2f 3e
       0.23049912 0.10784534 0.048531484 0.17141832
000060 30 ef 2f be 8c da 58 3c 08 3e 95 3c c8 13 52 bc
       -0.17181087 0.013235699 0.018218055 -0.012822099
000070 5b d9 02 3d 5d 5f a1 3e 5d 08 ed 3d 50 d1 69 be
       0.031945568 0.3151807 0.11573861 -0.22833753
000080 0e 9e 65 bc e2 b2 2e 3e 5b 4c 00 3c 33 71 87 3e
       -0.014014734 0.17060426 0.007830705 0.26453552
000090 f8 b9 f0 bd fe 4c 3c 3e 18 68 6a 3e 7d a7 43 3e
       -0.11754221 0.18388745 0.22891271 0.1910686
0000a0 c9 98 a3 3d 10 8b 37 3e da 6f f2 3d b5 c7 c9 3d
       0.07988126 0.17924142 0.1183774 0.09852544
0000b0 83 87 26 3e 3a f6 73 3e 21 39 82 3e bd 8a 32 3e
       0.16262631 0.23824397 0.2543421 0.17435737
0000c0 1c 07 a7 be 58 62 87 3e e1 5b a7 be b0 aa f4 3d
       -0.32622612 0.26442218 -0.32687286 0.119466186
0000d0 03 fc 27 bb ba c3 7a bd 2b 9d 89 be 1a b0 a2 3d
       -0.0025632388 -0.061221816 -0.26877722 0.07943745
0000e0 65 ec 2e 3e ff ea 86 be 47 54 a8 3d 04 84 4f 3d
       0.17082365 -0.26351163 0.082192 0.05066301
0000f0 0d 61 48 3d 54 71 4e 3b ec 91 53 3e 8c 3a 81 be
       0.04892068 0.0031500654 0.20661134 -0.2523998
