results/new_test_run_3/simple_deer/simple_deer-128.onnx (onnx, 482433 bytes, 15 tensors)

network_body.observation_encoder.processors.0.self_ent_encoder.seq_layers.0.bias f4 [128]
000000 00 00 00 00 00 00 00 00 00 00 00 00 00 00 00 00
       0.0 0.0 0.0 0.0
000010 00 00 00 00 00 00 00 00 00 00 00 00 00 00 00 00
       0.0 0.0 0.0 0.0
000020 00 00 00 00 00 00 00 00 00 00 00 00 00 00 00 00
       0.0 0.0 0.0 0.0
000030 00 00 00 00 00 00 00 00 00 00 00 00 00 00 00 00
       0.0 0.0 0.0 0.0
000040 00 00 00 00 00 00 00 00 00 00 00 00 00 00 00 00
       0.0 0.0 0.0 0.0
000050 00 00 00 00 00 00 00 00 00 00 00 00 00 00 00 00
       0.0 0.0 0.0 0.0
000060 00 00 00 00 00 00 00 00 00 00 00 00 00 00 00 00
       0.0 0.0 0.0 0.0
000070 00 00 00 00 00 00 00 00 00 00 00 00 00 00 00 00
       0.0 0.0 0.0 0.0
000080 00 00 00 00 00 00 00 00 00 00 00 00 00 00 00 00
       0.0 0.0 0.0 0.0
000090 00 00 00 00 00 00 00 00 00 00 00 00 00 00 00 00
       0.0 0.0 0.0 0.0
0000a0 00 00 00 00 00 00 00 00 00 00 00 00 00 00 00 00
       0.0 0.0 0.0 0.0
0000b0 00 00 00 00 00 00 00 00 00 00 00 00 00 00 00 00
       0.0 0.0 0.0 0.0
0000c0 00 00 00 00 00 00 00 00 00 00 00 00 00 00 00 00
       0.0 0.0 0.0 0.0
0000d0 00 00 00 00 00 00 00 00 00 00 00 00 00 00 00 00
       0.0 0.0 0.0 0.0
0000e0 00 00 00 00 00 00 00 00 00 00 00 00 00 00 00 00
       0.0 0.0 0.0 0.0
0000f0 00 00 00 00 00 00 00 00 00 00 00 00 00 00 00 00
       0.0 0.0 0.0 0.0
000100 00 00 00 00 00 00 00 00 00 00 00 00 00 00 00 00
       0.0 0.0 0.0 0.0
000110 00 00 00 00 00 00 00 00 00 00 00 00 00 00 00 00
       0.0 0.0 0.0 0.0
000120 00 00 00 00 00 00 00 00 00 00 00 00 00 00 00 00
       0.0 0.0 0.0 0.0
000130 00 00 00 00 00 00 00 00 00 00 00 00 00 00 00 00
       0.0 0.0 0.0 0.0
000140 00 00 00 00 00 00 00 00 00 00 00 00 00 00 00 00
       0.0 0.0 0.0 0.0
000150 00 00 00 00 00 00 00 00 00 00 00 00 00 00 00 00
       0.0 0.0 0.0 0.0
000160 00 00 00 00 00 00 00 00 00 00 00 00 00 00 00 00
       0.0 0.0 0.0 0.0
000170 00 00 00 00 00 00 00 00 00 00 00 00 00 00 00 00
       0.0 0.0 0.0 0.0
000180 00 00 00 00 00 00 00 00 00 00 00 00 00 00 00 00
       0.0 0.0 0.0 0.0
000190 00 00 00 00 00 00 00 00 00 00 00 00 00 00 00 00
       0.0 0.0 0.0 0.0
0001a0 00 00 00 00 00 00 00 00 00 00 00 00 00 00 00 00
       0.0 0.0 0.0 0.0
0001b0 00 00 00 00 00 00 00 00 00 00 00 00 00 00 00 00
       0.0 0.0 0.0 0.0
0001c0 00 00 00 00 00 00 00 00 00 00 00 00 00 00 00 00
       0.0 0.0 0.0 0.0
0001d0 00 00 00 00 00 00 00 00 00 00 00 00 00 00 00 00
       0.0 0.0 0.0 0.0
0001e0 00 00 00 00 00 00 00 00 00 00 00 00 00 00 00 00
       0.0 0.0 0.0 0.0
0001f0 00 00 00 00 00 00 00 00 00 00 00 00 00 00 00 00
       0.0 0.0 0.0 0.0

network_body.observation_encoder.processors.2.normalizer.running_mean f4 [4]
000000 06 11 3b 3f 52 5e 3c 3f f8 03 fe 3e 52 57 d4 3f
       0.7307285 0.7358142 0.49612403 1.6589148

network_body.observation_encoder.x_self_encoder.seq_layers.0.weight f4 [128, 4]
000000 f7 f9 e4 bc 17 06 8e 3a 9d 9e b1 3c 32 a3 17 3d
       -0.027951224 0.0010835555 0.021682078 0.03702087
000010 4f 40 89 bc 15 b6 1d bb c5 8e 3b bd 97 8c b7 bc
       -0.016754298 -0.0024064828 -0.045790453 -0.022405906
000020 65 80 ed bc b7 87 5e bd 08 d8 2b ba 2d e5 27 bc
       -0.028991887 -0.054328647 -0.00065553235 -0.010247511
000030 73 57 1e 3d 44 04 31 3d 43 65 1f bd b2 10 93 3b
       0.038657617 0.04321696 -0.03891493 0.004488074
000040 a1 fc 0a 3d fc e0 1a 3d 8b 2e 85 3c 5e 5e 0a 3c
       0.033932332 0.037812218 0.016257545 0.00844535
000050 ff f4 e0 3c 6a d0 59 bb cf 80 ef bc d9 6e ab 3c
       0.027460573 -0.0033235797 -0.029236225 0.02092688
000060 99 8b 18 3d ea 24 07 3d 3a 92 f3 bc a4 24 e2 3c
       0.037242506 0.03299419 -0.029732812 0.027605362
000070 69 cc 75 3c 98 d9 8b bc a1 13 85 bb 71 ff 0d bd
       0.015002348 -0.01707153 -0.004061178 -0.034667436
000080 5a 94 d8 3c a2 35 18 3c ad c8 c1 3c 16 f8 08 bd
       0.026437927 0.009290131 0.02365526 -0.03343972
000090 06 23 57 3c a0 40 1c 3b 2b 12 14 bd 76 9e 0f bc
       0.013130909 0.002384223 -0.03615014 -0.008765807
0000a0 38 19 0b 3d 6c 02 14 3d 6a 1f 2f 3c ad e4 6d bd
       0.033959597 0.036135122 0.010688642 -0.05807941
0000b0 ff ac 7e bc e5 65 61 bc 1d f3 1b 3d 53 02 10 3d
       -0.015544175 -0.013757204 0.038073648 0.035158467
0000c0 4e 0d f3 3c 0d 45 da ba 23 a6 b6 bc 14 6a f6 3c
       0.02966943 -0.0016652659 -0.022296017 0.030079879
0000d0 56 6f 10 3c 4f 39 c7 3a d1 d6 1a 3d 44 b3 84 3c
       0.008815607 0.0015199574 0.03780252 0.016198762
0000e0 c3 b1 00 3d 8d 5d 94 3c e2 ab 86 ba 1b 29 89 ba
       0.031419527 0.018111015 -0.0010274614 -0.0010464521
0000f0 d4 53 85 3c d8 d3 01 3c d8 6d dd 3b dd 39 47 bc
       0.016275324 0.007924043 0.006757479 -0.012159792
000100 29 b7 e2 bc c5 36 2e 3b 5b 82 a0 3c 26 78 a7 3c
       -0.027675228 0.0026582938 0.019593408 0.020443033
000110 c8 03 b3 bb 4b 7b 22 3d 92 9d 19 bb 60 b3 28 3d
       -0.0054630972 0.039668363 -0.0023439866 0.04118669
000120 2f 76 10 bc 67 b5 f6 3c de 8c 3e 3c 98 3b 7f 3c
       -0.00881724 0.030115796 0.011630265 0.015578173
000130 69 16 cd ba ad 54 80 3c 5e c3 f4 3c 6c db 53 3c
       -0.0015646938 0.015665377 0.029878315 0.012930732
000140 80 a4 69 bb 33 9f 08 bc 0f 56 3d 3c e8 7b 87 3d
       -0.0035651028 -0.008338737 0.0115561625 0.0661543
000150 be 2a 54 bd 09 56 12 bc 01 49 f9 bc 1f b5 f6 3c
       -0.051798575 -0.008931645 -0.030430319 0.030115662
000160 8a 19 92 bd e2 c6 5b 3d 7e 4f 00 3d 2a 29 19 3c
       -0.071337774 0.053656466 0.03132581 0.009348193
000170 04 1c ac bd 42 f4 1f bd 0f 03 9b 3d e1 59 23 bd
       -0.08403781 -0.0390513 0.07568943 -0.039880637
000180 45 95 bc bb 49 de 87 bd 91 e9 01 3d 4c 88 9f bc
       -0.005755099 -0.066341944 0.031716887 -0.019474171
000190 b2 4c c2 3c 38 22 f1 bc 00 0b 49 3d 08 c5 94 3c
       0.023718212 -0.029435262 0.049082756 0.018160358
0001a0 d3 32 93 bb 72 1d 36 bd 40 b1 07 bd a2 f7 a9 3c
       -0.0044921427 -0.044461675 -0.033128023 0.020747963
0001b0 7e 1b 97 3c 17 96 55 bc 47 fe 3e 3d 9a 3b 85 3c
       0.018445726 -0.0130362725 0.046629217 0.016263772
0001c0 d1 ee 93 3c 33 e8 1b bc cc 1c 8f 3d a0 3d 1b 3c
       0.018058212 -0.00951581 0.069879144 0.009475142
0001d0 ab 87 17 bd 9c ed 18 bd e1 e1 c0 bc 7c be d5 3b
       -0.036994617 -0.037335977 -0.023545207 0.0065229516
0001e0 6d aa 4c 3c 9e 22 05 bc 09 6a f5 bc a3 e1 7d bb
       0.012491805 -0.008125929 -0.029957788 -0.0038739226
0001f0 76 36 af bc 91 a0 0e bd 08 b1 07 bc aa 84 8a 3d
       -0.021388274 -0.034821097 -0.008281954 0.06763585
000200 9a 16 bb 3d 60 c2 6f bd d9 c6 04 bd f9 bf 00 3d
       0.0913517 -0.05853498 -0.0324162 0.03143308
000210 f3 e5 1b bd a4 a2 87 bd 11 ec 90 3d 48 b6 c5 bc
       -0.038061094 -0.06622818 0.07076276 -0.02413477
000220 d1 9d a3 3c b1 e1 3d bc 64 02 fa bc 07 1a 04 3d
       0.019972714 -0.011589454 -0.030518718 0.032251384
000230 0b b5 a0 bc 84 5a e7 bb 71 57 cd 3c 38 55 72 3d
       -0.019617578 -0.007060351 0.02506611 0.059163302
000240 68 67 c5 bd 52 f0 9f bc 3f 89 5a bc 53 a8 2b bb
       -0.09638864 -0.019523773 -0.013338386 -0.0026192858
000250 07 b1 a9 bc 57 66 a4 bc 9f 5b f0 3c 96 9c 1c 3b
       -0.020714296 -0.02006833 0.029340563 0.0023897043
000260 b1 1f 7f bd e1 eb b1 3b 9b 5d c0 3a ee 71 c1 bc
       -0.062286083 0.0054297303 0.0014676334 -0.023613896
000270 25 96 0f 3d ad 62 35 bc 49 d4 ec 3c 1f 03 26 bc
       0.0350553 -0.011070889 0.02890982 -0.01013258
000280 a6 f5 67 3d 7b 3d 83 3d 9a a9 39 bd ed f1 10 3c
       0.056630753 0.06408211 -0.04532776 0.008846742
000290 8f c1 32 bd d6 b9 57 3d ad cd 4d bd 3a b0 c8 bc
       -0.043641623 0.05266746 -0.050244976 -0.024498094
0002a0 c1 ea d2 bb 5e a8 45 3d 7f 65 99 bb 45 da 88 3d
       -0.0064366763 0.04825627 -0.0046812887 0.066822566
0002b0 4d dc aa 3c f0 ae c0 ba 28 ad c7 bc 47 ff f5 3c
       0.020857 -0.0014700573 -0.02437456 0.030028952
0002c0 51 8f 0c 3d 92 66 cc 3b c7 32 56 3c 51 17 bf 3d
       0.034316365 0.0062378133 0.01307363 0.09330619
0002d0 c7 ef 80 3d 77 62 ad 3b a2 4a 33 bd fb fa a3 bc
       0.06295734 0.005291279 -0.043772347 -0.020017138
0002e0 e0 b1 3d bb 8f d6 25 bd 08 52 8f 3c 98 a8 a0 bd
       -0.0028945133 -0.040487822 0.01749517 -0.07844657
0002f0 2a 62 77 3b bc 7d 13 3d 8f 2d 3a bd 68 3b dd bc
       0.003774772 0.03600858 -0.045453604 -0.027005866
000300 f4 3f 89 3a 56 79 14 3b 34 2d 90 bc ec 76 e8 3b
       0.001047133 0.002265533 -0.01759968 0.0070942547
000310 4d e1 0f 3c 08 01 30 bc d5 ba cd 3c d1 e8 9c bc
       0.008781743 -0.010742433 0.025113503 -0.019153984
000320 ad 25 86 bd 69 9c 13 bd c8 16 7f 3c 10 73 8a bc
       -0.06550155 -0.036037836 0.015569396 -0.01690057
000330 d3 e2 f6 bc 16 9e 7e bd cd 06 33 3d 64 1e 07 bd
       -0.030137455 -0.06216248 0.043707658 -0.032987967
000340 d2 01 ec bc 15 ef fc 3c 20 06 81 bc 2b 58 09 3d
       -0.028809462 0.030875722 -0.015749991 0.03353135
000350 94 71 e1 bc 01 e6 ee bc c8 fb 96 3d 75 13 0e 3d
       -0.027519979 -0.029162409 0.07372242 0.034686524
000360 5f b9 d8 bc 64 3a 13 bd 19 61 fc bc d3 5b 4c bc
       -0.02645558 -0.035944358 -0.030808019 -0.0124730645
000370 0c 45 93 3c d4 88 0b 3d 09 ee ce 3c ca 31 ac 3b
       0.01797726 0.034066036 0.025259988 0.0052549588
000380 21 a3 eb bc 40 54 04 3c e5 49 a2 bd 2d 61 0f 3c
       -0.02876431 0.008076727 -0.079242505 0.008751196
000390 aa dd 58 bc 5a 1a 5a bc 8b 7c 11 3c a0 9c 36 3b
       -0.013236443 -0.013311947 0.008879791 0.0027864352
0003a0 a8 ed 1a 3d 65 34 af bc ce 86 4b 3b 70 64 74 3d
       0.037824303 -0.021387288 0.0031055692 0.059666097
0003b0 e8 e0 5f bc 40 58 da 3c cc f3 9d 3c 8e 02 82 bc
       -0.013664462 0.026653409 0.01928129 -0.015870359
0003c0 c3 77 9f bc b9 26 f3 bc a3 89 fa ba 2c cd b8 3c
       -0.019466287 -0.02968155 -0.0019114505 0.022558771
0003d0 df 73 15 3c c5 94 e9 3c 34 b2 54 bb c4 dc a5 3d
       0.009121864 0.028513322 -0.003245485 0.08098748
0003e0 41 90 34 ba a0 21 86 3c e8 d2 e2 ba 40 55 3d bd
       -0.00068879506 0.016373456 -0.0017305287 -0.04622388
0003f0 e5 ce ad 3b 89 a0 1a ba f7 08 fb 3c 28 df 1c bd
       0.0053042048 -0.00058985554 0.030643923 -0.038298756

network_body._body_endoder.seq_layers.0.weight f4 [64, 132]
000000 09 bf c5 bc 72 db 92 bd ab 9b 80 bd d5 09 b7 bd
       -0.024138944 -0.07170762 -0.06279691 -0.08937422
000010 ee c9 d2 3c d5 67 61 bb 37 81 bb 3a b4 50 65 bd
       0.025731053 -0.0034394164 0.0014305477 -0.055985168
000020 51 9c fa 3c 67 b9 a0 bd 72 8f ce 3b b6 50 d8 3c
       0.030592116 -0.07847863 0.006303721 0.026405673
000030 cd 2b 3f 3c 30 3a 01 bd c4 8f 0a bd 8a 76 25 3b
       0.011668158 -0.031549633 -0.03382851 0.0025247657
000040 eb db c0 bd 82 1f 00 3e 1c d1 36 3c 82 00 9d 3d
       -0.09416946 0.1251202 0.011158254 0.076661125
000050 c9 a8 66 3d 0f c7 11 3e 55 05 d7 bd c3 89 ed bb
       0.05631331 0.14236091 -0.10499064 -0.0072490885
000060 87 14 0e 3e 41 a7 8f 3c ae 12 09 be 6f 88 52 bd
       0.13875018 0.017535808 -0.13386032 -0.051399644
000070 82 1d 35 bc 84 52 0b be 4a 3a 89 bb b5 ec bb 3d
       -0.0110543985 -0.13605696 -0.004187857 0.09176008
000080 64 85 c6 bd de 79 e7 3d 0f 40 8c bd 74 98 e8 3d
       -0.09693411 0.11302541 -0.06848156 0.11357203
000090 8d 9d 0d be 59 b0 c1 bd 46 30 d1 bd 98 a6 c1 bd
       -0.13829632 -0.09457464 -0.102142856 -0.09455603
0000a0 db b2 22 3e 54 44 3c 3c 14 20 37 be 54 4f 32 bd
       0.1588854 0.0114909 -0.1788333 -0.043532684
0000b0 0d 5a de 3d 41 be a8 bd 29 88 f8 3d 64 74 92 3c
       0.108570196 -0.08239413 0.121353455 0.017877765
0000c0 96 4f a5 bd 51 1c 64 3d a6 72 b7 3d ce d4 55 be
       -0.080718204 0.055691067 0.08957414 -0.2088196
0000d0 b8 70 e5 3c 60 2f 28 bd 7e 76 24 bd 6c d2 03 3d
       0.02800785 -0.041060805 -0.040152065 0.032183096
0000e0 89 bb 07 3e 4f 27 55 bd cb 43 1b bc 57 80 db bc
       0.13255133 -0.05203944 -0.009476612 -0.026794596
0000f0 15 4d 91 3d 80 52 24 3e 6c 0c 0f be 40 c0 5f 3d
       0.0709478 0.16047096 -0.13969582 0.054626703
000100 04 c1 e4 3d c2 8b 5f 3d 31 60 a2 bc 2b 09 a2 3d
       0.11169627 0.054576643 -0.019821258 0.07911905
000110 10 74 98 3d 4c 5a a5 3d c1 a5 0d bd 6f 4c 2e 3d
       0.07444012 0.080738634 -0.034581903 0.04255336
000120 f8 99 b2 3d b8 3a 32 3d 19 02 d7 3d 48 80 bd 3b
       0.087207735 0.04351303 0.10498447 0.0057831146
000130 00 00 8d bc d7 df 44 bd 9d d6 92 bd 17 9b 2b 3d
       -0.017211914 -0.048065033 -0.071698405 0.041895952
000140 9a 97 03 3c dd 92 83 bd 11 fa 7c bd 94 3b 82 3d
       0.00803175 -0.06424496 -0.06176192 0.0635902
000150 6f 55 bb bd f1 5d 36 3d c3 22 c7 bc 3f ce 6a bd
       -0.091471545 0.044523183 -0.024308568 -0.057325598
000160 77 bc 46 3d 97 3b 3e 3e da 16 fd 3c f9 53 1d be
       0.048519578 0.18577419 0.030894686 -0.15364064
000170 01 a3 8e 3d 42 0c 0b 3d 66 ad 56 3b 0e b1 a5 bd
       0.06964684 0.033947237 0.0032757162 -0.08090411
000180 f5 08 dd 3c 62 14 b6 3d f1 a8 16 3d 58 3d 3d be
       0.02698181 0.088906065 0.03678221 -0.18480432
000190 ed 63 2f 3e 20 22 32 bd f0 c9 30 3d 75 4e 58 3d
       0.17127962 -0.043489575 0.043161333 0.052809197
0001a0 d7 ba aa bd 0e 05 89 bd d5 d4 12 bd b4 91 12 3a
       -0.08336418 -0.06690417 -0.035847504 0.00055911695
0001b0 69 12 ab 3d d7 e5 25 3d 44 8e 09 3e ba c7 ef 3d
       0.08353121 0.040502395 0.13433176 0.11708017
0001c0 29 54 8a bc bb ac fc bd 77 7a 8a bd 00 55 43 bc
       -0.016885834 -0.12337633 -0.067616396 -0.011922121
0001d0 5e 95 47 3d 0e 20 73 3d 0e dc 65 bd cf c4 dd bd
       0.048726432 0.05935674 -0.056118064 -0.10828554
0001e0 ed 54 a9 3d 54 bc 9c 3d b3 78 51 3b cd 3b 2e bd
       0.082681514 0.07653108 0.0031962811 -0.0425375
0001f0 aa 0a f1 bd 61 cd 48 3d 86 de b3 3c 0d 72 e0 bc
       -0.11769612 0.04902399 0.021956693 -0.027398134
000200 25 55 d1 bd 22 8b 06 bb dd b2 9d bd 07 3a 89 bd
       -0.10221318 -0.0020529707 -0.07700131 -0.06700521
000210 1d 72 2e bd e7 14 9c ba 30 a1 46 3d 58 4c 0d 3d
       -0.042589296 -0.0011908085 0.048493564 0.034496635
000220 02 07 f8 bc 0c 90 c0 3c 9c 77 4f 3d 99 88 ba bd
       -0.03027678 0.023506187 0.050651178 -0.09108085
000230 bb 27 27 3c 7c f5 cf 3d 40 29 71 3d e4 62 a2 bd
       0.010202344 0.10154244 0.05887723 -0.07929018
000240 b5 45 9b 3c 7c bd 47 bd 79 3c 5c 3d 89 f8 9f 3d
       0.018954137 -0.04876469 0.05376861 0.07811076
000250 6e ef 61 3d c2 00 09 be eb 1e a7 bc c7 30 c0 bc
       0.05515998 -0.13379195 -0.020400485 -0.023460759
000260 48 46 16 be f5 c8 6e bd 5f ee fc 3c 09 8c f1 bc
       -0.14675248 -0.058297116 0.030875383 -0.02948572
000270 bc 2b b3 bd e4 ad 09 be 05 66 86 3d fb 76 0b bd
       -0.08748576 -0.1344524 0.065624274 -0.034049015
000280 78 61 2a 3d 96 b3 bc 3d b3 56 9e 3d 17 be f2 bc
       0.04159686 0.09213941 0.0773138 -0.029631658
000290 91 39 c7 3d 0c 22 a0 3d ce 29 1c 3d 7a 09 5f 3c
       0.09727777 0.07818994 0.038125806 0.013613099
0002a0 3b e6 2b bd 85 89 8a 3c b5 e8 d4 3d fa 07 59 3d
       -0.04196761 0.016911278 0.10395948 0.052986123
0002b0 8d bf fa bd e1 1f a7 3d 8a 19 8e 3d 5a a3 17 be
       -0.12243567 0.08160377 0.06938465 -0.14808407
0002c0 c5 8c 1c 3d b5 a3 1a bc 36 34 b4 3c 3e 7e 5f bc
       0.038220186 -0.009438445 0.021997552 -0.013640938
0002d0 9e a7 01 bd 0a ce 97 3d eb 4f 45 bd 5e b6 b8 bc
       -0.031653993 0.07412346 -0.04817192 -0.022547897
0002e0 ae 6e 13 3e c0 68 14 bd e1 f2 ac bd 28 df c3 bc
       0.1439769 -0.03623271 -0.08444763 -0.02391012
0002f0 f9 f8 a1 3c 74 c7 a3 3c 26 dd 4a be f3 e8 8f 3d
       0.01977204 0.019992568 -0.19810924 0.070268534
000300 b4 5f 16 3e b9 8f a5 bc 1e 82 0e 3c 78 b7 28 3d
       0.14684945 -0.020210134 0.008698015 0.041190594
000310 38 38 97 3b 3a 19 4b bb f8 42 03 be e8 d6 27 bd
       0.004614856 -0.0030990378 -0.12818515 -0.040976435
000320 a0 25 8c 3d ab e2 bb bc 92 8b 4d 3c b7 60 88 bd
       0.06843114 -0.022935232 0.012545483 -0.06659072
000330 6a 8d 98 bd 70 c5 22 3d 39 e5 16 be f8 4e d8 3c
       -0.074488476 0.039739072 -0.14735879 0.026404843
000340 e7 5a dd 3d 3f 32 df 3d 25 51 04 bc 63 70 bf bd
       0.10808354 0.108982556 -0.008075987 -0.09347608
000350 29 4e 60 3e 93 e4 c4 3c 0e 65 05 be 07 f9 7f 3b
       0.21904816 0.024034774 -0.1302683 0.0039058344
000360 e8 5c 0c 3e 7c 30 da bc 2f 0f a8 3c 8a 73 2e bd
       0.13707316 -0.026634447 0.020515053 -0.042590655
000370 e8 3f 06 3e 72 cf cf ba 0f ca 53 3d 4f d9 51 3d
       0.13110316 -0.001585467 0.05170637 0.051232632
000380 97 97 02 3e ec 52 06 bc 9e 17 47 bc 1a d9 83 bc
       0.1275314 -0.008198481 -0.012151627 -0.016094733
000390 09 e9 3a bb 49 73 a3 bd 45 54 98 bd e2 af b6 3d
       -0.0028520247 -0.07980973 -0.07437948 0.08920266
0003a0 d7 11 b7 bd 72 1e b2 bc b8 a0 e1 3d 68 e4 11 bb
       -0.089389496 -0.021743033 0.11016983 -0.0022261385
0003b0 98 44 8a 3c 80 1c de bd c8 c9 27 3e d8 58 70 bd
       0.016878411 -0.1084528 0.16385567 -0.058678478
0003c0 02 ef cc bb 81 ce 63 bd ed 74 9a bd 9e 82 c8 3b
       -0.006254078 -0.05561686 -0.07541833 0.0061190864
0003d0 4c fc cd bd 29 1e 96 3d 7e e5 1e bc 2f 6e 19 3e
       -0.100578874 0.07329971 -0.00969827 0.14983438
0003e0 a9 4e ab 3c a3 bb 33 be d1 12 11 3d c3 d5 45 3d
       0.020911532 -0.17552046 0.035418335 0.048299562
0003f0 90 9e b0 bc 3e 13 2e bd 5d 8f f6 3d 46 00 ce 3d
       -0.021559983 -0.04249882 0.12039063 0.10058646

network_body._body_endoder.seq_layers.0.bias f4 [64]
000000 00 00 00 00 00 00 00 00 00 00 00 00 00 00 00 00
       0.0 0.0 0.0 0.0
000010 00 00 00 00 00 00 00 00 00 00 00 00 00 00 00 00
       0.0 0.0 0.0 0.0
000020 00 00 00 00 00 00 00 00 00 00 00 00 00 00 00 00
       0.0 0.0 0.0 0.0
000030 00 00 00 00 00 00 00 00 00 00 00 00 00 00 00 00
       0.0 0.0 0.0 0.0
000040 00 00 00 00 00 00 00 00 00 00 00 00 00 00 00 00
       0.0 0.0 0.0 0.0
000050 00 00 00 00 00 00 00 00 00 00 00 00 00 00 00 00
       0.0 0.0 0.0 0.0
000060 00 00 00 00 00 00 00 00 00 00 00 00 00 00 00 00
       0.0 0.0 0.0 0.0
000070 00 00 00 00 00 00 00 00 00 00 00 00 00 00 00 00
       0.0 0.0 0.0 0.0
000080 00 00 00 00 00 00 00 00 00 00 00 00 00 00 00 00
       0.0 0.0 0.0 0.0
000090 00 00 00 00 00 00 00 00 00 00 00 00 00 00 00 00
       0.0 0.0 0.0 0.0
0000a0 00 00 00 00 00 00 00 00 00 00 00 00 00 00 00 00
       0.0 0.0 0.0 0.0
0000b0 00 00 00 00 00 00 00 00 00 00 00 00 00 00 00 00
       0.0 0.0 0.0 0.0
0000c0 00 00 00 00 00 00 00 00 00 00 00 00 00 00 00 00
       0.0 0.0 0.0 0.0
0000d0 00 00 00 00 00 00 00 00 00 00 00 00 00 00 00 00
       0.0 0.0 0.0 0.0
0000e0 00 00 00 00 00 00 00 00 00 00 00 00 00 00 00 00
       0.0 0.0 0.0 0.0
0000f0 00 00 00 00 00 00 00 00 00 00 00 00 00 00 00 00
       0.0 0.0 0.0 0.0

network_body._body_endoder.seq_layers.2.weight f4 [64, 64]
000000 7b 58 b3 3d 1d 74 d3 bd 36 40 c7 bd b8 16 3c 3c
       0.08757111 -0.10324881 -0.09729044 0.011480026
000010 ec 1f 18 be 30 9d 60 bd 76 e9 31 3c e3 f3 a7 bb
       -0.14855927 -0.054837406 0.010858884 -0.005125509
000020 91 c0 96 3c 4f f0 94 3c c6 61 ea bb 8a 1a 10 3e
       0.01840237 0.018180994 -0.007152769 0.14072624
000030 3a c6 cd bd 53 93 d5 bd da 03 b1 bd a4 4e b3 bd
       -0.10047574 -0.104284905 -0.08643313 -0.08755234
000040 da 1f 0f 3e 90 b1 02 bd c2 f9 05 be ff a3 76 be
       0.13976994 -0.031907618 -0.13083556 -0.24085997
000050 36 67 5a bd 92 b9 8e 3d a7 1a f1 3d 54 23 92 3d
       -0.053321086 0.069689885 0.11772662 0.071356446
000060 4c 68 b3 3d 5e 7f d8 3d 9e 52 46 be 84 ea b8 bc
       0.087601274 0.10571168 -0.19367453 -0.022572763
000070 a6 da e2 bc 04 28 09 3e 79 1c 1c bd 3d ec 76 bc
       -0.02769215 0.13394171 -0.03811309 -0.015070972
000080 04 82 f6 3b 0f 20 4c 3c d3 84 bc 3d df 6a fc 3c
       0.0075228233 0.012458815 0.09205022 0.030812679
000090 0a 01 2f 39 c7 f3 7a bd 97 4c 67 bd 87 f4 36 bc
       0.00016689688 -0.06126764 -0.056469526 -0.011166698
0000a0 03 fc fb 3d fb ed ca 3d ca 6f 6e be 5a b8 47 bd
       0.12303927 0.099086724 -0.23284832 -0.048759796
0000b0 19 2c 92 3d 70 43 c5 bd 4c 22 31 bd 41 e2 53 be
       0.07137317 -0.09632003 -0.0432456 -0.20691778
0000c0 b8 cb a1 3d 75 cd 6f 3d a2 3e e5 3d 2d 86 1b be
       0.079001844 0.05854555 0.11193587 -0.15187903
0000d0 01 fc 53 3e 6b 57 a4 3d 1c 7b 46 3b a2 70 54 3e
       0.207016 0.08024486 0.0030285781 0.20746091
0000e0 13 0e 09 bd c0 e3 04 3d 97 60 1a 3d 3d d6 40 bd
       -0.033460688 0.03244376 0.03768977 -0.047079314
0000f0 ad ea 27 bd 35 c4 10 be 38 5a d7 3c 7e 91 42 bc
       -0.04099529 -0.14137347 0.026288137 -0.011875508
000100 11 b8 1b 3d 71 1a 39 3d 66 d0 cb bd 32 ed b6 bd
       0.038017336 0.045191232 -0.09951858 -0.0893196
000110 44 ad b5 b7 97 24 fd bb 90 0e f3 bd 7f a9 af 3c
       -2.1657565e-05 -0.007725309 -0.11868012 0.021443127
000120 5d dc 66 be b5 1c 28 3c c6 6e 38 3e 90 09 9f 3d
       -0.22545 0.010260751 0.18011007 0.07765496
000130 1b fa 5d 3d 22 66 a6 3d 31 c9 6c 3c 31 f4 35 3e
       0.054193597 0.08124949 0.014452265 0.17768933
000140 c3 ce 8f bc 42 60 f7 3c 72 60 42 3c 5c 3a 0a be
       -0.017554646 0.030197266 0.011863815 -0.13498825
000150 37 1b a5 bd aa 7d 11 3e 74 23 3b 3d 6c 44 9a 3e
       -0.080618314 0.14208093 0.045688108 0.30130327
000160 a0 b6 e8 bd 0c 63 2f 3e 5f ac d5 3d d2 1f c2 3d
       -0.11362958 0.17127627 0.10433268 0.094787255
000170 3d fe 10 3d 92 8d e4 3d aa 62 2c 3c 81 97 83 bd
       0.03539871 0.11159815 0.01052157 -0.064253815
000180 e8 6b 3c bd 56 6a dc bd 1a e4 89 bd 70 2b 76 3d
       -0.046001345 -0.107624695 -0.0673296 0.06010002
000190 f6 6e a8 bd 69 8e dc 3c f8 5b 7b bd 8a 15 7c 3d
       -0.08224289 0.026923375 -0.061367005 0.06154398
0001a0 7e 45 e4 3e eb 9d d8 bd 38 98 14 3e 8f 6e 5a 3e
       0.44584268 -0.105769955 0.14511192 0.21331237
0001b0 a3 4a 0d be af 0f fc 3d 70 3d ac bd a7 85 2b bd
       -0.13798003 0.12307679 -0.08410156 -0.041875508
0001c0 fd d5 5e bd 82 aa 6b 3c 4d 47 7e 3e 97 ca d1 bd
       -0.054403294 0.014383914 0.24831887 -0.10243719
0001d0 9c d3 60 be 59 73 ac bd 4f 11 cf bd 58 62 24 be
       -0.21955723 -0.08420438 -0.10110723 -0.1605314
0001e0 ec d5 dd bc 00 c8 8a 3e 9c 46 b0 bc 33 da 07 be
       -0.027079545 0.27105713 -0.021518044 -0.1326683
0001f0 d3 f0 35 3e 2e 10 b0 bd 19 76 c3 3d 23 54 59 bb
       0.17767648 -0.08596836 0.0954401 -0.0033161722
000200 ad de a5 bc b7 bd 8c bd 1c 5e fb 3d b0 8a 3d be
       -0.020247782 -0.06872123 0.12273809 -0.18509936
000210 6b 2c be bd a9 ef a5 3c fd 6c 79 3e 4a e2 c2 3d
       -0.09285816 0.02025588 0.24357982 0.095158175
000220 a5 97 d6 bd 26 ec 97 3c 31 7c 07 be 84 78 5d bc
       -0.10478143 0.018545222 -0.13230969 -0.013517503
000230 15 0a 5f 3d 14 c9 4a 3e ad 56 f3 bd 43 2a 03 bd
       0.054452974 0.19803268 -0.118817665 -0.032022726
000240 db 13 a2 bd 34 af d4 3c 12 2c 49 39 2c d4 cb bd
       -0.079139434 0.02596245 0.00019185271 -0.09952578
000250 2b ac c7 3d 7f 17 01 ba f2 19 ed bd 66 0c ec bc
       0.09749635 -0.00049244607 -0.11577214 -0.028814506
000260 39 ba 05 be 9f dc 31 be 46 98 a9 bc 8e 68 03 3e
       -0.1305932 -0.17369317 -0.020702492 0.12832853
000270 07 03 19 be 40 f5 11 3e c3 6c 5d be 79 4b cd bb
       -0.14942561 0.14253712 -0.2162352 -0.0062651006
000280 54 b1 50 3d 31 0b 79 3e d1 af bc bd ed 70 63 3e
       0.050950363 0.24320675 -0.09213222 0.22211047
000290 6e 7e 50 bd fa eb 9b 3b 81 16 50 3e c1 91 ad 3d
       -0.050901823 0.004758355 0.20321085 0.08475066
0002a0 44 7f 21 bd bd 61 0e 3d d3 0d df 3b cd 61 11 be
       -0.03942801 0.03476118 0.006807068 -0.14197464
0002b0 80 21 99 3d 17 b2 29 be dc ae b3 3d 57 83 53 3d
       0.07477093 -0.16571842 0.08773586 0.051638927
0002c0 a2 82 2d 3e 24 e8 a0 bd 16 09 a8 bd 5a 3c 0a 3e
       0.16944364 -0.07856777 -0.08204858 0.13499585
0002d0 72 ba 98 bc ca dc 25 bd b9 84 84 bd 0b 8a c7 bd
       -0.018643592 -0.040493764 -0.06470627 -0.097431265
0002e0 d1 74 ab bb 06 58 80 3c b5 a6 81 3e 4d 16 f4 bc
       -0.0052324315 0.015666973 0.253225 -0.02979579
0002f0 12 85 9d bd 89 6b f0 3d 87 71 e4 bd 7f b6 54 be
       -0.07691397 0.11739261 -0.11154466 -0.20772742
000300 45 3c a5 3d 51 3b 70 3e 14 5c fb bd 85 d9 87 be
       0.08068136 0.23460127 -0.12273422 -0.26533142
000310 2d 4b 88 bc d7 5d 3a bc b6 65 23 3d 9f 08 95 3e
       -0.01663741 -0.011374912 0.03989192 0.2910814
000320 9b cc f9 bd d1 6a 88 bd 86 36 47 3e 7c 02 17 3d
       -0.121972285 -0.066609986 0.19454393 0.036867604
000330 fc bb b7 3d bb 4e 37 bd 74 eb d2 ba 4a 5a d1 bd
       0.08971402 -0.044752818 -0.0016091899 -0.102222994
000340 b5 61 4e 3d fa 90 2c bc ab 35 4b 3e cb 0d 54 3e
       0.05038615 -0.010532612 0.19844691 0.20708387
000350 9c 3c 04 3e 23 66 9e 3c 09 f5 d8 3d 7c 26 c0 3d
       0.12913746 0.019335812 0.10593612 0.0938234
000360 5b a5 80 bd 8f 68 d7 bd 63 07 37 be a5 ab f9 bd
       -0.06281539 -0.1051799 -0.17873912 -0.12190942
000370 71 65 1d bd 80 e1 8a 3c 4b df b4 3c 51 b8 ad bd
       -0.03842682 0.01695323 0.02207913 -0.08482421
000380 56 a2 a2 3d 90 1f e8 bd 55 32 66 be 21 16 26 3d
       0.079411194 -0.11334145 -0.22480138 0.040548448
000390 fb e3 53 3e 1f ff d1 bd b4 eb 8b bd 1e d1 5a bc
       0.20692436 -0.102537386 -0.06832066 -0.0133555215
0003a0 60 f2 1b bd 95 59 06 bd 4c d3 32 3e 77 63 d3 bd
       -0.038072944 -0.032800276 0.17463416 -0.10321706
0003b0 e2 2c 6a 3e a1 54 e4 3d 56 11 26 3e 5c ff 56 be
       0.22868684 0.11148954 0.1621755 -0.2099585
0003c0 c1 08 11 3d e2 e1 80 bd 06 32 af bc dd ac d6 bd
       0.03540874 -0.06293084 -0.021386158 -0.1048219
0003d0 da 96 b4 bd cb 94 30 3d 8d 45 3c be 06 c8 ee 3c
       -0.08817835 0.04311065 -0.18385907 0.029148113
0003e0 7d 60 35 3c 27 34 a3 3d 28 dd 56 3d 90 fd 3f 3e
       0.011070368 0.07968932 0.052457005 0.1874907
0003f0 06 66 e7 bd 51 90 07 3e d5 cd c7 ba 15 4b 7e bc
       -0.11298756 0.13238646 -0.0015243838 -0.015520831

action_model._discrete_distribution.branches.0.weight f4 [9, 64]
000000 b7 16 10 3d 40 96 4f 3c 07 27 b6 3b 55 f4 2a bb
       0.035177913 0.0126701 0.0055588516 -0.0026085575
000010 57 91 1c bb 44 ee 48 bc 57 74 a5 bc 67 b3 2f 3c
       -0.002389034 -0.012263838 -0.020197077 0.010723925
000020 f6 c3 85 bc 8f 3c e5 3c 2b d3 8b bc 6b 67 ae 3a
       -0.016328793 0.027982978 -0.017068466 0.0013305967
000030 32 42 44 bb 2f ec de bb b3 cf c1 3b 9b 39 db bc
       -0.0029946682 -0.0068030576 0.0059146523 -0.026760867
000040 b7 bf 9f bc 65 9f d7 3b 9f df 6b 3b 7f e7 52 bc
       -0.019500596 0.0065802806 0.0035991443 -0.012872576
000050 83 0a e4 bc 20 6d de 3c ba 46 80 bc 92 e2 95 bb
       -0.027837044 0.027151644 -0.015658725 -0.0045741284
000060 56 d5 42 bc 4a 6c 2f 3b cb 9c 8d bc d4 1a 80 bc
       -0.011891684 0.0026767426 -0.017286679 -0.015637793
000070 6f 19 52 bc 66 80 90 3b 97 9d ed ba a6 2c c1 bb
       -0.012823447 0.0044098375 -0.001812863 -0.005895215
000080 e0 3c 84 bc 42 4c 93 3b 98 96 c4 3b f5 8b 7e 3b
       -0.016142309 0.0044951746 0.0059993975 0.0038840745
000090 eb ee 1e 3c 82 8c e8 3b a8 76 9a ba 77 f9 a6 3b
       0.009700517 0.007096828 -0.001178463 0.0050956565
0000a0 00 6d 9d bb 5a ce f0 3c af e1 19 3c c8 86 e9 3b
       -0.0048042536 0.029395271 0.009392186 0.007126663
0000b0 10 91 51 3b c3 a3 78 3c 0a fd 72 bc 35 15 89 3c
       0.0031977333 0.015175763 -0.014830837 0.016733745
0000c0 f3 e1 15 3b 7f 5c 90 bb 25 34 9b 3a 8b e0 0c ba
       0.0022870272 -0.0044055576 0.0011841102 -0.00053740357
0000d0 c7 8b 5d 3c a6 71 1e bc 3b 49 5f bc 9a 64 04 3c
       0.013522095 -0.009670651 -0.013628299 0.008080626
0000e0 3a ee ed bb bf c3 96 3c 9b 7a ac 3c f7 41 6d 3b
       -0.007261065 0.018403886 0.021054557 0.0036202648
0000f0 73 f2 3f 3c bf 1a 8a 3c 06 80 15 3c 23 62 68 bc
       0.011715519 0.016858457 0.009124761 -0.014183554
000100 1b d9 85 3b 02 c2 e2 ba 30 ed 98 3b 5f 39 a9 bc
       0.004084719 -0.001730025 0.004666947 -0.02065724
000110 53 dc e1 3b 53 88 30 3b f3 83 cb 3c 1e ce 91 bb
       0.00689272 0.0026936724 0.024843192 -0.00444962
000120 2f ab 5f bc 4c a7 be 3c e2 b2 47 3b e7 ff 9d bc
       -0.013651653 0.023273133 0.0030471613 -0.019287063
000130 f7 3f 0c bb 12 73 a6 3b cf 08 9f bc 2a 07 95 3c
       -0.002140043 0.0050796354 -0.01941338 0.018191893
000140 f5 7b 49 3c ea 78 10 bc 37 45 b4 3b 83 cc 7e bc
       0.01229762 -0.008817891 0.005501415 -0.015551689
000150 36 a5 29 3c 33 cd ae 3c 53 9d 65 bc 27 fb 39 bc
       0.010354331 0.021338081 -0.01401456 -0.011351383
000160 d7 67 67 bc eb 0b b0 ba ed 4c 9e bb df fd 7c bb
       -0.014123878 -0.0013431286 -0.0048309476 -0.0038603467
000170 24 be 90 3c 18 ad 79 ba 78 0e 25 bc 5d b8 e6 3b
       0.017668791 -0.0009524389 -0.01007425 0.007041021
000180 ac 88 b5 3a ff 06 b6 3c 91 5b 12 3b 7d 21 5c 3c
       0.0013849935 0.022220133 0.002233241 0.013435719
000190 d7 ce 07 3c 5d 61 c0 bc 49 bd b6 b9 1f 4f 99 bc
       0.008289061 -0.023483926 -0.00034854774 -0.018714486
0001a0 0f 87 3a 3a 05 09 bb 3c 80 60 81 3b e3 32 84 bc
       0.0007115462 0.02283145 0.0039482713 -0.016137546
0001b0 78 38 7c bc 58 ea 55 3b 9f 9b d3 3b c1 db cb bc
       -0.015394323 0.00326409 0.0064577605 -0.02488506
0001c0 c4 81 1e bc 84 a1 9e 3c cb ac 36 ba 73 ca 8f bb
       -0.009674493 0.019364126 -0.0006968497 -0.0043881475
0001d0 db 61 28 bb d4 8a 07 3c 28 21 97 bc 73 5b 4c ba
       -0.0025693092 0.008272845 -0.018448427 -0.00077956094
0001e0 67 99 a6 bb 6c 2e 4b 3b 7b 7b 06 bb 64 c3 bd 3b
       -0.005084205 0.0031003011 -0.0020520377 0.0057911146
0001f0 20 b9 60 bc 9f 63 68 39 47 c6 bd 3b 2f ce a8 3a
       -0.013716012 0.00022162356 0.0057914588 0.001287883
000200 64 46 86 bc aa 50 49 bb f2 8e 72 3b 31 e8 18 3b
       -0.016390987 -0.0030718246 0.0037011472 0.0023331756
000210 30 ba 4f bc b1 ff 92 bb 59 a5 2b bc ae 6f 92 3c
       -0.012678668 -0.004486047 -0.010476434 0.017875519
000220 6b 04 bd b9 5a 9d 01 bc 55 c4 d7 3b cf f7 c9 bc
       -0.0003605218 -0.007911051 0.006584684 -0.024654297
000230 f7 4d a5 3b 73 f6 d9 bb 57 74 98 3c 47 a5 91 3c
       0.0050446945 -0.0066516935 0.018610163 0.017779006
000240 9b a1 d8 bb 97 c7 d1 3c 77 ba 0c 3c e5 21 12 3c
       -0.0066110617 0.025607867 0.008589379 0.008919214
000250 ea 17 39 bc d5 59 40 3c b9 d3 3e 3c 29 5e 9f 3b
       -0.011297205 0.011740168 0.011647158 0.0048635197
000260 73 84 17 3c 6d a5 a1 3c a6 da 2a 3c a3 16 41 bb
       0.009247887 0.019732201 0.010428106 -0.0029462955
000270 b7 ea df 3c 83 0f 77 bb c2 20 68 bb 3b 9f 2d 3c
       0.0273336 -0.0037698455 -0.0035419916 0.0105970455
000280 a3 65 4a ba 0d 18 14 bb d0 95 3f 3c fb da 11 bb
       -0.00077208335 -0.0022597343 0.011693433 -0.0022255767
000290 5b 63 a5 bc c7 4f 96 3c 48 a3 0b 3b 43 71 a9 bb
       -0.020188978 0.018348588 0.002130704 -0.0051709726
0002a0 58 29 3a 3c 84 0a 4c bc 7b c2 a7 bb 22 67 78 3c
       0.011362396 -0.012453679 -0.0051196194 0.0151613075
0002b0 d5 ab 7e bc 16 87 8c 3c 32 e9 14 3c 69 03 a3 3c
       -0.015543898 0.017154258 0.009088801 0.019899087
0002c0 4f bb a8 3a 6a b5 fb 3c b0 a7 12 bc 50 99 69 3c
       0.0012873205 0.030726153 -0.008951113 0.014257744
0002d0 53 e8 b5 39 5b 99 26 3c 85 f8 76 ba 75 b6 54 3c
       0.00034696105 0.010168399 -0.00094211876 0.012982954
0002e0 45 36 f7 bb f5 88 bd 3b d8 da 1a 3c b5 ae 18 3c
       -0.007544311 0.005784149 0.0094515905 0.009318997
0002f0 ce 97 9c 3b 6c 47 ae 3c cb fd d5 3c ab 46 88 3c
       0.0047788387 0.021274291 0.026121994 0.01663526
000300 cf c0 2d bb 0c eb cb 3a 4a 89 12 3c f1 a3 98 bb
       -0.0026512628 0.001555772 0.008943865 -0.004658215
000310 5c 1d 0b 3c 50 3f 04 bc 7f 81 5a 3c 31 54 9e bb
       0.008490887 -0.0080717355 0.013336538 -0.0048318137
000320 71 5b bb bb bf 0b fb 3b 5c 41 37 bc 45 f4 20 3c
       -0.005717688 0.0076613124 -0.0111850165 0.009823863
000330 8c 3d c3 bb 23 e7 81 3b 19 20 af 3c d3 96 2c bc
       -0.0059582647 0.003964321 0.02137761 -0.010534006
000340 90 6d 46 3b ab 73 3d 39 7a 53 0e bc 45 23 f2 bb
       0.0030277707 0.00018067534 -0.008686895 -0.0073894584
000350 8b 97 71 bc 7b 40 99 3c c0 61 37 bc 27 34 16 3a
       -0.014745603 0.018707504 -0.011192739 0.0005729817
000360 17 6c 27 3c c5 4f 32 bc b6 24 ae 3c 7b 36 5d bb
       0.010218642 -0.010883276 0.02125774 -0.0033754397
000370 b7 04 0f 3d 72 93 85 bb 55 d3 a8 3a cd f0 3b 3b
       0.034916606 -0.0040764147 0.0012880365 0.0028677464
000380 4f 40 a1 bc 9d e5 cd 3c 82 67 a8 3b 41 91 c8 3c
       -0.019683985 0.025133902 0.005139292 0.024483325
000390 f2 36 41 bc ac ba 82 bb 73 28 87 bb 8b ac 0f 3c
       -0.011792885 -0.003989538 -0.004124695 0.008769165
0003a0 6b a4 dc bb 03 a3 08 3c 63 d3 de 3c cf d5 54 b7
       -0.0067334673 0.008339646 0.027200406 -1.2685966e-05
0003b0 1b f2 39 bc 73 67 62 3c f0 7b 95 bc ce 14 12 3c
       -0.011349226 0.0138186095 -0.018247575 0.008916093
0003c0 48 e3 e4 3b f0 be 1b bc ab 04 30 3c be 9e 96 bc
       0.006985102 -0.009505972 0.0107433 -0.018386241
0003d0 0c 7f 93 bc 60 64 8f ba 05 10 d9 bb 63 83 89 3b
       -0.018004917 -0.0010939948 -0.006624224 0.0041965707
0003e0 d7 ba 87 bc cb d4 73 3b cf 6e 1e 3b 41 23 97 bc
       -0.016568584 0.0037205692 0.0024174934 -0.018449428
0003f0 d2 22 f7 3c ad 58 44 3b 52 0a ea bc 02 3d 69 ba
       0.03016797 0.0029960081 -0.028569374 -0.00088973355

action_model._discrete_distribution.branches.0.bias f4 [9]
000000 00 00 00 00 00 00 00 00 00 00 00 00 00 00 00 00
       0.0 0.0 0.0 0.0
000010 00 00 00 00 00 00 00 00 00 00 00 00 00 00 00 00
       0.0 0.0 0.0 0.0
000020 00 00 00 00
       0.0

onnx::Div_186 f4 [4]
000000 7f 16 3b 3e 9c 85 3c 3e 87 71 c9 3d c6 08 98 3f
       0.182703 0.18410343 0.09836107 1.1877677

onnx::MatMul_189 f4 [129, 128]
000000 7f 42 fb 3b 20 e5 20 3c 91 6a 31 bc 01 91 9e bc
       0.007667839 0.009820253 -0.01082863 -0.019356253
000010 d8 f9 2e 3d ac 3b c3 bb 71 d7 c5 3c 07 75 df bc
       0.04271874 -0.005958041 0.024150582 -0.027277483
000020 09 01 2b 3d 99 10 bf 3c 24 d6 65 3d 82 e5 02 bd
       0.041749034 0.023323344 0.056112424 -0.031957157
000030 61 a8 0e bd b3 c9 77 3d 2d 9c 67 3c 6c 6c c7 3c
       -0.034828547 0.06049509 0.014136356 0.024343692
000040 65 71 28 bd eb 9f 04 bc bd d6 8b 3c b1 ba 4e 3c
       -0.041123766 -0.008094768 0.017070169 0.012617753
000050 15 af a8 3c d4 a6 4a 3d 1b fc 9b 3c 64 71 58 bd
       0.020591298 0.049475506 0.019041112 -0.052842513
000060 42 ce 20 3a 78 2e 74 3c 15 70 79 bc ef de 09 3d
       0.00061342504 0.014903657 -0.015224476 0.03365987
000070 34 24 8f bc 68 a4 02 bd 50 9b 53 ba f6 36 40 3d
       -0.017473318 -0.03189507 -0.00080721546 0.046927415
000080 7a a6 63 3c 77 88 25 3d 16 d6 10 bd 52 8d ed 3c
       0.013894672 0.040413346 -0.03536042 0.02899805
000090 ca 49 c3 3c 98 e7 21 bc c4 82 e9 3c fc 08 ed 3c
       0.023838896 -0.009881876 0.028504737 0.028934948
0000a0 6c 3f 91 bc 28 e9 68 bc dd 88 ca 3c c5 44 00 3d
       -0.017730437 -0.014215745 0.024723465 0.031315584
0000b0 32 33 70 3d 64 87 f9 3c 1c 30 09 bc 8b 32 99 3b
       0.058642574 0.030460067 -0.008373287 0.0046752146
0000c0 39 a6 5a 3d 49 7d f3 3b fc ca b4 3b 8a 47 92 bd
       0.05338118 0.0074307066 0.0055173617 -0.07142551
0000d0 6f cb 77 3c bd ce db 3c ea ae 85 bc d6 ee 76 bd
       0.015124186 0.026831979 -0.016318757 -0.060286365
0000e0 17 ad a9 bc 6e 2b 44 bd 37 95 08 bd 2d 4f c7 3c
       -0.020712418 -0.04789298 -0.033345427 0.024329746
0000f0 8b 6c 22 3d 1a 50 19 3d 1e 27 c3 3c 45 da b7 bb
       0.039654296 0.037429906 0.023822363 -0.0056107366
000100 e0 03 86 3c 93 7b b9 3c 52 0a ae 3b b4 ab 39 bd
       0.01635927 0.022641933 0.005311289 -0.045329764
000110 f7 4f 16 3c 1b 9b b9 bc 30 99 be 3c b5 ca ad 3d
       0.009174339 -0.022656968 0.023266405 0.08485929
000120 1c d7 e5 bc 06 2b 0c 3c fb 6a 07 bc af 70 30 bd
       -0.028056674 0.008555179 -0.008265252 -0.043076213
000130 0f 11 aa bd 1f aa 4f 3c a9 c2 80 3c 55 aa 4c bd
       -0.08304035 0.012674837 0.015717821 -0.04996713
000140 43 40 82 bc 15 5d 9f bc d4 0b 4b 3c 46 85 03 bc
       -0.015899783 -0.019453565 0.012392957 -0.00802738
000150 0b 1a bc 3b 89 da 33 bc 70 51 a1 bc 09 9b 64 bd
       0.0057404093 -0.010977396 -0.019692153 -0.055811916
000160 e4 57 32 bd bb f2 63 3c 6e 8f cb 3c 69 bc 5a bd
       -0.04354085 0.013912852 0.024848666 -0.05340234
000170 e6 f9 5e 3d ff 1d 1a bd f5 e5 0f bc 7d 1a cd 3c
       0.05443754 -0.037626263 -0.008782853 0.025037045
000180 64 14 a0 bb 94 b9 b7 3c 9c 97 96 bb 4d 38 f3 bc
       -0.0048852433 0.022427358 -0.00459571 -0.029689932
000190 c9 72 84 3c df d4 a9 3c e9 c6 23 3d 99 30 2e 3d
       0.016168015 0.020731388 0.039984617 0.042526815
0001a0 56 6c 1c bd 94 e2 87 bc 60 4e 27 3c 88 8a 1b 3d
       -0.038189255 -0.016587533 0.010211557 0.03797391
0001b0 9f b5 52 bc 55 69 ee bc 60 15 82 3c 6d 68 07 3d
       -0.012860685 -0.02910296 0.015879333 0.033058573
0001c0 d5 c1 ab bc 16 64 c1 bc cc b5 79 3d 40 a9 80 bc
       -0.02096645 -0.023607295 0.06096439 -0.015705705
0001d0 e9 91 18 bc 5c 0e 84 3d a9 29 5e bc fb 7e db 3b
       -0.009312131 0.06448051 -0.013559737 0.006698487
0001e0 cf 6a fb bc f1 32 eb 3a 9b 40 0d 3d dc 5b 86 bd
       -0.030690579 0.0017944259 0.03448544 -0.065604895
0001f0 fe a2 dd bc 41 00 59 3b 8d 6e e8 3c a5 ca d4 bc
       -0.02705526 0.0033111724 0.028373027 -0.025975535
000200 2d 87 14 bd 9f 0f dc 3b a0 1f d0 ba 17 f4 fb 3c
       -0.036261726 0.0067157294 -0.0015878566 0.03075604
000210 44 cc 55 3d 11 16 3c 3c 70 5b 34 3d f9 82 25 bd
       0.052196756 0.01147987 0.044032514 -0.04040811
000220 bd 97 37 3d d8 ab da bc b8 38 55 bd 1a 75 89 bc
       0.044822443 -0.02669327 -0.052056044 -0.016779471
000230 ec ad 53 bb dc d5 0d 3d be 71 8d 3b 3a 3d b1 3c
       -0.003229971 0.03462778 0.0043165376 0.02163564
000240 b6 f0 eb 3b e4 44 b8 ba 28 7b 15 3d b9 05 a9 bc
       0.007200326 -0.0014058617 0.036494404 -0.020632612
000250 b9 a0 92 3c 4e 0f 60 3c 0a 07 0c 3d 6d 69 f5 b9
       0.017898904 0.013675524 0.0341864 -0.0004680859
000260 84 75 de bc 34 59 2c 3d e4 35 15 3d 90 6e db 3c
       -0.027155645 0.04207726 0.036428347 0.026786119
000270 61 34 1c bb 19 5d a1 bc 48 84 2a 3d d6 fe f6 3b
       -0.0023834931 -0.019697713 0.04163006 0.007537703
000280 64 04 d4 3c e1 fa 7e bc 8c ec 25 bd 59 a7 20 3d
       0.025881 -0.015562744 -0.04050879 0.039222095
000290 6a bd c3 3c 80 32 9d 3c 2b da 56 3c 2f 7d f2 3c
       0.02389403 0.01918912 0.013113539 0.029600708
0002a0 b9 3e 05 bb db 39 f7 bc ad a0 ca 3c d7 07 fb 3c
       -0.0020331575 -0.030178955 0.02473482 0.030643387
0002b0 a9 5e a1 3b 92 92 6c bc 90 51 e6 bc 97 9d 3a bd
       0.0049246144 -0.014439242 -0.028115064 -0.045560446
0002c0 81 a4 6d bc d8 d1 b5 bd 2d 4e ec bc 64 a1 2c 3d
       -0.014504553 -0.08877915 -0.02884587 0.0421461
0002d0 a9 69 44 bd 7a ec 9f 3c 14 a4 79 3d 30 d6 37 bd
       -0.047952328 0.01952194 0.060947493 -0.044882
0002e0 c3 e7 3e 3c 0a e9 24 bc 46 fe 24 bc 88 63 0c 3c
       0.011651936 -0.0100653265 -0.010070389 0.008568652
0002f0 65 22 98 bc 0b c0 be 3c 8b 97 02 3d 73 0b c9 bb
       -0.018571088 0.023284933 0.031882804 -0.006135398
000300 b0 15 a3 bc 8a 00 34 3c 2b b0 e1 bc 0e b8 33 bd
       -0.019907802 0.010986457 -0.027549824 -0.0438767
000310 da c1 eb 3c 3d 5d 1f 3b 55 57 a0 bc 5a 32 f1 3c
       0.028778959 0.002431705 -0.019572893 0.029442955
000320 d1 0e 90 3c ba 82 2d ba 9c b4 83 3d 2e 10 02 bc
       0.01758519 -0.0006618906 0.06430933 -0.007938428
000330 55 09 58 3c 9e a2 fa ba cb 03 9e 3c 7f 24 44 bd
       0.013185819 -0.001912195 0.019288918 -0.047886368
000340 67 3d 2a 3d 38 03 51 bd bc bd d5 bc eb 9d 9b 3b
       0.041562464 -0.05102846 -0.026091449 0.00474905
000350 7a 5d 34 bb aa 11 82 3d 66 21 f4 3c 24 85 97 3c
       -0.0027521537 0.063510254 0.029801082 0.018496104
000360 26 17 0c bc 96 0d 2a 3c 57 1b dd 3b 11 7d 30 3b
       -0.008550441 0.010379216 0.006747644 0.0026930014
000370 fe 57 3a bd fd 76 21 3b 55 b2 28 3a 12 0c 5a 3c
       -0.045494072 0.0024637573 0.0006435265 0.013308542
000380 c4 f2 79 3c 35 d2 ef bc 23 44 9a 3c bd 0a a6 3b
       0.015255634 -0.02927504 0.018831318 0.005067198
000390 47 bf 5e 3c 54 e0 bb 38 4e d1 2e ba be 6d 10 3c
       0.013595409 8.958639e-05 -0.0006668762 0.008815227
0003a0 02 22 45 3b b1 14 82 3d af 30 49 3d 5f 3d 90 bb
       0.0030080085 0.06351603 0.049118694 -0.0044018473
0003b0 27 59 26 3c 1b c9 c5 bb 5f fd 7b 3d 3a 1a 2d 3d
       0.0101530915 -0.0060359365 0.06152093 0.04226134
0003c0 fb b6 04 3d 8f b3 12 bc 70 3d 68 bb a9 c5 66 3c
       0.032401066 -0.008953943 -0.003543701 0.014085212
0003d0 70 7e 67 3c 40 5c 08 3d 25 2f 9d 3c 3a 7a 1b 3c
       0.014129266 0.0332911 0.01918752 0.00948959
0003e0 7d aa 4e bd b4 84 44 bc 5c 79 5f 3d c0 eb fe 3b
       -0.05045556 -0.0119945295 0.054559097 0.0077795684
0003f0 43 77 ee bb e7 fd 16 bd fa 96 93 3c cc 1b 64 3c
       -0.0072774007 -0.036863234 0.018016327 0.013922643

onnx::MatMul_190 f4 [129, 128]
000000 eb 63 26 3d e3 82 9b bc 34 6d fa bc 1c d8 2e 3d
       0.040622633 -0.01898331 -0.03056965 0.042686567
000010 ee 35 7a 3d b1 6e 5c bd ad 0a 0a 3d 7b a8 33 bc
       0.061086588 -0.0538165 0.033701587 -0.010965462
000020 7e f4 9e 3c 4a bd 7e bb 94 11 96 bc c0 ec 23 bc
       0.019403692 -0.003887015 -0.018318929 -0.010005176
000030 b1 e7 20 3b 10 bf 19 3c 46 12 0a bd 64 5c cf bb
       0.0024552161 0.009383932 -0.033708833 -0.0063281525
000040 26 09 9e bb 04 d1 37 3d 36 ed 62 3d 17 11 26 3d
       -0.004822868 0.044877067 0.055402003 0.040543642
000050 54 57 8d 3c 2f 8d 0b 3c 0e 34 da 3c 59 6e f7 3c
       0.017253555 0.0085175475 0.02663615 0.030203985
000060 0b 06 94 3b b0 bf 23 bb 20 16 4f bd 61 c3 1c bd
       0.004517322 -0.002498608 -0.05055821 -0.038272265
000070 01 a0 1c 3d 1b 48 14 bc 1f bf 81 3d 9d 97 02 bc
       0.03823853 -0.009050394 0.063352816 -0.007970718
000080 ec b8 08 bd 9c e8 2d 3c f9 a4 d6 bb 2a 34 8b 3c
       -0.03337948 0.01061454 -0.006550428 0.016992647
000090 f9 66 88 3c e1 6a b1 3c d9 c2 57 3d 84 38 17 bd
       0.016650664 0.02165741 0.052676056 -0.036919132
0000a0 7e eb 95 bb ed a4 18 3c 84 39 81 3c 6f cd 15 bc
       -0.004575192 0.009316665 0.015774496 -0.0091432175
0000b0 50 60 61 3d ee 26 03 3a b1 e4 05 bd 18 ca 83 3c
       0.05502349 0.00050030544 -0.0326888 0.016087577
0000c0 e2 64 cd bc 59 a2 34 bd 0e 9c f3 3b ce 9e 03 3c
       -0.025072519 -0.04410014 0.0074343747 0.008033467
0000d0 1b 2d 69 3c 16 c9 37 bd ef 68 21 bc 9e 76 3a bd
       0.014231945 -0.044869505 -0.009851678 -0.04552328
0000e0 49 6b 55 3c 67 ac d5 3b 33 fd c5 3b 49 06 89 bc
       0.013026067 0.006520796 0.0060421466 -0.01672663
0000f0 8b b3 61 bd 38 e7 91 3c 6f ae 51 3d 6f 82 61 bc
       -0.055102866 0.017810449 0.051191743 -0.013764008
000100 66 b3 c5 3c 0c 77 42 3d 47 f8 f5 bc 58 21 22 3d
       0.024133395 0.047476813 -0.030025614 0.03958258
000110 1d a9 e2 bb 2b 92 1e 3d 1f ad 31 bd 26 69 02 3b
       -0.0069171325 0.038713615 -0.04337799 0.00198991
000120 9a 70 95 bd 23 79 44 bd 37 a5 80 bc b3 61 87 3d
       -0.07296868 -0.047967087 -0.01570378 0.066104315
000130 a2 2d 5e bd 70 32 1f bd 80 ba 14 bd 83 f6 d5 bc
       -0.054242738 -0.03886646 -0.036310673 -0.026118523
000140 50 b5 4b bc 79 ed fb 3c cd 17 6a bd 41 60 83 bc
       -0.012433365 0.030752884 -0.057151604 -0.016037108
000150 e1 d8 99 bc d2 1a f4 bc 35 75 18 3d fe c5 56 bb
       -0.018780174 -0.029797945 0.037221152 -0.003277182
000160 5f 35 ac 3c d1 fc 8b 3b 66 15 85 bd 25 a2 94 3a
       0.021021543 0.0042720814 -0.06498222 0.0011339827
000170 ad 41 8d bc be 96 55 3b 82 97 2c bd af 83 fc bc
       -0.01724323 0.003259107 -0.042136677 -0.03082451
000180 6f 43 f6 39 40 8b 16 3c 0d d1 66 bb be 44 1b bb
       0.00046971018 0.009188473 -0.0035219819 -0.0023692097
000190 ab ed 83 bd 35 c7 30 3d 14 6a aa 3b e2 56 18 bd
       -0.06441816 0.04315873 0.005200634 -0.037192233
0001a0 3d f9 08 3c 9f 7b 62 3d 09 3d ca 3c 35 c1 0b bd
       0.008360204 0.055293676 0.024687307 -0.034119803
0001b0 bc f3 6e bb e8 c6 3b 3d b9 55 e1 3c e5 cf bc bb
       -0.0036461195 0.04584399 0.027506696 -0.0057620876
0001c0 e3 d6 94 bc 2b f5 5f bc 2c af 92 3d 37 c3 17 bc
       -0.018168872 -0.013669292 0.07162318 -0.009262851
0001d0 52 0e a8 3c 3e aa 2e 3d b0 ff 70 bd f2 df 47 3d
       0.020514641 0.042642824 -0.058837593 0.048797555
0001e0 73 3b 0c bd 42 d4 6a bc d9 c1 a1 3c bf 40 c7 bd
       -0.034236383 -0.014332833 0.019745754 -0.09729146
0001f0 36 2e a0 3c de eb 9f 3c ae 9b 38 3b 63 e7 c4 bc
       0.019553285 0.01952165 0.0028168964 -0.024036115
000200 26 5f 2c 3a c0 29 bc bc ad 80 9a 3b b9 81 ad 3c
       0.00065754575 -0.022969127 0.0047150464 0.02118002
000210 12 3f a1 ba ee 89 f0 3b bd 32 92 3d c1 0a 49 3d
       -0.0012302122 0.0073406613 0.07138584 0.04908252
000220 f8 53 c3 bc 45 e1 b2 bc c0 bd a7 bc 83 00 cb 3c
       -0.02384375 -0.021835933 -0.020476222 0.024780517
000230 35 43 b9 bc 2d b0 cf 3b 78 f1 80 bb da 5d 75 bd
       -0.022615055 0.0063381405 -0.0039350353 -0.059903957
000240 3e 29 68 3a 22 ff 84 bc 6a 72 81 bd c4 83 1a 3b
       0.0008856243 -0.016234938 -0.06320651 0.0023577074
000250 1a 64 65 bd e1 dd 8e 3d be 52 f9 bc 43 e0 a2 bb
       -0.056003667 0.06975914 -0.030434962 -0.0049705817
000260 79 68 6d 3b 3b df 81 3b d6 51 b6 3a 03 43 11 3d
       0.00362256 0.0039633787 0.0013909887 0.035464298
000270 dc e9 9c 3d 83 1b 5d bd 04 aa aa 3c ff 93 17 bd
       0.07661793 -0.053981315 0.020833023 -0.037006374
000280 41 48 f3 bc 68 3f 64 ba 32 7b 57 3d 6d ed 4d bc
       -0.02969754 -0.0008706958 0.052607723 -0.012568814
000290 bf e7 08 3d 11 50 3b bc 68 ed 9b 3d b7 b2 5b bb
       0.033424135 -0.011432664 0.07613641 -0.003352327
0002a0 b2 4d 97 3d fa fc 33 3c 7f eb ba 3c de 34 7f 3c
       0.07387866 0.010985607 0.022817371 0.015576569
0002b0 d9 a5 14 3d 60 9b 58 3c f6 16 02 3b 89 17 13 bd
       0.036290977 0.013220638 0.0019850112 -0.035911117
0002c0 f8 63 eb bc e8 bc 08 3c 57 4e ac 3c 13 2c e1 bb
       -0.028734192 0.00834582 0.02103345 -0.006871709
0002d0 c6 aa d5 3c 0b 68 aa 3c ea 42 6f bc c7 bb 26 bc
       0.026082408 0.020801565 -0.014603356 -0.010176606
0002e0 5c c3 a7 bb 7d 47 f3 bc c5 1b ce 3c 70 ed 36 3d
       -0.005119724 -0.029697174 0.025159726 0.04466003
0002f0 26 3d fa bc 38 82 bc 3c 88 13 0f bd 3a 20 60 bd
       -0.030546736 0.023011312 -0.034930736 -0.054718234
000300 a7 3b c5 bc 82 9a bf 3b 7b 18 43 3c a8 c0 a4 bc
       -0.024076296 0.005847276 0.011907692 -0.020111397
000310 77 d5 7b 3b 29 bc 36 bd 4c 94 b2 bc 8f 9a cc 3a
       0.0038426796 -0.044613037 -0.02179923 0.0015610027
000320 82 1b dc bc b7 b7 b9 bc 6d 70 a0 3c b5 64 31 bd
       -0.026868585 -0.02267061 0.019584859 -0.043308932
000330 c7 2c af bc b4 ec a6 bc 5c 24 57 3d 8f b8 3d 3c
       -0.021383656 -0.02037654 0.05252491 0.011579647
000340 9b 10 24 3d 47 16 e8 3c b0 d0 2c 3d 6e 24 a5 3c
       0.0400549 0.028330935 0.042191207 0.020158973
000350 6f e8 18 bc e6 12 80 3d 91 6f 9e ba 3f 97 ba 3a
       -0.00933276 0.062536046 -0.0012087693 0.0014235749
000360 f2 d8 7f 3d 43 6c ef 3c d2 0b e1 bc f9 b7 43 3c
       0.062462755 0.029226428 -0.027471457 0.011945718
000370 5e 89 3e 3c 31 15 cc bd 7f eb e4 bc 72 4e 3f 3d
       0.011629431 -0.099649794 -0.027944325 0.04670567
000380 4f 83 e4 bb f9 5e 78 3c 13 c8 2e bd 75 3b d3 bc
       -0.006973661 0.015159362 -0.042671274 -0.025785187
000390 b8 d5 d3 3b 7f 2d 1e 3d 07 0d 92 3c cc c4 10 3c
       0.0064646862 0.038617607 0.017828478 0.0088359825
0003a0 3c 1c 73 3a 36 f0 47 3a a7 80 97 3d 3d f4 9c 3c
       0.00092739216 0.0007627042 0.07397585 0.01915943
0003b0 6e d8 9b 3a ce f7 cd bc 5f ed cf bc 0d 5f b8 bc
       0.0011890063 -0.025142577 -0.025381742 -0.022506261
0003c0 65 97 52 bb 37 87 89 3a 9e bc 73 3c d9 94 08 3c
       -0.0032133695 0.0010492568 0.014876513 0.008336269
0003d0 9d 04 28 bc ef 75 fc 3c ce 1c 3a 3d bc 51 81 3d
       -0.010255006 0.030817954 0.045437627 0.06314418
0003e0 04 ad 4f bd d6 46 28 3d b6 96 29 bd 19 b7 3e bb
       -0.05070211 0.04108318 -0.041403495 -0.0029100834
0003f0 71 d4 84 3a 07 3c f6 3c 18 94 33 3c be a6 57 3a
       0.0010134113 0.03005792 0.010960601 0.00082264456
