results/new_test_run_3/simple_deer/simple_deer-103.onnx (onnx, 480881 bytes, 15 tensors)

network_body.observation_encoder.processors.0.self_ent_encoder.seq_layers.0.bias f4 [128]
000000 00 00 00 00 00 00 00 00 00 00 00 00 00 00 00 00
       0.0 0.0 0.0 0.0
000010 00 00 00 00 00 00 00 00 00 00 00 00 00 00 00 00
       0.0 0.0 0.0 0.0
000020 00 00 00 00 00 00 00 00 00 00 00 00 00 00 00 00
       0.0 0.0 0.0 0.0
000030 00 00 00 00 00 00 00 00 00 00 00 00 00 00 00 00
       0.0 0.0 0.0 0.0
000040 00 00 00 00 00 00 00 00 00 00 00 00 00 00 00 00
       0.0 0.0 0.0 0.0
000050 00 00 00 00 00 00 00 00 00 00 00 00 00 00 00 00
       0.0 0.0 0.0 0.0
000060 00 00 00 00 00 00 00 00 00 00 00 00 00 00 00 00
       0.0 0.0 0.0 0.0
000070 00 00 00 00 00 00 00 00 00 00 00 00 00 00 00 00
       0.0 0.0 0.0 0.0
000080 00 00 00 00 00 00 00 00 00 00 00 00 00 00 00 00
       0.0 0.0 0.0 0.0
000090 00 00 00 00 00 00 00 00 00 00 00 00 00 00 00 00
       0.0 0.0 0.0 0.0
0000a0 00 00 00 00 00 00 00 00 00 00 00 00 00 00 00 00
       0.0 0.0 0.0 0.0
0000b0 00 00 00 00 00 00 00 00 00 00 00 00 00 00 00 00
       0.0 0.0 0.0 0.0
0000c0 00 00 00 00 00 00 00 00 00 00 00 00 00 00 00 00
       0.0 0.0 0.0 0.0
0000d0 00 00 00 00 00 00 00 00 00 00 00 00 00 00 00 00
       0.0 0.0 0.0 0.0
0000e0 00 00 00 00 00 00 00 00 00 00 00 00 00 00 00 00
       0.0 0.0 0.0 0.0
0000f0 00 00 00 00 00 00 00 00 00 00 00 00 00 00 00 00
       0.0 0.0 0.0 0.0
000100 00 00 00 00 00 00 00 00 00 00 00 00 00 00 00 00
       0.0 0.0 0.0 0.0
000110 00 00 00 00 00 00 00 00 00 00 00 00 00 00 00 00
       0.0 0.0 0.0 0.0
000120 00 00 00 00 00 00 00 00 00 00 00 00 00 00 00 00
       0.0 0.0 0.0 0.0
000130 00 00 00 00 00 00 00 00 00 00 00 00 00 00 00 00
       0.0 0.0 0.0 0.0
000140 00 00 00 00 00 00 00 00 00 00 00 00 00 00 00 00
       0.0 0.0 0.0 0.0
000150 00 00 00 00 00 00 00 00 00 00 00 00 00 00 00 00
       0.0 0.0 0.0 0.0
000160 00 00 00 00 00 00 00 00 00 00 00 00 00 00 00 00
       0.0 0.0 0.0 0.0
000170 00 00 00 00 00 00 00 00 00 00 00 00 00 00 00 00
       0.0 0.0 0.0 0.0
000180 00 00 00 00 00 00 00 00 00 00 00 00 00 00 00 00
       0.0 0.0 0.0 0.0
000190 00 00 00 00 00 00 00 00 00 00 00 00 00 00 00 00
       0.0 0.0 0.0 0.0
0001a0 00 00 00 00 00 00 00 00 00 00 00 00 00 00 00 00
       0.0 0.0 0.0 0.0
0001b0 00 00 00 00 00 00 00 00 00 00 00 00 00 00 00 00
       0.0 0.0 0.0 0.0
0001c0 00 00 00 00 00 00 00 00 00 00 00 00 00 00 00 00
       0.0 0.0 0.0 0.0
0001d0 00 00 00 00 00 00 00 00 00 00 00 00 00 00 00 00
       0.0 0.0 0.0 0.0
0001e0 00 00 00 00 00 00 00 00 00 00 00 00 00 00 00 00
       0.0 0.0 0.0 0.0
0001f0 00 00 00 00 00 00 00 00 00 00 00 00 00 00 00 00
       0.0 0.0 0.0 0.0

network_body.observation_encoder.processors.2.normalizer.running_mean f4 [2]
000000 4b 81 31 3f b2 13 fb 3f
       0.6933791 1.9615386

network_body.observation_encoder.x_self_encoder.seq_layers.0.weight f4 [128, 2]
000000 7a 32 dd bb 86 34 5c 3d 1c 14 4f 3c 69 b3 62 bd
       -0.006750402 0.053761028 0.012639072 -0.05534688
000010 fb 12 21 bb b4 e5 f9 bb b3 41 cb 3a fb 06 23 3d
       -0.0024577964 -0.0076262597 0.0015507251 0.03980158
000020 fa d9 e8 3a 15 75 ca 3c 0e f5 4d 3c a8 0b 23 3c
       0.0017765157 0.024714032 0.012570633 0.00995151
000030 cd 56 96 bb 3d 79 c1 bc 7d c6 5c bd 4f 43 58 3d
       -0.004587984 -0.023617381 -0.05390023 0.052798565
000040 b3 6d 29 bd a9 7f 0f bd d3 eb 9c bc 97 49 28 bd
       -0.041364383 -0.035033856 -0.019155419 -0.041085806
000050 04 6c 87 3b ab 48 dd bc 28 a1 6a 3d 89 39 7a 3c
       0.0041327495 -0.02701219 0.057282597 0.0152725065
000060 83 ec 14 3d 07 2d 39 bd f5 0e 47 3c 05 31 0a 3d
       0.036358368 -0.045208957 0.012149562 0.033738155
000070 5a 0c 25 bc e5 4b a1 bc c4 4c 15 bc 6e 1f d2 bc
       -0.010073746 -0.01968951 -0.009112541 -0.025649752
000080 00 98 fd ba 25 bc 89 3d ff 4d 99 3c c3 f7 20 bc
       -0.0019347668 0.06725339 0.01871395 -0.009824696
000090 7b 07 fe bc c1 d7 55 bd 2f 5e 8e bb 4a cb 0a bd
       -0.031009426 -0.052207712 -0.0043447237 -0.033885278
0000a0 14 8a 04 bd 1e e7 13 bd cf f1 be bc ed 18 ef 3c
       -0.032358244 -0.036109082 -0.023308663 0.02918669
0000b0 b0 db e5 3b 25 37 ae bb 21 87 7a 3c ce f6 76 3b
       0.007014714 -0.0053166323 0.015291006 0.0037683728
0000c0 51 41 d5 3b 7f 81 1e 3d 13 8d 7e bd 38 a6 0e bd
       0.0065080305 0.038697716 -0.062146258 -0.034826487
0000d0 35 35 8e bd 20 2d ff 3c e8 5a 4e 3d ef 6e d6 bc
       -0.06943742 0.031149447 0.050379664 -0.026175944
0000e0 eb b8 a5 bc 3f 8d fc 3c fd 81 8f 3d 00 87 e4 bc
       -0.020229777 0.03082907 0.07007215 -0.027896404
0000f0 65 fc 91 3d 8c 5e 62 bd 5f ca 25 3d 83 1c 4b bc
       0.071282186 -0.05526595 0.0404762 -0.012396934
000100 b7 7c 0c 3d 0a c6 26 bd 62 e4 20 bd a9 39 0c bd
       0.034298625 -0.04071621 -0.039280303 -0.034234677
000110 9d 68 b4 bc dc 0c 9d 3c ae 33 3a 3c 0b 83 1a 3a
       -0.02202254 0.01917117 0.01136486 0.0005894161
000120 f9 b4 18 3c c8 e7 ec bc cd 6b 45 bc 11 20 b4 3c
       0.009320491 -0.028919116 -0.0120496275 0.021987947
000130 34 05 d8 bc 52 c2 cd bd 62 b9 d2 bb c2 50 a2 bd
       -0.026369669 -0.10046829 -0.0064307908 -0.079255596
000140 f7 ca a7 3c fa 60 af bc ef 7b a3 bc 4f 15 9e bc
       0.020482523 -0.021408547 -0.019956557 -0.01929727
000150 de 02 1f bc 75 a7 5e bd 7a 25 5a bd 31 4c a1 bc
       -0.009705273 -0.05435892 -0.053258397 -0.019689651
000160 2d fc e5 3c c0 a1 57 3c 80 ec b2 3c b4 2f 10 3d
       0.028074348 0.013161123 0.021841288 0.035201743
000170 6b ec 21 3c 16 3a 2e bd 8a 3a 98 bc 99 b1 30 bb
       0.009883027 -0.042535864 -0.018582601 -0.0026961325
000180 48 2f 05 3d d4 7f 7b 3a 22 98 21 bd 63 05 73 bd
       0.032515794 0.0009593938 -0.039451726 -0.05933131
000190 9c cc 54 bc 21 3c 0b bc 52 2c 97 3c c0 15 88 bd
       -0.012988236 -0.008498223 0.01845375 -0.066447735
0001a0 1e fa 48 bd 54 91 54 bd ba d8 c3 bc d5 3b 0a bb
       -0.049066655 -0.05189641 -0.023907054 -0.0021092792
0001b0 ae 16 ba 3c 63 4e a0 bc a9 de 05 bb b3 b4 ee 39
       0.022715893 -0.019568628 -0.0020426905 0.0004552953
0001c0 9b 18 44 bc 00 40 a1 bc fb 14 08 bd 8e c7 f9 3c
       -0.011968757 -0.019683838 -0.033223134 0.030490663
0001d0 22 a4 60 3c 5b a2 a9 bc 35 43 40 3d ac ae a0 bc
       0.013711007 -0.0207073 0.046939094 -0.01961454
0001e0 c7 a6 7e bd 86 54 c3 3c b4 fa dd 3c c2 7c a7 3b
       -0.06217077 0.023844015 0.027097084 0.005111308
0001f0 c5 fc 6d bc c5 63 8d 3d bb 30 7f bb 0f 99 d2 bb
       -0.014525597 0.06903795 -0.0038938958 -0.0064269374
000200 0c b2 03 3c d2 72 2e 3d ce d2 a9 bc 0e 7c b4 bc
       0.008038055 0.04258997 -0.020730402 -0.02203181
000210 50 ac 80 bc 9f c3 ab bc f3 e4 8b bc d3 75 e7 3c
       -0.015707165 -0.020967303 -0.017076945 0.028254425
000220 79 8a 59 ba 2b dc 34 bc e5 4c fa bc 27 10 8f 3c
       -0.0008298527 -0.01103882 -0.030554244 0.017463757
000230 71 68 04 3c 07 35 8d bb 7c 80 bf bc 58 ff 65 bd
       0.008081541 -0.0043093 -0.023376696 -0.056151718
000240 a9 b2 d0 3c ce 78 17 bd d8 1b 5a 3d e3 c4 9f 3a
       0.025475817 -0.036980443 0.05324921 0.0012189414
000250 9c d9 73 3c 15 28 95 bc 53 5a 22 3d dd a5 64 bc
       0.014883425 -0.01820759 0.03963692 -0.0139555605
000260 8c e8 6f 3d 6e d0 f8 3a f3 1b 2d 3c 99 e8 43 3b
       0.058571383 0.0018983015 0.010565746 0.0029893278
000270 4c 6b 03 3d 37 31 a1 bb 8d 85 91 3d dc e6 89 3c
       0.03208475 -0.004919197 0.07105551 0.016833715
000280 71 ac 38 3d 56 c3 4a bd 95 c0 20 bd 4f 24 78 3d
       0.045086328 -0.049502693 -0.03924616 0.0605815
000290 c1 b9 51 bd 50 50 88 bc 89 15 be bc a8 71 83 bc
       -0.05120254 -0.016639858 -0.023203628 -0.016045406
0002a0 6b e5 13 3a b8 c1 aa bc bf 3c c4 bc 63 54 81 3b
       0.0005641791 -0.020844325 -0.023954747 0.0039468273
0002b0 9e ca 26 bc 57 98 88 bd cb 31 0c 3a 0b 19 ac 3a
       -0.010180144 -0.066696815 0.0005347996 0.0013130022
0002c0 78 0b b8 3c b7 08 12 bd 1e b0 b2 3c 80 b8 91 bd
       0.022466406 -0.035652842 0.021812495 -0.07115269
0002d0 c9 d0 af 3b cc e0 c2 bc 48 f7 b0 bb 85 31 1e 3b
       0.0053654653 -0.023788832 -0.005400572 0.0024138403
0002e0 2d 30 c2 3c 0a 32 01 3c 91 d0 d1 bb 47 a4 02 bc
       0.023704613 0.007885465 -0.006403037 -0.007973737
0002f0 4f c1 1d bd 25 ed 8a 3b f9 e5 11 3c d0 91 02 3d
       -0.03851443 0.0042396956 0.008904927 0.03187734
000300 48 aa 4a bd e3 cd 81 bb 6a a8 6e bd 45 a2 60 bc
       -0.0494788 -0.003961311 -0.05826608 -0.013710563
000310 6a 2e 03 ba 93 81 0e bc 2f fe 2f 3d 0d a6 45 bb
       -0.00050041697 -0.008697885 0.042967018 -0.0030158788
000320 70 8e a7 3c 2b d3 20 ba a1 df 70 3b 44 d1 91 bc
       0.020453662 -0.0006134982 0.0036754387 -0.017799981
000330 e4 72 46 bd f0 cf 8d bc 03 6a 8b bd d4 08 cf 3b
       -0.048449412 -0.017311066 -0.068073295 0.006318191
000340 17 0e 06 bd 71 5c d3 3c f7 50 0d bd b4 98 cd ba
       -0.03272828 0.025800915 -0.034501042 -0.0015685768
000350 57 6a 43 3b 45 78 7f bd ac 47 d0 3c 64 e3 c3 bd
       0.0029818022 -0.062370557 0.0254248 -0.09564856
000360 c9 8a be 3c 50 6e b7 3b 2a c8 2a 3c 57 5a 0e bc
       0.023259537 0.005597867 0.010423699 -0.008688531
000370 76 df 2f 3d ee 85 90 3c e3 86 84 3d 38 b8 9c bd
       0.04293772 0.017641988 0.0647104 -0.076523244
000380 ee 01 d3 3c 84 cd e4 3c 6a ee 85 bc 09 66 4a 3c
       0.025757756 0.027930029 -0.016349036 0.012353429
000390 ef 11 3a 3c 6e 22 68 3c 51 df 3f bd f4 67 f6 bc
       0.011356815 0.014168365 -0.04684383 -0.030078866
0003a0 58 97 df bc 25 60 00 bd 6d 5e 5c bd 3a d5 f5 3c
       -0.027293846 -0.03134169 -0.05380099 0.0300089
0003b0 79 77 3f bc 54 b4 a4 3c bb e0 80 3d fd ca 00 3d
       -0.011686199 0.020105518 0.06292864 0.031443585
0003c0 7b 62 2c 3c 3c e9 22 bc 9d cd 38 3d b6 d4 72 3c
       0.010521526 -0.009943303 0.045117963 0.014821222
0003d0 e9 a2 54 3c d0 44 4c 3d f8 ba 6c bb 84 ad fb 3c
       0.012978294 0.049870312 -0.0036122184 0.030722387
0003e0 87 3c 41 bc 54 87 01 3c ae 17 3e 3c 5e 35 73 3d
       -0.011794216 0.0079058 0.011602325 0.059377067
0003f0 ad cf 7c 3c c9 3d 0f bd 25 87 a4 bc 34 5b 83 3b
       0.015430373 -0.034971032 -0.020083973 0.004008675

network_body._body_endoder.seq_layers.0.weight f4 [64, 130]
000000 bb d8 ad 3b 4c bd e6 3c 3b a2 25 3d 1b 02 5c bc
       0.0053053773 0.028166436 0.04043792 -0.013428236
000010 7d f6 75 be 2b 7f fe bb 54 82 d6 bd f8 bc 07 bd
       -0.24019809 -0.0077666244 -0.10474077 -0.0331392
000020 b5 c3 4a 3d ec 60 75 bd d3 71 4d bc 1d 85 d2 3d
       0.049503047 -0.059906885 -0.012539345 0.102792956
000030 b8 cf 55 bd 49 32 3b bc 4d 6e 5d 3d a7 e6 03 3d
       -0.05220005 -0.011425563 0.05406027 0.03220239
000040 f9 d1 a3 3c 6c ab d8 3b 46 26 78 bd b2 c0 22 be
       0.019997584 0.006612232 -0.060583375 -0.1589382
000050 73 34 0f 3d 2a e6 5d be f0 87 9f 3d ac 2e e5 3d
       0.03496213 -0.21669832 0.077896 0.111905426
000060 7b ad 4a be f3 1a 20 3d e7 a6 84 3d c9 59 84 3d
       -0.1979274 0.0390882 0.064771466 0.06462438
000070 f7 03 31 3d 2d b5 9f bd 33 7a d9 bd a8 bc 76 3c
       0.04321667 -0.077982284 -0.10619011 0.015059628
000080 ce 75 3d be 0d 2b e6 3d b4 e6 c1 bb 3c 25 40 bd
       -0.1850197 0.1123868 -0.0059173945 -0.04691051
000090 a0 59 5a bd 92 f1 0a 3e fe 32 42 bd 68 16 ed 3d
       -0.05330813 0.13568714 -0.04741191 0.11576539
0000a0 f8 7e b0 bd 53 e7 6e 3c 5c 1e 07 3e 92 70 96 bd
       -0.08617967 0.014581519 0.13195175 -0.0734569
0000b0 1b 43 53 bd d3 73 6a 3d 5f 14 03 be b0 00 d7 3d
       -0.05157767 0.057239365 -0.1280074 0.10498178
0000c0 02 93 80 3d 63 5d 4c 3d 8a 82 b1 3d 8e af f3 3d
       0.062780395 0.049893748 0.086674765 0.11898719
0000d0 6c d4 63 be 72 b3 b2 bd 38 db 50 3d 4a f4 10 3b
       -0.22249001 -0.08725633 0.050990313 0.0022118264
0000e0 40 68 d8 3d 14 57 a7 bb f4 3b d8 bd a3 81 15 be
       0.10566759 -0.005106816 -0.1055831 -0.14600234
0000f0 f7 11 70 3c 77 60 24 3e 3b 06 21 be c8 a1 b2 bd
       0.014652721 0.16052423 -0.15725033 -0.087222636
000100 e3 15 97 3b 49 27 b5 3c 85 e6 9a bd 12 a6 c6 3c
       0.0046107634 0.02211346 -0.07563499 0.02424911
000110 05 41 1c 3e 5c 0d 60 bd b3 e9 ad 3d 61 8f e2 3d
       0.15259178 -0.05470024 0.0849184 0.110625036
000120 a3 b2 29 be cd d7 82 bc 75 2a c3 bc b4 56 be 38
       -0.16572051 -0.015972042 -0.023823956 9.076056e-05
000130 de 19 3a 3e 86 15 11 be fa e9 b1 bd 1d 33 11 bb
       0.1817393 -0.14168367 -0.086872056 -0.002215571
000140 99 0e a1 3c ad cc 00 3e 74 7e be bd 3d a8 d4 3d
       0.019660281 0.12578078 -0.09301463 0.103836514
000150 54 90 ea bc 4d 32 94 bd 2b e2 45 bd 9f 90 87 bd
       -0.028633274 -0.072361566 -0.048311394 -0.06619381
000160 6a 48 65 bc e0 c2 d9 3d eb f7 8d bd 14 e4 c8 bc
       -0.013994316 0.106328726 -0.06932052 -0.024522819
000170 99 ce c3 bd 0b 04 2b 3e 5c ad 05 3e f1 68 16 be
       -0.0956089 0.16700761 0.13054413 -0.1468847
000180 54 32 37 bd 76 50 28 be 61 f3 90 bd 31 93 88 bd
       -0.04472573 -0.16436943 -0.07077671 -0.066686995
000190 f8 ff 14 be 4e 84 6d 3d dd 0d b5 3d 95 f6 06 be
       -0.1455077 0.057987504 0.08840535 -0.13180001
0001a0 97 d9 19 bd e5 92 46 3d e4 d3 74 3d 91 99 de 3d
       -0.037561025 0.048479933 0.059772387 0.10869134
0001b0 8b 32 0d 3b f9 72 4a bb bf 64 02 be 69 d0 bb 3d
       0.0021545019 -0.0030891283 -0.12733744 0.091706105
0001c0 a4 b2 88 3d 2a b5 48 3c b4 c3 70 bd 1f fb 0f 3d
       0.06674698 0.012250224 -0.058780387 0.035151597
0001d0 4e 4c 5c bd e2 1c 1c bd 52 44 a9 bd 4b 72 3b be
       -0.053783707 -0.038113482 -0.08264984 -0.18305318
0001e0 f6 a5 ae bd 36 57 eb 3d f8 4c 0a 3e 3b 7d f1 bb
       -0.08527748 0.114912435 0.13505924 -0.007369665
0001f0 26 99 f1 3d c4 b0 bb bd 04 90 83 be 4f b3 21 be
       0.11796789 -0.09164575 -0.25695813 -0.15791057
000200 0b 4a 33 3d 3f 95 b7 bb e8 c8 36 bd 96 1a 9a 3d
       0.043771785 -0.0056025083 -0.044625193 0.07524602
000210 95 9f 77 bd a6 19 6d 3d 35 19 37 3d bb 19 ff bb
       -0.060454924 0.05788579 0.044701774 -0.0077850497
000220 d0 c9 83 3d 2a 15 89 3c 87 37 bc 3d c3 2c 66 bc
       0.06434977 0.016733725 0.091902785 -0.014048758
000230 dc 8a 4b 3d ad ad 97 3c a1 be 20 3c 1a 57 c9 bd
       0.049692973 0.018515432 0.0098110745 -0.098310664
000240 5e 42 b9 3d 98 c2 cd bb 7b 87 40 3d 6f 40 cd 39
       0.09045862 -0.006279301 0.047004204 0.00039148654
000250 82 e3 af bb 4d 60 87 bd 06 af f1 3d 97 60 1d 3e
       -0.005367697 -0.06610165 0.11800961 0.15368877
000260 38 0f d8 3b a3 91 21 bd fb 43 de bd b5 89 54 bd
       0.006593611 -0.03944553 -0.1085281 -0.05188914
000270 91 ca 85 3d 47 dc f1 3c 11 98 b3 bc d2 4b 04 3e
       0.06532777 0.029523982 -0.021923097 0.12919548
000280 b8 09 5f bd a4 16 09 3d a7 49 5d bb a6 fd e7 bc
       -0.054452628 0.033468857 -0.0033765824 -0.028319191
000290 24 ff 07 3e 91 16 de bd 22 d4 7f bd e3 c4 10 bd
       0.13280922 -0.10844148 -0.062458165 -0.035344016
0002a0 d1 2a 26 3e 82 d5 25 bd 05 31 2f bc 8a c7 0b ba
       0.1622727 -0.04048682 -0.0106928395 -0.0005332163
0002b0 44 ec 1e 3c bc 0a d8 3c 00 13 c4 3c 69 a4 51 3e
       0.009699885 0.026372306 0.023934841 0.20472874
0002c0 f0 f0 24 bd c8 10 17 bd 95 ab 28 3e b1 91 31 be
       -0.04026884 -0.03688124 0.16471703 -0.17340733
0002d0 e4 12 2d bc 17 4b 2f 3d cb eb b6 3d bd 52 95 3d
       -0.010563586 0.04279622 0.08931693 0.07291172
0002e0 a6 80 49 3d 52 b5 fc bd 47 8c ed 3d 71 33 13 be
       0.049194954 -0.123392716 0.115990214 -0.14375092
0002f0 9e 68 ce 3c 95 77 17 bd 0a 50 51 3d 5b 24 fa bc
       0.02519637 -0.036979277 0.05110172 -0.030534914
000300 ea b5 89 3d 57 49 8b bc ec b5 15 be d8 eb 09 3e
       0.067241505 -0.017002745 -0.14620179 0.13468874
000310 5e ed 69 bd 29 e2 f2 3d 6d d1 90 bd 77 52 86 3d
       -0.057111137 0.11859543 -0.07071195 0.06558698
000320 f3 ad c5 3d 8b d9 06 bd a0 e7 ee 3d 8e 34 d4 bc
       0.09652319 -0.03292231 0.11665273 -0.025903966
000330 e8 2e f9 bd 67 5a 0e bd 51 0e 19 bc 07 52 9c 3b
       -0.1216715 -0.034754183 -0.009341792 0.0047705206
000340 c6 9c 0d be fe 08 99 3c 5b bf 10 bd 02 51 ec bb
       -0.13829336 0.018681046 -0.03533874 -0.0072118053
000350 29 ed e5 bd a2 2a 1f 3e cf 33 bd 3d 9a c9 03 be
       -0.11226875 0.15543607 0.09238397 -0.12869874
000360 c9 a1 38 3d b6 41 e0 b9 80 ef c0 bd c8 e2 0f bd
       0.045076165 -0.00042773568 -0.09420681 -0.035128385
000370 17 b2 ae 3c 24 8b 43 be 3a 79 25 be 7a cd 95 3c
       0.021325154 -0.19096047 -0.16159526 0.018286455
000380 33 f1 30 3d 75 5a 1e be d2 39 04 3e be 74 2f bd
       0.043198776 -0.15464194 0.12912682 -0.042835943
000390 b3 34 8e bd e1 6f 37 3e 96 61 94 bd a6 d5 f5 3d
       -0.06943645 0.17913772 -0.072451755 0.12003641
0003a0 9c 54 8e bd bc 04 00 ba 63 96 6b bd c1 35 e5 3d
       -0.06949732 -0.0004883518 -0.057516467 0.11191893
0003b0 4a 07 54 bd cd 72 3b bc e8 35 91 3c 95 20 03 be
       -0.051764764 -0.011440945 0.0177259 -0.12805398
0003c0 9f 75 94 bd 4b ca ed bd 6e 68 aa 3d e8 e2 a0 3c
       -0.07248997 -0.1161085 0.083207 0.019639447
0003d0 19 8b d1 bc ed 3f bf bd 13 7a b0 3d 8d 80 8f bc
       -0.025579022 -0.09338365 0.08617034 -0.017517352
0003e0 a0 91 17 bd 98 5a 48 bd cb 24 39 3d bd 4b 42 3e
       -0.037004113 -0.048914522 0.045201104 0.18974204
0003f0 71 3f 67 3d ba cf 16 bd c5 45 90 bd e7 82 5a bd
       0.056456987 -0.036819197 -0.070445575 -0.053347494

network_body._body_endoder.seq_layers.0.bias f4 [64]
000000 00 00 00 00 00 00 00 00 00 00 00 00 00 00 00 00
       0.0 0.0 0.0 0.0
000010 00 00 00 00 00 00 00 00 00 00 00 00 00 00 00 00
       0.0 0.0 0.0 0.0
000020 00 00 00 00 00 00 00 00 00 00 00 00 00 00 00 00
       0.0 0.0 0.0 0.0
000030 00 00 00 00 00 00 00 00 00 00 00 00 00 00 00 00
       0.0 0.0 0.0 0.0
000040 00 00 00 00 00 00 00 00 00 00 00 00 00 00 00 00
       0.0 0.0 0.0 0.0
000050 00 00 00 00 00 00 00 00 00 00 00 00 00 00 00 00
       0.0 0.0 0.0 0.0
000060 00 00 00 00 00 00 00 00 00 00 00 00 00 00 00 00
       0.0 0.0 0.0 0.0
000070 00 00 00 00 00 00 00 00 00 00 00 00 00 00 00 00
       0.0 0.0 0.0 0.0
000080 00 00 00 00 00 00 00 00 00 00 00 00 00 00 00 00
       0.0 0.0 0.0 0.0
000090 00 00 00 00 00 00 00 00 00 00 00 00 00 00 00 00
       0.0 0.0 0.0 0.0
0000a0 00 00 00 00 00 00 00 00 00 00 00 00 00 00 00 00
       0.0 0.0 0.0 0.0
0000b0 00 00 00 00 00 00 00 00 00 00 00 00 00 00 00 00
       0.0 0.0 0.0 0.0
0000c0 00 00 00 00 00 00 00 00 00 00 00 00 00 00 00 00
       0.0 0.0 0.0 0.0
0000d0 00 00 00 00 00 00 00 00 00 00 00 00 00 00 00 00
       0.0 0.0 0.0 0.0
0000e0 00 00 00 00 00 00 00 00 00 00 00 00 00 00 00 00
       0.0 0.0 0.0 0.0
0000f0 00 00 00 00 00 00 00 00 00 00 00 00 00 00 00 00
       0.0 0.0 0.0 0.0

network_body._body_endoder.seq_layers.2.weight f4 [64, 64]
000000 d5 42 a2 3d 1d 1c 58 bd 88 f2 8b 3e 3a 6d 2d be
       0.079229034 -0.052761186 0.27333474 -0.16936198
000010 6b 67 85 bd 44 9f 72 3c 60 04 f1 bc cc e6 7f 3e
       -0.06513866 0.01480848 -0.029421031 0.24990386
000020 54 d7 e2 3d 9b 80 03 3c 75 aa c5 3d d8 84 00 bd
       0.11076227 0.008026267 0.09651653 -0.03137669
000030 fd 69 93 3d bb c1 14 3e 09 21 3c bc e4 98 04 3c
       0.0719795 0.14527027 -0.011482486 0.008093093
000040 2b 42 5a bd 67 ec b1 bd 0e 45 50 be f8 78 2f bd
       -0.05328576 -0.08687668 -0.20338842 -0.042839974
000050 33 c8 d6 3d bc 56 0c be 69 e2 93 be bb 75 19 bd
       0.10487404 -0.13704962 -0.28883675 -0.037465792
000060 9b 3e 1a 3d 45 0f 41 3e eb 33 0a be ba f9 c4 3d
       0.03765736 0.18853481 -0.13496368 0.09617944
000070 e5 2c 51 3d 86 14 37 bc 27 2a f8 3d fd fd 73 3c
       0.051068205 -0.011174327 0.12117415 0.0148920985
000080 ac 44 a1 3c 6b d5 1f be 60 ee 5b 3e 13 b6 ad 3d
       0.019686066 -0.15608756 0.21477652 0.084819935
000090 13 03 25 be 91 9d 69 3b ec 0f b0 3d 76 76 8f 3d
       -0.16114454 0.0035646895 0.08596787 0.070050165
0000a0 9e 5d 6d 3c 2a 7d 3f 3d 55 f6 26 bc 23 79 ae bd
       0.014487652 0.046750225 -0.010190566 -0.08519199
0000b0 68 d3 ac 3d fe fb b7 be aa 3c 2c be 66 11 53 bc
       0.0843876 -0.35934442 -0.16820017 -0.012882566
0000c0 44 d7 8a 3d 7e f0 95 3d 65 7f f6 3d 8c 24 a6 bd
       0.0677934 0.07321261 0.12036017 -0.081124395
0000d0 e4 91 4f be ba 10 19 3d 90 53 4f 3d 4b a3 ae bd
       -0.20270497 0.037369467 0.0506168 -0.085272394
0000e0 0d 16 c9 bd a5 ad ba bd 08 4e 7e 3a 73 af fc bd
       -0.09818659 -0.09115151 0.00097009586 -0.12338152
0000f0 67 5b 3b be f6 96 3c 3e b9 10 d3 bd 87 f9 80 3d
       -0.18296586 0.18416962 -0.10305924 0.062975936
000100 a4 11 c8 3d d6 08 77 bd df 18 94 bd 2f ab a7 3d
       0.0976899 -0.06031116 -0.07231306 0.081869476
000110 86 6c 8e 3d 29 fe a0 3e ec ca 9c bb 38 67 60 3e
       0.06954293 0.3144391 -0.0047849324 0.21914375
000120 94 f9 79 3e cb 5c 3e 3d 39 97 94 bd 0a ac 33 3e
       0.24411613 0.046475213 -0.07255406 0.17546096
000130 c7 31 43 3e cf 45 26 3e 17 0e b3 3d f7 8b 80 3d
       0.19061957 0.16237567 0.08742922 0.06276696
000140 1e 12 7b 3d 3a fe 6f 3e 22 c0 0b be d4 76 fa 3d
       0.061296575 0.23436823 -0.13647512 0.12229696
000150 ab b0 3d 3d 3d 1c 91 3e c6 73 08 3e 6f 10 dd bc
       0.04631106 0.28341857 0.13325414 -0.026985375
000160 bf a3 80 3e bb f1 3c bb b9 4d f5 bc d4 0a 42 be
       0.25124928 -0.0028830606 -0.029944288 -0.18949443
000170 ee c4 de bd 57 20 f3 bd 9b 6d 38 bc 20 c6 1e bd
       -0.10877405 -0.11871403 -0.011256601 -0.038763165
000180 62 bd b6 3d 8c 59 d6 3d 90 5b 19 bc df c8 11 be
       0.08922841 0.104662985 -0.009360209 -0.14236782
000190 8b f0 8d 3d 49 18 86 3d a5 42 21 be e7 b8 42 be
       0.069306456 0.06547601 -0.15748079 -0.19015847
0001a0 13 a5 c9 bc 5c ff 37 be 28 80 6a 3d 4c 9c 13 3e
       -0.024614846 -0.17968506 0.057251126 0.14415091
0001b0 dd dc 6d 3d 1b b1 70 3e b6 63 6f 3d 72 10 65 be
       0.05807196 0.2350506 0.0584447 -0.22369555
0001c0 d1 69 15 3e f4 b6 4d be fc f4 a5 3d e7 ed b6 bd
       0.14591147 -0.20089322 0.08103368 -0.08932095
0001d0 97 91 a7 3d 61 21 95 bd bd 9c a4 bd 82 db 95 3e
       0.08182066 -0.07281757 -0.08037708 0.29269034
0001e0 99 85 0b 3e 4e 55 06 3e 81 e9 13 3e d5 4a 83 3d
       0.13625182 0.13118479 0.14444543 0.064107575
0001f0 14 e0 08 be a6 ef e4 bd 4e 4e 06 3e 9e e9 30 3e
       -0.13366729 -0.11178522 0.13115808 0.17276618
000200 f3 70 c5 3c 93 fe 15 be 71 a3 d8 bd 17 4f 54 be
       0.02410171 -0.14647894 -0.10578049 -0.20733295
000210 74 cc 1d be 50 36 29 be cc 4c da bc 36 9f fa 3c
       -0.15410024 -0.16524625 -0.026647948 0.030593496
000220 70 f9 f7 3d 43 12 14 bd 81 5e 3e be c7 35 04 be
       0.12108123 -0.03615023 -0.18590738 -0.1291114
000230 9d 21 a7 bd ae 7e 5f 3c b5 38 ee 3d 6c 20 af bd
       -0.08160708 0.013641043 0.1163191 -0.08551106
000240 b2 08 21 3e c0 c5 3a 3d 5b f8 10 be 82 e9 72 be
       0.15725973 0.045598745 -0.1415724 -0.23721889
000250 53 c2 ac bd 42 a3 39 3d c3 f9 d8 3c 53 ba 3a bd
       -0.08435502 0.04532171 0.026486283 -0.04558785
000260 9a c3 17 3d 24 27 2a be ef 15 42 be 71 61 cf bd
       0.037051775 -0.16616493 -0.1895368 -0.10126007
000270 1d 31 0d 3e 32 1d bf bc d6 5c 0e 3e 91 f9 19 3e
       0.13788266 -0.023329351 0.13902602 0.15036608
000280 c2 42 0c 3d 80 55 8c 3d bf 11 0c 3e 11 fa 77 bc
       0.034243353 0.06852245 0.13678645 -0.015135304
000290 b2 59 81 3d 3a 4a a2 3c 13 56 b9 3c 00 2f c5 bd
       0.06315936 0.019810785 0.022624051 -0.09628105
0002a0 49 40 8b 3d 49 83 32 bc 9e 7b 2b bc 60 f0 7d 3d
       0.06799371 -0.010895559 -0.010466484 0.061996818
0002b0 59 7c be 3d b0 8b 72 3d 06 df 07 3e e2 c5 35 be
       0.09301061 0.059215248 0.1326867 -0.17751268
0002c0 23 5f 2a be cf d6 89 bd 2a 26 de bb 34 b4 dd bd
       -0.16637854 -0.067304246 -0.006779452 -0.10825387
0002d0 6a 81 4d 3d a3 23 6f bc 08 34 d1 bd 04 c2 07 bd
       0.050172247 -0.014595899 -0.10215002 -0.033144012
0002e0 45 f3 13 be 46 0f 1a bc 24 29 a5 3d 97 2c 0e be
       -0.14448269 -0.0094030555 0.080644876 -0.13884197
0002f0 6e 5a 91 bd 15 b4 28 3e 9d ff ca 3d 96 c6 1c be
       -0.07097326 0.16474946 0.099120356 -0.1531013
000300 7c b7 79 3b 67 71 ae 3d 93 b1 d4 3c 1f f6 0a be
       0.003810375 0.085177235 0.02596358 -0.1357045
000310 94 e0 1e 3e f6 a8 b9 3d 42 77 0a be a4 5c b5 bd
       0.15515357 0.0906543 -0.13522056 -0.088555604
000320 fa c1 a0 bd 1e 7d 31 be 40 b1 07 3e a4 08 44 bc
       -0.07849498 -0.17332885 0.1325121 -0.011964951
000330 f1 45 c6 3d 72 5f a1 3e b4 1a 91 bd 8f 23 00 3e
       0.09681309 0.31518131 -0.07085171 0.12513565
000340 00 f4 63 bd fa d6 59 3e 1a df 3c bd 53 05 85 3c
       -0.05565262 0.21273413 -0.046111204 0.01623789
000350 be 9b 10 3e 32 9f 85 3e 65 91 b6 3c 84 13 ca 3d
       0.14121911 0.2609802 0.022286126 0.098670036
000360 9a 3b 59 bd 33 d2 db bc 19 a6 70 3e d1 91 ee bd
       -0.053035356 -0.02683363 0.23500861 -0.11648906
000370 46 aa 10 3d 68 3f 81 be e9 bc 5b 3b 8d 7f 14 be
       0.035318635 -0.25243688 0.0033529347 -0.14501782
000380 bb 1e 29 3e 69 29 01 3e d9 38 a3 be c9 99 c4 3b
       0.16515629 0.12613453 -0.3187931 0.005999778
000390 48 58 be bd 9d d4 c0 be ff 19 a5 3e 7d 31 49 3d
       -0.09294182 -0.3766221 0.32246396 0.04911946
0003a0 19 e5 de 3d a1 31 97 bd 34 dd 1b 3d c8 d1 6e bd
       0.10883541 -0.07382513 0.038052753 -0.05830553
0003b0 c9 f6 67 be 97 d1 be bd 35 ac 3a be 8e b6 e6 3d
       -0.22652735 -0.0931732 -0.18229754 0.11265288
0003c0 5f 3e d9 bd 3a 76 9a bd f7 d7 0f 3e ba 0b 91 3c
       -0.106075995 -0.07542081 0.14047228 0.017705787
0003d0 a8 63 1e 3d 0e f7 69 be 69 cd 5c 3d f0 7e 44 bd
       0.03866926 -0.2284815 0.053906832 -0.04797262
0003e0 77 e5 85 3d c6 d0 fe bd b3 ba 27 be 04 67 c6 3c
       0.065379076 -0.12442164 -0.16379814 0.024219044
0003f0 ef 99 1a 3e 68 76 6e 3c 8d ef 2e 3e dd 80 93 3d
       0.15097784 0.014554597 0.17083569 0.07202313

action_model._discrete_distribution.branches.0.weight f4 [9, 64]
000000 a8 4e 5f bc e9 4d 99 3b bb 67 3b 3b 6a 5e 15 bc
       -0.013629593 0.004678477 0.0028595764 -0.009116748
000010 c7 44 24 bc 93 81 1f bc 9a f6 2d 3c 5d ed 53 bb
       -0.010026163 -0.009735483 0.010617876 -0.0032337524
000020 48 de 3e 3c 77 46 97 bb ce e7 0e ba d1 af 1a bc
       0.011649676 -0.0046165544 -0.00054514117 -0.009441332
000030 4b 0e cb bc 62 6f 3f b9 b2 ca e3 3b 68 5d 1a bc
       -0.024787089 -0.00018256673 0.0069516534 -0.009421684
000040 e7 21 44 bc c3 93 97 bb 12 ff b1 bb 8d 36 8a 3c
       -0.011970974 -0.004625769 -0.005432018 0.016871715
000050 0f 7f 10 bc 3f c1 1d bc 86 71 2f 3b d8 37 dd 3b
       -0.008819356 -0.009628593 0.0026770546 0.006751042
000060 01 03 98 3c 23 41 c5 bc c7 2d 89 3c 8b 89 cf ba
       0.01855612 -0.024078911 0.016745461 -0.0015833838
000070 66 91 83 3b 73 1c 18 bc ef c3 a3 ba ef 6d 3d bc
       0.0040151356 -0.009284127 -0.0012494306 -0.011561855
000080 a3 cb 31 3b d3 32 38 bc 47 4f 16 3c 44 ca 88 bb
       0.0027129434 -0.011242586 0.009174175 -0.0041745026
000090 0b f7 57 bc 92 0e e6 3b 3a 08 35 39 fb 57 74 3c
       -0.013181458 0.00702078 0.0001726457 0.014913554
0000a0 4f 4f 0b 3c 03 eb 2e 3c 23 f0 19 3c 24 a1 02 bc
       0.008502795 0.010676148 0.009395632 -0.007972989
0000b0 7d 98 98 bb 42 cb c8 3c 09 01 22 bc 38 06 c4 39
       -0.00465685 0.024510983 -0.009887942 0.00037388667
0000c0 1a 02 16 3c 53 5a 07 bc 7b cf 83 3c 31 16 88 3b
       0.0091557745 -0.008261281 0.016090145 0.004153036
0000d0 6f b3 05 bc a0 0f 72 3a 4f ae 76 3a 77 a3 4c bb
       -0.008160456 0.00092338957 0.0009410129 -0.0031225362
0000e0 57 94 25 3c 19 bc 3d bc fd d0 8f 3b fd 3d 56 b9
       0.010106168 -0.0115804905 0.004388927 -0.00020431723
0000f0 23 f8 ab 3c 13 db 9c bb 3b fc 2c bc 93 20 da 3b
       0.020992344 -0.004786858 -0.010558183 0.006656715
000100 f3 2e 6f 3c 68 2d 26 bb 21 d4 90 39 a8 39 f9 3a
       0.014598596 -0.0025356654 0.0002762387 0.0019014375
000110 90 93 4e bb c7 72 dd 3c e2 7d 53 3c e2 d8 67 bc
       -0.003152106 0.02703227 0.012908431 -0.01415083
000120 39 58 90 39 47 7a 5e 3c fa b4 5d bc d5 5a d3 3b
       0.0002753155 0.013578958 -0.013531918 0.006450037
000130 e5 4a 37 3c 27 22 26 3b 9b 96 87 3b be 53 36 3c
       0.01118729 0.0025349946 0.0041378266 0.011128364
000140 90 2e a8 bc 8b 35 bd 3c c3 7e 8c bb 38 f4 48 bc
       -0.020530015 0.02309682 -0.004287572 -0.012265258
000150 51 27 c2 3b 6c c6 11 bc a3 55 2b bc 27 41 ef b9
       0.005925097 -0.008897405 -0.010457429 -0.00045634175
000160 08 15 22 3b 35 df db 3c d0 ce 57 bc 4f 39 31 3c
       0.0024731774 0.026839832 -0.013171867 0.010816886
000170 a1 e9 06 3c aa be c8 3c 81 b8 44 3b df 00 02 3c
       0.008234412 0.024504978 0.00300172 0.007934778
000180 70 f6 02 3d 6b 97 37 bc dc 62 90 bc b8 e8 64 3b
       0.031973302 -0.011205534 -0.017625265 0.003492875
000190 cd 72 99 3c dd fc 18 3c 03 7e db bb e3 2e a9 3c
       0.0187315 0.009337631 -0.0066983714 0.02065224
0001a0 6f b8 f6 3b fa 88 83 3c 90 e3 f3 3b ee 10 b6 bb
       0.0075293104 0.016056526 0.007442899 -0.0055562174
0001b0 04 6d bb bb bf e1 f6 ba 54 01 91 3b bb 93 13 bc
       -0.005719783 -0.0018835588 0.004425207 -0.00900739
0001c0 94 15 10 bc 9a c1 47 3c 55 ca 8b bc 35 77 44 bc
       -0.008794207 0.012192154 -0.017064253 -0.011991312
0001d0 27 18 3b 3b 53 f7 53 3c c0 f9 b8 bc 9f 38 ea 3b
       0.0028548331 0.012937385 -0.022580028 0.007147863
0001e0 dc 51 a7 3c df 9b 58 3c c7 30 17 bb aa f0 49 bc
       0.020424776 0.013220756 -0.0023069845 -0.012325445
0001f0 f1 48 96 3c 40 11 56 bc bf 43 d6 3b 04 36 8b 3c
       0.018345328 -0.013065636 0.0065388377 0.01699353
000200 50 d8 28 3c c8 d3 ae 3a 9f 7a 7c bc e6 df 89 3c
       0.010305479 0.0013338262 -0.0154100945 0.016830396
000210 7e 32 b5 3b 60 ae 90 3c 37 83 2c bc 60 e5 97 3c
       0.005529701 0.017661273 -0.010529331 0.018541992
000220 5e cc 08 bc 24 88 ab 3c 46 ac 15 3c de aa a0 bb
       -0.008349506 0.02093894 0.0091353115 -0.0049031815
000230 85 a6 1a bc 7f 4f 38 bc 1b c7 39 3b 42 5b 8f bc
       -0.009439115 -0.011249422 0.0028347436 -0.01749957
000240 0d 8b 7b bc e2 43 6f bc af cb 37 3c 4f 1c be 3b
       -0.0153529765 -0.014603587 0.011217996 0.0058017145
000250 2b b4 c1 3b ef 76 ed 3c 67 a8 56 3c ba 03 72 bc
       0.0059113703 0.028987376 0.013101674 -0.014771396
000260 37 13 98 3c 7d 9d c9 3b 35 80 9b 3c 20 8b 70 bc
       0.01856385 0.0061528073 0.018982032 -0.0146816075
000270 4f 99 97 bb 3f f6 fb 3b 50 97 dd bb 32 e5 da bc
       -0.00462643 0.007689267 -0.0067624226 -0.026720617
000280 ec f2 05 bb f6 7b 06 bd ca 67 91 bb 8f 8e 9c ba
       -0.0020438982 -0.032833062 -0.0044374214 -0.0011944341
000290 c2 3b 50 38 2b 59 a0 3b f0 f7 20 3c 7d 9f c7 3a
       4.964672e-05 0.004893442 0.009824738 0.0015230026
0002a0 3b 2a 63 3c 6d ee 59 bc d3 fb 14 bb 25 37 fa bb
       0.013865049 -0.013301474 -0.0022733107 -0.0076359683
0002b0 0e 29 40 3c 1d f8 7c 3c 42 76 92 bc d8 5d 8d bb
       0.011728538 0.015440014 -0.017878655 -0.0043141656
0002c0 b9 43 9b bc d5 46 a0 bc c5 d4 24 bb da cc 72 bb
       -0.018953191 -0.019565025 -0.0025151235 -0.003704837
0002d0 9b 0e 2b bc f5 5b f9 3c e3 c6 85 3c cd 91 58 3c
       -0.010440494 0.030439356 0.016330188 0.013218355
0002e0 97 6a a2 3c 38 e5 25 bc b2 30 eb ba 67 a3 cb 3a
       0.019826217 -0.010125451 -0.001794359 0.0015536369
0002f0 93 e5 db 3b 79 c3 9c 3b 4f d3 17 bc fe c0 4a 3c
       0.006710717 0.0047840443 -0.0092666885 0.0123751145
000300 0d ee c2 3b 15 b5 e4 bc 1c b4 88 3c 97 a2 dd 3b
       0.005948788 -0.027918378 0.016687445 0.006763767
000310 19 36 2e bb ff 96 cd bb bc c9 c0 3c 4a fd 48 3c
       -0.0026582538 -0.0062741037 0.023533694 0.01226742
000320 bf 79 77 3b 55 82 d3 39 6f 25 93 bc 7d dd b2 bc
       0.0037761775 0.0004034216 -0.017962186 -0.02183413
000330 4c 20 2f bc 23 8d d7 3b f0 91 03 bb 1c d6 21 3c
       -0.0106888525 0.006578104 -0.0020076 0.009877708
000340 4b 77 af bc 46 39 0a 3c 23 15 1a 3c f3 58 be bb
       -0.021419188 0.008436507 0.009404453 -0.0058089434
000350 eb 7d 68 3b aa 2c 0b 3c 1f ec 74 3b 88 ac b0 bc
       0.0035475444 0.008494535 0.0037372184 -0.021566644
000360 c0 f2 28 3b 45 9f e5 3b 37 7e a5 bb 49 82 a9 bb
       0.0025779456 0.007007512 -0.0050504464 -0.005173002
000370 fa 65 e7 bb 70 4d f0 bb eb 3e 48 3c 96 fd 06 3a
       -0.007061717 -0.00733345 0.012222032 0.00051494816
000380 f7 03 27 bc 68 b0 d8 3b 68 14 f9 3b 9c 4e 05 3a
       -0.010193816 0.006612826 0.0076013096 0.0005085261
000390 72 b9 56 3b b3 ab f3 3c 98 c1 73 3b d8 cb e0 3a
       0.0032764343 0.029744959 0.0037194248 0.0017150594
0003a0 65 00 6b bc 3a 07 d4 3b eb a6 9a bb a3 31 2b bb
       -0.014343356 0.006470588 -0.004719605 -0.0026122115
0003b0 89 7e 4b 3b 1c 2f 93 ba 77 4d 4b 3c 43 ed b9 bc
       0.0031050763 -0.001122925 0.012408606 -0.022696143
0003c0 07 5d af bb 74 48 80 3c f6 51 b0 bb ad 7f 1e 3c
       -0.005351666 0.015659548 -0.0053808643 0.009673995
0003d0 4b a3 81 3b de fd 40 3c 5a a4 34 bc b3 a3 05 bc
       0.0039562336 0.011779277 -0.011025513 -0.008156705
0003e0 5f 2a 59 3c 08 b8 49 3c ab 30 17 3c df 72 fb bb
       0.013254731 0.012311943 0.009227912 -0.007673606
0003f0 87 60 86 3c 85 d2 df 3b bc d1 b1 3c f9 75 83 bb
       0.01640345 0.006830516 0.021706454 -0.004011866

action_model._discrete_distribution.branches.0.bias f4 [9]
000000 00 00 00 00 00 00 00 00 00 00 00 00 00 00 00 00
       0.0 0.0 0.0 0.0
000010 00 00 00 00 00 00 00 00 00 00 00 00 00 00 00 00
       0.0 0.0 0.0 0.0
000020 00 00 00 00
       0.0

onnx::Div_186 f4 [2]
000000 54 76 49 3e 20 dd db 3f
       0.19674045 1.7176857

onnx::MatMul_189 f4 [129, 128]
000000 79 9b 50 bc 6a c9 4d bd 64 77 9d bc 10 3e 07 bb
       -0.01273238 -0.05024091 -0.019221969 -0.0020636357
000010 db 4f 51 bd f9 4d 80 bc 1c 94 be 3c 63 ba fd bc
       -0.051101547 -0.01566218 0.023263983 -0.030972665
000020 d3 9c da 3c a5 cf 28 ba bb 82 59 3c 78 90 5c bd
       0.026686108 -0.0006439633 0.0132757975 -0.053848714
000030 93 b7 a0 3b d6 49 ce 3c f6 99 84 bc f7 bf 2e 3d
       0.0049046963 0.025181692 -0.016186696 0.04266354
000040 b1 53 6f 3c f6 37 a8 bc 61 94 0e bd 16 ce 9b bc
       0.014607356 -0.020534497 -0.034809474 -0.019019168
000050 98 e4 a4 3c 07 d3 48 bd d0 c1 55 bd b3 2e a3 3d
       0.020128533 -0.049029376 -0.052186787 0.079678915
000060 6a 9f 01 3d 17 29 04 3d 83 c5 9c bc 46 99 0c bd
       0.03164617 0.03226575 -0.01913715 -0.03432586
000070 3b 3a 41 3d 11 ec e6 3c 0a d8 de bc 27 89 0c bc
       0.047174674 0.028188737 -0.027202625 -0.008577622
000080 7a cb 2b bd 83 12 0f 3d c9 0b 28 3d 08 1c e2 bb
       -0.041942097 0.034929764 0.041026864 -0.0069003142
000090 24 b6 0b 3d 19 d9 6e bb f7 53 a7 bc 2e c7 2d ba
       0.03410925 -0.0036445318 -0.02042578 -0.00066291064
0000a0 d6 19 02 bd f0 16 04 bc 76 e7 87 3c 64 68 fa ba
       -0.03176292 -0.008062109 0.016589861 -0.0019104597
0000b0 cc 7c 8d bc 84 50 8e 3d 61 7d 3d bb 96 c8 3c bd
       -0.017271422 0.06948951 -0.0028913843 -0.04608973
0000c0 33 6f e9 bc c4 d3 b7 bb e7 79 86 bc 72 78 b5 3d
       -0.028495407 -0.005609961 -0.01641555 0.08860864
0000d0 61 70 9a 3c aa b9 33 bd 33 55 06 bd a8 64 dd bc
       0.018852415 -0.043878235 -0.032796096 -0.027025536
0000e0 9b c3 ff bc 7d 22 c3 3b 48 68 61 bd da 86 91 bc
       -0.031221202 0.005955039 -0.05503109 -0.017764498
0000f0 cc db 85 bc f0 c7 c8 bc 08 36 58 bd 8b 26 49 3c
       -0.016340159 -0.0245094 -0.052785903 0.012277256
000100 24 38 27 bd 75 b7 1f 3b 07 88 3a 3d ee 26 4c 3c
       -0.040825024 0.0024370824 0.045539882 0.012460453
000110 6a 8c 1d ba 45 c0 86 3c 5e d7 d2 3a b5 3b be ba
       -0.0006009998 0.016449103 0.0016085913 -0.0014513644
000120 e1 b4 32 bc 93 f2 f2 bc dc 34 46 3d 9b 54 ba 3b
       -0.010907383 -0.029656684 0.048390254 0.0056863553
000130 98 5b 95 bb 66 17 40 3d dd d1 d5 3c c7 41 a0 3a
       -0.004558038 0.046897314 0.026101047 0.0012226634
000140 66 36 e8 3b 55 b9 57 3d 47 1c 9f bc 00 b0 2a 3d
       0.007086563 0.05266698 -0.019422663 0.041671753
000150 d1 3a b2 bb 8a 36 85 3d c6 78 73 bd 83 de 07 3d
       -0.0054391404 0.06504543 -0.05944135 0.033171188
000160 17 8b c4 b9 3d 88 b9 bc ad a3 25 bd e6 b5 3c bc
       -0.00037487663 -0.022647971 -0.040439297 -0.011517977
000170 c0 ae a8 3d 0b 0f b2 bc bc 3c 2b 3c 43 29 b9 3d
       0.08236456 -0.021735689 0.010451492 0.09041073
000180 e8 50 c7 3b 52 5c 12 bd 61 e1 1f 3c bd 71 2a 3d
       0.006082643 -0.035732575 0.009758324 0.041612376
000190 0f 70 3c 3d ee 2a f5 bc fd ac 32 bd 9c cc 18 3d
       0.046005305 -0.029927697 -0.043622006 0.037304506
0001a0 db 18 ee 3c c0 24 cb 3b ea cd 73 bd 07 70 3a bd
       0.029064586 0.0061994493 -0.059522547 -0.045516994
0001b0 65 35 1b 3d 8b 85 2b bd 65 e0 f3 3c 60 b4 d3 3c
       0.037892718 -0.041875403 0.029770086 0.025842845
0001c0 16 9c 2a bb 30 85 2d bc 36 5b 8d bd d8 1b 00 bc
       -0.0026032976 -0.010590836 -0.06902163 -0.0078191385
0001d0 4b 50 62 3c 36 71 21 3d c9 70 b2 bc c7 05 11 bd
       0.013813089 0.039414607 -0.021782296 -0.0354059
0001e0 96 d6 f4 bc ea b7 f9 ba 14 4b 02 3c 07 0c 0b bc
       -0.029887479 -0.0019052003 0.00795247 -0.008486754
0001f0 5e 68 27 3c c5 5f 09 bd fd d4 ae 3c 88 48 cd bb
       0.010217754 -0.0335386 0.021341795 -0.00626475
000200 bd fd 0f bc e8 13 41 3c b8 2b 07 3b c3 f1 fd bc
       -0.008788523 0.011784531 0.0020625424 -0.03099907
000210 48 6c 4b 3c 07 f8 10 bd 7d 84 7a 3b 08 25 18 3d
       0.012415953 -0.035392787 0.0038225942 0.03714469
000220 75 bf 36 bd d7 61 50 3c eb 6f 6c bd 52 ea b0 3d
       -0.04461618 0.012718639 -0.05772392 0.08638443
000230 84 c7 9a bc 4f 4e 75 bc 5c 93 31 3a ad 04 aa bc
       -0.018893965 -0.0149722835 0.00067739724 -0.020754183
000240 7d a5 92 3c 44 b7 81 bc 2f 21 49 3d 1a 9c 13 3d
       0.017901177 -0.015834458 0.049103912 0.036037542
000250 e1 fb e5 bc ee 2f c4 3b 86 4e 99 bc f5 1b 05 bd
       -0.028074207 0.005987159 -0.0187142 -0.032497365
000260 ee 58 4e bd ca ae f7 bc 1e 1f 51 3d 22 42 76 bc
       -0.05037778 -0.030234713 0.051055066 -0.015030416
000270 b7 4a 22 bc 71 c0 08 3d 47 3f 5a bc 5f 7d 8f bc
       -0.009905509 0.03338665 -0.013320751 -0.017515836
000280 75 7c d7 bc 5b 75 d7 bc cd f1 b5 3b 7f 1b 97 bd
       -0.026304463 -0.026301077 0.0055525065 -0.07378291
000290 ed 96 98 3c 35 9a 83 bd 1c 76 1b 3d 21 9d b0 bc
       0.018626655 -0.06425897 0.037954435 -0.0215593
0002a0 f3 77 1e 3d 97 86 4e ba e9 31 ce 3c 3b 87 a3 bb
       0.03868861 -0.0007878332 0.025170283 -0.004990486
0002b0 ff 0d 04 3c aa 5f f7 bc a6 df 55 3d 16 11 db 3c
       0.008059978 -0.030196983 0.05221524 0.026741546
0002c0 99 aa 34 bc 46 9a 11 3d c9 c3 96 bc b7 0c 00 3d
       -0.011027002 0.035547517 -0.018403905 0.031262126
0002d0 46 de 89 3c 99 57 ae bd 63 a5 1b 3d 17 b6 ac bb
       0.016829621 -0.08512802 0.037999522 -0.0052707302
0002e0 5e 86 af bb 67 82 d6 3b 5b cf 06 3c 13 9b 08 3d
       -0.005356594 0.006546307 0.008228148 0.033351015
0002f0 f6 22 3f bc 8c b8 10 3d 2b 09 ea bc 85 d5 a9 3b
       -0.01166605 0.035332248 -0.028568825 0.005182924
000300 0a 55 14 bd 00 c8 a1 bb f9 f3 10 bd d9 dc 97 bb
       -0.036213912 -0.004937172 -0.03538892 -0.0046344814
000310 de 7c 3d 3c e0 8d 52 3c 01 35 03 b9 4b 07 a3 3c
       0.011565415 0.012851208 -0.00012512879 0.019900938
000320 97 93 a4 3b e3 9f e7 3a 0b 9e 42 3d 06 74 13 3c
       0.005022477 0.0017671551 0.047514003 0.00899983
000330 f0 d9 4e bc db 5e 8f 3c b0 f9 9d 3d c7 9b 8d bd
       -0.012625203 0.017501285 0.0771364 -0.06914478
000340 9b 40 8b 3c 61 c5 9e bc 60 50 a1 bc 2a ed dc 39
       0.01699858 -0.019381227 -0.019691646 0.0004213837
000350 10 69 7a 3c 6c fe 07 3d 1b 06 88 3c db d2 a6 bc
       0.015283838 0.03320162 0.016604474 -0.020364216
000360 5f 46 12 bd 85 a9 6e 3d 1a 03 70 3d 07 7e 08 3c
       -0.035711642 0.058267135 0.058596708 0.0083308285
000370 94 ec 0b 3c 32 26 67 ba 17 c7 44 3d 12 24 b7 3b
       0.008540291 -0.0008817642 0.04804143 0.0055890167
000380 8c 90 d2 ba 35 5d 21 bc 3b 2a e5 bb 5d dc 5b bc
       -0.0016064807 -0.009848882 -0.0069935597 -0.013419238
000390 78 04 b3 3c 4e 0e 48 3d 2e b8 87 bd 96 2b b6 bc
       0.021852717 0.048841767 -0.06626926 -0.02223758
0003a0 bb 1b 71 3b 91 b9 db 3c 5d a4 1c 3d 23 38 22 3b
       0.003679021 0.026821883 0.038242687 0.0024752698
0003b0 52 55 2a bc e9 84 4d bc ad 71 4a bc 1d 00 40 3c
       -0.0103963185 -0.012543895 -0.012356204 0.011718777
0003c0 17 97 6e bd 90 e5 72 3b 18 46 df bc 22 97 97 bb
       -0.05824956 0.00370631 -0.027255103 -0.0046261707
0003d0 c7 28 4a bc 67 a5 04 bd 43 d5 e9 bb 10 0b 1b 3d
       -0.012338824 -0.032384302 -0.0071360185 0.037852347
0003e0 f1 88 69 bc fe c7 af 3a 73 ff eb bb 19 b4 0a bc
       -0.014253841 0.0013411043 -0.007202083 -0.00846579
0003f0 0a 69 6f 3d f3 b0 4b 3c 1b 0b d0 3c 1c 76 84 bd
       0.058449782 0.012432325 0.02539592 -0.0646784

onnx::MatMul_190 f4 [129, 128]
000000 13 e4 94 bd 22 8a 1f 3d 6f 47 6f bd 2c c6 0a bd
       -0.07270064 0.038950093 -0.058417734 -0.033880398
000010 06 af aa bb 89 68 f8 3c e4 f7 30 3c 97 50 0c 3d
       -0.0052088527 0.030323284 0.010801289 0.034256544
000020 25 21 2f 3c 46 e6 92 3c 24 9e e2 3c fa e8 66 bb
       0.010689055 0.017932069 0.027663298 -0.003523408
000030 1c 2c e6 3c bb b3 25 3d e0 f7 9c 3d 91 c5 1a 3d
       0.028097205 0.040454607 0.07664466 0.03778607
000040 99 14 ee 3c 5e c1 c1 3c b6 af f9 bc 92 20 1d 3c
       0.029062556 0.023651775 -0.030479293 0.009590285
000050 4a 89 16 bd b7 e7 46 3c 50 29 86 3c 12 f4 ae bc
       -0.036752023 0.012140206 0.016377121 -0.021356616
000060 7b 5a 2f bd 64 e5 5e 3c d9 e0 48 bc fa 96 da ba
       -0.0428109 0.013604496 -0.012260639 -0.0016677075
000070 2a 67 1c 3d 33 bc 1b 3c cf 8c 9f bc 0c 37 af bc
       0.038184322 0.009505319 -0.019476322 -0.021388553
000080 9a 41 06 3a 4e c1 65 3d 5c 86 4b bc 97 53 19 bc
       0.000512147 0.056092553 -0.0124221705 -0.009358308
000090 0b 58 53 3d 00 a0 7e bc 46 e3 06 3d 1e 5f b2 3c
       0.051597636 -0.015541077 0.03293159 0.021773871
0000a0 92 40 49 3d ea ec ea 3b fd 08 84 bd f1 eb 7b 3c
       0.049133845 0.0071693556 -0.06447027 0.015376077
0000b0 c5 98 c4 bd 33 03 d4 bc 14 f8 1d 3d 13 c9 d1 bc
       -0.09599451 -0.025880432 0.038566664 -0.025608575
0000c0 fe 8c db 3b 75 83 07 bc 2d ba 4b 3d 65 9a 51 3d
       0.006700157 -0.008271088 0.049738098 0.051172633
0000d0 1e 3c 80 bc 1b 93 0a bc b4 9d d2 3b 61 d0 a6 bc
       -0.015653666 -0.008457924 0.006427491 -0.020363035
0000e0 35 18 4e 3c 30 1a 8b bd 31 aa b4 bc 73 87 cb bb
       0.012579014 -0.06792104 -0.02205381 -0.006211215
0000f0 31 84 3c 3d 3a bc bb 3c 61 c0 1b 3d 36 8a b8 bc
       0.046024505 0.022916902 0.038025264 -0.022526842
000100 7d 9b 3f bb 05 09 39 bc d1 5f 2d 3c 27 a5 4e bb
       -0.0029236965 -0.011293654 0.010581926 -0.0031531544
000110 3d af 03 bc 0e 01 73 3c 5d 30 77 bd 71 d7 7f bc
       -0.0080373855 0.014831794 -0.060348857 -0.01561533
000120 62 49 5c bc c5 fe 14 3d 15 85 80 3a 19 c5 08 3d
       -0.01344523 0.03637578 0.0009805287 0.033391092
000130 5f a0 d4 bc 9e 91 6a bd 1c 85 28 3b df de 51 3d
       -0.025955377 -0.057267778 0.0025714105 0.051237937
000140 57 62 4f bc 75 e0 a9 bc a5 bd b9 3a ce f2 e2 3c
       -0.012657723 -0.020736912 0.0014170898 0.027703669
000150 66 06 b9 3c 5b 90 0f bd c7 6a e1 3c 50 87 07 3c
       0.022586059 -0.035049777 0.027516736 0.008272007
000160 ad a7 20 bd bb b6 16 3d ef 43 7b 3b dc 80 36 3d
       -0.039222408 0.03679536 0.0038340052 0.044556484
000170 37 60 4d bc 35 6c ad 3b ae ef 13 bd 6f 90 6d 3c
       -0.012535146 0.0052924403 -0.03611725 0.014499768
000180 7e 21 92 bd 0e 14 de 3c 5d ca ab bc 95 9c 85 3d
       -0.071352944 0.027109172 -0.020970518 0.06524006
000190 f7 c3 50 bd 0a af 5f 3c 5e 3b 1a bd fe 2f 9f 3c
       -0.050968137 0.013652572 -0.037654273 0.019432064
0001a0 cb 96 18 bd 4d 5a 24 bd f0 8a e9 bc c3 de 66 3d
       -0.037253182 -0.04012518 -0.028508633 0.056364786
0001b0 dc 71 82 3c 86 5e 86 bc 26 0a 47 bc c6 0a cf bb
       0.015923433 -0.016402494 -0.012148416 -0.006318423
0001c0 10 e4 be 3c 27 29 b9 bc e8 d0 a2 3d 08 6d 03 3d
       0.023302108 -0.02260263 0.07950002 0.032086402
0001d0 0a 90 de 3c 2a ed 93 bc 8c af 13 bd b8 33 da 3c
       0.027168293 -0.018057425 -0.036056086 0.02663599
0001e0 62 3a 25 3b b3 03 17 bd cf f7 a5 3c 59 1f 1b bd
       0.00252118 -0.036868762 0.020259766 -0.037871692
0001f0 db 8b d1 bc 92 88 92 3b f0 a1 35 bd 3b 1b 43 3d
       -0.025579384 0.004471847 -0.04434389 0.04763339
000200 31 af 6f bd 67 f5 b8 3d e0 5f 4f 3b b3 13 31 bc
       -0.058516685 0.09031182 0.003164284 -0.010807919
000210 ce 07 8d bd f9 ed 1e 3c e7 d5 af bc 8e 4c f1 3b
       -0.06886254 0.009700292 -0.021464301 0.0073638624
000220 4a 9d 4e 3c 9c a8 8c 3d a9 ab 16 bd e1 2b 04 3d
       0.012610743 0.06868097 -0.0367848 0.03226841
000230 d5 b2 42 3d 82 09 fb 3c 30 69 e4 3b 3d 89 ea 3b
       0.04753383 0.030644182 0.006970547 0.0071574734
000240 49 86 65 3c 03 cc c8 bc 15 45 49 3d 7f 3e 11 3b
       0.014009067 -0.024511343 0.049138147 0.0022162495
000250 38 f0 1e bc 6d b3 14 bd cc c6 93 3d eb 00 30 bd
       -0.009700827 -0.036303926 0.07215652 -0.042969625
000260 03 c9 21 3d de 2d 40 3c 65 60 1f bc c0 14 10 bd
       0.03949834 0.011729686 -0.009727572 -0.03517604
000270 1e 2b 76 bc 21 ed 33 3d 86 57 5f ba 9f 84 ce 3c
       -0.015024928 0.043927316 -0.0008519817 0.025209723
000280 a5 63 4c bd f5 13 53 bd 53 ad 32 3d 40 45 6a 3b
       -0.049899716 -0.051532704 0.043622326 0.0035746843
000290 21 12 b8 bb 8a 8e dd bc 4f e9 8c 3c 6c 6d b8 3b
       -0.0056173955 -0.027045507 0.017201094 0.0056282785
0002a0 f2 50 a1 3c 50 4a 54 bc cd bb 12 3d 88 cd e4 bc
       0.019691918 -0.012957171 0.035823632 -0.027930036
0002b0 12 83 1f bd 06 70 e9 bb 40 82 10 3d 05 33 c4 3c
       -0.038943358 -0.00712395 0.035280466 0.02395011
0002c0 f5 16 98 bc 73 17 ba 3b 24 df 95 bd 03 fe a6 3b
       -0.018565634 0.005679065 -0.07317951 0.0050961985
0002d0 2c 8a 6a 3d 4a 5e 8c bc 4a aa 04 3b 3b 44 73 bc
       0.057260677 -0.017134804 0.0020243102 -0.01484781
0002e0 66 cf 0e bc 5f eb 66 bd dd 73 d8 bc 3c 5b cd 3c
       -0.00871644 -0.05637681 -0.026422435 0.025067918
0002f0 55 0f ce 3c 57 9a 6b bd d7 f4 9b bb 39 dc 91 bd
       0.025153795 -0.057520237 -0.004759412 -0.07122082
000300 ad ac 8d bc d1 03 6e bd 15 20 c4 3b eb cb 21 bc
       -0.017294252 -0.05810911 0.00598527 -0.009875278
000310 cf 56 f1 bb 84 13 89 3c f9 ec 21 3d 90 0b 9e bc
       -0.0073650847 0.016732939 0.039532635 -0.019292623
000320 5b 15 54 3d eb 8f 13 3d 40 8e 4b bc a7 0c 1c bc
       0.05177818 0.036025923 -0.012424052 -0.009524501
000330 c3 a7 a7 3d e6 31 e2 ba e4 22 3c bd 94 a4 5e 3d
       0.08186295 -0.0017257303 -0.04593171 0.054356173
000340 59 eb 86 bb 85 12 10 bd 17 b9 f0 bc 9f 11 42 bd
       -0.004117411 -0.03517391 -0.029385133 -0.047380086
000350 30 aa 01 3d eb bf b1 bc 62 71 af bc 88 60 00 bd
       0.031656444 -0.021697959 -0.02141637 -0.03134206
000360 8b 30 09 bd cf ef 1d 3d 72 6d a2 bc ce 41 1a 3c
       -0.03349356 0.038558777 -0.019827578 0.009415103
000370 a4 4e 2a 3c fe 96 24 bd 9f 88 8a bc 37 fe ed 3c
       0.010394726 -0.04018306 -0.01691085 0.029051883
000380 ab 4b 02 bd 68 41 8c bb 8a e3 02 3c 01 19 fb bb
       -0.031810444 -0.004280258 0.00798882 -0.007662893
000390 b7 ec b5 3b a6 ff fd 3b 3d dc 49 bd d3 37 8c bd
       0.0055519002 0.007751423 -0.0492823 -0.06846585
0003a0 11 72 4d 3c 6c 26 bc 3c 5d 9a 25 3c f4 79 66 3d
       0.012539403 0.02296754 0.010107604 0.056268647
0003b0 e9 5f 6c bb 75 85 04 3c 2d 4f d0 39 72 5e b3 3d
       -0.003606791 0.008088459 0.00039731842 0.087582484
0003c0 a4 dc 00 bd a7 90 0f 3d a6 2f 0b bd 30 73 21 bd
       -0.03146042 0.03505006 -0.033980988 -0.039416492
0003d0 99 76 6f 3c 78 6e 1e 3d b4 40 2b bd 26 b6 5c bd
       0.014615678 0.03867957 -0.041809753 -0.053884648
0003e0 a4 f9 15 3d b7 bd f5 ba db 15 b6 bc 17 b4 1f 3d
       0.03661503 -0.0018748556 -0.022227218 0.038990106
0003f0 b6 a0 9b 3d 38 40 bd bb 37 07 32 bd 3e 81 99 bc
       0.075990126 -0.0057754777 -0.04346391 -0.018738385
