results/new_test_run_3/simple_deer/simple_deer-50043.onnx (onnx, 485125 bytes, 22 tensors)

network_body.observation_encoder.processors.0.self_ent_encoder.seq_layers.0.bias f4 [128]
000000 67 41 32 bd 11 cd 03 bd 5c e4 fb bc 7e bc 02 3c
       -0.043519404 -0.03217799 -0.030748539 0.00797951
000010 88 3d 43 bd a2 f1 27 3d 6a 9d 78 bc c3 67 10 bd
       -0.047666103 0.041001923 -0.015174249 -0.035255205
000020 01 5b c6 bc 5b 58 34 3d 15 d2 0d 3d ed c8 46 3d
       -0.024213316 0.044029575 0.034624178 0.04853146
000030 62 37 aa bb 7a 33 19 bd 52 cd 53 bc 76 99 14 3d
       -0.0051945904 -0.037402608 -0.01292737 0.036279164
000040 46 be 11 3c 67 f6 07 bd f8 9e 11 3d b3 da 0b bd
       0.008895462 -0.033193972 0.035551995 -0.034144115
000050 22 3c 0f 3d 81 5e 88 3b d8 c0 27 3d fc a4 27 bc
       0.034969456 0.0041616564 0.040955395 -0.010232206
000060 32 38 b9 3c 07 bf 8e 3b 70 9f 72 3b 4e bc da bc
       0.022609804 0.0043562683 0.0037021302 -0.026701119
000070 a6 cf 07 3d c5 d3 50 bd 03 05 22 3d 47 67 e1 3c
       0.033157013 -0.05098321 0.03955556 0.027515067
000080 69 53 06 bd 67 86 aa bc 3a c5 1e bd 85 72 d1 3c
       -0.03279439 -0.020816041 -0.03876231 0.025567302
000090 43 10 c4 3c b5 c4 37 3d f3 7a 57 3d a6 cf 30 3d
       0.023933535 0.04486533 0.052607488 0.04316678
0000a0 7a 49 2a 3c cb dd 23 3d 87 1b 09 3d 65 e8 31 bd
       0.010393495 0.04000644 0.033473518 -0.04343452
0000b0 84 dc 15 3d 0e 75 7c 3c e3 c5 93 3c fa 86 59 bd
       0.036587253 0.015408767 0.018038696 -0.05310724
0000c0 4e c3 cb bc 7a 59 05 3d 4b 00 1d 3b 7d ed f6 3c
       -0.024873402 0.032556035 0.0023956473 0.03014254
0000d0 c1 64 0c bc 96 5b d4 bc d8 c1 eb 3c cf 76 0f 3d
       -0.0085689435 -0.025922578 0.028778955 0.035025414
0000e0 bf bb a5 3b 2e 72 16 bc 12 10 0f bd 62 c9 f3 3c
       0.0050577815 -0.009182496 -0.034927435 0.029759113
0000f0 c0 22 32 bc 46 54 b0 bc d6 03 dc bc 61 de c5 3c
       -0.010872543 -0.02152456 -0.026857298 0.02415389
000100 4c 27 bf 3c cb 39 11 bd 7c e2 2c 3c be 4e 13 3c
       0.023334168 -0.035455506 0.010552045 0.008990942
000110 77 5f 21 3d 79 b8 e6 3c 62 dd 6f 3c 9c 2f f4 bc
       0.039397683 0.028164135 0.014640184 -0.029807858
000120 bf 10 f6 bc cf f0 2a bd ab df 6c 3c 42 26 34 3d
       -0.030037282 -0.04173356 0.0144576235 0.043981798
000130 d2 44 34 3d 06 ed f1 bc ef a0 0c 3d 37 ab 6c 3d
       0.044010945 -0.029531967 0.034333166 0.05778047
000140 b2 0c 3f bd de cb db bc 91 e7 d1 3c 61 fc eb 3c
       -0.046642967 -0.02683061 0.025623115 0.028806867
000150 b2 a0 64 bd a4 eb f6 3c eb d2 25 3c 03 1e ff bc
       -0.055817313 0.03014166 0.010121088 -0.03114224
000160 30 b4 cc bc 23 55 99 3c ac 98 d7 bc 90 f9 fe bc
       -0.024988264 0.018717354 -0.026317917 -0.03112486
000170 5d 71 17 3d 7c f6 48 bb ad 78 0f 3d 6a 08 4c 3c
       0.036973346 -0.0030664494 0.035027195 0.012453178
000180 6b ad 0f bd 7d f3 ff 3c 14 3a 5e bc 3a 17 ce bc
       -0.035077494 0.031244034 -0.013563652 -0.02515756
000190 73 4e ab 3c 72 48 0f 3d ae 8d e1 bc cc 03 cb bc
       0.020911431 0.0349812 -0.027533378 -0.024782084
0001a0 9a 84 53 bd 20 22 8d 3c 0c ac c8 bc 69 10 06 bc
       -0.05164013 0.017228186 -0.0244961 -0.008182623
0001b0 4d a1 0b 3d 8c f4 12 3d f2 39 3b 3a aa 9b 1f bd
       0.034089375 0.03587775 0.00071421184 -0.038966812
0001c0 6c ae fe 3a f5 0f a6 3a 72 59 fc bc 51 84 e9 3b
       0.0019430644 0.001266955 -0.03080437 0.007126369
0001d0 1e f1 ae bc 0d a3 64 bc 1f 85 7e 3c f0 69 8c bc
       -0.021355208 -0.01395489 0.015534668 -0.017140359
0001e0 cd 02 1f 3d e9 40 41 3d 4c d5 20 3d 2e 43 c5 3c
       0.03882103 0.047181044 0.039265916 0.024079885
0001f0 5b fb b2 3c a2 a5 fc 3b d0 d7 07 3d 57 79 6c b9
       0.021848371 0.0077101747 0.0331648 -0.00022551916

network_body.observation_encoder.processors.1.self_ent_encoder.seq_layers.0.bias f4 [128]
000000 00 00 00 00 00 00 00 00 00 00 00 00 00 00 00 00
       0.0 0.0 0.0 0.0
000010 00 00 00 00 00 00 00 00 00 00 00 00 00 00 00 00
       0.0 0.0 0.0 0.0
000020 00 00 00 00 00 00 00 00 00 00 00 00 00 00 00 00
       0.0 0.0 0.0 0.0
000030 00 00 00 00 00 00 00 00 00 00 00 00 00 00 00 00
       0.0 0.0 0.0 0.0
000040 00 00 00 00 00 00 00 00 00 00 00 00 00 00 00 00
       0.0 0.0 0.0 0.0
000050 00 00 00 00 00 00 00 00 00 00 00 00 00 00 00 00
       0.0 0.0 0.0 0.0
000060 00 00 00 00 00 00 00 00 00 00 00 00 00 00 00 00
       0.0 0.0 0.0 0.0
000070 00 00 00 00 00 00 00 00 00 00 00 00 00 00 00 00
       0.0 0.0 0.0 0.0
000080 00 00 00 00 00 00 00 00 00 00 00 00 00 00 00 00
       0.0 0.0 0.0 0.0
000090 00 00 00 00 00 00 00 00 00 00 00 00 00 00 00 00
       0.0 0.0 0.0 0.0
0000a0 00 00 00 00 00 00 00 00 00 00 00 00 00 00 00 00
       0.0 0.0 0.0 0.0
0000b0 00 00 00 00 00 00 00 00 00 00 00 00 00 00 00 00
       0.0 0.0 0.0 0.0
0000c0 00 00 00 00 00 00 00 00 00 00 00 00 00 00 00 00
       0.0 0.0 0.0 0.0
0000d0 00 00 00 00 00 00 00 00 00 00 00 00 00 00 00 00
       0.0 0.0 0.0 0.0
0000e0 00 00 00 00 00 00 00 00 00 00 00 00 00 00 00 00
       0.0 0.0 0.0 0.0
0000f0 00 00 00 00 00 00 00 00 00 00 00 00 00 00 00 00
       0.0 0.0 0.0 0.0
000100 00 00 00 00 00 00 00 00 00 00 00 00 00 00 00 00
       0.0 0.0 0.0 0.0
000110 00 00 00 00 00 00 00 00 00 00 00 00 00 00 00 00
       0.0 0.0 0.0 0.0
000120 00 00 00 00 00 00 00 00 00 00 00 00 00 00 00 00
       0.0 0.0 0.0 0.0
000130 00 00 00 00 00 00 00 00 00 00 00 00 00 00 00 00
       0.0 0.0 0.0 0.0
000140 00 00 00 00 00 00 00 00 00 00 00 00 00 00 00 00
       0.0 0.0 0.0 0.0
000150 00 00 00 00 00 00 00 00 00 00 00 00 00 00 00 00
       0.0 0.0 0.0 0.0
000160 00 00 00 00 00 00 00 00 00 00 00 00 00 00 00 00
       0.0 0.0 0.0 0.0
000170 00 00 00 00 00 00 00 00 00 00 00 00 00 00 00 00
       0.0 0.0 0.0 0.0
000180 00 00 00 00 00 00 00 00 00 00 00 00 00 00 00 00
       0.0 0.0 0.0 0.0
000190 00 00 00 00 00 00 00 00 00 00 00 00 00 00 00 00
       0.0 0.0 0.0 0.0
0001a0 00 00 00 00 00 00 00 00 00 00 00 00 00 00 00 00
       0.0 0.0 0.0 0.0
0001b0 00 00 00 00 00 00 00 00 00 00 00 00 00 00 00 00
       0.0 0.0 0.0 0.0
0001c0 00 00 00 00 00 00 00 00 00 00 00 00 00 00 00 00
       0.0 0.0 0.0 0.0
0001d0 00 00 00 00 00 00 00 00 00 00 00 00 00 00 00 00
       0.0 0.0 0.0 0.0
0001e0 00 00 00 00 00 00 00 00 00 00 00 00 00 00 00 00
       0.0 0.0 0.0 0.0
0001f0 00 00 00 00 00 00 00 00 00 00 00 00 00 00 00 00
       0.0 0.0 0.0 0.0

network_body.observation_encoder.processors.2.normalizer.running_mean f4 [4]
000000 54 13 3a 3f 55 f7 3c 3f a2 fe ff 3e c9 a3 e4 3f
       0.7268574 0.738149 0.49998957 1.7862483

network_body.observation_encoder.rsa.fc_q.bias f4 [128]
000000 61 ce ce 39 76 a5 85 bc 01 87 61 bc 9a 85 cb 3c
       0.00039445146 -0.01631425 -0.013765098 0.02484398
000010 9b cd ab bc a3 53 02 bd 68 c7 15 bd 24 55 b4 bc
       -0.020972064 -0.031818043 -0.03656712 -0.022013254
000020 5e ed 39 bc aa 82 78 bc 45 f0 54 3b 59 2a 21 b8
       -0.011348097 -0.0151678715 0.0032491845 -3.842483e-05
000030 9a 4e df 3c ac 7e f1 3b 96 a8 cf 3b cb 78 f2 3b
       0.02725916 0.007369837 0.0063372357 0.0073996536
000040 de 28 d0 bc ff cd 02 3d 81 05 4e bb 0b 2d 62 bc
       -0.025410112 0.031934734 -0.0031436386 -0.013804684
000050 d8 a1 ca 3c 1b d5 b2 3c 3c 6f d6 3b 69 30 b6 3b
       0.024735376 0.021830132 0.006544022 0.00555997
000060 ac 94 a8 3a ee af 76 bc ed b9 bf 3b 67 5b 18 3a
       0.001286169 -0.015056593 0.0058510215 0.000581196
000070 79 4e 00 3c b6 06 bb 3c 12 12 93 bc 83 f3 bd bc
       0.007831209 0.022830348 -0.017952953 -0.023187404
000080 39 ef 47 3d 2a 32 02 3d e8 db 1f 3d 78 57 12 bd
       0.048812125 0.03178612 0.03902808 -0.035727948
000090 69 90 18 bd 98 c5 25 3d 20 7c 13 3d a9 f9 08 bd
       -0.037247095 0.040471643 0.036007047 -0.03344122
0000a0 e5 a2 4e 3d bb 1d 0f 3d 29 f0 51 3d c4 36 a1 bc
       0.050448317 0.034940463 0.051254425 -0.019679435
0000b0 2a 15 13 bd 2d 40 31 bd 7d ef 28 bd 32 10 82 3c
       -0.035908855 -0.043274093 -0.04124402 0.015876863
0000c0 6b c2 f0 3c 29 4b 44 bc a6 4c d3 bc 1b e3 15 bd
       0.02938958 -0.01198081 -0.025793385 -0.036593538
0000d0 1d b2 e2 3c 4d 2a b4 bc d8 b1 05 3d 5d dd f8 bc
       0.027672822 -0.021992827 0.03264031 -0.030378992
0000e0 2a 0e c6 3c 7f ad 3b 3c 6f ab f1 bc 73 32 22 bd
       0.024176676 0.011454939 -0.029500691 -0.039598893
0000f0 11 3f 1d bd a4 91 49 3d 73 80 eb 3c e7 dc 52 3d
       -0.038390223 0.04921116 0.028747773 0.0514802
000100 b8 e1 22 3d fd b8 09 bd 36 7f fd bc ba cf de 3c
       0.039766043 -0.033623684 -0.030944448 0.027198661
000110 0e 15 fc bc 64 8b de 3c 45 98 ba 3c 75 64 3d 3c
       -0.030771758 0.027166076 0.022777686 0.011559595
000120 ec 4d 1a bc 0b bf 1c bd 78 43 be 3c df be c6 3c
       -0.009417992 -0.03826813 0.023225531 0.024260936
000130 49 a0 09 3c 5f 34 0e 3d b9 8a 0a 3d de 35 1a 3d
       0.008400031 0.034717914 0.033823702 0.037649028
000140 ab 80 a5 bb 1a 53 9a 3c 50 1f 2d 3d 12 e3 8f 3c
       -0.005050739 0.018838454 0.04226619 0.01756433
000150 8f 6a b8 3c 6f 4b 79 3b 38 2a c9 3c c7 36 20 3d
       0.022511749 0.0038039347 0.024556264 0.03911474
000160 79 8b d0 3c a2 64 e3 bc e5 8c 0b 3d 8f 93 db bc
       0.02545713 -0.027757946 0.034069914 -0.02680376
000170 63 98 15 3c 6d 59 78 3c 61 9f 62 bc 2d 02 84 3c
       0.00913057 0.0151580395 -0.013831944 0.016114319
000180 ee 5c 18 bd 95 a1 c4 3c b7 f1 03 bd 47 73 d5 bc
       -0.037198 0.02400283 -0.03221294 -0.026055945
000190 96 f9 11 bd 9a df ce bc 24 1e fc bc 2f 4f f0 bc
       -0.035638414 -0.025253106 -0.03077609 -0.029334633
0001a0 60 00 17 bd 7b ce 15 3c be be fc bc 65 48 26 3d
       -0.036865592 0.009143467 -0.030852672 0.040596385
0001b0 44 19 fe 3c 30 e9 02 bd 75 9f 1d bd 6a 5e fe 3c
       0.031017907 -0.031960666 -0.03848215 0.03105088
0001c0 2e 94 12 bd 6c 63 fc bc 3c 94 18 3d 1a 8a cd 3c
       -0.035785846 -0.030809127 0.037250742 0.025090266
0001d0 b8 3d 25 3d c7 f9 01 bd 5f 0f 05 bd ad 56 ef bc
       0.040342063 -0.031732347 -0.032485362 -0.029216135
0001e0 40 f0 04 3d 1a ad cd 3b 25 ab 04 3d a2 46 e2 3c
       0.032455683 0.006276739 0.03238978 0.027621571
0001f0 43 9a c6 3c ed bd 90 3c 27 53 d9 bc 8a 4e 10 3d
       0.02424348 0.017668689 -0.026528908 0.03523115

network_body.observation_encoder.rsa.fc_k.bias f4 [128]
000000 1d 9e b7 b6 c9 cf 38 37 fa 23 3a 37 07 b8 40 b7
       -5.472232e-06 1.1015633e-05 1.109484e-05 -1.1486939e-05
000010 2d 61 7e 37 ee 98 48 37 be 8d 89 37 f3 72 85 37
       1.5162205e-05 1.1956536e-05 1.6397677e-05 1.5908363e-05
000020 4f b9 57 37 a1 52 1b 37 2e 51 de b6 ac 31 f1 b6
       1.2858144e-05 9.2579585e-06 -6.625566e-06 -7.1881423e-06
000030 d9 e5 84 b7 9d 15 d8 b6 5d 18 0a b7 cf aa 05 b7
       -1.5842657e-05 -6.4398178e-06 -8.2311135e-06 -7.967187e-06
000040 e6 50 7f 37 ce 50 38 b7 7f 6a ce 36 4f 62 16 37
       1.521802e-05 -1.0986068e-05 6.151676e-06 8.963586e-06
000050 ef d2 5f b7 a1 4b 62 b7 7e 79 e0 b6 4d 51 af b6
       -1.3340948e-05 -1.3488258e-05 -6.6898638e-06 -5.224871e-06
000060 8e df ad b6 20 40 12 37 76 59 95 b6 55 8f c2 b6
       -5.181827e-06 8.717208e-06 -4.4509607e-06 -5.7983366e-06
000070 44 d9 da b6 ad d9 90 b7 18 b5 32 37 f4 73 35 37
       -6.5221993e-06 -1.72675e-05 1.0651791e-05 1.0815438e-05
000080 ea 08 06 b9 9f ee e8 b8 49 e7 05 b9 14 51 f1 38
       -0.00012782557 -0.00011107069 -0.00012770029 0.000115068775
000090 2e ab 04 39 9b 9e 12 b9 39 9a f3 b8 6a c8 dd 38
       0.0001265227 -0.0001398273 -0.00011615869 0.00010575431
0000a0 89 b9 21 b9 52 94 14 b9 5f fa 31 b9 a1 19 af 38
       -0.00015423274 -0.00014169634 -0.00016973306 8.349424e-05
0000b0 b9 ad 01 39 ef 9d 23 39 87 8e ff 38 1d d0 48 b8
       0.00012367115 0.00015603726 0.00012185895 -4.7877536e-05
0000c0 bd 65 cf b8 bc 3f 62 38 38 d9 d1 38 8a 40 10 39
       -9.8894794e-05 5.3941956e-05 0.00010006357 0.00013756953
0000d0 1e f2 08 b9 c7 00 b9 38 40 da e5 b8 bd e7 ca 38
       -0.00013060166 8.821632e-05 -0.00010960223 9.675275e-05
0000e0 f7 ec b4 b8 f7 1e 14 b8 d6 46 d4 38 de ec f5 38
       -8.627207e-05 -3.5314788e-05 0.00010122142 0.0001172663
0000f0 c4 60 fe 38 50 7c 2b b9 1c 1c cc b8 f3 ca 26 b9
       0.00012129688 -0.00016354141 -9.732714e-05 -0.00015906598
000100 ae 1b 2d b7 6e ef c1 35 be 21 c7 b5 c2 76 92 35
       -1.0318048e-05 1.4449304e-06 -1.4836476e-06 1.0912411e-06
000110 bc 34 fb b6 f4 a0 e3 36 59 5c 15 36 50 95 34 36
       -7.486522e-06 6.7838646e-06 2.2256484e-06 2.6909001e-06
000120 dc e4 8f b5 18 db 43 b6 be 73 74 b4 82 64 a5 35
       -1.0720937e-06 -2.9184794e-06 -2.2766378e-07 1.232271e-06
000130 88 69 84 b6 0a a5 ad 35 0d bc dc b5 00 97 37 b6
       -3.946192e-06 1.2937537e-06 -1.6446007e-06 -2.7357019e-06
000140 3c 4e e3 32 4c af 84 b6 52 ac f5 35 4b 67 b3 35
       2.6461855e-08 -3.954314e-06 1.8304074e-06 1.3366601e-06
000150 bc 5a 91 36 01 db 70 36 72 cf 2f 34 2e d0 0e b5
       4.3318996e-06 3.5890264e-06 1.6373613e-07 -5.3202064e-07
000160 9d aa c5 b5 b4 10 d6 34 5c 92 65 36 ed 66 18 36
       -1.4727299e-06 3.987276e-07 3.4208852e-06 2.2709676e-06
000170 e3 41 30 b6 60 70 90 b5 e3 64 2d 36 3a fe a8 36
       -2.6264395e-06 -1.0761541e-06 2.5837733e-06 5.036386e-06
000180 0f 0f e4 37 84 44 e4 b7 ec 73 a1 37 6d 76 0a 38
       2.718673e-05 -2.7211623e-05 1.9246676e-05 3.3012057e-05
000190 04 bf 01 38 20 e3 04 38 8e 27 2b 38 63 ef a5 37
       3.0933894e-05 3.168278e-05 4.0806415e-05 1.9781006e-05
0001a0 21 47 3e 38 1a 77 40 b7 db 5b a3 37 dd be 04 b8
       4.5365774e-05 -1.1471822e-05 1.9473888e-05 -3.1649008e-05
0001b0 6c b4 b0 b7 2f 16 af 37 d0 99 e1 37 7c 43 04 b8
       -2.106485e-05 2.0871956e-05 2.6893715e-05 -3.1534102e-05
0001c0 cd ea d7 37 4a fa fa 37 60 cf 03 b8 44 27 1c b8
       2.5739335e-05 2.9918872e-05 -3.1425967e-05 -3.7229867e-05
0001d0 5d 09 2a b8 2c e2 97 37 ac 1f 03 38 22 a4 1f 38
       -4.053988e-05 1.8105922e-05 3.126233e-05 3.8061415e-05
0001e0 a9 53 ef b7 ef 32 d8 b6 07 f7 e4 b6 33 55 89 b7
       -2.8529977e-05 -6.443231e-06 -6.8236873e-06 -1.6371347e-05
0001f0 82 3e 9d b7 b8 31 9a b7 a0 36 99 37 84 ff f7 b7
       -1.8744966e-05 -1.8381383e-05 1.8264458e-05 -2.9563678e-05

network_body.observation_encoder.rsa.fc_v.bias f4 [128]
000000 5a f6 08 3c 3d 0c fb 3b bf f3 44 bc cd 52 44 ba
       0.008359516 0.007661371 -0.012021004 -0.0007489145
000010 6a 53 4e bb 54 e1 1e 3c 2f 6d 89 bb b3 e5 9c 3b
       -0.0031482824 0.009697277 -0.004193924 0.0047881245
000020 36 07 87 bb 13 ff 12 bb 42 b7 62 ba fa ee 04 bc
       -0.0041207327 -0.0022429868 -0.00086485234 -0.008113617
000030 e6 b1 74 bb 2d dc 19 3c 27 6e aa 3b 7c 96 33 bc
       -0.003733748 0.009390873 0.0052011195 -0.010961171
000040 7b a1 31 bc 51 01 ef ba e6 9d 33 3c a0 1f 37 bc
       -0.010841723 -0.0018234645 0.010962939 -0.011176974
000050 98 b5 e6 3a 8b f6 8e 39 8d e7 31 3c 44 85 34 bc
       0.0017601727 0.0002726804 0.010858429 -0.011018101
000060 66 ae 89 bc 04 2c 8b 3b 56 1a 50 bc 5a ff 23 3b
       -0.016806792 0.0042471904 -0.0127015915 0.0025024028
000070 ce 22 33 3c 2a 70 c4 3b 2b c1 68 bc 4b 84 15 3c
       0.010933591 0.0059948163 -0.014206211 0.009125779
000080 a6 5a b2 3b bc 47 54 bc ce fa 7e b9 39 c7 ff 3a
       0.005442935 -0.012956556 -0.0002431676 0.0019514329
000090 3e a2 b4 bb bb 14 0a bb 61 05 da 3b a6 cf 2b 3c
       -0.005512505 -0.0021069485 0.0066534732 0.010486519
0000a0 20 93 eb 3b da d7 ab bc e5 c6 90 3c 3a 84 79 bc
       0.0071891695 -0.02097695 0.017672965 -0.015229279
0000b0 a8 8d 52 3c 7f cd b4 3b af da cc 3b d4 d4 bc bb
       0.012851156 0.005517661 0.006251655 -0.005762676
0000c0 ad 75 5d 3c 39 f8 96 3b 56 a5 28 bc 14 10 55 bc
       0.013516826 0.004607227 -0.010293325 -0.013004322
0000d0 a3 71 83 3c 70 65 97 3b 7b 4c a9 3a 0e 84 1c 39
       0.016045397 0.0046202466 0.001291647 0.00014926514
0000e0 2d a2 ae bb 4a 60 43 3c 22 21 ce b8 55 f4 c2 3c
       -0.0053293915 0.011924813 -9.829017e-05 0.023798147
0000f0 12 d0 42 bb 86 eb 53 bc 46 c1 f1 3b d9 7e 78 bb
       -0.002972607 -0.012934571 0.0073777763 -0.0037917404
000100 09 56 9c bc 4c 44 13 3c 07 21 35 3b 69 01 89 3a
       -0.019083994 0.008988451 0.0027638094 0.0010452691
000110 cd 49 35 3c af a4 a6 3b 96 db e0 bb e3 ea 28 ba
       0.011064959 0.00508555 -0.006862114 -0.0006443692
000120 a4 56 8b 39 c4 ae 9a 3b ea 92 36 bc cd 60 aa 3a
       0.00026576698 0.0047205407 -0.0111434255 0.001299882
000130 a6 11 4b 3c 75 b3 42 3a ec 44 f0 3b 88 dc 1b bc
       0.012394344 0.0007427254 0.007332435 -0.009513028
000140 9e 0c f7 3b ea c8 1e bc 78 23 bc bb 05 8c 09 bc
       0.007539346 -0.009691456 -0.005741533 -0.0083952
000150 63 76 e0 3b 9f 6f 85 bb 9e b3 12 bc 24 38 77 3b
       0.0068500503 -0.004072144 -0.008953957 0.0037722671
000160 cf bd ff bb 6e b5 2c bc 4d 38 27 3c 50 f0 6a bc
       -0.0078046094 -0.010541303 0.010206294 -0.0143395215
000170 be 9f ef 3a ba 50 5d 3b 8e 9a 82 3c 0c 36 84 3c
       0.001828186 0.003377004 0.015942838 0.016139053
000180 76 54 12 bc a2 9a 81 bb 6b 07 ad 39 cd 28 f5 b9
       -0.00893127 -0.0039552012 0.00033002658 -0.0004676044
000190 bd 0f 41 bb 32 80 cb bb a7 f3 09 bc 72 f8 29 3c
       -0.0029458844 -0.0062103504 -0.008419908 0.010374175
0001a0 83 32 a0 3a fa 6b 99 bb 1b 68 9a b9 13 17 31 3c
       0.0012222085 -0.0046820613 -0.00029450734 0.010808724
0001b0 69 ce 3a b9 61 85 18 bc c4 85 f5 b9 d6 1a d0 bb
       -0.00017815236 -0.009309144 -0.00046829705 -0.0063508553
0001c0 58 be 40 3c 1a cb 10 3c 2a 26 c2 3b 13 81 d6 bb
       0.0117641315 0.008837486 0.0059249597 -0.0065461486
0001d0 cf 74 6e bb cd b5 04 3c 0c ac 4f bb 34 20 d3 3b
       -0.0036385541 0.008099985 -0.0031688241 0.006443048
0001e0 d5 4f ca 3b d1 d1 20 bc 9c 5e 05 3b 0b 0c 5d 3b
       0.0061740675 -0.009815649 0.002035058 0.0033729102
0001f0 a8 2e 48 bc b5 b7 87 3a 56 e2 dd bb 38 c3 e1 3b
       -0.012218155 0.0010354432 -0.006771366 0.006889727

network_body.observation_encoder.rsa.fc_out.bias f4 [128]
000000 69 26 88 bc fb ec 43 bb c4 82 ca 3a 9b 30 b7 bb
       -0.016619878 -0.002989589 0.0015450348 -0.005590511
000010 7c c0 25 bc ae 8c fe 3b 9c 19 e0 3b 4d 1b 95 bb
       -0.010116693 0.007768235 0.0068389904 -0.0045503736
000020 eb 87 43 3b 7a 11 a8 bc e9 d1 6a 3c 09 8d d3 3b
       0.0029835652 -0.020516146 0.014332273 0.0064560217
000030 15 fc 54 3c ca 83 97 bb 51 b6 be 3b e5 6f 87 3a
       0.012999554 -0.004623865 0.0058200737 0.001033303
000040 00 d3 23 3c 7f bc 20 bc 8d 3c 2f bb 87 17 3d 3a
       0.009999037 -0.009810566 -0.0026738972 0.00072132837
000050 08 42 3d 3b 5e fa 39 3b c1 01 58 39 4f aa 83 3a
       0.002887847 0.002837799 0.00020600019 0.0010045263
000060 9d a5 db bb 60 e6 a4 3a 4d 07 7a 3b 70 b3 c0 bb
       -0.0067030923 0.0012580864 0.0038151324 -0.0058807656
000070 75 3b a5 bc d3 a1 88 bc e0 0a 31 3b 5e 6c 55 3b
       -0.020169953 -0.016678726 0.0027014539 0.0032565813
000080 55 60 18 3b 29 e1 17 bc be 58 3b bb a6 34 9a 3c
       0.0023250778 -0.009269991 -0.002858683 0.018823933
000090 56 e9 b9 bc 80 ac a0 bb 8c 00 d0 3b 92 30 cc bb
       -0.022694271 -0.004903376 0.0063477214 -0.006231376
0000a0 70 4e b3 bb 1f c1 ca 3a b5 af 95 bb 73 e3 0a bc
       -0.005471997 0.0015468932 -0.004568065 -0.00847708
0000b0 8c df 57 3c c4 32 7c 3b cd 07 1f bc 1c 88 91 bc
       0.013175856 0.0038482407 -0.00970645 -0.017765097
0000c0 ff e7 ef 3b 5c 83 d0 bb 9f 36 38 3c ce 61 d8 bb
       0.0073213573 -0.0063633155 0.011243491 -0.006603456
0000d0 df 81 0c 3c 32 6f 0e 3c 93 d5 9a bc 29 1b 08 3b
       0.008575886 0.008693503 -0.018900668 0.0020768142
0000e0 4c 32 61 3c c9 bb 01 bc 31 2a 18 3b 65 e3 41 3c
       0.013744902 -0.007918307 0.0023218507 0.011834
0000f0 64 46 15 3c 61 b4 ec bb 96 15 4d 3b 43 02 7b bc
       0.009111021 -0.0072236513 0.0031293384 -0.015320363
000100 9f fa 24 bc 3a c5 d3 3a 8d 0d 48 3c 4d 67 28 bb
       -0.010069518 0.00161568 0.012210262 -0.0025696338
000110 13 b0 e7 bb 37 e0 81 bb 97 a8 a4 3c ef 05 15 3b
       -0.00707055 -0.003963496 0.020099921 0.0022739132
000120 6b ba 94 b9 e1 26 ff bb fe 8e b4 3c 39 b8 59 3c
       -0.00028367652 -0.007786617 0.02204084 0.013288551
000130 a0 65 c9 3b 59 57 eb 3a 22 0e f4 bb 40 66 d5 3b
       0.006146148 0.0017955109 -0.007447974 0.0065124333
000140 c3 af 54 bc cf 72 e9 ba 0f df 48 bc af 2c 43 39
       -0.012981358 -0.0017810705 -0.012260213 0.00018613295
000150 5b fd ad bc 58 19 8b bb e0 6a 6c 3c a4 1e 16 bb
       -0.021238973 -0.0042449646 0.014429778 -0.0022906447
000160 4b 01 c5 3b 73 a0 62 3a 37 33 2c 3c 91 29 04 3a
       0.006012117 0.00086451246 0.010510257 0.0005041594
000170 fc 08 1d 3c 3c af 32 bc 16 4b bb 3a 7b b9 35 bb
       0.009584662 -0.010906037 0.0014289345 -0.0027728963
000180 c6 93 e0 bb c8 d0 78 b9 88 18 14 3b 2e cb 4c bb
       -0.0068535535 -0.000237289 0.002259763 -0.0031249034
000190 4a 10 00 bb f1 2a 49 3b a8 20 12 3a d4 71 64 3b
       -0.001954096 0.003069576 0.0005574324 0.0034857886
0001a0 4f f1 99 bc dc 13 55 bc 62 d1 ad 3b 12 86 05 3c
       -0.018791823 -0.013005223 0.0053045014 0.008149641
0001b0 60 67 7b bc e0 c3 5a 3a 0d af e2 bb 4f e9 d2 bb
       -0.015344471 0.00083452277 -0.0069178403 -0.006436504
0001c0 d6 09 f8 3a d5 08 05 3c 96 aa 0e bb ec d3 07 3c
       0.001892383 0.0081197815 -0.0021769158 0.008290272
0001d0 eb 67 71 3b dd b1 38 3c f0 b8 6f 3c 2a bd 4d 3c
       0.0036835622 0.011272875 0.014631495 0.012557307
0001e0 2d db 23 3a fa 0d 94 3c 2e a0 37 3b ae a4 56 bc
       0.0006250616 0.01807307 0.0028019059 -0.013100786
0001f0 7f 39 80 bb 63 f6 bc 3b df 74 a2 ba 44 ac 09 3c
       -0.003913104 0.0057666763 -0.001239445 0.008402888

network_body.observation_encoder.x_self_encoder.seq_layers.0.weight f4 [128, 4]
000000 c6 55 d7 3d 11 30 99 bd 4c 69 dc bc a7 c3 4b 3c
       0.10514407 -0.07479871 -0.026905678 0.012436784
000010 d0 0e e0 3d e6 90 0c be 17 8c 66 3d 40 e5 34 bc
       0.10940325 -0.1372715 0.056285944 -0.011040986
000020 98 e7 83 bd f1 e2 ce 3c 62 db 37 3d 17 43 71 bc
       -0.064406574 0.025254698 0.044886954 -0.014725468
000030 15 68 96 3d 8a 48 1b be b3 e8 20 bc 87 e3 1b 3c
       0.07344071 -0.1516439 -0.009821105 0.009514696
000040 0a 0c 7f bd 05 46 e2 3d 8f 7f b6 3c cc ac 41 3d
       -0.06226734 0.110485114 0.022277622 0.047283933
000050 57 e2 28 3d 6c ce 92 bd 55 87 09 bd ac dd 9a bb
       0.04123148 -0.07168278 -0.03357633 -0.0047261324
000060 b8 77 ed 3d a0 bf db bd ee ff 34 bd 3a 22 02 bd
       0.115951 -0.10729909 -0.044189386 -0.031770922
000070 b1 cd 66 bd d6 64 ec 3d 85 9d 17 3d 5f 69 9d 3c
       -0.056348506 0.115426704 0.037015457 0.019215284
000080 5b aa d3 bd e5 72 f8 3d 2d 50 9f 3d 5b 6d 64 bd
       -0.10335227 0.121312894 0.07778964 -0.055768352
000090 a2 9b 9a bd 77 a5 ff 3d 3e 43 b2 3d e1 db 13 bc
       -0.07549216 0.12482732 0.08704232 -0.009024591
0000a0 25 dd 99 bd 22 87 fb 3d 3f f1 38 3d 56 23 96 bc
       -0.07512883 0.12281634 0.045151945 -0.018327396
0000b0 9f fc 9f bd 69 aa 55 3d d0 71 22 3d 17 12 bc 3b
       -0.078118555 0.05216447 0.03965932 0.005739461
0000c0 87 18 05 3e e2 1f d1 bd 51 b9 3e bb 39 58 4f bb
       0.12997638 -0.10211159 -0.0029102156 -0.0031638278
0000d0 ba 6c b8 bd 15 dd 0a 3e dd b4 ab 3d 37 ad e8 bc
       -0.09005113 0.13560899 0.08384106 -0.028402908
0000e0 0d df 24 3d bf 3f d8 bd af 7a 33 bd 8a ab 45 3d
       0.04025178 -0.105590336 -0.043818172 0.048259296
0000f0 a8 38 7d 3d ac 96 32 be 06 92 61 bd 56 d5 2b bd
       0.06182161 -0.1744029 -0.0550709 -0.0419515
000100 db 3c 02 be d6 35 df 3d 66 d8 37 3d 33 01 cd bb
       -0.12718527 0.1089894 0.044884108 -0.0062562465
000110 1a 62 0c 3e 68 e7 03 be 54 d7 b6 bc f4 90 3b bd
       0.13709298 -0.12881243 -0.022319473 -0.045792535
000120 48 d3 b1 3d da a7 08 be f3 b0 ad bc 8d 22 50 3d
       0.08682877 -0.1334528 -0.02120254 0.0508142
000130 62 09 55 bd 4a a0 26 3e 94 bd 2b 3d fa 78 b4 bd
       -0.0520109 0.16272083 0.041928843 -0.08812137
000140 3d e0 35 3d d2 00 d7 bd ee e7 7d bd 78 3e c2 3c
       0.044403303 -0.10498203 -0.061988764 0.023711428
000150 3f 5a 18 bd 4b 57 8a 3d 43 77 a2 3d 5e 1d 85 bd
       -0.03719544 0.06754931 0.079329036 -0.06499742
000160 89 58 cc bd 4b fe d3 3d 61 fa cb 3c 8c 60 30 bd
       -0.09977824 0.10351237 0.024899663 -0.043060824
000170 2a 7d e3 bc 88 4c 91 3d 09 2f bf 3d 42 10 32 bd
       -0.027769644 0.07094675 0.09335143 -0.043472536
000180 97 17 55 3c 2a 45 ff bd 84 c0 19 bd 92 a5 6e 3c
       0.013006113 -0.12464364 -0.037537113 0.014565842
000190 2e 87 7f bd 17 08 1f 3e 46 9c 90 3d 7d 94 b2 bd
       -0.062384777 0.1553043 0.07061057 -0.08719728
0001a0 e8 24 9e 3d 53 9d fe bd 11 53 2a bc 29 f4 3d 3d
       0.07721883 -0.12432351 -0.010395781 0.046375427
0001b0 68 4a 9f b8 c4 0f bc 3d 46 90 5a 3d a6 43 8e bd
       -7.59557e-05 0.091826946 0.053360246 -0.06946497
0001c0 2c 5c 95 3d 71 31 0d be a0 d7 11 bd f3 23 11 3a
       0.07292971 -0.13788392 -0.035606027 0.0005536668
0001d0 7d 62 aa bd 2b da ce 3d 17 60 18 3d b4 ac a6 39
       -0.083195664 0.10100206 0.037201013 0.0003179066
0001e0 a4 0b 02 3e 59 cb 94 bd 12 e9 d7 3c b8 2d bc bc
       0.12699753 -0.07265348 0.026356254 -0.02297102
0001f0 04 68 0c be 74 ec ac 3d fa a8 bb 3d 16 f2 17 bd
       -0.13711554 0.08443537 0.09163089 -0.037096106
000200 92 e6 ed bd e2 41 81 3d 30 9f 94 3c 46 eb 10 bd
       -0.116162434 0.06311394 0.018142313 -0.035380624
000210 5f 62 7c 3d 5b 51 22 be 36 8b 05 bc c9 5c fb bc
       0.06161725 -0.15851347 -0.008150866 -0.030683892
000220 85 94 e4 bd b9 53 b0 3d 1f 20 1a 3d ae a5 b8 bc
       -0.1116114 0.08609719 0.03762829 -0.02253994
000230 4e f8 b5 3d 7f ec ef bd 34 da 1a bb e9 2b 73 bc
       0.08885251 -0.1171503 -0.0023628594 -0.014842012
000240 40 28 04 be bb 03 c8 3d 22 e0 bc 3d 3b b3 b9 bd
       -0.12905979 0.097663365 0.092224374 -0.090673886
000250 f0 aa db 3c ae 39 b9 bd fd 21 66 bd 6b c1 81 3c
       0.026814908 -0.09044205 -0.056184758 0.0158393
000260 63 4b 91 bb 07 73 07 3e 29 6d 0f 3d f0 6c 8d bc
       -0.0044340356 0.13227473 0.035016213 -0.01726386
000270 db d2 21 3d 58 08 cc bd f6 88 53 bd da d5 da 3b
       0.039507728 -0.09962529 -0.051644288 0.006678325
000280 62 1a 3e 3d f1 57 d7 bd 33 d0 e8 3b ec b8 13 bd
       0.04641188 -0.1051482 0.0071048974 -0.036065027
000290 b7 d2 18 3d 0d cf 8b bd 60 cf 93 bd b0 dc 10 3d
       0.03731033 -0.06826601 -0.07217288 0.035366714
0002a0 86 82 83 3d 6b fe 0a be 61 7d 07 bd 5f a8 d0 3c
       0.0642138 -0.13573615 -0.033078555 0.02547091
0002b0 5e eb 06 be 16 99 9d 3d 88 b2 22 3d d6 fd 91 3b
       -0.13175723 0.076952145 0.039721042 0.0044553084
0002c0 a0 df 8d 3d e9 13 b7 bd 2c 23 86 3c 09 b2 b0 3b
       0.06927419 -0.089393444 0.016374193 0.005392317
0002d0 ef 68 6a 3d 9a ff e5 bd a8 d6 02 bd a1 12 df 3a
       0.05722898 -0.11230393 -0.031942993 0.0017019102
0002e0 41 7f 5e 3d 68 d3 21 be 16 3e 93 bd 3c 3b d5 bb
       0.054320578 -0.15803301 -0.07189576 -0.0065073054
0002f0 4c 7a 9c 3a 74 f4 01 3e ce 68 b7 3c 72 f2 0e 3d
       0.0011938303 0.12690908 0.022388842 0.034899183
000300 87 f8 1f 3d bd 36 0e be 31 63 9c bc 82 6e 4f bd
       0.039055374 -0.13888068 -0.019090267 -0.050642498
000310 06 23 bd 3d 76 32 fc bd fc a0 5a 3c 1f d1 b4 3c
       0.09235196 -0.12314312 0.013344046 0.022072373
000320 80 21 95 3d f6 50 99 bd f8 87 e2 bb 3e 13 21 3d
       0.0728178 -0.07486145 -0.0069131814 0.03932499
000330 b5 1b 19 3e c7 b0 02 be 73 63 1d bb 7c 0a 24 bd
       0.14951976 -0.12762748 -0.0024015575 -0.04004906
000340 08 f9 f0 bd 96 ca 92 3d 0a d0 e0 3c c3 f7 b3 bc
       -0.11766249 0.071675465 0.02744295 -0.021968728
000350 a7 bb bf bd 45 da 14 3e ce 25 0a 3d 31 e0 71 bd
       -0.09361964 0.14536388 0.03372746 -0.059051696
000360 d9 a6 93 bd e9 19 1c 3e d0 17 5a 3d 58 f0 d5 bd
       -0.07209558 0.15244259 0.053245366 -0.104462326
000370 ff ac 1f 3e 82 1d b5 bd 93 19 68 bd ba 60 75 bc
       0.15593337 -0.08843519 -0.056665014 -0.014976675
000380 1f 56 33 bd b3 80 29 3e 39 68 d0 3c 52 cb cc bc
       -0.043783303 0.16553001 0.025440322 -0.024999294
000390 24 7d b6 bd e2 0f dc 3d af b9 cd 3c 62 95 8a bc
       -0.089105874 0.10745217 0.025112955 -0.016916934
0003a0 2b 69 fc 3d c3 9f e3 bd 9b a2 cc 3b de cb 9f 3c
       0.12324747 -0.111144565 0.00624497 0.019506391
0003b0 54 2c 5e bd 14 fb 09 3e f5 ed d6 3d 54 d3 a3 bd
       -0.054241493 0.13474685 0.104946055 -0.07999292
0003c0 fb 4a 7d bd de ff 06 3e 6f bb 48 3d 28 91 72 bd
       -0.061839085 0.13183543 0.049006876 -0.059220463
0003d0 fa b3 76 3d 72 62 d6 bd a6 48 46 3c f8 0e 1e bd
       0.060230233 -0.10467996 0.012102282 -0.038588494
0003e0 20 ae c0 3d f5 01 32 be 78 c7 07 bc fb 75 a5 bd
       0.09408212 -0.17383559 -0.008287303 -0.080791436
0003f0 72 d1 87 3d fb f1 35 bd 7c be 01 3d 3e 09 d1 bc
       0.066317454 -0.044420224 0.0316758 -0.025517102

network_body.observation_encoder.x_self_encoder.seq_layers.0.bias f4 [128]
000000 d1 c2 1e bd 2e 50 29 3b 50 95 1a 3d 08 02 50 bb
       -0.03876001 0.0025835144 0.03774005 -0.0031739492
000010 2d 62 17 3d a6 bb d4 bc d0 07 34 ba d5 95 12 3d
       0.036958862 -0.025968384 -0.0006867619 0.035787422
000020 dd 1e 86 3d bb 43 38 3d 54 04 2b 3d a8 c8 fb 3c
       0.065488555 0.044986468 0.041752174 0.030735329
000030 a0 7d ce 3a 27 9e 49 3d f9 68 61 bd d8 05 20 3c
       0.0015753992 0.04922309 -0.05503175 0.009767018
000040 ee db 40 3d 90 84 bd 3b 39 d8 01 bd d0 af 90 3d
       0.04708474 0.005783625 -0.031700347 0.070647836
000050 6f 7e 51 bd a2 4e a3 3d 64 36 15 3d 35 bb 8a 3d
       -0.051145967 0.079739824 0.036428824 0.06773988
000060 8d 15 47 bd 50 6b 8c 3d a4 37 fb bc e4 06 99 3d
       -0.048604537 0.06856406 -0.03066618 0.074720174
000070 04 7f 86 bc 83 d9 01 3d 2f b6 9d ba 55 a3 8c 3d
       -0.016417988 0.031701576 -0.0012032444 0.068670906
000080 3b 12 37 3d f7 77 45 bb b3 fc 38 3d 28 cc 99 bc
       0.04469512 -0.003013132 0.045162868 -0.018774107
000090 4f 15 8c 3d 3d a1 31 bd dc df 58 3d b2 0d 33 bd
       0.06840002 -0.04336666 0.052947864 -0.043714233
0000a0 34 31 e3 bb 99 50 60 bd f3 01 1a bd 3e 0c 49 3d
       -0.0069333557 -0.054764364 -0.037599515 0.04908394
0000b0 8c 50 b8 bc 65 b8 1e bd 75 8e 89 bb 4c 61 2b 3d
       -0.022499345 -0.03875007 -0.0041978904 0.041840836
0000c0 c4 e0 26 bb c9 80 49 bc ce 77 3d bd bf e9 b9 3b
       -0.002546356 -0.012298771 -0.046256833 0.0056736167
0000d0 1c 35 42 3d 55 54 42 3d cc ff 87 3d cb 60 cc 3b
       0.04741393 0.047443707 0.06640586 0.0062371246
0000e0 1e 1f 01 3d 7d cd 27 3d 6f 23 a6 bb 93 a8 63 3d
       0.031523816 0.040967453 -0.005070142 0.055580687
0000f0 6d 95 8b 3d 12 05 d9 3b 00 fa 62 3c 0d 2e c2 bc
       0.0681561 0.006622919 0.01385355 -0.0237036
000100 2f 19 39 3d fe 81 11 3d d2 45 95 bb 0e fe 00 bc
       0.045190033 0.03552436 -0.0045554424 -0.007873071
000110 e5 4c a2 bc 18 aa 74 3d fe 44 7c bc 56 59 2e 3d
       -0.019812057 0.059732527 -0.015397308 0.042565666
000120 33 32 31 3d 7b ab ca bc 35 7a e3 bc ec 37 bf bc
       0.043260764 -0.024739971 -0.027768234 -0.023342095
000130 97 61 6f 3d 9c e8 53 3d ce b9 d5 bb 10 29 8a 3a
       0.05844268 0.051735505 -0.006522394 0.0010540802
000140 ba f5 38 3d d3 65 1b bd 36 de 2c bc af 39 9d 3d
       0.045156218 -0.037938904 -0.010551026 0.07677018
000150 ea cc 85 3d 12 f7 c2 ba 1d e4 10 bd a8 99 24 bc
       0.06533225 -0.0014874658 -0.035373796 -0.0100464
000160 07 50 68 bc 48 07 e5 3c 52 aa 11 bd ee 6e 50 bc
       -0.014179236 0.027957574 -0.03556282 -0.01272176
000170 d0 88 9b 3d 22 b7 c2 ba 39 43 df 3c ac 06 23 3d
       0.07594454 -0.0014855603 0.027253734 0.039801285
000180 39 75 8f 3d e5 7e 13 3c c6 5b 5d 3d 15 01 f8 bc
       0.0700478 0.009002422 0.0540426 -0.030273953
000190 5e e0 87 3d 45 b4 12 3d 49 a3 13 3d 8c f6 52 bb
       0.066345915 0.03581645 0.036044393 -0.003219041
0001a0 24 63 8a 3d d7 de 9c bb f2 5a b7 3a 01 c2 88 3d
       0.06757191 -0.0047873068 0.0013988896 0.06677628
0001b0 e9 19 07 bb 41 bd 89 bc c4 37 b5 bc 06 ad 0c 3d
       -0.002061481 -0.016813876 -0.022121318 0.034344696
0001c0 fe 8f c8 ba 26 67 87 bb ff c7 86 3d e6 35 fd bc
       -0.0015301702 -0.0041321693 0.06581115 -0.03090949
0001d0 70 f3 a3 bc 14 63 82 3d aa 38 32 bc 1e cc 16 3d
       -0.020013541 0.06366554 -0.010877768 0.036815755
0001e0 9c 4e eb bb 4b 69 57 3d ea 20 73 bc 0b e8 82 3d
       -0.007181002 0.05259065 -0.01483939 0.06391915
0001f0 aa 8e ff bc 36 8b cd 3c 14 57 3a 3d 35 34 ea 3c
       -0.031195957 0.025090795 0.0454932 0.028589347

network_body._body_endoder.seq_layers.0.weight f4 [64, 132]
000000 7e 21 7d bd d0 0a d6 3d a8 54 8a bc 8a 5f f5 bd
       -0.06179952 0.10451281 -0.01688607 -0.11981113
000010 20 70 02 be 4c de a0 bc 65 84 b6 bc 54 51 cc bc
       -0.12738085 -0.01963725 -0.022279928 -0.024941124
000020 0d de 16 bd 9f ea 2d 3e 8a f9 b4 3c 8d 6f 29 3d
       -0.036832858 0.16984032 0.022091646 0.04136615
000030 b8 4f 8d 3d 39 68 0f 3d 3c 64 88 3d 85 4c 05 bc
       0.06899971 0.035011504 0.06659743 -0.008135919
000040 34 7c fc 3b 54 0c 70 bd 03 d0 75 3d 0a 5f 69 3d
       0.007705236 -0.058605507 0.06001283 0.056975402
000050 ff 26 0f 3e 17 89 e7 3c b4 f2 ed bb 47 58 1e 3c
       0.1397972 0.028263612 -0.0072615985 0.009664602
000060 8d 88 be bc 57 59 f7 bc 8e 8e c1 bd a1 4a dc bc
       -0.023258472 -0.030193968 -0.09451018 -0.026891055
000070 e2 65 7b 3c 16 3f ed bb 9b 36 59 bc 8d 06 8a 3d
       0.015344115 -0.0072401864 -0.013257648 0.06739531
000080 c5 3b 2c be d5 35 7d bd c8 30 2f 3e 1b 87 2f bd
       -0.16819675 -0.061818916 0.17108452 -0.042853456
000090 d5 fd 8b 3d 3b 5f ac bc d8 4a 45 3d e0 fd 83 bd
       0.06835524 -0.021041503 0.04816708 -0.06444907
0000a0 13 01 5a 3c d8 c9 a2 bd f7 41 1c 3a 61 62 3b 3e
       0.01330592 -0.07948655 0.0005960757 0.18299247
0000b0 a1 0d ea 3b 0c a2 41 3e a4 24 3b 3e d9 57 22 be
       0.007142738 0.18909472 0.18275696 -0.15853824
0000c0 50 e1 b2 3d ec f2 3a bd c8 dc 91 bd 72 67 95 bd
       0.08734381 -0.045641825 -0.07122189 -0.07295121
0000d0 05 a7 42 3e c0 df 62 3d 17 51 9c bc 26 0f 54 bd
       0.19009025 0.055389166 -0.019081635 -0.05177226
0000e0 5b 30 32 bd 40 9f 44 bd 39 16 7c 3c bc 64 68 bd
       -0.043503147 -0.048003435 0.015386158 -0.056736693
0000f0 a4 94 7e bd 0c 65 16 bd 05 2f a5 bd 9e 04 25 3b
       -0.062153473 -0.03671746 -0.08065609 0.0025179754
000100 f0 7b 2a 3e aa a5 91 bc a4 73 a4 bd 53 3e d9 bc
       0.16648841 -0.01777919 -0.08029869 -0.026518976
000110 c0 21 bc 3c 58 24 f2 39 19 30 4a 3c ff 57 88 3c
       0.022965312 0.00046184915 0.012340569 0.016643522
000120 a7 73 18 3d ee 23 73 3d af 7b 5d bd 82 ae 0c bd
       0.03721967 0.059360437 -0.054073032 -0.03434611
000130 57 14 e0 bc 7c 2c 9d 3d a0 e9 f9 3d 20 86 36 be
       -0.027353449 0.076745 0.122027636 -0.17824602
000140 8d 02 c0 3d 39 41 1f bd 71 d5 38 bd 5e 72 cf bd
       0.093754865 -0.03888056 -0.04512543 -0.10129236
000150 61 84 32 bd bd 84 45 3e d1 53 f1 bd be 0f 59 3d
       -0.043583278 0.19288917 -0.11783565 0.05299353
000160 90 42 11 be 22 ad 4e 3d 12 76 84 bc 21 18 9e bd
       -0.14185548 0.05045808 -0.016169582 -0.07719446
000170 99 2f 3b be d3 e8 d3 3c eb 5a d2 3d b5 7a d1 3c
       -0.18279876 0.025867855 0.102712475 0.025571207
000180 ab 09 19 bd 29 bc 80 3c a6 31 82 bc 46 2c 48 3c
       -0.037362736 0.015714722 -0.015892815 0.012217587
000190 b1 aa ea 3d bf 7a 11 be ae c7 38 be 6a 06 27 3e
       0.11458338 -0.1420698 -0.18044922 0.1631104
0001a0 73 35 6f bb f0 8d d0 3d 0e 17 e0 bb 09 1e 33 be
       -0.0036500364 0.101833224 -0.006838686 -0.17491926
0001b0 d0 83 07 be ef 26 ee 3d 59 0d ee bd d0 9f 4e 3e
       -0.13233876 0.1162852 -0.116236396 0.20178151
0001c0 0d 66 bc bc b1 fa 22 be 8d 5e 99 bb 8d 7b 87 bd
       -0.02299788 -0.15915944 -0.004680461 -0.06615362
0001d0 46 e5 d8 bd 42 3b 24 bd 3f a0 0b 3d b0 21 be bc
       -0.105906054 -0.040095575 0.03408837 -0.023209423
0001e0 a2 58 6f bd 20 fc 09 3d ba d8 c2 bd b9 22 2d 3d
       -0.058434136 0.03368771 -0.095139936 0.042269442
0001f0 f7 1e e1 3c e4 6b fb 3c c3 7f 8f 3d 02 67 20 3e
       0.027480586 0.030691095 0.070067905 0.15664294
000200 2f 97 9e bd 9d 10 03 3d ca 49 c2 3d 94 28 21 3e
       -0.0774368 0.031998266 0.094867304 0.15738136
000210 6c 7d e7 bd ae 10 0f 3e 54 a8 64 3e f9 13 2b 3e
       -0.11303219 0.13971207 0.22329837 0.16706838
000220 c4 b7 0c bd 2d ad 68 3d cb ea b5 bc 0d 42 0c 3e
       -0.03435494 0.05680578 -0.022206685 0.13697071
000230 81 c0 16 bd 2c d1 91 bd 10 2e 62 3d f4 25 41 bd
       -0.03680468 -0.071199745 0.05521971 -0.047155336
000240 da e0 7d 3d 9d c5 2c 3d 3e 9f 57 3e 26 bd e7 3d
       0.061982013 0.042180646 0.2105684 0.11315374
000250 79 eb 3c bd 6e 20 6a bb 9b a6 94 bc 27 de 2f bd
       -0.046123 -0.0035724896 -0.01814585 -0.04293647
000260 9c 9c 2d 3c 5e 60 3f be 76 8e 31 be e9 da 97 3d
       0.010596421 -0.18689105 -0.17339501 0.07414801
000270 7c 08 07 bd 22 8f 88 3e 2a 16 1f 3b 31 49 bd bd
       -0.032967076 0.26671702 0.0024274685 -0.09242476
000280 2f 6e a6 bd b6 a5 4b bd 03 52 e5 bd aa 99 2e be
       -0.081264846 -0.04971858 -0.11197283 -0.17050806
000290 32 77 22 be 70 e3 ce bc 70 15 6b 3d cb 41 5c 3d
       -0.15865782 -0.025254935 0.05739349 0.053773683
0002a0 20 17 c2 3d f0 fc b9 3c 72 06 2d 3d b2 05 44 bd
       0.09477067 0.022703618 0.042242475 -0.047856994
0002b0 4b c3 0d bd 91 fc fd 3d 9a 95 0a 3e 8c b3 46 3e
       -0.034610074 0.12401689 0.13533631 0.19404429
0002c0 70 41 2b 3e 84 de 8a 3c 06 45 08 3e 43 86 5b bd
       0.16724181 0.016951807 0.1330758 -0.05359484
0002d0 bb 75 93 3c 62 64 dd bc bd a8 79 3d a9 42 a6 bd
       0.018000474 -0.027025405 0.060951937 -0.08118183
0002e0 99 55 4f bd a5 dc 80 3d d5 8c ee 3c 52 98 6d bb
       -0.05061874 0.062920846 0.029119888 -0.003625412
0002f0 44 b6 0d 3e 50 91 22 3d 87 5a 83 bc 8e 4c 7c bc
       0.1383906 0.039689362 -0.016034378 -0.015399111
000300 8c d9 d3 3d 16 17 53 be 35 f3 c9 bc 76 5a 15 bd
       0.10344228 -0.20614275 -0.024652103 -0.036463223
000310 55 6a 0a 3d de 9a fc bc 84 bc e8 3c 5a 6d 0a bc
       0.033792812 -0.030835565 0.028410204 -0.008448923
000320 03 28 db bc 11 f2 cd 3c fc 8f 02 bd 2e 18 f1 3a
       -0.026752478 0.02513984 -0.031875595 0.0018394047
000330 9e 3d bd 3d 60 1c 9e bc 5c 9a 5f bd 35 ab a4 bd
       0.09240268 -0.01930064 -0.054590568 -0.08040468
000340 93 b2 0a 3e 3b c8 e8 bc d1 ef 91 3d 05 d9 bb bd
       0.13544683 -0.02841579 0.071258195 -0.091722526
000350 38 4e 62 3b bf a6 4f 3d 26 66 82 3d ef d8 50 3e
       0.0034531485 0.05069613 0.063671395 0.20395254
000360 3c 1d 92 bd 4e 14 18 3e 6e aa 43 3d fc 4c 20 bd
       -0.07134482 0.14851496 0.047769956 -0.039135918
000370 d5 b8 91 ba 9a e4 23 3e ac 53 de 3d 30 29 bc bd
       -0.0011117706 0.16005173 0.10855803 -0.091875434
000380 d2 36 ca 3d 24 46 cd 3d 62 05 82 3d 6d ad 3f 3d
       0.098737374 0.10023144 0.06348683 0.04679625
000390 79 f3 29 3d d1 a1 bf bc bd 94 38 3e 24 3e 65 3d
       0.04149196 -0.02339259 0.18025489 0.055967465
0003a0 ef b4 48 bd e9 dc 15 3e 9a 11 30 3d 89 ab 03 3e
       -0.049000677 0.14635052 0.042985536 0.12858404
0003b0 90 fc 05 3e 5b ab 6a 3d 13 e8 16 bd 5c 5d 84 bd
       0.13084626 0.057292324 -0.036842417 -0.064631194
0003c0 0f 4f ba bc 6a d3 19 bd 8c c1 d9 bd 5d 69 55 bc
       -0.022742776 -0.037555136 -0.10632619 -0.013025609
0003d0 f9 d2 56 3e a5 83 ae 3c dd 47 5c be c3 bd bc bd
       0.20978917 0.021303007 -0.21511789 -0.09215882
0003e0 d1 b1 4e 3d 3c bd 95 3d 5c de 54 3d a5 d0 09 3e
       0.050462548 0.07311484 0.05196987 0.13458498
0003f0 66 48 38 be d0 04 50 bd 0b 9e f0 3d 2d 99 8c bd
       -0.17996368 -0.05078584 0.11748894 -0.068651535

network_body._body_endoder.seq_layers.0.bias f4 [64]
000000 95 fb db 3c b7 4d a9 3c 86 26 4c 3c fc a2 75 3c
       0.026853362 0.02066694 0.012460357 0.014992472
000010 8d 49 8e bb 42 91 3a 3d 98 9f 7b 3c 9c a3 4f 3c
       -0.004342264 0.045548685 0.015357874 0.012673285
000020 ca 45 83 3c 61 d5 b5 3c 43 de a9 3c d2 be 75 3c
       0.016024489 0.022196474 0.020735865 0.014999108
000030 b8 32 c1 3c f1 ac 94 3c 63 62 03 3d 43 c0 ee 3c
       0.023583755 0.018148871 0.03207625 0.029144412
000040 7c f4 23 3d 4c 2a d7 3c 3a 7d 5c bc 0a 61 a7 3c
       0.04002808 0.026265286 -0.013457591 0.020432014
000050 5e de 7d 3b 0a c8 b2 3c e7 16 34 3d 37 75 72 3c
       0.0038737278 0.021823902 0.043967154 0.014798454
000060 9c c2 e0 3c 53 17 cb bc 9f 0c c1 3c e4 1a 6b 3d
       0.027436547 -0.024791395 0.023565589 0.05739869
000070 37 d3 32 3b 18 c6 59 bb fc 19 5b 3c ac 4b 02 3d
       0.0027286538 -0.0033229645 0.013372894 0.031810448
000080 62 87 5c 3d 26 f5 c1 bc 1c 4f bc bc 70 1e 81 3c
       0.05384005 -0.023676466 -0.022986941 0.015761584
000090 1b 83 2a 3d 39 29 d5 3c 1b 9c fd 3c 11 d9 56 3d
       0.04162894 0.026020633 0.030958226 0.052453104
0000a0 ff 45 a9 3c 00 a0 13 bd 4b 91 83 3c 58 ac 9f bc
       0.02066326 -0.03604126 0.016060492 -0.01949136
0000b0 4e 7f 45 3d 3c 3e 5b 3d 08 57 91 3c c4 05 80 3c
       0.04821711 0.05352615 0.017741695 0.01562775
0000c0 f0 0d 98 3c 40 b9 d7 3c b7 4c 99 bc 73 93 3c 3c
       0.018561333 0.026333451 -0.018713338 0.011509764
0000d0 68 f9 dc bc 27 7c 42 3d 19 2d 8d ba 25 38 94 3c
       -0.026974395 0.047481682 -0.0010770886 0.018093178
0000e0 b6 c9 23 bd 2f f4 2c 3d c9 15 57 3c 1a 4e ce 3c
       -0.03998729 0.04222506 0.013127753 0.025183726
0000f0 73 37 18 3d 68 af 81 3d ed 8d c0 3c fe a0 a1 3c
       0.037162255 0.06332284 0.023505175 0.019730087

network_body._body_endoder.seq_layers.2.weight f4 [64, 64]
000000 df b3 c8 3c 16 15 52 bd 56 3a a4 be 9e 97 97 be
       0.024499832 -0.05128964 -0.32075757 -0.29607862
000010 a5 13 e3 bc ab 88 7a 3e ec e2 23 bd 69 cb 72 3e
       -0.027719328 0.24466197 -0.04001133 0.23710407
000020 a3 c0 35 3e 96 e8 27 3e e4 08 83 3b ae 57 17 3e
       0.17749266 0.16397318 0.0039988626 0.14779541
000030 10 15 de 3c 9f f9 01 3e f4 d4 28 be d7 30 62 3e
       0.027109653 0.12692879 -0.16487485 0.22088943
000040 91 ba ae bb 9e 77 81 3d 0e 9d 29 3e 72 f1 55 3d
       -0.005332299 0.06321643 0.16563818 0.052232213
000050 9e 8e 4f bd 99 3b ed 3d cb 5d 9f bb 97 2e a8 3e
       -0.05067312 0.11583633 -0.004863476 0.32848045
000060 2a ff 20 bd 66 78 f1 bd 68 7e ab bc 92 4b 12 be
       -0.039305843 -0.11790542 -0.020934299 -0.1428664
000070 ca 50 8a bd ed 0f aa bb be c3 59 be 82 07 3d 3e
       -0.067536905 -0.005189887 -0.21266076 0.18459895
000080 3c 47 e4 bd 3a 52 b4 bc ec b8 0d 3e 00 48 2d 3e
       -0.111463994 -0.022011865 0.13840073 0.16921997
000090 7e 1b be be fc 9c 7e be f4 4e 3d 3e 93 95 e2 3d
       -0.3713035 -0.24864572 0.1848715 0.11063685
0000a0 85 0c ec bd d1 ba de bc fe 69 1e bd 80 c8 1b 3e
       -0.115258254 -0.02718869 -0.0386753 0.15213203
0000b0 3a be a3 bd 38 5d 2e 3e ca 5a cd 3d ea a9 4a 3d
       -0.07995267 0.17027748 0.10027082 0.04947845
0000c0 4e 14 f7 bd 4c 26 13 bd 62 4c 31 be 0d 4a 0e 3b
       -0.1206442 -0.035925195 -0.17314294 0.0021711618
0000d0 ef 16 02 be 73 0c 49 3c 91 f8 03 3e 5d c0 e9 3c
       -0.12704061 0.0122710345 0.1288779 0.028534109
0000e0 21 f8 94 be 61 48 a1 bc 11 a6 57 3e 64 dc 1d bd
       -0.29095557 -0.019687833 0.21059443 -0.03854026
0000f0 4d 82 b4 3d b3 fb b4 3d e6 ed 2a bd 1e ca ab 3d
       0.088139154 0.0883707 -0.041730784 0.0838816
000100 9f fb 34 bd 24 f5 af 3c 7e 38 6e 3e f8 8e 4f bd
       -0.044185277 0.021479197 0.23263738 -0.050673455
000110 6d 7d 0f 3e c8 3e ae bc 42 21 18 be 73 0e c9 3e
       0.1401269 -0.02127017 -0.14856437 0.39268836
000120 73 92 29 be 39 a3 26 3e 64 f1 3f bd b9 09 d7 bd
       -0.16559772 0.16273202 -0.046861067 -0.10499901
000130 60 40 ae bd 94 6d 28 be 55 52 24 3e 68 4f 9b bd
       -0.08508372 -0.1644805 0.16047032 -0.07583505
000140 51 ad 1c 3d 64 3a f9 bd df d3 2f be e5 00 7c bd
       0.038251225 -0.1216934 -0.17170666 -0.06152429
000150 0b 2a 7d 3e 74 f2 98 bd eb c8 11 3d d3 55 bc 3d
       0.2472307 -0.07468119 0.035592 0.09196057
000160 70 31 77 3d b8 b1 10 3e 33 3e 5a 3d 29 46 56 3e
       0.06034988 0.14130294 0.053281974 0.20925201
000170 b5 23 0b 3e 09 c7 aa 3d 42 83 33 3e 8b dd f7 3d
       0.1358784 0.08338744 0.1753054 0.12102803
000180 1f d8 be bd 4b 06 67 3d b2 35 2d be a6 4b 15 be
       -0.093185656 0.056402486 -0.16915014 -0.14579639
000190 53 64 a4 3d 8d d9 75 bd b3 e3 43 3d 84 67 c4 bd
       0.08026948 -0.060021926 0.047824573 -0.095900565
0001a0 dc d8 76 be 60 c5 f1 bd 11 0a 0d bc 34 db 49 bd
       -0.24106163 -0.118052244 -0.008608357 -0.049281314
0001b0 f5 84 a3 3d 5b b6 f1 bd 64 08 f1 3c b4 d6 6f bb
       0.07984344 -0.1180236 0.029422946 -0.003659648
0001c0 45 c3 49 be f5 77 01 bd b2 8a 4e 3d 80 d2 f1 bd
       -0.19703396 -0.03160854 0.05042524 -0.11807728
0001d0 05 fb 08 3e 4c 05 29 3e 40 a0 67 3d ab 92 07 be
       0.13377006 0.16505927 0.05654931 -0.13239543
0001e0 34 87 45 be 25 93 31 bd 10 4d 2a bd 26 6a 8b be
       -0.19289857 -0.04335322 -0.0415774 -0.27229422
0001f0 80 8d aa 3c c8 96 fb bd 4e 60 16 3d 68 9b f6 3d
       0.020819426 -0.122846186 0.036712937 0.1204136
000200 c9 b6 54 3e 26 dc 4f be fd c2 ad bc 02 b9 26 3e
       0.20772852 -0.20298824 -0.021211142 0.16281512
000210 9c 85 c1 3b fb eb a5 3d 7f 6b 3f be 3e 18 e9 3c
       0.00590582 0.0810165 -0.1869335 0.028453942
000220 43 65 39 3c 2f b3 84 3d 7f be 35 3d a0 56 00 be
       0.011315647 0.06479489 0.044371124 -0.12533045
000230 fa 46 4b bd a3 e9 8a 3c a0 12 c6 3b 5e 68 01 3e
       -0.049628235 0.01695711 0.0060447007 0.12637469
000240 aa 51 72 3e 45 94 b7 3d b4 db 70 3d b4 e7 5c be
       0.23663965 0.08963827 0.058803275 -0.21572763
000250 d7 d0 71 bd fc 13 f8 bd 79 b6 1b 3e 33 09 17 be
       -0.059037056 -0.12113187 0.15206327 -0.14749603
000260 41 73 2a be fe 42 61 be bf 2f 19 bd bb a5 1b 3e
       -0.16645528 -0.21998212 -0.03739905 0.1519994
000270 ab 1d 57 3e f0 95 c1 bb 6e 50 fd bb a8 f4 85 be
       0.21007411 -0.0059077665 -0.007730535 -0.2616322
000280 31 2e b3 3d 74 d7 14 3d b1 ea cb 3d d9 6b 13 bd
       0.08749045 0.036338285 0.09956873 -0.035991523
000290 18 df b1 3d 34 d6 6b bd 58 aa 8b bd 09 58 8f 3d
       0.0868513 -0.057577327 -0.068196 0.06999213
0002a0 41 c7 a0 bd b8 42 12 3e 11 90 bd bd a1 b8 2b 3d
       -0.07850505 0.14283264 -0.09255994 0.041924123
0002b0 d7 8a 01 3e d6 83 9a 3b 05 20 c1 3d d8 aa 6a 3e
       0.1265062 0.004715423 0.09429935 0.22916734
0002c0 d8 99 76 3e 84 fa 90 bb a7 7d 98 bd 5e 19 2e be
       0.24082124 -0.004424395 -0.07445841 -0.17001864
0002d0 a6 a8 df 3d 50 24 22 be 71 9d 93 bd 6a 3f 8e bd
       0.10920839 -0.15834165 -0.07207764 -0.06945689
0002e0 02 89 22 3e 9a 9c 0b be 1e d4 68 bd 43 72 98 3d
       0.15872577 -0.13633958 -0.056842916 0.07443669
0002f0 8f 6e 42 bd 3a f3 0c 3d 29 b0 06 be a8 72 dd bc
       -0.04746872 0.034411646 -0.13153137 -0.027032211
000300 95 d1 c5 3c a3 1b 19 be d2 99 1b 3e e0 5f d4 bd
       0.024147788 -0.14951949 0.15195397 -0.10369849
000310 50 d5 f4 bb ba 0d 0d bd a8 95 10 bd a8 28 64 be
       -0.007471718 -0.03443692 -0.035298973 -0.22281134
000320 21 5b 90 3d 40 21 1c 3e 85 e1 28 3e d5 b3 97 3d
       0.070486315 0.15247059 0.16492279 0.07407347
000330 d1 6e 19 3c f4 f2 cb 3d ac 07 b2 bd cc 5f 4e 3c
       0.0093648 0.09958449 -0.086928695 0.012596082
000340 92 b0 06 3e 50 e2 81 bc b7 9e 17 be 42 fe c8 3d
       0.13153294 -0.015854985 -0.14806639 0.09814121
000350 2b 7d d0 3d e5 42 05 3d 33 a2 06 bb be 34 d8 bc
       0.10180124 0.0325345 -0.0020543456 -0.026392337
000360 30 1d 61 bc cc 12 8f bd be bd bb bd e1 0f 2f be
       -0.013739869 -0.06986007 -0.0916705 -0.17095901
000370 1a ff 76 bd b2 59 b0 bc 2e e8 a9 3d 2c 65 2d 3d
       -0.060301878 -0.021527145 0.08296238 0.042332813
000380 5e d4 2c be e2 ac 2c bc f5 ca b8 3d bb b9 e4 3d
       -0.16877887 -0.010539265 0.09023086 0.11168238
000390 4f 87 fd 3c 6a 20 98 bd 90 3f 0a be 51 d3 34 3d
       0.03094831 -0.074280575 -0.1350081 0.04414684
0003a0 0c f5 92 ba 96 52 9d bd 75 f7 2c 3d 6d 34 b1 3c
       -0.0011211946 -0.07681768 0.04222818 0.021631444
0003b0 9d 73 1b 3e 09 62 c1 3d 04 8a e2 3d 1a ff 4f 3e
       0.15180822 0.09442527 0.11061481 0.20312157
0003c0 c0 c8 b9 3d c6 b1 43 bd 49 9d 0c bd 1e 35 59 be
       0.09071493 -0.04777696 -0.034329686 -0.21211669
0003d0 cf c5 4a 3c 90 d5 08 be 6e 63 85 be f0 f4 2b be
       0.012376263 -0.13362718 -0.2605242 -0.16792655
0003e0 9e b1 28 bc 42 df 77 be 6b ab c1 3d d2 09 5d 3d
       -0.0102962535 -0.2420626 0.094565235 0.053964444
0003f0 cb 24 57 3e 00 8f 83 3d 7b c0 81 3c df 31 84 bc
       0.21010129 0.064237595 0.015838852 -0.016137062

network_body._body_endoder.seq_layers.2.bias f4 [64]
000000 59 2f ce 3b 85 93 7f 3c 24 f0 e6 3c 6e 9a 84 3c
       0.0062922654 0.015599136 0.02819068 0.016186919
000010 25 2d 53 3d f7 0f 96 bc d3 f0 21 3c 4f 07 82 3c
       0.051556725 -0.01831816 0.009884077 0.015872626
000020 5c 95 78 3c ae ff 84 3c 01 99 92 3c af 8b a2 3d
       0.015172329 0.016235199 0.017895224 0.07936799
000030 f0 36 03 bb 02 36 b0 3c 2b a3 24 3d 3f 9a 4b 3c
       -0.002002176 0.021510128 0.04019467 0.012426912
000040 c8 fa 61 3c 58 1c 6b bc aa 07 8c 3c f1 ec 49 3c
       0.013792701 -0.014350019 0.017093498 0.012324558
000050 08 87 57 3d 3a 87 8f 3a 90 0b 87 ba 78 be ff 3c
       0.05261901 0.0010950335 -0.0010303129 0.031218752
000060 27 6a de 3c 82 43 a4 bb 11 5c f7 3c 49 b9 c9 bc
       0.027150227 -0.0050129304 0.030195268 -0.024624484
000070 63 95 8c 3b c0 8a 25 3d 40 1a ad 3b 9a 96 cd 3c
       0.004290269 0.040415525 0.0052826703 0.025096226
000080 c9 ba 96 bc 48 9f ff 3c 74 c2 87 3c dc 32 a9 3c
       -0.018399613 0.03120388 0.016572215 0.020654134
000090 a7 68 9d 3c 6c 18 8d 3c 23 b0 8f 3c 05 34 06 3d
       0.019214941 0.01722356 0.017540043 0.032764453
0000a0 31 4a 9d bc 06 2b 85 bc 9a f4 30 3c d2 78 1a bc
       -0.019200416 -0.016255867 0.010800505 -0.00942822
0000b0 2a 07 25 3d c6 a4 39 3d 8c 32 f6 3c ee 6a 72 3c
       0.040290035 0.045323156 0.0300534 0.014796002
0000c0 54 a4 49 3c 38 b2 a7 3c 99 5d af 3c 7b 85 04 3d
       0.012307245 0.020470724 0.021406936 0.03235386
0000d0 47 ff ef 3c 66 2b 5a 3d 12 97 24 3c 7a ba 51 3d
       0.02929653 0.053264044 0.010045784 0.05120323
0000e0 3c 9c 3d 3c 74 d6 0d 3c 24 56 39 3c f7 cc 83 3c
       0.011572894 0.008657087 0.011312041 0.016088946
0000f0 0a 30 89 3c 9a 1d 50 3c 30 d3 9e 3c 79 54 d0 3c
       0.01674654 0.01270237 0.019387811 0.025430905
