results/3_24_ppo1/simple_wolf/simple_wolf-1671.onnx (onnx, 571315 bytes, 20 tensors)

network_body.observation_encoder.processors.0.self_ent_encoder.seq_layers.0.bias f4 [128]
-0.0008028406 -0.00530225 -0.0014118386 -0.00059109903 0.0022470208 0.009716188 0.0010380549 -0.0009951819
0.009954074 -0.002906251 -0.007597279 -0.0052922764 -0.0048582987 0.0021146964 -0.001211731 0.00023961489
-0.0057904064 -0.00024362108 -0.007920272 -0.0032118263 -0.008554522 -0.0018311574 0.0046573738 0.011447707
0.0035864525 0.0017458762 -0.002300654 -0.006922466 0.012541547 -0.0050201304 0.0037027071 1.1589019e-05
-0.0065396894 0.0049321563 1.1171949e-05 0.0009852416 -0.0011048754 0.0024538042 -0.0046981783 0.0025586048
-0.007054715 -0.007874927 -0.0059790146 0.0041327174 0.0064469087 -0.0025270926 -0.003357306 -0.004248719
0.005178487 0.010511024 -0.008922846 -0.0053441897 -0.005322155 0.007428543 -0.0014700595 0.007332703
0.0043462366 -0.0002898839 0.003448245 0.0047439975 0.0042887586 0.0019046385 -0.0033223124 -0.0019333189
-0.004178364 0.0028119723 0.003982413 -0.010141071 0.0005446123 0.009967699 0.007987718 -0.0019252034
-0.0039917435 0.0063964715 -0.0026541152 0.005436509 0.010055894 0.0017792598 0.00051326386 0.0007896504
0.0038301097 0.004826671 0.003473247 0.013041538 -0.007783596 -0.007610559 -0.005910136 -0.007816073
-0.008584073 -0.0031704279 0.0033649032 -0.0011675815 0.009488869 0.002943131 -0.012633698 0.0066903685
0.00667123 -0.0109294355 0.0022642075 0.0040474394 -0.0045243185 -0.011097968 0.007886855 -0.0013910668
-0.0035893114 -0.003499542 0.0060784807 0.0022547867 -0.0077079814 0.005287873 -0.012574922 0.0064719296
-0.002366192 0.0024194792 -0.011242215 -0.00041314872 -0.0014771564 0.006217385 0.002289202 0.011137622
0.004999198 0.0030500253 -0.0050882963 0.0008119296 -0.0040097646 0.0058989944 0.0024967468 -0.0007453933
00000000: b875 52ba 7fbe adbb 710d b9ba fcf3 1aba
00000010: c142 133b a530 1f3c 580f 883a c370 82ba
00000020: 6a16 233c cd76 3ebb 98f2 f8bb d56a adbb
00000030: 5d32 9fbb b896 0a3b f2d2 9eba 2241 7b39
00000040: 73bd bdbb 8974 7fb9 07c4 01bc 817d 52bb
00000050: 4428 0cbc 7203 f0ba e29c 983b 2a8f 3b3c
00000060: b00a 6b3b e2d5 e43a 92c6 16bb dbd5 e2bb
00000070: 107b 4d3c e87f a4bb 1ea9 723b 756e 4237
00000080: e44a d6bb ed9d a13b 286f 3b37 3923 813a
00000090: 77d1 90ba 01d0 203b 2df3 99bb 44ae 273b
000000a0: 3d2b e7bb d605 01bc 9ceb c3bb bf6b 873b
000000b0: 9740 d33b 949d 25bb 3f06 5cbb d738 8bbb
000000c0: 4cb0 a93b 6e36 2c3c 2131 12bc 501e afbb
000000d0: 7965 aebb 236b f33b 03af c0ba 2c47 f03b
000000e0: e06a 8e3b 8ffb 97b9 f4fb 613b 8973 9b3b
000000f0: b788 8c3b 10a5 f93a 27bb 59bb 6b67 fdba
00000100: a8ea 88bb 1149 383b e77e 823b bc26 26bc
00000110: 50c4 0e3a 8f4f 233c ebde 023c 1b57 fcba
00000120: 2ccd 82bb 7e99 d13b aaf0 2dbb be24 b23b
00000130: 7ac1 243c 0d36 e93a 8e8c 063a 8b00 4f3a
00000140: 9402 7b3b 0d29 9e3b 6a9f 633b 2dac 553c
00000150: 890d ffbb ff61 f9bb d0a9 c1bb fc0e 00bc
00000160: 36a4 0cbc f4c6 4fbb b585 5c3b 8909 99ba
00000170: 3477 1b3c 8be1 403b 92fd 4ebc e13a db3b
00000180: 559a da3b 6011 33bc 1963 143b 62a0 843b
00000190: bc40 94bb 40d4 35bc de37 013c 7554 b6ba
000001a0: a73a 6bbb 9258 65bb fe2d c73b 0bc5 133b
000001b0: 3c93 fcbb e545 ad3b 0c07 4ebc 7b12 d43b
000001c0: 1d12 1bbb 2090 1e3b 4431 38bc e29b d8b9
000001d0: 259d c1ba 35bb cb3b 7006 163b 937a 363c
000001e0: 50d0 a33b efe2 473b b9bb a6bb acd7 543a
000001f0: 5864 83bb 5a4c c13b 76a0 233b 7f66 43ba

network_body.observation_encoder.processors.1.self_ent_encoder.seq_layers.0.bias f4 [128]
0.0 0.0 0.0 0.0 0.0 0.0 0.0 0.0
0.0 0.0 0.0 0.0 0.0 0.0 0.0 0.0
0.0 0.0 0.0 0.0 0.0 0.0 0.0 0.0
0.0 0.0 0.0 0.0 0.0 0.0 0.0 0.0
0.0 0.0 0.0 0.0 0.0 0.0 0.0 0.0
0.0 0.0 0.0 0.0 0.0 0.0 0.0 0.0
0.0 0.0 0.0 0.0 0.0 0.0 0.0 0.0
0.0 0.0 0.0 0.0 0.0 0.0 0.0 0.0
0.0 0.0 0.0 0.0 0.0 0.0 0.0 0.0
0.0 0.0 0.0 0.0 0.0 0.0 0.0 0.0
0.0 0.0 0.0 0.0 0.0 0.0 0.0 0.0
0.0 0.0 0.0 0.0 0.0 0.0 0.0 0.0
0.0 0.0 0.0 0.0 0.0 0.0 0.0 0.0
0.0 0.0 0.0 0.0 0.0 0.0 0.0 0.0
0.0 0.0 0.0 0.0 0.0 0.0 0.0 0.0
0.0 0.0 0.0 0.0 0.0 0.0 0.0 0.0
00000000: 0000 0000 0000 0000 0000 0000 0000 0000
00000010: 0000 0000 0000 0000 0000 0000 0000 0000
00000020: 0000 0000 0000 0000 0000 0000 0000 0000
00000030: 0000 0000 0000 0000 0000 0000 0000 0000
00000040: 0000 0000 0000 0000 0000 0000 0000 0000
00000050: 0000 0000 0000 0000 0000 0000 0000 0000
00000060: 0000 0000 0000 0000 0000 0000 0000 0000
00000070: 0000 0000 0000 0000 0000 0000 0000 0000
00000080: 0000 0000 0000 0000 0000 0000 0000 0000
00000090: 0000 0000 0000 0000 0000 0000 0000 0000
000000a0: 0000 0000 0000 0000 0000 0000 0000 0000
000000b0: 0000 0000 0000 0000 0000 0000 0000 0000
000000c0: 0000 0000 0000 0000 0000 0000 0000 0000
000000d0: 0000 0000 0000 0000 0000 0000 0000 0000
000000e0: 0000 0000 0000 0000 0000 0000 0000 0000
000000f0: 0000 0000 0000 0000 0000 0000 0000 0000
00000100: 0000 0000 0000 0000 0000 0000 0000 0000
00000110: 0000 0000 0000 0000 0000 0000 0000 0000
00000120: 0000 0000 0000 0000 0000 0000 0000 0000
00000130: 0000 0000 0000 0000 0000 0000 0000 0000
00000140: 0000 0000 0000 0000 0000 0000 0000 0000
00000150: 0000 0000 0000 0000 0000 0000 0000 0000
00000160: 0000 0000 0000 0000 0000 0000 0000 0000
00000170: 0000 0000 0000 0000 0000 0000 0000 0000
00000180: 0000 0000 0000 0000 0000 0000 0000 0000
00000190: 0000 0000 0000 0000 0000 0000 0000 0000
000001a0: 0000 0000 0000 0000 0000 0000 0000 0000
000001b0: 0000 0000 0000 0000 0000 0000 0000 0000
000001c0: 0000 0000 0000 0000 0000 0000 0000 0000
000001d0: 0000 0000 0000 0000 0000 0000 0000 0000
000001e0: 0000 0000 0000 0000 0000 0000 0000 0000
000001f0: 0000 0000 0000 0000 0000 0000 0000 0000

network_body.observation_encoder.rsa.fc_q.bias f4 [128]
-0.0010686895 0.0018672491 0.0018263317 -0.0004001999 0.001990571 -0.0009426635 0.0015734355 -0.00082659454
0.0019546484 -0.00011990271 0.0005038995 0.00028221234 -0.0010288536 0.0003882874 -6.131236e-05 -0.0002585202
0.00036989886 -0.0016104488 -0.0007561401 -0.00074884895 -0.0002908222 -0.0001895818 -0.00056895526 0.0013597425
-0.00043405808 0.00067651854 0.0012390855 -0.0005632172 0.0011307556 0.0020323892 -0.0022381896 -0.00097494305
-0.0008690323 -0.0002983724 0.0026454318 -0.003313916 -0.0011445908 0.001692333 -0.00414034 0.0011361946
-0.0035471267 -0.00015505988 0.00021016679 0.0011147435 -0.00068309443 0.0004519017 -0.0028647238 -0.0030649328
-0.0034366231 0.0039757797 0.0036356198 -0.00083876814 -0.002145552 0.0010872544 -0.0034681752 -0.0040036705
0.0032984118 -0.0013954683 -0.00037981346 0.000101491154 -4.375203e-05 0.0011055961 0.0025101139 0.0011487817
0.0011159761 -0.00354632 -0.0045786416 0.0057371524 -0.0010459216 -0.003081861 0.004067955 0.0009898639
-0.00061173283 -0.0018360271 0.0011743822 0.0042475583 -0.0005005191 -0.0017002671 -0.0029766567 -0.0011576957
0.00011382163 -0.0014116721 -0.0016872296 0.002568389 0.0036101325 -0.00026158878 -0.0029359108 -0.00052916526
-0.0019057054 0.001002506 -0.0010058017 0.0034048522 0.002086521 -0.0035796321 -0.001119747 0.00088051223
-0.0026888757 0.0019637812 -0.0020778433 -0.0021134464 0.0023130393 -0.002397847 -0.0020157697 -0.001979469
-0.0020472053 -0.0021228436 0.0023807967 0.00200698 0.0014957839 -0.0019675908 0.002073797 -0.002263232
0.0025728166 -0.0003891719 0.0018372483 -0.0019716544 0.0021356565 0.0021590402 0.0014978065 -0.001667292
-0.0016168794 -0.0020977354 0.0021149542 0.0021985832 -0.002159348 -0.00053095014 -0.0019180783 -0.0027627072
00000000: 4513 8cba 7cbe f43a 8661 ef3a ecd1 d1b9
00000010: 3d74 023b 141d 77ba bc3b ce3a d2af 58ba
00000020: 8f19 003b 4774 fbb8 1f18 043a e6f5 9339
00000030: 99da 86ba 0d93 cb39 d394 80b8 fe89 87b9
00000040: fcee c139 b215 d3ba b437 46ba 674e 44ba
00000050: 7f79 98b9 7aca 46b9 f125 15ba 6339 b23a
00000060: 4a92 e3b9 6458 313a cf68 a23a dea4 13ba
00000070: dd35 943a d531 053b 97ae 12bb 5293 7fba
00000080: c5cf 63ba de6e 9cb9 fb5e 2d3b 492e 59bb
00000090: 1806 96ba 46d1 dd3a b0ab 87bb 5dec 943a
000000a0: e976 68bb 9297 22b9 3860 5c39 961c 923a
000000b0: b111 33ba 38ed ec39 17be 3bbb 0add 48bb
000000c0: f838 61bb 4247 823b 9443 6e3b c7e0 5bba
000000d0: 649c 0cbb 3482 8e3a 534a 63bb 3931 83bb
000000e0: 2b2a 583b 25e8 b6ba b321 c7b9 a6d7 d438
000000f0: 6282 37b8 a6e9 903a b980 243b b892 963a
00000100: f245 923a 6069 68bb 6e08 96bb b9fe bb3b
00000110: 4e17 89ba 0cf9 49bb 7b4c 853b 52be 813a
00000120: b25c 20ba d9a6 f0ba baed 993a 1a2f 8b3b
00000130: 4535 03ba 7fdb deba 0314 43bb d2bd 97ba
00000140: 86b3 ee38 db07 b9ba 0826 ddba 6b52 283b
00000150: f997 6c3b da25 89b9 6968 40bb aeb7 0aba
00000160: ddc8 f9ba 8566 833a 1bd5 83ba f123 5f3b
00000170: 03be 083b 4398 6abb 79c4 92ba 2dd2 663a
00000180: d937 30bb c8b2 003b 6d2c 08bb bf81 0abb
00000190: 5c96 173b 3225 1dbb 011b 04bb fbb9 01bb
000001a0: 682a 06bb 681f 0bbb 2407 1c3b 8987 033b
000001b0: 2e0e c43a b2f2 00bb 8ae8 073b bb52 14bb
000001c0: b39c 283b c509 ccb9 d3cf f03a df36 01bb
000001d0: 5ff6 0b3b af7e 0d3b 0c52 c43a 0989 daba
000001e0: 78ed d3ba 297a 09bb 0b9b 0a3b 1b16 103b
000001f0: d983 0dbb 762f 0bba 0768 fbba 890e 35bb

network_body.observation_encoder.rsa.fc_k.bias f4 [128]
-6.152526e-08 4.6565867e-07 -3.099327e-07 -1.6841737e-07 -3.777313e-07 3.111869e-08 -1.1208731e-07 5.8359753e-08
-5.2489094e-07 -2.4052314e-08 1.7265195e-07 4.2499263e-07 1.0885346e-08 2.0134205e-07 -1.3799323e-07 -1.0440475e-07
1.0386138e-07 2.2374938e-07 -4.777244e-08 1.388895e-07 -4.4979836e-07 2.0403951e-07 5.0243983e-08 -6.56342e-07
-2.4202281e-08 1.0440293e-07 -2.9518847e-07 3.72367e-08 -2.6254725e-07 -1.15367506e-07 2.6633623e-07 2.5492295e-07
6.755857e-09 4.9773348e-08 -1.09205494e-07 9.8006446e-08 7.584894e-08 -9.850778e-08 1.6751608e-07 -3.141013e-08
1.4336766e-07 -2.9444907e-08 -5.5882026e-08 -1.17662836e-07 6.3636194e-09 5.018976e-08 1.5383725e-07 7.965611e-08
1.5046729e-07 -1.3529935e-07 -1.7041054e-07 5.2603756e-08 7.982055e-08 -1.2200805e-07 1.5962462e-07 1.6211771e-07
-7.392153e-08 6.179412e-08 -3.9236916e-09 -3.1347724e-08 -2.202196e-08 -1.0682842e-08 -1.6288128e-07 -8.58993e-08
-3.207631e-07 7.019503e-07 -2.1635077e-07 -2.8732882e-07 8.555684e-08 1.9479074e-07 2.096822e-07 -1.0376963e-07
-1.6336361e-07 -1.4603148e-07 -9.83308e-08 -4.5022986e-07 -1.4557543e-07 2.376497e-07 1.6976306e-07 8.042884e-08
-2.4832096e-07 9.966233e-08 2.7866014e-07 2.1642427e-07 -2.4667952e-07 -1.9132921e-08 4.712093e-08 1.7448907e-07
5.933943e-07 -3.3510443e-07 4.128363e-07 -3.7323343e-08 1.1964896e-07 2.5857463e-07 2.2080584e-07 -3.7751295e-07
-1.9114171e-07 2.1926358e-07 1.7937387e-07 1.5808535e-08 8.787722e-08 -1.2519455e-07 -3.900216e-07 -2.0240874e-07
-3.4704047e-07 -2.0583634e-07 2.2938548e-07 4.131739e-07 2.2685752e-07 -2.2599835e-07 1.7077954e-07 -3.1069575e-08
3.3889523e-07 -2.2607423e-08 6.6387926e-08 1.6223098e-08 3.0266563e-07 3.0449945e-07 3.7327194e-07 5.110565e-08
-5.8457736e-08 -4.1352942e-07 4.0478702e-07 4.7650042e-07 -2.1000868e-07 -1.9024033e-07 -4.4435076e-08 -8.6384375e-08
00000000: df1f 84b3 a4ff f934 d364 a6b4 37d6 34b4
00000010: ffca cab4 5da7 0533 a6b4 f0b3 3aa7 7a33
00000020: 3be6 0cb5 999b ceb2 3562 3934 8b2a e434
00000030: 4202 3b32 7b30 5834 4a2b 14b4 1e35 e0b3
00000040: 660a df33 c33f 7034 5a2e 4db3 a821 1534
00000050: d17b f1b4 f415 5b34 d8cb 5733 7b2f 30b5
00000060: 61e5 cfb2 1e34 e033 657a 9eb4 2fee 1f33
00000070: 38f4 8cb4 f5bf f7b3 f9fc 8e34 58dc 8834
00000080: 2621 e831 60c6 5533 5b84 eab3 9d77 d233
00000090: 65e2 a233 3a8b d3b3 78de 3334 cee7 06b3
000000a0: 9af0 1934 09ee fcb2 f002 70b3 d4ad fcb3
000000b0: fda6 da31 3a90 5733 762e 2534 690f ab33
000000c0: 2290 2134 cd46 11b4 18fa 36b4 71ee 6133
000000d0: d069 ab33 5101 03b4 4865 2b34 9412 2e34
000000e0: cabe 9eb3 adb3 8433 28d1 86b1 30a3 06b3
000000f0: cd2a bdb2 a387 37b2 77e4 2eb4 a477 b8b3
00000100: 5835 acb4 a86d 3c35 0c4e 68b4 2c42 9ab4
00000110: 5fbb b733 ac27 5134 0125 6134 f5d7 deb3
00000120: 0c69 2fb4 d4cc 1cb4 ee29 d3b3 1fb7 f1b4
00000130: 784f 1cb4 a72c 7f34 1d48 3634 39b8 ac33
00000140: f950 85b4 f205 d633 c29a 9534 4062 6834
00000150: 606f 84b4 bd59 a4b2 0362 4a33 315b 3b34
00000160: bf49 1f35 67e8 b3b4 caa3 dd34 734d 20b3
00000170: db78 0034 3ad2 8a34 a616 6d34 fcac cab4
00000180: a23c 4db4 b76e 6b34 ea99 4034 56cb 8732
00000190: 03b7 bc33 376d 06b4 2964 d1b4 b155 59b4
000001a0: e150 bab4 dd03 5db4 004d 7634 30d2 dd34
000001b0: 1f96 7334 f4a9 72b4 865f 3734 5c71 05b3
000001c0: 68f1 b534 4032 c2b2 2691 8e33 f85a 8b32
000001d0: 0c7e a234 167a a334 1b66 c834 427f 5b33
000001e0: f612 7bb3 0d03 deb4 8151 d934 b8d1 ff34
000001f0: bf7e 61b4 dd44 4cb4 e2d8 3eb3 5082 b9b3

network_body.observation_encoder.rsa.fc_v.bias f4 [128]
0.0005156307 -0.009348889 -0.0051506604 0.0063472725 -0.012268986 -0.004963562 -0.008616822 -0.0044832537
0.005211095 0.0104326345 -0.009187899 -0.01089302 0.010528484 -0.0021907908 -0.00942539 -0.0005954541
0.005536662 -0.0016411084 -0.006282269 0.0024498317 -0.0063576214 0.010148325 -0.006379049 0.009779797
0.008595151 -0.00018636999 0.007739864 -0.0020566294 0.009596646 -0.006854809 0.00851088 -0.008658107
-0.010725098 0.010637937 -0.005457097 -0.0012559266 -0.010896903 -0.008116525 0.008700212 0.0055366284
-0.0025731942 0.00672332 0.0036103774 0.010489706 0.0027745203 0.008115272 0.0091885915 0.0013388152
0.004726831 -0.0064778225 -0.0065576183 -0.004183046 0.00854767 0.00038017947 0.010079275 0.009389867
-0.009962447 0.011889424 -0.0029737633 0.008148935 0.0038216328 0.009264127 -0.0041447 0.0037335781
-0.009086716 -0.0031436002 -0.0011475848 0.00027102532 -0.001094051 -0.007760185 0.003138103 0.00886284
0.007248055 -0.004518944 -0.0020205071 -0.005162559 0.013146053 0.007976408 0.009055814 0.0057491246
0.003664223 0.010233174 -0.008916152 -0.010879132 -0.007884396 -0.0043190224 0.0005154693 -0.001294
-0.0108988285 -0.010163764 0.007880138 -1.599525e-05 -0.00085506303 0.00937736 -0.001545336 0.00012382612
0.0042793695 -0.008767791 -0.00232383 0.010484614 0.0026260666 0.0030756004 0.0048181615 0.006101761
0.0062801256 -0.011337499 -0.0040927404 0.0032810785 0.0025795589 0.010917564 0.009556957 -0.0115757175
0.0041503017 -0.006589971 0.005540317 -0.009191448 -0.00654708 -0.0037480523 0.0011480622 0.010308161
-0.0028362381 0.005621275 0.0073219105 0.0058036395 0.003305482 -0.00723515 -0.008476181 -0.011931136
00000000: 642b 073a 152c 19bc dfc6 a8bb c8fc cf3b
00000010: db03 49bc 60a5 a2bb 922d 0dbc 42e8 92bb
00000020: d5c1 aa3b a4ed 2a3c d788 16bc a378 32bc
00000030: aa7f 2c3c 5f93 0fbb f36c 1abc 4018 1cba
00000040: e36c b53b 761a d7ba 7edb cdbb 5b8d 203b
00000050: 9853 d0bb 2945 263c 5707 d1bb 713b 203c
00000060: add2 0c3c 506c 43b9 af9e fd3b 84c8 06bb
00000070: 403b 1d3c 4e9e e0bb 3871 0b3c bcda 0dbc
00000080: 52b8 2fbc be4a 2e3c 73d1 b2bb e79d a4ba
00000090: ed88 32bc 2cfb 04bc 568b 0e3c 9b6c b53b
000000a0: 09a3 28bb 4c4f dc3b 159c 6c3b 04dd 2b3c
000000b0: bad4 353b ebf5 043c bf8b 163c 2f7b af3a
000000c0: 88e3 9a3b ea43 d4bb 4ae1 d6bb ef11 89bb
000000d0: 870b 0c3c d352 c739 8b23 253c f5d7 193c
000000e0: 8839 23bc dccb 423c 78e3 42bb 1c83 053c
000000f0: 5c74 7a3b 91c8 173c 43d0 87bb 0caf 743b
00000100: 73e0 14bc dc04 4ebb 8e6a 96ba 6718 8e39
00000110: 4366 8fba 2649 febb a2a8 4d3b 7235 113c
00000120: 1881 ed3b a613 94bb 7c6a 04bb af2a a9bb
00000130: 8b62 573c 7baf 023c d65e 143c 2763 bc3b
00000140: 7623 703b 0ba9 273c 0d15 12bc 633e 32bc
00000150: 8e2d 01bc 9686 8dbb 8f20 073a 6f9b a9ba
00000160: 0091 32bc ea85 26bc b21b 013c 8a2d 86b7
00000170: 4f26 60ba 80a3 193c df8c caba 52d7 0139
00000180: f439 8c3b c8a6 0fbc 664b 18bb a9c7 2b3c
00000190: 161a 2c3b 0390 493b abe1 9d3b 48f1 c73b
000001a0: 83c9 cd3b ebc0 39bc 651c 86bb 5d07 573b
000001b0: d10d 293b 95df 323c c894 1c3c 14a8 3dbc
000001c0: 41ff 873b aff0 d7bb 8c8b b53b ba97 16bc
000001d0: e388 d6bb e2a1 75bb 937a 963a 90e3 283c
000001e0: 2ee0 39bb ac32 b83b a3ec ef3b 752c be3b
000001f0: c9a0 583b d614 edbb aedf 0abc d07a 43bc

network_body.observation_encoder.rsa.fc_out.bias f4 [128]
0.011472175 -0.0073096645 -0.00070843427 -0.0039363643 0.0053599644 0.008294826 0.0039513996 -0.001403874
-0.0065215956 -0.001955418 -0.007778425 -0.009033076 -0.0038914226 -0.0034061281 0.0069408324 0.0009170065
-0.008252815 -0.003331741 0.0034734076 0.0048458492 -0.0068042385 -0.0026101458 0.0014644078 0.00684137
0.004383151 0.004115582 -0.00033092985 0.0066505554 0.011759127 0.009902928 5.694048e-06 0.0048229247
0.00078854576 0.0043916735 -0.00874512 -0.0028315622 -0.011533834 0.00664403 0.0037576808 -0.004137769
-0.0075167855 -0.0020849123 0.009561456 -0.004609824 -0.010523682 0.007541773 0.004799797 -0.003041351
0.0019937477 0.010877377 -0.010516541 -0.008215218 -0.0017821699 -0.001424149 -0.002750662 -0.0013318211
-0.00820267 0.0019898962 0.0015340152 0.0010338685 0.0015059903 0.009459109 -0.0071754344 -0.0050646057
-0.009711827 0.004148812 -0.009765975 0.010007791 0.002420015 0.009621356 0.0077898167 0.005096795
-0.0072260024 0.007740491 0.0047220476 0.0057572215 -0.005781635 -0.0019775124 0.0047819633 -0.00012793545
0.005211473 -0.011162487 -0.005042935 0.013226437 0.008733899 -0.007777921 -0.0046050604 -0.0071080104
-0.009508495 -0.0017536487 0.0056998474 -0.002659937 0.005275696 0.002426075 0.0072862576 0.003825267
0.004141133 -0.011853028 0.00031963777 0.0005669247 -0.0004786595 -0.010142109 0.0060756635 -0.002791007
0.0017101459 -0.0053706937 0.0036846763 -0.0027762912 -0.006757242 0.0041986485 -0.00842649 0.0024188193
0.004620241 0.004175613 -0.009408996 0.006090279 0.008307304 0.007077724 0.0063250633 -0.00634481
-0.0006241132 0.0016421858 -0.0030671516 0.00021402823 -0.00784032 -0.010122025 0.003854306 0.0075963936
00000000: caf5 3b3c e985 efbb 38b6 39ba 9efc 80bb
00000010: a4a2 af3b 06e7 073c be7a 813b 3202 b8ba
00000020: 1cb3 d5bb 7826 00bb 28e2 febb 78ff 13bc
00000030: 3d07 7fbb 5939 5fbb ec6f e33b 4463 703a
00000040: d136 07bc 5759 5abb 1ca2 633b eec9 9e3b
00000050: 17f6 debb fb0e 2bbb 5ff1 bf3a 922d e03b
00000060: 89a0 8f3b 01dc 863b a780 adb9 e7ec d93b
00000070: 5aa9 403c e43f 223c 800f bf36 a009 9e3b
00000080: 69b6 4e3a 07e8 8f3b b147 0fbc bb91 39bb
00000090: 68f8 3cbc 2ab6 d93b 6c43 763b 1f96 87bb
000000a0: 5e4f f6bb 06a3 08bb a7a7 1c3c 020e 97bb
000000b0: 866b 2cbc fa20 f73b 9e47 9d3b 6751 47bb
000000c0: 89a9 023b 0737 323c 924d 2cbc 1f99 06bc
000000d0: b397 e9ba 83aa baba 7344 34bb 8090 aeba
000000e0: 7e64 06bc eb68 023b 0211 c93a df82 873a
000000f0: a664 c53a 61fa 1a3c e81f ebbb fef4 a5bb
00000100: 5b1e 1fbc c2f2 873b 7801 20bc b8f7 233c
00000110: 1d99 1e3b e4a2 1d3c b841 ff3b 0403 a73b
00000120: 1ac8 ecbb f2a3 fd3b 68bb 9a3b 13a7 bc3b
00000130: df73 bdbb 2799 01bb 04b2 9c3b 6926 06b9
00000140: 01c5 aa3b dde2 36bc 343f a5bb b3b3 583c
00000150: a118 0f3c eedd febb 0ce6 96bb 50ea e8bb
00000160: 85c9 1bbc b0da e5ba c9c5 ba3b 5652 2ebb
00000170: bfdf ac3b c9fe 1e3b 8fc1 ee3b 55b1 7a3b
00000180: 57b2 873b 3433 42bc 0e95 a739 ac9d 143a
00000190: 97f4 fab9 172b 26bc 5c16 c73b 54e9 36bb
000001a0: f926 e03a a5fc afbb 9c7a 713b 70f2 35bb
000001b0: db6b ddbb d194 893b 430f 0abc 0e85 1e3b
000001c0: 6465 973b 95d3 883b 3128 1abc f790 c73b
000001d0: 5c1b 083c 41ec e73b 7a42 cf3b 20e8 cfbb
000001e0: 879b 23ba 9d3e d73a 4402 49bb c46c 6039
000001f0: af74 00bc dad6 25bc 8698 7c3b 2beb f83b

network_body.observation_encoder.x_self_encoder.seq_layers.0.weight f4 [128, 4]
0.040016606 0.01113889 0.0023748223 -0.033503145 0.040226083 0.023515662 0.012064318 0.031893812
-0.031773858 -0.005077131 -0.0629308 -0.0005391821 0.005038767 0.038907345 0.052932106 0.017743802
-0.034096967 0.062576726 0.043806672 0.029857025 0.03516067 0.02347355 -0.039926756 -0.01783474
-0.02689201 0.005348513 0.01813826 -0.017383642 0.003534926 0.0608609 -0.031378165 -0.016007554
0.064230576 0.021372767 0.037514072 -0.004309931 0.019849826 -0.008949926 -0.006748269 0.06129125
-0.009022326 -0.008240113 -0.054490887 -0.022523828 -0.051808577 -0.012599451 -0.022799645 0.022641068
0.044847343 -0.013930955 -0.039470095 -0.035443768 0.021700922 0.010177266 4.135509e-06 0.058300562
-0.02706052 0.0026155736 0.023013843 0.023600303 0.014422442 -0.015287045 0.03745574 0.007731489
-0.03404468 -0.040244736 0.04246411 0.08955451 0.055235785 0.038833085 -0.017414253 -0.018745344
-0.016223744 -0.018846957 0.019543858 -0.07601656 0.01261779 0.002833166 -0.011086122 0.024872068
-0.03657354 0.04285561 -0.024241123 -0.023206152 -0.055545747 -0.013253413 -0.011771974 -0.0016719571
-0.015846075 -0.008434082 -0.05402784 -0.009487888 0.012725133 0.06055918 -0.026408223 0.016056508
-0.018741101 0.00027472188 0.008288492 0.03527611 -0.017847018 0.018857485 0.0009863181 0.03913065
0.016651724 0.06748571 -0.017682591 -0.017954288 -0.04424659 -0.03230844 0.008571546 -0.012341441
0.038925298 -0.03252826 -0.0018249785 0.019715887 -0.0036396785 0.028747786 -0.008095457 -0.042403784
-0.026604764 0.020049967 -0.019372655 -0.02184125 0.013033808 0.0027976758 -0.038408265 -0.06090751
-0.007578066 0.05029297 -0.034932107 -0.018943015 -0.031995278 -0.055473585 0.022752328 -0.097951606
-0.053249072 -0.04835132 0.03119193 0.0058646007 0.031527217 -0.024852406 0.005338672 0.019494051
0.018446676 0.005262426 -0.034593996 0.06683332 -0.027153451 0.01496267 -0.004637466 -0.048437793
0.00015295878 0.041012004 -0.017423656 0.039389566 0.024663726 0.046158154 0.018088683 0.0024824217
0.005830242 0.019210689 0.030364618 -0.02004981 0.015814088 -0.01842571 -0.018129218 -0.0032452976
0.031746678 0.018117176 -0.008568365 0.008829105 0.025336796 -0.006048889 -0.029447434 0.013205363
0.07058563 -0.029111769 0.025691817 0.0024580103 0.034706254 -0.01725534 -0.06286767 -0.009013245
-0.0086145485 0.009877415 -0.05920409 -0.045580946 -0.015967775 0.003606043 -0.015497611 -0.0048453542
0.022723166 0.0041594775 -0.019033689 0.016144149 -0.016492039 0.031842522 0.03375107 0.024438601
0.024072917 0.07365276 -0.044445027 0.02280513 0.016013118 -0.05765548 0.016191185 0.051022876
-0.023024041 0.014366462 -0.0010323618 0.023866884 -0.03871385 0.033554453 -0.028887898 0.06312013
-0.017998528 0.051630735 0.06180845 -0.018665131 -0.010837212 -0.018525722 -0.042486936 0.0026320487
0.021917526 0.045758657 0.031372454 0.02839525 0.034164578 0.043772236 -0.015880961 0.06308693
-0.00951015 0.044266272 -0.01538759 -0.019849934 -0.03252918 -0.037529286 -0.011051924 -0.012734179
0.0027796202 -0.007504056 0.06673744 -0.0027521555 -0.009134143 0.030505782 -0.07139136 0.007760283
0.023408275 0.0027539744 0.0012583056 -0.013334733 0.047995392 0.029387746 0.032565013 -0.017111577
00000000: 74e8 233d e47f 363c e8a2 1b3b 983a 09bd
00000010: 1bc4 243d eba3 c03c 6ba9 453c 16a3 023d
00000020: 4e25 02bd 105e a6bb dde1 80bd e657 0dba
00000030: 3e1c a53b 4f5d 1f3d 56cf 583d 735b 913c
00000040: 43a9 0bbd 3a28 803d a06e 333d b896 f43c
00000050: a204 103d 9a4b c03c 3d8a 23bd 291a 92bc
00000060: a24c dcbc 9442 af3b b096 943c 2468 8ebc
00000070: 38aa 673b 4749 793d 6486 00bd 4622 83bc
00000080: 528b 833d f115 af3c 5ba8 193d 523a 8dbb
00000090: 1a9c a23c b6a2 12bc 9520 ddbb 890c 7b3d
000000a0: 61d2 13bc 8a01 07bc d631 5fbd e483 b8bc
000000b0: 3b35 54bd ed6d 4ebc 52c6 babc c379 b93c
000000c0: d9b1 373d a93e 64bc 65ab 21bd 7c2d 11bd
000000d0: 22c6 b13c 8cbe 263c c0c3 8a36 92cc 6e3d
000000e0: 06ae ddbc 0b6a 2b3b 8787 bc3c 6c55 c13c
000000f0: 1b4c 6c3c 8476 7abc 316b 193d 6e58 fd3b
00000100: 6f72 0bbd aad7 24bd d9ee 2d3d 5b68 b73d
00000110: eb3e 623d 710f 1f3d 56a8 8ebc d68f 99bc
00000120: a8e7 84bc ef64 9abc 711a a03c 92ae 9bbd
00000130: d9ba 4e3c a3ac 393b 91a2 35bc 82c0 cb3c
00000140: 23ce 15bd 5d89 2f3d 5295 c6bc d41a bebc
00000150: f083 63bd d824 59bc 3ddf 40bc 9225 dbba
00000160: a1cf 81bc 1b2f 0abc 4c4c 5dbd 1673 1bbc
00000170: 147d 503c e70c 783d 0f56 d8bc f088 833c
00000180: f086 99bc 8c08 9039 75cc 073c af7d 103d
00000190: e933 92bc 037b 9a3c 5847 813a 7647 203d
000001a0: 3269 883c f335 8a3d 15db 90bc df14 93bc
000001b0: ea3b 35bd db55 04bd ab6f 0c3c c133 4abc
000001c0: 2270 1f3d 5a3c 05bd 1e34 efba 3683 a13c
000001d0: ac87 6ebb 7a80 eb3c cfa2 04bc 97af 2dbd
000001e0: 3cf2 d9bc d43f a43c 67b3 9ebc 6cec b2bc
000001f0: c18b 553c 3659 373b fc51 1dbd 277a 79bd
00000200: 6d51 f8bb 0000 4e3d f814 0fbd 622e 9bbc
00000210: 7b0d 03bd 4538 63bd 1763 ba3c da9a c8bd
00000220: b31b 5abd 090c 46bd 3886 ff3c d62b c03b
00000230: af22 013d 4697 cbbc 07f0 ae3b fdb1 9f3c
00000240: 7c1d 973c 6e70 ac3b 6fb2 0dbd e8df 883d
00000250: ea70 debc fd25 753c e2f5 97bb b566 46bd
00000260: 8f63 2039 34fc 273d 0ebc 8ebc f456 213d
00000270: 950b ca3c 5510 3d3d b82e 943c 20b0 223b
00000280: 9d0b bf3b bc5f 9d3c 38bf f83c 803f a4bc
00000290: 8c8c 813c 84f1 96bc ba83 94bc 0faf 54bb
000002a0: ce08 023d 796a 943c 5462 0cbc f3a7 103c
000002b0: 1d8f cf3c c235 c6bb bf3b f1bc 4f5b 583c
000002c0: 338f 903d ce7b eebc a577 d23c 9216 213b
000002d0: 2528 0e3d 125b 8dbc c4c0 80bd 4aac 13bc
000002e0: 0924 0dbc e2d4 213c fd7f 72bd 16b3 3abd
000002f0: dace 82bc 5d53 6c3b b1e9 7dbc c7c5 9ebb
00000300: ef25 ba3c 3a4c 883b 8aec 9bbc bc40 843c
00000310: 501a 87bc 4e6d 023d 903e 0a3d 7633 c83c
00000320: 9134 c53c 42d7 963d fd0b 36bd d3d1 ba3c
00000330: f12d 833c 2728 6cbd 60a3 843c 5dfd 503d
00000340: ea9c bcbc 4f61 6b3c 5050 87ba 7c84 c33c
00000350: 6a92 1ebd 6570 093d 50a6 ecbc 2045 813d
00000360: a671 93bc c07a 533d db2a 7d3d 9ee7 98bc
00000370: 908e 31bc 41c3 97bc c806 2ebd 737e 2c3b
00000380: 628c b33c 6e6d 3b3d 6780 003d 289d e83c
00000390: 28f0 0b3d 844a 333d ca18 82bc b833 813d
000003a0: 76d0 1bbc 8d50 353d 3b1c 7cbc 549c a2bc
000003b0: 513d 05bd 4fb8 19bd 2113 35bc 05a3 50bc
000003c0: 4a2a 363b 96e4 f5bb a4ad 883d 825d 34bb
000003d0: 5fa7 15bc 43e7 f93c a235 92bd f949 fe3b
000003e0: b6c2 bf3c 067c 343b bbed a43a ed79 5abc
000003f0: d196 443d 92be f03c e462 053d 942d 8cbc

network_body.observation_encoder.x_self_encoder.seq_layers.0.bias f4 [128]
0.0068757934 0.0010496742 0.0016759528 0.00284125 0.010764757 -0.0016567744 -0.0015013828 0.0016800285
0.00048507864 0.010260879 0.0027075629 -0.0020566792 -0.0063407226 -0.0037193964 0.009752959 0.013861788
0.012244761 -0.0072814687 -0.0073614535 -0.0048628384 -0.009196563 -0.010482094 -0.011310157 0.0040896297
0.004551616 -0.006270008 0.006682865 -0.004821706 0.008410515 -0.002536015 -0.011727692 0.0044549317
-0.0018675628 -0.0072587803 0.009549416 0.0035966213 0.0011184496 0.011821553 0.0054455283 0.012608791
0.0012446713 -0.011064519 0.0083008045 0.0029379295 0.0054423376 0.0119547015 -0.010214631 -0.0031932464
0.008293014 0.009142618 0.0020169592 0.011680774 -0.00041124324 -0.0050239214 0.008149843 -0.004839835
-0.0009499175 0.0065966095 0.008051541 -0.008692385 0.0064936522 -0.009156602 0.0060163634 0.013385565
0.012068488 -0.009861988 0.007545141 -0.0111270975 0.009192092 -0.0046101403 -0.010119516 0.011743277
-0.0023945393 -0.0030117605 -0.0057857004 -0.011232825 -0.006561931 -0.007268646 -0.0011868018 0.011142872
-0.0031756924 0.0003362084 0.0070102634 -0.008266837 -0.010481625 -0.00979591 0.0004884428 0.006761404
-0.009157042 0.0032277305 0.0011032237 -0.0024822187 -0.002431392 0.00032119016 0.0021850367 -0.010338079
0.002438238 -0.000987964 0.00041338554 -0.011262892 0.0059766667 0.001304323 -0.003661383 -0.0057647047
-0.00828452 0.009924722 0.0034126993 0.012119988 0.0038478493 0.0023385643 0.0022220288 0.0013423489
0.008900907 -0.005571441 -0.0034485657 -0.011926076 -0.0077449786 -0.004675459 -0.0020916522 0.004489768
0.0059284884 -0.0056996588 0.0010033704 0.011126208 -0.001969531 0.010372201 0.0084705595 0.010563097
00000000: 564e e13b 3995 893a a5ab db3a 4434 3a3b
00000010: aa5e 303c 2028 d9ba 0cca c4ba 6734 dc3a
00000020: 2752 fe39 3f1d 283c 5e71 313b 5ac9 06bb
00000030: d6c5 cfbb 1ec1 73bb e0ca 1f3c 8e1c 633c
00000040: 409e 483c 6399 eebb 5938 f1bb 7258 9fbb
00000050: 2ead 16bc 17bd 2bbc 3d4e 39bc 4d02 863b
00000060: b925 953b a474 cdbb effb da3b 67ff 9dbb
00000070: 42cc 093c 4533 26bb 8125 40bc adfa 913b
00000080: 02c9 f4ba 10db edbb 2775 1c3c 4bb5 6b3b
00000090: f198 923a 30af 413c 6770 b23b 1a95 4e3c
000000a0: 3d24 a33a f547 35bc 1900 083c 478a 403b
000000b0: a355 b23b a7dd 433c 455b 27bc c945 51bb
000000c0: 6cdf 073c ebca 153c f62e 043b b860 3f3c
000000d0: 229c d7b9 b59f a4bb eb86 053c 7b97 9ebb
000000e0: e203 79ba 5f28 d83b 9cea 033c 816a 0ebc
000000f0: b4c8 d43b 9305 16bc ea24 c53b 214f 5b3c
00000100: e8ba 453c 2d94 21bc 3b3d f73b 6e4e 36bc
00000110: 6e9a 163c a910 97bb 54cc 25bc e066 403c
00000120: b4ed 1cbb f560 45bb f995 bdbb e209 38bc
00000130: 7805 d7bb d22d eebb 768e 9bba 9890 363c
00000140: 471f 50bb 2145 b039 5ab6 e53b a171 07bc
00000150: 1fbb 2bbc 067f 20bc d70a 003a c58e dd3b
00000160: 6b07 16bc 5588 533b 0b9a 903a b8ac 22bb
00000170: fd57 1fbb 6a65 a839 d532 0f3b 0c61 29bc
00000180: d8ca 1f3b 927e 81ba abbb d839 fe87 38bc
00000190: ead7 c33b d1f5 aa3a d0f3 6fbb d9e5 bcbb
000001a0: ccbb 07bc 4d9b 223c 98a7 5f3b ea92 463c
000001b0: 332c 7c3b 9942 193b 759f 113b c1f1 af3a
000001c0: 1cd5 113c a290 b6bb 5501 62bb 9765 43bc
000001d0: 97c9 fdbb 9834 99bb 1a14 09bb e71e 933b
000001e0: c443 c23b 34c4 babb 8683 833a b34a 363c
000001f0: 3f13 01bb 2af0 293c 1ac8 0a3c d710 2d3c

network_body._body_endoder.seq_layers.0.weight f4 [128, 132]
-0.15929689 0.05192017 -0.102934554 0.0054107006 -0.020385502 -0.07771511 0.08384204 0.0005538925
0.107927956 0.008207684 -0.12813383 0.04228837 0.1423101 -0.1074931 -0.029960025 -0.042768545
0.13790052 -0.11428876 0.14094408 0.11753735 -0.019170828 -0.0030806053 -0.011633757 -0.022341045
-0.08263794 0.04149823 0.07253627 0.003814192 0.017437175 0.19636422 -0.08192088 -0.09564628
-0.08112182 -0.07286763 -0.059378237 -0.093368344 0.0208229 0.013759638 -0.08388993 -0.057469487
0.21573436 0.10999382 0.10242099 0.0046914257 0.12220619 -0.067998305 0.19825605 0.19182171
0.0033037101 0.02234254 0.08214893 0.09182759 0.17560661 0.027395118 0.097145885 -0.15003246
-0.08086452 0.0812116 0.042425673 -0.009077493 -0.032037012 -0.06273618 0.102652766 0.0018985987
0.05331426 -0.026921334 0.0462504 0.012492263 -0.04418959 -0.048125807 -0.104841284 0.024369158
0.018370507 -0.03373844 -0.13952526 -0.12548399 -0.041804854 -0.034232475 0.11671503 -0.11104568
0.07197568 -0.007906971 -0.082403585 0.023021646 0.0702425 -0.14169152 0.10693502 0.2537016
-0.18860713 -0.10421562 0.1281052 0.03136056 -0.06824794 0.15890405 0.10792704 -0.106821775
-0.047348194 -0.12476506 0.13389085 -0.1010297 0.14586341 0.14248051 -0.2093569 -0.061102413
-0.13325351 0.12540537 -0.019728864 0.023935935 0.02951015 0.1493496 0.106240794 -0.0615963
-0.10060248 -0.018928748 0.01347512 0.10506741 -0.08491297 -0.012288271 0.12874058 0.00072055886
0.068767145 -0.006334881 0.02228331 -0.08549023 -0.016660243 -0.02141126 0.16706082 -0.024184275
0.12545124 0.108947195 -0.011953557 -0.05395923 -0.031280227 -0.24149188 0.0017344429 0.057150487
-0.03888624 -0.10190034 0.19014904 -0.14183335 0.02032932 -0.039626144 0.04000002 -0.047874738
0.025015568 -0.09024451 -0.0588235 0.01476132 -0.085682675 -0.075148396 -0.00086702075 -0.035238113
0.015155027 -0.021943957 0.06788362 0.18695095 0.120518886 0.017973503 -0.052097056 -0.08305891
-0.019571597 -0.13969523 -0.20397288 -0.111067824 0.013665631 -0.09354798 -0.03836413 0.0069291308
0.13013063 -0.04718654 0.11493402 -0.04688711 0.19749534 0.11650808 -0.14916237 -0.23135215
0.03423643 -0.084162384 0.008166836 0.023548173 -0.03235194 -0.043846566 -0.012200091 -0.14337184
0.081336714 0.04093873 -0.014467701 0.019361582 0.049854826 -0.059648655 0.045176107 0.10630919
-0.08120545 0.15310638 -0.11015662 0.032268956 -0.030124629 0.04770484 -0.02406229 0.026483525
0.043663003 0.095874555 0.092140295 -0.03116404 0.07191139 -0.16754265 0.06992642 -0.0379941
-0.064628154 -0.18295449 -0.029521864 0.08887346 -0.031225648 0.12334212 -0.076551266 -0.0065334886
-0.054483905 0.040855933 -0.1040107 -0.012565283 0.06078466 0.09659719 -0.12455383 -0.07021784
-0.075592995 0.10525542 -0.03462391 -0.1498652 0.056480218 -0.046242 0.16112995 0.06795665
0.014402473 0.1713355 0.091209106 -0.092976406 0.08488852 -0.1120177 0.10913897 0.004233028
-0.120475866 0.027129594 0.18385854 -0.012717242 -0.062269162 -0.01674401 0.008870216 -0.0015688586
-0.03377959 -0.020348884 -0.031999715 -0.0056026396 0.027022518 -0.009687329 -0.047424115 0.15900545
00000000: b91e 23be 3faa 543d 5acf d2bd 3f4c b13b
00000010: 7fff a6bc 1929 9fbd 60b5 ab3d 1933 113a
00000020: 5509 dd3d 8679 063c 8435 03be 9236 2d3d
00000030: bdb9 113e 5825 dcbd ba6e f5bc 122e 2fbd
00000040: cb35 0d3e 3a10 eabd a553 103e 6cb7 f03d
00000050: 240c 9dbc fbe3 49bb 839b 3ebc 9104 b7bc
00000060: 153e a9bd 0cfa 293d e58d 943d 86f7 793b
00000070: 68d8 8e3c b413 493e 22c6 a7bd 32e2 c3bd
00000080: 3223 a6bd a03b 95bd 9836 73bd e737 bfbd
00000090: c994 aa3c 1b70 613c 7cce abbd 2065 6bbd
000000a0: 78e9 5c3e 7144 e13d 19c2 d13d 88ba 993b
000000b0: 3d47 fa3d b242 8bbd a203 4b3e e96c 443e
000000c0: 0f83 583b b407 b73c b33d a83d 1a10 bc3d
000000d0: 38d2 333e ba6b e03c 6cf4 c63d 1ca2 19be
000000e0: 4c9c a5bd 4452 a63d 8bc6 2d3d c4b9 14bc
000000f0: 3e39 03bd d47b 80bd 9d3b d23d 67da f83a
00000100: 0e60 5a3d 218a dcbc 0f71 3d3d 59ac 4c3c
00000110: 2500 35bd 911f 45bd 07b7 d6bd d4a1 c73c
00000120: bf7d 963c 5231 0abd b6df 0ebe e07e 00be
00000130: 913b 2bbd 5a37 0cbd 4a08 ef3d eb6b e3bd
00000140: fc67 933d 3d8c 01bc 36c3 a8bd e497 bc3c
00000150: 4ddb 8f3d 9517 11be bf00 db3d 2de5 813e
00000160: 3a22 41be 006f d5bd 022e 033e ee73 003d
00000170: 93c5 8bbd beb7 223e da08 dd3d 60c5 dabd
00000180: 2ef0 41bd d384 ffbd af1a 093e a9e8 cebd
00000190: 385d 153e 69e6 113e a861 56be 8646 7abd
000001a0: 9c73 08be 446a 003e 6d9e a1bc 4b15 c43c
000001b0: 45bf f13c 1aef 183e c694 d93d 674c 7cbd
000001c0: ac08 cebd 7610 9bbc c0c6 5c3c 952d d73d
000001d0: dae6 adbd bf54 49bc 92d4 033e e3e3 3c3a
000001e0: cad5 8c3d d594 cfbb 7d8b b63c 8015 afbd
000001f0: 107b 88bc ab66 afbc fe11 2b3e 1a1e c6bc
00000200: 4a76 003e b51f df3d dad8 43bc 5b04 5dbd
00000210: b21f 00bd a649 77be 3f56 e33a a116 6a3d
00000220: 2e47 1fbd 20b1 d0bd 6eb6 423e c33c 11be
00000230: ad89 a63c 064f 22bd 10d7 233d 4d18 44bd
00000240: 73ed cc3c 1dd2 b8bd e9f0 70bd 77d9 713c
00000250: 667a afbd 67e7 99bd c748 63ba d755 10bd
00000260: ca4c 783c d0c3 b3bc 9106 8b3d 1270 3f3e
00000270: 9bd2 f63d 2b3d 933c b963 55bd ca1a aabd
00000280: 9d54 a0bc 440c 0fbe 44de 50be 8777 e3bd
00000290: d0e5 5f3c 1596 bfbd b523 1dbd c30d e33b
000002a0: f740 053e ac46 41bd 8762 eb3d b30c 40bd
000002b0: 383c 4a3e ca9b ee3d 05be 18be 94e7 6cbe
000002c0: 803b 0c3d 545d acbd 31ce 053c 19e8 c03c
000002d0: 7883 04bd 7598 33bd e4e2 47bc 11d0 12be
000002e0: dd93 a63d 5faf 273d f009 6dbc 2e9c 9e3c
000002f0: 9334 4c3d 2652 74bd 950a 393d a2b8 d93d
00000300: 0b4f a6bd ebc7 1c3e cb99 e1bd 742c 043d
00000310: edc7 f6bc 2666 433d 481e c5bc faf3 d83c
00000320: fad7 323d e159 c43d 0db4 bc3d bb4b ffbc
00000330: 4746 933d 4d90 2bbe 9535 8f3d b49f 1bbd
00000340: c45b 84bd 6c58 3bbe d6d7 f1bc 4a03 b63d
00000350: eecc ffbc cb9a fc3d e9c6 9cbd e016 d6bb
00000360: 842a 5fbd 8d58 273d 9003 d5bd 9ede 4dbc
00000370: 56f9 783d bfd4 c53d 1416 ffbd 5fce 8fbd
00000380: 80d0 9abd 2790 d73d cdd1 0dbd 4376 19be
00000390: cd57 673d 4068 3dbd 40ff 243e db2c 8b3d
000003a0: 5af8 6b3c 9372 2f3e d7cb ba3d 6a6a bebd
000003b0: 08da ad3d 8969 e5bd 4184 df3d 36b5 8a3b
000003c0: 0dbc f6bd e23e de3c 6a45 3c3e fb5b 50bc
000003d0: f30d 7fbd bc2a 89bc 6254 113c 29a2 cdba
000003e0: 785c 0abd b4b2 a6bc 2212 03bd 5996 b7bb
000003f0: 545e dd3c 9ab7 1ebc ca3f 42bd 53d2 223e

network_body._body_endoder.seq_layers.0.bias f4 [128]
-0.011338314 -0.00094691373 -0.00032637472 -0.0077183223 -0.0008892948 0.012135805 0.011045324 0.012644739
0.013383848 -0.013985161 0.011141736 0.0094190715 0.0074089533 0.005334191 0.0060278345 -0.0060413457
0.015033744 -0.0086027 0.014073767 -0.007152589 0.008954389 0.01050802 0.014411832 0.004583559
-0.008591626 0.015356524 -0.0074149747 -0.0052513224 -0.0074352575 0.010063548 -0.005429905 0.0015936773
0.011091473 0.012406183 0.005732598 0.0064529045 0.0062193265 0.002560899 -0.001993148 -0.003979829
0.003314188 0.0030857683 -0.0011616179 0.016792748 -0.012296659 0.00032556575 0.00018650615 0.005451283
0.014303312 -0.005254777 -0.008839035 -0.011316582 0.0014250284 -0.0051207957 -0.008077559 0.0005638087
0.011691268 0.0018177776 0.0056483047 0.011755167 0.0010259626 0.0060557215 -0.009785828 -0.00501619
0.012082796 -0.0049633067 0.0019492821 -0.0077265003 -0.009668501 0.00033611743 -0.007591793 -0.005810483
-0.0076204655 -0.0018041664 0.009822338 0.0018767229 0.0011714571 0.010659064 0.003230503 -0.0062397053
-0.0069674463 -0.004376078 -0.006062611 0.007388407 0.008612534 0.0033850651 -0.00015895208 -0.002636207
-0.009239574 -0.009319252 0.00818954 -0.007649533 0.014943977 0.011039579 0.009736453 0.007881973
0.003695471 -0.0017025768 -0.00855228 0.005849389 0.013282422 -0.0061438824 0.011355107 -0.0064914473
-0.0013374751 0.009230066 -0.0007747325 0.00022690435 0.0127844615 0.00762662 0.003454715 0.0057924553
0.0031145806 -0.0076608304 0.00071835844 0.008310998 -0.0052673714 -0.0021234031 -0.0036492716 -0.0074983826
0.0002196845 0.014945416 -0.0062937667 0.0069391592 0.014633606 0.009289069 0.00087116484 -0.0063701114
00000000: 56c4 39bc 4e3a 78ba 461d abb9 fbe9 fcbb
00000010: 901f 69ba 41d5 463c 72f7 343c e12b 4f3c
00000020: ed47 5b3c 0422 65bc d48b 363c 7352 1a3c
00000030: cec6 f23b 70ca ae3b 2485 c53b 7bf6 c5bb
00000040: 1850 763c 57f2 0cbc a895 663c 4460 eabb
00000050: 6eb5 123c d529 2c3c 9b1f 6c3c ae31 963b
00000060: e4c3 0cbc ee99 7b3c 51f9 f2bb 4913 acbb
00000070: 76a3 f3bb 94e1 243c 58ed b1bb f0e2 d03a
00000080: 02b9 353c 4e43 4b3c 84d8 bb3b e372 d33b
00000090: 7ecb cb3b c1d4 273b 799f 02bb 3a69 82bb
000000a0: d932 593b 9a3a 4a3b 6e41 98ba f290 893c
000000b0: ed77 49bc b2b0 aa39 dd90 4339 ada0 b23b
000000c0: 7058 6a3c 4430 acbb 9ad1 10bc 2f69 39bc
000000d0: 05c8 ba3a 59cc a7bb bd57 04bc 90cc 133a
000000e0: bb8c 3f3c 7f42 ee3a 6a15 b93b be98 403c
000000f0: 9879 863a 136f c63b bd54 20bc da5e a4bb
00000100: ebf6 453c 3ca3 a2bb 0e7f ff3a 952e fdbb
00000110: a268 1ebc eb38 b039 93c4 f8bb dd65 bebb
00000120: 19b5 f9bb c779 ecba dfed 203c 5ffc f53a
00000130: 948b 993a 5ba3 2e3c d9b6 533b 7176 ccbb
00000140: 2d4f e4bb 3465 8fbb dea8 c6bb 731a f23b
00000150: 961b 0d3c f8d7 5d3b 60ac 26b9 37c4 2cbb
00000160: 9561 17bc c7af 18bc 6c2d 063c efa8 fabb
00000170: 95d7 743c 5adf 343c a585 1f3c 6423 013c
00000180: b72f 723b ff28 dfba dd1e 0cbc 3bac bf3b
00000190: 849e 593c 9f52 c9bb c50a 3a3c 35b6 d4bb
000001a0: 384e afba b439 173c 6b17 4bba 2ced 6d39
000001b0: eb75 513c bae8 f93b 8068 623b a3ce bd3b
000001c0: fe1d 4c3b b407 fbbb 3850 3c3a da2a 083c
000001d0: ea99 acbb cb28 0bbb 9e28 6fbb feb4 f5bb
000001e0: 1c5b 6639 9edd 743c f13b cebb e361 e33b
000001f0: cbc1 6f3c 2e31 183c e25e 643a 5ebc d0bb

network_body._body_endoder.seq_layers.2.weight f4 [128, 128]
-0.045581464 0.23367175 0.19063689 0.05727847 0.27655268 0.0264411 -0.1549061 -0.10819978
-0.03823684 0.014136954 -0.0686059 -0.0938625 0.24989146 -0.24129078 -0.075249724 -0.032991383
-0.17008343 0.14411238 0.112510264 0.10782431 0.015350392 -0.078762546 -0.098456115 -0.05906871
0.10871894 -0.061717067 -0.0792177 -0.059075452 0.065725334 0.011872291 -0.041874226 0.045549314
0.050224416 -0.14186352 -0.07457088 -0.010669779 -0.027573464 0.0011123277 -0.0019381832 -0.0790737
-0.10798177 0.047945436 0.004208832 -0.06669735 0.17890972 0.032068428 0.041451592 0.09896055
-0.046767734 0.13426468 0.0133414315 0.08315823 0.021316716 0.0033933788 -0.021555929 -0.037862297
-0.009925149 0.07299411 -0.022857985 -0.053862512 -0.022503369 0.02280935 -0.04114873 -0.11198907
-0.021853002 0.105827175 -0.05322297 0.0729569 -0.012679896 -0.042173956 -0.18615223 0.007344617
-0.033834662 0.020511527 0.020910928 0.08717923 -0.02633771 -0.1337298 -0.13830154 -0.0854583
-0.1554462 -0.07028672 -0.017387247 -0.15458845 0.08411635 -0.14292508 0.010125201 0.09865355
0.084550776 0.0487712 0.23401119 -0.10634583 0.06825279 -0.013159227 -0.065202706 -0.20264968
-0.0333927 0.025081238 -0.17360383 0.1312223 0.18969055 -0.045042913 0.07591236 0.039762016
0.089025244 0.00715108 -0.11278367 -0.12839025 -0.025350865 0.10586847 0.018637586 0.029371317
0.072422996 0.005746885 0.069203615 -0.051567405 0.03345866 -0.11198319 0.016747154 0.09028926
-0.083725065 0.017085752 0.042129833 -0.032915473 -0.009910888 -0.04409902 0.024824787 -0.09008636
0.02956294 0.033291675 0.09645625 0.113324285 0.034237936 0.039928913 -0.116961524 -0.08101976
0.027665306 0.010380883 0.03584675 -0.053837165 -0.041375134 0.10939328 -0.0904018 0.09543229
0.05732134 0.092884235 -0.057736486 0.06963624 -0.02302668 -0.09070911 0.08592558 -0.018458532
0.1869187 0.08624908 -0.013260174 0.089485005 -0.0973591 -0.099902876 -0.01262664 0.107738174
0.048505694 -0.13508561 0.03361181 -0.117348254 -0.045744605 0.13750513 0.055071108 0.09739243
0.04541067 -0.016140988 0.022282273 0.037649166 0.053290796 -0.15687367 -0.05803942 -0.031376995
0.071611814 -0.08388482 -0.060581002 -0.10481273 0.10503684 -0.05052011 -0.044133164 0.065683976
-0.098261215 0.023044182 0.079917446 0.02146361 0.048094302 -0.05385241 0.15634985 0.07677398
0.020864977 -0.2308308 0.04870233 0.03265164 0.073268496 -0.0947262 -0.05917916 0.09257022
0.09272004 -0.09998042 -0.026915677 -0.030639635 0.12975608 -0.05931535 0.11730008 0.183719
-0.051864702 -0.008005551 -0.07821877 0.068502255 -0.09184219 0.050256606 -0.013276589 -0.031471454
0.056089595 -0.03518127 -0.09358766 -0.07647012 0.040816482 -0.07280288 -0.0019760376 0.00603462
-0.005052287 -0.11345958 -0.10285125 0.08308376 -0.112282105 0.052404102 -0.06257203 -0.044865496
-0.008490499 -0.024321117 -0.006717909 0.066889636 0.0010014261 -0.03554268 -0.011508007 0.0455529
0.049650315 0.05127764 0.10680432 -0.021631133 0.03614994 0.14628841 0.03312464 0.021545965
0.00017087856 0.039160255 0.0003348968 -0.0036469966 0.05183723 0.07195148 0.017490085 -0.008799019
00000000: a1b3 3abd a647 6f3e 5136 433e d49c 6a3d
00000010: 5098 8d3e 019b d83c b49f 1ebe d997 ddbd
00000020: 3c9e 1cbd af9e 673c 4081 8cbd fb3a c0bd
00000030: 8ce3 7f3e ee14 77be 871c 9abd f921 07bd
00000040: 5a2a 2ebe 3292 133e c86b e63d fed2 dc3d
00000050: 3680 7b3c 424e a1bd 5ca3 c9bd 08f2 71bd
00000060: 09a8 de3d 09cb 7cbd e43c a2bd 1af9 71bd
00000070: 019b 863d ff83 423c 4f84 2bbd eb91 3a3d
00000080: 1eb8 4d3d ac44 11be 9eb8 98bd 4cd0 2ebc
00000090: bfe1 e1bc 86cb 913a a30a feba 64f1 a1bd
000000a0: 8c25 ddbd 6f62 443d 3eea 893b 9f98 88bd
000000b0: 1c34 373e 2f5a 033d 25c9 293d d4ab ca3d
000000c0: 868f 3fbd ae7c 093e 0596 5a3c dd4e aa3d
000000d0: 65a0 ae3c 7363 5e3b 0f96 b0bc 7f15 1bbd
000000e0: 189d 22bc f07d 953d ab40 bbbc f09e 5cbd
000000f0: fc58 b8bc adda ba3c 928b 28bd 875a e5bd
00000100: 1105 b3bc ebbb d83d 5400 5abd 6d6a 953d
00000110: 57bf 4fbc 99be 2cbd b19e 3ebe 1dab f03b
00000120: 3796 0abd ca07 a83c 654d ab3c 068b b23d
00000130: 2ec2 d7bc 77f0 08be eb9e 0dbe c304 afbd
00000140: 4a2d 1fbe 7cf2 8fbd b36f 8ebc 6f4c 1ebe
00000150: 3145 ac3d f45a 12be 2ce4 253c df0a ca3d
00000160: f528 ad3d 4fc4 473d a1a0 6f3e d8cb d9bd
00000170: 1ec8 8b3d cc99 57bc ff88 85bd 6683 4fbe
00000180: c9c6 08bd 2b77 cd3c 34c5 31be 235f 063e
00000190: 3d3e 423e eb7e 38bd f077 9b3d 7fdd 223d
000001a0: de52 b63d 9b53 ea3b 20fb e6bd bc78 03be
000001b0: 9eac cfbc 92d1 d83d daad 983c 1e9c f03c
000001c0: 8252 943d 5e50 bc3b a0ba 8d3d 5838 53bd
000001d0: f30b 093d 7157 e5bd 5431 893c 93e9 b83d
000001e0: 0c78 abbd 6bf7 8b3c 5590 2c3d 60d2 06bd
000001f0: 4761 22bc 2da1 34bd 5a5d cb3c 337f b8bd
00000200: fb2d f23c da5c 083d db8a c53d 9016 e83d
00000210: 143d 0c3d 808c 233d 8689 efbd b0ed a5bd
00000220: 5aa2 e23c 9414 2a3c 0bd4 123d 5c84 5cbd
00000230: f978 29bd 9609 e03d 9424 b9bd 0172 c33d
00000240: c8c9 6a3d 173a be3d 187d 6cbd 729d 8e3d
00000250: 73a2 bcbc b3c5 b9bd c0f9 af3d 5936 97bc
00000260: 9e67 3f3e 5ca3 b03d 3341 59bc ea43 b73d
00000270: 3564 c7bd e199 ccbd f7df 4ebc d5a5 dc3d
00000280: e8ad 463d e253 0abe 8aac 093d 4854 f0bd
00000290: b25e 3bbd 25ce 0c3e 3e92 613d af75 c73d
000002a0: 8a00 3a3d 1b3a 84bc 5089 b63c 0336 1a3d
000002b0: 7347 5a3d 7ea3 20be beba 6dbd 2a85 00bd
000002c0: 37a9 923d cecb abbd c923 78bd 0ea8 d6bd
000002d0: 8e1d d73d 2dee 4ebd fac4 34bd 5285 863d
000002e0: 2d3d c9bd 27c7 bc3c c2ab a33d 74d4 af3c
000002f0: 88fe 443d 5894 5cbd 2d1a 203e ad3b 9d3d
00000300: 07ed aa3c e95e 6cbe 187c 473d babd 053d
00000310: cb0d 963d cfff c1bd d965 72bd 7595 bd3d
00000320: 01e4 bd3d 89c2 ccbd 447e dcbc f9ff fabc
00000330: c7de 043e a7f4 72bd 063b f03d d520 3c3e
00000340: 1570 54bd b729 03bc 2a31 a0bd e94a 8c3d
00000350: c217 bcbd dfd9 4d3d 0d86 59bc 36e8 00bd
00000360: 34be 653d 3c1a 10bd e3aa bfbd 5e9c 9cbd
00000370: 2f2f 273d ad19 95bd 6980 01bb 10be c53b
00000380: a88d a5bb 7f5d e8bd ada3 d2bd d227 aa3d
00000390: 29f4 e5bd afa5 563d c425 80bd e2c4 37bd
000003a0: bc1b 0bbc 143d c7bc e821 dcbb 6ffd 883d
000003b0: 4942 833a 3495 11bd 148c 3cbc ad95 3a3d
000003c0: 215e 4b3d 8108 523d 39bc da3d c633 b1bc
000003d0: f611 143d a1cc 153e b4ad 073d 2a81 b03c
000003e0: dd2d 3339 8166 203d 1695 af39 7302 6fbb
000003f0: 4653 543d 4c5b 933d 5e47 8f3c c329 10bc

network_body._body_endoder.seq_layers.2.bias f4 [128]
0.0025658873 -0.005134196 -0.0033308263 -0.009515555 0.014158449 -0.0057345377 0.0018218973 -0.008388963
-0.0008917041 0.014751251 0.010104321 -0.0021445968 0.012017517 -0.0043137036 0.009225497 0.009663717
0.003516782 -0.004609737 0.0028371091 -0.0066565126 0.0048487172 0.009794352 0.008497503 0.0037324359
-0.0034526663 0.002742394 -0.0010483458 0.00053184654 0.01087013 0.011572655 0.010406921 0.0049572606
0.011297685 -0.0030613793 0.0027599658 -0.0045352113 0.011547184 0.0059233326 0.0023981878 0.0030620291
0.0014501283 0.0041338983 0.0050182072 0.008084481 0.007827017 0.011179546 -0.0048291287 0.004092109
0.010335971 -0.005108814 0.004371871 -0.003333354 0.0067908545 0.0047356724 -0.007750643 -0.004183172
-0.0050685396 0.00694232 0.0052162735 0.00082012644 0.00027518862 -0.004077335 0.010233242 -0.001987388
-0.009733319 -0.00029688518 -0.0049278475 0.010693992 -0.0076874793 -0.0048975563 0.00072494475 0.008823139
-0.0018972852 -0.0026657986 -0.010963615 0.008285339 0.012980617 0.014018442 0.006628707 0.007735009
-0.0081608 0.0131965745 -0.0032305394 -0.0018807426 -0.011742987 0.006314446 0.011677032 -0.0072042285
-0.0018869594 0.005524319 0.0075795306 -0.0058224653 0.00982197 0.011476823 0.011145317 0.008805255
0.0043270946 -0.008572569 -0.0066737 0.0006582993 0.013513545 0.0037467445 0.0042209406 -0.005452073
0.007003713 0.009354579 0.0019849527 0.007465873 0.0047794473 -0.0057176785 -0.0068315077 0.002757355
0.0063961255 0.0065920525 0.012089937 0.0050619566 0.0005951791 0.0060350527 0.0051946295 -0.0022959874
0.0071078893 0.010037828 0.006875908 -0.0057983594 -0.013265018 0.009718579 0.012137157 -6.6957466e-05
00000000: 7228 283b c23c a8bb fe49 5abb 21e7 1bbc
00000010: d7f8 673c cae8 bbbb bbcc ee3a dc71 09bc
00000020: 40c1 69ba 3baf 713c 988c 253c 5d8c 0cbb
00000030: 1fe5 443c f859 8dbb 8a26 173c 9154 1e3c
00000040: d079 663b 470d 97bb cbee 393b e01e dabb
00000050: fde1 9e3b 7d78 203c 1c39 0b3c e29b 743b
00000060: 2146 62bb bdb9 333b a668 89ba 9e6b 0b3a
00000070: a118 323c 3c9b 3d3c ca81 2a3c 8470 a23b
00000080: ed19 393c 6ca1 48bb 8be0 343b 1c9c 94bb
00000090: 6630 3d3c 8418 c23b ea2a 1d3b 53ac 483b
000000a0: 3b12 be3a a775 873b c66f a43b c574 043c
000000b0: e43c 003c 6a2a 373c ab3d 9ebb 1917 863b
000000c0: 3458 293c d767 a7bb e941 8f3b 6674 5abb
000000d0: d185 de3b b32d 9b3b 1bf9 fdbb fd12 89bb
000000e0: fe15 a6bb 677c e33b 46ed aa3b c1fd 563a
000000f0: 3147 9039 2a9b 85bb 54a9 273c d63e 02bb
00000100: 8078 1fbc 41a7 9bb9 c879 a1bb da35 2f3c
00000110: 40e7 fbbb ae7b a0bb 380a 3e3a ed8e 103c
00000120: 54ae f8ba aeb4 2ebb bca0 33bc 3bbf 073c
00000130: a7ac 543c 9bad 653c a035 d93b f575 fd3b
00000140: e0b4 05bc 7236 583c 75b7 53bb 4083 f6ba
00000150: a865 40bc 6ae9 ce3b 0651 3f3c 7311 ecbb
00000160: da53 f7ba 5905 b53b b65d f83b 61ca bebb
00000170: 54ec 203c 4909 3c3c d99a 363c eb43 103c
00000180: 4dca 8d3b f673 0cbc 0eaf dabb b891 2c3a
00000190: ea67 5d3c f18b 753b d14f 8a3b 4ea7 b2bb
000001a0: 677f e53b f343 193c fb15 023b 48a4 f43b
000001b0: e99c 9c3b 5d5b bbbb d7da dfbb beb4 343b
000001c0: 9796 d13b 2502 d83b df14 463c c5de a53b
000001d0: cb05 1c3a b1c1 c53b b637 aa3b 4778 16bb
000001e0: 4ce9 e83b b475 243c 4c4f e13b 2a00 bebb
000001f0: 8555 59bc ad3a 1f3c edda 463c 846b 8cb8
