results/new_test_run_14/simple_deer.onnx (onnx, 485125 bytes, 22 tensors)

network_body.observation_encoder.processors.0.self_ent_encoder.seq_layers.0.bias f4 [128]
00000000: fc5e cc3c 5ae6 5c3b 01b1 bdbc 8b23 a33c
00000010: 4358 dd3c 5428 26ba a69f e2b9 ad66 2f3c
00000020: a5cf 43bc 81ba 0e3c eaea a0bb 8633 223c
00000030: 65da 023d e2b3 9c3b e3af 7dbc 2923 22ba
00000040: 2405 e6ba d24a a33b ce13 25bb 886a 0dbb
00000050: 5436 5f3c 08ea 053c 76bb 453c 0644 b03b
00000060: eb06 ae3c 6b71 c33c c0f2 acbc 05a6 bebc
00000070: 60d4 97b9 ef21 033d eba6 4c3c ce7a 3d3c
00000080: 13c2 2bbc a0c5 693b 47fa 7bbc 34f3 7cbc
00000090: dbdf 273c 7c89 09bb cbac 403c 46e3 b83c
000000a0: c664 9d3c d2ca 8a3c 699d ec3b f6c8 48bc
000000b0: f18b 53bc d6b0 8dbc 2a08 13bc 3621 613b
000000c0: e5aa 8bbc 963f a4bc af8b 17bc 2a2f d03c
000000d0: 465c 80bc c514 7ebb 3c12 adbc cc30 75ba
000000e0: 3ae6 e13b 8999 85bb d65c a5bc 7c68 63bb
000000f0: 90dd 99bc 8558 613c 0fda bf3c a104 77bc
00000100: 6a3b b7bc c629 e13c 312a 273c fd83 8bbb
00000110: 68a8 a03c 190c 273c c6c1 af3c 3983 c1bc
00000120: 8ccf 0fba d774 ebbc bf2e a2bc 600a e4bc
00000130: 7c75 d73b f6ce 59bc 0a3c 8abc 8dae 6abc
00000140: 98f2 403b 582b b5ba ea91 8f3c 62e3 cebc
00000150: 1739 eb3c 0c21 59bc ad9e d83b 3fef 513c
00000160: bc2a de3c f71d f73b fe5e 5bbb 5921 2ebc
00000170: d259 a9bc ec1d 443c 718f ffbb d83c 283c
00000180: 631f d43a 47bb 283c 598d acbc 970c 053c
00000190: 063a c93c 27e2 abbc b162 f93c 4db8 553c
000001a0: daf5 84bc f4aa e13c 001e 633c 5954 993c
000001b0: e996 b2bc 7cd0 4cbb 5d76 803c 10ee b4bc
000001c0: ce20 a0ba 80a8 90bc 6301 ed3b 4aa1 233c
000001d0: 7d8b ab3b a863 f93c f932 2639 d89b d839
000001e0: 0bac 10ba 25df 97bb a493 87bb be3d 853c
000001f0: 27dd e93b e3be 713c bd83 b1bb 1151 3dbb
0.024947636 0.0033706636 -0.023155691 0.01991441 0.027019626 -0.0006338407 -0.00043225026 0.010705632
-0.011951362 0.008711458 -0.0049108164 0.009899979 0.03194656 0.004782186 -0.015483829 -0.0006185049
-0.001754914 0.0049832845 -0.0025188806 -0.002157839 0.013623793 0.008173473 0.01206862 0.005379203
0.021243533 0.023857793 -0.021111846 -0.023272524 -0.00028959196 0.032014783 0.012490968 0.011564923
-0.010483283 0.0035670772 -0.015379495 -0.0154388435 0.010246242 -0.0020986488 0.011759947 0.02256931
0.019213092 0.016942415 0.007220913 -0.012254944 -0.012911783 -0.017296236 -0.008974114 0.003435207
-0.017049262 -0.020049851 -0.009249612 0.025413115 -0.015669 -0.0038769704 -0.021126859 -0.00093532796
0.0068939 -0.0040771407 -0.02018587 -0.0034699729 -0.018782407 0.013754015 0.023419408 -0.015076787
-0.022367198 0.02748574 0.01020293 -0.0042576776 0.019611552 0.010195755 0.021454703 -0.023622142
-0.0005485944 -0.028742237 -0.01979768 -0.027836978 0.0065752845 -0.013293972 -0.016874332 -0.014323843
0.0029441472 -0.0013822122 0.017525632 -0.025254909 0.028713746 -0.013252508 0.0066107125 0.012813388
0.027119987 0.007541414 -0.0033473368 -0.010628068 -0.020672712 0.011970025 -0.007799082 0.0102684125
0.001618367 0.010298557 -0.021063494 0.008120677 0.0245638 -0.020981861 0.030442568 0.013044429
-0.016230512 0.027547337 0.013862133 0.018716978 -0.021800475 -0.0031252196 0.01568144 -0.022086173
-0.0012216808 -0.017658472 0.0072328313 0.009987185 0.005235134 0.030443028 0.00015849982 0.00041314843
-0.00055188005 -0.004634755 -0.004137473 0.016264793 0.007136959 0.014754984 -0.0054173158 -0.002888743

network_body.observation_encoder.processors.1.self_ent_encoder.seq_layers.0.bias f4 [128]
00000000: 0000 0000 0000 0000 0000 0000 0000 0000
00000010: 0000 0000 0000 0000 0000 0000 0000 0000
00000020: 0000 0000 0000 0000 0000 0000 0000 0000
00000030: 0000 0000 0000 0000 0000 0000 0000 0000
00000040: 0000 0000 0000 0000 0000 0000 0000 0000
00000050: 0000 0000 0000 0000 0000 0000 0000 0000
00000060: 0000 0000 0000 0000 0000 0000 0000 0000
00000070: 0000 0000 0000 0000 0000 0000 0000 0000
00000080: 0000 0000 0000 0000 0000 0000 0000 0000
00000090: 0000 0000 0000 0000 0000 0000 0000 0000
000000a0: 0000 0000 0000 0000 0000 0000 0000 0000
000000b0: 0000 0000 0000 0000 0000 0000 0000 0000
000000c0: 0000 0000 0000 0000 0000 0000 0000 0000
000000d0: 0000 0000 0000 0000 0000 0000 0000 0000
000000e0: 0000 0000 0000 0000 0000 0000 0000 0000
000000f0: 0000 0000 0000 0000 0000 0000 0000 0000
00000100: 0000 0000 0000 0000 0000 0000 0000 0000
00000110: 0000 0000 0000 0000 0000 0000 0000 0000
00000120: 0000 0000 0000 0000 0000 0000 0000 0000
00000130: 0000 0000 0000 0000 0000 0000 0000 0000
00000140: 0000 0000 0000 0000 0000 0000 0000 0000
00000150: 0000 0000 0000 0000 0000 0000 0000 0000
00000160: 0000 0000 0000 0000 0000 0000 0000 0000
00000170: 0000 0000 0000 0000 0000 0000 0000 0000
00000180: 0000 0000 0000 0000 0000 0000 0000 0000
00000190: 0000 0000 0000 0000 0000 0000 0000 0000
000001a0: 0000 0000 0000 0000 0000 0000 0000 0000
000001b0: 0000 0000 0000 0000 0000 0000 0000 0000
000001c0: 0000 0000 0000 0000 0000 0000 0000 0000
000001d0: 0000 0000 0000 0000 0000 0000 0000 0000
000001e0: 0000 0000 0000 0000 0000 0000 0000 0000
000001f0: 0000 0000 0000 0000 0000 0000 0000 0000
0.0 0.0 0.0 0.0 0.0 0.0 0.0 0.0
0.0 0.0 0.0 0.0 0.0 0.0 0.0 0.0
0.0 0.0 0.0 0.0 0.0 0.0 0.0 0.0
0.0 0.0 0.0 0.0 0.0 0.0 0.0 0.0
0.0 0.0 0.0 0.0 0.0 0.0 0.0 0.0
0.0 0.0 0.0 0.0 0.0 0.0 0.0 0.0
0.0 0.0 0.0 0.0 0.0 0.0 0.0 0.0
0.0 0.0 0.0 0.0 0.0 0.0 0.0 0.0
0.0 0.0 0.0 0.0 0.0 0.0 0.0 0.0
0.0 0.0 0.0 0.0 0.0 0.0 0.0 0.0
0.0 0.0 0.0 0.0 0.0 0.0 0.0 0.0
0.0 0.0 0.0 0.0 0.0 0.0 0.0 0.0
0.0 0.0 0.0 0.0 0.0 0.0 0.0 0.0
0.0 0.0 0.0 0.0 0.0 0.0 0.0 0.0
0.0 0.0 0.0 0.0 0.0 0.0 0.0 0.0
0.0 0.0 0.0 0.0 0.0 0.0 0.0 0.0

network_body.observation_encoder.processors.2.normalizer.running_mean f4 [4]
00000000: 6ecb 3a3f 8eec 3d3f a3fe ff3e e2fa de3f
0.7296666 0.7418908 0.4999896 1.7420313

network_body.observation_encoder.rsa.fc_q.bias f4 [128]
00000000: f080 8ebc 9667 b13c ba18 553b 94fd 5e3c
00000010: c1c0 903b 9c39 f2bb 48d1 d23c cc9c 8ebc
00000020: 427b e2bc e582 fd3c 2fe9 3f3c 008d 9d3c
00000030: ad4d 7d3c b159 3a3a bd13 923c 419d 39bc
00000040: 0ece 813c d7bf c33b 40c8 4bbc 6b32 5ebb
00000050: db05 b1bc 67c9 e33c d150 58ba 0b78 21bc
00000060: 5b5b 27bc e005 45bc e13c 9dbc 8c27 ac3c
00000070: 6eb1 973c b14e bc3c 7e98 b53c 2047 e03a
00000080: 33c7 98bc 539f c4bc 99c9 a83c 0fa4 3dbc
00000090: c720 97bc ab65 743c ce31 68bc 086f 123c
000000a0: eaf7 c03c d22e 813c e7f2 753c 178c af3c
000000b0: d018 9fbb da2d 713c 813e 9e3b a99b 9ebc
000000c0: 517c 7ebc a1c8 4bbb 593e 1f3c c41c a8bc
000000d0: 6319 93bc af13 4f3c 6f46 7bbc 6dc7 bebc
000000e0: 0d19 10bc 0265 93bc 9e88 883c 9d3a 97bc
000000f0: 89a8 713c 498c afbc 972a 493c bf81 85bc
00000100: 9ec8 babb 33ff a2bc 5ec0 8fbc 6582 32bc
00000110: c679 aabc 780c 29bc 25d2 ebbb 4f53 88bc
00000120: 626e a53b 8a74 b13c 222c 993a c65d 97bc
00000130: a9de bd3b 1c58 153c 4798 a03c c00c bc3c
00000140: 5518 953c ea63 a8bc 9604 fd3b 5868 1f3c
00000150: 7972 a6bc ecc3 9f3c 7baf 29bc 2ba7 94ba
00000160: 1ffd d23c 148f bdbb 3b4b 773b 7d6b 22bc
00000170: 38b7 b13c 6aea ca3c df98 29bb d680 bb3c
00000180: 0d01 67bc 19f2 aa3c 0b8c 2aba 9082 563c
00000190: a81c a2bc 5edc 7dbc 3e00 8b3c 6bc9 a83c
000001a0: 7e83 59bc dff4 9d3c 21da b83c c1c0 bf3c
000001b0: f310 f2ba 739e 873c a06e 283b 1cfd ab3c
000001c0: 2933 cabc 2afc fcbb 3bbb 07bc 6695 49bc
000001d0: b8fa d53c 8554 b3bc 356c df3c 9107 63bc
000001e0: bc3c 073c 32c2 9abc 207f 973c 44f3 973c
000001f0: 8365 973c 2ecf 8cbc ac54 193c 32f8 713a
-0.017395467 0.021655839 0.003251596 0.013610262 0.0044175093 -0.0073921215 0.025734559 -0.017408751
-0.027646665 0.030946204 0.01171331 0.019232273 0.015460414 0.0007108702 0.017831678 -0.011328996
0.015845325 0.005973797 -0.01243788 -0.0033904563 -0.021609237 0.027805997 -0.00082517887 -0.009855281
-0.010214652 -0.0120253265 -0.019194068 0.021014951 0.018517222 0.022986742 0.02216744 0.0017111041
-0.018649673 -0.024001753 0.020603942 -0.011574759 -0.018448247 0.014916818 -0.014172031 0.008937605
0.023555715 0.015769396 0.015011526 0.021429105 -0.004855253 0.0147204045 0.0048292284 -0.019361334
-0.015532569 -0.0031094926 0.009719455 -0.020521529 -0.017956441 0.01263897 -0.015336617 -0.023288453
-0.008795035 -0.0179925 0.016666707 -0.018460566 0.014749655 -0.021429198 0.012278221 -0.01629722
-0.005700185 -0.01989708 -0.017547783 -0.010895346 -0.02081002 -0.010317914 -0.007196682 -0.016641287
0.005048559 0.021662015 0.0011686126 -0.018477332 0.0057943654 0.009115245 0.019603861 0.022955298
0.018200079 -0.020555455 0.007721494 0.009729467 -0.020318257 0.019502603 -0.010356779 -0.0011341324
0.025755463 -0.0057848785 0.003773405 -0.0099133225 0.02169381 0.02476998 -0.0025878472 0.022888582
-0.014099372 0.020867394 -0.00065058534 0.013092652 -0.019789055 -0.015494434 0.016967889 0.020603856
-0.013275979 0.019281803 0.02256495 0.023407342 -0.0018468186 0.016555047 0.0025700703 0.020994715
-0.024682598 -0.00772049 -0.008284385 -0.012303686 0.026120529 -0.021890888 0.027273277 -0.013856784
0.008254226 -0.018891428 0.018493235 0.018548615 0.018481022 -0.017188635 0.009358566 0.00092304044

network_body.observation_encoder.rsa.fc_k.bias f4 [128]
00000000: 323f 9535 4b99 aeb5 b212 4234 1bd3 97b5
00000010: 2e2f b8b3 f8f4 1b35 55f9 18b6 017a be35
00000020: 6e43 0036 f44a 3cb6 6d11 89b5 a2b4 fbb5
00000030: 30eb 89b5 4385 bdb3 e95e 90b5 99d5 6f35
00000040: 09dd a2b5 fc68 71b4 9eeb 4535 6dd2 c834
00000050: 8739 e135 d945 3bb6 8cd9 7eb4 3021 a035
00000060: 9be4 2d35 398b 0635 27f6 8d35 daa4 96b5
00000070: fdd4 d1b5 6cb1 e0b5 4871 0ab6 4120 3cb3
00000080: 894f b632 2711 3ab4 3a40 7334 0f33 bb33
00000090: a265 67b4 c449 0ab4 3eee 5fb4 aaeb 2a34
000000a0: b1f7 a034 4c89 0132 4bd5 6434 4874 7633
000000b0: e645 1534 7c37 a632 45c9 9234 8b70 25b3
000000c0: b0c9 0d34 0bd2 aab3 8e77 9134 b8c8 95b4
000000d0: 0005 3b33 fac0 08b3 2ae2 93b4 d9a5 6eb4
000000e0: 8a8b 0434 b8bd bcb3 f007 49b3 509f 4db3
000000f0: 0720 bc34 3ed1 3ab4 fc15 d9b2 091a 6bb4
00000100: dcdf b9b2 b7c3 63b4 4b87 8cb4 74c8 10b4
00000110: 641c 9fb4 1a11 6ab3 162c 0233 ee05 f0b3
00000120: 2276 06b3 b3d8 3334 0adf 9e33 2441 12b3
00000130: 31bd 96b3 5de6 3534 da3b 5e34 58c0 7b34
00000140: 736c 4434 8d02 92b3 1410 6cb3 dce0 6cb3
00000150: 3d18 a0b4 0e04 0b34 8eae b433 2db4 4433
00000160: f3e6 0935 1116 2db4 76bb 25b3 756b 0f32
00000170: 824f 3f34 b2d1 0f35 0382 be33 24c2 5734
00000180: 5416 c634 c882 62b4 ff30 a334 9732 7bb4
00000190: 91cf ca34 973a d334 10bf d5b3 b292 7cb4
000001a0: 8b49 d334 ecb2 15b4 0548 97b4 99d1 e2b4
000001b0: 8a4d 1134 643d 4fb4 6943 a1b4 0cef 82b4
000001c0: ec38 3935 4cd9 7634 c592 b234 ebae ae34
000001d0: 210c f0b4 dd65 9b34 43f5 15b5 fdc2 d934
000001e0: 6e60 a2b4 f0ca 8034 ec7e 70b4 03d8 f3b3
000001f0: 368e 3eb4 e6a5 bf34 21df f8b4 003f 1734
1.1119757e-06 -1.3008624e-06 1.8074459e-07 -1.1311816e-06 -8.5767496e-08 5.8098476e-07 -2.2794895e-06 1.4191611e-06
1.9112736e-06 -2.8057812e-06 -1.0212367e-06 -1.8753528e-06 -1.0275744e-06 -8.8252385e-08 -1.0756459e-06 8.9345264e-07
-1.213427e-06 -2.2483067e-07 7.3731087e-07 3.7406008e-07 1.6780549e-06 -2.7905828e-06 -2.3734736e-07 1.1930588e-06
6.4780187e-07 5.0121486e-07 1.0576958e-06 -1.1223849e-06 -1.5633701e-06 -1.6740937e-06 -2.062954e-06 -4.3801496e-08
2.1223757e-08 -1.732884e-07 2.2654504e-07 8.7171536e-08 -2.1550525e-07 -1.2879087e-07 -2.0855165e-07 1.5918218e-07
2.9982542e-07 7.540006e-09 2.131175e-07 5.7382096e-08 1.3902135e-07 1.9350175e-08 2.7341062e-07 -3.8519413e-08
1.3205022e-07 -7.9544485e-08 2.7095342e-07 -2.7899455e-07 4.3543878e-08 -3.184048e-08 -2.754544e-07 -2.2225812e-07
1.2344222e-07 -8.788942e-08 -4.680618e-08 -4.7875176e-08 3.5041032e-07 -1.7398722e-07 -2.5272122e-08 -2.1895552e-07
-2.1638634e-08 -2.1212223e-07 -2.617547e-07 -1.348397e-07 -2.9636715e-07 -5.4497924e-08 3.030808e-08 -1.11769495e-07
-3.1306747e-08 1.6749509e-07 7.398019e-08 -3.405252e-08 -7.019333e-08 1.6940744e-07 2.0697135e-07 2.3446171e-07
1.8293376e-07 -6.799119e-08 -5.4962655e-08 -5.515254e-08 -2.9819958e-07 1.2946859e-07 8.4136545e-08 4.5798675e-08
5.137255e-07 -1.6119908e-07 -3.858755e-08 8.348128e-09 1.7817186e-07 5.35768e-07 8.8712135e-08 2.0094063e-07
3.689662e-07 -2.1095468e-07 3.0396765e-07 -2.3394601e-07 3.7776456e-07 3.9344442e-07 -9.9533395e-08 -2.3522696e-07
3.9355322e-07 -1.3941798e-07 -2.8178343e-07 -4.2248283e-07 1.3532386e-07 -1.9300711e-07 -3.0037634e-07 -2.4388316e-07
6.90007e-07 2.2989587e-07 3.3261873e-07 3.2537295e-07 -4.4712309e-07 2.8945115e-07 -5.586373e-07 4.0561272e-07
-3.0245013e-07 2.3989514e-07 -2.2397916e-07 -1.13548616e-07 -1.7746865e-07 3.569723e-07 -4.6355947e-07 1.408589e-07

network_body.observation_encoder.rsa.fc_v.bias f4 [128]
00000000: 60de c63c b3ea ab3b eeea 9ab9 0c2b ac39
00000010: 3798 103c 874a ee3b 3311 073b 0aab 8b3c
00000020: c1bc 5abc b42a 493c 989e ce3a 0c09 bdbb
00000030: e589 b639 8122 3ebc 1440 e3b9 e7fe e4bb
00000040: 5520 80ba 4612 62bb d13d 80bc 7fb7 813c
00000050: ea14 6439 77bf 93bc 79ad a53c 189f c6bb
00000060: 66ca 9ebc 7a9f 613c c3e8 ccbc bb91 833c
00000070: b251 85bb f5a5 653c 72b1 893c f8f6 8fbb
00000080: 10c0 f63a 49de 023c c14e 973c 55e1 883b
00000090: 6ff3 313c 5d1b 58bc e82b 833c be82 37bc
000000a0: fd36 79bc 7cbf a5bc a3e8 bcbc 53ba 8dbc
000000b0: 28a1 6abc c044 4abb 314e 44bc e57a 89bb
000000c0: 7e22 bdbb 6fa0 a3bc 67fd 80bc 2ae1 82b8
000000d0: 7fb7 533c 27ac 2e3c 41ad fabb ad73 25bc
000000e0: 742a 1c3c 455f f9bb 384a 1d3c f0fe 52bc
000000f0: 5f37 6d3c 7256 943b a2bf 243c 02d0 93bc
00000100: 89b6 3e3c da2c 1cbc 46d2 79bc 9b4b 65bc
00000110: 9a94 443b 26cf 9aba 463a 31bc 17e3 343c
00000120: c7fb 8339 23c7 3c3c c86a 29bc 78e8 013c
00000130: 794a fdbb cc4a 1fbc 7225 78bc 47b6 12bc
00000140: 3cc1 83bc c619 abba 385e b2bc 9247 79bb
00000150: ff80 bd3b b19c 05bc ed38 273c 73d5 13bc
00000160: d329 27bc a975 eb3b a553 53ba 063e 8fbc
00000170: f0a4 d5bb 0b3f 263c 8f03 1d3c acf8 543c
00000180: 7233 6cbc 987a 4c3c b49a 5abc d765 42bb
00000190: 6752 80bc dcf5 6b3c 8906 81bc ae70 00b9
000001a0: 3fa9 52bc 445b 073c 8437 80ba 057a 3e3c
000001b0: 8acd 23bb 9f53 a03b 07ff 64bc dff1 a9bb
000001c0: 85f0 1d3b 776e 533c 656d 02bc 2bff 21bc
000001d0: 0166 e7bb 72a7 7f3c e938 92ba 5bc0 133c
000001e0: 8e1c 833b d067 51bc c9b1 043c fe4d 15bb
000001f0: 2bc3 88bc f89b cd3b b466 c73c 2101 4a3c
0.024275959 0.005246484 -0.00029548205 0.0003283847 0.008825353 0.007272068 0.0020609617 0.017049331
-0.0133506665 0.012278248 0.0015763817 -0.0057689007 0.00034816485 -0.011604906 -0.00043344556 -0.0069883945
-0.0009775261 -0.0034495755 -0.015654476 0.015834568 0.00021751566 -0.018035633 0.02022432 -0.006061446
-0.01938362 0.013770932 -0.025013333 0.0160607 -0.0040685767 0.014016618 0.016808245 -0.0043934546
0.001882555 0.007987567 0.01847017 0.0041772523 0.010861262 -0.013190118 0.016012147 -0.011200605
-0.015210864 -0.020232908 -0.023060149 -0.01730076 -0.014320649 -0.0030863732 -0.011981533 -0.0041955584
-0.005771934 -0.019973962 -0.015745832 -6.240823e-05 0.012922167 0.0106611615 -0.007650048 -0.01009838
0.009531606 -0.007610234 0.009600215 -0.012878165 0.0144785335 0.0045269066 0.010055454 -0.018043522
0.011640199 -0.009532178 -0.015247887 -0.0139950765 0.00299958 -0.0011811003 -0.010817116 0.011040471
0.00025173856 0.011522087 -0.0103404 0.00792896 -0.007729825 -0.009722423 -0.015145646 -0.008954591
-0.016083352 -0.0013053946 -0.021773443 -0.0038037044 0.0057832 -0.008155034 0.010206443 -0.009023058
-0.010202843 0.007185657 -0.0008061475 -0.01748563 -0.006519906 0.010146867 0.009583368 0.012998741
-0.014416562 0.0124804005 -0.013342548 -0.0029662752 -0.015664292 0.014401879 -0.015750187 -0.00012249008
-0.012857734 0.0082615055 -0.000978217 0.011625771 -0.0024994337 0.004892781 -0.013976819 -0.005186304
0.002409966 0.012904755 -0.007960652 -0.009887497 -0.0070617204 0.015603887 -0.0011155877 0.009018029
0.0040012067 -0.0127810985 0.008099028 -0.0022782083 -0.016694626 0.0062746964 0.024340965 0.012329371

network_body.observation_encoder.rsa.fc_out.bias f4 [128]
00000000: 585a df3b 891d 783c 5d2e 00bc 7c45 8d3b
00000010: bfd8 8b3c 66a0 1c3c 01d4 32bc ce55 26bb
00000020: 6f24 3a3a f747 c33b d7b0 e93b 5c2a 633c
00000030: affc cc3a c587 f43b 9d9f 03bb 386f 60bc
00000040: 91c7 3bbc 8bc6 783c a07a beba 4f20 823b
00000050: ca7b 2f3c fea2 27bb 6c00 ab3b 2f88 cebb
00000060: 74e9 453c f89a a73c aedf 73bb 2593 18bc
00000070: 0d81 0a3b a831 003c d6fa 56bc b47d 233c
00000080: 0e99 78b9 6671 86bc ec94 85bc acab 9ebc
00000090: 1fb3 88bc a5fb 67bb 3f0f 6d3c caed 373c
000000a0: 3c89 37bb 6c55 913c f464 633c 0a7c 8bbc
000000b0: 56b1 57bc 1ff4 79bc 954f 05bc 8f47 a8bb
000000c0: 6ab5 66ba 94c0 3bbb a5d6 52bb dc38 12bc
000000d0: 5375 87bb 2030 033c a815 b4bc 2015 773a
000000e0: 866f 413c 6949 cabb be81 143c b727 6f3a
000000f0: ae1f 47bb 9677 1d3c 78ad 9b3c 64b4 67bc
00000100: 57f2 86bc 2f4c e4b9 03f9 543c 888d 963a
00000110: 1711 713c 5579 713c 1846 7e3c 6ff5 45bc
00000120: 54ac 80ba a54c 72bc 6fc9 9bbc 4df3 b7bb
00000130: dc56 123c dc93 57bc 6b67 bc3a 17e8 26bc
00000140: 504d 35bc 6962 a3bc 7ca2 9b3c fd17 66bc
00000150: 9f6f 8dbb 26ea 42bc 0f5e f73b c34f 5c3b
00000160: 62f0 32bc aa93 4e3c fff8 c53b 3815 58bc
00000170: d24b e1bb ff79 e43b ddd3 573c 3186 363c
00000180: d7cb 73ba 0bd1 46ba 46b7 81bc 5481 1439
00000190: 5194 ca3b a782 48bb 9cd9 f73b 9cc2 7a3c
000001a0: f28a f8bb b259 963c b84b 1f3c 8ffe 043c
000001b0: 549f 83bc 82ef 543b bba7 8d3c 3b78 25bc
000001c0: f716 ca3b fa3b 32bc 45cb a53b ecbd 143b
000001d0: e186 423c 5d28 893c b37e b2ba 120e dcba
000001e0: 7bbc b53a 071c cebb 1a11 b3bb d75b 623c
000001f0: 917a 0fbc 2338 6f3c 858c 4fbc 9176 b2bb
0.0068161897 0.0151437605 -0.007823554 0.0043112617 0.017071126 0.009559726 -0.0109148035 -0.0025380733
0.0007100766 0.0059595066 0.0071316767 0.01386508 0.001563927 0.007462474 -0.002008415 -0.013698392
-0.011461155 0.015184055 -0.0014532395 0.0039711366 0.010710666 -0.0025579329 0.005218556 -0.0063028554
0.012079585 0.020459637 -0.003721218 -0.009312426 0.002113405 0.007824339 -0.013121327 0.0099787
-0.0002370814 -0.016411494 -0.016306363 -0.019368969 -0.016686974 -0.0035397795 0.014468967 0.011226127
-0.0028005382 0.017740928 0.01387905 -0.01702692 -0.013164839 -0.015255957 -0.00813665 -0.0051354836
-0.00088008365 -0.002864872 -0.0032171395 -0.008924689 -0.004133859 0.008007079 -0.021982983 0.000942545
0.011806374 -0.006173302 0.009064136 0.00091230444 -0.0030383873 0.009611031 0.019003615 -0.01414213
-0.016472979 -0.0004354431 0.012998822 0.0011486271 0.014713547 0.0147384005 0.015519641 -0.012082442
-0.0009816983 -0.014788781 -0.01901695 -0.0056137205 0.008931842 -0.013157811 0.0014374083 -0.0101871705
-0.011065796 -0.019944387 0.018998377 -0.014043805 -0.004316285 -0.011896646 0.0075490545 0.0033616878
-0.01092157 0.012608448 0.0060416455 -0.013188653 -0.0068754936 0.006972551 0.013173071 0.011140392
-0.0009300089 -0.00075842504 -0.015834462 0.00014162558 0.0061822315 -0.0030595453 0.007563783 0.015305188
-0.007584923 0.018353317 0.009722643 0.008117332 -0.016067185 0.003249139 0.017291894 -0.010099466
0.0061672884 -0.010878557 0.005059632 0.002269621 0.011872978 0.01674288 -0.0013618082 -0.0016788861
0.0013865376 -0.006289962 -0.005464685 0.013815842 -0.008757249 0.014600786 -0.01266778 -0.005446263

network_body.observation_encoder.x_self_encoder.seq_layers.0.weight f4 [128, 4]
00000000: 390a 7bbd 6510 da38 3cf8 0dbd 28a4 e53c
00000010: 9d3a 883d 21f4 11bd 59e3 1a3d b840 27ba
00000020: def9 1fbc 3399 debb b1ab ffbc 6fdc af3c
00000030: 3817 96bc bcb6 6d3d a0d0 4cbd f159 2cbc
00000040: a03a debc 0eba a03d 6112 a0bc 0083 7b3d
00000050: 620c 22bd d93f d03d cbf0 3cbd 62ae 333d
00000060: 36e1 ea3c d156 e73d fc63 a23d 9010 c33c
00000070: e91a 16bc aead e03c 316b 9fbd 01cc dc3d
00000080: 32b2 213d ff4f e8bb f120 3d3d cea1 eb3b
00000090: 4b9e 28bd 435c 143d 8c90 66bd e5ba a93b
000000a0: 120a 64bd 1536 58bd 5b7a 6abd c1d3 023c
000000b0: 8a57 f7bc 56ac 81bc 3052 f0bc bacf 27bc
000000c0: 56d9 743c 8dfd 31bd 8827 573c 5b69 fcbb
000000d0: 5830 ed3a 4091 973c e0b3 ca3c e95a d33c
000000e0: ec72 953d 7a4c 053d 7772 8a3d 23b6 96bd
000000f0: 1ce1 8cbd 53cf 593c a2ba f23a 3d59 f43c
00000100: 6adf b73c 0eae 113c 7bbe 8bbb fdf9 43bc
00000110: ee54 31bd 4930 143d d0f6 ef3b 8fe1 9f3d
00000120: d88f c73d 1b0b 74bd a0d2 0e3d 8c15 e9bb
00000130: 7eb8 363c b2b8 fc3c d06f 503d 9ca8 35bc
00000140: 6bb1 28bd eb60 5a3d c02a 01bc b1e6 41bd
00000150: 186f 7ebd ff15 81bc 06a2 473d 811c 8fbc
00000160: ce18 0dba f3db a43d b26d 473c ebed a4bc
00000170: 6462 24bd 4654 8a3d b1a7 aabc 340f ab3c
00000180: a711 363d 4931 58bd 52ba 5bbc 4a99 cfbd
00000190: af5b 25bc 4e94 b53d 36b1 5cbd b8b0 7b3d
000001a0: 913c 5f3d 3587 1dbd 5fa0 6cbd a72a 62bd
000001b0: 5b68 0dbd 7a55 1a3d 7bc7 febc fe90 933d
000001c0: 0dd9 a33c b359 9c3c 4651 223d de4c c4bc
000001d0: 97fa ffbc 405b 513d 1075 27bd a4f2 8b3d
000001e0: d17b 9a3b b7a3 b1bd a455 b13c 9c79 dabc
000001f0: fdad debc 3452 a439 8a1d 5ebc 9060 323d
00000200: d7a8 703d 2556 c63d a7a6 1b3c bd63 fd3c
00000210: 885a 85bc d44a 493d 78e0 463d 51cb 443b
00000220: 7ec3 f4bc a59d 5e3d 158e 573c 0aae fb3c
00000230: ffec 973c 05a0 1dbd 899f 973c 209d ecbc
00000240: f6e8 bebc 19b9 883d b1ff f23c 4083 46bd
00000250: c186 5cbd 3bca d93c dd7c 1bbd 1a76 32bc
00000260: 5a33 d3bc 5458 9dbc 2b1b 073d 2b8d 5e3d
00000270: 799a 99bc bac4 3b3d a751 49bd bca5 c83d
00000280: 63a5 99bc cb1a ab3c 06c5 14bd b2c7 b5bc
00000290: 4759 4ebc ccd5 163d efe3 9dbc 5061 193d
000002a0: c286 eabb 5901 fb3a fbad 24bc fb48 bb3d
000002b0: 2052 253b 440f 073c 866b 05bd ee79 bfbc
000002c0: 2712 5d3c 6353 90bd 9478 43bd d422 51bd
000002d0: 27a1 023d 841e 26bd a329 153d c14d a1bd
000002e0: c92e a3bc d33a 95bd c127 a438 2de6 8dbd
000002f0: 6320 d1bc a0b3 503d 41fe 26bc 2de2 e33d
00000300: 559f 383c 4951 5abd 2278 563c f07f be3c
00000310: 6835 39bb f625 353d bee5 adbc 1624 693d
00000320: 3b78 a2bd e07b a5bc 2944 52bd b773 2f3d
00000330: 8eb2 d73c 9b8f 8a3c b3ac 683d 5b05 dfbc
00000340: afdf 963c f42b 76bd 5af4 733d a8d4 bbbd
00000350: 876a d13c dba8 9bbd c83c 163c 89b0 26bc
00000360: 082f f43c 2f98 383d f500 673c 0801 24bd
00000370: a484 1e3b a3e4 16bb 494f cd3c 8812 063d
00000380: 83cc 1b3d d1d9 bcbd 23ff d6bb 5026 35bd
00000390: fdbf a53c 69fb 68bd 2b76 00bd 01bc d7bb
000003a0: 2cff 2a3d 754e 883c 9e4f 23bc 7eb5 5a3d
000003b0: 31cb 973d 088f f7bc a362 263b eb8e d23b
000003c0: 8a39 78bd bc77 c03c f941 c9bc d9b1 f53c
000003d0: 7964 8c3d 34c1 43bd d063 10bc b37f 52bc
000003e0: 3458 96bd eb83 52bd e9b8 303c 0188 803c
000003f0: 389b c83c cce7 d3bc 6d03 6f3c f4e6 133d
-0.061289046 0.00010398104 -0.034660563 0.028032377 0.066518046 -0.03563321 0.037814472 -0.0006380188
-0.009764163 -0.006793165 -0.031209799 0.021467416 -0.018321618 0.058035597 -0.050003648 -0.010519491
-0.027127564 0.07847987 -0.019540014 0.06140423 -0.03956259 0.10168428 -0.046128076 0.043867476
0.028671842 0.11295856 0.07929227 0.023811609 -0.009161689 0.027426567 -0.07784117 0.10781098
0.03947658 -0.0070896144 0.046173993 0.0071909195 -0.041166585 0.0362208 -0.056290194 0.0051797503
-0.055673666 -0.05278595 -0.057245594 0.007985056 -0.030193109 -0.015829246 -0.029336065 -0.010242397
0.014944395 -0.043454695 0.013131984 -0.007702989 0.0018096073 0.018501878 0.024743974 0.025800185
0.0729731 0.032543637 0.06760114 -0.073589586 -0.06878874 0.013294059 0.0018518756 0.029827708
0.0224454 0.0088915955 -0.0042646504 -0.011961457 -0.043293886 0.03617886 0.0073231235 0.07806694
0.09744233 -0.059580904 0.034868836 -0.0071131643 0.011152385 0.030849788 0.050887883 -0.011087563
-0.041184824 0.053315084 -0.007883728 -0.047339145 -0.062117666 -0.015757559 0.048738502 -0.017469646
-0.00053824193 0.080497645 0.0121721495 -0.02013298 -0.040132895 0.06754355 -0.020831915 0.020881273
0.04445043 -0.052781377 -0.013411121 -0.101366594 -0.01009266 0.088661775 -0.05387994 0.06144783
0.05450112 -0.03845902 -0.05777013 -0.055216458 -0.03452335 0.037679173 -0.03110098 0.072053894
0.020000959 0.01908574 0.03962829 -0.023962434 -0.03124742 0.051112413 -0.040883124 0.068333894
0.004714467 -0.08673804 0.021647282 -0.026669316 -0.027182573 0.00031341764 -0.013556847 0.04354912
0.05875477 0.096843995 0.009500182 0.030931348 -0.01627852 0.049143627 0.048553914 0.0030028413
-0.029878374 0.05434956 0.013156434 0.030722637 0.018545626 -0.038482685 0.01850869 -0.028883517
-0.023304444 0.066759296 0.029662939 -0.048465014 -0.05383945 0.026585689 -0.037960876 -0.010892415
-0.025781322 -0.019207157 0.032984894 0.054333847 -0.018750416 0.04584191 -0.049150135 0.09797236
-0.01875562 0.0208868 -0.03632071 -0.022189949 -0.012594528 0.036824986 -0.019273726 0.03744632
-0.0071571777 0.0019150182 -0.010051246 0.09144779 0.0025225952 0.008243386 -0.032573245 -0.02337357
0.013493097 -0.07047155 -0.047722414 -0.051058605 0.031891968 -0.040556446 0.03641666 -0.078761585
-0.01991977 -0.072866105 7.827534e-05 -0.06928668 -0.025528139 0.050952554 -0.010192455 0.11127124
0.0112684565 -0.053300176 0.013090165 0.023254365 -0.0028260592 0.044225655 -0.021227714 0.05691918
-0.079330884 -0.02020067 -0.051334534 0.042834964 0.026330259 0.01691418 0.056805324 -0.027224233
0.018417208 -0.06010051 0.059559204 -0.0917142 0.025563492 -0.07600566 0.009169765 -0.010173925
0.029807582 0.04506701 0.014099349 -0.040040046 0.0024187947 -0.0023024462 0.02506222 0.032732517
0.038036834 -0.09221233 -0.0065611764 -0.04422599 0.020233149 -0.05688039 -0.031362694 -0.006583691
0.041747257 0.016638974 -0.009967713 0.05339574 0.074118026 -0.03021957 0.0025388382 0.0064257286
-0.06060175 0.023494594 -0.024567591 0.029992031 0.06855101 -0.047791675 -0.00881286 -0.012847829
-0.07341042 -0.051395338 0.0107862735 0.015689852 0.024488077 -0.025867365 0.014588219 0.036108926

network_body.observation_encoder.x_self_encoder.seq_layers.0.bias f4 [128]
00000000: eb62 7abc 2c9e c83c 4c4c 12bc a491 813c
00000010: 4ca7 a0bc d9dc 91bb 1d36 76ba c4cd fdbc
00000020: 7a45 083c 50b4 c6bc c14a dabb 09c6 633c
00000030: 1e29 ed3b 436b 69bc 9ec8 e03c b192 0bbc
00000040: 1b15 af3c 150e bdbc f1ac a03c 5b78 ee3c
00000050: 1268 43bc 48cd bebb 70bc 173c 633b 39bc
00000060: 58bc 8a3c 5af3 bbbc d54b a73c 1a36 f2bc
00000070: 0690 003d 33f3 37bd 868a 6c3c 7532 a6bc
00000080: d102 94bc f3c9 843c 3b58 dbbc 74c6 643c
00000090: 1244 323c 0835 a6bc df4e bdbc 3fef acbc
000000a0: 0ef7 963c 2644 03bd d213 e4bc 4813 83bc
000000b0: 3b0f 8bb9 970b e23c 298e 3b3c 4409 9abc
000000c0: 0f6c 603b 23a6 8abb 8803 0cbd 0437 bb3c
000000d0: 1b1b 003d d714 123c 5da0 b93c 19eb b4bc
000000e0: 44e2 313c 3bbb 8f39 c93b 3abc e94c 52bc
000000f0: d19a a8bc 4068 aa3c 5219 6dbc d2b7 913c
00000100: 56f3 1fbc 03e7 ba3c bd81 e63c e4ab d93c
00000110: ed5f a53c ff5d be3c e56c be3c 3c48 45bc
00000120: 67e8 5b3c 6150 9a3c c496 da3c 9afc 6dbc
00000130: c40b a83c ff43 af3c 4d19 92bc f7e2 0abd
00000140: ef45 63bc 6caf 123d 9cdb 15bd bee1 983c
00000150: 49a4 14bc 541e 92bc 9da2 1abd 3a68 453c
00000160: aa67 58bc 919c d4bc 6e4d b63a 968b d5bc
00000170: c0ab 2b3c 1072 953c 92e1 ea3c bfcb e03c
00000180: 8d94 193c b8bc 27bd c9a4 943c 6113 083d
00000190: 852d 2c3c ad65 6abb c305 27bc d225 2abb
000001a0: e686 ac3c 27a9 10bb ad88 89bc 9ef0 1dbc
000001b0: dad2 6dbc c13e 20bb 8fb6 123a 735a 1bbd
000001c0: 297d 933c 1025 c03c 731f c1bb 611c f5bb
000001d0: 7fb8 ddbb 96a1 9a3c c765 88bc 93a5 cabc
000001e0: d55e cbba 0e6c f0bc 91a8 eabb bddd 4e3b
000001f0: bcde 09bc 02ad b53c 030d 6cbc 675b 593c
-0.015282373 0.024489485 -0.008929323 0.015816517 -0.019611023 -0.004451376 -0.0009392219 -0.030981906
0.008317346 -0.024255902 -0.0066617434 0.013902196 0.0072375676 -0.014246765 0.027439412 -0.008518861
0.021372369 -0.023078004 0.019613715 0.029110124 -0.011926668 -0.0058228113 0.009261236 -0.011305663
0.016935512 -0.022943188 0.020421902 -0.029566813 0.03138735 -0.044909667 0.014437323 -0.020287732
-0.01806775 0.016209578 -0.02677547 0.013963331 0.010880487 -0.02028896 -0.023108898 -0.021110175
0.018428352 -0.032047413 -0.027841482 -0.016000405 -0.00026523494 0.027593417 0.011447468 -0.018803246
0.0034244095 -0.004231231 -0.034183055 0.022853382 0.03127585 0.008916101 0.022659475 -0.02208476
0.010857169 0.00027414583 -0.011366793 -0.01283572 -0.020581635 0.020801663 -0.014471369 0.017787848
-0.009762606 0.022815233 0.028138036 0.026571222 0.020187343 0.02323818 0.023245284 -0.012041148
0.013422108 0.018837156 0.026683219 -0.014525557 0.020513423 0.021394728 -0.01783433 -0.033907857
-0.013871654 0.035811827 -0.03658639 0.01866233 -0.009072372 -0.017836727 -0.037752736 0.012048775
-0.013208309 -0.025953563 0.0013908574 -0.026067536 0.01047796 0.018242866 0.028672013 0.027440904
0.009373796 -0.04095146 0.018144982 0.033221606 0.0105089 -0.003576617 -0.010194245 -0.0025962484
0.021060418 -0.002207348 -0.016788805 -0.009639887 -0.014515603 -0.0024451467 0.00055966614 -0.037928056
0.018004017 0.023455173 -0.0058936416 -0.0074801897 -0.0067663784 0.018875878 -0.016650094 -0.024737155
-0.0015515933 -0.0293484 -0.007161208 0.0031565272 -0.00841492 0.022177223 -0.014407399 0.013266421

network_body._body_endoder.seq_layers.0.weight f4 [64, 132]
00000000: cc02 d43d 0c3b 6a3d 344f 56be 587b 1cbe
00000010: 1a9a 0bbe 9b46 e6bc be3b 313d 9ad0 bf3c
00000020: c1c8 673d 9967 f93b 9a17 5bbd 818f 6a3d
00000030: 3095 7dbd d175 a7bc 5c93 0f3e 2577 99bd
00000040: 69ac aa3d b244 1fbd df9b 0cbe 327f 703d
00000050: 61a5 8dbd f00b a53d 9f35 3dbe 2902 b5bc
00000060: 1a4c 5d3d e6e7 8a3d f89d 303d c3a8 7d3d
00000070: 78e8 163d e8ea 1ebd 6f44 00bd 0fa9 0b3c
00000080: 9d74 0ebd 906d 09bd 8c9d 00bd e7ae 873c
00000090: 05f3 54bd 9c4d 253e 746f 05bd d5a4 23bd
000000a0: 3d6d fabd 2f78 dc3d 2627 cd3d 1dda 573d
000000b0: 8e47 81bc 3c98 5d3c 0812 963d 1ca9 f1ba
000000c0: dd88 c43d 98a1 55be 091e b2bd c966 0e3e
000000d0: 2d20 bd3d ca41 1ebe 45cc 59be 2b29 9cbd
000000e0: 220b bdbd 42e9 813c faee 3a3c 4d0d 59be
000000f0: 4f6d 223e b628 1ebe 370c fdbd 2ffb 06be
00000100: 3e73 14be 0b0d 603e f51b f9bd 8d59 1dbe
00000110: 6317 ff3d c375 333d 7a78 8d3d 3029 c4bc
00000120: cf86 f93b d744 e43c 2e73 c13d cb41 123d
00000130: 1bfb 9e3d dc5e a6bc c034 c63d 4342 fdbc
00000140: a9b0 143e d108 67bd 4852 e8bc 692a b1bd
00000150: 1fe0 72bd 4b7b 72bd e968 4bbd 864e 433d
00000160: 0821 503d b9bb 91bd 9676 633d c178 02be
00000170: e846 dc3d cf4a a4bb 3dcf 783c 5ad9 2938
00000180: 4b43 d73c f4f9 173d 341a 72bc 1fbf c33d
00000190: 382e 0e3e ba2e 193d 21ba 243d bfdd d63d
000001a0: 3526 f13b bb1f 313e 22e6 3d3e 572e 38bd
000001b0: 632c 983d a703 e63d e7df 8c3e 1769 f33d
000001c0: 9d12 0bbe 5943 3dbe 7e9b 03be faef 363e
000001d0: 8c45 9bbd b37f 043d b1b6 6fbb aafe c43c
000001e0: 8f7c 333e 0a50 7b3d ced0 90bd 1899 f0bd
000001f0: 9e06 ab3c fd7c 71bd 824f a33b d886 6abd
00000200: c157 943c 1b58 a63d c14e 25be aa52 02be
00000210: 4f6c 503d 09ce 43be b6e1 f83d 0717 3bbe
00000220: b506 23be d0ed 383e b26c 9cbd 787d be3d
00000230: 6166 6d3d 5fe8 0bbd a5ec ddbd 46f8 aa3c
00000240: 4c6a 0e3e 24c8 5b3e 25ca 32bd c5f2 cc3d
00000250: 6862 d13c 34ea 37be 2705 963c 49b3 263d
00000260: 12ad 02bd 0429 483e bc63 7f3d 9107 b53d
00000270: 00fc 133d 72a7 1dbd a6fb 0fb9 6dc5 b4bd
00000280: 5f08 38bd c1d6 063e ff26 17bd afe3 28be
00000290: 0c5f 633d 4bcd 99bd 4ba4 82bd 916a 69bd
000002a0: e2c3 523d 9059 18be 590e 6abe 4ff8 0ebe
000002b0: 2360 d7bd 45d7 293e 92d8 7fbd 9f63 d33c
000002c0: e283 30bd 2939 803d 3126 3b3d 5d88 0abe
000002d0: b41a 83bd e013 c2bd 9904 31bd 76dd b5bd
000002e0: 31c2 c93d ab3c 9e3c cf54 e23d b178 f1bd
000002f0: cb47 b0bd 7706 91bc 6b0f a6be 125f a63d
00000300: 6156 2bbd 236b 4b3e c4e8 e93c 4c31 a23d
00000310: 0b3e 26be 1119 103e d84b ed3d 957d cf3c
00000320: 141a d9bd c84f e43c a395 b23d f448 433d
00000330: b458 ce3c 8dd1 b23d 905b 2dbc 1cc6 603d
00000340: 7603 203e fb31 73be 3f7f c0bd ec08 efbd
00000350: f0f1 40bd 2b2a 95bc 8ede d53d 0c47 8cbd
00000360: d67c 63bd debc 37be b093 d0bc 593d 03be
00000370: 8c57 51be 0dba 12be a999 efbc c3f2 e73d
00000380: 9eda 33bd f539 3b3d 1298 5b3d c64b 01be
00000390: be4c 2fbe 0b22 223c 9ac7 9f3d ad2f 0cbc
000003a0: e536 293c 6e42 adbd 134c 91bd def9 acbc
000003b0: fc84 a33d 18ec 9fbd 7487 233e fde3 633e
000003c0: af1f cf3c d080 383e b956 883d 6617 9f3d
000003d0: f86e a6be 7fd6 da3d c9cd 113e c89e 78bd
000003e0: 03b2 df3c 8db0 b1bc 9b2b a83d cd94 ab3c
000003f0: 9a36 263e 111f 2f3d 0c3a 4ebd ce1e 2f3e
0.10352096 0.057185218 -0.20928651 -0.15281427 -0.13633004 -0.02810984 0.043269865 0.023414899
0.05658794 0.0076112268 -0.053489305 0.057265762 -0.061909854 -0.020441921 0.14021057 -0.07493428
0.08333666 -0.038883872 -0.13731335 0.058715053 -0.06916309 0.080589175 -0.18477486 -0.022095757
0.054027654 0.06782512 0.0431194 0.06192852 0.036842793 -0.038798243 -0.031315263 0.008524193
-0.03477918 -0.033551753 -0.03140025 0.016562892 -0.051989574 0.16142887 -0.032576993 -0.039952118
-0.12227867 0.10765111 0.100172326 0.052698243 -0.01578119 0.013525065 0.07327658 -0.0018437239
0.09596417 -0.20862424 -0.08697135 0.13906397 0.09234653 -0.15454784 -0.21269329 -0.0762504
-0.09230639 0.015858296 0.0114095155 -0.2119648 0.1586201 -0.15445217 -0.123558454 -0.13181756
-0.14497086 0.21879975 -0.121635355 -0.15366192 0.124556325 0.04381348 0.06907745 -0.023945421
0.0076149474 0.027864857 0.09445797 0.035707276 0.07762738 -0.020308904 0.0967803 -0.030915385
0.14520516 -0.056404892 -0.028359547 -0.08650667 -0.05929577 -0.059199613 -0.049660597 0.047682308
0.05081275 -0.071158834 0.055533014 -0.12741376 0.10755712 -0.0050138007 0.015186128 4.0495164e-05
0.026277205 0.03710361 -0.014776755 0.09557938 0.13884819 0.037398078 0.04021657 0.104915135
0.007359291 0.1729726 0.1854482 -0.044966068 0.07430341 0.112311654 0.27514574 0.11885279
-0.13581319 -0.18482722 -0.12852284 0.17864981 -0.075816244 0.032348346 -0.0036577398 0.024047215
0.17527984 0.061355628 -0.07071076 -0.1174795 0.020877179 -0.05895709 0.0049838433 -0.057257503
0.01810825 0.081222735 -0.16143323 -0.12726846 0.05088454 -0.19121565 0.12152426 -0.18270503
-0.15920527 0.18059468 -0.076379195 0.09301275 0.057958964 -0.034157153 -0.10836152 0.02087034
0.13907737 0.21463066 -0.04364981 0.10007242 0.02555962 -0.17960435 0.018313004 0.040698323
-0.031903334 0.19546896 0.062350973 0.08839334 0.036128998 -0.038489766 -0.00013731289 -0.088267185
-0.04492986 0.1316786 -0.036902424 -0.16493104 0.055510566 -0.0750986 -0.06378993 -0.056986395
0.05145634 -0.14877915 -0.22857036 -0.1396191 -0.105163835 0.16586025 -0.062462397 0.025804339
-0.043094523 0.062609024 0.04569072 -0.13528581 -0.064015776 -0.09476447 -0.043217275 -0.08880131
0.09851492 0.019316038 0.11051332 -0.11790598 -0.086074434 -0.017703278 -0.32433638 0.08123602
-0.041830424 0.19865088 0.028553374 0.07919559 -0.16234605 0.14072062 0.11586732 0.025328437
-0.10600677 0.027870074 0.08719947 0.047676995 0.025188781 0.08731375 -0.010580912 0.05487643
0.1562632 -0.23749535 -0.0939927 -0.116716236 -0.04710573 -0.018208584 0.104428396 -0.068494886
-0.055538975 -0.17943141 -0.025461048 -0.12816371 -0.20443553 -0.14328785 -0.029248076 0.113256
-0.04390966 0.04570957 0.053611822 -0.12626562 -0.17119119 0.009895812 0.07801743 -0.008556289
0.010328029 -0.08459936 -0.07094588 -0.02111524 0.07984349 -0.07808703 0.1596964 0.2225494
0.025283663 0.18017888 0.06657166 0.07768135 -0.32506537 0.10685443 0.14238657 -0.0606983
0.027306562 -0.021690631 0.08211442 0.020944977 0.16231766 0.042754237 -0.050348327 0.17101595

network_body._body_endoder.seq_layers.0.bias f4 [64]
00000000: 49f6 6e3c 096f 433d 04fb 143d bb3f f53c
00000010: 8ae1 853c 91e7 993b b56d 343d 309c 8dbc
00000020: ac15 2c3c f700 c8bc 13e7 683d 612f 0f3b
00000030: 4550 483d abd8 fbbb b0c2 c23c 8189 cebc
00000040: 18e1 53bc 3a76 023d a406 0cbc b5b6 533b
00000050: 3492 093d 443d c43c ed49 613d 6cc8 ea3b
00000060: 529c 893c 1845 bb3c 1556 443d 056f 19bc
00000070: 6ee7 d73c 155a 923b eab8 0c3d 9de5 083d
00000080: a75f 93bc 1fd3 a7bc b40a 44bc 9417 0c3d
00000090: 1043 973c 2539 723d d732 2c3d 4383 f03c
000000a0: b973 0f3d 83e3 f73c 3d72 283a b5ec 143c
000000b0: 6102 aabc 8f01 9b3c 2a4e bc3a efce 403d
000000c0: 68e5 833c 85d0 273d 4b06 0b3d c8da 823c
000000d0: 2e8d 06ba e8bf 6eba e781 313d 19f1 abbc
000000e0: 2073 11bb e62e b43c ccb4 33bb 599c 7dbc
000000f0: 43b5 9f3a 6113 303d 9fda 9dbc 6bec 8c3c
0.014585086 0.047713313 0.0363722 0.029937616 0.016342897 0.0046967943 0.044049937 -0.01728639
0.010503214 -0.024414523 0.056860995 0.0021848308 0.048904676 -0.007685741 0.023774475 -0.025212051
-0.0129320845 0.03185103 -0.008546505 0.0032304947 0.033586696 0.023954995 0.05500214 0.0071650054
0.016798172 0.022860095 0.047933657 -0.009364848 0.026355471 0.004466305 0.034356035 0.0334221
-0.017989947 -0.020486413 -0.011965442 0.034202173 0.018464595 0.05913653 0.042040672 0.029359465
0.03502247 0.030259853 0.0006425714 0.0090896385 -0.020753087 0.018921642 0.0014366556 0.047072347
0.0161006 0.040970344 0.03394155 0.015973464 -0.0005132732 -0.0009107576 0.043336775 -0.020988988
-0.0022193864 0.02199502 -0.0027420996 -0.015479171 0.0012184758 0.04298723 -0.019269286 0.017202577

network_body._body_endoder.seq_layers.2.weight f4 [64, 64]
00000000: ec69 e53d 7dc5 a93d 1de6 32bd c80f ecbd
00000010: 7249 073e 448c 9c3d 3b07 113d ba94 79be
00000020: dcc1 18be adc3 30be f354 a6bc cda1 143e
00000030: fd2b a03d 3c98 98bc 2698 3fbd 565b 04be
00000040: d6d5 283d 7468 963c 5cce 143d ce56 b23d
00000050: 0133 98bd 33f0 3a3e c89a ca3b 424f 15bc
00000060: 066a 8a3d 459a 423e 7c1b 0d3d 5322 4f3d
00000070: 29c3 7d3d 19dc 64be f420 2a3e b7dd 433d
00000080: 153c 20be cee8 8cbe 5aee 03be 9200 c9bd
00000090: 5f40 183e af3b 0f3e bc01 493d 1acf c4bd
000000a0: 1574 8fbc bb73 c33d 7954 23be bbb0 743d
000000b0: 51e1 0a3e ea76 aa3c 2e95 fcbc 616b ab3e
000000c0: 9f9b 893e 1642 f9bc 7424 fabd 57dd dd3d
000000d0: df24 5bbe a314 0f3d 9890 d2bd e0fd c6be
000000e0: f41b bcbd ee36 043e 47be b1bd cfca 43be
000000f0: d835 41be c2eb 823d edea 37bd d529 883d
00000100: 53d8 96bd 66be e03d 11d6 e23d 9565 bbbc
00000110: 4d9a ebbd 378d 313d ddd1 e33c f1ca 3d3e
00000120: 939f b1bc 281b 8fbe fdaf 6d3d 4456 983d
00000130: e7e5 3ebe 2af2 91bd f224 773d 8fd8 b93d
00000140: adac 42bd e0bc 103e f8e4 f4bc f502 01bd
00000150: b399 0bbe 7887 1b3e 10bd e3bd 7eeb afbd
00000160: c54b 953e 5044 f33d a8fd 993c 695e 4abd
00000170: 574f dbbd dd2e bb3d 4ab5 f6bd 23a6 943d
00000180: a667 c3bc 96c5 3bbe 43f1 e9bd 421c 5ebb
00000190: 1d4c a2bc 4276 1f3d 71ce 7abb 270a 90bb
000001a0: 67d4 8bbd 75d8 65be 1601 fdbc 46fb 04bd
000001b0: 38df f23d ee89 f5bd 622d 95bd 2b15 9cbd
000001c0: 75c9 0b3d 7c88 053e f581 5a3d 1bbd 4abd
000001d0: 0fb6 d83a 9710 933c 454d 873e 30fe c6bb
000001e0: 549a 8dbd aee0 313e 48e6 e23d 0fb9 7b3e
000001f0: 9a58 7ebe d714 06be c168 ed3d 963d 4d3e
00000200: 8e63 353e 4f25 23be 0df6 94bc ff4d 423c
00000210: 7618 a1bd d566 fc3d d62f 1cbc 4987 71bd
00000220: c370 d0bd ca90 54be bef7 7b3d 211a 783c
00000230: dd0f 09bd 78d4 753d a557 ffbc d2c5 debd
00000240: aa87 a8bd d494 063e 1d07 8fbd 1ce3 a03d
00000250: 5734 27bd 4d78 32be 97d0 74bd c00f dc3d
00000260: d063 933d a409 ec3d a087 a63d b575 a7bd
00000270: 30d3 043e 8a41 0dbd 9475 65be 3678 21be
00000280: a0b7 a8bd f27f a43d 5125 00bd 26d8 78bd
00000290: 4f18 713d c206 83bd 4202 7cbd a007 72be
000002a0: f4d2 44bd 757d bcbd 57cc 8e3e 9a5a 87bd
000002b0: 1976 2f3e 03b7 95bb 83aa a33d 423e 823c
000002c0: 9d3b 2bbd ce8a e73d a9df a23d 5d71 7d3c
000002d0: d6b0 de3d 1d5a 05bd 993b 52bd c77f 23bd
000002e0: 377d b43d b50f 06bd 0828 27bc b92e 2a3b
000002f0: 5c4e 30bc 315a d63d e9d5 153e 8f0a 333e
00000300: fb76 633c d761 523e 90a9 e1ba 3040 823d
00000310: 2b24 9f3d c849 39be 9e0e c53d c790 6abd
00000320: 2105 06be ac75 5cbd c87b 2d3e 3857 753d
00000330: 763b 9a3e a8ea 83bd 084e dd3d bb47 16be
00000340: a0f1 dcbd 9482 6f3c 14e7 f33d c6f2 15bc
00000350: d49a 993e 426b 133e f404 403e 3157 0b3c
00000360: 4219 dcbd a8b1 e83d dcf8 753d 6ddd 90bd
00000370: b204 113e 1da0 143d 0ebd 073c c435 07bd
00000380: ab53 cabe 4126 eebd 1d04 4fbd 12c9 81bd
00000390: 0152 b83c 2b15 953e 1784 393e 6ec6 423e
000003a0: 7704 82bd 1970 bd3d 60dd 963d 8ddf 373e
000003b0: 58be 1f3e dbc0 ce3d d2f0 023d 846f a23c
000003c0: ce40 8f3e 43bc 963c b577 613d 445c 32be
000003d0: a5f0 54bc 12c3 e1bd daaa 883d 321a a7bd
000003e0: 66b9 cbbd a67d 903e 9178 abbe 6d23 273e
000003f0: 0b68 b0bb 640e 7fbb b3a5 a63c e195 2abc
0.112018436 0.08289621 -0.043676484 -0.115264475 0.13211611 0.07643941 0.035407286 -0.24373141
-0.14917701 -0.17262144 -0.020304179 0.14514847 0.0782089 -0.018627279 -0.04677596 -0.12925467
0.041219555 0.018360354 0.036329612 0.08707963 -0.07431603 0.18255691 0.006183002 -0.009113135
0.067585036 0.19004162 0.03445004 0.050569844 0.061953697 -0.22349586 0.16614133 0.047818866
-0.1564792 -0.27521366 -0.12883893 -0.09814562 0.14868306 0.13987611 0.04907392 -0.09609814
-0.017511407 0.09543558 -0.15950193 0.059738856 0.13562514 0.020808656 -0.030832853 0.3348036
0.26876542 -0.03042702 -0.12213984 0.10833233 -0.21400784 0.03493179 -0.10281485 -0.38865566
-0.09185019 0.12911579 -0.08678871 -0.19120334 -0.18868196 0.063926235 -0.044901777 0.06648604
-0.07365479 0.109738156 0.11075986 -0.022875587 -0.1150404 0.043347564 0.027810032 0.18534447
-0.021682536 -0.27950406 0.058029164 0.07438329 -0.18642388 -0.07126267 0.06033797 0.090745084
-0.047527958 0.1413455 -0.029894337 -0.03149696 -0.1363285 0.15188396 -0.11120045 -0.085898384
0.2915937 0.11878264 0.01879771 -0.049406443 -0.10708492 0.09139798 -0.12046297 0.072582506
-0.023853134 -0.18337092 -0.1142297 -0.0033891355 -0.019811684 0.03893114 -0.0038270021 -0.0043957415
-0.06827622 -0.22445853 -0.030884307 -0.032466196 0.11858982 -0.119891986 -0.07284047 -0.07621225
0.03412767 0.13040346 0.053346593 -0.04949675 0.001653375 0.017952247 0.2642614 -0.006072782
-0.069142014 0.17370865 0.11079079 0.24582313 -0.24838486 -0.13093887 0.11592246 0.20043024
0.17713758 -0.15932201 -0.018183732 0.011859416 -0.07865994 0.12324301 -0.009532889 -0.05896691
-0.101777576 -0.20758358 0.061515562 0.015142948 -0.033462394 0.06001708 -0.031169722 -0.10877575
-0.08229001 0.13142711 -0.069837786 0.07855818 -0.0408214 -0.17428704 -0.05976924 0.107451916
0.07196772 0.11525276 0.08131337 -0.08176748 0.12971187 -0.03448633 -0.22408134 -0.15768513
-0.08238149 0.08032216 -0.031285588 -0.06075301 0.058861073 -0.06397773 -0.06152559 -0.23635721
-0.048052743 -0.092036165 0.27890274 -0.06609078 0.17134894 -0.004568936 0.07991507 0.015898827
-0.0418049 0.11305772 0.07952816 0.015468922 0.108735725 -0.03255664 -0.051326368 -0.03991678
0.08812945 -0.032729823 -0.010202415 0.002596779 -0.01076087 0.104664214 0.14632381 0.17484497
0.013883348 0.20545135 -0.0017216671 0.06359899 0.0777057 -0.18094552 0.09621929 -0.057266977
-0.13087894 -0.05382316 0.1694175 0.05989763 0.3012349 -0.064412415 0.10805899 -0.146758
-0.10788274 0.014618535 0.11909309 -0.00915212 0.30000937 0.14396384 0.1875189 0.008504675
-0.10747005 0.1136201 0.060051784 -0.070734836 0.14161947 0.03628551 0.00828482 -0.03301026
-0.3951696 -0.1162839 -0.050541032 -0.06337179 0.02250004 0.29117712 0.18116795 0.19021007
-0.06348508 0.092498966 0.07366443 0.17956372 0.15599954 0.10095378 0.031967945 0.019828565
0.2797913 0.018400317 0.055045802 -0.17418009 -0.012996827 -0.11023535 0.06673212 -0.08159293
-0.09947471 0.28220862 -0.33490422 0.16322108 -0.0053834966 -0.003891849 0.020342683 -0.0104117105

network_body._body_endoder.seq_layers.2.bias f4 [64]
00000000: cd13 3d3c ee83 a13b fbfc 2eb9 3493 173d
00000010: 0fa4 7d3c 9ca9 ccbc 2731 2a3c 3144 cb3c
00000020: 77f3 463d 0b3c 983c c647 1e3d 94e9 ccbc
00000030: 095a 243d 1646 f53c 96d7 e9bb f83c b43c
00000040: d6bc a93c 245f 393c e2fa 973c 5387 073c
00000050: 236e 0d3d ae68 113d 3050 4aba 83b9 14bc
00000060: bb6f b33c 8305 b33c a65e 43bb 58bc 7d3c
00000070: 22ce f33b 548e 3f3c 6c14 293d 9e65 433c
00000080: 09fb 9a3c f995 0b3c eba7 373d 8204 7b3c
00000090: 5c1a 083a bf2f 7cbc cec7 bebc ff94 d13c
000000a0: d610 253d 36ae 4abc 19d9 daba 9c9c 6d3b
000000b0: 4b31 f73d f9bd d13c c6dc c13c dd4a 0a3d
000000c0: d2d7 a23c f672 efbb b286 953b 7890 96bc
000000d0: 28dd e23b 80e2 87bc bf4d e5ba 844b 88bc
000000e0: 0ba1 183d c366 3a3d 6003 d93c 3c89 dc3c
000000f0: 2a8f f13b 49e8 e0bb 9967 59bc 2b17 4c3d
0.011540365 0.0049290573 -0.00016688176 0.03700562 0.015481009 -0.02498322 0.010387695 0.02481279
0.04857203 0.018583318 0.038642667 -0.025013722 0.040124927 0.029940646 -0.0071362955 0.022001728
0.020719927 0.011314187 0.018552247 0.00827201 0.034528863 0.03550022 -0.00077176373 -0.009077433
0.021903863 0.021853214 -0.0029811054 0.015486799 0.0074403444 0.0116916485 0.04127924 0.011926083
0.018918531 0.008519643 0.044837873 0.015320899 0.0005191916 -0.015392243 -0.023288634 0.025583742
0.04029926 -0.012370637 -0.001669678 0.0036256677 0.12069949 0.025603281 0.023664843 0.0337628
0.019878302 -0.0073074056 0.004563176 -0.018379435 0.0069233365 -0.016587496 -0.0017494484 -0.016637571
0.037262958 0.045508157 0.026490867 0.026920907 0.007371803 -0.006863628 -0.0132693285 0.049826782
