results/new_test_run_0/simple_deer/simple_deer-103.onnx (onnx, 480881 bytes, 15 tensors)

network_body.observation_encoder.processors.0.self_ent_encoder.seq_layers.0.bias f4 [128]
0.0 0.0 0.0 0.0 0.0 0.0 0.0 0.0
0.0 0.0 0.0 0.0 0.0 0.0 0.0 0.0
0.0 0.0 0.0 0.0 0.0 0.0 0.0 0.0
0.0 0.0 0.0 0.0 0.0 0.0 0.0 0.0
0.0 0.0 0.0 0.0 0.0 0.0 0.0 0.0
0.0 0.0 0.0 0.0 0.0 0.0 0.0 0.0
0.0 0.0 0.0 0.0 0.0 0.0 0.0 0.0
0.0 0.0 0.0 0.0 0.0 0.0 0.0 0.0
0.0 0.0 0.0 0.0 0.0 0.0 0.0 0.0
0.0 0.0 0.0 0.0 0.0 0.0 0.0 0.0
0.0 0.0 0.0 0.0 0.0 0.0 0.0 0.0
0.0 0.0 0.0 0.0 0.0 0.0 0.0 0.0
0.0 0.0 0.0 0.0 0.0 0.0 0.0 0.0
0.0 0.0 0.0 0.0 0.0 0.0 0.0 0.0
0.0 0.0 0.0 0.0 0.0 0.0 0.0 0.0
0.0 0.0 0.0 0.0 0.0 0.0 0.0 0.0
00000000: 0000 0000 0000 0000 0000 0000 0000 0000
00000010: 0000 0000 0000 0000 0000 0000 0000 0000
00000020: 0000 0000 0000 0000 0000 0000 0000 0000
00000030: 0000 0000 0000 0000 0000 0000 0000 0000
00000040: 0000 0000 0000 0000 0000 0000 0000 0000
00000050: 0000 0000 0000 0000 0000 0000 0000 0000
00000060: 0000 0000 0000 0000 0000 0000 0000 0000
00000070: 0000 0000 0000 0000 0000 0000 0000 0000
00000080: 0000 0000 0000 0000 0000 0000 0000 0000
00000090: 0000 0000 0000 0000 0000 0000 0000 0000
000000a0: 0000 0000 0000 0000 0000 0000 0000 0000
000000b0: 0000 0000 0000 0000 0000 0000 0000 0000
000000c0: 0000 0000 0000 0000 0000 0000 0000 0000
000000d0: 0000 0000 0000 0000 0000 0000 0000 0000
000000e0: 0000 0000 0000 0000 0000 0000 0000 0000
000000f0: 0000 0000 0000 0000 0000 0000 0000 0000
00000100: 0000 0000 0000 0000 0000 0000 0000 0000
00000110: 0000 0000 0000 0000 0000 0000 0000 0000
00000120: 0000 0000 0000 0000 0000 0000 0000 0000
00000130: 0000 0000 0000 0000 0000 0000 0000 0000
00000140: 0000 0000 0000 0000 0000 0000 0000 0000
00000150: 0000 0000 0000 0000 0000 0000 0000 0000
00000160: 0000 0000 0000 0000 0000 0000 0000 0000
00000170: 0000 0000 0000 0000 0000 0000 0000 0000
00000180: 0000 0000 0000 0000 0000 0000 0000 0000
00000190: 0000 0000 0000 0000 0000 0000 0000 0000
000001a0: 0000 0000 0000 0000 0000 0000 0000 0000
000001b0: 0000 0000 0000 0000 0000 0000 0000 0000
000001c0: 0000 0000 0000 0000 0000 0000 0000 0000
000001d0: 0000 0000 0000 0000 0000 0000 0000 0000
000001e0: 0000 0000 0000 0000 0000 0000 0000 0000
000001f0: 0000 0000 0000 0000 0000 0000 0000 0000

network_body.observation_encoder.processors.2.normalizer.running_mean f4 [2]
0.60192305 0.49163464
00000000: a117 1a3f 89b7 fb3e

network_body.observation_encoder.x_self_encoder.seq_layers.0.weight f4 [128, 2]
0.047418952 0.039342273 0.024743592 -0.0091321785 -0.019016946 -0.005022279 -0.01584609 -0.029231185
0.02330103 -0.014821672 -0.03279077 -0.036433786 0.0062055993 0.007486108 -0.050775144 -0.005041137
-0.036657628 -0.012265311 0.02341917 -0.06516623 0.0025526637 -0.020333674 -0.027144305 0.008955891
-0.036899533 0.0128884 -0.00079753663 -0.042779017 0.016303372 -0.018811943 -0.015560104 0.04161744
-0.014278448 -0.050875917 0.003970037 0.030500997 -0.0003227236 -0.005940909 -0.003249011 -0.04254216
-0.020945616 0.06309743 -0.071447 0.034629308 0.011509429 -0.02127808 0.0277932 0.017309872
-0.03616879 -0.028323306 0.0045013865 0.03564872 -0.049461283 0.008248305 0.0013122574 -0.005624395
0.008064992 -0.01703402 -0.0033338813 0.007088015 0.014978128 -0.051686052 -0.023535684 0.008846621
-0.062218837 0.003617131 -0.06696353 -0.039749462 -0.027182408 0.04146322 0.011121694 0.025326323
0.009690516 -0.065227285 -0.024457112 0.008693516 -0.018622022 -0.03722142 0.0044866586 0.032149844
0.0077004083 0.018187236 0.013045646 -0.00015873018 -0.012473527 0.06517922 -0.008172506 0.02279449
-0.044251632 0.06394664 -0.0004966889 -0.00070316106 0.03445786 0.022557165 -0.03171575 0.020085085
0.010338762 -0.09054133 0.0021626137 -0.05954071 0.007151685 -0.0017010135 -0.040504027 -0.05428114
0.04254731 -0.06741631 -0.011693815 -0.004957448 -0.02188718 -0.0054334733 0.020236041 0.011597689
-0.04627019 0.01404655 -0.015589243 0.010468192 -0.026149102 0.008176327 -0.038668927 0.024531653
-0.034784243 0.013862693 0.029782854 -0.017060662 -0.026905134 0.015045094 -0.013050472 -0.0066040074
-0.0056762863 -0.017976418 0.023574192 0.022136275 0.065978214 -0.03536343 -0.000271828 0.0010758229
0.069280185 0.0017407663 0.018051038 0.0011610846 0.018768728 0.038039364 -0.015842387 -0.042034
-0.047760054 0.0420322 0.008738778 -0.00040791163 0.0035676311 -0.017158378 0.0028990859 0.00085535005
0.052247785 -0.013288694 0.010091575 -0.036847673 0.009516591 0.021416372 -0.044383023 -0.011394865
-0.030923186 -0.023849621 0.05293812 -0.026826851 -0.0030042306 0.03437099 -0.07318552 -0.027810207
-0.010421663 -0.016790798 -0.010841963 0.005646765 0.02042407 0.00084385055 0.008178849 0.010977898
-0.003086544 -0.015007451 -0.0072343857 0.03406445 0.029567335 -0.037835516 0.018652579 0.008178052
-0.04167817 -0.05574153 -0.048014447 0.016238198 0.00018602073 0.048634112 0.03704429 -0.04238812
0.0063170795 -0.033102546 0.046984512 -0.00045185367 -0.00724399 -0.020464728 0.016416384 0.02419422
-0.010256358 -0.012450774 0.028805593 0.005988299 0.026357496 -0.0034432092 0.0023787003 -0.034574125
-0.04829188 0.072806925 -0.023243904 -0.01658154 -0.007474685 0.036400568 -0.04044583 0.016321138
0.024359675 -0.043490224 -0.024060078 0.004669536 -0.030707458 -0.024576304 0.042784564 0.0010016988
0.0036146683 -0.008844216 -0.02721869 0.01525879 -0.024034437 0.010440561 0.04345205 -0.0008570208
-0.0556543 0.0028576558 0.044036973 0.030769244 -0.0030554782 0.033038504 -0.023547078 0.012652519
0.068620436 -0.025756476 -0.0018656334 0.056349587 0.032049537 -0.03801583 0.047785684 0.032730065
-0.026799254 -0.043033708 -0.0028723225 0.031940077 -0.012078386 -0.058009252 -0.027078824 -0.031474963
00000000: 603a 423d 5d25 213d 13b3 ca3c 229f 15bc
00000010: 6dc9 9bbc ee91 a4bb a9cf 81bc 3d76 efbc
00000020: cde1 be3c 99d6 72bc 9d4f 06bd 983b 15bd
00000030: 5758 cb3b 074e f53b 99f9 4fbd 1f30 a5bb
00000040: 4f26 16bd 71f4 48bc 8fd9 bf3c df75 85bd
00000050: 974a 273b ce92 a6bc bc5d debc bbbb 123c
00000060: f723 17bd de29 533c c711 51ba 0d39 2fbd
00000070: a68e 853c 811b 9abc ceef 7ebc 0c77 2a3d
00000080: 27f0 69bc 4463 50bd 1617 823b 3add f93c
00000090: 3a33 a9b9 f5ab c2bb 5ced 54bb b040 2ebd
000000a0: 2496 abbc 3a39 813d ce52 92bd 76d7 0d3d
000000b0: 0b92 3c3c 5e4f aebc 91ae e33c 6fcd 8d3c
000000c0: ba25 14bd 4706 e8bc 5e80 933b 6404 123d
000000d0: ea97 4abd e623 073c 0d00 ac3a d84c b8bb
000000e0: 0723 043c ee8a 8bbc 3f7d 5abb 9442 e83b
000000f0: d266 753c c1b4 53bd e8cd c0bc 6bf1 103c
00000100: 2ed9 7ebd 630d 6d3b 2d24 89bd 55d0 22bd
00000110: a4ad debc 56d5 293d c437 363c 2679 cf3c
00000120: f8c4 1e3c e295 85bd 485a c8bc 406f 0e3c
00000130: 368d 98bc 7d75 18bd d204 933b 8eaf 033d
00000140: b553 fc3b 66fd 943c 68bd 553c cf70 26b9
00000150: c45d 4cbc af7c 853d f9e5 05bc 83bb ba3c
00000160: 3341 35bd 75f6 823d 3a34 02ba 5754 38ba
00000170: af23 0d3d cec9 b83c 60e8 01bd 7a89 a43c
00000180: e963 293c bc6d b9bd a3ba 0d3b f6e0 73bd
00000190: af58 ea3b 8bf4 deba 8de7 25bd e755 5ebd
000001a0: 1746 2e3d 9011 8abd 6a97 3fbc 1772 a2bb
000001b0: be4c b3bc 470b b2bb 0ec6 a53c 3c04 3e3c
000001c0: d085 3dbd 8023 663c 066a 7fbc c882 2b3c
000001d0: a436 d6bc 00f6 053c 4f63 1ebd 9bf6 c83c
000001e0: ec79 0ebd 5920 633c 2cfb f33c cdc2 8bbc
000001f0: 2868 dcbc b37f 763c a6d1 55bc 6e66 d8bb
00000200: 2400 babb 4843 93bc aa1e c13c 2257 b53c
00000210: 961f 873d 3ed9 10bd 2384 8eb9 a002 8d3a
00000220: c5e2 8d3d 6d2a e43a c5df 933c 892f 983a
00000230: e0c0 993c 2acf 1b3d e5c7 81bc d82b 2cbd
00000240: 0ca0 43bd f529 2c3d 172d 0f3c f9dc d5b9
00000250: ebce 693b ba8f 8cbc 97fe 3d3b 9239 603a
00000260: c601 563d d3b8 59bc 2257 253c 96ed 16bd
00000270: 7aeb 1b3c 6371 af3c f9ca 35bd 87b1 3abc
00000280: 9f52 fdbc 4860 c3bc a4d5 583d fcc3 dbbc
00000290: a0e2 44bb 98c8 0c3d 4ae2 95bd 3bd2 e3bc
000002a0: 9fbf 2abc db8c 89bc 7da2 31bc 8008 b93b
000002b0: 6150 a73c da35 5d3a 9400 063c a4dc 333c
000002c0: 9e47 4abb d0e1 75bc 6d0e edbb 2a87 0b3d
000002d0: 3237 f23c 6af9 1abd 4bcd 983c 3cfd 053c
000002e0: bbb6 2abd 3b51 64bd ccaa 44bd f805 853c
000002f0: 8f0e 4339 9034 473d c1bb 173d 2a9f 2dbd
00000300: 81ff ce3b 8996 07bd d572 403d c6e6 ecb9
00000310: fe5e edbb a5a5 a7bc a77b 863c f532 c63c
00000320: 490a 28bc 55fe 4bbc b5f9 eb3c 7e39 c43b
00000330: adeb d73c 77a7 61bb f8e3 1b3b 999d 0dbd
00000340: b5cd 45bd cc1b 953d 006a bebc 03d6 87bc
00000350: 34ee f4bb c318 153d 87aa 25bd e8b3 853c
00000360: f18d c73c ce22 32bd a419 c5bc e802 993b
00000370: 358e fbbc 3f54 c9bc de3e 2f3d 6f4b 833a
00000380: 12e4 6c3b 55e7 10bc bbf9 debc 0100 7a3c
00000390: dee3 c4bc e30e 2b3c c7fa 313d b1a9 60ba
000003a0: c3f5 63bd 8247 3b3b 1d60 343d c80f fc3c
000003b0: 6b3e 48bb 6253 073d cde5 c0bc 834c 4f3c
000003c0: df88 8c3d 3fff d2bc 4588 f4ba d3ce 663d
000003d0: 6046 033d 7db6 1bbd ecba 433d f60f 063d
000003e0: 1c8a dbbc 1d44 30bd 933d 3cbb 99d3 023d
000003f0: 6ce4 45bc 1c9b 6dbd 69d4 ddbc e4eb 00bd

network_body._body_endoder.seq_layers.0.weight f4 [64, 130]
0.05116818 0.04452106 -0.16429219 8.807221e-05 0.02277187 0.013725872 -0.041447718 -0.12198398
-0.10919271 0.10719628 -0.04414462 -0.08115058 0.1448199 -0.13765137 0.034051824 0.049284272
0.0884682 -0.043410387 -0.042514943 -0.057720505 -0.05300215 -0.03219442 0.06760738 0.10071281
0.14817029 0.102391526 0.040121134 -0.06478354 -0.03494501 0.13265741 -0.1193128 0.010830028
-0.052678138 0.03786729 0.07087895 -0.07788056 -0.14370057 0.032736342 -0.19805184 0.11217776
0.067613736 -0.06504166 -0.003076902 -0.096745625 -0.087308116 -0.05141492 -0.03033533 -0.05338865
0.0027593612 -0.006247688 0.026663627 0.033060722 -0.13212746 0.10780666 -0.009571834 -0.00748747
0.048535123 -0.058133 -0.014583409 -0.020446163 -0.027260741 -0.03201098 -0.05206528 0.051641762
0.051287666 -0.071058966 0.1406154 -0.11775269 -0.034912076 -0.06164105 -0.30453098 -0.08970969
-0.0037556197 -0.042986907 -0.03821567 -0.017521745 0.0939317 -0.19639665 -0.046714596 0.106460266
-0.06753019 -0.09141018 0.04373205 0.004219307 -0.056778833 0.06417188 -0.010257288 -0.0412395
-0.049668618 0.10331885 -0.08118227 0.016451828 0.05604584 -0.03824307 -0.0033220644 0.009911908
0.010742345 0.025356151 -0.08426715 0.067617975 -0.0142335445 0.12250469 0.0041105007 -0.07282001
-0.008167024 0.07412237 -0.060561217 0.022448456 0.10335531 0.12187704 0.036076322 -0.07042565
-0.13533756 0.01611918 0.05336912 0.039462414 0.10495438 0.10543707 0.060519014 0.07918786
-0.055761147 0.04526664 0.015339801 -0.11583579 -0.03381989 0.12675908 -0.0801913 0.041991957
-0.08806053 -0.09335607 0.06881572 -0.06649727 0.23372829 -0.050617926 -0.026394796 -0.09104688
0.10220041 0.056484614 -0.12676686 -0.020823617 -0.1286079 -0.05232368 -0.13470863 0.15076783
0.059016153 0.10523087 -0.13996254 -0.05599162 0.05866783 0.0659804 -0.06810378 -0.076555416
0.0013037637 -0.035847373 -0.090409845 -0.1349192 0.15579946 -0.015284146 0.04599256 0.021664396
-0.052569766 -0.07242377 -0.15603878 -0.11845622 0.073939174 -0.07760345 -0.012015104 -0.12862514
0.05024973 -0.14983161 -0.032246094 -0.17406254 0.046845134 -0.19305883 -0.030215433 0.079577684
-0.03591372 -0.1550529 0.11997212 0.094308674 0.04025509 -0.05229626 -0.15270203 0.074424826
0.020560162 -0.029774731 0.19492973 -0.088712595 0.02886035 -0.047378045 0.089626186 0.02300495
0.049047444 0.0143327275 -0.038036566 -0.12169455 -0.04295193 0.05266283 -0.06519408 -0.09217756
-0.004078546 -0.03853195 0.14999728 -0.16952927 0.043181762 -0.07430315 0.13036177 -0.03223432
0.030549336 -0.12600778 0.038258746 -0.06534762 -0.005558222 0.04106374 0.07348853 -0.12457495
0.111335725 0.044619888 0.021823991 -0.006095948 0.003404608 0.06175098 -0.107788414 0.065141335
0.15947904 0.018051682 0.024422104 0.089393616 0.11597566 -0.0601487 -0.03857632 -0.089168735
0.19031882 0.06660173 0.02591042 -0.17683311 -0.0056770593 0.125584 -0.1843501 0.026814781
-0.044695523 0.15217723 0.095014155 0.029550448 -0.15252367 0.0024223246 -0.050717752 -0.049939927
0.0020266983 0.039601266 0.153538 -0.03276774 0.0580854 0.08368055 0.047520034 -0.11343409
00000000: ba95 513d b75b 363d 363c 28be 68b3 b838
00000010: 138c ba3c 7be2 603c 15c5 29bd bdd2 f9bd
00000020: 6da0 dfbd b989 db3d fdd0 34bd 4632 a6bd
00000030: ab4b 143e 7bf4 0cbe ed79 0b3d 4ede 493d
00000040: d12e b53d 17cf 31bd 2624 2ebd 566c 6cbd
00000050: c818 59bd 4cde 03bd bd75 8a3d 8542 ce3d
00000060: f4b9 173e a6b2 d13d 0f56 243d 3cad 84bd
00000070: 8022 0fbd 58d7 073e 455a f4bd 6e70 313c
00000080: 08c5 57bd bb1a 1b3d fc28 913d d87f 9fbd
00000090: 3e26 13be 8b16 063d 1ace 4abe 74bd e53d
000000a0: 1279 8a3d 9034 85bd d9a5 49bb 9222 c6bd
000000b0: 99ce b2bd 7398 52bd cc81 f8bc 0fae 5abd
000000c0: 66d6 343b 68b9 ccbb ae6d da3c ae6a 073d
000000d0: 6c4c 07be bdc9 dc3d 2ed3 1cbc 7359 f5bb
000000e0: c4cc 463d de1c 6ebd 40ef 6ebc b67e a7bc
000000f0: eb51 dfbc f21d 03bd 6742 55bd 5086 533d
00000100: 0413 523d 5d87 91bd 7cfd 0f3e 5328 f1bd
00000110: f7ff 0ebd 537b 7cbd 7ceb 9bbe b7b9 b7bd
00000120: d820 76bb 0a13 30bd 0988 1cbd c389 8fbc
00000130: 435f c03d 341c 49be ce57 3fbd d707 da3d
00000140: 454d 8abd 4335 bbbd 6120 333d 1d42 8a3b
00000150: ec90 68bd 8c6c 833d 2f0e 28bc c0ea 28bd
00000160: 5271 4bbd d598 d33d e442 a6bd fcc5 863c
00000170: 5390 653d c4a4 1cbd feb6 59bb 8e65 223c
00000180: a900 303c b4b7 cf3c 4194 acbd 4b7b 8a3d
00000190: d033 69bc bde3 fa3d 61b1 863b a822 95bd
000001a0: fbce 05bc 78cd 973d 0a0f 78bd d3e5 b73c
000001b0: f3ab d33d ab9a f93d c4c4 133d 533b 90bd
000001c0: ee95 0abe 5f0c 843c 9499 5a3d 57a3 213d
000001d0: 52f2 d63d 64ef d73d c9e2 773d 3f2d a23d
000001e0: cd65 64bd 8369 393d ca53 7b3c 513b edbd
000001f0: ba86 0abd 22cd 013e 563b a4bd c2ff 2b3d
00000200: 1459 b4bd 7831 bfbd 42ef 8c3d b82f 88bd
00000210: 7856 6f3e be54 4fbd e639 d8bc c976 babd
00000220: 734e d13d 695c 673d 2ccf 01be 4a96 aabc
00000230: cab1 03be 5b51 56bd 0ff1 09be e262 1a3e
00000240: ecba 713d 4883 d73d 5752 0fbe 7857 65bd
00000250: ae4d 703d bb20 873d ff79 8bbd 16c9 9cbd
00000260: 0de3 aa3a b2d4 12bd cc28 b9bd 4228 0abe
00000270: e589 1f3e 5b6a 7abc b262 3c3d 8879 b13c
00000280: 6553 57bd ea52 94bd a1c8 1fbe 2d99 f2bd
00000290: 6c6d 973d 8fee 9ebd 00db 44bc 4fb6 03be
000002a0: a9d2 4d3d 756d 19be 7b14 04bd 733d 32be
000002b0: afe0 3f3d 37b1 45be 5b86 f7bc a0f9 a23d
000002c0: 441a 13bd 30c6 1ebe f1b3 f53d e824 c13d
000002d0: 85e2 243d 9a34 56bd ec5d 1cbe 0b6c 983d
000002e0: c96d a83c 23ea f3bc a99b 473e f3ae b5bd
000002f0: 8a6c ec3c 7b0f 42bd ef8d b73d e074 bc3c
00000300: f9e5 483d d1d3 6a3c 3bcc 1bbd fe3a f9bd
00000310: 5dee 2fbd fbb4 573d 7984 85bd 97c7 bcbd
00000320: 53a5 85bb aed3 1dbd e398 193e 1599 2dbe
00000330: 5cdf 303d 402c 98bd 8e7d 053e 2208 04bd
00000340: 9a42 fa3c 2f08 01be 34b5 1c3d f9d4 85bd
00000350: bf21 b6bb 7432 283d 2881 963d 2721 ffbd
00000360: fc03 e43d 58c3 363d 3ac8 b23c 85c0 c7bb
00000370: d81f 5f3b 98ee 7c3d 2cc0 dcbd d268 853d
00000380: 794e 233e 1fe1 933c dd10 c83c 0014 b73d
00000390: a684 ed3d 7c5e 76bd 3402 1ebd 199e b6bd
000003a0: f0e2 423e 7d66 883d 1742 d43c bd13 35be
000003b0: a006 babb 1899 003e 46c6 3cbe acaa db3c
000003c0: a712 37bd 59d4 1b3e c896 c23d c813 f23c
000003d0: 2a2f 1cbe ddbf 1e3b 6bbd 4fbd cf8d 4cbd
000003e0: 5bd2 043b f034 223d 1139 1d3e 7737 06bd
000003f0: f5ea 6d3d b560 ab3d 5ea4 423d 2250 e8bd

network_body._body_endoder.seq_layers.0.bias f4 [64]
0.0 0.0 0.0 0.0 0.0 0.0 0.0 0.0
0.0 0.0 0.0 0.0 0.0 0.0 0.0 0.0
0.0 0.0 0.0 0.0 0.0 0.0 0.0 0.0
0.0 0.0 0.0 0.0 0.0 0.0 0.0 0.0
0.0 0.0 0.0 0.0 0.0 0.0 0.0 0.0
0.0 0.0 0.0 0.0 0.0 0.0 0.0 0.0
0.0 0.0 0.0 0.0 0.0 0.0 0.0 0.0
0.0 0.0 0.0 0.0 0.0 0.0 0.0 0.0
00000000: 0000 0000 0000 0000 0000 0000 0000 0000
00000010: 0000 0000 0000 0000 0000 0000 0000 0000
00000020: 0000 0000 0000 0000 0000 0000 0000 0000
00000030: 0000 0000 0000 0000 0000 0000 0000 0000
00000040: 0000 0000 0000 0000 0000 0000 0000 0000
00000050: 0000 0000 0000 0000 0000 0000 0000 0000
00000060: 0000 0000 0000 0000 0000 0000 0000 0000
00000070: 0000 0000 0000 0000 0000 0000 0000 0000
00000080: 0000 0000 0000 0000 0000 0000 0000 0000
00000090: 0000 0000 0000 0000 0000 0000 0000 0000
000000a0: 0000 0000 0000 0000 0000 0000 0000 0000
000000b0: 0000 0000 0000 0000 0000 0000 0000 0000
000000c0: 0000 0000 0000 0000 0000 0000 0000 0000
000000d0: 0000 0000 0000 0000 0000 0000 0000 0000
000000e0: 0000 0000 0000 0000 0000 0000 0000 0000
000000f0: 0000 0000 0000 0000 0000 0000 0000 0000

network_body._body_endoder.seq_layers.2.weight f4 [64, 64]
-0.018537616 0.1686546 -0.011795614 -0.015170177 0.12707391 0.009488901 -0.12041524 -0.08174129
-0.2297338 0.018831462 0.07846641 0.0021842632 0.13408042 -0.015337276 -0.0323177 -0.07660913
0.26405206 0.20768139 0.3230108 -0.16333239 0.15787418 -0.15711968 0.008455877 0.05118986
0.06812385 0.014929954 -0.108857185 -0.05311111 -0.14782524 -0.07974267 0.076587185 0.02731104
-0.10272928 0.044281095 0.17132452 0.008021253 -0.036702845 0.2575612 0.23680627 0.23979029
0.06625356 -0.23081435 0.06967169 -0.018232666 0.18660112 -0.2834828 -0.012621899 -0.23762064
-0.2102981 0.2379448 -0.09481172 -0.12813476 0.15561397 0.12074291 0.11508538 -0.16948932
-0.1261033 0.20549142 -0.05679179 0.042949088 0.28811193 -0.03465234 -0.009127087 -0.097456396
0.24727081 0.18795213 0.015353527 -0.0731982 -0.12667844 -0.17221276 -0.047350828 0.121290065
0.2719473 -0.12040592 0.11569721 -0.041542247 -0.026366688 0.017603584 -0.1799809 -0.16250597
-0.020144777 -0.04254276 0.1886632 0.15569988 -0.027640881 -0.012080254 0.08673538 -0.14336228
0.023470558 -0.07545276 -0.26643053 -0.024026018 -0.13909836 0.06486846 -0.10422453 -0.05977923
0.089882754 0.19938855 0.07413504 -0.10653264 0.06844419 0.13214943 -0.042963214 0.014413113
0.071090534 0.021375664 -0.04900436 0.11954638 0.1081585 0.06681794 -0.17648292 0.03594852
-0.1027912 -0.18341504 -0.12466656 -0.0090622185 0.0135180745 0.08492434 0.2996382 -0.1218975
0.030554155 0.008140112 0.26006922 0.065977015 0.119538955 0.060201954 0.0949163 0.10807779
-0.048137326 0.19210656 0.08986906 0.053243116 0.037924085 0.017386913 0.016689045 0.06630037
-0.2186743 -0.31941447 0.024356741 0.009812137 0.11551568 0.22394235 0.074066885 -0.22136827
0.091754615 -0.0514416 0.12820014 -0.1886737 0.09584298 0.06508414 -0.18886782 0.017808069
-0.08427856 0.0033092177 0.0640832 0.036329165 -0.11158035 0.18748693 -0.0067429543 0.22365494
0.17248333 0.14731005 0.008979902 -0.08415811 0.12161856 0.07110839 0.06214973 0.0681046
0.081080236 -0.009014092 0.066007555 0.08044123 -0.082463235 -0.009106146 0.1891559 -0.05285409
0.06723484 -0.002310443 0.094337694 0.3356457 -0.117042966 0.007782245 0.19167092 0.0040906477
0.1478771 0.060852636 -0.18912461 -0.043424707 0.13571356 -0.06933733 -0.12881447 0.029197484
0.029103989 -0.005891008 0.002961391 -0.11061973 -0.08887723 -0.05340994 -0.023550877 0.115550525
0.27309734 0.04054229 0.079162665 0.027874438 0.15538692 0.07443814 0.02943766 0.16833802
-0.02117304 0.08847751 -0.012215798 -0.15686545 -0.27036428 0.16678566 0.07044031 0.052417934
0.048976768 -0.15916862 -0.11635005 -0.090422936 -0.12745021 0.09583554 -0.18250047 0.30871552
-0.3183013 0.019551503 0.094271354 0.011529707 -0.086423576 -0.044187255 -0.066142745 -0.033441823
0.080822855 -0.28277484 -0.017166788 -0.028884951 -0.033582497 0.3336629 0.05983477 -0.18953493
-0.16041914 0.03565036 0.18412577 -0.3035662 -0.059825942 0.060746584 0.18080959 0.09115541
-0.277645 0.15208106 0.12718104 -0.19399026 0.13296351 0.031795528 -0.119708456 -0.038659878
00000000: 33dc 97bc cbb3 2c3e 6442 41bc 568c 78bc
00000010: aa1f 023e 5677 1b3c 449c f6bd fa67 a7bd
00000020: 563f 6bbe 7044 9a3c ffb2 a03d db25 0f3b
00000030: 614c 093e 3349 7bbc 915f 04bd 3fe5 9cbd
00000040: d531 873e 6eaa 543e ac61 a53e 9b40 27be
00000050: c5a9 213e fbe3 20be 858a 0a3c 75ac 513d
00000060: 8484 8b3d c49c 743c 84f0 debd 098b 59bd
00000070: 805f 17be 2050 a3bd bed9 9c3d 67bb df3c
00000080: bb63 d2bd 1860 353d b26f 2f3e 936b 033c
00000090: b955 16bd 10df 833e 587d 723e 968b 753e
000000a0: f2af 873d 995a 6cbe 08b0 8e3d ac5c 95bc
000000b0: 5d14 3f3e a824 91be 15cc 4ebc d352 73be
000000c0: 6358 57be cda7 733e a62c c2bd c235 03be
000000d0: 4559 1f3e 0f48 f73d e2b1 eb3d 9c8e 2dbe
000000e0: 3921 01be 586c 523e 829e 68bd 62eb 2f3d
000000f0: 6883 933e 9def 0dbd c789 15bc 3897 c7bd
00000100: 8f34 7d3e 8676 403e 5c8d 7b3c f0e8 95bd
00000110: feb7 01be 8b58 30be f1f2 41bd ed66 f83d
00000120: ad3c 8b3e 6197 f6bd a9f2 ec3d 3428 2abd
00000130: f4fe d7bc 6435 903c ea4c 38be f767 26be
00000140: a906 a5bc 5141 2ebd ed30 413e ca6f 1f3e
00000150: 216f e2bc 42ec 45bc 52a2 b13d 90cd 12be
00000160: 5445 c03c fa86 9abd 9569 88be 36d2 c4bc
00000170: cd6f 0ebe c1d9 843d ac73 d5bd 11db 74bd
00000180: 7314 b83d 832c 4c3e 1dd4 973d c92d dabd
00000190: 782c 8c3d 2e52 073e 32fa 2fbd fa24 6c3c
000001a0: ea97 913d 041c af3c ccb8 48bd bcd4 f43d
000001b0: 3482 dd3d d8d7 883d f0b7 34be c13e 133d
000001c0: 3184 d2bd 27d1 3bbe 2e51 ffbd b379 14bc
000001d0: ea7a 5d3c d0ec ad3d 2e6a 993e 65a5 f9bd
000001e0: b54c fa3c 1b5e 053c cb27 853e f51e 873d
000001f0: d7d0 f43d 5396 763d 7a63 c23d e357 dd3d
00000200: a52b 45bd 95b7 443e 450d b83d 7415 5a3d
00000210: 4956 1b3d 006f 8e3c 77b7 883c 7dc8 873d
00000220: 28ec 5fbe 4b8a a3be ca87 c73c 16c3 203c
00000230: 7c93 ec3d 2551 653e 61b0 973d 5dae 62be
00000240: d8e9 bb3d 6db4 52bd e646 033e ae33 41be
00000250: 5349 c43d d54a 853d 9166 41be 3ae2 913c
00000260: 3d9a acbd 76df 583b 0e3e 833d e4cd 143d
00000270: 3d84 e4bd 93fc 3f3e 00f4 dcbb cd05 653e
00000280: 789f 303e 72d8 163e 7020 133c 165b acbd
00000290: 2713 f93d 47a1 913d b790 7e3d 6d7a 8b3d
000002a0: 650d a63d d8af 13bc f82e 873d 5fbe a43d
000002b0: 7ce2 a8bd f231 15bc 16b2 413e 887d 58bd
000002c0: 6bb2 893d cd6a 17bb 1f34 c13d c1d9 ab3e
000002d0: 39b4 efbd 3402 ff3b 6245 443e d70a 863b
000002e0: 186d 173e 9d40 793d e2a9 41be 1bde 31bd
000002f0: 7ff8 0a3e bb00 8ebd f1e7 03be 902f ef3c
00000300: 7d6b ee3c 5b09 c1bb e513 423b 998c e2bd
00000310: 4405 b6bd 62c4 5abd c5ed c0bc c1a5 ec3d
00000320: 6ad3 8b3e ac0f 263d 0920 a23d ef58 e43c
00000330: c01d 1f3e 0673 983d 3f27 f13c cd60 2c3e
00000340: 1573 adbc b233 b53d c524 48bc 56a1 20be
00000350: 306d 8abe dcc9 2a3e 0243 903d 30b4 563d
00000360: dd9b 483d 19fd 22be ef48 eebd a92f b9bd
00000370: 4f82 02be 6c45 c43d 67e1 3abe f60f 9e3e
00000380: 63f8 a2be 792a a03c 5711 c13d 19e7 3c3c
00000390: d8fe b0bd b2fd 34bd d975 87bd 4bfa 08bd
000003a0: 7486 a53d ddc7 90be 5da1 8cbc 22a0 ecbc
000003b0: cd8d 09bd ddd5 aa3e 4e15 753d 7215 42be
000003c0: ea44 24be 1d06 123d 778b 3c3e 076d 9bbe
000003d0: 0c0c 75bd 69d1 783d 2626 393e b0af ba3d
000003e0: 7c27 8ebe 23bb 1b3e bf3b 023e 62a5 46be
000003f0: 9627 083e 073c 023d b529 f5bd d259 1ebd

action_model._discrete_distribution.branches.0.weight f4 [9, 64]
0.0016242132 0.0011606864 0.0123726195 0.0052964585 0.020812742 -0.0043275887 0.007304226 0.0072256117
0.002133792 -0.017841514 0.0004987283 0.020374436 0.031739067 0.012786997 -0.009215484 0.019694641
-0.0007078964 0.0015239952 0.016947577 0.008440795 -0.00054399285 0.010160165 -0.011195849 0.009894818
0.019214014 0.006807516 -0.0019247545 -0.012906829 -0.0028171449 -0.005286639 0.00506827 0.01719188
-0.0045883176 0.01753073 0.010998382 0.015851691 0.0065994896 0.0046447366 0.030541709 0.0031788272
0.0023607882 -0.0035705955 0.011869063 0.0056049763 -0.014098014 0.0133579 -0.0048619634 -0.016803334
-0.017941922 0.0032801104 -0.022698719 -0.0008655075 0.0042252652 0.023026489 0.013942708 0.0016805383
-0.00058139715 0.022641461 -0.009723905 0.017585406 -0.008296703 -0.011657762 0.0080259135 0.006534693
0.006346089 0.02328167 0.004342196 0.007065044 -0.014093119 0.0005091875 -0.014685841 -0.01658935
0.0095541505 -0.011700499 0.011100229 0.029134307 0.005413832 0.0043119946 -0.020182637 -0.0084478045
-0.0028859347 0.0028563307 -0.012473675 -0.010093098 0.0018737797 -0.019957997 0.0026751133 -0.003370151
-0.01613746 0.00371099 0.0036894658 -0.0061287167 0.011734976 0.006254299 0.019116228 -0.014560242
-0.0074336766 -0.008038108 -0.009541307 -0.005247021 -0.003924576 -0.00885465 -0.025160661 0.028630173
-0.01014216 0.0070857108 -0.01652818 0.005042112 0.0044169887 -0.0036942412 0.0022402273 -0.015993701
-0.0013714512 0.00979335 -0.013262743 0.0007870306 0.012895589 -0.00053807895 0.018229319 0.009180364
-0.027830347 -0.020812714 0.011710552 -0.008309755 0.0087350635 -0.014725536 0.0087174 -0.0017710582
0.029612333 0.0027212303 0.007602719 0.00487453 -0.005345775 -0.008304612 0.009524095 0.005486404
0.0056369086 0.01762863 0.0025127046 -0.0024162778 0.00039881413 -0.021462057 0.015295366 0.0027940206
0.0116933165 -0.0017271157 0.007157685 0.0040922863 -0.009778309 0.013836101 -0.0011457311 0.0018724734
0.008140716 0.017051373 -0.004692702 -0.0314666 -0.002736219 0.018049238 0.004467131 0.008280749
0.001296512 0.00914441 0.013460303 -0.02740269 -0.009051274 0.0044475845 0.004519151 0.01012365
0.018409554 0.00889956 -0.0023325207 -0.0066963644 -0.00021147278 0.0027544207 0.017210323 -0.0056818123
0.005378148 -0.0130272675 -0.006697816 0.00544926 -0.016368136 0.02715959 0.009707017 0.012802078
0.0013825234 0.015386167 0.00078837166 -0.015723651 -0.016637875 0.007766635 -0.009337587 0.014600933
-0.010399001 -0.021480216 0.0108616445 -0.016309157 0.005962521 -0.008823725 0.0040005255 0.002523721
0.02700757 -0.0012791272 0.00019428077 -0.005917327 0.00079823023 0.005755033 -0.017567245 -0.0108837085
0.009265871 -0.016812062 -0.0053424896 -0.0035620485 0.004500586 -0.015911018 -0.0013217531 -0.011362199
0.014758947 -0.0044094846 -0.022961449 0.00737091 0.008303974 0.012229769 0.00021513042 -0.016369937
-0.009585165 0.0055045974 -0.028667195 0.0009278277 -0.004756357 0.026010886 -0.00075677264 0.01377257
-0.0078276135 0.024469964 -0.007200528 0.0036847573 -0.0055327727 -0.007029325 0.0029093062 0.002356048
-0.004157609 0.0034214468 -0.013251211 -0.0017043432 0.008888262 -0.0044177077 -0.0076292404 -0.015626697
0.028792042 -0.0077096145 0.004996276 -0.009304902 -0.012944045 -0.0040447186 0.014283006 -0.0057019643
00000000: 8de3 d43a 2c22 983a 87b6 4a3c ea8d ad3b
00000010: 7c7f aa3c 72ce 8dbb 4a58 ef3b d3c4 ec3b
00000020: 17d7 0b3b 5e28 92bc 17bd 023a 4ae8 a63c
00000030: d300 023d 8d80 513c 8bfc 16bc a856 a13c
00000040: 2092 39ba cbc0 c73a a5d5 8a3c 434b 0a3c
00000050: be9a 0eba d276 263c cb6e 37bc e01d 223c
00000060: b566 9d3c 9511 df3b 0b48 fcba 2a77 53bc
00000070: d99f 38bb 8b3b adbb bb13 a63b fcd5 8c3c
00000080: 9959 96bb 9b9c 8f3c 8f32 343c 68db 813c
00000090: 8840 d83b e032 983b 9b32 fa3c df53 503b
000000a0: 74b7 1a3b a700 6abb 7576 423c f3a9 b73b
000000b0: 5bfb 66bc 18db 5a3c 1b51 9fbb 25a7 89bc
000000c0: f0fa 92bc 1ff7 563b aaf2 b9bc 3ae3 62ba
000000d0: 1874 8a3b 0ca2 bc3c f56f 643c 8245 dc3a
000000e0: e768 18ba 967a b93c 0351 1fbc 450f 903c
000000f0: e5ee 07bc 3300 3fbc 1f7f 033c fa20 d63b
00000100: daf2 cf3b 33b9 be3c fb48 8e3b e281 e73b
00000110: d3e6 66bc ff7a 053a e29c 70bc 63e6 87bc
00000120: 0389 1c3c 73b3 3fbc bcdd 353c 12ab ee3c
00000130: 8466 b13b a24b 8d3b 0f56 a5bc a968 0abc
00000140: f321 3dbb 4731 3b3b 635e 4cbc 855d 25bc
00000150: 9d99 f53a f47e a3bc f450 2f3b c0dd 5cbb
00000160: b532 84bc 1534 733b f7ca 713b 67d3 c8bb
00000170: 0f44 403c ddf0 cc3b a399 9c3c 158e 6ebc
00000180: 3396 f3bb 45b2 03bc 2453 1cbc 34ef abbb
00000190: bb99 80bb 1813 11bc bb1d cebc d389 ea3c
000001a0: 4d2b 26bc 402f e83b 1b66 87bc 4d38 a53b
000001b0: 63bc 903b 151b 72bb c7d0 123b 3905 83bc
000001c0: 44c2 b3ba 4974 203c fa4b 59bc bb50 4e3a
000001d0: 0548 533c de0d 0dba a755 953c 3d69 163c
000001e0: 78fc e3bc 6d7f aabc 9ddd 3f3c a325 08bc
000001f0: 831d 0f3c 6043 71bc 6dd3 0e3c da22 e8ba
00000200: 9095 f23c ab56 323b 3b20 f93b 85ba 9f3b
00000210: 9c2b afbb 1110 08bc f30a 1c3c 4bc7 b33b
00000220: d1b5 b83b eb69 903c 30ac 243b 6a5a 1ebb
00000230: ed17 d139 32d1 afbc 6a99 7a3c e31b 373b
00000240: 5395 3f3c 6360 e2ba 038b ea3b 9618 863b
00000250: 3335 20bc d0b0 623c 5b2c 96ba c86d f53a
00000260: a360 053c 52af 8b3c 3dc5 99bb 1fe3 00bd
00000270: 2352 33bb ffdb 933c 0361 923b fbab 073c
00000280: b9ef a93a 6fd2 153c 9a88 5c3c 9b7b e0bc
00000290: cb4b 14bc 0bbd 913b 6315 943b aadd 253c
000002a0: a2cf 963c 76cf 113c 34dd 18bb 2d6d dbbb
000002b0: cbbe 5db9 8383 343b aafc 8c3c 7f2e babb
000002c0: 2d3b b03b 5270 55bc 5a79 dbbb b58f b23b
000002d0: 7816 86bc ca7d de3c 2e0a 1f3c cfbf 513c
000002e0: ca35 b53a 4316 7c3c baaa 4e3a e3ce 80bc
000002f0: 274c 88bc 427f fe3b aefc 18bc c038 6f3c
00000300: 9260 2abc 47f7 afbc 0af5 313c c89a 85bc
00000310: 4061 c33b 6391 10bc d716 833b 0365 253b
00000320: fb3e dd3c 63a8 a7ba d9b7 4b39 23e6 c1bb
00000330: 5340 513a b794 bc3b 2fe9 8fbc 9551 32bc
00000340: e1cf 173c 73b9 89bc 0d10 afbb 4271 69bb
00000350: a779 933b d357 82bc ad3e adba 8428 3abc
00000360: 83cf 713c 707d 90bb a619 bcbc ad87 f13b
00000370: 640d 083c 5e5f 483c a294 6139 3f1a 86bc
00000380: 190b 1dbc e95f b43b 77d7 eabc 7739 733a
00000390: 37db 9bbb c814 d53c 2762 46ba 58a6 613c
000003a0: 643f 00bc 3c75 c83c 68f2 ebbb f87b 713b
000003b0: 434c b5bb 4056 e6bb 0faa 3e3b ed67 1a3b
000003c0: 8d3c 88bb 5a3a 603b 9b1b 59bc 4564 dfba
000003d0: 13a0 113c 6bc2 90bb b5fe f9bb 8f03 80bc
000003e0: 4add eb3c efa0 fcbb cdb7 a33b 9673 18bc
000003f0: 4213 54bc 8f89 84bb 4503 6a3c 8bd7 babb

action_model._discrete_distribution.branches.0.bias f4 [9]
0.0 0.0 0.0 0.0 0.0 0.0 0.0 0.0
0.0
00000000: 0000 0000 0000 0000 0000 0000 0000 0000
00000010: 0000 0000 0000 0000 0000 0000 0000 0000
00000020: 0000 0000

onnx::Div_186 f4 [2]
0.18343979 0.109475255
00000000: a4d7 3b3e 9034 e03d

onnx::MatMul_189 f4 [129, 128]
0.025598338 0.045901198 -0.0006303886 -0.009700783 0.02990936 -0.002893078 -0.021177864 -0.043793216
-0.055161923 -0.02950629 -0.007516303 -0.025699241 0.032667447 0.017438363 -0.0042777713 0.015365362
-0.05095737 -0.025239153 -0.076038174 -0.0046788948 0.067701325 0.021911025 0.006931402 0.040874828
0.02838789 -0.028374707 0.0034834365 0.010216138 -0.01580227 -0.055068452 -0.0031977147 -0.005933199
-0.0036023357 -0.052891474 -0.037531655 -0.040531617 0.020040333 -0.013813752 0.033713147 0.0020352085
-0.02285445 0.024608111 -0.029060239 0.010160191 0.056970622 -0.00074871676 -0.036398828 0.0075397026
-0.0013656518 0.051889293 0.00814116 0.0312774 0.033735294 -0.026836805 -0.005736828 0.0003684087
-0.039063044 -0.0032397248 -0.055357553 -0.015945673 0.015147035 0.02558317 0.0010381746 -0.017477198
-0.0013842949 0.010903952 -0.03836585 -0.031857025 0.031475108 -0.02508475 -0.0285935 0.03767519
-0.03351219 0.020081766 -0.093093134 -0.0366162 0.04678045 0.00651653 0.042515874 0.07491803
0.024121346 0.041157838 0.058344327 0.0029466874 0.0029605508 -0.033563375 -0.07372607 0.0108518815
0.018772831 -0.0026889595 -0.04347749 -0.07326318 0.022267587 -0.033603605 -0.014367933 0.0062437067
-0.03407935 -0.049593 0.037890688 0.0011523705 0.0014878291 0.022691632 -0.00038340097 0.006238837
-0.021618089 0.011853639 0.041580915 0.011162795 -0.008377226 -0.0028086808 0.018689916 0.0012665052
0.033069666 -0.037677553 -0.018615728 0.0034199073 0.045173164 0.014381617 0.018054971 -0.04800828
-0.03173666 0.031044284 -0.005629091 -0.009281688 0.0060298955 -0.017875824 -0.035031885 -0.020835467
0.01025831 0.0291215 0.016615774 -0.06975068 0.012209035 -0.027193686 -0.01693573 0.012882604
0.0051586167 0.023827303 0.04878967 -0.015563192 0.019826677 0.023375997 -0.013017212 -0.045871895
-0.0650219 0.0141357165 -0.019535104 -0.06397166 -0.044494864 -0.012735198 0.017143808 -0.0053411997
0.011915637 -0.035512187 -0.017610319 -0.021076284 0.032829087 -2.2751294e-05 0.0037140392 0.029605677
-0.043931607 -0.020457393 0.06489275 -0.0847794 -0.014232948 -0.027859282 0.034051254 -0.0012170296
0.019011144 0.012913783 0.026348624 -0.009833223 -0.036755633 -0.0078032585 -0.034220256 -0.017873116
0.014650937 -0.032535445 0.03637743 -0.016903618 -0.0110076405 0.019855488 0.017110735 0.016481653
0.005710091 -0.0048955586 0.010590359 -0.024610918 0.04577689 0.03613259 -0.020488678 -0.017057434
0.028422065 0.024926573 0.012730675 -0.043465853 0.08387127 -0.06835861 0.05254354 0.016813578
-0.022316018 0.045884244 0.057819515 -0.018856086 0.027209911 0.012589062 -0.00064128777 0.0023410888
0.0065104095 0.033655345 0.07558483 -0.0129502695 0.017358726 -0.0028429676 -0.05101128 -0.015986426
0.07511836 0.0578276 0.005449661 0.006559078 -0.017463388 0.0063805142 -0.01046168 0.0048862775
0.020125754 -0.021251084 0.022055227 0.014223484 -0.022351718 0.058270488 -0.0150575135 0.028590735
0.014612049 0.016096706 -0.0070913867 -0.044733234 0.029759334 0.0034832489 0.025460111 0.067439295
0.04320111 0.0010842873 -0.00947455 -0.003615746 -0.014018175 0.009238808 0.018761005 -0.016373597
-0.01830622 -0.04826945 0.003239129 -0.035109088 0.040204223 0.018358925 0.023698317 -0.016192257
00000000: 9bb3 d13c e502 3c3d aa40 25ba 08f0 1ebc
00000010: 7904 f53c cb99 3dbb 337d adbc 8460 33bd
00000020: 78f1 61bd 2db7 f1bc 524b f6bb 3787 d2bc
00000030: 4dce 053d e6da 8e3c 8c2c 8cbb 00bf 7b3c
00000040: adb8 50bd 57c2 cebc e7b9 9bbd 6a51 99bb
00000050: fea6 8a3d c07e b33c d020 e33b 5d6c 273d
00000060: b88d e83c 1372 e8bc 5e4a 643b 9761 273c
00000070: c373 81bc 758f 61bd c090 51bb 486b c2bb
00000080: 2a15 6cbb bba4 58bd cbba 19bd 7b04 26bd
00000090: a02b a43c 1353 62bc cc16 0a3d 2261 053b
000000a0: 4139 bbbc f396 c93c bd0f eebc ee76 263c
000000b0: 075a 693d 8845 44ba f016 15bd 9c0f f73b
000000c0: acff b2ba de89 543d 8062 053c bb1c 003d
000000d0: 052e 0a3d dcd8 dbbc 00fc bbbb fb26 c139
000000e0: 9200 20bd 9051 54bb 9abe 62bd 80a0 82bc
000000f0: 452b 783c cc93 d13c 5c13 883a 572c 8fbc
00000100: 3b71 b5ba 7da6 323c 8225 1dbd 837c 02bd
00000110: 0bec 003d 897e cdbc ea3c eabc 4d51 1a3d
00000120: 1444 09bd 8482 a43c 9da7 bebd defa 15bd
00000130: db9c 3f3d 9e88 d53b 2025 2e3d a06e 993d
00000140: 219a c53c 1f95 283d 76fa 6e3d 361d 413b
00000150: cd05 423b c079 09bd b2fd 96bd 17cc 313c
00000160: 7bc9 993c 4139 30bb 7415 32bd 020b 96bd
00000170: 846a b63c efa3 09bd 7b67 6bbc 0298 cc3b
00000180: ca96 0bbd 0822 4bbd 4433 1b3d 230b 973a
00000190: 4303 c33a cde3 b93c 3503 c9b9 286f cc3b
000001a0: 6b18 b1bc c435 423c c050 2a3d 28e4 363c
000001b0: a240 09bc d811 38bb 981b 993c dd00 a63a
000001c0: 0f74 073d c753 1abd 0380 98bc 8620 603b
000001d0: 7f07 393d e0a0 6b3c 05e8 933c 55a4 44bd
000001e0: 4dfe 01bd 9550 fe3c 3d74 b8bb 3912 18bc
000001f0: 6e96 c53b 5270 92bc 987d 0fbd 24af aabc
00000200: 7812 283c 3690 ee3c ce1d 883c 72d9 8ebd
00000210: 6808 483c 4bc5 debc cdbc 8abc 8f11 533c
00000220: 9d09 a93b 7a31 c33c add7 473d c2fc 7ebc
00000230: 8e6b a23c 057f bf3c 2546 55bc 2be4 3bbd
00000240: 342a 85bd 7e99 673c 1508 a0bc 9303 83bd
00000250: 3f40 36bd 4ba7 50bc 2c71 8c3c 3b05 afbb
00000260: ce39 433c 3a75 11bd 8443 90bc 2ca8 acbc
00000270: cb77 063d 08da beb7 3d67 733b 9b87 f23c
00000280: a1f1 33bd 4396 a7bc 7de6 843d d2a0 adbd
00000290: 5031 69bc 2639 e4bc 5479 0b3d bd84 9fba
000002a0: 42bd 9b3c 5594 533c 12d9 d73c 871b 21bc
000002b0: 138d 16bd 7ab2 ffbb 8a2a 0cbd a46a 92bc
000002c0: 7c0a 703c e343 05bd 8000 153d 7579 8abc
000002d0: 6459 34bc faa7 a23c d02b 8c3c 8804 873c
000002e0: b71b bb3b ec6a a0bb 2f83 2d3c d69c c9bc
000002f0: 8c80 3b3d c4ff 133d dfd7 a7bc 08bc 8bbc
00000300: 64d5 e83c d032 cc3c 5294 503c 4009 32bd
00000310: b3c4 ab3d 99ff 8bbd e537 573d a1bc 893c
00000320: 15d0 b6bc 1ef1 3b3d 28d4 6c3d 1478 9abc
00000330: 52e7 de3c 5a42 4e3c 181c 28ba f46c 193b
00000340: 4655 d53b 30da 093d 38cc 9a3d 5e2d 54bc
00000350: e333 8e3c 1551 3abb 34f1 50bd f7f5 82bc
00000360: a8d7 993d a2dc 6c3d 1293 b23b 89ed d63b
00000370: 610f 8fbc a213 d13b 7767 2bbc 111d a03b
00000380: c4de a43c c116 aebc 2aad b43c 9e09 693c
00000390: f31a b7bc 09ad 6e3d cab3 76bc 1e37 ea3c
000003a0: 6067 6f3c 3ddd 833c dd5e e8bb 323a 37bd
000003b0: d9c9 f33c 3847 643b b991 d03c 9d1d 8a3d
000003c0: a6f3 303d a51e 8e3a 253b 1bbc 27f6 6cbb
000003d0: 7dac 65bc 5f5e 173c aeb0 993c ec21 86bc
000003e0: edf6 95bc 30b6 45bd 9147 543b 8cce 0fbd
000003f0: 2fad 243d 7565 963c f922 c23c a0a5 84bc

onnx::MatMul_190 f4 [129, 128]
-0.0099057015 -0.0068075075 -0.0029461172 0.015591375 0.014381098 0.014349392 0.023639753 -0.07036416
0.0018873364 0.0051952275 -0.06058354 0.0055664033 0.002961444 -0.031148106 0.0040303813 0.0065994626
0.025906742 0.0053314045 -0.025226884 -0.035474725 0.008436619 0.041734487 -0.028173892 0.0015258628
-0.014144224 -0.04834981 -0.025060728 0.021247204 -0.028404403 -0.018571943 -0.016471852 -0.048021905
-0.03989763 0.01065715 -0.048070848 0.014542796 -0.021488812 0.035798576 0.05384218 0.00017707286
0.031715065 0.007693269 0.042138368 -0.017170817 0.034796566 0.031570885 -0.013260632 0.034007423
-0.009970371 0.051230475 0.0050240867 -0.023207722 0.04033528 0.013959124 -0.056623694 -0.040538143
0.03610851 0.0034250822 -0.03929956 0.06834107 -0.028751574 0.034738667 0.07071097 0.03689806
0.04539818 -0.020150088 -0.0059151263 0.013700941 -0.035818633 -0.00587024 -0.037406743 0.02127778
-0.009454501 0.039081547 0.074524954 0.012788539 0.004011683 -0.024193564 0.01411176 0.0032209596
0.0036968507 0.04461341 -0.0013036911 -0.05985391 0.0075702067 -0.009770374 -0.0009365639 0.025148464
0.02342207 -0.042108916 -0.015341076 0.06099717 -0.035519477 -0.03804095 0.043963157 -0.0031694937
0.0026891767 0.031208547 0.057608332 -0.024117008 -0.026971743 -0.0049165497 0.065183714 0.03248303
0.04233305 0.043830205 -0.022830209 0.011355508 -0.032832563 -0.07383111 0.002442392 -0.049333654
0.014929445 0.0037344994 -0.03224747 0.010844188 -0.045234352 -0.0036162706 0.007852643 0.029909339
-0.0014024556 0.027465565 -0.025022414 -0.019221649 -0.0720895 0.018467536 0.007951047 0.024473935
0.013953213 0.0007208621 0.011419702 0.044645656 -0.011987331 0.0043622516 -0.008425609 -0.013709867
-0.042436846 -0.019943498 0.012123798 -0.009525898 -0.037561033 0.0281769 -0.043320663 0.03278572
-0.008480689 0.02022189 -0.06059492 -0.0067815795 0.021678532 -0.027638169 0.00047731464 -0.025388837
0.031339586 0.020846603 -0.03136902 0.014935886 0.01016651 -0.023405373 0.0015528334 0.03280182
0.031165957 -0.00026779034 -0.00062970433 -0.019338705 -0.01884397 0.06690877 -0.03887575 -0.005070162
0.015172609 0.03724628 -0.0047167633 -0.0047878725 -0.022506472 0.037684433 -0.0061154873 0.05073771
0.0122939795 -0.02242731 -0.058666885 -0.01710472 0.013213304 0.03292445 -0.0022346925 0.01323458
-0.007768773 0.026698852 -0.021195687 0.010491122 -0.046738166 0.008672877 0.055452123 0.03423018
0.01245182 0.029350115 0.008469398 -0.039128084 -0.0006498195 -0.00935152 -0.020766664 0.005466969
0.0012730146 -0.035304777 -0.040883586 0.01870282 -0.01373275 -0.034224477 -0.017360946 0.026711967
-0.0077015967 -0.023450328 0.025298292 -0.07694082 0.021837566 0.019045804 0.012589278 0.056000736
0.008448938 -0.06259902 -0.049528852 0.06697659 -0.016313404 0.054857668 0.04681935 0.045533206
0.027234333 -0.0074907667 0.041504785 0.052504186 0.039959673 -0.013727544 -0.012320614 -0.028481962
-0.0153875165 0.00060515624 -0.0052234586 0.0064084157 0.02327462 0.037159897 -0.01868312 -0.041195206
-0.0028418307 -0.02554146 -0.034589164 0.030892972 0.05908461 0.014036767 -0.014458111 0.039566975
0.004808473 0.021356015 -0.023446832 0.017329386 0.01662393 0.0141509045 0.012081045 -0.016140312
00000000: 864b 22bc 8311 dfbb a513 41bb f772 7f3c
00000010: b29e 6b3c b619 6b3c 28a8 c13c 161b 90bd
00000020: 8060 f73a ba3c aa3b 7226 78bd 6066 b63b
00000030: c914 423b 502a ffbc 4a11 843b 4e40 d83b
00000040: 603a d43c 10b3 ae3b 9ca8 cebc f24d 11bd
00000050: bf39 0a3c c8f1 2a3d efcc e6bc 76ff c73a
00000060: 2dbd 67bc 730a 46bd 284c cdbc 9e0e ae3c
00000070: 5ab0 e8bc 3024 98bc faef 86bc 9eb2 44bd
00000080: b36b 23bd 549b 2e3c f0e5 44bd e844 6e3c
00000090: 4e09 b0bc 87a1 123d 9e89 5c3d a2ac 3939
000000a0: a8e7 013d d117 fc3b 4899 2c3d d0a9 8cbc
000000b0: d886 0e3d 7950 013d 1f43 59bc 5e4b 0b3d
000000c0: c45a 23bc 0cd7 513d 18a1 a43b 1f1e bebc
000000d0: 9b36 253d cfb4 643c 3fee 67bd 530b 26bd
000000e0: 84e6 133d 5877 603b 93f8 20bd 67f6 8b3d
000000f0: 6c88 ebbc 224a 0e3d ead0 903d 6c22 173d
00000100: 71f3 393d cc11 a5bc add3 c1bb e979 603c
00000110: 8fb6 12bd 245b c0bb d037 19bd bd4e ae3c
00000120: 0de7 1abc f913 203d 8aa0 983d 0587 513c
00000130: 7074 833b 9531 c6bc 0335 673c bc16 533b
00000140: dd46 723b 8dbc 363d 9de0 aaba 6029 75bd
00000150: 7f0f f83b eb13 20bc bd83 75ba 2704 ce3c
00000160: a4df bf3c 667a 2cbd 2359 7bbc 2bd8 793d
00000170: df7c 11bd d4d0 1bbd b612 343d 48b7 4fbb
00000180: e63c 303b 11a9 ff3c b7f6 6b3d 0891 c5bc
00000190: d8f3 dcbc 021b a1bb 0a7f 853d ed0c 053d
000001a0: 6c65 2d3d 4d87 333d 6b06 bbbc 740c 3a3c
000001b0: 707b 06bd c434 97bd 8a10 203b 1612 4abd
000001c0: a29a 743c 81be 743b ec15 04bd d2ab 313c
000001d0: a847 39bd f4fe 6cbb 5fa8 003c 6e04 f53c
000001e0: 9ad2 b7ba 77ff e03c cefb ccbc b876 9dbc
000001f0: a9a3 93bd 3b49 973c 1c45 023c 907d c83c
00000200: 049c 643c 3df8 3c3a b419 3b3c 5dde 363d
00000210: 8366 44bc 38f1 8e3b 910b 0abc 5a9f 60bc
00000220: 42d2 2dbd 8c60 a3bc e5a2 463c 8312 1cbc
00000230: 99d9 19bd 3ed3 e63c 0271 31bd 524a 063d
00000240: 96f2 0abc 61a8 a53c 6132 78bd 0338 debb
00000250: 2d97 b13c 7169 e2bc 1640 fa39 40fc cfbc
00000260: f05d 003d 7fc6 aa3c cd7c 00bd a5b5 743c
00000270: 6f91 263c a0bc bfbc 7188 cb3a 345b 063d
00000280: c04f ff3c 3666 8cb9 be12 25ba 346c 9ebc
00000290: ab5e 9abc 7707 893d 2e3c 1fbd 9a23 a6bb
000002a0: 8996 783c 8e8f 183d 148f 9abb 96e3 9cbb
000002b0: 7e5f b8bc fe5a 1a3d 6d64 c8bb 58d2 4f3d
000002c0: b06c 493c 7ab9 b7bc b04c 70bd 331f 8cbc
000002d0: 9d7c 583c cadb 063d eb73 12bb dad5 583c
000002e0: 3191 febb 8db7 da3c 94a2 adbc f4e2 2b3c
000002f0: 8570 3fbd af18 0e3c c421 633d f234 0c3d
00000300: b802 4c3c a76f f03c 3bc3 0a3c c544 20bd
00000310: a658 2aba 1e37 19bc da1e aabc 4324 b33b
00000320: 48db a63a be9b 10bd 8c75 27bd a836 993c
00000330: 54ff 60bc f72e 0cbd 8b38 8ebc 0ed3 da3c
00000340: ad5d fcbb e71a c0bc 5d3e cf3c 2693 9dbd
00000350: b2e4 b23c f205 9c3c 4243 4e3c 0761 653d
00000360: 6a6d 0a3c ea33 80bd c4de 4abd 062b 893d
00000370: b0a3 85bc 6fb2 603d a6c5 3f3d 0781 3a3d
00000380: 891a df3c 1b75 f5bb ec00 2a3d a10e 573d
00000390: c1ac 233d 7ee9 60bc 67dc 49bc 0153 e9bc
000003a0: ec1b 7cbc 59a3 1e3a 8c29 abbb b0fd d13b
000003b0: 6aaa be3c fa34 183d 580d 99bc 4ebc 28bd
000003c0: 023e 3abb 533c d1bc 5ead 0dbd 4213 fd3c
000003d0: b402 723d 78fa 653c b6e1 6cbc fb10 223d
000003e0: 6590 9d3b cff2 ae3c 9213 c0bc 5bf6 8d3c
000003f0: e82e 883c 32d9 673c 93ef 453c b038 84bc

onnx::MatMul_192 f4 [128, 128]
0.025122635 0.01186266 0.02005534 0.04793686 -0.03565766 -0.039250705 0.041333936 0.010853089
0.0070877657 0.052923825 0.03332915 -0.021211298 -0.003953835 -0.020985352 -0.026235245 0.028343497
-0.033597834 -0.024298586 0.01205518 -0.0032152096 0.01632097 0.0077826437 -0.03396858 0.069514506
0.018063052 -0.030246638 -0.005363697 -0.01932333 -0.0021656314 0.010014497 -0.02300201 0.037917968
0.039154436 -0.03863489 0.04142443 0.013439948 -0.0049341903 0.020981688 0.027167944 -0.011506096
-0.01488022 0.0013464966 -0.0006417078 -0.032194592 -0.044108167 -0.046247765 -0.01386036 -0.037552737
-0.055920176 0.029559424 -0.054970548 -0.029229531 0.026602695 0.040487465 -0.04032123 0.011082687
0.018208342 -0.016465787 -0.030267794 -0.018313723 0.017954577 0.035977904 -0.009207905 0.04933813
0.07726597 -0.018507522 -0.066207126 0.01112198 -0.01989531 -0.042625446 -0.02005915 -0.018611172
-0.012661944 0.05981428 0.024170913 -0.0145433005 -0.009217129 0.000859638 -0.03371307 -0.0058069155
0.009947537 -0.0036009126 0.044072237 0.0016409013 -0.01587243 0.021463143 -0.009169909 -0.022753742
0.016088026 0.051843125 0.010793409 -0.012337143 0.049211916 0.004191433 -0.015722468 -0.025921805
0.022467872 0.023328414 0.034845337 -0.00092561805 -0.0061329114 0.017877176 -0.027914055 0.003768008
-0.008043562 0.0137296505 -0.035144765 0.04524288 0.030880079 0.077503994 -0.04667965 -0.019310283
-0.038775995 0.033948544 0.033437017 -0.010256155 -0.0034264938 0.010380744 0.03725899 0.049451407
-0.062814794 0.01124913 0.054247864 0.008277339 -0.0040833424 -0.087948784 -0.0010843243 0.027702661
0.057543784 0.029677179 0.0075101485 -0.046063226 0.03960244 -0.027108943 0.06462301 -0.017650431
-0.011443547 0.00971793 0.02346303 0.028866874 0.03369405 -0.03590635 0.0023044115 -0.01893805
0.040740587 -0.012929646 0.055393837 0.015913196 -0.014715568 0.010750893 -0.016969588 0.028451348
0.0068381596 -0.015906181 0.039610986 0.043307353 -0.03735823 0.008934718 -0.027068265 -0.012893044
-0.028461717 -0.022819195 -0.011127422 -0.012301762 0.008154601 0.056067646 -0.0404018 0.011809859
0.013023466 -0.033308875 0.041348062 -0.04731637 0.04316937 -0.05401862 -0.008297253 -0.01307283
-0.0013663308 -0.01841619 0.01668679 -0.008400887 0.0036299417 0.04681295 -0.012795198 0.002755832
-0.0050464855 0.03201149 -0.0031665594 0.036014393 0.049815852 -0.0016871499 -0.030188764 -0.059175592
0.031605385 0.025017958 -0.061504636 0.046924382 -0.036146212 -0.033227134 0.0196071 -0.033401676
-0.021749988 -0.009987687 0.03043206 0.008671696 0.0037112795 -0.037577283 -0.013522324 0.034822892
-0.014221564 -0.03624764 0.014547233 0.01907917 -0.0117290765 -0.04149448 -0.012565167 0.021406485
-0.027523117 0.035517056 -0.028161775 -0.033256296 0.004142525 -0.009293376 0.0006741513 0.031606156
-0.061505415 -0.03611992 -0.010335114 -0.0012408694 -0.023549654 0.028192526 -0.02096711 -0.027232194
-0.08678016 -0.01846943 0.026976535 -0.035583567 0.04219604 -0.032121357 0.009536722 0.046252627
-0.01295798 0.043858584 0.017330108 0.06395955 -0.014646484 0.0764117 -0.013131778 0.021956502
-0.017053192 -0.048959352 -0.0385199 -0.031484332 0.015616193 0.01996173 -0.049325936 -0.048924834
00000000: fccd cd3c 9a5b 423c 194b a43c 7159 443d
00000010: c40d 12bd 59c5 20bd c64d 293d 28d1 313c
00000020: 7d40 e83b a7c6 583d 2684 083d 51c3 adbc
00000030: 2c8f 81bb 79e9 abbc 4ceb d6bc 9f30 e83c
00000040: e29d 09bd d40d c7bc 1783 453c 44b6 52bb
00000050: 8eb3 853c 8c05 ff3b a322 0bbd 9f5d 8e3d
00000060: f7f8 933c ccc7 f7bc f4c1 afbb f64b 9ebc
00000070: 44ed 0dbb d813 243c b66e bcbc df4f 1b3d
00000080: 6760 203d 9e3f 1ebd aaac 293d 3a33 5c3c
00000090: fdae a1bb cae1 ab3c 4f8f de3c 1184 3cbc
000000a0: 2bcc 73bc ee7c b03a 4838 28ba 7ade 03bd
000000b0: c4aa 34bd 4c6e 3dbd 9016 63bc e6d0 19bd
000000c0: 8e0c 65bd 9b26 f23c cc28 61bd c572 efbc
000000d0: e5ed d93c 2fd6 253d e027 25bd 2994 353c
000000e0: a929 953c 42e3 86bc 2af4 f7bc a906 96bc
000000f0: 7a15 933c 915d 133d c1dc 16bc c716 4a3d
00000100: 9f3d 9e3d 169d 97bc 9a97 87bd f738 363c
00000110: 7dfb a2bc 0598 2ebd 1653 a4bc 7576 98bc
00000120: 0b74 4fbc d2ff 743d 1402 c63c 0647 6ebc
00000130: 7103 17bc 5459 613a b716 0abd f047 bebb
00000140: fffa 223c 4afd 6bbb 1785 343d 8313 d73a
00000150: e606 82bc 79d3 af3c 633d 16bc 0e66 babc
00000160: 09cb 833c 7559 543d d7d6 303c ba21 4abc
00000170: 6f92 493d 4a58 893b 68cc 80bc f759 d4bc
00000180: 8b0e b83c 3b1b bf3c fcb9 0e3d 2da5 72ba
00000190: 97f6 c8bb 2873 923c 04ac e4bc aff0 763b
000001a0: 25c9 03bc 54f2 603c f5f3 0fbd 9950 393d
000001b0: 38f8 fc3c 6aba 9e3d 2933 3fbd 9930 9ebc
000001c0: 94d3 1ebd a10d 0b3d 41f5 083d 6f09 28bc
000001d0: 078f 60bb ff13 2a3c e29c 183d 8f8d 4a3d
000001e0: 0ba5 80bd 454e 383c 0233 5e3d ad9d 073c
000001f0: 8fcd 85bb 7e1e b4bd e31f 8eba b1f0 e23c
00000200: 08b3 6b3d 8e1d f33c b117 f63b cbac 3cbd
00000210: 2b36 223d 9313 debc 1259 843d a397 90bc
00000220: b77d 3bbc f437 1f3c 8a35 c03c 397a ec3c
00000230: c602 0a3d 8912 13bd 9c05 173b f823 9bbc
00000240: 9adf 263d ded6 53bc a6e4 623d 645c 823c
00000250: 9119 71bc 8324 303c ce03 8bbc cd12 e93c
00000260: a412 e03b ae4d 82bc 213f 223d 0d63 313d
00000270: f204 19bd ec62 123c 44be ddbc 593d 53bc
00000280: 8c28 e9bc 52ef babc ca4f 36bc 548d 49bc
00000290: e09a 053c 30a7 653d 5c7c 25bd 247e 413c
000002a0: 6060 553c e36e 08bd 965c 293d cfce 41bd
000002b0: 5ed2 303d a142 5dbd 34f1 07bc 6c2f 56bc
000002c0: 7416 b3ba 8ddd 96bc bcb2 883c e0a3 09bc
000002d0: 51e4 6d3b f0be 3f3d f3a2 51bc 309b 343b
000002e0: fd5c a5bb 7b1e 033d 0d86 4fbb d483 133d
000002f0: b50b 4c3d 5b23 ddba 6d4e f7bc 1b62 72bd
00000300: a674 013d 76f2 cc3c 49ec 7bbd c833 403d
00000310: 0d0e 14bd 2d19 08bd 129f a03c 32d0 08bd
00000320: 082d b2bc 65a3 23bc a84c f93c bb13 0e3c
00000330: f038 733b a3ea 19bd bd8c 5dbc 73a2 0e3d
00000340: 9001 69bc 6878 14bd 8457 6e3c eb4b 9c3c
00000350: 502b 40bc 1ef6 29bd 21de 4dbc a75c af3c
00000360: 2978 e1bc 557a 113d 86b3 e6bc c137 08bd
00000370: 05be 873b 3e43 18bc 87b9 303a 7575 013d
00000380: 1aed 7bbd 7bf2 13bd 9c54 29bc aba4 a2ba
00000390: 34eb c0bc 03f4 e63c 37c3 abbc 0d16 dfbc
000003a0: ccb9 b1bd 344d 97bc e5fd dc3c 13c0 11bd
000003b0: c1d5 2c3d af91 03bd e93f 1c3c 6573 3d3d
000003c0: b54d 54bc 0fa5 333d dff7 8d3c 39fd 823d
000003d0: cef7 6fbc bd7d 9c3d ab26 57bc 1fde b33c
000003e0: 23b3 8bbc 9a89 48bd 0bc7 1dbd b7f5 00bd
000003f0: 10db 7f3c c886 a33c fe09 4abd 6865 48bd
