results/new_test_run_0/simple_deer/simple_deer-11585.onnx (onnx, 485125 bytes, 22 tensors)

network_body.observation_encoder.processors.0.self_ent_encoder.seq_layers.0.bias f4 [128]
0	0x3b809a98	0.003924679
1	0x3bba1d9d	0.0056797997
2	0x3ae96b90	0.0017808545
3	0xbb8a0517	-0.0042120325
4	0xbb9d0e27	-0.004792947
5	0x3c000036	0.00781255
6	0xbb829003	-0.0039844527
7	0x3b81e2cb	0.0039638034
8	0x3a895b48	0.0010479474
9	0xbc01ce4f	-0.007922723
10	0x399144bc	0.00027707766
11	0xbb8182c3	-0.0039523556
12	0xbaf74789	-0.0018865924
13	0xbba2d973	-0.0049697696
14	0xbbc3ecb1	-0.0059791435
15	0xbb95c764	-0.0045708884
16	0x3ba4f82c	0.005034467
17	0x3bef6f5e	0.007306977
18	0xbba6a7dc	-0.0050859284
19	0x3b51ca77	0.0032011548
20	0xba8a92f7	-0.0010572363
21	0x3bdedfa8	0.0068015642
22	0xbb68a043	-0.0035495914
23	0xbb1e0f9b	-0.0024118188
24	0x3b9095d4	0.004412392
25	0x3b5dcf92	0.0033845645
26	0x3a8bed17	0.0010675517
27	0x3ab176c8	0.0013539428
28	0xb95e1f11	-0.00021183143
29	0xbbc3575d	-0.0059613422
30	0xbb8d97a9	-0.004321058
31	0x3bb7d926	0.005610603
32	0x3b8dd58d	0.0043284358
33	0xbb0e65b9	-0.0021728112
34	0x3ac07ac4	0.0014685025
35	0xba78eff8	-0.00094962073
36	0xba886b64	-0.0010407981
37	0xbb9d1189	-0.00479335
38	0xbbf11c39	-0.0073581007
39	0x3bc48651	0.005997457
40	0xbb79af30	-0.0038098805
41	0xbb45154d	-0.003007251
42	0xbb61e9ed	-0.0034471706
43	0xbb8f06bf	-0.004364818
44	0x3accdc43	0.0015629608
45	0x3b123374	0.00223085
46	0x3a832fc1	0.0010008739
47	0x39cc9684	0.00039022055
48	0xbb009392	-0.0019619209
49	0x3b26c5f5	0.0025447581
50	0xbba463a1	-0.0050167595
51	0xbbaf89c7	-0.0053570005
52	0x3bb4fc32	0.005523228
53	0x3bd9736c	0.006636074
54	0xbb392865	-0.0028252837
55	0xbbbd4b6f	-0.0057768147
56	0xbbd729f5	-0.006566281
57	0xbb2fae59	-0.00268068
58	0xbc0982b7	-0.008392981
59	0xb9b7c087	-0.00035047924
60	0x3b54edbe	0.0032490338
61	0xbb4dfbb7	-0.0031430551
62	0xbbd82d1c	-0.0065971743
63	0xbbc018e6	-0.005862343
64	0x3ab408cd	0.0013735533
65	0x3b710e7f	0.0036782322
66	0x3be371b8	0.0069410466
67	0x3c13cee1	0.009021492
68	0xbb964852	-0.004586258
69	0xbb527f8b	-0.0032119479
70	0x3af1fe2a	0.0018462588
71	0xba9a4e49	-0.0011772598
72	0x3b4d840f	0.003135923
73	0x3b2c7ea3	0.0026320599
74	0xbb01d952	-0.001981337
75	0xba57cc40	-0.0008232035
76	0x3be03845	0.0068426454
77	0x3c12f36f	0.008969172
78	0x3aacf608	0.0013195882
79	0xb7f7ef9c	-2.9556271e-05
80	0x3ade13c6	0.0016943149
81	0xbb99a02b	-0.004688283
82	0x3af65fff	0.001879692
83	0x3c086324	0.008324418
84	0x3a8c934b	0.0010725049
85	0xbb9ac029	-0.0047226143
86	0xbbf3a6c9	-0.007435654
87	0x3bb36f3d	0.005475907
88	0xbc02cc4d	-0.007983279
89	0x3b36cf52	0.0027894569
90	0x3afc196a	0.0019233648
91	0x3b92ac5c	0.0044761132
92	0xbbfebfb9	-0.00777432
93	0xb8e95c3a	-0.00011127484
94	0xbbb1cea2	-0.005426244
95	0xbaf17649	-0.0018422093
96	0xbbdff31f	-0.006834402
97	0xbabf2906	-0.001458437
98	0xbba2b39b	-0.0049652583
99	0x3ae63bc4	0.0017565419
100	0xbbe3f5bd	-0.0069567845
101	0x3c003522	0.007825168
102	0x3c024e8b	0.007953296
103	0xbb0543ed	-0.0020334676
104	0xbb5183a0	-0.0031969324
105	0xbc03c8af	-0.008043452
106	0xbb7a355c	-0.0038178777
107	0xbc10c79f	-0.008836656
108	0xb99c6a4a	-0.0002983383
109	0xba15c273	-0.0005712874
110	0x3aec7e51	0.0018043016
111	0x3c00ff5d	0.007873383
112	0x3b40b5dc	0.0029405272
113	0x3bb6d844	0.00557998
114	0x3c00671e	0.007837085
115	0xbbd85ba6	-0.006602722
116	0x3b99d377	0.004694398
117	0xbb7ffcc7	-0.003906058
118	0x3a9ee657	0.001212309
119	0x3b899344	0.0041984636
120	0xbbe1002e	-0.0068664765
121	0xbbfad84e	-0.00765518
122	0x3b4052b4	0.002934617
123	0x3b0b45fc	0.002125143
124	0x3943b15a	0.00018662718
125	0xbc04dcb7	-0.008109263
126	0x3a73639b	0.0009284557
127	0x3bfb0065	0.007659959

network_body.observation_encoder.processors.1.self_ent_encoder.seq_layers.0.bias f4 [128]
0	0x00000000	0.0
1	0x00000000	0.0
2	0x00000000	0.0
3	0x00000000	0.0
4	0x00000000	0.0
5	0x00000000	0.0
6	0x00000000	0.0
7	0x00000000	0.0
8	0x00000000	0.0
9	0x00000000	0.0
10	0x00000000	0.0
11	0x00000000	0.0
12	0x00000000	0.0
13	0x00000000	0.0
14	0x00000000	0.0
15	0x00000000	0.0
16	0x00000000	0.0
17	0x00000000	0.0
18	0x00000000	0.0
19	0x00000000	0.0
20	0x00000000	0.0
21	0x00000000	0.0
22	0x00000000	0.0
23	0x00000000	0.0
24	0x00000000	0.0
25	0x00000000	0.0
26	0x00000000	0.0
27	0x00000000	0.0
28	0x00000000	0.0
29	0x00000000	0.0
30	0x00000000	0.0
31	0x00000000	0.0
32	0x00000000	0.0
33	0x00000000	0.0
34	0x00000000	0.0
35	0x00000000	0.0
36	0x00000000	0.0
37	0x00000000	0.0
38	0x00000000	0.0
39	0x00000000	0.0
40	0x00000000	0.0
41	0x00000000	0.0
42	0x00000000	0.0
43	0x00000000	0.0
44	0x00000000	0.0
45	0x00000000	0.0
46	0x00000000	0.0
47	0x00000000	0.0
48	0x00000000	0.0
49	0x00000000	0.0
50	0x00000000	0.0
51	0x00000000	0.0
52	0x00000000	0.0
53	0x00000000	0.0
54	0x00000000	0.0
55	0x00000000	0.0
56	0x00000000	0.0
57	0x00000000	0.0
58	0x00000000	0.0
59	0x00000000	0.0
60	0x00000000	0.0
61	0x00000000	0.0
62	0x00000000	0.0
63	0x00000000	0.0
64	0x00000000	0.0
65	0x00000000	0.0
66	0x00000000	0.0
67	0x00000000	0.0
68	0x00000000	0.0
69	0x00000000	0.0
70	0x00000000	0.0
71	0x00000000	0.0
72	0x00000000	0.0
73	0x00000000	0.0
74	0x00000000	0.0
75	0x00000000	0.0
76	0x00000000	0.0
77	0x00000000	0.0
78	0x00000000	0.0
79	0x00000000	0.0
80	0x00000000	0.0
81	0x00000000	0.0
82	0x00000000	0.0
83	0x00000000	0.0
84	0x00000000	0.0
85	0x00000000	0.0
86	0x00000000	0.0
87	0x00000000	0.0
88	0x00000000	0.0
89	0x00000000	0.0
90	0x00000000	0.0
91	0x00000000	0.0
92	0x00000000	0.0
93	0x00000000	0.0
94	0x00000000	0.0
95	0x00000000	0.0
96	0x00000000	0.0
97	0x00000000	0.0
98	0x00000000	0.0
99	0x00000000	0.0
100	0x00000000	0.0
101	0x00000000	0.0
102	0x00000000	0.0
103	0x00000000	0.0
104	0x00000000	0.0
105	0x00000000	0.0
106	0x00000000	0.0
107	0x00000000	0.0
108	0x00000000	0.0
109	0x00000000	0.0
110	0x00000000	0.0
111	0x00000000	0.0
112	0x00000000	0.0
113	0x00000000	0.0
114	0x00000000	0.0
115	0x00000000	0.0
116	0x00000000	0.0
117	0x00000000	0.0
118	0x00000000	0.0
119	0x00000000	0.0
120	0x00000000	0.0
121	0x00000000	0.0
122	0x00000000	0.0
123	0x00000000	0.0
124	0x00000000	0.0
125	0x00000000	0.0
126	0x00000000	0.0
127	0x00000000	0.0

network_body.observation_encoder.processors.2.normalizer.running_mean f4 [4]
0	0x3efff99a	0.49995118
1	0x3efff99a	0.49995118
2	0x3efff99a	0.49995118
3	0x4012d790	2.294407

network_body.observation_encoder.rsa.fc_q.bias f4 [128]
0	0xb9ceb5f1	-0.0003942694
1	0x38f3f3f1	0.000116325806
2	0x38f54354	0.00011695051
3	0x3a574436	0.00082117633
4	0x378ef63e	1.7042385e-05
5	0x3a4626cc	0.0007558882
6	0x38b5172d	8.6350694e-05
7	0x390cea25	0.00013438666
8	0xb88145d5	-6.1642066e-05
9	0x39a5fc6c	0.0003165932
10	0x393443fe	0.00017191467
11	0xb9d338e6	-0.0004028745
12	0xb8fe621a	-0.00012129937
13	0x37f22afa	2.886866e-05
14	0x39ee634f	0.00045468888
15	0x3826e7b0	3.979326e-05
16	0x3926d180	0.00015909038
17	0x39955574	0.00028483162
18	0x3a28682a	0.0006424213
19	0xb995eac9	-0.00028594423
20	0x39acac5e	0.0003293482
21	0x39ea577b	0.00044697136
22	0xb92d86ed	-0.0001654883
23	0xba584640	-0.0008250214
24	0x39d527aa	0.00040656078
25	0xb7fafb43	-2.9919325e-05
26	0xba034449	-0.00050074287
27	0x3a647225	0.00087145186
28	0xba28cdd4	-0.0006439362
29	0xb94ab2a3	-0.00019330769
30	0x3a7b51af	0.0009587062
31	0x388295bd	6.226774e-05
32	0xb9f034eb	-0.00045815794
33	0xba2f1a22	-0.00066796143
34	0xb93b9e75	-0.0001789274
35	0xb9ac383f	-0.00032848303
36	0x39b6f664	0.0003489732
37	0xb83dbc18	-4.5236287e-05
38	0x39a70b93	0.00031861346
39	0xb9e56841	-0.0004375596
40	0x394f6c42	0.00019781388
41	0x382ad6cd	4.0731207e-05
42	0xb8bf9538	-9.135384e-05
43	0xb890be62	-6.901917e-05
44	0x39d96061	0.00041461273
45	0x39c1ca4c	0.00036962552
46	0x38e911c0	0.00011113612
47	0xb8cae09d	-9.673948e-05
48	0x38f0b79e	0.00011478293
49	0x3a24ac8c	0.0006281815
50	0xb9acf28b	-0.00032987105
51	0xb898d6aa	-7.287909e-05
52	0xb979caa6	-0.00023821983
53	0xba2cf69c	-0.0006598027
54	0x391c948a	0.00014932654
55	0xb9139d47	-0.00014077603
56	0xb9fe87b4	-0.00048547762
57	0xb9921956	-0.00027866167
58	0xb9d774e0	-0.00041095074
59	0xb951169f	-0.0001994022
60	0xb8851c76	-6.3472355e-05
61	0xb9dd85cf	-0.000422521
62	0x39768f04	0.00023513666
63	0xba67050c	-0.0008812703
64	0x38f21c34	0.000115447125
65	0x3899322c	7.304954e-05
66	0xb9807f81	-0.0002450906
67	0xb8da0435	-0.00010395834
68	0x3845c904	4.715567e-05
69	0xb8edb5a4	-0.00011334874
70	0x38aae228	8.1483566e-05
71	0x38a8f550	8.056557e-05
72	0xb8f4c452	-0.00011671394
73	0x38a3d5fc	7.8123034e-05
74	0xb7325694	-1.0629785e-05
75	0x37ad583e	2.0664298e-05
76	0xb92aaafb	-0.00016276159
77	0xb8c527d1	-9.4011084e-05
78	0xb8624056	-5.3942516e-05
79	0xb761a580	-1.3449579e-05
80	0x38f9f2fd	0.00011918505
81	0xb7d3cc92	-2.524842e-05
82	0xb90574a2	-0.00012727318
83	0xb6e6e7b0	-6.881506e-06
84	0xb8b4b329	-8.61644e-05
85	0xb96f224b	-0.00022805591
86	0x39a5ba99	0.00031610279
87	0xb8b31334	-8.538962e-05
88	0xb93e2136	-0.00018132184
89	0x38f53322	0.000116920346
90	0x39019e7f	0.00012361443
91	0xb4c07356	-3.5846705e-07
92	0x38e4fdc2	0.00010919153
93	0x388acd03	6.618539e-05
94	0x38da0338	0.000103956496
95	0xb995d3e3	-0.00028577363
96	0xb8ba02f4	-8.869721e-05
97	0x37553f47	1.2710522e-05
98	0x371e80f2	9.447556e-06
99	0xb7c047e2	-2.2921657e-05
100	0xb7eaa774	-2.797295e-05
101	0xb8627074	-5.398733e-05
102	0x37d1e11c	2.5019566e-05
103	0xb954c91d	-0.00020292816
104	0xb9474420	-0.00019003497
105	0xb9a2283d	-0.00030929028
106	0xb838aecd	-4.4031814e-05
107	0x3839c996	4.429518e-05
108	0x380edd57	3.4061577e-05
109	0xb9145e90	-0.00014149607
110	0xb92336d3	-0.00015565315
111	0xb8a4e13b	-7.862082e-05
112	0xb8ec99c6	-0.000112819995
113	0x37a73cc9	1.9936257e-05
114	0xb97810ab	-0.00023657332
115	0x38ea0a04	0.00011159855
116	0xb96f295e	-0.00022808227
117	0xb89cfbeb	-7.485583e-05
118	0xb83dc208	-4.5241817e-05
119	0x3885b3a2	6.3753934e-05
120	0xb73e745a	-1.1351973e-05
121	0xb621772c	-2.4060237e-06
122	0xb92136bb	-0.00015374545
123	0x39999890	0.00029296102
124	0x3991935c	0.00027766346
125	0xb731e426	-1.0603142e-05
126	0x395b2995	0.00020900958
127	0xb993e122	-0.00028205762

network_body.observation_encoder.rsa.fc_k.bias f4 [128]
0	0x31491086	2.9258742e-09
1	0x319b6d04	4.5234874e-09
2	0xb19033a0	-4.1968207e-09
3	0x31a30f77	4.7456825e-09
4	0x32067050	7.8253635e-09
5	0x31fdab9d	7.3827793e-09
6	0x313ba572	2.7306126e-09
7	0xb11f9af5	-2.3225628e-09
8	0x318a4c14	4.0249777e-09
9	0x3111a984	2.1196636e-09
10	0xb094853b	-1.0806284e-09
11	0xb07f910c	-9.2974584e-10
12	0xaff99564	-4.5398985e-10
13	0xb0d9e2a2	-1.5853241e-09
14	0xb035a104	-6.6076233e-10
15	0xb0707384	-8.747565e-10
16	0xb0409692	-7.0063166e-10
17	0xb16710b2	-3.3624414e-09
18	0x31007941	1.8695376e-09
19	0xb2167c20	-8.759372e-09
20	0xb2184569	-8.8633465e-09
21	0x30ce5dd0	1.5015136e-09
22	0xb1b0bfbb	-5.1440714e-09
23	0x321c5137	9.098861e-09
24	0x3154dbe6	3.0975058e-09
25	0xb12ac67c	-2.4851081e-09
26	0xb100c0ec	-1.8736115e-09
27	0xb23d6f98	-1.1026621e-08
28	0xb10dcce1	-2.063466e-09
29	0xb1d2b6fe	-6.132608e-09
30	0xb1a6aab4	-4.8506426e-09
31	0xb1bd8fb4	-5.516961e-09
32	0xb1809197	-3.741842e-09
33	0xb2552130	-1.2405778e-08
34	0x328e67f9	1.6578257e-08
35	0xb2a6a08c	-1.9397952e-08
36	0xb1b9f6c4	-5.4122626e-09
37	0x330d81f4	3.2947312e-08
38	0x3225c244	9.648435e-09
39	0x329d923f	1.834371e-08
40	0xb2a438e3	-1.9117982e-08
41	0x31c6093f	5.7636096e-09
42	0xb25f3d41	-1.2994236e-08
43	0x325a55bc	1.2708764e-08
44	0xb2dc4ee2	-2.5647243e-08
45	0xb2181ab5	-8.853637e-09
46	0xb30561bb	-3.105536e-08
47	0xb2dc3548	-2.56356e-08
48	0xb20d0a46	-8.209616e-09
49	0xb2404085	-1.1190541e-08
50	0x32be9f7c	2.2191436e-08
51	0x32cbcdc1	2.3725876e-08
52	0x31168867	2.1905409e-09
53	0xb2329383	-1.0394504e-08
54	0x322bfef6	1.0011481e-08
55	0xb2b627dd	-2.1205716e-08
56	0x32ecf2f7	2.7584504e-08
57	0xb0a8833a	-1.2260906e-09
58	0xb26977a2	-1.3589586e-08
59	0x31350faf	2.6347882e-09
60	0xb261c943	-1.3142485e-08
61	0x32e0ce2c	2.6170788e-08
62	0xb2899496	-1.6016468e-08
63	0x320f9f8a	8.3599705e-09
64	0x318bde57	4.0707095e-09
65	0x31b9e922	5.4107128e-09
66	0xb20194a5	-7.542586e-09
67	0x32b4f669	2.1066812e-08
68	0x32613316	1.3108339e-08
69	0xb31272fc	-3.409785e-08
70	0xb29167f1	-1.6927489e-08
71	0x3230f09e	1.0299258e-08
72	0xb10050e4	-1.8672432e-09
73	0x32a83fde	1.9586818e-08
74	0x320fa486	8.361104e-09
75	0xb2e41bd0	-2.6555341e-08
76	0x32575d09	1.2535801e-08
77	0xb241ebac	-1.1287664e-08
78	0xb199c05f	-4.474756e-09
79	0xb04fdbaa	-7.561832e-10
80	0x30b0ecd0	1.2872992e-09
81	0x326e3bc0	1.3867009e-08
82	0x322c6527	1.0034717e-08
83	0xb1d0bc0a	-6.0749743e-09
84	0x32aa1ece	1.9804613e-08
85	0xb277f852	-1.4433754e-08
86	0x31a8ed5d	4.9164286e-09
87	0xb157f4b1	-3.1425709e-09
88	0x3258dfb3	1.2623718e-08
89	0xb1837e35	-3.82695e-09
90	0xb2df87b1	-2.6022322e-08
91	0xb296e5ed	-1.7566856e-08
92	0x32f117fb	2.8066998e-08
93	0xb1b94072	-5.391535e-09
94	0xb21e94bd	-9.23063e-09
95	0x32a8fd35	1.967292e-08
96	0xb07ed715	-9.271031e-10
97	0x30a700d2	1.2151082e-09
98	0xafb51935	-3.294162e-10
99	0xb0d87eb3	-1.5752079e-09
100	0xafea28a8	-4.259324e-10
101	0xb0e32554	-1.6527033e-09
102	0x3045f6a2	7.201867e-10
103	0xb0eedeb6	-1.7380077e-09
104	0xb0efc885	-1.744653e-09
105	0xb0dd91a2	-1.6121258e-09
106	0x30889178	9.936647e-10
107	0xb043f6db	-7.129139e-10
108	0x30444ae6	7.141082e-10
109	0x31548b7a	3.0929344e-09
110	0xb00d5406	-5.1414906e-10
111	0x30007472	4.673161e-10
112	0xaf998d52	-2.7930952e-10
113	0xae478bd4	-4.5371554e-11
114	0xafa4caae	-2.997544e-10
115	0x30e41fd5	1.6598231e-09
116	0x31117224	2.1165159e-09
117	0xb0815c16	-9.412158e-10
118	0xb08e9e8a	-1.0376919e-09
119	0xad38a6c8	-1.0496222e-11
120	0x30988312	1.1096708e-09
121	0x30dd1d24	1.6088149e-09
122	0xb097bbb5	-1.1040046e-09
123	0xaf001a96	-1.1650977e-10
124	0xaf0299e0	-1.1878099e-10
125	0xaf4626b9	-1.8021752e-10
126	0x30d47f6a	1.5461243e-09
127	0x302ee2e2	6.362325e-10

network_body.observation_encoder.rsa.fc_v.bias f4 [128]
0	0x3bc6cf82	0.0060672173
1	0xbc1461d3	-0.009056526
2	0xbb804b6d	-0.0039152415
3	0x3a9a10aa	0.0011754234
4	0xbb5d2151	-0.0033741782
5	0x3a890d73	0.0010456279
6	0x3bf37df1	0.007430785
7	0xbbc5ae20	-0.00603272
8	0xbb8aa7ca	-0.004231428
9	0x3c181f8c	0.009284865
10	0xbc14b96c	-0.009077411
11	0xbb122f0f	-0.002230588
12	0xbaa1fb0b	-0.0012358142
13	0x3bd6f181	0.006559551
14	0x3c08a457	0.008339963
15	0x3ad6c326	0.0016385063
16	0x3c18d3d2	0.009327846
17	0x3bc0f979	0.0058891145
18	0x3806d758	3.2148644e-05
19	0xbb524233	-0.0032082915
20	0xbb57c84c	-0.0032925783
21	0x3a94eb6c	0.0011361665
22	0x3c1308fd	0.008974311
23	0xbb87bed7	-0.004142623
24	0xb8b6995f	-8.707004e-05
25	0x3c1448cd	0.00905056
26	0xbb9a185f	-0.0047026123
27	0x3a1a49fc	0.00058856583
28	0xbc1b0bf2	-0.009463297
29	0xbc128dff	-0.008944987
30	0x3bf3e2b4	0.0074427966
31	0xbc011024	-0.007877383
32	0xbc096251	-0.008385257
33	0x3be995ce	0.007128454
34	0xbbbab6ca	-0.0056980597
35	0xbc1fee97	-0.009761474
36	0x3c15622f	0.009117647
37	0x3b48d343	0.00306435
38	0xbc1857d9	-0.009298288
39	0xbb5c4297	-0.0033609027
40	0xbbe07ff7	-0.006851192
41	0xbbcd7db5	-0.006271089
42	0xbbcca6f6	-0.006245489
43	0x3c121ef0	0.008918509
44	0x3be2f3f1	0.0069260527
45	0xbc1aed24	-0.009455953
46	0x3bfecae7	0.0077756527
47	0x3c19cfb5	0.0093879
48	0xbbe336fd	-0.0069340453
49	0xbbb913cd	-0.0056481124
50	0xbc115c47	-0.008872098
51	0xba79beda	-0.0009527035
52	0xbc0180f5	-0.007904281
53	0x3b773d77	0.0037725845
54	0x3c1714ed	0.009221298
55	0xbc222a0f	-0.009897723
56	0xbb91092c	-0.004426142
57	0x3b0aec76	0.002119807
58	0xbbe3396d	-0.006934336
59	0xbaed7e0b	-0.0018119229
60	0xbb94fca2	-0.0045467177
61	0xb90cad79	-0.00013416064
62	0xbb91997b	-0.004443345
63	0xbbc92b50	-0.0061391965
64	0x3bc32475	0.0059552738
65	0xbc13bc2e	-0.0090170335
66	0xbb939e3e	-0.004504948
67	0x3b30feb0	0.0027007274
68	0x3b4228d7	0.0029626393
69	0x3b976ad4	0.004620889
70	0xbbd93934	-0.0066291336
71	0x3b1d3820	0.0023989752
72	0x3b42c6a9	0.0029720461
73	0x3bc4ede7	0.0060098055
74	0xbc1fbede	-0.009750096
75	0xbc19e0f8	-0.009392016
76	0xbc0026c0	-0.007821739
77	0xbbb0db0f	-0.0053972076
78	0x3c0c20b1	0.008552716
79	0xba97276a	-0.0011532132
80	0xbc119b06	-0.008887058
81	0x3bc2ee36	0.005948807
82	0x3bf267d9	0.0073976335
83	0x3b088b20	0.0020834878
84	0x3b9719d8	0.004611235
85	0xbbfc37c1	-0.007697076
86	0xbc08e116	-0.008354446
87	0xbc0e7d7e	-0.008696912
88	0xbaac402d	-0.0013141684
89	0x3c0e95a0	0.008702666
90	0xbbf6cb09	-0.007531528
91	0x3bc3e8bb	0.0059786714
92	0xbc05317c	-0.008129474
93	0xbc03c82f	-0.008043333
94	0xbaa8dada	-0.0012882606
95	0xbb971f25	-0.004611867
96	0x3ae6f259	0.0017619833
97	0xbaa08aea	-0.0012248431
98	0xbc176534	-0.009240437
99	0x3c14c2e5	0.00907967
100	0x3bacc20d	0.005272156
101	0x3ba6fdb6	0.0050961627
102	0x3be9aacd	0.0071309567
103	0x3bf8f9dd	0.0075981454
104	0x3bc0dc40	0.005885631
105	0x398e65c2	0.00027160166
106	0x3be7648d	0.007061547
107	0xbc0e49fb	-0.0086846305
108	0x3c064a45	0.008196418
109	0x3bf4c248	0.007469449
110	0xbc078cae	-0.008273287
111	0xbb9e90d5	-0.0048390427
112	0xbbd9e8d5	-0.00665007
113	0x3ac6b93f	0.0015161409
114	0xbb9c8961	-0.004777119
115	0xbba1820c	-0.004928833
116	0xbc14b220	-0.009075671
117	0xbc1429f3	-0.009043205
118	0x3bea26d7	0.0071457434
119	0xbc0b65ff	-0.0085082045
120	0xbbed53a5	-0.007242637
121	0x3b8cce9c	0.0042970907
122	0x3bd66fde	0.0065440973
123	0xbc11129e	-0.008854536
124	0x3b88f895	0.004180024
125	0xbc12aac9	-0.008951851
126	0x3befcaff	0.0073179
127	0x3c0aaf06	0.00846458

network_body.observation_encoder.rsa.fc_out.bias f4 [128]
0	0x3b59770f	0.0033182537
1	0x3b96bfbd	0.0046004937
2	0x3bea7aea	0.007155766
3	0x3bb6ac85	0.005574765
4	0x3c0a4b2c	0.008440774
5	0x3bf0a210	0.007343538
6	0xbb88f1b1	-0.0041792025
7	0x3b74c304	0.0037347684
8	0xbb0b639d	-0.002126909
9	0xbc04ad66	-0.008097982
10	0x3a840e94	0.0010075145
11	0xbb8e8ea4	-0.0043505
12	0x3c14fc96	0.009093424
13	0xbbb5c863	-0.0055475696
14	0xbc0184f5	-0.007905235
15	0xbb99a7a6	-0.0046891747
16	0x3bc56c5a	0.0060248794
17	0x3bb709c8	0.005585883
18	0xbb9f74c5	-0.004866215
19	0x3b1f229b	0.00242821
20	0xbb2348b9	-0.0024915172
21	0x3bcf3833	0.006323838
22	0xbb846200	-0.004040003
23	0x3b9e13c3	0.004824133
24	0x3b17482c	0.002308379
25	0xbb904463	-0.0044026836
26	0xba9f760a	-0.0012165916
27	0x3b30c849	0.0026974848
28	0xbaecf259	-0.0018077596
29	0xbbc982b2	-0.0061496133
30	0xbba1217a	-0.004917321
31	0x3bf98ca9	0.007615645
32	0xbbabe00e	-0.0052452153
33	0xba4314fd	-0.0007441787
34	0x3b1ec64b	0.0024227079
35	0xbaaf281b	-0.0013363393
36	0x39f84720	0.00047355238
37	0xbbca4f16	-0.0061739786
38	0xbc1dac2f	-0.009623571
39	0x3badac78	0.005300101
40	0x3a894617	0.0010473159
41	0x3b3b56ec	0.0028585745
42	0xbaca1eeb	-0.0015420591
43	0x3bbfd596	0.005854319
44	0xba3c3434	-0.000717941
45	0xbac9cc32	-0.0015395938
46	0x3a77baa2	0.00094501127
47	0x38e78b84	0.00011040925
48	0xbb0d4fc9	-0.0021562448
49	0x3bc1f438	0.0059190057
50	0x3c1337e9	0.008985498
51	0xbb9c9842	-0.0047788927
52	0x3ba3a99d	0.0049945847
53	0x3bda2c57	0.0066581178
54	0xbb7638b5	-0.003757042
55	0x3c071c35	0.008246471
56	0xbbd298e3	-0.006426917
57	0x3c0643f4	0.008194912
58	0xbc162058	-0.009162985
59	0x3b27fca3	0.002563276
60	0xb822a71c	-3.8779443e-05
61	0xbc11d7a3	-0.008901509
62	0xbbee6956	-0.0072757406
63	0xbbbacfe3	-0.0057010516
64	0x3b0b908d	0.0021295876
65	0x3bbfb7b1	0.005850755
66	0x3bd72284	0.006565394
67	0x3b360f71	0.00277802
68	0x391019a6	0.00013742465
69	0xbbfb2bf1	-0.0076651503
70	0xbaed9299	-0.0018125355
71	0x3ba954e8	0.0051675923
72	0x3b702186	0.0036641075
73	0xbb9c79e8	-0.0047752745
74	0x3ab56f01	0.0013842286
75	0xba9e9571	-0.001209898
76	0x3c15c362	0.009140821
77	0x3c13d6a7	0.009023345
78	0x3b999f72	0.004688197
79	0x3a294b90	0.0006458098
80	0x3a606955	0.00085606176
81	0xbbb0e782	-0.0053986916
82	0xbbe1443c	-0.0068745892
83	0x3c050fc5	0.0081214355
84	0x3b6adb3e	0.0035836245
85	0x3bf988a0	0.007615164
86	0xbbea47a5	-0.007149654
87	0x3b3b6dd6	0.0028599403
88	0xbc04d555	-0.008107503
89	0x3b2459ce	0.0025077942
90	0x3b279ba2	0.0025574942
91	0x3b906dbd	0.004407613
92	0xbbd72816	-0.006566058
93	0xbb6e5948	-0.0036369134
94	0xbc0f4bfc	-0.008746143
95	0xbb2c1996	-0.0026260368
96	0xbba869aa	-0.0051395493
97	0xba3fd683	-0.00073180365
98	0xbba316e8	-0.004977096
99	0xb92b3d23	-0.00016330606
100	0xbbf59c9d	-0.0074954764
101	0x3c0d1186	0.008610135
102	0x3bf84a99	0.007577252
103	0xbb91be82	-0.004447759
104	0xbb4fac75	-0.0031688486
105	0xbbfd4fb3	-0.007730448
106	0xbb83d4f3	-0.0040231883
107	0xbc16447f	-0.009171604
108	0x3994dad2	0.00028391794
109	0xbae2bcbb	-0.0017298678
110	0xb94cd5fa	-0.00019534669
111	0x3bf744fd	0.007546066
112	0x3b4069e5	0.0029359993
113	0x3be95ce0	0.0071216673
114	0x3bceed46	0.0063149063
115	0xbbe3bf8e	-0.0069503253
116	0x3bb81974	0.0056182686
117	0x3bef4ef8	0.007303115
118	0x3c0e3ac8	0.008681007
119	0x3b89dcce	0.00420723
120	0xbbd14550	-0.0063864365
121	0xbc06fa55	-0.008238395
122	0xbb879fa0	-0.004138902
123	0x3b0795a2	0.0020688553
124	0x3a8f1593	0.0010916464
125	0xbc08fcff	-0.0083611
126	0xbb3e485c	-0.0029034829
127	0x3bc09259	0.005876821

network_body.observation_encoder.x_self_encoder.seq_layers.0.weight f4 [128, 4]
0	0x3b565ab5	0.0032707874
1	0xbc1d4c17	-0.009600661
2	0x3cfe6a19	0.03105645
3	0x3c538c68	0.012911893
4	0xbc52150c	-0.012822401
5	0x3cf4ff1b	0.0299068
6	0x3ce7b190	0.02828291
7	0x3d47bfae	0.048766784
8	0xbc821615	-0.01587967
9	0x3b36b377	0.0027877965
10	0x3cd69fed	0.026199305
11	0xbb9769ba	-0.004620758
12	0xbd014372	-0.03155846
13	0x3d192c87	0.03739598
14	0xbd0e5522	-0.034749158
15	0x3c3b2346	0.011421984
16	0x3c68afd5	0.014202078
17	0x3c2cba3c	0.010542449
18	0x3cebed06	0.028799545
19	0xbd7251b8	-0.059159964
20	0x3c70220b	0.014656554
21	0xbcccad17	-0.02498488
22	0x3d3da0b9	0.046295855
23	0x3d0dd6e3	0.03462876
24	0xbda535be	-0.08066891
25	0xbd726119	-0.05917463
26	0xbd98996c	-0.07451138
27	0x3cea0b6d	0.028569901
28	0x3c708680	0.014680505
29	0xbc8f91fc	-0.017525665
30	0x3c016991	0.007898704
31	0x3d7dc8c8	0.061959058
32	0xbc851084	-0.016243227
33	0xbd61dd72	-0.055142827
34	0xbc90c6f6	-0.017672997
35	0x3bdc2e31	0.0067193736
36	0xbd56d409	-0.052448306
37	0xbc8f946a	-0.017526824
38	0x3cd697fd	0.02619552
39	0x3bc067ce	0.0058717495
40	0xba01e632	-0.0004955261
41	0x3ba53285	0.005041423
42	0xbd9613e4	-0.073280126
43	0xbc6744a1	-0.0141154835
44	0x3c51afca	0.012798259
45	0xbd2695cc	-0.0406702
46	0x3b5ff2ce	0.0034171822
47	0xbc849f76	-0.016189318
48	0xbcf7e909	-0.030262487
49	0x3cd0aace	0.025472071
50	0x3d38c90b	0.045113605
51	0x3cc77549	0.024347918
52	0xbcca5115	-0.024696866
53	0x3c87117f	0.016487835
54	0x3d8dd99b	0.069262706
55	0x3c3f4b7e	0.011675714
56	0xbd4c6207	-0.049898174
57	0x3d265a31	0.040613357
58	0x3ce9da96	0.028546613
59	0xbd82c58d	-0.06385336
60	0x3d53c653	0.05170281
61	0x3cea51aa	0.028603394
62	0x3be23c12	0.0069041336
63	0x3ccc3c58	0.024931118
64	0xbd0a50f5	-0.033768613
65	0xbc7070c5	-0.014675324
66	0x3ce0b12e	0.027428236
67	0xbbb804d5	-0.0056158104
68	0xbd862a4f	-0.065510385
69	0x3c81ab97	0.01582889
70	0x3cf52987	0.029927028
71	0xbc6e5f91	-0.014549152
72	0x399e4229	0.00030185402
73	0x3c91686e	0.017749991
74	0x3a281a8e	0.00064126484
75	0xbcc4a1ae	-0.024002876
76	0x3c9ef424	0.019403525
77	0x3a890789	0.0010454516
78	0x3ce02057	0.02735917
79	0x3cb34b5f	0.021886526
80	0x3c880c09	0.016607301
81	0x3d202dc4	0.039106146
82	0x3b272457	0.0025503838
83	0x3d06b431	0.032886688
84	0x3986a441	0.0002568085
85	0xbd3a04ce	-0.04541474
86	0x3b90de9d	0.004421069
87	0xbdae3459	-0.08506078
88	0xbcc4bc6a	-0.024015624
89	0xbce897bc	-0.028392665
90	0xbc48d3c5	-0.012257521
91	0xba685683	-0.0008862989
92	0xbd0fcc2d	-0.035106827
93	0x3d4d261d	0.050085176
94	0x3cd7c658	0.026339695
95	0xbd2cc7de	-0.042182796
96	0xbb200a68	-0.0024420265
97	0xbcf77bb5	-0.030210355
98	0xbd21a297	-0.0394617
99	0x3cc55a2c	0.024090849
100	0xbcfbd8bf	-0.030743001
101	0x3ab0be8f	0.0013484525
102	0x3aa73699	0.001275736
103	0x3d4e1de1	0.050321463
104	0x3c22373b	0.009900863
105	0xbd1d30ff	-0.038376804
106	0x3c5e04e5	0.013550972
107	0x3cb8d654	0.022563137
108	0x3ca43da7	0.02004893
109	0x3ce9d3b1	0.028543325
110	0xbc27f658	-0.010251604
111	0x3bf9da0b	0.0076248697
112	0x3cac4593	0.02102927
113	0xbd027519	-0.031849954
114	0xbbdc6729	-0.006726165
115	0x3cedb7f2	0.029018376
116	0xbc94b413	-0.018152272
117	0x3c8fb589	0.017542617
118	0x3d0dc587	0.034612205
119	0x3c7434a9	0.014905133
120	0x3cdea743	0.027179366
121	0x3cadb004	0.021202095
122	0xbd2e6811	-0.042579714
123	0x3c1e582f	0.009664579
124	0xbd365410	-0.044513762
125	0xbb928b4f	-0.0044721733
126	0xbbdd7cf8	-0.006759282
127	0x3d49fdb5	0.04931422
128	0xbd35db12	-0.044398375
129	0x3d0ae62a	0.033910908
130	0x3d5571a3	0.052110326
131	0xbc729a69	-0.014807322
132	0x3d019f12	0.031645842
133	0xbd51506e	-0.051102094
134	0xbbaadaba	-0.0052140625
135	0xbd76d845	-0.060264844
136	0x3d37ff5f	0.044921275
137	0x3d2cc247	0.042177465
138	0x3d0a486c	0.033760473
139	0xbad1f9be	-0.0016019864
140	0xbca37795	-0.019954482
141	0x3c6d2881	0.014474989
142	0x3d26b239	0.04069731
143	0xbc407190	-0.011745825
144	0xbd726ffc	-0.059188828
145	0x3c83f8d8	0.016109869
146	0x3ca849ca	0.020542998
147	0x3d3f05b5	0.046636302
148	0x3c1f4276	0.009720435
149	0xbd3676e7	-0.044546988
150	0xbca4715a	-0.020073581
151	0xbd2a4786	-0.041572116
152	0xbbfa8bda	-0.007646066
153	0xbd39c0c2	-0.045349844
154	0xbb857632	-0.004072928
155	0x3d01e7b4	0.03171511
156	0xbbe86f81	-0.0070933704
157	0xbce4e4d1	-0.02794114
158	0xbca9ff4c	-0.020751618
159	0x3c6592d5	0.014012058
160	0x3ceff265	0.029290387
161	0xbd299dd5	-0.041410286
162	0xbca1e343	-0.019761687
163	0x3c7ba480	0.015359044
164	0x3d17f27f	0.037096497
165	0x3c874748	0.016513482
166	0x3cbd6739	0.02312051
167	0xbbd27bc1	-0.006423444
168	0x3bff6a33	0.0077946424
169	0xbd9e237e	-0.07721613
170	0x3d5bd4db	0.05366979
171	0xbc45eaa5	-0.012079869
172	0xbc92bd5d	-0.017912561
173	0x3d013bb2	0.03155107
174	0xbd0f23ae	-0.034946136
175	0x3d03c825	0.032173295
176	0xbc2833a5	-0.010266219
177	0x3cfbe410	0.030748397
178	0x3c99f97c	0.018795721
179	0xbc8a2d3b	-0.01686727
180	0x3cde6140	0.027145982
181	0x3c8714e8	0.016489461
182	0xbd8e1d7b	-0.06939217
183	0xbd1bd523	-0.03804506
184	0x3a4176a3	0.0007380044
185	0xbc6fce06	-0.014636522
186	0x3c282815	0.010263463
187	0x3d4e440c	0.050357863
188	0x3d058dfa	0.032606103
189	0x3d5eef18	0.054427236
190	0x3ccd3f9b	0.025054744
191	0x3c288ec9	0.010287949
192	0x3d3d7cd6	0.04626163
193	0xbdad1ca8	-0.08452731
194	0x3cbaa37b	0.022783032
195	0x3d2dadc7	0.042402055
196	0x3d09b90a	0.033623733
197	0x3d8c3f68	0.06848031
198	0x3c073a4d	0.008253646
199	0xbd00e5c3	-0.031469118
200	0xbca87262	-0.020562354
201	0xbc8d2dd4	-0.017233767
202	0x3c7bb8ed	0.015363914
203	0xbd216428	-0.039402157
204	0x3c0f3ca6	0.008742487
205	0x3cd84fd6	0.026405256
206	0x3d0b8946	0.03406646
207	0xbcedac39	-0.029012786
208	0xbc1b31ba	-0.009472305
209	0xbc5784ac	-0.01315419
210	0x3c80d2b4	0.015725471
211	0x3d29ffd4	0.041503742
212	0xbc9f68fb	-0.019459238
213	0xbcc9695c	-0.024586372
214	0xbb452fdc	-0.003008834
215	0xbca3b9b6	-0.019986015
216	0xbc721bd5	-0.0147771435
217	0xbc37451b	-0.01118591
218	0xbd120cb5	-0.03565665
219	0x3c58e9d1	0.01323934
220	0x3d4ff3dd	0.050769676
221	0xbbaf8b1a	-0.0053571584
222	0xbc93fbb0	-0.01806435
223	0x3d517d26	0.05114474
224	0x3a5b543f	0.00083667407
225	0x3c6a21e3	0.014290306
226	0x3b7433b5	0.0037262265
227	0xbcb80734	-0.022464372
228	0xbb126c24	-0.002234229
229	0xbd87727d	-0.06613634
230	0xbc67808c	-0.014129769
231	0xbc2333fa	-0.009961123
232	0xbcc8a211	-0.024491342
233	0xba831479	-0.0010000608
234	0xbc092c19	-0.00837233
235	0x3c74093e	0.014894782
236	0x3b3406ad	0.00274698
237	0xbd4f2f04	-0.050581947
238	0xbba2bbd4	-0.0049662385
239	0x3d7c30ce	0.06156998
240	0xbd2dca38	-0.04242918
241	0x3d27083c	0.040779337
242	0xbc2e03fa	-0.010621065
243	0x3bc4eb82	0.00600952
244	0xbcbcc9cc	-0.023045443
245	0xbc50eb0a	-0.01275135
246	0xbd36ae3a	-0.04459975
247	0x3d16b142	0.03679014
248	0xbd2b7ce6	-0.04186716
249	0x3cbd52ad	0.023110712
250	0x3c96f36c	0.01842662
251	0xbcb7cc5a	-0.02243631
252	0x3b410954	0.0029455023
253	0xbceea4af	-0.029131262
254	0xbc3a0b61	-0.011355252
255	0x3b05a36e	0.00203916

network_body.observation_encoder.x_self_encoder.seq_layers.0.bias f4 [128]
0	0x3c010c87	0.007876522
1	0xbbc7276f	-0.006077699
2	0x3be39193	0.006944844
3	0xbb84c6e4	-0.00405203
4	0x3c0ae99f	0.008478551
5	0xbc0d710b	-0.008632909
6	0xbc092635	-0.008370926
7	0xbab4b83a	-0.0013787814
8	0x3a4c2d5e	0.00077887427
9	0xbbda1141	-0.006654889
10	0x3c0db442	0.008648934
11	0x3baf41aa	0.005348404
12	0xbc0819f9	-0.008306974
13	0x3c097cd3	0.008391577
14	0x3c09d19a	0.008411789
15	0xbc0acf36	-0.0084722545
16	0x3b77d721	0.0037817436
17	0xbc0d9dd0	-0.008643582
18	0x3bfdb070	0.0077419803
19	0x3bd52d9d	0.0065056817
20	0xb9e58de4	-0.00043784
21	0xbb261ab9	-0.0025345518
22	0x3c10dd3a	0.008841807
23	0x3c065cba	0.008200819
24	0xba8c8067	-0.0010719419
25	0xbb4784c5	-0.0030444127
26	0x3bc28ce9	0.005937208
27	0xbbcf3994	-0.0063240025
28	0x3b8c9853	0.0042906194
29	0x3b6e2749	0.0036339334
30	0xbc0d3fa9	-0.008621135
31	0xbbd0e696	-0.0063751442
32	0x3c0ac3b8	0.008469515
33	0x3c14e8f1	0.009088741
34	0xbbec5a85	-0.007212939
35	0x3bf47e11	0.0074613173
36	0xbb882adf	-0.0041555013
37	0x3b2aefdc	0.0026082909
38	0xbb8431cb	-0.004034256
39	0xbc085d78	-0.008323066
40	0xbc05debb	-0.008170779
41	0xb9485c2e	-0.00019107826
42	0xbbc41455	-0.005983869
43	0x3c059f00	0.008155584
44	0x3bdad71f	0.0066784765
45	0x3ba3d2ee	0.00499951
46	0xba90c33b	-0.0011044511
47	0x39bfa7dc	0.00036555424
48	0x3b05cb4a	0.002041536
49	0x3c12de6b	0.008964161
50	0x3bc0664f	0.005871571
51	0x3bef88ef	0.007310025
52	0x3a97441f	0.0011540687
53	0x3bf8dd8e	0.0075947708
54	0xbc10b3b5	-0.008831908
55	0xbba4fc46	-0.005034956
56	0xbc0113d8	-0.007878266
57	0x3c07682c	0.008264583
58	0x3bc1f508	0.0059191026
59	0xbb29de3e	-0.002591982
60	0xbb3fd7d6	-0.0029272935
61	0xbb1daba6	-0.002405861
62	0x3bdabe27	0.0066755
63	0x3bfb2c73	0.007665211
64	0xbb10830d	-0.0022050769
65	0xba2de66a	-0.00066337606
66	0xbbc438b4	-0.005988205
67	0xbc0cfd10	-0.008605257
68	0x3be04d37	0.006845142
69	0x3bb4dd95	0.0055195787
70	0xbba5e5b1	-0.0050627817
71	0x3b43313b	0.0029783982
72	0xbbd186ec	-0.006394258
73	0xbc12a473	-0.008950341
74	0xbc12e1bb	-0.008964951
75	0x3c0bc888	0.008531697
76	0xbc01d033	-0.007923174
77	0x3b196726	0.0023407429
78	0xbc186342	-0.009301009
79	0xb9f2756a	-0.00046245317
80	0xb980dbf4	-0.0002457794
81	0x3bf647aa	0.0075158672
82	0x3bda2020	0.0066566616
83	0x3b11c85a	0.0022244663
84	0x3c17784d	0.009244991
85	0xbbf09efc	-0.007343171
86	0x3c0e5c61	0.008689017
87	0x3c05584d	0.008138728
88	0xb998a32c	-0.00029113272
89	0xbb0fb93b	-0.0021930474
90	0x3be3e64b	0.0069549433
91	0xbb039234	-0.0020076158
92	0xbbade457	-0.0053067612
93	0xbbae5dc3	-0.005321236
94	0x3bd67dd8	0.0065457635
95	0xbbf8a42c	-0.00758793
96	0x3c0d0562	0.00860724
97	0x3c08b9e4	0.008345101
98	0x3b08823e	0.0020829584
99	0xbbf068ea	-0.0073367255
100	0xbbd41efe	-0.006473421
101	0x3b3411c1	0.0027476402
102	0x3be71481	0.007052005
103	0x3b6a8b33	0.0035788536
104	0xb97bc27d	-0.00024009678
105	0xbac38fb9	-0.0014920152
106	0x3be20889	0.00689799
107	0x3c1798d8	0.009252749
108	0xbc0f315a	-0.008739794
109	0xbbc7021b	-0.006073249
110	0x3c1a73e8	0.009427048
111	0x3c09a575	0.008401264
112	0xbc005044	-0.007831637
113	0x3c0545e7	0.008134342
114	0x3c0a706c	0.008449655
115	0x3bd90718	0.00662316
116	0xba77b558	-0.00094493246
117	0x3b5ad1d1	0.003338922
118	0x3c146d3b	0.009059246
119	0xba05b30a	-0.0005100226
120	0xbc033e68	-0.008010484
121	0xbc11262f	-0.008859201
122	0xbc01d413	-0.007924098
123	0xbb66508b	-0.0035143222
124	0xbb4a67b7	-0.0030884573
125	0x3be0055c	0.0068365764
126	0x3bae4a0a	0.0053188847
127	0xbb52b525	-0.0032151428

network_body._body_endoder.seq_layers.0.weight f4 [64, 132]
0	0xbdc454db	-0.095864974
1	0x3c1c6e95	0.009547849
2	0xbd62bc85	-0.055355567
3	0x3b83ff1c	0.004028214
4	0xbc57ff11	-0.013183371
5	0x3e60e325	0.21961649
6	0x3cf66ff7	0.030082686
7	0x3d566882	0.05234576
8	0xbd60ba07	-0.05486491
9	0x3e5d7931	0.21628262
10	0xbe0b943d	-0.13630767
11	0x3cb9eab5	0.022694925
12	0x3dcd954b	0.10038241
13	0xbd1b82b7	-0.037966456
14	0x3c66374f	0.0140512725
15	0x3e372769	0.17886128
16	0xbd01cbc8	-0.03168848
17	0x3e0e82c2	0.13917068
18	0xbdbda662	-0.09260251
19	0x3d226749	0.03964928
20	0xbc9c2a4f	-0.019063143
21	0x3dbeb6af	0.09312188
22	0x3d676eaf	0.05650204
23	0xbd855014	-0.06509414
24	0x3e0b0a66	0.13578185
25	0x3e299282	0.16559795
26	0x3e47990a	0.19491974
27	0xbe0fdf84	-0.14050108
28	0xbe07db3f	-0.1326723
29	0x3d6a9fc2	0.057281263
30	0xbdd232e8	-0.10263616
31	0xbc9b85f6	-0.018984776
32	0xbdd68821	-0.10475183
33	0xbd259ac3	-0.040430795
34	0x3e1cf5ee	0.1532819
35	0xbd68ab8d	-0.05680423
36	0x3df7f368	0.12106973
37	0xbdeb264a	-0.114819124
38	0xbdedc264	-0.11609343
39	0xbc9436f3	-0.018092608
40	0xb7cd315c	-2.446089e-05
41	0xbdc0588d	-0.0939189
42	0xbd9ee871	-0.077591784
43	0xbe45f4a7	-0.19331609
44	0x3d2c7225	0.042101044
45	0x3dc420b2	0.09576549
46	0xbc90755b	-0.017634084
47	0x3c39582c	0.011312526
48	0xbd1786d2	-0.03699381
49	0x3d2eb89f	0.042656537
50	0x3c8c3f3e	0.01712
51	0xbd1cdd0f	-0.038296755
52	0x3d6f5366	0.058429144
53	0xbe46a5a9	-0.19399132
54	0xbdd2075c	-0.1025531
55	0xbd4c9915	-0.049950678
56	0xbe1eb2a2	-0.1549783
57	0xbe0ee1ae	-0.13953277
58	0x3cb5c769	0.022189813
59	0x3d0aae65	0.03385772
60	0xbdc445cc	-0.09583625
61	0x3e52cbc8	0.20585549
62	0x3e0d694d	0.138097
63	0xbddae784	-0.10688689
64	0x3cb66d8b	0.022269031
65	0x3c37127d	0.011173842
66	0x3e3dd511	0.1853831
67	0xbdb9744b	-0.09055384
68	0xbe02ba2d	-0.12766333
69	0xbda8e01a	-0.08245869
70	0x3d2f31e8	0.042772204
71	0x3db39f68	0.08770639
72	0x3e1b7666	0.15181884
73	0xbd37e7f8	-0.044898957
74	0x3da7bda5	0.08190469
75	0x3e311731	0.17294003
76	0xbdee56fe	-0.11637686
77	0x3d04aa14	0.03238876
78	0xbc156243	-0.009117666
79	0xbe0f24b4	-0.13978845
80	0xbccc8e26	-0.024970125
81	0x3dce397c	0.10069558
82	0xbd8cbca3	-0.06871917
83	0xbc911152	-0.017708454
84	0x3e13de5e	0.14440295
85	0xbd4b3c36	-0.04961797
86	0x3d98f643	0.07468846
87	0x3da1ebca	0.07906301
88	0xbd9a694c	-0.07539615
89	0x3ce30b41	0.027715327
90	0xbe3f08a6	-0.18655643
91	0x3d8aebae	0.067832336
92	0xbd705fff	-0.0586853
93	0x3b90ab00	0.004414916
94	0xbccde050	-0.025131375
95	0x3ca4bf9c	0.020110898
96	0xbd64456e	-0.055730276
97	0xbd6b1b38	-0.057399005
98	0xbd7cad26	-0.061688565
99	0x3e2c10d6	0.16803297
100	0x3e2ff1cf	0.17182086
101	0xbcd9b057	-0.026573343
102	0xbd140fb8	-0.036147803
103	0xbd686f3b	-0.056746703
104	0xbc5a4301	-0.013321639
105	0x3dc4d52b	0.09610971
106	0xbc260262	-0.010132404
107	0xbb9ec802	-0.00484562
108	0x3dc8c1bd	0.09802578
109	0xbdc3f258	-0.09567708
110	0xbc2f6648	-0.010705538
111	0x3de334c0	0.11094046
112	0xbc8d678c	-0.017261289
113	0xbc2bb99a	-0.010481263
114	0xbd6aa65e	-0.057287566
115	0x3d41801e	0.047241323
116	0xbd75530e	-0.05989366
117	0x3d0d5240	0.034502268
118	0xbd12c115	-0.03582867
119	0xbe08e620	-0.13369036
120	0x3c871b58	0.01649253
121	0xbdd54dc9	-0.10415227
122	0x3dde8a09	0.10866172
123	0x3dcf33c4	0.101172954
124	0xbdba86ce	-0.09107743
125	0xbe233e63	-0.15941767
126	0xbd40dbff	-0.047084805
127	0xbd19a1cc	-0.037507817
128	0xbe042891	-0.129061
129	0x3dc46ea9	0.09591419
130	0xbe1b0779	-0.1513957
131	0xbcc69270	-0.024239749
132	0x3d1ddcfa	0.038540818
133	0x3c765146	0.015034026
134	0x3995a2c2	0.0002854076
135	0xbd4d1be7	-0.050075438
136	0x3b9e0fcd	0.004823661
137	0x3e189953	0.14902239
138	0xbcd2ea60	-0.025746524
139	0xbe483c34	-0.19554216
140	0xbe0360d3	-0.12829904
141	0xbd89001a	-0.066894725
142	0xbe2c092b	-0.16800372
143	0x3d1de01b	0.0385438
144	0x3dbe2fb5	0.09286443
145	0xbcd7e550	-0.026354462
146	0x3d2d43ae	0.042300873
147	0xbceffd65	-0.029295633
148	0x3c5734e7	0.0131351715
149	0x3d7cbbb1	0.061702434
150	0xbd99da14	-0.07512298
151	0x3d21afe0	0.039474368
152	0xbceb6846	-0.028736245
153	0x3ad5cc78	0.0016311547
154	0xbca3cb46	-0.01999439
155	0x3d11089f	0.035408612
156	0xbdaaef4a	-0.08346422
157	0x3ca82822	0.02052695
158	0xbd6805a1	-0.056645993
159	0x3e2fed0a	0.17180267
160	0xbcdab975	-0.02669976
161	0x3dac1ebd	0.084043
162	0xbc545231	-0.012959049
163	0x3de0c25a	0.109745696
164	0xbd8ca8cf	-0.06868135
165	0x3cb87125	0.022514889
166	0x3d8c369e	0.06846355
167	0xbd721a25	-0.059106965
168	0xbe18c928	-0.14920485
169	0x3e07c2ba	0.13257876
170	0x3dbb996c	0.09160122
171	0xbe2feab8	-0.17179382
172	0x3dc07e15	0.09399048
173	0xbd1f5570	-0.03889984
174	0x3ddf0404	0.10889438
175	0x3de70150	0.11279547
176	0xbca8e156	-0.020615261
177	0x3ca672bb	0.02031838
178	0xbe514dce	-0.20439836
179	0xbd83edc7	-0.06441837
180	0x3e5ab76e	0.21359035
181	0xbe1a07ed	-0.15042086
182	0xbc5e2cf3	-0.013560521
183	0xbe1903f4	-0.14942914
184	0xbb2ac329	-0.0026056266
185	0x3c977d01	0.018492224
186	0xbc1ba5e4	-0.009500001
187	0xbe17a0b4	-0.14807397
188	0xbd3e316c	-0.04643385
189	0x3dff20c7	0.12457424
190	0xbb98c001	-0.0046615605
191	0x3cbbc55f	0.022921262
192	0xbdbf75b0	-0.09348619
193	0x3dcbbac1	0.0994773
194	0xbd4a5eb8	-0.049406737
195	0xbdce9ca4	-0.100884706
196	0x3e5333dc	0.20625252
197	0xbcb97845	-0.022640357
198	0xbd084084	-0.033264652
199	0xbdbb9102	-0.091585174
200	0xbdde9d02	-0.108697906
201	0xbab9525e	-0.0014138927
202	0x3dc6ff88	0.097167075
203	0x3af96582	0.0019027444
204	0xbdfcf4e6	-0.12351398
205	0x3e099a43	0.13437752
206	0x3e163ab5	0.14670832
207	0x3d68899a	0.056771852
208	0x3dfd4096	0.123658344
209	0xbcfb1272	-0.030648444
210	0xbbfa69c0	-0.007642001
211	0xbe360837	-0.17776571
212	0xbbcff20e	-0.006345994
213	0x3e0c2d6b	0.136892
214	0x3dcfe048	0.101502
215	0x3e83d87e	0.25751108
216	0xbdd56c20	-0.10421014
217	0x3d9198c2	0.07109214
218	0xbd97a6a2	-0.074048296
219	0x3ac374f9	0.001491218
220	0x3d7a9875	0.06118055
221	0xbca95b28	-0.02067335
222	0x3c8f1a7c	0.017468683
223	0x3e21c5a6	0.15798053
224	0x3e19e6e6	0.15029487
225	0x3dec041b	0.115242206
226	0x3d209ae2	0.039210208
227	0x3da8b581	0.08237744
228	0xbcb59fa8	-0.022170857
229	0xbc68f942	-0.014219584
230	0xbc9c7213	-0.019097364
231	0x3d8e1ade	0.06938718
232	0xbd36e918	-0.04465589
233	0xbe41fccc	-0.1894409
234	0x3c12d9a0	0.008963019
235	0xbe18727f	-0.14887427
236	0x3deb5a9e	0.11491893
237	0x3d897c34	0.06713143
238	0x3e082ae1	0.13297607
239	0x3d5d446a	0.054020323
240	0x3d98ae1e	0.07455085
241	0xbdbeb31b	-0.093115054
242	0xbd87cafb	-0.06630512
243	0x3dbb9fda	0.09161349
244	0xbcaf827b	-0.021424523
245	0xbd77edb0	-0.06052941
246	0xbd8a837a	-0.067633584
247	0x3d8e6ac3	0.06953957
248	0x3cfaa936	0.030598264
249	0xbcc172c3	-0.023614293
250	0x3c8584a8	0.016298607
251	0xbd2623ed	-0.040561605
252	0x3dcb7b17	0.09935587
253	0xbd9f39e5	-0.077747144
254	0xbdc9fc5f	-0.09862589
255	0xbd2f62d0	-0.042818844

network_body._body_endoder.seq_layers.0.bias f4 [64]
0	0x3bb990d2	0.005663016
1	0x3bae1566	0.0053126095
2	0xbbc35d2c	-0.0059620347
3	0xbb015bad	-0.001973848
4	0xbb6808c4	-0.0035405615
5	0xbbe40063	-0.006958054
6	0x3baaac5b	0.0052085347
7	0x3b255b9f	0.0025231612
8	0xbc14f444	-0.009091441
9	0x3a3a8346	0.0007114898
10	0x3c09d739	0.0084131295
11	0x3c2b57ca	0.010457942
12	0x3b4d54e3	0.0031331114
13	0x3bd396cb	0.006457185
14	0x3c156070	0.009117231
15	0x3c0dd5ff	0.008656978
16	0xbbc48072	-0.005996757
17	0xba28ee9b	-0.00064442464
18	0x3c2ada60	0.010428041
19	0x3c0d04dc	0.008607116
20	0xbbd59068	-0.0065174587
21	0x3c0e9da2	0.008704575
22	0xbb6ead65	-0.003641927
23	0x3ab06f53	0.0013460912
24	0xba2bf5d2	-0.00065597624
25	0x3a8d841c	0.0010796818
26	0x3b31b7c3	0.0027117587
27	0xbb94134c	-0.004518902
28	0xb88df8d6	-6.769753e-05
29	0xbb6fc02c	-0.003658305
30	0x3b7037af	0.0036654284
31	0x3b9bc1e6	0.004753339
32	0xb98ce683	-0.00026874625
33	0x3c04d03d	0.0081062885
34	0x3a98691b	0.0011628004
35	0x3c255474	0.010090936
36	0xbbf12d7d	-0.007360159
37	0x3aa08e28	0.0012249397
38	0x3b9c6a49	0.0047734124
39	0xbb96f979	-0.004607376
40	0xbb10aca3	-0.0022075556
41	0x3b5f476b	0.0034069668
42	0xbc06327f	-0.00819075
43	0x3b55aafa	0.003260313
44	0x3bea6b41	0.007153899
45	0x3bedca64	0.007256793
46	0x3c0fc3e0	0.008774728
47	0xbb30e0fa	-0.0026989565
48	0x3b1445e0	0.0022624657
49	0x3c00313d	0.007824239
50	0x3c09d55a	0.008412683
51	0xbbf904b3	-0.007599437
52	0x3bc42393	0.005985686
53	0x3bcea1a2	0.006305889
54	0x3c0e8399	0.0086983675
55	0x3c09ab49	0.008402654
56	0xbad25607	-0.0016047367
57	0xbc1e4104	-0.009659056
58	0x3c0e985b	0.008703317
59	0xbbae9920	-0.0053283125
60	0xbbddc1c1	-0.006767482
61	0x3bdc9d1e	0.006732597
62	0x39f29443	0.000462683
63	0x3bd42246	0.0064738123

network_body._body_endoder.seq_layers.2.weight f4 [64, 64]
0	0x3dad453b	0.0846047
1	0xbddda1bb	-0.10821863
2	0xbc2fce5e	-0.010730354
3	0xbd3fc228	-0.04681602
4	0xbd1ff432	-0.039051242
5	0x3d60b72d	0.05486219
6	0x3d61fa73	0.055170488
7	0xbe119435	-0.14216693
8	0xbc41a918	-0.0118201
9	0xbc651213	-0.01398136
10	0x3cdbb09e	0.026817616
11	0xbcf6091d	-0.030033642
12	0xbddb21f2	-0.10699834
13	0x3e49117a	0.19635573
14	0x3e467c6b	0.19383399
15	0xbdeb5a44	-0.11491826
16	0xbdd1aac2	-0.102376476
17	0xbd9c78ac	-0.07640204
18	0xbd1eb833	-0.038749885
19	0xbd669fed	-0.05630486
20	0xbcf5d3ed	-0.03000828
21	0xbc080616	-0.008302232
22	0x3e19775e	0.14986941
23	0x3e2f3aed	0.17112322
24	0x3cdae8ca	0.02672233
25	0x3ddea949	0.10872132
26	0x3d9c1d14	0.07622734
27	0x3d445b06	0.04793837
28	0x3de127e3	0.10993936
29	0x3e28b451	0.16475035
30	0xbe04cda6	-0.12969074
31	0x3e4f9c95	0.20274575
32	0xbe249980	-0.1607418
33	0x3d88145a	0.06644507
34	0x3d31ff9b	0.043456655
35	0x3e187475	0.14888175
36	0xbe1cb7f3	-0.15304546
37	0x3cfc3cd4	0.030790724
38	0x3ea067cb	0.31329188
39	0x3e1e45f1	0.15456368
40	0x3d101def	0.035184797
41	0xbcad59cf	-0.021160988
42	0xbdae3d11	-0.08507741
43	0xbdde16db	-0.10844203
44	0xbd9a9d5d	-0.07549546
45	0x3e68f9d4	0.22751552
46	0x3e1358ab	0.14389293
47	0xbdeb96d6	-0.11503379
48	0xbdb7cd54	-0.0897471
49	0x3cd1eb5f	0.025624929
50	0x3cd9f5b1	0.026606413
51	0x3dde8cdb	0.1086671
52	0x3d558d7f	0.052136894
53	0x3e83bb67	0.25728914
54	0xbdcf077f	-0.10108852
55	0xbe94d0b1	-0.2906547
56	0xbc982b9a	-0.018575478
57	0x3cb6f438	0.02233325
58	0xbdf9a9d0	-0.12190592
59	0xbcdc62ef	-0.026902644
60	0xbd4fd9c0	-0.050744772
61	0xbdefc6f0	-0.11707866
62	0xbdbd6ad8	-0.092488945
63	0xbe1e3e2d	-0.15453406
64	0xbdc1e1f7	-0.094669275
65	0xbc4426c2	-0.011972131
66	0xbd5abc7b	-0.053402405
67	0x3e328b63	0.17435984
68	0xbc139bfe	-0.009009359
69	0xbcb3d650	-0.021952778
70	0xbd8138c4	-0.06309655
71	0xbd4022ec	-0.046908304
72	0x3db24ec4	0.087064296
73	0x3e87454e	0.26420063
74	0x3d88dce4	0.066827565
75	0x3df11e66	0.11773376
76	0x3d659647	0.05605152
77	0xbcef3f51	-0.029204996
78	0x3cc7a811	0.024372132
79	0xbe839fbe	-0.2570781
80	0xbe8894b1	-0.26675943
81	0x3e827f76	0.2548787
82	0xbdf92842	-0.12165882
83	0xbe11ff4e	-0.14257547
84	0x3d9c96ef	0.07645976
85	0xbb1f7ed2	-0.0024337065
86	0x3e0e72c0	0.13910961
87	0xbe7a6aba	-0.24454775
88	0xbdb9eb6e	-0.09078108
89	0xbbb3bc3f	-0.005485087
90	0xbe01e4ea	-0.1268498
91	0xbe3ceb05	-0.18449028
92	0x3e2b7e74	0.16747457
93	0xbd0b9f60	-0.03408754
94	0xbe46f4e0	-0.1942935
95	0xbdb1c555	-0.08680216
96	0x3e5a8e3e	0.21343324
97	0xbe177a79	-0.14792813
98	0x3d619dce	0.055082135
99	0xbdb3a9e0	-0.087726355
100	0x3d8de6e7	0.06928807
101	0xbd8f3364	-0.06992224
102	0xbd923b4b	-0.071402155
103	0x3e17df1a	0.148312
104	0x3df26b40	0.118368626
105	0xbcd76c13	-0.026296651
106	0x3e0c997a	0.13730422
107	0x3e0a00f4	0.13476926
108	0xbde82662	-0.11335446
109	0x3dee3d9d	0.116328456
110	0x3e7e1f0a	0.24816528
111	0x3c641355	0.013920625
112	0x3de3f1d6	0.11130111
113	0x3c7471c0	0.014919698
114	0xbe21ae46	-0.15789136
115	0x3df289ab	0.11842664
116	0x3de5efe9	0.112274
117	0xbd725bae	-0.059169464
118	0xbce91cf9	-0.028456198
119	0xbe1cbcf2	-0.15306452
120	0x3e9fa6a4	0.31181824
121	0xbdc306b6	-0.095227644
122	0x3c892302	0.016740326
123	0xbcfda3ef	-0.030961959
124	0x3e39c793	0.18142538
125	0xbdd9105b	-0.10598823
126	0x3e07fa69	0.13279118
127	0x3e1cd3f8	0.15315235
128	0xbe57f23c	-0.21088499
129	0x3da69db7	0.081355505
130	0xbd1b83a6	-0.037967347
131	0xbb96a76b	-0.0045975945
132	0x3a2a8dde	0.0006506125
133	0xbe40bf92	-0.18823078
134	0xbe852171	-0.26002076
135	0xbd5e1c3c	-0.054226145
136	0xbd2d21ff	-0.04226875
137	0xbd3e2aa6	-0.04642739
138	0x3e9a2627	0.30107233
139	0x3e1c4b75	0.1526316
140	0x3d5a8969	0.0533537
141	0x3c3caa62	0.011515232
142	0xbdfb999b	-0.12285157
143	0x3d2420d5	0.040070374
144	0xbcea44ac	-0.028597198
145	0xbe037d85	-0.1284085
146	0xbda03421	-0.07822443
147	0xbe1eb117	-0.15497242
148	0xbe91c06b	-0.28467116
149	0xbc94e134	-0.018173791
150	0x3deb9b6c	0.11504254
151	0xbe37be98	-0.179438
152	0xbdaff63d	-0.08591888
153	0xbe098287	-0.13428698
154	0xbe038285	-0.12842758
155	0x3e24a81f	0.16079758
156	0xbd43a62a	-0.04776589
157	0x3d8458fa	0.064622834
158	0xbdad7a2b	-0.08470567
159	0x3c7962d8	0.01522132
160	0xbdea8a59	-0.11452169
161	0xbbb1c826	-0.005425471
162	0xbdd7cd1c	-0.105371684
163	0xbdd37e03	-0.10326769
164	0x3e6406fb	0.22268288
165	0x3ca37868	0.019954875
166	0xbe0273d4	-0.12739497
167	0xbd258b34	-0.040415958
168	0xbda93fc6	-0.08264117
169	0x3dc0601a	0.0939333
170	0x3e2b12f5	0.1670645
171	0xb9b9d50e	-0.00035444688
172	0x3db2e2b5	0.08734647
173	0x3c5ef095	0.013607164
174	0xbddb0c0e	-0.106956586
175	0xbd1086aa	-0.035284676
176	0xbea9605a	-0.33081323
177	0xbdbd2c10	-0.0923692
178	0x3d63bff8	0.055602998
179	0x3df69eaa	0.120419815
180	0x3d721d98	0.059110254
181	0x3d26bc32	0.04070682
182	0xbc27ecc6	-0.010249322
183	0x3d8b566e	0.068035945
184	0xbd684c24	-0.05671324
185	0xbe2e5e2b	-0.1702811
186	0x3d7d11d3	0.061784577
187	0x3e72dd76	0.23717293
188	0xbddaa729	-0.106764145
189	0x3e6c6856	0.23086676
190	0xbe67a010	-0.22619653
191	0x3d89143b	0.06693312
192	0x3e4d1f25	0.20031412
193	0x3d2cbc06	0.0421715
194	0xbe4b43eb	-0.19850127
195	0x3e4635ba	0.19356433
196	0x3da24953	0.07924142
197	0x3ccdc3fa	0.025117863
198	0xbcb20472	-0.021730635
199	0x3e6106d2	0.21975258
200	0xbd7f9598	-0.062398523
201	0xbd89af82	-0.067229286
202	0xbead632e	-0.3386473
203	0xbe11cfe0	-0.14239454
204	0xbe446031	-0.19177319
205	0xbdb0df79	-0.08636374
206	0x3ca314ff	0.019907473
207	0x3daa370d	0.08311281
208	0xbcda80a9	-0.026672678
209	0xbdc50f98	-0.09622115
210	0xbdb52332	-0.088446036
211	0x3d7389bc	0.059457526
212	0x3d60489a	0.05475674
213	0xbe198741	-0.14993002
214	0x3da02ff6	0.07821648
215	0xbe1fa49f	-0.15590142
216	0x3e010421	0.12599231
217	0x3d1c1413	0.03810508
218	0x3d8eac32	0.069664374
219	0xbdbe4497	-0.09290426
220	0xbdd258a0	-0.1027081
221	0x3b8509dc	0.004060013
222	0xbe292a1b	-0.16519968
223	0xbd087cb2	-0.033322044
224	0xbcd2ce90	-0.025733262
225	0xbec3c39c	-0.38235176
226	0xbe06dbab	-0.13169734
227	0xbdd5e28c	-0.10443601
228	0xbd02a4f1	-0.03189558
229	0x3ca3dae9	0.020001845
230	0xbd39d37d	-0.045367707
231	0x3d48a8d0	0.048989117
232	0x3df7c27f	0.12097644
233	0x3d0bf60f	0.034170207
234	0x3db73960	0.0894649
235	0x3de6ec67	0.11275559
236	0xbcbbc24c	-0.022919796
237	0xbda1c0f8	-0.07898134
238	0xbd8d2442	-0.06891681
239	0xbdafbbfa	-0.085807756
240	0xbe458524	-0.1928907
241	0xbe711c34	-0.23545915
242	0xbddc32b8	-0.10751861
243	0xbe01ab21	-0.12662937
244	0xbe266a1a	-0.16251412
245	0x3dc3fd2e	0.095697746
246	0x3c92ee42	0.017935876
247	0xbd788273	-0.06067128
248	0x3d8c745c	0.06858131
249	0x3d72f93b	0.059319716
250	0xbd7cda0d	-0.061731387
251	0xbd98113b	-0.074251615
252	0xbe48acc4	-0.19597155
253	0xbd85089e	-0.06495784
254	0x3dd1ae5d	0.10238335
255	0xbd866a8b	-0.0656329

network_body._body_endoder.seq_layers.2.bias f4 [64]
0	0x3b817107	0.0039502415
1	0xbbdad343	-0.0066780164
2	0xbb4f16b6	-0.003159923
3	0xbb8028f9	-0.0039111343
4	0xbb84b68f	-0.004050083
5	0xbb4446e3	-0.0029949478
6	0xbbeb9b7b	-0.0071901656
7	0x3bf819b4	0.0075714234
8	0xbabf31ac	-0.0014586947
9	0x3b998865	0.004685449
10	0xb9940940	-0.00028235652
11	0x3c0c1be9	0.008551576
12	0x3b270250	0.0025483556
13	0xb98336b9	-0.0002502704
14	0x3b3d47b8	0.002888186
15	0x3b9cbe5e	0.0047834357
16	0x3aa102d0	0.0012284163
17	0xb93c2153	-0.00017941491
18	0x3b9f40cf	0.0048600207
19	0xbba2d0dd	-0.004968746
20	0x3bea984a	0.0071592676
21	0xbbad50bc	-0.0052891653
22	0x39c17099	0.0003689572
23	0x3b8fb616	0.00438572
24	0xbbff27db	-0.0077867336
25	0x3c1c861a	0.009553457
26	0x3c16757e	0.009183286
27	0x394e36cf	0.00019666109
28	0x3c1c7d39	0.00955134
29	0xbbd99c94	-0.00664098
30	0xbbfb2c5d	-0.0076652006
31	0x3c08d102	0.008350613
32	0x3afa2d52	0.0019086993
33	0xbbc8fd62	-0.006133721
34	0x39a1394a	0.00030750997
35	0x3c035c2c	0.008017581
36	0x3a5e5970	0.0008481955
37	0x3bce8446	0.0063023893
38	0x3c1a2c33	0.009409952
39	0xbbb3879a	-0.0054788115
40	0x3b747ccd	0.0037305832
41	0x3ba3356e	0.0049807345
42	0xb84605b0	-4.7212176e-05
43	0x3bb145d3	0.005409935
44	0x3c12c695	0.008958478
45	0x3c044331	0.00807266
46	0x3b88ee35	0.004178787
47	0xb9b87102	-0.00035179412
48	0x3c227b87	0.0099171465
49	0x3bfaf3e7	0.00765847
50	0xbb8382d4	-0.0040133987
51	0xba7d2410	-0.0009656558
52	0x3bcc87fa	0.0062417956
53	0x3a9f13e4	0.0012136665
54	0xbb23133f	-0.0024883298
55	0xbb04c16c	-0.002025689
56	0x39b3973f	0.00034254228
57	0x3baa7c84	0.0052028317
58	0x3959f3b7	0.00020785524
59	0x3b9d03f2	0.00479173
60	0xbacaef2c	-0.0015482656
61	0x39ef1baf	0.00045606258
62	0x389f665e	7.600778e-05
63	0xba8b447a	-0.0010625266
