results/new_test_run_10/simple_deer.onnx (onnx, 485125 bytes, 22 tensors)

network_body.observation_encoder.processors.0.self_ent_encoder.seq_layers.0.bias f4 [128]
00000000: b982 353b 7b1e 103d a803 9dbc 74a1 08bd
00000010: 32d3 333d 86fa 9ebc 3de7 3bbc 2055 5a3a
00000020: ed92 693c de4c a1bb d9ef e0bc d9ed 133d
00000030: 5cab b1bc 509e 99bc c92e 6ebc c546 adbc
00000040: 9e84 fa3c a209 4bbd 7b67 d3bc df6c 97bc
00000050: 3e7b eebc d324 173d 5396 683d 43dd 303c
00000060: 4f8b 54bc cb4a 9cbb 6023 083d f4aa ad3c
00000070: bf1a 313d b6fe e73c dceb 5abc 8fdb 803c
00000080: bcbd 2a3d b89f 82bc 76b5 093d 6f37 153d
00000090: 63a1 5abd bf2a 193d 9bc9 01bd 2bda af3c
000000a0: 02f8 603c 9232 feba 7bcf 0cbc 181e 2d3d
000000b0: cdc4 e03c 25ea 8c3c 9223 d53c 7344 323d
000000c0: 9a41 69bc 1f81 8b3c 3d09 253d 3b8b 99bc
000000d0: 709c 3fbb 299a 473c 51e2 e53c b405 0ebc
000000e0: 2f9a 123c 64fc a6bc e77f 9fbc 1410 173d
000000f0: 6bb4 d7bc a66b 03bd c05b 0f3d 2542 e03c
00000100: 1df8 78bc b6a4 d0bc 675e 22bd 4240 7a3c
00000110: d043 0e3d f969 8c3c e2ad 613c 9ae7 d8bc
00000120: 8a2b 733c 9f05 d43c 6773 373d 2313 c23c
00000130: 988d d2bb 3e3b 25bd e079 3d3d 7163 a2bb
00000140: 6d02 23bc f34a b2bb 6dcb 633d cc0e 143d
00000150: 65e3 6c3d 423a d4bc c9ad 08bd a71f a0bc
00000160: edf0 14ba 7198 423b f5cc aabc 9954 053d
00000170: 1254 fd3c bf91 473d 831a e3bc f48d 233d
00000180: 1af0 f8bc 5764 793c 8c48 293d fdcd 3d3c
00000190: 97b7 a63c 2540 22bc b406 67bc 47f6 f53c
000001a0: a6f4 e4bc a014 1a3a 9816 ee3c 838c a03c
000001b0: e034 afbc 25fb 09bd df55 803c 1b1f c23b
000001c0: 36a0 dc3c 32ae d53b 0b53 aa3c 2b34 243d
000001d0: 8d11 3dbd d533 c53c d6ab 9b3c 2bcd 203d
000001e0: 9a06 d5bc 8449 e2bb 3dce 0ebc 5820 973c
000001f0: b8d6 a5bc a746 d5bc f993 db3c cf40 513b
0.0027696325 0.03518532 -0.019166782 -0.0333571 0.043902583 -0.019406568 -0.011468706 0.00083287247
0.014256221 -0.0049224934 -0.027458118 0.0361155 -0.021688156 -0.018752247 -0.014537522 -0.02115191
0.030580815 -0.049569733 -0.02580618 -0.018484531 -0.0291115 0.036900353 0.056783985 0.01079494
-0.012972667 -0.004769658 0.03323686 0.02119968 0.043238398 0.028319698 -0.013361897 0.015729694
0.04168485 -0.0159453 0.03362032 0.03642982 -0.053376567 0.03739428 -0.031686407 0.021466335
0.013731005 -0.0019393733 -0.008594389 0.042265028 0.027437592 0.017201493 0.026017938 0.04352231
-0.014236832 0.017029343 0.040292013 -0.018743148 -0.002923753 0.012182751 0.028062018 -0.008668352
0.008947893 -0.020384021 -0.019470168 0.036880568 -0.026331147 -0.032085083 0.03499961 0.02737529
-0.015195874 -0.025469165 -0.03964081 0.015274109 0.03473264 0.017140375 0.013774367 -0.026477624
0.0148419235 0.025881587 0.04478779 0.023690766 -0.0064255707 -0.0403397 0.046258807 -0.004955702
-0.009949309 -0.0054410635 0.055613924 0.036146924 0.057834048 -0.025906686 -0.03336886 -0.019546343
-0.00056816527 0.0029692913 -0.020849684 0.03255138 0.030923877 0.04872298 -0.027722603 0.0399303
-0.030387927 0.015221677 0.04132895 0.011584756 0.020351214 -0.009902989 -0.014100719 0.03002466
-0.027948689 0.0005877707 0.029063508 0.019598251 -0.021387517 -0.033686776 0.015665947 0.005924118
0.026931863 0.00652101 0.020791551 0.040088814 -0.046159316 0.024072567 0.019002836 0.039258163
-0.026004124 -0.0069057364 -0.008716163 0.01844804 -0.020243987 -0.026034666 0.026803957 0.0031929498

network_body.observation_encoder.processors.1.self_ent_encoder.seq_layers.0.bias f4 [128]
00000000: 0000 0000 0000 0000 0000 0000 0000 0000
00000010: 0000 0000 0000 0000 0000 0000 0000 0000
00000020: 0000 0000 0000 0000 0000 0000 0000 0000
00000030: 0000 0000 0000 0000 0000 0000 0000 0000
00000040: 0000 0000 0000 0000 0000 0000 0000 0000
00000050: 0000 0000 0000 0000 0000 0000 0000 0000
00000060: 0000 0000 0000 0000 0000 0000 0000 0000
00000070: 0000 0000 0000 0000 0000 0000 0000 0000
00000080: 0000 0000 0000 0000 0000 0000 0000 0000
00000090: 0000 0000 0000 0000 0000 0000 0000 0000
000000a0: 0000 0000 0000 0000 0000 0000 0000 0000
000000b0: 0000 0000 0000 0000 0000 0000 0000 0000
000000c0: 0000 0000 0000 0000 0000 0000 0000 0000
000000d0: 0000 0000 0000 0000 0000 0000 0000 0000
000000e0: 0000 0000 0000 0000 0000 0000 0000 0000
000000f0: 0000 0000 0000 0000 0000 0000 0000 0000
00000100: 0000 0000 0000 0000 0000 0000 0000 0000
00000110: 0000 0000 0000 0000 0000 0000 0000 0000
00000120: 0000 0000 0000 0000 0000 0000 0000 0000
00000130: 0000 0000 0000 0000 0000 0000 0000 0000
00000140: 0000 0000 0000 0000 0000 0000 0000 0000
00000150: 0000 0000 0000 0000 0000 0000 0000 0000
00000160: 0000 0000 0000 0000 0000 0000 0000 0000
00000170: 0000 0000 0000 0000 0000 0000 0000 0000
00000180: 0000 0000 0000 0000 0000 0000 0000 0000
00000190: 0000 0000 0000 0000 0000 0000 0000 0000
000001a0: 0000 0000 0000 0000 0000 0000 0000 0000
000001b0: 0000 0000 0000 0000 0000 0000 0000 0000
000001c0: 0000 0000 0000 0000 0000 0000 0000 0000
000001d0: 0000 0000 0000 0000 0000 0000 0000 0000
000001e0: 0000 0000 0000 0000 0000 0000 0000 0000
000001f0: 0000 0000 0000 0000 0000 0000 0000 0000
0.0 0.0 0.0 0.0 0.0 0.0 0.0 0.0
0.0 0.0 0.0 0.0 0.0 0.0 0.0 0.0
0.0 0.0 0.0 0.0 0.0 0.0 0.0 0.0
0.0 0.0 0.0 0.0 0.0 0.0 0.0 0.0
0.0 0.0 0.0 0.0 0.0 0.0 0.0 0.0
0.0 0.0 0.0 0.0 0.0 0.0 0.0 0.0
0.0 0.0 0.0 0.0 0.0 0.0 0.0 0.0
0.0 0.0 0.0 0.0 0.0 0.0 0.0 0.0
0.0 0.0 0.0 0.0 0.0 0.0 0.0 0.0
0.0 0.0 0.0 0.0 0.0 0.0 0.0 0.0
0.0 0.0 0.0 0.0 0.0 0.0 0.0 0.0
0.0 0.0 0.0 0.0 0.0 0.0 0.0 0.0
0.0 0.0 0.0 0.0 0.0 0.0 0.0 0.0
0.0 0.0 0.0 0.0 0.0 0.0 0.0 0.0
0.0 0.0 0.0 0.0 0.0 0.0 0.0 0.0
0.0 0.0 0.0 0.0 0.0 0.0 0.0 0.0

network_body.observation_encoder.processors.2.normalizer.running_mean f4 [4]
00000000: e298 3a3f 2fb5 3d3f a2fe ff3e 8a70 e63f
0.7288953 0.7410459 0.49998957 1.8003094

network_body.observation_encoder.rsa.fc_q.bias f4 [128]
00000000: 00dc 533d bebc 1fbd 2d11 3a3d 252c 57bd
00000010: 726d 3fbd cb61 523d b073 0abd 1957 823d
00000020: a6e2 5fbd b636 473d 9830 c63c 1317 42bd
00000030: 3ae2 71bd 676a 6e3d 06c8 46bd e263 4b3d
00000040: 4038 38bd 3781 2abd 1ca4 1ebd 7358 5c3d
00000050: fedd 7d3d bfb7 553d f842 30bd ae7a 193d
00000060: 04f5 1a3d 78bb 663d 6a3f 7dbd 8e5d 4bbd
00000070: 1230 4b3d 22a2 263d e00e 513d 1330 703c
00000080: 10a7 edbc d52c bf3c 4dd1 313c 0391 d93c
00000090: b709 ea3c 47a4 f23b 9df1 99bc 742b 543c
000000a0: f78d 933c 597b da3c 3a46 8abc a717 033d
000000b0: dc8d edbc d1f8 24bd ad1b e43c 55b6 b3bc
000000c0: 9c87 81bc c9f2 4b3c b3d7 e2bc bdd4 fe3c
000000d0: 403d ccbc 58c7 9fbc 5dae b0bc 0089 1c3d
000000e0: 35f7 e03c 5baa 173d 5fe2 0fbd 513d f73c
000000f0: fb3c 03bd 653e e9bc 9873 cebc eceb e3bc
00000100: c5c8 ecbc 63d1 edbc f1f2 e8bc 54f7 bebc
00000110: 06aa 0f3d d0d3 15bd 19ba 0b3d fd88 0cbd
00000120: b052 d8bc febc d9bc 5ab6 1b3c 0d68 cf3c
00000130: 624b 893c 5df0 f43c 605c 07bd 90fe bb3c
00000140: 1fa8 8dbc 2a14 14bd 11fe 733c 470c bf3c
00000150: d7d2 32bd 65c6 ffbc 4253 1cbd 4620 e0bc
00000160: 32fe e2bc 0414 07bd 8888 df3c e325 44bd
00000170: b227 9f3c f199 19bd 596f 01bd 1a96 053d
00000180: 5a57 86bc 52b1 1f3d cd2e 02bd fad4 0f3d
00000190: b1fa 18bd 51e3 063d 5317 0bbd af58 f8bc
000001a0: a584 83bc 7d6f 013d 6daf 143d 1251 31bd
000001b0: 0e6d 0abd 01bc 22bd d3c5 37bd 600e ba3c
000001c0: 76bd dcbc ade5 123d 4b84 18bd 4c87 343d
000001d0: df03 e4bc b315 2d3d 948f 0b3d a4ce 1bbd
000001e0: 8956 1c3d 3018 fabc 3455 02bd ab0e 14bd
000001f0: 979e 8dbc 9b27 15bd 6c46 f93b d8b0 043d
0.05172348 -0.038998358 0.045426536 -0.052532334 -0.046735235 0.051362794 -0.033801734 0.06364269
-0.05465951 0.04863616 0.024193093 -0.047385287 -0.059053637 0.058206942 -0.0485306 0.049655803
-0.04497552 -0.041627135 -0.038730726 0.05379529 0.061979286 0.052177187 -0.043032616 0.037470512
0.03783132 0.056331128 -0.061828054 -0.049649768 0.04960639 0.040681966 0.051039577 0.014659899
-0.029010326 0.023336807 0.010853124 0.026558405 0.028569086 0.0074048373 -0.018791968 0.012949813
0.01801203 0.026670145 -0.01687919 0.03200498 -0.028998308 -0.040276352 0.027845228 -0.021937529
-0.015811734 0.012448021 -0.027690744 0.0311073 -0.02493155 -0.019504234 -0.021567518 0.03821659
0.027461627 0.037027698 -0.035127994 0.030180605 -0.032040577 -0.028472135 -0.025201604 -0.027822457
-0.028904328 -0.029030507 -0.028436156 -0.023311295 0.035074256 -0.036578953 0.034113023 -0.03431033
-0.026406616 -0.026579376 0.009503925 0.02531817 0.016759578 0.02989977 -0.03304708 0.022948533
-0.01729208 -0.036152042 0.014892117 0.023321284 -0.043658104 -0.031222532 -0.03816534 -0.02735914
-0.0277091 -0.032978073 0.027286783 -0.047887694 0.019428108 -0.037500326 -0.03160033 0.03261385
-0.016399074 0.038987465 -0.031782914 0.03511522 -0.037348453 0.03293163 -0.03395779 -0.030315725
-0.01605446 0.031600464 0.03630011 -0.043290205 -0.03379541 -0.039730076 -0.044866394 0.022711933
-0.02694581 0.035863567 -0.03723554 0.04407434 -0.027833877 0.042257022 0.034072474 -0.038038865
0.038168464 -0.030529112 -0.031819537 -0.0361468 -0.017287536 -0.036414724 0.007607272 0.032395214

network_body.observation_encoder.rsa.fc_k.bias f4 [128]
00000000: 523c 0936 f25b 4fb6 3fa4 a836 a989 61b6
00000010: fe51 5cb6 b9d6 9e36 d649 dab5 505f e136
00000020: 5366 a1b6 852c 4b36 1580 4a36 cb4f 42b6
00000030: 4d07 2eb6 7121 8136 7164 a8b5 41ed a436
00000040: e509 15b6 c13d 15b6 0971 2fb6 8409 0d36
00000050: cc99 8336 7fb1 6436 57ac 83b6 c504 8136
00000060: a07b 6236 9341 8d36 5414 c7b6 e5f4 85b6
00000070: 3c68 8636 348a 4d36 3a06 b036 962e e135
00000080: 8b0b b3b6 e752 7a36 9cfc 2136 6560 b436
00000090: 5a0c 9936 da77 c3b5 52f8 7cb6 2c9a ad36
000000a0: 937a da36 e31a b836 076e 15b6 15a9 ee36
000000b0: fa1c a5b6 06b4 02b7 0129 ab36 134b c8b6
000000c0: 3645 86b6 980b 1b36 8afb b7b6 1d9d ac36
000000d0: e715 c2b6 7451 b2b6 deb8 a0b6 b5aa d936
000000e0: a848 bb36 b338 c936 bd1e e8b6 325b e936
000000f0: f0c9 cbb6 cad0 bab6 5a5c ccb6 718d c7b6
00000100: a075 c036 4930 ed36 14b9 ae36 5c78 be36
00000110: 73cf a2b6 d5eb 9536 93c9 b8b6 5861 d436
00000120: 1631 6336 19f3 9336 93a0 ccb5 feac 93b6
00000130: fcc3 88b6 9b06 93b6 a73f e336 3f63 5eb6
00000140: 8ed1 4936 d709 0437 e690 77b6 21e5 b0b6
00000150: fb17 0337 3e20 9936 d309 d536 fd64 9936
00000160: 3260 bb36 ed1b 9036 572c 67b6 6b57 0237
00000170: ca3d 35b6 362d af36 e906 b936 4a8f 97b6
00000180: db82 cf36 3c4a 3ab7 801d 1f37 aa16 12b7
00000190: 33c7 1437 d9ee 40b7 664d 2937 0ce3 3437
000001a0: 023a 3f36 514b 0db7 7611 2ab7 1201 5e37
000001b0: caaa ef36 5c1b 2537 1657 4f37 cc76 15b7
000001c0: e223 1d37 adf3 3eb7 e1fd 2837 7e8f 3eb7
000001d0: 696f f036 c59c 48b7 a3b1 1eb7 7a62 4837
000001e0: fe32 34b7 3cab 2237 8497 0837 41aa 1e37
000001f0: 4ec5 d136 54d0 e536 cc60 69b6 c0e8 00b7
2.0449702e-06 -3.0898923e-06 5.025911e-06 -3.3607741e-06 -3.283028e-06 4.733764e-06 -1.6263755e-06 6.7166184e-06
-4.810086e-06 3.027527e-06 3.01749e-06 -2.8954698e-06 -2.593227e-06 3.8483927e-06 -1.2546208e-06 4.915201e-06
-2.220849e-06 -2.2238676e-06 -2.6142827e-06 2.1016176e-06 3.9220085e-06 3.4077964e-06 -3.9241672e-06 3.845055e-06
3.3748584e-06 4.2097613e-06 -5.9330287e-06 -3.9922184e-06 4.0056457e-06 3.0627825e-06 5.2459336e-06 1.6777365e-06
-5.3359595e-06 3.7301158e-06 2.4137908e-06 5.37564e-06 4.5611932e-06 -1.4563514e-06 -3.7695468e-06 5.1737497e-06
6.511176e-06 5.4867573e-06 -2.2266775e-06 7.1126365e-06 -4.9207565e-06 -7.790519e-06 5.1009706e-06 -5.9692043e-06
-4.0015684e-06 2.3103548e-06 -5.483108e-06 5.14429e-06 -5.7842003e-06 -5.314296e-06 -4.789893e-06 6.486977e-06
5.5814926e-06 5.9968675e-06 -6.917717e-06 6.9545576e-06 -6.07338e-06 -5.567538e-06 -6.090425e-06 -5.947128e-06
5.7357393e-06 7.0687715e-06 5.20715e-06 5.676453e-06 -4.8521265e-06 4.4680005e-06 -5.5070936e-06 6.3294247e-06
3.3854208e-06 4.4092417e-06 -1.5245918e-06 -4.4010803e-06 -4.0759314e-06 -4.3817104e-06 6.7725373e-06 -3.3138347e-06
3.007331e-06 7.870104e-06 -3.689021e-06 -5.271883e-06 7.813792e-06 4.563509e-06 6.3490384e-06 4.571512e-06
5.584233e-06 4.2947854e-06 -3.4447492e-06 7.768957e-06 -2.7007068e-06 5.2206697e-06 5.514234e-06 -4.5168317e-06
6.1843143e-06 -1.1103748e-05 9.484007e-06 -8.707555e-06 8.867867e-06 -1.1499703e-05 1.0091206e-05 1.07816995e-05
2.8494983e-06 -8.421791e-06 -1.0136855e-05 1.323248e-05 7.1426375e-06 9.8411365e-06 1.2358438e-05 -8.908752e-06
9.366284e-06 -1.1381618e-05 1.0072691e-05 -1.1358292e-05 7.165527e-06 -1.195743e-05 -9.458893e-06 1.1943857e-05
-1.0740709e-05 9.695821e-06 8.141509e-06 9.457174e-06 6.2516547e-06 6.8489844e-06 -3.4776049e-06 -7.683586e-06

network_body.observation_encoder.rsa.fc_v.bias f4 [128]
00000000: 61a5 fdba c6e3 f33b ff43 513c 8f72 0b3c
00000010: ab0a 8b3b 90c1 d53b accc 3f3c 57f8 46bc
00000020: fe4e 2bbb 94f1 193b ce35 f13b e945 8dba
00000030: 9d14 3e3c 8105 ebbb 3970 b03b 153b 273b
00000040: ef28 f5b8 dfc3 7aba 23fb 72b9 5eb1 943b
00000050: 875b c43b d340 253a ffcb 39bc 7b3e 6bbb
00000060: 0cc6 293c cace be3c 5591 913c f1a7 61bc
00000070: c0a3 62bc 5607 49bc 68c0 063c c17f 48bb
00000080: f7e4 7b3b b243 1f3a c324 3dbc 6a45 a23a
00000090: abca 8dbc 6525 913b d799 29bc 7c0d f43b
000000a0: 6902 bbbc dc78 6e3b 9688 96bb ab13 37bc
000000b0: 5415 a83b 44c5 b23b bec9 66bc b7fc 21bc
000000c0: bee3 0dbc 5774 0ebc cbc5 9abb 6845 0d3b
000000d0: 6147 b53b 1f33 4abc fa1d a43a 4dde 1dbc
000000e0: aa28 da3b be66 89bb 9e43 4cbc 88d2 df3b
000000f0: a6e7 f2bb 17c4 a5bc 04bd 933c b16d b7bb
00000100: 8c0c 53ba 881f 1cbc f2cf 953c e568 f93b
00000110: a7b3 11bb 0ce3 b53b 1b45 cebb 3923 643b
00000120: 5e1b cabb 4b3a 2a3c 493e 733c 83f0 90bb
00000130: 55cc 1c3a 8587 9ab8 9c1f 9c3a af91 2e3c
00000140: 70ff e1bb 5f42 5f3c 973e 5fbb 9dcd 103c
00000150: 7023 34bc 72a2 2339 65a1 d7ba 1978 953b
00000160: 21a7 b5bb 00a5 81ba 8644 5dba 86a1 173d
00000170: bfb0 e5b9 b9d5 39bc a231 52bc 64f0 533b
00000180: 7e51 7b3b 868a f23b 4b12 a4bc f32e 8b3b
00000190: 3fb0 93b8 381f b0bb 878b 36bc 8803 5e3b
000001a0: f883 fc3a 0fda f1bb c0f4 3dba 8d3a 39bc
000001b0: 1a16 b6bb eb45 30bc f72d 17bc 493a ffbb
000001c0: 91c0 97bb 6cb3 10bc 7e8c 663a 166c 51bc
000001d0: 2f05 9fbb bea1 83bc dc48 b93b 9a9c 88bb
000001e0: 3469 cc3b ebe4 9abb d674 03bc 8154 3e3c
000001f0: 003b 87bb bccd 39b9 b774 743c d747 93ba
-0.0019351655 0.007442924 0.012772559 0.0085112 0.004243215 0.0065233186 0.011706512 -0.01214417
-0.0026139612 0.002348994 0.0073611503 -0.0010778281 0.011601594 -0.007172287 0.0053844717 0.0025517393
-0.00011690135 -0.000956593 -0.00023172474 0.0045377454 0.005992356 0.000630391 -0.01134014 -0.0035895396
0.010362159 0.023291964 0.017769495 -0.0137729505 -0.013832986 -0.012269815 0.008224584 -0.0030593725
0.0038436034 0.0006075456 -0.011544409 0.0012380306 -0.017308554 0.0044295066 -0.01035162 0.0074478965
-0.022828298 0.0036387956 -0.004593919 -0.011174123 0.0051294956 0.005455645 -0.014086185 -0.009886912
-0.008660255 -0.00869473 -0.004723286 0.0021556262 0.0055321907 -0.01234129 0.0012521141 -0.00963552
0.0066576796 -0.004193156 -0.012467293 0.006830517 -0.0074128686 -0.020235104 0.018034466 -0.005597793
-0.0008050881 -0.009529002 0.018287633 0.0076113814 -0.0022232325 0.0055507477 -0.006294859 0.0034811033
-0.006167813 0.010389875 0.014846393 -0.0044232025 0.00059813756 -7.368535e-05 0.0011911276 0.010654851
-0.0068969056 0.013626664 -0.0034064406 0.0088380845 -0.010994777 0.00015605407 -0.0016451298 0.004561436
-0.005543605 -0.0009891093 -0.0008440692 0.037019275 -0.0004380997 -0.011342459 -0.012829216 0.003233933
0.0038348134 0.007401767 -0.020028254 0.00424754 -7.0423346e-05 -0.0053748153 -0.011141664 0.0033876617
0.0019265404 -0.007380731 -0.00072462484 -0.0113054635 -0.005556834 -0.010758857 -0.0092272675 -0.0077889306
-0.00463111 -0.00883184 0.00087947387 -0.012782117 -0.004852913 -0.016068336 0.0056544375 -0.004169059
0.006238127 -0.004726996 -0.008023461 0.011616827 -0.0041269064 -0.00017719617 0.014920405 -0.001123662

network_body.observation_encoder.rsa.fc_out.bias f4 [128]
00000000: a900 e5bc 31f6 b4b9 28a3 433b 0503 bbbc
00000010: b571 833b a73b 90bc 9d13 3f3c 795b 3b3c
00000020: a27d f239 4121 07bb ec12 52bc 3ebf f03a
00000030: 03d7 423a 50b9 42ba 3824 c53b d20d 4a3b
00000040: 76b7 35ba d993 d4bc 1600 93bb 3c0b f7bb
00000050: 81d8 46bc 6fbe 1d3c c944 053b 0979 b0bc
00000060: a01e 753c 133d 4fbc 78fe 8b3c 07d1 53bb
00000070: 9b02 8a3b f6e2 1d3b 189c 3cbb 988e 3fbc
00000080: 94c3 8cba 36ca b63c 57f3 353c e2d6 2cbb
00000090: b730 99bc 85ce 04bc 778b bb3a 8208 a13b
000000a0: f22d 6c3c cb4f 59bc eb45 053c b0b0 66ba
000000b0: 6c01 3d3a fddd 1ebc e96e 4bbc b73d 18bb
000000c0: b33a da3b 6357 d93b 69b5 223c 9952 1a3a
000000d0: 6357 dc3b 11d2 b83c ab06 9a3c 1d2f 88bc
000000e0: ae10 803c fe86 c83b d6c8 283a b296 4dbb
000000f0: f0a1 5fbc c84d cbbb c085 29bb eb37 d9bb
00000100: 0bc0 133a b94b 74bb c549 8abc 6fd3 da3c
00000110: 9687 43bc 46aa be3a 921c 7ebb dbf5 32bc
00000120: 6b2f 073b c48c cdbb ac09 5d3c c0c7 b5bb
00000130: b147 ee3b 3aef f8bc 53a9 6e3b a4bb 113c
00000140: f58d 5a3c a7b8 09bc 9c03 61bc 72c4 bdba
00000150: 5208 ca3b 9969 e8bb ff18 31bc e91c 0e39
00000160: 9b21 c7bc 1255 f63b cd14 9d3a b7fe b43b
00000170: 233a 6f3c 14a4 833b 46f3 30bb 4a06 8d3c
00000180: 4860 be3b 0f0e 443c 8905 253c b4db 3cbc
00000190: ed90 ae3c 6f97 023c 4869 d0bb 64ca 1e3b
000001a0: 0ab1 93bb 48ad 083c 4b56 983c bbcf 14ba
000001b0: 823e 2a3b 64c9 cebb 22d2 fbbb 6170 16bc
000001c0: e9cf 5b3c f58b 013c e323 94bb 5bc5 f2bb
000001d0: 0922 22bc 02b1 843b f7f2 96bc 646b 18ba
000001e0: ddea a0bc 9e12 8f3c 70d7 2d3c 47d7 df3c
000001f0: b109 dbbb 633b 57bc b47b 6c3b 699d 873c
-0.027954416 -0.00034515702 0.0029851887 -0.022828588 0.0040113577 -0.01760657 0.011662391 0.011435383
0.0004625144 -0.0020619186 -0.012821894 0.0018367541 0.0007432552 -0.00074281264 0.0060162805 0.0030830991
-0.000693194 -0.025949406 -0.004486094 -0.007539181 -0.0121365795 0.009627922 0.0020335189 -0.021542089
0.014960915 -0.012648839 0.017089114 -0.0032320635 0.0042117364 0.0024091578 -0.0028779563 -0.011691712
-0.0010739439 0.022313219 0.01110538 -0.0026373197 -0.018699987 -0.008105879 0.0014308532 0.0049143443
0.014415251 -0.013263653 0.0081343455 -0.0008800132 0.00072099897 -0.009696481 -0.01241658 -0.0023230144
0.0066598295 0.0066327318 0.009930947 0.0005886942 0.0067242845 0.022561105 0.018802008 -0.016624028
0.015632953 0.006119608 0.00064386183 -0.003137034 -0.013649449 -0.0062043406 -0.0025867075 -0.0066289804
0.00056362216 -0.003727658 -0.01688088 0.026712148 -0.011934182 0.0014546595 -0.0038774353 -0.010922874
0.0020627629 -0.006272884 0.0134910755 -0.0055474937 0.00727173 -0.03038751 0.0036416843 0.008894835
0.013339509 -0.008405841 -0.013733771 -0.0014478101 0.0061655426 -0.0070926663 -0.010809182 0.00013552945
-0.024308017 0.0075174654 0.0011984349 0.0055235284 0.014601263 0.0040173624 -0.002700047 0.017214913
0.0058098175 0.011966242 0.01007212 -0.011526991 0.02130934 0.007970675 -0.0063602068 0.002422952
-0.0045071887 0.008342095 0.018595835 -0.0005676706 0.00259772 -0.0063106287 -0.007684962 -0.009182067
0.013416269 0.0079069035 -0.0045208796 -0.0074087805 -0.00989581 0.0040494213 -0.018426402 -0.00058143423
-0.019643242 0.017464932 0.010610446 0.027324332 -0.006684505 -0.0131367175 0.0036084475 0.016554551

network_body.observation_encoder.x_self_encoder.seq_layers.0.weight f4 [128, 4]
00000000: 4b51 73bc 4a50 ef3d 0676 343d 134f 71bd
00000010: a178 0c3e 48d1 bebd 76a5 663c 2138 4f3c
00000020: 36bb b03d fb03 02be a5e1 2e3d 3151 6d3d
00000030: b624 94bd b988 983d 6ca1 ac3d bb89 aebd
00000040: ab71 24bd 96c6 d63d 6ffb 763d 7ea6 11bd
00000050: ce12 6cbd 3097 0b3e 01ae 483d b494 11be
00000060: b901 e53c 9d93 a7bd d51f 31bd 09a8 8e3d
00000070: 3a62 853d bc91 91bd 3c21 58bd 7511 383d
00000080: 1eaa 233b aacd f6bd e183 f9bc c639 9d3d
00000090: f5b4 67bd 2688 bc3d aea2 ea3d ef7e 0dbd
000000a0: e91a 7abd 9dee a83d c65a 583d b04b a6bc
000000b0: f549 9c3d ece6 d2bd c6d6 15bd ec18 52ba
000000c0: 0df5 79bd 8764 d83d cd08 dfbb 3a61 5dbc
000000d0: 9cad 8ebd c712 1c3e 093e ab3c 0de3 babd
000000e0: 309e 4fbd 8d86 bf3d 4c14 823c 7af7 55bd
000000f0: 1362 b23d 0ce0 95bd aaa4 e03c 847c 293d
00000100: 285d e7bd b009 003e 7706 76bd c688 91bc
00000110: c7f4 0cbd 5ab3 cd3d 83fb 943d facf 9cbd
00000120: aa42 8abd 7e2d cd3d 57d8 403c fe86 f4bb
00000130: cfc0 953d ded4 c5bd ceb1 b0bd 248b 5d3d
00000140: c2c6 973d c609 c1bd ab11 b3bc 442b 5a3d
00000150: 2498 8e3c d6d0 09be 3260 c73b 700e 773d
00000160: 4c87 d9bd 396d ba3d 7e05 773d 7793 92bb
00000170: 6ee2 3f3d 006a d1bd 0763 abbd 797f 8c3d
00000180: e410 3f3d 350b c8bd 51df 39bd c5d5 843d
00000190: 4e05 7b3b 9908 f0bd 3a5f af3a 1632 6c3d
000001a0: 649c 4abd f23a 2d3e 3a8c 183d cb2c c7bd
000001b0: 5ec5 903c e735 16be 8ebe 79bd e979 a13d
000001c0: a8e7 4abd b979 8f3d 5a2e a53c 6eff 6bbd
000001d0: e5fe d0bc 1a45 b73d 98fe 923c 0a0f 88bd
000001e0: 6952 7b3d 1384 febd d786 2dbd d7e6 91bc
000001f0: 0c09 f43c 99cb 1abe 67b7 843c 2b5f 84bc
00000200: ffc1 f7bc babb ac3d 2dda b9bc fc3a 7cbd
00000210: 7119 01bd 1e88 0e3e cf71 953c 08ea 6ebd
00000220: 3242 94bd 4c35 263e 5e84 883c 901b efbd
00000230: 59db 24bd d33c 9f3d 06da 33bb d3a3 7fbd
00000240: 0cd1 9a3d 13c1 c6bd 63ed 8cbd 4ae7 833d
00000250: e338 5ebd 083c 0a3e efac 6c3b b71a 043b
00000260: ff6f dabd 2266 583d 796f 693d c234 67bc
00000270: 41a0 1bbd 03a4 053e f81c 983d f1c2 a8bd
00000280: e5eb b6bd 90d6 8e3d 4587 c03c 9761 d3bc
00000290: b453 39bd 98bb b13d d54f 373d 450a 86bd
000002a0: 74dc 9cbd 8fda a03d 2a71 f43b a3d3 d5bc
000002b0: 730a 14bd 227c f03d 3440 02bc 64a3 983c
000002c0: f32a 73bd 5bb2 ce3d 0743 693d 4f94 2fbd
000002d0: ffa1 3d3d 9804 a8bd dc33 393c a7e3 d23d
000002e0: afd7 d0bd e9bc b83d d2ee 8f3d e79c 36bc
000002f0: 443d 9d3d 4850 babd 36f2 6c3c 0bb1 2cbd
00000300: 6cce a73d 46cd 9fbd 8e20 3bbd df05 cd3d
00000310: b089 7bbd 2221 fe3d 9b4b 393d 8c6a a1bd
00000320: 7072 3dbd 9ad0 dc3d b595 5f3d 4ff9 c539
00000330: 0cb5 61bd cbdf 943d bec9 c73c 6d62 a0bc
00000340: 353c e3bc 655d db3d 848f 8c3d 289e 45bd
00000350: 7bac 973d bd27 07be d102 a93c 8b94 2abc
00000360: 3531 b63d 77b4 b8bd f2a4 ee3c 04e8 0ebc
00000370: c4f6 f0bd 81e7 153e 0ebb 533b 8feb fdbb
00000380: 953b bc3d d87d eabd fa31 3dbc 5d24 e2bc
00000390: 149e 00be eacf be3d d3ec 7a3d e639 0ebd
000003a0: f3e5 763d 96f7 c9bd e761 72bc 4c3a 093d
000003b0: cac1 2dbd e998 ac3d c723 8e3d 2c7b 073d
000003c0: 1158 733d 227e b9bd ce19 3bbd 1ce7 f03d
000003d0: f171 71bd 6817 c43d 7aa2 933d 5e12 54bd
000003e0: da00 94bd 6381 893d fd6e 233d 2acf ecbc
000003f0: 7203 bebd 290c cf3d 8992 b83d 8cac 82bd
-0.014850925 0.11685236 0.04405787 -0.0589133 0.13717891 -0.09317261 0.014077535 0.0126476595
0.08629458 -0.12696831 0.04269566 0.05793876 -0.072335646 0.07447953 0.08429226 -0.08522364
-0.040147465 0.10487096 0.06029838 -0.03555917 -0.05763512 0.13631892 0.048994068 -0.14216882
0.027954923 -0.08182452 -0.043243248 0.06965644 0.06512876 -0.07107875 -0.05276607 0.044938523
0.0024973224 -0.12050946 -0.030458393 0.07677035 -0.05656906 0.09205656 0.1145681 -0.03454488
-0.06106082 0.08248637 0.052820943 -0.020299762 0.07631294 -0.10297951 -0.036581777 -0.0008014578
-0.061024714 0.10566049 -0.006806469 -0.01351195 -0.06966707 0.15241538 0.020903604 -0.09125338
-0.05068797 0.093518354 0.015878819 -0.052237965 0.087101124 -0.07318124 0.027422268 0.041378513
-0.11297065 0.12503695 -0.06006476 -0.017765414 -0.034413125 0.10043974 0.072745346 -0.07656856
-0.067509964 0.100184426 0.011770329 -0.0074623814 0.07312166 -0.09659742 -0.086276636 0.054087773
0.07410957 -0.09425692 -0.02185901 0.053263918 0.01740653 -0.13458571 0.0060844654 0.060316503
-0.10621509 0.09102864 0.060307972 -0.0044731456 0.0468468 -0.10225296 -0.08368497 0.06860251
0.046646968 -0.097677626 -0.045378987 0.06486086 0.0038302722 -0.1172039 0.001337982 0.057664953
-0.049465552 0.16917017 0.037243105 -0.097253405 0.017672237 -0.14669 -0.060972743 0.07884581
-0.04953733 0.07005639 0.020163704 -0.057616644 -0.025512168 0.08948727 0.017943665 -0.066434935
0.06135789 -0.12427535 -0.04236492 -0.017810268 0.02978947 -0.15116729 0.016200734 -0.01615866
-0.030243872 0.084342435 -0.022687042 -0.06157969 -0.031518403 0.13919112 0.018242745 -0.05832866
-0.07239188 0.16231269 0.01666468 -0.11675179 -0.04024825 0.07775273 -0.0027443185 -0.062412094
0.07559404 -0.09704795 -0.068812154 0.06440599 -0.05425347 0.13499463 0.0036113819 0.0020157525
-0.10665893 0.052831776 0.056991074 -0.0141117 -0.037994627 0.13050847 0.074274 -0.08240307
-0.08931712 0.06974518 0.023502002 -0.02580337 -0.04524584 0.08678359 0.044753868 -0.065449275
-0.076592356 0.07854187 0.0074597793 -0.026101893 -0.036142778 0.117424265 -0.0079498775 0.018632598
-0.05936713 0.10092612 0.056948688 -0.042866047 0.04629707 -0.08204001 0.011303868 0.102973275
-0.101973884 0.09020407 0.07027973 -0.011145807 0.07677701 -0.09097344 0.014462044 -0.04216103
0.08193669 -0.07802825 -0.045685343 0.100108854 -0.061410606 0.12408663 0.04523812 -0.0788165
-0.046251714 0.10781975 0.05458613 0.00037760517 -0.0551043 0.072692476 0.02438819 -0.019578183
-0.02773867 0.10711173 0.06863311 -0.048246533 0.07405945 -0.13198753 0.020631226 -0.010411392
0.08896104 -0.09018796 0.029131386 -0.008722309 -0.11765817 0.14639093 0.0032307538 -0.007749028
0.09191052 -0.11449784 -0.01154756 -0.02760523 -0.12560302 0.09317 0.06126101 -0.034723185
0.06027789 -0.098616764 -0.01479385 0.03350286 -0.04242114 0.08427603 0.06940418 0.03307645
0.05941016 -0.09057261 -0.045678906 0.117628306 -0.058946554 0.09574777 0.07208724 -0.05177533
-0.07226725 0.06714132 0.03990077 -0.028907377 -0.09278001 0.10109741 0.09012324 -0.06380567

network_body.observation_encoder.x_self_encoder.seq_layers.0.bias f4 [128]
00000000: 27fd 923d 91e8 9fbb c7d9 87ba f9a7 2a3d
00000010: c297 e83c 73a4 8d3d 6a92 32bd cedd f5bc
00000020: efb6 44bd e0fc e83c 2ef7 603d 062f 61bb
00000030: d2fc d43b a922 3f3d 1e7b 1d3d 20c1 a3bc
00000040: 7944 6b3c cd94 773d 6115 c93c f44a 53bd
00000050: aa8b 9fbc f911 e7bc 2777 753c de01 1cbd
00000060: 99d7 24bd db51 11bd a1b2 703d d4a8 f8bc
00000070: a838 483d 71f8 1c3d 0879 e5bb 2ebf 2bb9
00000080: fb72 113d 06b6 283d e97d 7a3d bcae 683d
00000090: 4437 d5bc 0d75 973c 0ddf 803c b1c4 553d
000000a0: 8c35 863c 566b 043d c0e3 e83c e6f8 be3c
000000b0: b7c3 743b 6022 2cbd 7a8e cd3c 7ce8 af3b
000000c0: cf4e 29bd d679 7b3d 085e a33c 48fc 6a3c
000000d0: 909d 213d 3ba8 283c 76e6 e639 5692 ed3c
000000e0: d739 373c e113 273d a841 d0bc 9494 5d3c
000000f0: a9e8 4fbd c05a db3c 056d 813c c871 353d
00000100: d373 c43b e2d5 373d 22c6 3bbd 38c0 0a3d
00000110: b367 ec3c 83f5 dcbc 59ee 443d ee92 0fbd
00000120: b123 3e3d ce4b 26bd 25f4 eabc 0338 1abc
00000130: 2cb7 143d 2fd1 5f3d 3bf8 ee3c f289 31bd
00000140: 3cba 593d d9a5 133d da61 f7bc 79e2 d33c
00000150: 381e 203d 46d2 dfbb 13a5 f3bc 0a64 f33c
00000160: a827 1ebd 3d66 f03c cb63 b93c 579a 28bc
00000170: 167c 783c 4455 773c 12a7 383d 7d17 243d
00000180: 19b3 c7bb d60a ad3c 4727 e3bc b5f5 cd3c
00000190: c61d ffbb 9969 4b3d 7a36 963c 81d6 6f3d
000001a0: 773e 253d 13d7 7c3d 7b59 b83c 2bd8 343d
000001b0: 6ea4 d63c 8afb 1e3d 4134 b8bc 63a5 8b3c
000001c0: fdb8 ac3b dce4 373c c2be 3abc a109 203d
000001d0: 62b4 2e3d 81e4 35ba 4e6c 1e3d bcad 163d
000001e0: 3aff cfbc 7f7d bebc a8ed 3d3b 7317 883d
000001f0: edf3 3a3d ec65 893d 14ff 8c3c 3681 4dbc
0.07177191 -0.004880019 -0.0010364585 0.041664097 0.028392676 0.06916132 -0.043596663 -0.030012991
-0.04802602 0.028440893 0.05492323 -0.0034360304 0.006499865 0.046663914 0.03844749 -0.01998955
0.014359587 0.06044464 0.024546327 -0.051585153 -0.019475777 -0.028206812 0.014982021 -0.03808772
-0.040244672 -0.035478454 0.058764104 -0.030353941 0.048882157 0.03832287 -0.0070029534 -0.00016379051
0.035510045 0.041189216 0.061155234 0.056807265 -0.02602733 0.018488431 0.015731359 0.052189533
0.016382955 0.032328926 0.028428912 0.023312043 0.00373481 -0.04202497 0.025092352 0.0053682905
-0.041334923 0.06139549 0.019942299 0.014342375 0.039456904 0.0102940155 0.00044040725 0.029000442
0.011183224 0.040790442 -0.025421932 0.013524193 -0.05075899 0.026776671 0.015799055 0.044297963
0.0059952526 0.04488171 -0.04584325 0.03387472 0.028858041 -0.026972538 0.04807887 -0.035052232
0.046420757 -0.040599637 -0.02868087 -0.009412768 0.0363075 0.054642852 0.0291711 -0.043344446
0.053156123 0.036046837 -0.030198026 0.025864827 0.03909132 -0.0068304865 -0.0297418 0.029710788
-0.038612038 0.029345626 0.022630593 -0.010290704 0.015166303 0.0150960125 0.045081206 0.040061463
-0.006094348 0.021123331 -0.02772869 0.025141576 -0.0077855317 0.049661253 0.018336523 0.058554176
0.040342774 0.06172855 0.022503605 0.044151466 0.026201453 0.038814105 -0.022485854 0.017046636
0.0052710758 0.011223998 -0.011398019 0.039071683 0.042652495 -0.0006938652 0.038677506 0.03678678
-0.025390256 -0.0232532 0.0028980765 0.066450976 0.045642782 0.06708893 0.017211474 -0.012543013

network_body._body_endoder.seq_layers.0.weight f4 [64, 132]
00000000: ca71 c2bb 8cee eabd 7bfd ccbd bf09 4cbc
00000010: ec52 f23d 55a3 e8bd b111 793c 24b6 1e3e
00000020: ec81 983c 944c 953b 9419 0d3c cfde 893c
00000030: 6325 093c 9c86 8bb9 2bc3 4cbd a9a2 5a3d
00000040: 0b90 bc3d 1ead 113d 3731 e13d 8262 ce3b
00000050: 1048 73bd e7a7 d73c 2072 b0bd 5140 80ba
00000060: f966 e6bd 9a19 19be ee9c b1bd 5f86 a5bd
00000070: 8df8 37be 9440 123e 164f a13b 1a17 b9bd
00000080: 8ca2 023e d0b2 533d 243d ef3d 692f 6cbd
00000090: f62a 363d 62da 163d 40f0 09b8 5bab b7bd
000000a0: f75a bf3d 80d2 933d ee73 023c e3d6 5dbd
000000b0: 0932 113c 46cf 40bd 0b74 33bd 3052 683c
000000c0: 28a4 87bb a744 e93c ceeb 03be 307e 9a3d
000000d0: cbcb 133e 456f ecbd 77ab 8c3d 699a 4bbc
000000e0: 4be4 e83c 101b 9abd ff37 a53b 37b5 77bd
000000f0: ce25 9bbc d808 a33d cefe f33d 75c8 d53c
00000100: c03b 26be 9615 e9bd ddc4 ebbb 6672 8a3d
00000110: 18e4 313d e9d0 1fbe 90ef b03d 185f 1bbd
00000120: 30a5 a2be 164d d13c 38e4 01be bc0f 33bd
00000130: b210 be3b d8b2 88be 8daf c3bc 631d 23be
00000140: 4a51 1d3d 7765 e1bd 4706 8f3d 84ce 7dbd
00000150: 9c1f 593d 5cda 5bbd 70a1 c7bc 5252 7bbc
00000160: 4a65 a1b9 9220 ebbd bb37 f03d e83b 48bd
00000170: 013a a5bd 6b35 2cbe 80b8 b13d be7e 2b3e
00000180: 0f63 3ebc 0098 a2bd dac3 c33d b188 1a3c
00000190: 65e0 e03d 692e 263d 7c95 e33d 7f28 e1bd
000001a0: c1eb b2bc 5e75 a43d 9e4d 1abe f97f 1cbe
000001b0: 414c 2c3d 3a1a 7d3d 90dc 2b3e 003f e13d
000001c0: 0bf2 dabd 0604 f83c 9b85 cebd fcc5 163d
000001d0: e441 e8bd c1d5 cabc e9eb 2bbe bbef 263e
000001e0: 4acc b6bd 18dc ff3c 4f1b 30be 6e83 c6bc
000001f0: 82fa f63d 1fef 35bd 6128 913d 4f53 523c
00000200: 64f2 fabc 18ab 27bc 360b 0d3d 09b9 8a3d
00000210: aed0 5cbd a46d 3a3e 8eb0 18bd 393f ce3c
00000220: f7dd 863d 45fe ccbc f7b6 143d bdc2 e13c
00000230: 9c97 8d3d bb32 9c3d 8a8a 47bd 1b8c cf3b
00000240: c15a f7bd 6461 1e3e de52 c53d c857 9d3d
00000250: 1ac5 17be 6c22 0b3e edf9 a13d 0377 2e3d
00000260: af0e 8f3d 68fb 593d 8ad1 9b3d d56b 073e
00000270: 47f0 d4bc 4ba3 d4ba 49d1 0c3e 5475 da3d
00000280: c998 52bc f036 d2bc 8b19 10bd 1649 333d
00000290: 6d4f 743c cb03 143e ec00 98bd 1497 413e
000002a0: 2993 043d 5d7d 51be 4574 f53d 998b 04ba
000002b0: 3cd2 10be cf79 d73c d9c4 bdbd 6461 54bd
000002c0: 3fae 083c 5a86 c43d 7d1e e53c 67ad f0bd
000002d0: c9b5 fdbd 0fcb d03d 93b5 653b 9ded b23c
000002e0: 1f08 37bd a655 0a3e 694a 0a3e 63ee 06bd
000002f0: e941 3ebe 5f4b bdbd b266 fd3d 5e11 1dbe
00000300: 0d9f f43d d240 45bd b3d8 ea3c 1520 e53d
00000310: 5ef6 bfbd 1b8f f8bd 9455 1b3d 27e7 063e
00000320: 64c9 0a3c a40d 83bd f3bc 193c 55d7 cc3d
00000330: 0539 3e3c d435 cb3d ec5e 983d 3743 0abd
00000340: c7ef dfbd c525 55bd 6920 343d 6e76 babd
00000350: 29ff 813d 3547 98bb ad0b 27bd 54b7 ec3d
00000360: d85a 573d 354b 22be 50c9 92bc 8313 833c
00000370: 3901 b8ba 447b e1bc 4170 5f3d 53f2 08be
00000380: 8393 9f3d 22ab eabd 21dd 843d b88f e73d
00000390: 52c6 ee3d 05df 803d 70b4 6fbd 8c78 553d
000003a0: 6294 50be eb6e 75bc d46d ceba f641 503d
000003b0: 37d3 afbd 360f 02be 3772 43bd afe5 20bd
000003c0: a235 56bd b7fb e9bc 0dba 863d 614b 94bd
000003d0: c984 06be da32 07be 9114 083d ae57 44bc
000003e0: 3e47 4ebd 93e7 0a3d 94eb 093d c9d7 553d
000003f0: 340d eb3c 5a32 8abd 326c 5c3c 59e2 153d
-0.005933975 -0.114712805 -0.10009285 -0.0124534955 0.11832222 -0.11359278 0.015201972 0.15499169
0.01861664 0.004556248 0.008612055 0.016829876 0.00837073 -0.00026612438 -0.049990814 0.05337778
0.092071615 0.035565488 0.10995715 0.006298364 -0.059394896 0.02632518 -0.086155176 -0.0009784793
-0.11250109 -0.14951172 -0.0867251 -0.0808227 -0.17965908 0.14282447 0.004922758 -0.090376094
0.12757319 0.0516842 0.116815835 -0.0576624 0.044474564 0.03682936 -3.2887096e-05 -0.0896823
0.09343522 0.07217884 0.00796221 -0.05416001 0.008862027 -0.04707267 -0.04381184 0.014179751
-0.004139442 0.028475119 -0.12882921 0.075435996 0.1443321 -0.115446605 0.06868642 -0.012426951
0.028429171 -0.07524693 0.0050420756 -0.060475554 -0.018938925 0.07960671 0.119138345 0.026096562
-0.1623373 -0.1138107 -0.007195099 0.06760101 0.043430418 -0.15607037 0.08639443 -0.037932485
-0.31766653 0.025549453 -0.12684715 -0.043716177 0.00580033 -0.26698947 -0.02388742 -0.15929179
0.0384076 -0.11005681 0.06983619 -0.061964527 0.05300866 -0.05367504 -0.024368972 -0.015339451
-0.0003078378 -0.11480822 0.1172938 -0.048885256 -0.08067704 -0.16817252 0.08677769 0.16747567
-0.011620297 -0.07939148 0.0955884 0.009432004 0.109803 0.040571604 0.11112496 -0.10994052
-0.021840932 0.080301985 -0.15068671 -0.15283193 0.04206491 0.06179259 0.16783357 0.109983444
-0.10690697 0.030275356 -0.10084077 0.036809906 -0.11340693 -0.024760129 -0.16789211 0.16302387
-0.08925684 0.031232879 -0.17197917 -0.024232592 0.12059499 -0.044417497 0.0708778 0.012837245
-0.030633159 -0.010233663 0.03443452 0.06773574 -0.05390995 0.18205887 -0.03727775 0.025176631
0.06585305 -0.025023589 0.0363073 0.027558679 0.06913683 0.076268636 -0.048716106 0.0063338405
-0.12077857 0.15466839 0.09634946 0.076827586 -0.14821282 0.1358735 0.07908998 0.042593967
0.069852225 0.053218275 0.07608326 0.13224728 -0.02599348 -0.0016222982 0.13751711 0.1066691
-0.01285381 -0.025660962 -0.03518061 0.043770872 0.014911515 0.14454572 -0.07422051 0.18905288
0.032366905 -0.20457979 0.11985067 -0.0005056202 -0.14142698 0.0263032 -0.09266061 -0.05185069
0.008342325 0.09595938 0.02796864 -0.11751824 -0.123881884 0.1019498 0.0035050854 0.021841818
-0.04468548 0.13509235 0.13504948 -0.032942187 -0.1857983 -0.092428915 0.12373103 -0.15338656
0.11944399 -0.04815752 0.028667783 0.1118776 -0.09373163 -0.1213667 0.03792341 0.13174115
0.008470867 -0.06399086 0.009383428 0.10002009 0.011610274 0.09922376 0.0743998 -0.033755507
-0.10934406 -0.052037973 0.04397622 -0.0910462 0.06347496 -0.0046471604 -0.04078262 0.115584046
0.05257687 -0.15849002 -0.017918259 0.016000515 -0.001403845 -0.027524598 0.054550413 -0.1337369
0.077918075 -0.11458422 0.064874895 0.11306709 0.1165892 0.062925376 -0.058521688 0.052116916
-0.20369104 -0.014980058 -0.0015749284 0.050844155 -0.08585208 -0.12701115 -0.047716346 -0.039281543
-0.052297242 -0.02856241 0.06578455 -0.0724094 -0.13136591 -0.13202992 0.03322274 -0.011983795
-0.05036091 0.033912253 0.03367193 0.052207742 0.02869282 -0.06747885 0.01345353 0.036592815

network_body._body_endoder.seq_layers.0.bias f4 [64]
00000000: 7863 643d d20e e93c a5ab f53c f1af 043d
00000010: 01de 583c 1a37 903d af37 033d 1625 a93c
00000020: ab97 e23c 13e1 db3c 7204 143d 9d94 893c
00000030: 6350 a33c 5ea4 553c 56ce 80bd 9527 ed3c
00000040: 26d4 20bd e549 f33c 7a84 af3c d201 b23c
00000050: 33d9 b93c 64b9 8a3c 6a15 993d 4ecd abbc
00000060: fec8 ff3c 323c dc3c 26db bd3c 4591 e83c
00000070: d1c9 c33c 2995 ffbc d140 da3c 6ff2 073d
00000080: e4df a9bc f2ce 913c 17d8 b73c 0a08 f63c
00000090: d68e 2d3d 9441 e83c 049d 373c 44cf fe3c
000000a0: 1ceb 173d 582f f53c 9c50 8a3c 5472 f0bc
000000b0: 9db7 443c 712b 843c 1f64 043d 6f65 1c3d
000000c0: ebdd 7a3c 3839 133d df81 033d 782e 653d
000000d0: eb3f 333d 4aab a3bc d02e db3c f75c d93c
000000e0: 5515 a53c 1c1a 763c 5d3a 603c 52c3 e03c
000000f0: 8ab0 d23c 33a1 da3c 7625 023d 7bb8 e23c
0.055758923 0.02844945 0.029989073 0.032394353 0.013236524 0.0704176 0.032035526 0.020647567
0.027660212 0.026840722 0.036137052 0.016794497 0.019935792 0.0130396765 -0.062893555 0.028949538
-0.03926482 0.029698322 0.021425474 0.021729384 0.022686576 0.016934104 0.074747875 -0.02097192
0.03122377 0.026884172 0.023175787 0.028389582 0.023899944 -0.031199055 0.026642235 0.033190187
-0.020736642 0.017798875 0.022441907 0.03003313 0.042372547 0.028351583 0.011206869 0.031104691
0.037089452 0.029929802 0.01688414 -0.02935139 0.012006667 0.016133996 0.032322045 0.038182672
0.015311698 0.03594324 0.032106277 0.05595252 0.04376213 -0.019979138 0.02675572 0.026533587
0.020151773 0.015020873 0.01368579 0.027436886 0.025718946 0.026688194 0.031774007 0.027675858

network_body._body_endoder.seq_layers.2.weight f4 [64, 64]
00000000: f10f 0a3e 37f6 07be b31c 90bd 2f20 d33d
00000010: 5370 c1bb a979 0c3d 039f 4abd bb8e 173e
00000020: e5c9 763e 4454 babd 907f d03d 5ff4 7ebe
00000030: 76a7 403e 1207 b63d 6caf 023d c306 293e
00000040: 065b 85bd 9b12 143d 59ee 543e 9920 173e
00000050: eb33 50be baaa 5abe f082 343e b1a6 bdbd
00000060: a210 8dbd 8e17 db3d b379 5cba ee2f 8a3d
00000070: f6e5 8eba 723f 61bd df3c 85bc 0777 ce3d
00000080: cbc6 b6bc 3c6b 13be dc07 943d e091 04be
00000090: bcfd c73c 99fb 99bd 77b3 9fbc a863 b23d
000000a0: e327 a93d b777 363d d305 f13d 2167 04bd
000000b0: 2a08 09ba 0600 1e3e 71c9 bdbc d2a1 083d
000000c0: 224c 5fbe 60aa b23d 8bd3 293d 7c98 eebc
000000d0: f3e5 2d3d 4696 8abd 5b26 ea3d 174e 68be
000000e0: 56dc aa3d b3dd 7e3d b76a 413d 17c0 653e
000000f0: 8596 733e b33f 40bc 3334 c03d 2c32 94bc
00000100: a5fe bfbd 4cad bf3d ea59 7bbd ff98 1ebe
00000110: 6a4b 68bc f7b9 6e3e 1d6b 023e 4eb0 e5bd
00000120: 8301 b239 7435 dd3d f78e 313e e377 ebbd
00000130: 7ca6 803d 9caa 9a3b 6530 473e 3aa0 42bd
00000140: 1000 86bd f1aa b93b 05ca d7bd cd59 c2bc
00000150: 1a08 6f3e 5690 123d be9b 0a3e cff6 f8bd
00000160: a1d8 e4bb 52fd 93bd 372c 13be 1313 d33c
00000170: bdb7 ce3c f239 16be 7e9f 2d3e 19fb e4bd
00000180: a114 fc3d 478e 5c3d a4d8 21be e771 b4bd
00000190: 2a2e 11bd 7fc6 fb3d b592 7b3c ce18 12be
000001a0: 1bab b73d f42b 053e 6e96 673c afd0 803d
000001b0: e014 da3b 733f 28be d92e e13d d667 afbc
000001c0: 7b4b 2b3e 4979 24be 623b 95bd b719 1e3d
000001d0: bdf6 a03d 9bc3 2dbe fa6e 2c3e fe41 34be
000001e0: 8c1d 863d 9b48 ad3e 58c8 263e d974 d63c
000001f0: 00cd 333e a8f2 a9bc 97be 2cbc 6152 12be
00000200: 26cd b33b 7a26 533b 6fa3 70bd bd1c 743e
00000210: 6ff3 913d 217b 9d3b a2f4 64be 71e5 2cbd
00000220: 8f28 a73e 59db ed3c 59df 8fbd fd3f 973d
00000230: 708e e4bd d98c 80bd 9f9b 963d 9971 59bd
00000240: 4183 72bd a142 8bbc 5f1e 283e e32f 7a3b
00000250: 4f6d 863d 5fd0 9f3d bb05 e83d db8c 94bd
00000260: f015 dcbc 59dd 343e 1387 47be 0af5 833e
00000270: c252 dc3b 6bdf 6cbd a240 833d e817 a9bd
00000280: 1430 05bd 2f32 753c d017 173c db82 363d
00000290: 1f4c 9abd 4fb4 b5bd 2e86 97bd 004d 293e
000002a0: 4213 0cbe fbbb 903d 2dc0 743e 43e3 0d3d
000002b0: 582e 693d f362 663d 2ebe 20bd f6b6 20be
000002c0: 5ee2 82bd 2439 033e 4cfc cbbd fb7e 5a3c
000002d0: 33e7 433e 3afe 6ebe d53b e93c fecf 9c3d
000002e0: 417f 6a3e 3ce3 debd 1ecf ad3d f179 b9bd
000002f0: 9e09 6c3d e937 0cbc 9cbc efba 33ef 023d
00000300: 636f b93d a401 1a3e ba51 253e 6929 11be
00000310: d22e a5bd 1c61 9abd 1306 253e e863 24bc
00000320: ff48 263e c1df f4bb f2a6 a43d a750 0cbd
00000330: 6fd0 423c af3d b4bd 8b56 a63d 51cd fc3c
00000340: 753d 603e 5c22 9abc a620 a43d a00a c9bd
00000350: b007 f8bd cfba eabd d891 543c 7169 bbbd
00000360: 6132 37be 6836 c93b 4079 60be 72e0 483d
00000370: 5fc7 01be 0b31 c0bc 0b88 2a3d f7ac ec3d
00000380: ed85 b63d 5fb5 61bc afe5 f13c 7f58 1d3e
00000390: 6d91 ce3d 6a15 44bd bace b23d 945b d2bc
000003a0: f8ea d73d 394f 313d e669 01be 7471 0bbe
000003b0: 5817 82be 2c93 933c 1873 083d d972 e8bd
000003c0: 7c96 013e fd72 523e 8274 043e 5356 2ebe
000003d0: fbc4 a8bc 4e9c 16bd 4cc1 813e a005 b8bc
000003e0: 475c 93bd 739b 533d ec83 7b3c da63 0c3e
000003f0: 9515 e6bd aad6 963b 8a1b 5fbc fe28 1ebe
0.13482644 -0.13277517 -0.07036724 0.10308873 -0.0059032827 0.03429571 -0.04946805 0.14800541
0.24100454 -0.09098104 0.101805806 -0.24897908 0.18813881 0.08888067 0.031905577 0.16506486
-0.06511502 0.036150556 0.20794047 0.14758529 -0.20332305 -0.2135419 0.17628074 -0.092603095
-0.06887938 0.10697852 -0.00084104686 0.06747423 -0.0010902274 -0.054992147 -0.016264377 0.100812964
-0.022311589 -0.14396375 0.072280616 -0.12946272 0.024412982 -0.075186916 -0.019494755 0.08710414
0.08259561 0.044547763 0.11768689 -0.032324914 -0.0005227352 0.15429696 -0.023167344 0.03335745
-0.21806386 0.08723903 0.04146151 -0.029125445 0.042455625 -0.06766944 0.11433097 -0.22686039
0.08342807 0.062223148 0.04722091 0.22436558 0.23787887 -0.011733937 0.09384956 -0.01809033
-0.093747415 0.09359226 -0.061365046 -0.15488051 -0.014178136 0.23313127 0.12736173 -0.11215268
0.00033951932 0.10801211 0.17339693 -0.11497476 0.062817544 0.0047200453 0.19452055 -0.047516085
-0.06542981 0.0056661298 -0.10536579 -0.023724461 0.23342934 0.03578218 0.13535973 -0.1215645
-0.006983832 -0.072260514 -0.14372335 0.025765931 0.025234098 -0.14670542 0.16955373 -0.111807056
0.12308622 0.053846624 -0.15805298 -0.08810788 -0.035444416 0.122937195 0.015354802 -0.14267275
0.08968183 0.13005048 0.014134986 0.06289803 0.0066553205 -0.16430454 0.109952636 -0.021411818
0.16728012 -0.16061892 -0.07286717 0.038598742 0.078595616 -0.16969149 0.16839209 -0.17603299
0.06548604 0.33844456 0.16287363 0.026178764 0.1755867 -0.02074559 -0.010543487 -0.14289238
0.005487102 0.0032218979 -0.058749612 0.23839088 0.071265094 0.004805938 -0.22358945 -0.042211
0.3264813 0.029035257 -0.07025022 0.07385252 -0.1115998 -0.062768646 0.07353901 -0.05308685
-0.059207205 -0.016999545 0.16417836 0.0038175515 0.06563818 0.078034155 0.11329218 -0.072534285
-0.02686593 0.17662562 -0.1948512 0.25772887 0.0067237327 -0.057830255 0.06408812 -0.08256513
-0.032516554 0.014965578 0.009221986 0.044558387 -0.0753405 -0.08872282 -0.073986396 0.1653328
-0.13679221 0.070671044 0.23901434 0.03464056 0.056928962 0.05624671 -0.03924387 -0.15694794
-0.06390832 0.12814766 -0.09960231 0.013335939 0.19131164 -0.23339167 0.028470913 0.07656859
0.22900106 -0.10883185 0.0848677 -0.090564616 0.05762636 -0.008558252 -0.0018290463 0.0319664
0.090544485 0.15039688 0.16144457 -0.14175953 -0.08065571 -0.075380534 0.16115598 -0.010033585
0.16238783 -0.0074729626 0.08039655 -0.034256604 0.011890515 -0.08800828 0.081219755 0.030859621
0.21898444 -0.018815212 0.0801404 -0.0981648 -0.12110841 -0.11461412 0.012974225 -0.09150971
-0.17890312 0.006140519 -0.21921253 0.049042173 -0.1267371 -0.023460886 0.041633647 0.11556428
0.08912263 -0.013776152 0.029528467 0.1536579 0.100863315 -0.047871985 0.08730836 -0.025678433
0.105428636 0.043288443 -0.12638053 -0.13617498 -0.25408435 0.018014513 0.033312887 -0.113500305
0.12655061 0.20551677 0.12935069 -0.17025118 -0.02060174 -0.036770158 0.25342786 -0.02246362
-0.07195335 0.05166192 0.015351277 0.13709965 -0.11234585 0.0046032267 -0.013617406 -0.15445325

network_body._body_endoder.seq_layers.2.bias f4 [64]
00000000: 3810 5b3c 8743 623d 2a8f 403c 751b 843c
00000010: 78b4 833c 1cba c53c 5f1e df3c fa4c 48bc
00000020: 0906 8a3d a330 c53c 4d15 a63c e080 bc3c
00000030: 0513 d83c ccde 99bc 69cf 913c 8114 a63c
00000040: 967e cc3c f1f1 bf3c 6772 2e3d 2c29 bb3c
00000050: 84e9 09ba 355e f73c 1d42 133d 4a72 933c
00000060: 8577 bb3c 2b36 e23c d6a6 d93c 690a 6f3d
00000070: cd94 fdbb b2bb 0e3c bcd2 413d b910 4a3c
00000080: 4c5a 793c 3d74 6e3d eb31 9d3c 4d66 3c3c
00000090: 2418 bb3b eede 4d3d c1d0 e83c ef9b 8b3c
000000a0: 778c 5e3d 8d66 da3c 98bc bc3c cebc 173c
000000b0: 5ccf bb3c bc15 723c a932 fcbb c5b2 b13d
000000c0: 4be6 863c 43c2 633d 71cb 5a3c e11a 94bb
000000d0: a8ff 24bc 3c5f de3c b85a 293c 69ae af3c
000000e0: 9e3c 633c c63f b5ba 6ad2 693d 0695 763c
000000f0: 6654 1e3d 6d7f 7e3c 5e7f ac3b 39a6 933c
0.013370566 0.05524018 0.011752883 0.016126374 0.016077265 0.024136595 0.027236162 -0.012225384
0.06739432 0.024071043 0.020273829 0.023010671 0.026376257 -0.018782996 0.017799096 0.020273449
0.024962705 0.023430796 0.04258957 0.02284678 -0.0005260932 0.030196289 0.035951722 0.017998833
0.02288414 0.02761372 0.026568811 0.058359537 -0.0077386857 0.008711742 0.047320113 0.012333089
0.015219282 0.058216322 0.019188842 0.011499 0.005709665 0.05026143 0.028419854 0.017042128
0.054333176 0.026660228 0.023039147 0.009261323 0.022926025 0.01477569 -0.007696469 0.08676676
0.016467234 0.055605184 0.013354168 -0.004519806 -0.010070719 0.02714502 0.01033657 0.02144547
0.013869433 -0.001382821 0.057085432 0.015050178 0.038654707 0.01553331 0.005264207 0.018023597

action_model._discrete_distribution.branches.0.weight f4 [9, 64]
00000000: 10bf acbc 5c70 a73d 9f6b 97bc 02c4 51bd
00000010: 31cd 01bd 5e23 f4bc 07b6 b7bc ded5 6f3a
00000020: f8e9 3c3d 7e75 a0bc c83c b93c 12f9 48bd
00000030: 37fd f1bc b87d 8c3a 4bda 63bc 9cf0 653d
00000040: a72c 8e3d 0655 2dbd 50b1 853d 41bf 7f3d
00000050: 19f9 a8bc c2c6 143d 9870 1cbd 6257 063b
00000060: 2be6 05bd 085f 33bd 47b3 c4bb 0e85 563d
00000070: 4986 bcbc dbbc 1dbd 3277 6e3d 9e74 473d
00000080: b942 aabc ecf4 843d 6782 753c 5b0e 6b3c
00000090: e41f 083d 98d3 823d e680 dd3c 04c7 e1bb
000000a0: 493c 7c3d 038e 8cba d024 78bc f606 753c
000000b0: 7da6 a9bc 667d a8bc 03d1 89bc b29f 693d
000000c0: c6cf 59bb 62d9 1c3d 3356 50bc 3e05 aa3c
000000d0: f6fa bfbc b1c2 07bd f12e 0c3d 741b 85bd
000000e0: 94bc abbc 6049 de3c 3273 453d 23a8 d9bc
000000f0: ee3a 6fbc 12c3 023d b037 dbbc eaa0 f3bc
00000100: 275d 19bd f0a3 26bc 0a26 12bd 0b9d 263d
00000110: 7107 8f3b 8741 1ebd f87d f3bb f980 de3c
00000120: 27a7 e3bb 3641 22bd 3d05 59bd ce84 e2b9
00000130: 847e 81bc 92ad fd3c 92d4 bfbc f2fa 2b38
00000140: 206f 3dbd de55 bfbc 348c 84ba 9464 25bc
00000150: ddc8 9fbc 7004 a53b 312f 263c fc01 95bc
00000160: 16c5 1ebb 0bbd 9ebc 28af 0cbd 8382 66bc
00000170: 506a da3c 98f6 2f3c c522 94bc 2601 613c
00000180: 03bd 29bc 2e1d edbc 0fc1 283d 2025 1dbd
00000190: 36e4 77bc b2e4 4fbd 3b95 253c 2360 5fbc
000001a0: ba5d cabc 0246 18bd c018 ecbc 53e9 eabb
000001b0: 397b 44bc 9d76 363d bfe4 ee3b ad12 0dbd
000001c0: bc47 b2bc 20b4 72bc 851c ebbc f1c5 1f3c
000001d0: b0ea 033d af41 5f3d 788e 393c 4e74 193a
000001e0: 815f f43c cf30 283d a226 bdbc 72de f83b
000001f0: c48a 673d 0c64 e6bc 2057 c63c 75a8 d73c
00000200: 3a72 b43c 650b 4bbd ffe9 d23c 883e b1bc
00000210: e35c b43c ea68 f13c 19be 233d 6bd1 7dbc
00000220: 589c 55bd 7dc2 5f3c 31be 003c e69f 003d
00000230: 443d 603d 9e46 dabc ae84 003d 4770 90bd
00000240: 6ccf a6bc 245f 003d 8db7 9bbc 256c bebc
00000250: e8e0 f63b 4c04 61bc 60b5 d53c 6828 343d
00000260: 3215 363d 51e1 c33c 4326 933c 25fb 62bd
00000270: 46b9 c8bc 695e 0cbc 8df0 d0bc 74ee 3dbd
00000280: 2e85 b43c 63b5 79bd dd03 6abd 7c7d fe3c
00000290: 8143 ec3c eb89 24ba 9158 0cbd 399e 503d
000002a0: f1dd a1bc e230 013d f827 803d 6834 9fbc
000002b0: edae 2e3d a76e 76bc b5c0 ecba 11ce d5bb
000002c0: e60c 533d 3e7e 5e3b c589 d23c 7c7a 803b
000002d0: 46a5 1cbb d955 f5bc a269 95bd 5a11 ad3c
000002e0: 9c7b 73bd 69c1 4cbd 2b1a 5dbd 2074 063d
000002f0: 93ee f3bc 2764 1f3d f0e6 c5ba 2ce5 c5bc
00000300: 931e 4bbc 7740 aab9 b9ed bbba bfdc 4f3c
00000310: e16d 3abb de1a 2cbc e544 cbbc 6ae7 683c
00000320: 7342 7e3b 2db9 a93c 7b7c 183c 9365 9cbc
00000330: 2951 02bd ffe3 8f3b d2f8 d03a cb6e 1cbb
00000340: 1538 d1ba 8e03 473b 2885 07bc e1c7 b33c
00000350: 4721 51bc e851 e23b f790 c63b 27d4 283b
00000360: d0dd 4fbb 9328 e4bb f5cf 94ba 5da6 713c
00000370: e845 28bc cd1a f1bb 5f29 3dbb 239c 693c
00000380: afa8 9cbc 5de6 bc3a 82f7 d03c 891e 06bc
00000390: a0d5 25bb 4023 dabc 477b c63b 6be6 4ebb
000003a0: 80b5 53bc 2dd2 ed3a aa56 8bbc 4aa4 77bc
000003b0: 187f 10bb f7f1 8abc 4c53 b13b d3b4 503b
000003c0: e08a 0cbb 05a9 823b c251 3bbc 2bd0 123c
000003d0: 4d48 d739 1d14 13bb 5aee 523a 5610 0e3c
000003e0: 01cf b43c 48c2 c03c 28b8 34bb 8795 003b
000003f0: f7ac 723c c242 2f3c e26b 57bc 5f5d 233c
-0.0210872 0.08175728 -0.018483935 -0.05121232 -0.031689826 -0.02980202 -0.022425665 0.0009148995
0.046121567 -0.019587275 0.02261199 -0.049065657 -0.029539688 0.001071862 -0.013907026 0.056137666
0.069421105 -0.042317413 0.0652796 0.062438253 -0.020626592 0.036322363 -0.038193315 0.0020498862
-0.03269021 -0.0437918 -0.006002817 0.052372985 -0.02301325 -0.038510185 0.058219142 0.0486952
-0.020783769 0.06492028 0.014984704 0.014346684 0.03323354 0.063880146 0.027039003 -0.0068901796
0.06158093 -0.0010723475 -0.0151454955 0.014955273 -0.02070927 -0.020567607 -0.016823297 0.057037063
-0.0033235415 0.03829325 -0.012715864 0.020754453 -0.023435097 -0.033144657 0.034224454 -0.06499377
-0.020963944 0.027134597 0.048205562 -0.026569432 -0.014601452 0.031924315 -0.026759952 -0.029739816
-0.037442353 -0.010170922 -0.035680808 0.04067711 0.0043649008 -0.03863671 -0.007430788 0.027161108
-0.0069474163 -0.03961297 -0.05298351 -0.00043205026 -0.015807398 0.030966554 -0.023416791 4.1003288e-05
-0.046248555 -0.023356374 -0.0010112585 -0.0100947805 -0.019504959 0.0050359294 0.010143087 -0.018189423
-0.002422636 -0.019377252 -0.03434673 -0.014069202 0.026662022 0.010739945 -0.018082986 0.013733184
-0.010360005 -0.028944578 0.04119974 -0.038365483 -0.015130093 -0.05075521 0.01010638 -0.013633761
-0.024702895 -0.03717614 -0.028820395 -0.0071689277 -0.011992269 0.044546712 0.0072904523 -0.03444164
-0.021762721 -0.014813453 -0.028700123 0.009751783 0.032206237 0.054506 0.011325471 0.00058538176
0.029830696 0.041062173 -0.02308971 0.007594877 0.05652882 -0.028123878 0.024211466 0.026325444
0.022027124 -0.049571414 0.025746344 -0.021636263 0.022016948 0.029468972 0.039976213 -0.015491824
-0.052151054 0.013657209 0.007857845 0.03140249 0.054745927 -0.026645001 0.031376533 -0.07052665
-0.020362578 0.031340733 -0.019008422 -0.023244927 0.007534135 -0.013733935 0.026087463 0.043983847
0.044453807 0.02391115 0.01796258 -0.05541529 -0.024502408 -0.008567431 -0.025505329 -0.046369985
0.022036161 -0.060964 -0.05713259 0.031065695 0.028840782 -0.0006276655 -0.03426415 0.050932143
-0.01975915 0.03154076 0.062576234 -0.019434169 0.04264729 -0.01504103 -0.0018062802 -0.006524809
0.051525973 0.0033949758 0.02570046 0.0039208513 -0.0023902222 -0.029948162 -0.072955385 0.021126438
-0.059444055 -0.049989138 -0.053980034 0.03282559 -0.029776847 0.038913872 -0.0015098732 -0.02415713
-0.012397426 -0.00032472957 -0.0014337815 0.012686907 -0.002844684 -0.0105044525 -0.024813125 0.01421533
0.003879693 0.020718182 0.009307022 -0.019091403 -0.03181568 0.004391193 0.0015943295 -0.0023869749
-0.0015962148 0.003036711 -0.008271493 0.021945896 -0.012764282 0.0069067366 0.0060597616 0.0025761218
-0.0031717904 -0.0069628446 -0.001135348 0.014749137 -0.010270573 -0.007357931 -0.002886377 0.014258417
-0.019123403 0.0014411915 0.025508646 -0.008185991 -0.0025304332 -0.026628137 0.0060571763 -0.0031570445
-0.012921691 0.0018144302 -0.017009098 -0.015114853 -0.002204841 -0.016961081 0.005411541 0.003184606
-0.002144508 0.003987434 -0.011433067 0.008960764 0.00041061864 -0.0022442408 0.00080463814 0.008670887
0.022071363 0.02353014 -0.0027575586 0.0019620375 0.014811746 0.010697069 -0.01314828 0.009970992
