results/3-11-run4/simple_wolf/simple_wolf-1000018.onnx (onnx, 412672 bytes, 19 tensors)

network_body.observation_encoder.processors.0.self_ent_encoder.seq_layers.0.bias f4 [128]
0.1570475 0.16066362 0.059202094 0.02816746 -0.19834366 -0.050768185 -0.05262762 0.028352825
0.047143765 0.05489997 0.158498 0.11277061 -0.07959907 -0.110455714 -0.14470479 -0.038082864
0.09742557 0.015497508 0.081258394 -0.10749993 -0.11273511 -0.1210496 -0.0631084 0.05886163
-0.025869707 0.23685712 -0.033875234 -0.078645766 -0.1565517 -0.0036655886 0.1796918 -0.100086555
-0.07035284 -0.19715688 -0.18034816 -0.15605366 0.1760358 0.026723564 0.056569707 -0.112406634
0.04015549 0.035449453 0.052639216 0.21394388 0.17857407 -0.14545728 -0.07171378 0.15381297
0.07613473 -0.16100714 -0.15152965 -0.10730349 -0.009085301 0.09078104 -0.045146987 -0.009502395
0.117601626 0.09369837 0.09804327 0.061234854 -0.1516093 -0.13856496 0.1232284 -0.008017479
0.22398122 0.13573256 0.20506714 -0.09262901 0.004578213 -0.0055952426 0.08841125 0.13725649
-0.07802763 0.07442329 0.08681569 -0.08239501 -0.054724824 0.22169505 0.20555705 0.016634475
0.11774979 0.0431198 0.07870519 0.121061414 -0.13070156 0.19916742 0.0077624177 -0.121666834
0.018324269 0.13881789 -0.0068229763 0.121870495 0.18063319 0.18519719 -0.10062155 0.15326403
0.011149436 -0.12976515 0.173765 -0.18248643 0.10761615 -0.14556089 -0.038731694 0.16839986
0.09977006 0.1495996 -0.052731346 -0.013855555 -0.035978854 0.07882065 0.11734291 -0.140769
0.092042744 0.10674405 -0.12236086 -0.1781823 0.08743447 0.07482359 0.1673427 0.064166844
0.17342636 0.03866223 -0.07842109 0.14363259 0.16634145 -0.08100492 0.19408958 0.09179703
00000000: 0fd1 203e 0185 243e e57d 723d 72bf e63c
00000010: 9a1a 4bbe 4df2 4fbd 0f90 57bd 2f44 e83c
00000020: d219 413d cade 603d 4d4d 223e 47f4 e63d
00000030: d604 a3bd 9b36 e2bd 7e2d 14be c7fc 1bbd
00000040: 0f87 c73d 43e9 7d3c cd6a a63d ec28 dcbd
00000050: aae1 e6bd dae8 f7bd fa3e 81bd e418 713d
00000060: b5ec d3bc ac8a 723e c2c0 0abd 0811 a1bd
00000070: 174f 20be 5f3a 70bb 2101 383e 2efa ccbd
00000080: 2615 90bd 7ee3 49be 30ad 38be 88cc 1fbe
00000090: bb42 343e 60eb da3c a3b5 673d 7335 e6bd
000000a0: 157a 243d 7233 113d 389c 573d 1b14 5b3e
000000b0: 1fdc 363e c1f2 14be adde 92bd 2681 1d3e
000000c0: 86ec 9b3d 0edf 24be 972a 1bbe efc1 dbbd
000000d0: 84da 14bc 69eb b93d 0cec 38bd efaf 1bbc
000000e0: 1fd9 f03d eee4 bf3d e9ca c83d 66d1 7a3d
000000f0: 783f 1bbe f9e3 0dbe 2c5f fc3d bf5b 03bc
00000100: 555b 653e 7afd 0a3e 1ffd 513e 47b4 bdbd
00000110: d604 963b 4c58 b7bb f510 b53d f78c 0c3e
00000120: f3cc 9fbd 3d6b 983d 6dcc b13d b7be a8bd
00000130: 2327 60bd 0704 633e 8c7d 523e 0645 883c
00000140: cd26 f13d 639e 303d 3030 a13d 0cef f73d
00000150: a1d6 05be 8bf2 4b3e e15b fe3b 762c f9bd
00000160: c71c 963c 4726 0e3e 4693 dfbb 3d97 f93d
00000170: e8f7 383e 55a4 3d3e ac12 cebd 3ff1 1c3e
00000180: 20ac 363c 28e1 04be 74ef 313e b9dd 3abe
00000190: db65 dc3d ea0d 15be 20a5 1ebd 0371 2c3e
000001a0: 3f54 cc3d a330 193e d3fc 57bd 6902 63bc
000001b0: 905e 13bd b96c a13d 7b51 f03d c025 10be
000001c0: e880 bc3d a09c da3d 5598 fabd 6c75 36be
000001d0: d810 b33d 1c3d 993d e25b 2b3e e869 833d
000001e0: ae96 313e 495c 1e3d 3d9b a0bd 6c14 133e
000001f0: 6a55 2a3e e8e5 a5bd 6bbf 463e 1500 bc3d

network_body.observation_encoder.processors.1.normalizer.running_mean f4 [3]
0.5301114 0.68238086 2.319421
00000000: 61b5 073f 83b0 2e3f 6571 1440

network_body.observation_encoder.rsa.fc_q.bias f4 [128]
0.0 0.0 0.0 0.0 0.0 0.0 0.0 0.0
0.0 0.0 0.0 0.0 0.0 0.0 0.0 0.0
0.0 0.0 0.0 0.0 0.0 0.0 0.0 0.0
0.0 0.0 0.0 0.0 0.0 0.0 0.0 0.0
0.0 0.0 0.0 0.0 0.0 0.0 0.0 0.0
0.0 0.0 0.0 0.0 0.0 0.0 0.0 0.0
0.0 0.0 0.0 0.0 0.0 0.0 0.0 0.0
0.0 0.0 0.0 0.0 0.0 0.0 0.0 0.0
0.0 0.0 0.0 0.0 0.0 0.0 0.0 0.0
0.0 0.0 0.0 0.0 0.0 0.0 0.0 0.0
0.0 0.0 0.0 0.0 0.0 0.0 0.0 0.0
0.0 0.0 0.0 0.0 0.0 0.0 0.0 0.0
0.0 0.0 0.0 0.0 0.0 0.0 0.0 0.0
0.0 0.0 0.0 0.0 0.0 0.0 0.0 0.0
0.0 0.0 0.0 0.0 0.0 0.0 0.0 0.0
0.0 0.0 0.0 0.0 0.0 0.0 0.0 0.0
00000000: 0000 0000 0000 0000 0000 0000 0000 0000
00000010: 0000 0000 0000 0000 0000 0000 0000 0000
00000020: 0000 0000 0000 0000 0000 0000 0000 0000
00000030: 0000 0000 0000 0000 0000 0000 0000 0000
00000040: 0000 0000 0000 0000 0000 0000 0000 0000
00000050: 0000 0000 0000 0000 0000 0000 0000 0000
00000060: 0000 0000 0000 0000 0000 0000 0000 0000
00000070: 0000 0000 0000 0000 0000 0000 0000 0000
00000080: 0000 0000 0000 0000 0000 0000 0000 0000
00000090: 0000 0000 0000 0000 0000 0000 0000 0000
000000a0: 0000 0000 0000 0000 0000 0000 0000 0000
000000b0: 0000 0000 0000 0000 0000 0000 0000 0000
000000c0: 0000 0000 0000 0000 0000 0000 0000 0000
000000d0: 0000 0000 0000 0000 0000 0000 0000 0000
000000e0: 0000 0000 0000 0000 0000 0000 0000 0000
000000f0: 0000 0000 0000 0000 0000 0000 0000 0000
00000100: 0000 0000 0000 0000 0000 0000 0000 0000
00000110: 0000 0000 0000 0000 0000 0000 0000 0000
00000120: 0000 0000 0000 0000 0000 0000 0000 0000
00000130: 0000 0000 0000 0000 0000 0000 0000 0000
00000140: 0000 0000 0000 0000 0000 0000 0000 0000
00000150: 0000 0000 0000 0000 0000 0000 0000 0000
00000160: 0000 0000 0000 0000 0000 0000 0000 0000
00000170: 0000 0000 0000 0000 0000 0000 0000 0000
00000180: 0000 0000 0000 0000 0000 0000 0000 0000
00000190: 0000 0000 0000 0000 0000 0000 0000 0000
000001a0: 0000 0000 0000 0000 0000 0000 0000 0000
000001b0: 0000 0000 0000 0000 0000 0000 0000 0000
000001c0: 0000 0000 0000 0000 0000 0000 0000 0000
000001d0: 0000 0000 0000 0000 0000 0000 0000 0000
000001e0: 0000 0000 0000 0000 0000 0000 0000 0000
000001f0: 0000 0000 0000 0000 0000 0000 0000 0000

network_body.observation_encoder.rsa.fc_v.bias f4 [128]
-0.0016108915 -0.0154989045 -0.0051178536 -0.005692786 -0.008570326 -0.008733126 0.031023772 0.013859562
-0.0031570813 -0.043587007 0.06174326 -0.026193349 -0.0042772256 -0.018247694 -0.0057797697 -0.0063215448
0.044158958 0.007925894 -0.0069645825 0.020203998 0.024157887 -0.028651163 -0.013315941 -0.019208457
0.01991817 0.0155461235 0.011972933 0.03857873 0.006602227 -0.018012734 -0.056164585 0.0146274045
0.009389258 -0.05089329 0.0015815011 -0.027130052 0.03185821 -0.02754639 0.0129411025 -0.009786342
0.049797673 0.029595409 0.017267508 -0.01842172 -0.031454366 0.026074745 -0.02845577 0.020182015
0.010070882 0.028550852 -0.009014494 0.025319874 0.008707951 0.027056657 -0.0321257 0.027938355
-0.027349316 0.03707627 -0.0007872915 0.069617346 0.00069671444 0.032920435 0.005275542 -0.04303449
-0.021471243 0.009743002 0.004917299 -0.014449574 0.0009140633 0.02645731 -0.03031202 -0.00886047
0.018530123 -0.009783098 0.03501672 0.0011253402 0.04280624 -0.0021295361 0.005129269 -0.048532758
-0.025260394 0.020672295 -0.017300509 0.020622654 -0.00045902742 -0.0038184295 -0.029554142 0.016639572
-0.011769975 0.038790822 0.028308751 -0.035057876 -0.005983624 -0.046824824 0.017536897 0.014475543
-0.010476774 0.00031690032 0.02328863 -0.023221403 0.025792545 0.035034146 0.026680158 0.0031316122
0.008483034 0.012922774 0.002533151 0.006920791 0.029263401 0.023647504 -0.00012966299 -0.026949102
0.035673674 -0.029104661 -0.016566237 -0.04313474 0.02129628 0.013241805 -0.01326834 -0.019047515
0.009423344 0.019421617 -0.011539879 -0.068103835 -0.009443214 -0.01396365 0.007732937 0.009882623
00000000: 8d24 d3ba 1eef 7dbc abb3 a7bb 8d8a babb
00000010: 8d6a 0cbc 6315 0fbc 9125 fe3c 3713 633c
00000020: 09e7 4ebb 4a88 32bd 80e6 7c3d 6f93 d6bc
00000030: f827 8cbb 307c 95bc 3964 bdbb f624 cfbb
00000040: 06e0 343d 9cdb 013c 2737 e4bb db82 a53c
00000050: c3e6 c53c d8b5 eabc 1b2b 5abc 0e5b 9dbc
00000060: 6e2b a33c 2bb5 7e3c 1f2a 443c bb04 1e3d
00000070: 7f57 d83b 718f 93bc d60c 66bd c8a7 6f3c
00000080: 67d5 193c 7c75 50bd 5f4a cf3a d83f debc
00000090: c17d 023d f8a8 e1bc eb06 543c e556 20bc
000000a0: a5f8 4b3d 1272 f23c 9774 8d3c 26e9 96bc
000000b0: 4bd6 00bd b49a d53c 131c e9bc c154 a53c
000000c0: 5700 253c 7ae3 e93c 87b1 13bc a06b cf3c
000000d0: cbab 0e3c eca5 dd3c 3d96 03bd fade e43c
000000e0: ac0b e0bc 49dd 173d 3d62 4eba 8a93 8e3d
000000f0: b7a3 363a 94d7 063d 74de ac3b ef44 30bd
00000100: 76e4 afbc 1da1 1f3c 4b21 a13b e8bd 6cbc
00000110: c09d 6f3a 00bd d83c ea50 f8bc 812b 11bc
00000120: 7ccc 973c 4949 20bc b16d 0f3d 2780 933a
00000130: 9955 2f3d b08f 0bbb 6d13 a83b 49ca 46bd
00000140: e3ee cebc f258 a93c ccb9 8dbc d7f0 a83c
00000150: 9ea9 f0b9 9e3e 7abb 871b f2bc b64f 883c
00000160: dad6 40bc 20e3 1e3d c1e7 e73c d998 0fbd
00000170: 4712 c4bb 63cb 3fbd 8aa9 8f3c d42a 6d3c
00000180: c6a6 2bbc a425 a639 ccc7 be3c d03a bebc
00000190: e34a d33c f77f 0f3d 5990 da3c bc3b 4d3b
000001a0: 6cfc 0a3c 0bba 533c 3903 263b cec7 e23b
000001b0: cdb9 ef3c 69b8 c13c 25f6 07b9 5dc4 dcbc
000001c0: 8f1e 123d e66c eebc ebb5 87bc 0eae 30bd
000001d0: 8975 ae3c 28f4 583c 7463 59bc 8909 9cbc
000001e0: 5f64 1a3c 151a 9f3c c311 3dbc 067a 8bbd
000001f0: b6b7 1abc cbc7 64bc 9464 fd3b baea 213c

network_body.observation_encoder.rsa.fc_out.bias f4 [128]
0.0027439636 0.013843811 0.026944553 0.004479195 0.013050616 0.00034364397 0.0059551233 0.053306405
0.033430643 0.019712707 -0.040606063 -0.08383061 -0.03762629 0.03731082 -0.037930273 0.012988338
0.037965074 0.016376214 -0.015022128 -0.030179854 -0.022195078 -0.021215988 -0.044057235 0.0135177
-0.028865492 -0.023009159 -0.035997014 -0.025232634 0.09868964 -0.012424705 0.0076151616 -0.05167891
-0.045869846 -0.029828914 -0.035346884 -0.017176162 0.0051523484 0.03589298 0.020944364 0.013174083
0.015612925 -0.012611363 -0.01788786 -0.023047684 -0.00892925 0.08138992 0.0105116 -0.08715614
0.0004701042 0.0032264807 -0.014970197 0.052337702 0.02851753 0.0033224344 -0.049119476 -0.029276136
-0.13167752 0.0291232 0.03926482 0.06976266 -0.06888458 -0.0128310565 -0.039014064 -0.013886979
0.042970676 -0.039842557 0.016501162 0.041280497 -0.0069984957 0.019232644 0.02146654 0.037171114
0.077745095 -0.0035599177 -0.10709268 0.0030674671 -0.02354431 0.01326952 -0.027039543 -0.039523575
0.03967968 -0.009073731 -0.00040063428 -0.03151616 -0.054491773 0.023801439 0.028091738 -0.053976417
-0.08391343 -0.024541233 -0.046185434 0.0074508768 -0.027396135 -0.018659942 -0.023939012 -0.027165338
-0.047447506 -0.051918056 0.032773487 -0.037492983 0.061589934 0.0033254756 0.075070485 0.024585744
0.027475901 0.0042440607 -0.008373584 0.011621219 0.054762162 0.07508874 0.11522078 -0.024551798
0.05866878 -0.006608476 -0.062261637 -0.028898455 -0.012145264 0.12328113 0.001244023 -0.028827224
0.02581782 0.015977439 -0.020236084 -0.052227486 0.02623344 0.030231997 -0.030661652 -0.04764613
00000000: 12d4 333b 27d1 623c d3ba dc3c 36c6 923b
00000010: 40d2 553c 1d2b b439 3223 c33b d157 5a3d
00000020: 92ee 083d 8b7c a13c 8b52 26bd 62af abbd
00000030: 061e 1abd 3bd3 183d c65c 1bbd 0acd 543c
00000040: 4481 1b3d 6927 863c 5f1f 76bc be3b f7bc
00000050: 74d2 b5bc 27cd adbc 5c75 34bd 5879 5d3c
00000060: 5377 ecbc b47d bcbc 9b71 13bd abb4 cebc
00000070: cb1d ca3d fd90 4bbc 9b88 f93b 44ad 53bd
00000080: 05e2 3bbd c45b f4bc e5c7 10bd 06b5 8cbc
00000090: 08d5 a83b 8404 133d 8493 ab3c 1cd8 573c
000000a0: 5bcd 7f3c e49f 4ebc 9089 92bc 7fce bcbc
000000b0: fd4b 12bc c2af a63d d938 2c3c eb7e b2bd
000000c0: 5178 f639 5d73 533b 8f45 75bc 0f60 563d
000000d0: 989d e93c 33bd 593b 8131 49bd 82d4 efbc
000000e0: 79d6 06be c793 ee3c 26d4 203d badf 8e3d
000000f0: 5c13 8dbd 5a39 52bc 36cd 1fbd 3686 63bc
00000100: 0502 303d f331 23bd 722d 873c bd15 293d
00000110: a353 e5bb c78d 9d3c 99da af3c bd40 183d
00000120: d238 9f3d 824d 69bb 6853 dbbd 8f07 493b
00000130: ffdf c0bc 6768 593c 0882 ddbc 79e3 21bd
00000140: 2987 223d fca9 14bc 390c d2b9 1717 01bd
00000150: c432 5fbd 3cfb c23c a520 e63c 6016 5dbd
00000160: ceda abbd b20a c9bc f02c 3dbd 7c26 f43b
00000170: dc6d e0bc bcdc 98bc bf1b c4bc d889 debc
00000180: 5158 42bd 07a8 54bd 7e3d 063d 3e92 19bd
00000190: ba45 7c3d 39f0 593b 8ebe 993d 0b68 c93c
000001a0: 2415 e13c c311 8b3b 5b31 09bc ed66 3e3c
000001b0: 4a4e 603d 20c8 993d dff8 eb3d da20 c9bc
000001c0: ad4e 703d ea8b d8bb 0f06 7fbd 74bc ecbc
000001d0: eefc 46bc d17a fc3d 7c0e a33a 1227 ecbc
000001e0: e57f d33c 1ee3 823c 25c6 a5bc 7dec 55bd
000001f0: 83e7 d63c 18a9 f73c 252e fbbc 9728 43bd

network_body.observation_encoder.x_self_encoder.seq_layers.0.weight f4 [128, 3]
0.18831047 -0.12586191 -0.1344407 0.2062483 0.17153686 -0.02906721 -0.12510154 -0.035641965
0.19316252 0.19567278 -0.037425604 -0.11890215 -0.08156276 -0.35971096 0.1260164 -0.05012278
0.069590636 -0.14723332 -0.15632617 0.014783714 0.09466076 -0.21195275 -0.029336227 0.04321747
-0.14016251 0.11163169 0.10441421 0.008660324 -0.121874355 -0.16316038 0.16017619 -0.17322776
-0.07617604 -0.18478724 0.016065603 0.038739257 -0.14812995 -0.12192698 0.14697173 -0.14597797
-0.10257605 -0.18253548 -0.046071693 -0.060872342 -0.106147856 -0.067092635 -0.09894591 -0.16657373
-0.15406018 0.025458861 0.1344559 0.12750542 0.3501827 -0.01967978 0.23891866 -0.017908331
-0.07802474 -0.029828379 0.036836617 0.26230925 0.06743766 -0.13790758 0.28638083 0.017423002
0.40008643 0.16642232 -0.09417204 0.31683818 0.048988465 -0.13256234 0.033954434 -0.101389796
0.18805206 -0.05939025 -0.12748799 0.22368376 0.098180726 -0.02042146 -0.20868923 0.048124358
-0.041522697 0.24005018 0.07795515 -0.060997184 0.24068728 0.056491885 -0.01913084 0.0219783
-0.0333279 0.06997015 -0.16646373 -0.070256844 0.12127614 0.24921604 0.08764961 -0.040773485
-0.001053227 -0.036676 -0.10561026 -0.07942317 -0.001566485 0.22226615 0.23710781 0.08606182
0.22539964 -0.14898543 0.15534474 0.06544449 -0.17464076 0.022787444 -0.08755486 -0.1779073
-0.009354408 0.0076403436 0.036449708 0.16867635 -0.06568987 0.09538837 -0.015054476 -0.07991836
0.17649871 -0.14043926 -0.087181516 0.046597138 0.035946593 -0.19005322 0.24087934 -0.08732297
0.010899064 0.030687721 -0.15983921 0.29663327 -0.021994485 -0.37011027 0.30861068 -0.18921049
0.08590388 -0.21299405 -0.18622153 0.004046538 -0.07986287 -0.24753202 0.11892858 -0.0525052
-0.1782755 0.17108789 0.039812867 -0.119115375 -0.3592624 0.23093326 0.2800548 -0.003798864
0.13282448 0.25471938 0.20652671 -0.008688035 0.17065299 -0.04212642 -0.13021137 0.17127317
0.27784473 -0.014194266 -0.1960266 -0.029666066 -0.23323044 0.10134897 -0.018291244 -0.09591463
-0.10156451 0.041683175 0.1893743 0.23186892 -0.05545089 0.02776363 0.1433781 -0.117777124
-0.032570016 0.16753297 -0.060681596 -0.096606754 0.18162239 -0.17981334 -0.09210142 0.10510039
-0.077203475 -0.119316824 0.10195139 -0.07462608 -0.17813188 -0.13211386 0.14608647 0.12158059
0.1469845 -0.031835247 0.22448777 0.0385905 0.15058164 0.15199548 0.0481073 0.030957038
0.19538087 0.25487587 0.036192145 -0.04685296 -0.14059862 0.028711747 0.19723213 -0.040153477
0.043088235 0.24794038 -0.085959226 0.074556306 -0.1667285 -0.21475853 -0.0009971687 -0.015303618
-0.16057537 -0.07209214 0.1825418 0.112087436 0.034911875 -0.18535382 -0.1395393 0.13162889
0.15865344 0.2727849 -0.054204762 0.09498825 -0.1153089 -0.12464744 0.22038572 -0.14551607
0.24931073 -0.15890038 -0.17263807 -0.0056089503 -0.0014789504 -0.14653932 -0.24702361 0.18169592
0.24347861 0.08939406 -0.05591837 0.2085224 0.012328419 -0.032017473 -0.02790867 0.37187067
0.13110259 -0.05033984 0.11660596 0.16348198 -0.076053366 -0.13731633 0.34397197 -0.14619778
00000000: 76d4 403e f2e1 00be d3aa 09be c132 533e
00000010: 5ca7 2f3e 5c1e eebc 9e1a 00be 4ffd 11bd
00000020: 65cc 453e 725e 483e 974b 19bd f882 f3bd
00000030: 600a a7bd 092c b8be 710a 013e 8b4d 4dbd
00000040: 8985 8e3d 55c4 16be f813 20be 6437 723c
00000050: 80dd c13d 240a 59be 8752 f0bc cd04 313d
00000060: c386 0fbe 289f e43d 1ed7 d53d 08e4 0d3c
00000070: 4399 f9bd 8413 27be 3a05 243e 9e62 31be
00000080: 2f02 9cbd de38 3dbe 039c 833c 0ead 1e3d
00000090: 61af 17be dab4 f9bd c27f 163e 407b 15be
000000a0: 6413 d2bd 95ea 3abe acb5 3cbd 4755 79bd
000000b0: 0c64 d9bd dd67 89bd 27a4 cabd 4e92 2abe
000000c0: f4c1 1dbe 1a8f d03c cfae 093e c890 023e
000000d0: 264b b33e 7d37 a1bc 18a7 743e 7eb4 92bc
000000e0: 6fcb 9fbd a55a f4bc fee1 163d 664d 863e
000000f0: c21c 8a3d a537 0dbe 82a0 923e afba 8e3c
00000100: 21d8 cc3e 9d6a 2a3e 45dd c0bd 9d38 a23e
00000110: 21a8 483d 6cbe 07be ce13 0b3d 74a5 cfbd
00000120: b890 403e 3143 73bd 368c 02be 5b0d 653e
00000130: fa12 c93d e84a a7bc a1b2 55be 0c1e 453d
00000140: b413 2abd b7cf 753e f3a6 9f3d 2fd8 79bd
00000150: ba76 763e 0964 673d 48b8 9cbc d60b b43c
00000160: d682 08bd 834c 8f3d 7875 2abe d2e2 8fbd
00000170: a05f f83d 7d32 7f3e a481 b33d 1902 27bd
00000180: 6f0c 8aba 9339 16bd 314a d8bd 9da8 a2bd
00000190: 8452 cdba bd99 633e 64cc 723e 2e41 b03d
000001a0: 2acf 663e a38f 18be b112 1f3e c307 863d
000001b0: 07d5 32be bcac ba3c f64f b3bd 552d 36be
000001c0: 3b43 19bc d95b fa3b 4a4c 153d 7eb9 2c3e
000001d0: 6988 86bd fa5a c33d 0da7 76bc 3dac a3bd
000001e0: 14bc 343e 4fcf 0fbe 398c b2bd a4dc 3e3d
000001f0: bc3c 133d 509d 42be 13a9 763e 63d6 b2bd
00000200: fd91 323c d164 fb3c e4ac 23be 51e0 973e
00000210: c72d b4bc 187f bdbe 3802 9e3e 65c0 41be
00000220: 60ee af3d 1d1b 5abe dbb0 3ebe d298 843b
00000230: 258f a3bd 0979 7dbe d490 f33d b10f 57bd
00000240: da8d 36be aa31 2f3e d112 233d c3f2 f3bd
00000250: 3ef1 b7be c579 6c3e 5863 8f3e 5df6 78bb
00000260: 2403 083e 946a 823e bd7b 533e 4358 0ebc
00000270: a8bf 2e3e c18c 2cbd 2156 05be 3c62 2f3e
00000280: aa41 8e3e 118f 68bc 32bb 48be 4006 f3bc
00000290: f6d3 6ebe 0c90 cf3d 85d7 95bc e46e c4bd
000002a0: 0e01 d0bd fabb 2a3d 56eb 413e 0c6f 6d3e
000002b0: 7920 63bd 8d70 e33c b5d1 123e 2235 f1bd
000002c0: 2368 05bd c38d 2b3e 448d 78bd c3d9 c5bd
000002d0: 38fb 393e fd20 38be ab9f bcbd e03e d73d
000002e0: db1c 9ebd 615c f4bd e4cb d03d 8fd5 98bd
000002f0: 3468 36be db48 07be b197 153e 3fff f83d
00000300: 1b83 163e ad65 02bd 1fe0 653e 1211 1e3d
00000310: 1332 1a3e b4a4 1b3e 290c 453d 9d99 fd3c
00000320: ec11 483e 177f 823e 373e 143d e4e8 3fbd
00000330: 16f9 0fbe e634 eb3c 38f7 493e f977 24bd
00000340: 4a7d 303d 15e4 7d3e 640b b0bd fab0 983d
00000350: e0ba 2abe a9e9 5bbe 6eb3 82ba 07bc 7abc
00000360: df6d 24be 0ba5 93bd 3dec 3a3e 198e e53d
00000370: c1ff 0e3d 64cd 3dbe 64e3 0ebe b9c9 063e
00000380: 0c76 223e 76aa 8b3e d005 5ebd 3389 c23d
00000390: 1327 ecbd 2847 ffbd cbac 613e 2a02 15be
000003a0: 504b 7f3e c8b6 22be 09c8 30be 49cb b7bb
000003b0: 57d9 c1ba 670e 16be c2f3 7cbe 7f0e 3a3e
000003c0: 7552 793e 3c14 b73d a90a 65bd e586 553e
000003d0: 23fd 493c c124 03bd b9a0 e4bc d565 be3e
000003e0: c23f 063e 2631 4ebd 1bcf ee3d d267 273e
000003f0: dec1 9bbd a79c 0cbe 181d b03e dfb4 15be

network_body.observation_encoder.x_self_encoder.seq_layers.0.bias f4 [128]
0.008984624 0.09037599 0.0976558 0.013782999 -0.1345628 0.1684287 0.13987228 0.086859226
-0.06755515 0.13291264 -0.10813343 0.14275932 0.043747224 0.1414418 0.17332701 0.1335645
0.06415899 0.1493381 -0.005187123 0.058790777 -0.07988184 0.052735064 -0.08046641 0.23999217
-0.033904035 0.07747872 0.12058434 0.014732867 -0.008466448 0.23639786 0.03907461 0.078607485
0.15738446 -0.09491018 -0.09115926 0.09608386 0.15684997 0.07173512 -0.19883947 0.15149096
0.002047553 0.024203565 -0.026516633 0.13322441 0.09774764 -0.040527627 0.14922035 0.093308024
-0.032114927 0.04900098 0.0765786 0.06221446 0.09942563 0.16253531 0.15280712 0.13994221
0.1237375 -0.023869498 -0.08598769 -0.079591475 0.00047232723 0.11081727 -0.051125497 0.033867203
-0.0690101 -0.11238106 -0.113308564 0.01699865 0.07020021 0.15016238 -0.22916275 0.04047779
0.093204625 -0.05364536 -0.052816655 0.035232417 0.13567342 -0.10982063 0.09540802 0.050888535
-0.013354668 -0.030843928 0.07068618 -0.11327775 0.027279185 0.23632471 0.1356249 -0.009661988
-0.029008137 0.14097187 -0.05384665 -0.046528988 0.079711944 -0.06514925 -0.0048002535 0.1598788
0.124792956 -0.096783064 0.0573665 0.11834702 0.09381539 -0.060728952 0.05842272 -0.028922569
0.08521801 0.08383476 -0.094780624 0.07623033 0.14239806 0.06750626 0.11627899 0.073323265
-0.00880296 0.14763209 0.1810742 0.10120985 0.0102884965 -0.08624252 0.06792895 0.1380661
0.0385539 -0.029062422 0.09484279 0.09579223 0.04849558 0.018324936 0.12673546 -0.099413216
00000000: 3f34 133c 0c17 b93d c4ff c73d 16d2 613c
00000010: d5ca 09be 9378 2c3e ae3a 0f3e 40e3 b13d
00000020: 5b5a 8abd 401a 083e 0f75 ddbd 802f 123e
00000030: 4a30 333d 1fd6 103e a37c 313e 22c5 083e
00000040: ca65 833d 16ec 183e bef8 a9bb 99ce 703d
00000050: 1799 a3bd b900 583d 93cb a4bd 82c0 753e
00000060: f5de 0abd 2aad 9e3d ecf4 f63d 1f62 713c
00000070: dbb6 0abc 4812 723e b30c 203d f6fc a03d
00000080: 6429 213e 4560 c2bd b5b1 babd 9dc7 c43d
00000090: 479d 203e dde9 923d 939c 4bbe 7220 1b3e
000000a0: 3d30 063b 8e46 c63c 6939 d9bc fb6b 083e
000000b0: ea2f c83d 4c00 26bd 38cd 183e 4718 bf3d
000000c0: f18a 03bd 40b5 483d 3ed5 9c3d 97d4 7e3d
000000d0: aa9f cb3d a86f 263e 7879 1c3e 034d 0f3e
000000e0: 166a fd3d f789 c3bc 501a b0bd db00 a3bd
000000f0: b0a2 f739 2af4 e23d f868 51bd 56b8 0a3d
00000100: 2b55 8dbd 0b28 e6bd 520e e8bd c140 8b3c
00000110: 21c5 8f3d 2bc4 193e a4a9 6abe 0acc 253d
00000120: 11e2 be3d 3dbb 5bbd 4756 58bd de4f 103d
00000130: f9ed 0a3e a3e9 e0bd 4865 c33d 7f70 503d
00000140: 8acd 5abc 68ac fcbc eac3 903d 2afe e7bd
00000150: 9978 df3c 1bff 713e 41e1 0a3e 514d 1ebc
00000160: 79a2 edbc ee5a 103e 4e8e 5cbd 2e95 3ebd
00000170: 0440 a33d f86c 85bd 724b 9dbb 45b7 233e
00000180: 7393 ff3d 3336 c6bd 23f9 6a3d ec5f f23d
00000190: 4822 c03d ecbe 78bd a94c 6f3d 06ef ecbc
000001a0: c886 ae3d 8fb1 ab3d 581c c2bd a61e 9c3d
000001b0: ccd0 113e b940 8a3d ae23 ee3d 822a 963d
000001c0: 4a3a 10bc de2c 173e 846b 393e 1c47 cf3d
000001d0: 1591 283c eb9f b0bd 551e 8b3d 3361 0d3e
000001e0: b2ea 1d3d 5114 eebc f03c c23d b72e c43d
000001f0: 4da3 463d 2d1e 963c f1c6 013e 2899 cbbd

network_body._body_endoder.seq_layers.0.weight f4 [64, 131]
-0.645033 0.0069932914 -0.22396302 0.08626024 0.24980004 -0.028587045 -0.11581749 -0.13847499
-0.21945748 -0.06811642 -0.12753184 -0.039281666 0.28567415 0.080384925 0.33265737 0.19934252
0.028483337 -0.06279514 -0.021260984 0.026646473 -0.033731632 0.006634076 0.17663822 -0.030565597
0.0676157 0.045235693 -0.00849038 -0.06384456 -0.10004321 0.048213493 0.12229972 0.10190416
-0.08186904 -0.026940428 0.11940425 0.058833707 0.13082507 0.10369975 -0.019600801 0.017554704
0.23278739 -0.008077813 0.193358 0.023834264 0.12906305 0.23503034 0.32287574 -0.04519142
-0.10866084 -0.043574207 0.031540956 -0.09616921 -0.17897275 -0.022639966 -0.18766458 -0.28191304
0.23042159 0.16229148 -0.04861776 0.028038613 -0.24890223 0.027758265 0.09428999 -0.18177702
-0.17469433 -0.049255565 -0.11417189 -0.075766966 0.23932756 0.035168275 -0.20943606 0.31247872
0.05333128 -0.060907077 0.16190436 -0.15903434 0.08307934 -0.056388114 -0.078114904 -0.04078322
0.026211355 0.16284068 -0.0082651945 -0.04458719 0.182617 -0.02639861 0.0073732226 0.06554397
-0.044019215 0.12433127 0.057366602 0.0809992 -0.07831314 -0.0937083 0.06616396 0.1777464
0.19784424 -0.09873329 -0.13879849 0.114832506 0.14911512 -0.051942192 -0.100005 0.2687519
-0.11978355 -0.18451281 0.058421396 -0.21543269 0.086261794 -0.037442926 -0.037765257 -0.115525454
-0.05251754 0.061706 0.032287974 0.16505721 0.18864247 -0.033757757 -0.3056072 0.08934337
-0.15776555 0.055860844 0.06729247 0.20784587 0.04606088 -0.18646742 -0.103465945 -0.096284986
-0.03706185 0.16033582 -0.064507864 0.25917602 -0.28967112 -0.047187436 -0.20473708 0.03268445
-0.026752973 0.016999567 0.09195047 0.08428431 -0.08860551 0.17766705 -0.08203496 0.02223955
0.0691274 0.024821721 -0.012265157 0.13035865 0.07452016 0.10028821 -0.031086188 0.04567747
0.10940168 0.15961194 0.069881625 0.1790476 -0.15112185 -0.07401114 0.027626438 0.021490129
0.029343722 0.119242184 0.060455874 0.065150686 -0.06719944 -0.043315534 0.011090603 -0.0030852377
0.13739242 -0.013515333 0.08214725 -0.06434293 0.03556887 0.083861135 -0.06678033 0.006921726
-0.059744745 0.105716586 -0.024178768 -0.0027809327 -0.073533654 0.13140364 0.24610563 0.13360839
-0.014636408 -0.18697523 -0.0031703059 -0.19435546 0.015040046 0.24802992 -0.0040420974 0.028910676
0.09210601 0.042675566 0.1852868 0.08932172 -0.043007605 -0.0763828 0.03166219 -0.13463777
-0.11511085 0.09173561 0.072569534 0.05083735 0.09795721 -0.0020015927 -0.105905116 0.009395806
0.11603437 0.14315392 0.24234612 0.034541715 0.0669876 -0.03188892 -0.24500088 -0.024175707
-0.16193278 -0.13849361 -0.109748416 0.22227241 -0.16337693 -0.20941876 -0.0044147833 -0.16293427
0.3272825 0.06254299 0.026793716 0.17585671 0.1676621 -0.06982287 0.20698981 0.037963577
-0.008504658 0.11096803 -0.17565484 -0.032033227 -0.11252872 -0.053741444 0.034476005 0.19674976
0.16567254 0.09494806 -0.08771219 -0.11171927 -0.039897326 0.10673967 -0.1094502 -0.1269787
0.15799154 0.0978679 0.047096364 -0.22052915 -0.033290226 0.09147353 -0.15602985 -0.03730115
00000000: e220 25bf fb27 e53b 9056 65be 35a9 b03d
00000010: 95cb 7f3e 612f eabc b831 edbd 63cc 0dbe
00000020: 76b9 60be 9f80 8bbd b597 02be d0e5 20bd
00000030: e243 923e daa0 a43d 1152 aa3e 7220 4c3e
00000040: e355 e93c bd9a 80bd 842b aebc b449 da3c
00000050: 2e2a 0abd aa62 d93b a6e0 343e b464 fabc
00000060: 1a7a 8a3d 1049 393d 3c1b 0bbc f0c0 82bd
00000070: 74e3 ccbd 837b 453d 4778 fa3d 21b3 d03d
00000080: f5aa a7bd 2cb2 dcbc 378a f43d 9dfb 703d
00000090: 02f7 053e 8960 d43d dc91 a0bc e2ce 8f3c
000000a0: d15f 6e3e ce58 04bc a4ff 453e 1340 c33c
000000b0: 1b29 043e cbab 703e f84f a53e a31a 39bd
000000c0: 9389 debd de7a 32bd 1731 013d 5df4 c4bd
000000d0: a244 37be 7377 b9bc 252b 40be e856 90be
000000e0: a3f3 6b3e bd2f 263e 6b23 47bd 3cb1 e53c
000000f0: 3ae0 7ebe 4d65 e33c 1c1b c13d c123 3abe
00000100: 12e3 32be 34c0 49bd f4d2 e9bd b62b 9bbd
00000110: 4912 753e 9c0c 103d 6876 56be 36fd 9f3e
00000120: e671 5a3d b379 79bd 42ca 253e e6d9 22be
00000130: 8025 aa3d 39f7 66bd b5fa 9fbd 4e0c 27bd
00000140: 32b9 d63c b5bf 263e bd6a 07bc 0fa1 36bd
00000150: f3ff 3a3e e641 d8bc 139b f13b eb3b 863d
00000160: 7e4d 34bd 65a1 fe3d 3ef9 6a3d e9e2 a53d
00000170: a462 a0bd 23ea bfbd f880 873d 2703 363e
00000180: ae97 4a3e ae34 cabd 3121 0ebe 4e2d eb3d
00000190: a2b1 183e 56c1 54bd 6ccf ccbd d999 893e
000001a0: 1451 f5bd edf0 3cbe 464b 6f3d 639a 5cbe
000001b0: 06aa b03d c15d 19bd beaf 1abd 9c98 ecbd
000001c0: a21c 57bd 6ebf 7c3d 6540 043d c204 293e
000001d0: 7e2b 413e 9345 0abd 8c78 9cbe a8f9 b63d
000001e0: 4b8d 21be 57ce 643d a2d0 893d 8cd5 543e
000001f0: 55aa 3c3d 51f1 3ebe f4e5 d3bd 1031 c5bd
00000200: 2bce 17bd 132f 243e b31c 84bd b8b2 843e
00000210: c64f 94be 9d47 41bd 99a6 51be 21e0 053d
00000220: 0d29 dbbc ad42 8b3c 8750 bc3d 419d ac3d
00000230: ce76 b5bd 5aee 353e f201 a8bd b72f b63c
00000240: ab92 8d3d ec56 cb3c ccf3 48bc bd7c 053e
00000250: 079e 983d e863 cd3d 76a8 febc 4c18 3b3d
00000260: fd0d e03d 5071 233e 191e 8f3d 4158 373e
00000270: b0bf 1abe 2793 97bd d750 e23c 110c b03c
00000280: 3f62 f03c 3f35 f43d 94a0 773d b96d 853d
00000290: dc9f 89bd a16b 31bd 5cb5 353c b331 4abb
000002a0: 99b0 0c3e 6a6f 5dbc d13c a83d 3ac6 83bd
000002b0: aab0 113d 63bf ab3d 20c4 88bd a5cf e23b
000002c0: e8b6 74bd f081 d83d 8d12 c6bc 4f40 36bb
000002d0: d098 96bd ad8e 063e 1d03 7c3e a3d0 083e
000002e0: 8bcd 6fbc 6f76 3fbe e8c4 4fbb 1e05 47be
000002f0: 866a 763c 8efb 7d3e 9273 84bb 15d6 ec3c
00000300: 13a2 bc3d 93cc 2e3d d3bb 3d3e 4eee b63d
00000310: be28 30bd 966e 9cbd 36b0 013d 7cde 09be
00000320: 3dbf ebbd e1df bb3d 569f 943d d33a 503d
00000330: ca9d c83d 272d 03bb c8e4 d8bd def0 193c
00000340: 6ea3 ed3d f196 123e 9529 783e 9d7b 0d3d
00000350: cb30 893d f59d 02bd 83e1 7abe 220c c6bc
00000360: b5d1 25be 45d1 0dbe c7c3 e0bd 619b 633e
00000370: 484c 27be df71 56be e3a9 90bb 3ed8 26be
00000380: 9291 a73e 8a16 803d 7f7e db3c c813 343e
00000390: 9daf 2b3e 4bff 8ebd 23f5 533e b27f 1b3d
000003a0: 1f57 0bbc 3543 e33d ddde 33be 4635 03bd
000003b0: 7575 e6bd fd1f 5cbd b636 0d3d c578 493e
000003c0: 10a6 293e 2174 c23d 73a2 b3bd 13cd e4bd
000003d0: 616b 23bd 549a da3d 6d27 e0bd b406 02be
000003e0: 89c8 213e f76e c83d 1ee8 403d 65d2 61be
000003f0: 555b 08bd 7956 bb3d 4ac6 1fbe 17c9 18bd

network_body._body_endoder.seq_layers.0.bias f4 [64]
0.39249504 -0.001206578 0.42737678 0.23718885 -0.552408 -0.08823009 -0.45130664 -0.5275536
0.32654613 -0.3063198 0.24310441 -0.17635727 0.38222846 0.19815712 0.37807238 -0.09266825
0.34238648 -0.31108513 -0.06954751 0.03266065 0.09805708 0.2621247 0.343763 0.03285228
0.45218188 0.23023488 0.4099092 -0.42770678 -0.023055611 0.3333853 0.3735557 0.0664324
0.4794981 -0.37407464 0.03385978 0.16610408 0.553717 0.18701118 -0.015324807 -0.10709069
-0.3946878 0.5753629 -0.44288513 0.2725726 0.4874773 0.096333496 0.97213626 -0.3573005
-0.4751185 0.28674406 0.33016196 0.29107264 -0.39247385 -0.73606443 0.3061564 0.5235418
0.1943482 0.38236347 0.16083439 -0.2975681 0.4552245 0.34302375 0.39914897 0.14495564
00000000: 1cf5 c83e 0a26 9eba 21d1 da3e a2e1 723e
00000010: 9c6a 0dbf fab1 b4bd aa11 e7be c10d 07bf
00000020: 0e31 a73e f3d5 9cbe 5df0 783e 0097 34be
00000030: 73b3 c33e b3e9 4a3e b492 c13e dac8 bdbd
00000040: 484d af3e 8d46 9fbe ed6e 8ebd 2cc7 053d
00000050: 26d2 c83d 3535 863e b401 b03e 1d90 063d
00000060: 6284 e73e b1c2 6b3e 9edf d13e 62fc dabe
00000070: 1fdf bcbc 7ab1 aa3e b142 bf3e b60d 883d
00000080: c680 f53e b686 bfbe 8db0 0a3d 3017 2a3e
00000090: 66c0 0d3f dc7f 3f3e e614 7bbc 5d52 dbbd
000000a0: 8514 cabe fc4a 133f d7c1 e2be a38e 8b3e
000000b0: a096 f93e 7f4a c53d ecdd 783f 17f0 b6be
000000c0: bb42 f3be 1ed0 923e fd0a a93e 7907 953e
000000d0: 55f2 c8be b86e 3cbf 88c0 9c3e d606 063f
000000e0: 3703 473e 25c5 c33e c5b1 243e d95a 98be
000000f0: 3013 e93e cfa0 af3e 415d cc3e 406f 143e

network_body._body_endoder.seq_layers.2.weight f4 [64, 64]
-0.021608947 0.3006434 -0.10891058 0.26299143 -0.09742344 0.21303593 -0.0732007 0.23511805
-0.40650666 -0.023416255 -0.025777943 0.18216203 0.23037422 -0.1639172 0.04838431 -0.24215214
0.06413209 -0.16369697 -0.048969686 -0.054237686 -0.034961883 0.05521302 0.16602635 0.13735725
-0.3169451 -0.07486917 -0.12238128 -0.00913827 -0.078188516 0.12651272 0.04572873 -0.025541835
-0.3879945 0.016758429 -0.109269165 0.058357432 -0.30858144 0.11295674 0.34834024 0.046165906
-0.04787601 0.010870955 0.16195865 0.036549617 -0.06304545 0.22113137 -0.32551956 0.099110134
0.12600788 -0.13844246 -0.16328597 0.18736295 -0.20835954 0.10690918 0.09150267 -0.029819816
0.19396853 -0.07256044 -0.1795059 0.22645111 0.0200257 0.18225478 -0.09222963 -0.22418009
0.18390031 0.10355335 -0.025116084 0.05577374 -0.09634553 0.033875413 -0.20381841 -0.17370094
0.047184166 -0.16160518 0.14495951 0.068299115 0.41978183 -0.007862988 0.3049787 -0.22257742
-0.2832447 -0.0910495 0.045570143 0.12491128 0.01810112 -0.16485727 0.14866722 -0.24943766
0.17060721 0.07500274 0.007241557 -0.17559198 -0.16405195 -0.0017095028 -0.023939021 0.11563822
-0.12413031 0.19808245 -0.12136097 0.20723012 -0.07838492 -0.070949934 0.052305374 0.2948489
0.16018756 0.07481063 -0.15144458 0.17446898 -0.08329951 0.105755225 0.40859026 -0.1007373
-0.02962403 0.02310883 -0.1916704 0.25394964 -0.22474194 -0.0668672 -0.28082594 -0.09934696
0.030401513 0.23016207 -0.06409032 0.08071152 -0.068180084 0.033700448 0.096367106 -0.086953275
0.076348305 -0.16104606 0.2648209 0.20624252 -0.3007829 -0.122468285 -0.27246028 -0.11138754
0.20087133 -0.281188 0.191015 -0.5174238 0.22101758 0.1453728 -0.00064626045 -0.01634877
0.095798716 -0.44746256 -0.1443076 0.17314819 0.21027268 0.1588346 0.12184184 0.020081066
0.3295246 0.22734614 0.07383163 -0.27734992 -0.07356034 -0.079311125 0.05172005 0.12764612
0.29073927 -0.01789536 -0.16227077 -0.099924125 0.16426533 0.102122396 -0.03432663 -0.09729963
-0.15190543 0.48834726 -0.31405696 -0.14753196 0.15165767 -0.038710393 0.57338595 -0.43754268
-0.3690388 -0.03771923 -0.03697563 0.023508182 -0.591233 -0.8619038 -0.24627692 0.1396304
0.0049764463 0.028568923 0.020974904 -0.30691192 0.103183255 0.48622316 0.36024383 0.22733514
0.16146982 0.042016108 -0.3027596 0.20025316 -0.12241642 0.027714746 -0.42566994 -0.14722809
-0.14045817 -0.22499795 -0.23862286 0.09006162 0.07949895 -0.102777414 -0.08156031 -0.0752463
-0.11484942 -0.43073753 0.10161961 0.0045828978 0.26633918 -0.2276622 0.22630833 -0.4647325
-0.098204 -0.13266453 -0.26657188 0.1631828 0.113304555 -0.1093289 0.13073514 0.11359539
-0.050596207 -0.139717 -0.3630445 0.35960084 -0.08228492 -0.041466292 0.11076892 0.24372374
-0.30640492 -0.22160529 -0.32944876 -0.069576904 0.08286387 0.12213709 0.7579512 -0.121260986
0.027342774 0.017609872 -0.17843637 -0.16965666 0.024442198 -0.31640977 0.22475167 0.029406248
0.07900757 -0.010901984 0.1284937 -0.23080622 0.018177766 -0.4837932 -0.29255757 0.0486335
00000000: 3f05 b1bc efed 993e 830c dfbd d0a6 863e
00000010: f185 c7bd 1726 5a3e 40ea 95bd c9c2 703e
00000020: a421 d0be 72d3 bfbc 442c d3bc af88 3a3e
00000030: 38e7 6b3e e9d9 27be a02e 463d bbf6 77be
00000040: af57 833d 2ea0 27be 7094 48bd 5628 5ebd
00000050: 3134 0fbd 0c27 623d d002 2a3e 61a7 0c3e
00000060: a146 a2be 0255 99bd 09a3 fabd afb8 15bc
00000070: 4d21 a0bd 8d8c 013e 0c4e 3b3d 1c3d d1bc
00000080: 37a7 c6be f948 893c 83c8 dfbd 3408 6f3d
00000090: 63fe 9dbe dd55 e73d a759 b23e 7618 3d3d
000000a0: a319 44bd 171c 323c 7dd8 253e 0db5 153d
000000b0: f91d 81bd 4370 623e 80aa a6be 41fa ca3d
000000c0: 3608 013e dcc3 0dbe 7034 27be 13dc 3f3e
000000d0: 345c 55be 33f3 da3d c065 bb3d b048 f4bc
000000e0: b09f 463e 919a 94bd 65d0 37be cde2 673e
000000f0: f00c a43c ffa0 3a3e e3e2 bcbd 778f 65be
00000100: 5d50 3c3e c713 d43d 3fc0 cdbc 0173 643d
00000110: ce50 c5bd f2c0 0a3d c6b5 50be a9de 31be
00000120: 2f44 413d d47b 25be 4470 143e 68e0 8b3d
00000130: a5ed d63e c3d3 00bc 2b26 9c3e 56eb 63be
00000140: 7305 91be 2978 babd c2a7 3a3d 7cd1 ff3d
00000150: cd48 943c 58d0 28be 383c 183e 966c 7fbe
00000160: a8b3 2e3e 099b 993d 954a ed3b 62ce 33be
00000170: 3cfd 27be 6511 e0ba c41b c4bc bbd3 ec3d
00000180: 0838 febd 20d6 4a3e 1a8c f8bd 2234 543e
00000190: 4688 a0bd 334e 91bd 293e 563d 6ff6 963e
000001a0: 3508 243e 5136 993d 4a14 1bbe ffa7 323e
000001b0: ef98 aabd 3296 d83d be32 d13e 5c4f cebd
000001c0: 18ae f2bc bb4e bd3c 3f45 44be b005 823e
000001d0: c022 66be acf1 88bd 6bc8 8fbe 6b76 cbbd
000001e0: 980c f93c 9baf 6b3e c941 83bd 154c a53d
000001f0: 00a2 8bbd 7b09 0a3d 1e5c c53d 8f14 b2bd
00000200: 805c 9c3d 42e9 24be 9b96 873e 3d31 533e
00000210: 3700 9abe a7d0 fabd ea7f 8bbe 271f e4bd
00000220: 37b1 4d3e e0f7 8fbe 7099 433e e375 04bf
00000230: 6f52 623e 9bdc 143e ce69 29ba dbed 85bc
00000240: 1e32 c43d d019 e5be 5fc5 13be c24d 313e
00000250: b951 573e 8aa5 223e 3788 f93d 0c81 a43c
00000260: 73b7 a83e 6dcd 683e 0a35 973d cf00 8ebe
00000270: cea6 96bd df6d a2bd 67d8 533d aab5 023e
00000280: c7db 943e 4a99 92bc 4f2a 26be 05a5 ccbd
00000290: 2c35 283e 8c25 d13d 159a 0cbd 0745 c7bd
000002a0: 198d 1bbe a708 fa3e 13cc a0be 9e12 17be
000002b0: 264c 1b3e ca8e 1ebd 6cc9 123f 9805 e0be
000002c0: a7f2 bcbe 7b7f 1abd c273 17bd 3b94 c03c
000002d0: 0c5b 17bf baa5 5cbf 0430 7cbe 46fb 0e3e
000002e0: 7511 a33b 6009 ea3c 90d3 ab3c 8f23 9dbe
000002f0: be51 d33d 3ef2 f83e e171 b83e 8bca 683e
00000300: 5858 253e 1519 2c3d 4e03 9bbe 2a0f 4d3e
00000310: 76b5 fabd 090a e33c 69f1 d9be f6c2 16be
00000320: 44d4 0fbe dd65 66be 8d59 74be 3a72 b83d
00000330: 58d0 a23d f77c d2bd 1809 a7bd bb1a 9abd
00000340: 2c36 ebbd a189 dcbe f11d d03d 222c 963b
00000350: 9c5d 883e 4820 69be 5fbd 673e 6bf1 edbe
00000360: 2e1f c9bd 36d9 07be 1c7c 88be 6419 273e
00000370: 380c e83d d5e7 dfbd 6fdf 053e b3a4 e83d
00000380: f83d 4fbd f911 0fbe f8e0 b9be 9a1d b83e
00000390: ff84 a8bd 8fd8 29bd d1da e23d b792 793e
000003a0: 1be1 9cbe 7fec 62be 82ad a8be 567e 8ebd
000003b0: 88b4 a93d 0323 fa3d 1709 423f ae57 f8bd
000003c0: f4fd df3c 9442 903c 06b8 36be 7aba 2dbe
000003d0: 013b c83c 7600 a2be 4d25 663e 5fe5 f03c
000003e0: b9ce a13d 3c9e 32bc da93 033e 7758 6cbe
000003f0: 8ae9 943c beb3 f7be 1bca 95be ec33 473d

network_body._body_endoder.seq_layers.2.bias f4 [64]
-0.23454663 0.026111672 0.4476631 0.1518349 0.09083459 -0.21793897 -0.27864796 0.39199018
0.25679666 0.07941057 0.31128043 0.43119887 0.110528775 0.1391052 0.23270144 -0.18856719
0.42802683 0.19903226 -0.20966458 0.040167183 0.85945857 -0.3022755 0.11150862 -0.1814539
-0.06942327 0.31194457 -0.299623 0.34638712 -0.28602973 -0.28272688 -0.23691557 -0.05199342
0.14218962 0.4342665 -0.115666196 -0.19383757 -0.19277903 0.74059755 0.11123962 0.23665617
-0.017828252 0.28995845 0.39123684 0.33477396 -0.3292719 0.04831016 0.267998 -0.32586017
0.4051315 0.06681148 -0.09712157 -0.28090435 -0.28913212 0.31171316 0.05109676 -0.15264826
-0.34271708 -0.17842983 0.45039883 -0.03369959 -0.010211552 -0.016967367 0.1795827 0.18058135
00000000: fe2c 70be 25e8 d53c 1934 e53e 9c7a 1b3e
00000010: 7c07 ba3d 652b 5fbe f2aa 8ebe f0b2 c83e
00000020: da7a 833e 02a2 a23d 2660 9f3e 19c6 dc3e
00000030: e95c e23d 9871 0e3e 4949 6e3e c217 41be
00000040: 5526 db3e 1dcf 4b3e 50b2 56be 5886 243d
00000050: 7a05 5c3f dbc3 9abe a25e e43d 0dcf 39be
00000060: ca2d 8ebd 33b7 9f3e 3068 99be a759 b13e
00000070: 7d72 92be 94c1 90be ff99 72be 0df7 54bd
00000080: 289a 113e 2e58 de3e 66e2 ecbd 5b7d 46be
00000090: de67 45be cd97 3d3f 99d1 e33d ff55 723e
000000a0: 8e0c 92bc 6f75 943e 3250 c83e 7e67 ab3e
000000b0: 5496 a8be e0e0 453d 0937 893e 25d7 a6be
000000c0: 656d cf3e 75d4 883d ace7 c6bd b2d2 8fbe
000000d0: 2009 94be de98 9f3e d64a 513d d34f 1cbe
000000e0: 9d78 afbe 4fb6 36be ad9a e63e 9508 0abd
000000f0: 5a4e 27bc 26ff 8abc 87e4 373e 51ea 383e

action_model._discrete_distribution.branches.0.weight f4 [6, 64]
-0.027867932 -0.01992478 0.16518617 -0.122063376 0.0662245 -0.40112397 -0.12093559 0.01964115
0.16470973 0.043327563 0.18469824 -0.040613268 -0.0095283 0.039090816 0.07039584 -0.04428306
0.14918973 -0.03237083 -0.18898349 0.105799325 -2.6081885e-05 -0.23181325 -0.08891645 -0.18858206
-0.18019646 0.04327343 -0.3189836 0.013889942 -0.0026898447 0.23061116 -0.06586732 -0.22809307
-0.085270256 0.21327522 0.0076616737 -0.019418601 0.0065766517 0.2133528 0.14827345 0.04642741
0.10149912 -0.13424304 0.039095372 -0.113778464 -0.144652 -0.13781011 -0.047769964 -0.19870245
-0.19905587 -0.0840904 0.009738875 -0.36068502 -0.04011153 -0.020064631 -0.061102632 -0.013410722
-0.21798891 -0.08108431 0.066990174 0.10224905 -0.12295672 -0.09015374 0.012449334 -0.040994998
0.10608028 0.070673645 -0.020624433 0.10973518 -0.18623863 0.23408522 0.085275374 -0.0939584
0.008037495 0.0560443 -0.21184362 0.0793524 0.041032158 0.13635519 0.1755864 -0.04017778
-0.07513158 -0.19229014 0.36266974 -0.01673166 -0.1426747 0.23382498 0.058178663 0.015856646
0.013148318 0.020701788 0.13356692 -0.026174389 0.016220517 -0.1648263 0.18102774 0.20363449
-0.02237968 -0.3805422 -0.09198753 0.02532084 0.06017128 0.06998509 0.02850162 0.077039786
0.33070686 0.071878344 -0.042846166 0.08837707 0.0610603 0.27531376 -0.055431187 0.24154496
0.15065388 0.023537196 -0.112162784 0.36791328 -0.023823284 -0.12352319 0.19949059 -0.047825634
0.37244546 0.0053270184 0.014072968 -0.16130203 0.03335232 -0.09082938 0.05853939 0.1378259
-0.013353474 0.019148536 0.06236281 0.08814202 -0.09303191 -0.600758 -0.2963701 0.11216765
0.07489686 0.15783338 -0.14313442 0.26281312 -0.10564886 0.011926041 -0.02038907 0.009610717
0.05385129 0.02671283 -0.20807911 -0.07827274 0.39343727 -0.47260633 0.044394694 0.17335138
-0.07857369 0.061921023 -0.0023793927 0.09932657 0.057685018 -0.3567859 -0.27728018 -0.047642883
0.1122283 0.030749502 0.0508179 -0.07521422 0.067407794 0.090710856 -0.11351631 0.18583162
-0.2337746 0.11179098 0.12274551 0.21331957 0.08120567 -0.03866052 0.14771315 -0.49594703
0.04908326 0.20472515 -0.04778512 -0.7770054 -0.39537102 0.0040002456 -0.056530472 -0.066849776
-0.6242059 -0.05697192 0.16350906 -0.120110855 0.08845092 0.03414795 0.09800927 -0.019478165
0.13668409 -0.12379714 -0.29900154 -0.03798456 -0.03559007 0.12995876 0.19702905 0.06700792
-0.2655486 -0.057482168 -0.20818762 0.103448294 -0.13520767 -0.067610145 -0.19315231 0.11325287
-0.0960222 0.112923495 -0.08832262 -0.35735583 0.09738755 0.008785572 -0.15337723 0.019055193
0.20759456 -0.33072573 -0.15657982 -0.027046904 0.13326041 0.32582477 -0.20230737 0.04712952
-0.0016959425 -0.10290757 0.16601357 -0.022086196 0.035394404 -0.31771162 -0.5380504 -0.13114856
0.13965523 -0.005468927 -0.06102139 -0.12982512 -0.14705868 -0.028667448 0.12048324 0.3324255
-0.27164814 -0.05796851 -0.035616938 0.34621337 -0.061731007 0.008740175 0.011415034 -0.07785013
0.15023072 -0.03291983 -0.0682483 -0.043029614 0.13624041 -0.040803626 -0.028999845 -0.2136576
00000000: 4a4b e4bc 4b39 a3bc 9026 293e 5dfc f9bd
00000010: b6a0 873d 1f60 cdbe 14ad f7bd 7ae6 a03c
00000020: aba9 283e 3e78 313d 8921 3d3e 195a 26bd
00000030: 961c 1cbc b11d 203d b22b 903d 2762 35bd
00000040: 31c5 183e 4797 04bd e384 41be 51ad d83d
00000050: 6cca dab7 7460 6dbe d419 b6bd a81b 41be
00000060: 6c85 38be 7b3f 313d d251 a3be a492 633c
00000070: 1b48 30bb 5525 6c3e 72e5 86bd 3b91 69be
00000080: 2ca2 aebd d264 5a3e c70e fb3b c213 9fbc
00000090: f480 d73b 2879 5a3e ffd4 173e ab2a 3e3d
000000a0: c5de cf3d 0277 09be 7822 203d af04 e9bd
000000b0: a71f 14be 181e 0dbe 70aa 43bd a878 4bbe
000000c0: 4dd5 4bbe 9637 acbd cd8f 1f3c b5ab b8be
000000d0: fd4b 24bd 955e a4bc c146 7abd a5b8 5bbc
000000e0: 7c38 5fbe 880f a6bd 2532 893d f367 d13d
000000f0: bcd0 fbbd 86a2 b8bd 4bf8 4b3c 5fea 27bd
00000100: 9e40 d93d 58bd 903d 92f4 a8bc d7bc e03d
00000110: 57b5 3ebe 09b4 6f3e dba4 ae3d 436d c0bd
00000120: b3af 033c b58e 653d 89ed 58be 8383 a23d
00000130: 5611 283d b2a0 0b3e eccc 333e 7591 24bd
00000140: 96de 99bd b5e7 44be d9af b93e d610 89bc
00000150: 5119 12be d16f 6f3e c04c 6e3d cce5 813c
00000160: 0b6c 573c cc96 a93c c4c5 083e ac6b d6bc
00000170: e4e0 843c 3ac8 28be 565f 393e 8f85 503e
00000180: 9755 b7bc 6dd6 c2be f563 bcbd a66d cf3c
00000190: 2976 763d 5854 8f3d 3b7c e93c 09c7 9d3d
000001a0: 6952 a93e f434 933d 767f 2fbd 0aff b43d
000001b0: 5d1a 7a3d edf5 8c3e d00b 63bd 9057 773e
000001c0: 0345 1a3e 14d1 c03c 9ab5 e5bd 215f bc3e
000001d0: 0c29 c3bc baf9 fcbd 4347 4c3e d0e4 43bd
000001e0: 2cb1 be3e 458e ae3b 4e92 663c 5c2c 25be
000001f0: 719c 083d c104 babd 00c7 6f3d 3c22 0d3e
00000200: 88c8 5abc 64dd 9c3c 2570 7f3d ce83 b43d
00000210: 8487 bebd 47cb 19bf d2bd 97be 27b8 e53d
00000220: 8663 993d 139f 213e d491 12be 718f 863e
00000230: 6e5e d8bd 7165 433c fb06 a7bc 4576 1d3c
00000240: 2c93 5c3d ddd4 da3c b112 55be 754d a0bd
00000250: 9c70 c93e 75f9 f1be 36d7 353d 0683 313e
00000260: 3eeb a0bd e6a0 7d3d 96ef 1bbb bb6b cb3d
00000270: 2047 6c3d a4ac b6be abf7 8dbe 2f25 43bd
00000280: f3d7 e53d 61e6 fb3c 6e26 503d ea09 9abd
00000290: 190d 8a3d 9dc6 b93d 3d7b e8bd a54a 3e3e
000002a0: 9c62 6fbe abf2 e43d ff61 fb3d 7270 5a3e
000002b0: 294f a63d 7e5a 1ebd 1e42 173e c5ec fdbe
000002c0: 870b 493d 78a3 513e 54ba 43bd d3e9 46bf
000002d0: 126e cabe 7e14 833b 7f8c 67bd 89e8 88bd
000002e0: f5cb 1fbf 635b 69bd eb6e 273e aefc f5bd
000002f0: c225 b53d b9de 0b3d 16b9 c83d ac90 9fbc
00000300: eaf6 0b3e 5b89 fdbd bb16 99be b395 1bbd
00000310: e5c6 11bd e913 053e fcc1 493e 733b 893d
00000320: fcf5 87be 6c72 6bbd 232f 55be b3dc d33d
00000330: e173 0abe 3077 8abd b8c9 45be 1ff1 e73d
00000340: 4aa7 c4bd 6f44 e73d 7de2 b4bd 58f7 b6be
00000350: 2073 c73d 5cf1 0f3c ec0e 1dbe a319 9c3c
00000360: ab93 543e e254 a9be 7656 20be 7891 ddbc
00000370: 6b75 083e 81d2 a63e aa29 4fbe e20a 413d
00000380: 634a deba 34c1 d2bd 76ff 293e 1cee b4bc
00000390: b9f9 103d 19ab a2be acbd 09bf cf4b 06be
000003a0: c801 0f3e af34 b3bb 91f1 79bd e0f0 04be
000003b0: 8d96 16be ffd7 eabc ebbf f63d ad33 aa3e
000003c0: 7715 8bbe 6370 6dbd 11e3 11bd e142 b13e
000003d0: a7d9 7cbd f332 0f3c 1f06 3b3c e46f 9fbd
000003e0: 15d6 193e f2d6 06bd c4c5 8bbd d23f 30bd
000003f0: 9b82 0b3e b421 27bd 1591 edbc 0fc9 5abe

action_model._discrete_distribution.branches.0.bias f4 [6]
0.16205618 -0.21341313 0.33029044 -0.11924333 0.005948109 -0.08303909
00000000: 0ef2 253e f988 5abe d41b a93e d935 f4bd
00000010: 5be8 c23b 6610 aabd

onnx::Div_164 f4 [3]
0.29025748 0.22489506 1.5964328
00000000: a19c 943e e44a 663e e957 cc3f

onnx::MatMul_166 f4 [130, 128]
0.032770745 0.006822738 -0.17446391 -0.1972897 0.030632265 -0.032218233 -0.12086924 0.06355684
-0.030090114 -0.06384379 0.026522031 -0.14182842 0.19486016 -0.037220497 -0.08266655 -0.2232387
-0.17235626 0.115641214 -0.17321528 -0.1332575 0.06790945 -0.051490877 -0.16138366 -0.1557509
-0.22361305 0.06170813 -0.17579128 -0.14790925 0.16053613 -0.17850225 0.18855304 -0.17155704
-0.27572408 0.005365338 -0.0641554 -0.077926375 -0.0084848665 0.10859986 -0.104787186 -0.008536129
-0.0065208822 -0.14219986 -0.0055595725 0.0007657606 0.13646612 0.1169955 -0.26695403 -0.016107505
-0.19888158 0.15898848 -0.11467111 0.022414915 0.14020593 -0.18602706 -0.13857049 -0.2558028
-0.035626028 0.13625315 -0.12172117 0.047194395 0.19710375 0.17448522 0.0009785477 -0.17499538
-0.14697522 0.035551563 -0.0060700383 0.1459171 -0.0884785 -0.022998113 -0.1394854 -0.071885206
-0.15516816 -0.15507801 -0.088905334 -0.03962594 0.23048426 0.045703992 0.011611219 -0.18628502
-0.24313323 -0.058385346 0.051097196 -0.088035055 -0.033388674 -0.028325923 -0.09789664 -0.19359826
-0.015630359 0.049068976 -0.16726252 -0.047815863 -0.08159993 0.017796578 -0.114111125 -0.04762105
-0.12964407 -0.090524025 0.09419786 0.05374253 -0.08586605 0.045423135 -0.19238847 0.14909653
-0.18236555 0.03522631 0.16547947 0.14727855 -0.042301953 -0.31767455 -0.02540734 0.1854457
0.089798614 -0.17533599 0.15157449 0.08706076 0.038779903 -0.08289342 -0.04058166 -0.08528814
0.014315134 -0.24388666 0.094641834 0.054232016 0.08566434 -0.04059768 0.016637947 -0.15297045
0.04316438 0.030824112 -0.03328548 -0.055924468 0.12729205 0.086053036 -0.07722388 0.026449889
0.070932485 -0.048575737 0.08856045 0.026874103 0.11836423 -0.46565682 -0.03382904 0.059536234
-0.0061505246 0.09752082 0.092176646 -0.16298485 -0.03966605 -0.11296554 -0.022182465 0.06379441
-0.42140487 0.15636894 -0.2559958 -0.26996726 0.08376735 -0.15220127 -0.020719117 -0.35825816
-0.3692968 -0.32690895 -0.37606797 -0.20760457 0.06361567 -0.078400955 0.088676505 -0.1302886
-0.037720982 -0.14648682 0.006820275 0.07260564 0.16081715 0.043453895 -0.2603339 0.013557503
-0.008467671 0.122372694 -0.20340277 0.16680647 0.23364899 0.103683054 -0.36198097 0.03232172
0.099339716 0.17405783 0.040251482 -0.07799493 0.1360802 0.049070403 0.03561535 -0.047580395
0.06773711 0.07706737 0.07713147 0.18134773 -0.17264108 -0.011639042 0.14644101 -0.023833591
0.028494734 0.012680079 -0.032342065 -0.07869788 0.02147072 0.12700063 0.05723882 0.012888946
-0.15430842 -0.31507903 -0.03580185 -0.030616863 -0.033285175 0.009760917 -0.001823454 -0.07835422
0.13137454 0.083464414 -0.12125511 0.15319091 0.022747032 0.090538755 -0.032987226 0.013438357
-0.0623148 -0.16597603 0.16669743 0.08140535 -0.08799051 -0.02926733 0.074786104 0.17324482
0.028759552 0.17747843 0.01834727 0.10421441 -0.07927581 -0.16331594 -0.036348972 0.045918968
0.24492091 -0.06283217 0.012990884 0.08039644 0.036164444 -0.10663144 0.06107687 -0.16302235
0.06992746 -0.26125714 0.08710464 0.1697242 0.17844574 -0.1761394 0.020289702 0.10889581
00000000: 9e3a 063d 4691 df3b aba6 32be 5006 4abe
00000010: 84f0 fa3c 44f7 03bd 4b8a f7bd 172a 823d
00000020: 8b7f f6bc 88c0 82bd bb44 d93c 783b 11be
00000030: 6c89 473e 8574 18bd 154d a9bd b098 64be
00000040: 297e 30be 4dd5 ec3d 595f 31be a774 08be
00000050: 1c14 8b3d 19e8 52bd c241 25be 2a7d 1fbe
00000060: d2fa 64be aac1 7c3d a102 34be 8675 17be
00000070: 9563 243e 4bc9 36be 0c14 413e a6ac 2fbe
00000080: b52b 8dbe b8cf af3b e863 83bd dd97 9fbd
00000090: 1c04 0bbc 9a69 de3d aa9a d6bd 1fdb 0bbc
000000a0: 20ad d5bb d79c 11be 132d b6bb 53bd 483a
000000b0: c6bd 0b3e 569b ef3d 33ae 88be e3f3 83bc
000000c0: 9da7 4bbe e0cd 223e b0d8 eabd 7c9f b73c
000000d0: 2592 0f3e e17d 3ebe 6ce5 0dbe 96f8 82be
000000e0: 99ec 11bd f285 0b3e f348 f9bd e94e 413d
000000f0: 91d5 493e 41ac 323e 9d42 803a fd31 33be
00000100: ac80 16be 849e 113d 2ce7 c6bb 4b6b 153e
00000110: 3734 b5bd 8a66 bcbc 43d5 0ebe 8d38 93bd
00000120: 67e4 1ebe c5cc 1ebe 0014 b6bd cf4e 22bd
00000130: 1104 6c3e 1c34 3b3d fb3c 3e3c 80c1 3ebe
00000140: ebf7 78be 7925 6fbd 4b4b 513d b94b b4bd
00000150: 90c2 08bd c40b e8bc 097e c8bd 9f3e 46be
00000160: 3d0b 80bc 8dfc 483d de46 2bbe 91da 43bd
00000170: dd1d a7bd 21ca 913c 18b3 e9bd 4a0e 43bd
00000180: 6ac1 04be a964 b9bd cfea c03d 2121 5c3d
00000190: 8ada afbd 9c0d 3a3d 7c01 45be c3ac 183e
000001a0: 09be 3abe 7749 103d 7373 293e 30d0 163e
000001b0: d044 2dbd 3da6 a2be 0e23 d0bc 7ae5 3d3e
000001c0: 56e8 b73d 478b 33be 5836 1b3e e94c b23d
000001d0: add7 1e3d 06c4 a9bd f438 26bd 8cab aebd
000001e0: 068a 6a3c 6dbd 79be 94d3 c13d 6422 5e3d
000001f0: c970 af3d c149 26bd 4e4c 883c 49a4 1cbe
00000200: 22cd 303d d982 fc3c 5b56 08bd 0e11 65bd
00000210: d958 023e 933c b03d 8e27 9ebd 70ad d83c
00000220: 0d45 913d 5af7 46bd 2e5f b53d 1427 dc3c
00000230: f268 f23d 926a eebe 5290 0abd 44dc 733d
00000240: 578a c9bb ffb8 c73d 1cc7 bc3d 80e5 26be
00000250: de78 22bd 7a5a e7bd 00b8 b5bc a5a6 823d
00000260: 61c2 d7be 2e1f 203e e211 83be 2639 8abe
00000270: 378e ab3d a6da 1bbe 23bb a9bc 9d6d b7be
00000280: 7814 bdbe 9c60 a7be fb8b c0be 4b96 54be
00000290: ef48 823d ae90 a0bd 079c b53d 606a 05be
000002a0: 5181 1abd a400 16be 9d7c df3b 44b2 943d
000002b0: 40ad 243e b6fc 313d 7c4a 85be 4a20 5e3c
000002c0: fdbb 0abc 899e fa3d d148 50be 51cf 2a3e
000002d0: ae41 6f3e c857 d43d 9255 b9be c863 043d
000002e0: 9f72 cb3d 373c 323e bdde 243d cebb 9fbd
000002f0: 9c58 0b3e 0cfe 483d 67e1 113d a9e3 42bd
00000300: c1b9 8a3d 7fd5 9d3d 1bf7 9d3d 38b3 393e
00000310: d3c8 30be aeb1 3ebc a2f4 153e aa3e c3bc
00000320: ca6d e93c 1bc0 4f3c 1d79 04bd 5b2c a1bd
00000330: 5de3 af3c 740c 023e 4173 6a3d 282c 533c
00000340: 0703 1ebe 0a52 a1be f6a4 12bd 37d0 fabc
00000350: 0956 08bd 41ec 1f3c f700 efba 2d78 a0bd
00000360: 0c87 063e 64ef aa3d 9954 f8bd 14de 1c3e
00000370: fc57 ba3c 626c b93d 9d1d 07bd 8e2c 5c3c
00000380: ce3d 7fbd 9ff5 29be bbb2 2a3e d9b7 a63d
00000390: 5e34 b4bd 0ac2 efbc 7529 993d 1767 313e
000003a0: 2799 eb3c e8bc 353e 044d 963c 5d6e d53d
000003b0: 5b5b a2bd 4b3c 27be a9e2 14bd 8715 3c3d
000003c0: 8ccc 7a3e 27ae 80bd b7d7 543c e4a6 a43d
000003d0: 2b21 143d 9661 dabd bd2b 7a3d 55ef 26be
000003e0: 2136 8f3d 7fc3 85be eb63 b23d 2ecc 2d3e
000003f0: 7bba 363e e35d 34be 9736 a63c c404 df3d
