results/energy7/simple_deer.onnx (onnx, 499978 bytes, 13 tensors)

network_body.observation_encoder.processors.0.self_ent_encoder.seq_layers.0.bias f4 [128]
0.0 0.0 0.0 0.0 0.0 0.0 0.0 0.0
0.0 0.0 0.0 0.0 0.0 0.0 0.0 0.0
0.0 0.0 0.0 0.0 0.0 0.0 0.0 0.0
0.0 0.0 0.0 0.0 0.0 0.0 0.0 0.0
0.0 0.0 0.0 0.0 0.0 0.0 0.0 0.0
0.0 0.0 0.0 0.0 0.0 0.0 0.0 0.0
0.0 0.0 0.0 0.0 0.0 0.0 0.0 0.0
0.0 0.0 0.0 0.0 0.0 0.0 0.0 0.0
0.0 0.0 0.0 0.0 0.0 0.0 0.0 0.0
0.0 0.0 0.0 0.0 0.0 0.0 0.0 0.0
0.0 0.0 0.0 0.0 0.0 0.0 0.0 0.0
0.0 0.0 0.0 0.0 0.0 0.0 0.0 0.0
0.0 0.0 0.0 0.0 0.0 0.0 0.0 0.0
0.0 0.0 0.0 0.0 0.0 0.0 0.0 0.0
0.0 0.0 0.0 0.0 0.0 0.0 0.0 0.0
0.0 0.0 0.0 0.0 0.0 0.0 0.0 0.0
00000000: 0000 0000 0000 0000 0000 0000 0000 0000
00000010: 0000 0000 0000 0000 0000 0000 0000 0000
00000020: 0000 0000 0000 0000 0000 0000 0000 0000
00000030: 0000 0000 0000 0000 0000 0000 0000 0000
00000040: 0000 0000 0000 0000 0000 0000 0000 0000
00000050: 0000 0000 0000 0000 0000 0000 0000 0000
00000060: 0000 0000 0000 0000 0000 0000 0000 0000
00000070: 0000 0000 0000 0000 0000 0000 0000 0000
00000080: 0000 0000 0000 0000 0000 0000 0000 0000
00000090: 0000 0000 0000 0000 0000 0000 0000 0000
000000a0: 0000 0000 0000 0000 0000 0000 0000 0000
000000b0: 0000 0000 0000 0000 0000 0000 0000 0000
000000c0: 0000 0000 0000 0000 0000 0000 0000 0000
000000d0: 0000 0000 0000 0000 0000 0000 0000 0000
000000e0: 0000 0000 0000 0000 0000 0000 0000 0000
000000f0: 0000 0000 0000 0000 0000 0000 0000 0000
00000100: 0000 0000 0000 0000 0000 0000 0000 0000
00000110: 0000 0000 0000 0000 0000 0000 0000 0000
00000120: 0000 0000 0000 0000 0000 0000 0000 0000
00000130: 0000 0000 0000 0000 0000 0000 0000 0000
00000140: 0000 0000 0000 0000 0000 0000 0000 0000
00000150: 0000 0000 0000 0000 0000 0000 0000 0000
00000160: 0000 0000 0000 0000 0000 0000 0000 0000
00000170: 0000 0000 0000 0000 0000 0000 0000 0000
00000180: 0000 0000 0000 0000 0000 0000 0000 0000
00000190: 0000 0000 0000 0000 0000 0000 0000 0000
000001a0: 0000 0000 0000 0000 0000 0000 0000 0000
000001b0: 0000 0000 0000 0000 0000 0000 0000 0000
000001c0: 0000 0000 0000 0000 0000 0000 0000 0000
000001d0: 0000 0000 0000 0000 0000 0000 0000 0000
000001e0: 0000 0000 0000 0000 0000 0000 0000 0000
000001f0: 0000 0000 0000 0000 0000 0000 0000 0000

network_body.observation_encoder.x_self_encoder.seq_layers.0.weight f4 [128, 6]
-0.0007013708 0.015304375 -0.037243675 -0.003935961 0.0072061163 0.04527962 0.02644494 -0.024644218
-0.0026850195 -0.005705204 -0.00011981589 0.03876361 0.053491037 0.00406547 0.047570795 -0.060360346
0.067348264 0.0063549015 -0.005732696 0.0056736083 -0.01822568 0.0071801026 0.010970288 -0.0070310608
-0.04348168 -0.029438242 0.034777742 0.005821825 -0.048542842 -0.018106652 -0.015420885 0.03299306
0.009772272 -0.0012558551 -0.0063329274 0.028066091 -0.017744195 -0.007896009 -0.016131323 -0.03769126
0.06454782 0.03748286 0.05150808 -0.030076658 -0.04225792 0.017599015 -0.00094801985 -0.0013419184
0.039020125 0.03636919 -0.06579278 -0.08632044 -0.007714757 -0.0017063994 0.0651094 0.037431628
-0.02955402 0.011793536 0.035102367 -0.008785115 0.009435579 -0.012518244 0.0022010487 -0.024396833
0.041298147 -0.033166826 0.044427335 0.03946448 0.020579375 0.018063517 0.021256747 -0.002224037
-0.022376241 -0.047737412 -0.010236755 -0.053630214 0.039951265 -0.003691152 -0.024686541 -0.031120988
0.0018509835 -0.024355007 0.030057237 0.009823072 -0.0029508458 -0.038808364 -0.050699387 0.011953603
-0.046920154 0.04902712 -0.022082184 -0.06536876 -0.0025010994 0.00551511 0.052161004 0.08606066
0.036997695 0.05249941 -0.06736553 0.04326573 -0.0075637423 0.034839556 0.019631134 0.018368889
-0.0019913344 -0.008127523 0.032596637 -0.02091503 -0.036965217 0.01125602 -0.014867873 -0.0077955793
-0.0029588514 -0.038044054 -0.036592003 -0.011805406 -0.025809612 0.0022859292 0.04595282 -0.01129399
-0.007831782 -0.030058704 0.04742265 0.03383548 0.010029102 -0.020669531 0.025943574 -0.051374953
0.024340628 -0.014305814 0.046341337 0.0022898405 0.04115905 -0.025942005 -0.034144968 0.035532996
-0.019278973 -0.015713377 0.00032312356 -0.013037913 0.07497876 0.05681966 0.004585603 0.034423705
0.030450705 -0.042932384 0.0004137062 0.063022785 -0.023801534 0.028497338 -0.013243385 0.04661401
-0.02078032 -0.013293096 0.036949005 -0.030723585 -0.027913488 -0.04119359 -0.06557419 -0.019838719
0.087317735 -0.028572492 -0.03231963 -0.029857747 -0.021259526 0.03656529 -0.055321474 0.022181453
0.010904095 0.0141167985 -0.05805143 0.044985246 0.021294424 0.037774976 0.013765875 -0.040446334
-0.046860535 -0.002890369 0.004895428 -0.0036553384 0.0138574485 -0.027743978 -0.011574377 -0.036510963
0.0003804811 -0.035690606 -0.032885615 -0.0014601502 0.02888731 0.05131255 0.049240142 -0.013536182
-0.029510265 0.00080358965 -0.042232502 0.07245641 -0.006245946 0.0039742826 0.0153741315 -0.030922633
-0.027337447 0.020211847 -0.027987303 0.040206037 0.029590754 -0.044246018 -0.036408335 0.006236595
0.032361437 0.01867174 0.06179359 0.007626013 -0.0062784213 -0.03173872 -0.033694673 0.031771
0.008040114 -0.049351096 0.014861236 -0.0076468945 -0.006358243 -0.05189951 0.001908763 0.015088011
0.0031789495 -0.010019589 0.023522059 -0.07678039 -0.042575043 -0.016569592 0.043143947 0.027555086
-0.019429097 0.057119668 0.10677547 -0.018551616 -0.0356018 -0.035618715 -0.002060157 0.015802432
0.012320014 -0.012061944 -0.020484367 -0.007265518 -0.040901083 0.005342025 0.012726377 0.01903781
0.02943648 -0.033748668 -0.0020039817 -0.0082817925 0.02728499 0.027960386 0.015569995 0.0302915
00000000: 33dc 37ba 34bf 7a3c d38c 18bd 3cf9 80bb
00000010: 4921 ec3b 1f77 393d 0fa3 d83c ace2 c9bc
00000020: 27f7 2fbb b8f2 babb ab45 fbb8 97c6 1e3d
00000030: 6b19 5b3d a237 853b 98d9 423d 693c 77bd
00000040: e3ed 893d c73c d03b 57d9 bbbb ade9 b93b
00000050: 054e 95bc 1147 eb3b b9bc 333c d064 e6bb
00000060: d919 32bd 7828 f1bc 1b73 0e3d 02c5 be3b
00000070: dcd4 46bd 6754 94bc e1a7 7cbc bb23 073d
00000080: e11b 203c 819b a4ba 7284 cfbb dcea e53c
00000090: 465c 91bc 435e 01bc d625 84bc 2762 1abd
000000a0: a631 843d a187 193d 23fa 523d 5363 f6bc
000000b0: a416 2dbd cf2b 903c 8984 78ba 4fe3 afba
000000c0: 91d3 1f3d dcf7 143d 5dbe 86bd c5c8 b0bd
000000d0: 13cc fcbb 43a9 dfba 1458 853d e851 193d
000000e0: 461b f2bc ad39 413c 80c7 0f3d 71ef 0fbc
000000f0: b097 1a3c 5219 4dbc 783f 103b dedb c7bc
00000100: 3f28 293d f0d9 07bd 70f9 353d 82a5 213d
00000110: 1496 a83c f1f9 933c a122 ae3c 26c1 11bb
00000120: 614e b7bc 4e88 43bd 10b8 27bc 5bab 5bbd
00000130: f0a3 233d 41e7 71bb 6e3b cabc 71f1 febc
00000140: b39c f23a 2784 c7bc 983a f63c f3f0 203c
00000150: fa62 41bb 85f5 1ebd 29aa 4fbd 0bd9 433c
00000160: 592f 40bd a9d0 483d b2e5 b4bc 0ee0 85bd
00000170: 7ce9 23bb 19b8 b43b c7a6 553d 9240 b03d
00000180: e58a 173d 9f09 573d f0f6 89bd 6837 313d
00000190: 45d9 f7bb ecb3 0e3d 79d1 a03c 5a7a 963c
000001a0: 0c81 02bb 4d29 05bc 0d84 053d ff55 abbc
000001b0: d768 17bd 2b6b 383c 6198 73bc 0f72 ffbb
000001c0: 4ae9 41bb 15d4 1bbd 7fe1 15bd 766b 41bc
000001d0: ae6e d3bc 87cf 153b 0639 3c3d 6d0a 39bc
000001e0: e050 00bc ac3d f6bc 413e 423d 1397 0a3d
000001f0: 1a51 243c 2653 a9bc 9e87 d43c 8b6e 52bd
00000200: ff65 c73c ef62 6abc 6ad0 3d3d 2611 163b
00000210: 6496 283d 5484 d4bc 98db 0bbd 0c8b 113d
00000220: f0ee 9dbc 57b9 80bc e968 a939 f89c 55bc
00000230: 778e 993d bbbb 683d d342 963b dfff 0c3d
00000240: c273 f93c ded9 2fbd b5e6 d839 1712 813d
00000250: 6ffb c2bc 4073 e93c c8fa 58bc 55ee 3e3d
00000260: 7d3b aabc 49cb 59bc d757 173d 07b0 fbbc
00000270: d4aa e4bc 9cba 28bd c34b 86bd cf84 a2bc
00000280: a4d3 b23d dc10 eabc 9761 04bd 3c98 f4bc
00000290: 7528 aebc 7cc5 153d c598 62bd e1b5 b53c
000002a0: 17a7 323c 254a 673c 56c7 6dbd 7342 383d
000002b0: a571 ae3c efb9 1a3d 448a 613c 0eab 25bd
000002c0: d5f0 3fbd 586c 3dbb d469 a03b 678e 6fbb
000002d0: 5a0a 633c 5747 e3bc 75a2 3dbc 858c 15bd
000002e0: 4f7b c739 5030 12bd 11b3 06bd 8362 bfba
000002f0: 14a5 ec3c 1c2d 523d 08b0 493d ddc6 5dbc
00000300: 83bf f1bc fda7 523a fdfb 2cbd 0764 943d
00000310: cbaa ccbb b33a 823b c8e3 7b3c 7651 fdbc
00000320: c8f2 dfbc 5193 a53c a145 e5bc 16af 243d
00000330: 4f68 f23c 503b 35bd e820 15bd 5a5c cc3b
00000340: 6d8d 043d 7af5 983c 471b 7d3d a2e3 f93b
00000350: 37bb cdbb 7600 02bd 6d03 0abd 4f22 023d
00000360: afba 033c 6024 4abd 8b7c 733c cd92 fabb
00000370: cf58 d0bb 9594 54bd 752f fa3a b433 773c
00000380: ec55 503b 3429 24bc 55b1 c03c 0a3f 9dbd
00000390: 2b63 2ebd f4bc 87bc b5b7 303d 34bb e13c
000003a0: c529 9fbc 50f6 693d 19ad da3d 8ff9 97bc
000003b0: 31d3 11bd eee4 11bd b303 07bb 1a74 813c
000003c0: e2d9 493c 769f 45bc d5ce a7bc 9513 eebb
000003d0: e587 27bd 270c af3b 4b82 503c 2ef5 9b3c
000003e0: c624 f13c 0b3c 0abd 3c55 03bb 5bb0 07bc
000003f0: c584 df3c 2e0d e53c 4b19 7f3c e125 f83c

network_body._body_endoder.seq_layers.0.weight f4 [128, 134]
0.0021985485 -0.021086361 -0.069613695 -0.19491163 -0.008028967 -0.013275129 0.0076714284 0.038381223
-0.061764985 0.09713498 -0.12700863 -0.0157278 -0.0047220862 -0.05634481 -0.055503577 -0.14241327
0.046891518 0.06801643 -0.07592534 0.03044423 0.15572964 0.008959348 -0.032412045 0.02247279
0.023279708 0.045679767 0.043093465 0.10325436 0.07605459 -0.083750986 0.026266819 0.12895559
-0.054966107 0.08104044 0.043407235 0.07298314 0.10032632 0.019950354 -0.17264493 0.020848766
-0.04109223 -0.100071155 0.06205532 -0.10743731 0.04281092 0.06859821 0.045394927 0.16176201
-0.15714574 0.0951464 0.08245146 -0.02461837 0.069589354 0.04466093 -0.06899323 0.08390214
-0.021593621 0.056214646 -0.047792353 -0.056793723 0.004963555 0.12209258 0.022441255 0.040551
0.077345476 -0.060239088 -0.10926227 0.10594222 0.08193325 0.046555 0.1268291 0.0127393715
0.030174296 0.09308229 -0.062012546 0.021028142 -0.0007919743 -0.064446665 -0.026813587 -0.057048228
-0.12678522 0.06467338 0.04686959 0.08753756 -0.04721564 0.044349663 -0.13055936 -0.0013601767
0.062878 -0.11702026 -0.06648359 -0.11053103 0.076764196 0.043362837 0.1280279 -0.20361628
0.10682499 0.04204962 -0.148008 0.124115 -0.012403326 -0.18642439 0.18554597 -0.053269412
0.2543276 0.08720199 0.071579374 -0.053954966 0.07454117 -0.08365504 0.07993766 0.02056287
-0.020315718 0.09098723 0.11513449 0.12116401 0.06344746 -0.0014206927 -0.016181314 0.16404721
0.06422576 0.11190479 0.10112983 0.0053303954 -0.1363583 -0.1047254 0.03327284 -0.08356032
0.13521382 -0.03636018 -0.0117925 0.019998966 -0.05748203 0.0146769965 -0.09081427 -0.15560988
0.03611808 0.12439543 -0.064795844 -0.097166754 0.041243862 -0.035825875 0.023926867 0.086149395
0.044985607 -0.13408247 -0.01831823 0.011161744 -0.09049036 -0.09141363 -0.0065616914 0.058740243
0.021531075 0.09422799 -0.04606601 -0.19457799 0.1477435 -0.108329736 -0.02411824 0.044081356
0.062110607 -0.090842105 0.08375831 0.09244937 0.044129808 0.025651397 0.09988574 -0.0047212783
0.04790142 -0.0059601064 -0.18741742 0.07110513 0.13610472 0.09282735 -0.17627025 0.02380227
-0.00906228 -0.0075011067 -0.008698968 0.0707937 0.07040337 0.18759087 -0.005257731 0.00033628836
-0.22627978 0.096584596 -0.052033283 0.1562339 -0.00056191004 0.05337775 0.113077365 -0.091246255
0.06596956 0.04327866 0.17967673 -0.008048153 0.019553915 0.25080857 0.06388789 -0.03854171
-0.025665447 0.066163234 -0.11366048 0.17574933 -0.026959408 -0.077504 -0.13693474 -0.002056626
0.11721531 -0.13544779 0.04237245 -0.044292416 -0.106512055 -0.033050958 0.1545512 -0.15377513
-0.06465535 -0.13330357 -0.069009244 0.21904781 0.015503833 0.07362861 0.13259183 0.0020813535
-0.056617163 -0.08289466 -0.03318022 0.026732111 0.043542903 0.05325688 0.09988106 0.039496567
0.15313758 0.032890253 0.06586575 0.09125644 0.12599947 -0.0010522365 0.067302465 0.08401606
-0.072405644 0.07414093 0.18198217 0.016193384 -0.0068551535 0.024194598 -0.138379 0.10019432
0.09237938 -0.13430467 -0.069930226 0.11894321 -0.10732773 0.06997276 0.014687138 0.093740515
00000000: 8615 103b 4ebd acbc a091 8ebd ea96 47be
00000010: ee8b 03bc ed7f 59bc 9b60 fb3b a135 1d3d
00000020: 48fd 7cbd b4ee c63d 8d0e 02be 96d7 80bc
00000030: bbbb 9abb d1c9 66bd b857 63bd c9d4 11be
00000040: 5211 403d 334c 8b3d bf7e 9bbd 2e66 f93c
00000050: 9777 1f3e 3bca 123c 7ec2 04bd db18 b83c
00000060: 16b5 be3c b51a 3b3d c682 303d 0677 d33d
00000070: 82c2 9b3d a385 abbd 832d d73c ef0c 043e
00000080: 2424 61bd 88f8 a53d c9cb 313d 2f78 953d
00000090: e377 cd3d ed6e a33c d5c9 30be 08cb aa3c
000000a0: 5350 28bd 1bf2 ccbd b82d 7e3d 1808 dcbd
000000b0: 815a 2f3d 387d 8c3d 08f0 393d f1a4 253e
000000c0: d0ea 20be 1edc c23d 50dc a83d 77ac c9bc
000000d0: dd84 8e3d 61ee 363d 534c 8dbd e3d4 ab3d
000000e0: 1be5 b0bc 5441 663d eac1 43bd 89a0 68bd
000000f0: 51a5 a23b ad0b fa3d b9d6 b73c ce18 263d
00000100: 4e67 9e3d 43bd 76bd e6c4 dfbd 3cf8 d83d
00000110: 9fcc a73d 75b0 3e3d 7ddf 013e ccb8 503c
00000120: 1630 f73c eda1 be3d de00 7ebd 3643 ac3c
00000130: 7f9c 4fba 9dfc 83bd 2ba8 dbbc 67ab 69bd
00000140: fcd3 01be 7a73 843d 54fa 3f3d e446 b33d
00000150: 3065 41bd fea7 353d 5ab1 05be f547 b2ba
00000160: 2ec6 803d 51a8 efbd 8c28 88bd 185e e2bd
00000170: 8c36 9d3d 3b9d 313d bf19 033e c980 50be
00000180: 0fc7 da3d 393c 2c3d 698f 17be 0130 fe3d
00000190: 5237 4bbc 09e6 3ebe c3ff 3d3e 0731 5abd
000001a0: 3a37 823e f596 b23d 3598 923d e2ff 5cbd
000001b0: 0aa9 983d 5553 abbd 5bb6 a33d 7773 a83c
000001c0: 266d a6bc 8357 ba3d a2cb eb3d d624 f83d
000001d0: bef0 813d 8936 baba ad8e 84bc fefb 273e
000001e0: cc88 833d 572e e53d 281d cf3d 99aa ae3b
000001f0: 83a1 0bbe 457a d6bd 1a49 083d ac21 abbd
00000200: 7e75 0a3e 69ee 14bd 5435 41bc dfd4 a33c
00000210: 4772 6bbd c977 703c d5fc b9bd 3258 1fbe
00000220: 8df0 133d 08c3 fe3d afb3 84bd 5dff c6bd
00000230: 53ef 283d 27be 12bd 4702 c43c 186f b03d
00000240: d442 383d ea4c 09be 1d10 96bc bfdf 363c
00000250: 0353 b9bd 1237 bbbd 7503 d7bb 9c99 703d
00000260: f061 b03c 9bfa c03d b6af 3cbd 743f 47be
00000270: 124a 173e fbdb ddbd 9e93 c5bc a78e 343d
00000280: b167 7e3d 6d0b babd 7a89 ab3d 1856 bd3d
00000290: 75c1 343d e122 d23c e590 cc3d f4b4 9abb
000002a0: 4834 443d ff4c c3bb 5aea 3fbe 919f 913d
000002b0: 095f 0b3e 441c be3d 3080 34be fafc c23c
000002c0: f579 14bc d8cb f5bb 1e86 0ebc 4afc 903d
000002d0: a42f 903d d217 403e 0b49 acbb dc4f b039
000002e0: e3b5 67be 25ce c53d da20 55bd c8fb 1f3e
000002f0: 254d 13ba a1a2 5a3d 1b95 e73d 51df babd
00000300: 0c1b 873d f744 313d 2dfd 373e 66dc 03bc
00000310: 882f a03c fb69 803e a7d7 823d e9dd 1dbd
00000320: 5840 d2bc 9780 873d d3c6 e8bd a2f7 333e
00000330: fad9 dcbc 6bba 9ebd 9f38 0cbe 75c8 06bb
00000340: 950e f03d d3b2 0abe bc8e 2d3d f76b 35bd
00000350: fe22 dabd 7160 07bd ab42 1e3e 3a77 1dbe
00000360: 066a 84bd bb80 08be b854 8dbd 124e 603e
00000370: ca03 7e3c 99ca 963d 27c6 073e 5167 083b
00000380: 66e7 67bd adc4 a9bd fbe7 07bd 4dfd da3c
00000390: 0b5a 323d e323 5a3d 718e cc3d 27c7 213d
000003a0: 19d0 1c3e eeb7 063d 9fe4 863d a8e4 ba3d
000003b0: 0106 013e 33eb 89ba e0d5 893d 9d10 ac3d
000003c0: 6949 94bd 33d7 973d 8959 3a3e fda7 843c
000003d0: 32a1 e0bb c033 c63c 39b3 0dbe ae32 cd3d
000003e0: 6631 bd3d 2a87 09be 9437 8fbd 7f98 f33d
000003f0: a4ce dbbd e14d 8f3d 52a2 703c 07fb bf3d

network_body._body_endoder.seq_layers.0.bias f4 [128]
-0.01693497 -0.019840635 -0.020121323 -0.008518075 0.016649878 0.055115897 -0.012966063 0.016604496
-0.0060265902 -0.0029380238 0.021830373 -0.037015926 0.007229632 -0.02727435 0.0226419 -0.010500844
0.0030211322 0.06291136 0.03566534 -0.07097874 -0.009699917 0.008055142 0.030381761 -0.014118284
0.0075738644 0.011997717 0.028388383 -0.026095932 0.057021163 0.031922743 -0.003154442 -0.005798249
0.047002662 0.009311148 0.038720924 0.008237509 0.025060847 0.017450366 -0.0048266035 0.030907976
-0.0041328343 0.007579376 0.012864303 -0.0068772878 0.029764172 0.012920779 0.049390692 0.02447085
0.007907924 -0.003273521 0.011705468 0.009278054 0.007488112 -0.0037534775 0.061748452 0.0059663146
-0.014798764 -0.054480016 -0.016399385 0.031905495 0.056176998 0.01413309 0.013258374 0.042994916
-0.031958807 0.033460595 -0.039069276 0.0043674773 0.0031533279 0.0273167 0.013887526 0.0097424975
-0.02091289 0.031029485 0.013892682 -0.008440767 0.028693521 0.05179255 0.012305518 -0.022343574
0.035628844 0.01257566 0.011101525 0.026394054 0.002929274 0.007531511 -0.011447097 0.0023961852
0.024751285 0.028159233 0.0054563633 0.037662666 -0.02644538 0.028991453 0.0074795294 -0.0015063527
-0.02052377 0.012021095 -0.0127102425 0.051215462 0.032562133 0.033431605 0.058951218 -0.034365144
-0.0014343151 0.0075427485 0.014723691 0.009044681 0.033070326 0.0034850063 0.014902462 0.012377978
0.054734714 0.02531307 0.0110730855 0.01229951 -0.012725033 0.024150858 0.0112164 0.0031600175
0.04154445 0.03033008 -0.0026196237 0.001247272 -0.008948219 0.0005118654 -0.0056966753 0.0015028057
00000000: 35bb 8abc d488 a2bc 79d5 a4bc 658f 0bbc
00000010: 5365 883c 35c1 613d 9c6f 54bc 2706 883c
00000020: b47a c5bb dc8b 40bb 9cd5 b23c 039e 17bd
00000030: 8de6 ec3b 756e dfbc 827b b93c bb0b 2cbc
00000040: 30fe 453b acd7 803d d215 123d 4d5d 91bd
00000050: 67ec 1ebc b7f9 033c 2ce3 f83c 6050 67bc
00000060: 2e2e f83b 1392 443c c18e e83c 23c7 d5bc
00000070: 068f 693d 6cc1 023d c1ba 4ebb 3dff bdbb
00000080: dd85 403d c98d 183c d599 1e3d 9ef6 063c
00000090: 684c cd3c 12f4 8e3c 7c28 9ebb b932 fd3c
000000a0: ba6c 87bb 6a5c f83b ccc4 523c df5a e1bb
000000b0: fed3 f33c adb1 533c e54d 4a3d 1877 c83c
000000c0: 3d90 013c 9288 56bb 4bc8 3f3c fb02 183c
000000d0: d65e f53b e7fc 75bb f2eb 7c3d 1381 c33b
000000e0: 8476 72bc 7026 5fbd 0158 86bc 56af 023d
000000f0: da19 663d 7a8e 673c a739 593c 701b 303d
00000100: 3de7 02bd fa0d 093d 1b07 20bd 0e1d 8f3b
00000110: 10a8 4e3b 46c7 df3c 8188 633c ff9e 1f3c
00000120: 8251 abbc 8c31 fe3c 229e 633c 254b 0abc
00000130: ad0e eb3c 6d24 543d 159d 493c df09 b7bc
00000140: 8def 113d 240a 4e3c 2ce3 353c 5838 d83c
00000150: 10f9 3f3b e5ca f63b 9b8c 3bbc 5109 1d3b
00000160: 35c3 ca3c 31ae e63c 4bcb b23b 2b44 1a3d
00000170: fba3 d8bc 7c7f ed3c d716 f53b cf70 c5ba
00000180: 7721 a8bc 20f4 443c 9f3e 50bc 4ec7 513d
00000190: df5f 053d 94ef 083d d576 713d 77c2 0cbd
000001a0: a1ff bbba 2929 f73b a33b 713c 2430 143c
000001b0: c074 073d b464 643b 7529 743c 01cd 4a3c
000001c0: 8231 603d 5b5d cf3c e36b 353c e283 493c
000001d0: a87c 50bc 05d8 c53c fec4 373c 4c18 4f3b
000001e0: 832a 2a3d ca76 f83c fead 2bbb 817b a33a
000001f0: 8d9b 12bc b52e 063a 2dab babb cbf9 c43a

network_body._body_endoder.seq_layers.2.weight f4 [128, 128]
-0.13721289 -0.035066828 0.0057285475 -0.03603041 -0.04462399 0.12371906 0.079313874 -0.05701467
-0.01479237 0.13367622 0.0149765 0.10263646 -0.103444576 -0.050415367 0.061987776 0.040737644
0.014190732 0.023243539 -0.009377887 0.16859177 -0.104039036 0.067071 0.0371997 0.020077845
-0.043625645 0.08492271 -0.014891448 0.090312675 0.09698868 0.08193906 0.029201435 0.08537371
-0.085766286 0.016733339 0.12976858 -0.0766579 -0.049340773 0.079732634 -0.07334492 -0.0240289
0.059172824 0.03462073 0.091659255 0.00825788 -0.0403232 -0.030128533 -0.11215167 0.04559931
-0.067460135 -0.10023255 0.08717159 -0.05966734 0.044277392 -0.08613895 0.13391595 0.008046797
0.056083992 -0.13531257 -0.076290295 0.08810451 0.010744724 0.037656788 0.027088044 0.20999001
-0.0006366705 0.09029064 0.19493598 -0.042979788 0.0036315601 0.0709777 0.0056472956 0.08773413
0.04447655 0.07110285 -0.07463219 0.028179975 0.13947627 -0.09662428 0.058896862 0.055211235
-0.14748847 0.028858919 -0.05479266 0.14460088 -0.1653882 -0.15348084 0.049495865 -0.06244323
-0.03212779 -0.057977132 -0.013616277 0.09421546 0.09140652 0.16669708 0.07645768 0.07896858
0.027092306 -0.12944317 -0.09604661 0.14445049 -0.02042298 -0.016960913 -0.050759546 0.041573096
-0.14201853 0.18456419 0.0031987217 0.06990674 0.114420354 -0.018132068 -0.03751388 0.06137891
0.011739077 -0.097233444 0.16847472 -0.14848192 0.0049789245 -0.051454447 0.09189441 0.026495725
0.11400822 -0.08552759 0.0043258565 -0.11004575 0.05124344 0.01136519 -0.09902202 -0.022160713
0.13087663 -0.041765247 0.12441738 -0.14002351 0.12346018 0.05853529 0.037761107 -0.056790393
0.007575833 -0.04860869 -0.10790591 -0.077892266 -0.021456672 -0.0082321465 -0.0045834933 0.05121593
-0.09643771 0.044835564 0.03296452 0.02031788 0.12084085 0.060602915 -0.023895316 0.17165312
-0.050864518 -0.054308638 0.007480884 -0.039541185 -0.029615812 -0.08704054 0.045482498 0.029065475
-0.103167415 -0.062247206 0.049235385 0.104064405 -0.06622289 0.04293016 -0.077966176 -0.046385318
-0.11458807 -0.17267135 0.06688311 -0.12571444 -0.07824767 -0.0058270763 -0.07613668 -0.060961794
0.09927899 0.027880074 0.005005128 -0.06422417 -0.0520559 0.05592238 0.020214198 -0.07612171
0.08319866 -0.0498205 0.12420073 0.1099282 0.17064875 -0.21592934 0.026580697 -0.0022374787
0.013802141 -0.057305373 0.016655587 0.1356351 0.042929076 -0.044259246 0.079699576 0.028739918
-0.079357035 -0.112692475 -0.09330489 -0.157837 -0.09424519 -0.010274792 -0.0806613 0.023891158
0.006300023 0.0015524253 -0.02960194 -0.05092419 -0.040448543 0.037159584 -0.1174829 -0.037417
0.033914044 -0.043722846 0.18773155 0.034516707 0.15925264 -0.04524964 0.07477735 0.042680535
0.041319635 0.08561198 0.068086915 -0.03984126 -0.18850681 -0.105190516 0.038253944 0.05064861
-0.17161362 0.0685441 0.09219596 0.10354936 -0.19770063 -0.07898517 0.049616218 0.064108975
0.059123326 -0.03382163 -0.010818615 -0.09619447 0.012348279 -0.012938714 -0.04803067 0.052674577
0.02552596 -0.11417552 -0.06265447 0.049576715 -0.01750481 0.0024430861 -0.12488022 -0.009259055
00000000: 8981 0cbe 3ca2 0fbd 8ab6 bb3b a094 13bd
00000010: a5c7 36bd 6b60 fd3d 506f a23d 3788 69bd
00000020: b25b 72bc 6be2 083e fe5f 753c 1033 d23d
00000030: c0da d3bd 5880 4ebd e5e6 7d3d 84dc 263d
00000040: 3e80 683c 3c69 be3c b5a5 19bc 52a3 2c3e
00000050: 6b12 d5bd 855c 893d b65e 183d 4b7a a43c
00000060: ceb0 32bd f5eb ad3d 43fb 73bc daf5 b83d
00000070: 00a2 c63d aacf a73d d937 ef3c 69d8 ae3d
00000080: 3ca6 afbd 5b14 893c 0ee2 043e d1fe 9cbd
00000090: 8d19 4abd dd4a a33d dd35 96bd 41d8 c4bc
000000a0: 345f 723d 77ce 0d3d d9b7 bb3d 0f4c 073c
000000b0: f129 25bd 1dd0 f6bc c6af e5bd 58c6 3a3d
000000c0: 8a28 8abd b946 cdbd 0587 b23d be65 74bd
000000d0: 365c 353d 9e69 b0bd 4321 093e b6d6 033c
000000e0: 54b8 653d 618f 0abe 163e 9cbd 2370 b43d
000000f0: a40a 303c 013e 1a3d bfe7 dd3c 9f07 573e
00000100: 3ce6 26ba 4dea b83d 4c9d 473e 930b 30bd
00000110: 78ff 6d3b c25c 913d f30c b93b f4ad b33d
00000120: 0b2d 363d 5f9e 913d c3d8 98bd b1d9 e63c
00000130: ded2 0e3e f3e2 c5bd d63d 713d 2d25 623d
00000140: 3807 17be 8a69 ec3c 456e 60bd 4112 143e
00000150: 865b 29be 152a 1dbe 2dbc 4a3d 79c4 7fbd
00000160: 6e98 03bd 6e79 6dbd ce16 5fbc 09f4 c03d
00000170: 5733 bb3d a4b2 2a3e d895 9c3d 47ba a13d
00000180: aff0 dd3c c08c 04be 16b4 c4bd d4ea 133e
00000190: 184e a7bc 9df1 8abc 3ee9 4fbd 8d48 2a3d
000001a0: 4e6d 11be 65fe 3c3e a5a1 513b 442b 8f3d
000001b0: 3855 ea3d b489 94bc 27a8 19bd 7468 7b3d
000001c0: 4255 403c 5422 c7bd a384 2c3e a50b 18be
000001d0: 3f26 a33b e6c1 52bd 2333 bc3d 900d d93c
000001e0: 247d e93d 1729 afbd eabf 8d3b ab5f e1bd
000001f0: a4e4 513d 1035 3a3c 0fcc cabd 628a b5bc
00000200: 8604 063e 0912 2bbd 8ace fe3d 5362 0fbe
00000210: b1d8 fc3d b3c2 6f3d 64ab 1a3d 0b9d 68bd
00000220: b13e f83b e819 47bd c6fd dcbd fb85 9fbd
00000230: e7c5 afbc 20e0 06bc 2131 96bb ccc7 513d
00000240: 2281 c5bd 7fa5 373d ce05 073d af71 a63c
00000250: 687b f73d c33a 783d 1cc0 c3bc d6c5 2f3e
00000260: 5057 50bd bc72 5ebd 3422 f53b f0f5 21bd
00000270: dc9c f2bc 5042 b2bd db4b 3a3d b81a ee3c
00000280: 7049 d3bd edf6 7ebd 0bab 493d b81f d53d
00000290: de9f 87bd 89d7 2f3d bbac 9fbd 88fe 3dbd
000002a0: 26ad eabd c2d0 30be 03fa 883d 49bb 00be
000002b0: 5040 a0bd 0ff1 bebb 8ced 9bbd 13b3 79bd
000002c0: c852 cb3d c164 e43c 0f02 a43b f687 83bd
000002d0: 9138 55bd de0e 653d 3f98 a53c b3e5 9bbd
000002e0: 0f64 aa3d 9510 4cbd f45c fe3d 0922 e13d
000002f0: 8cbe 2e3e 951c 5dbe c3bf d93c aaa2 12bb
00000300: 6022 623c 0ab9 6abd 4c71 883c ede3 0a3e
00000310: 66d6 2f3d 2f49 35bd 8839 a33d fa6f eb3c
00000320: f185 a2bd 50cb e6bd a216 bfbd 06a0 21be
00000330: 9f03 c1bd 9a57 28bc c031 a5bd 64b7 c33c
00000340: 6c70 ce3b c07a cb3a c57f f2bc e295 50bd
00000350: 5fad 25bd a634 183d e09a f0bd 9142 19bd
00000360: 74e9 0a3d ba16 33bd b33c 403e 6461 0d3d
00000370: 2013 233e b057 39bd de24 993d c9d1 2e3d
00000380: c73e 293d 5555 af3d 2771 8b3d 9730 23bd
00000390: ee07 41be 206e d7bd 2bb0 1c3d eb74 4f3d
000003a0: 7bbb 2fbe d960 8c3d 3cd1 bc3d b011 d43d
000003b0: 0972 4abe fac2 a1bd 603a 4b3d 914b 833d
000003c0: 4d2b 723d 8d88 0abd 8f40 31bc 9b01 c5bd
000003d0: 7050 4a3c e6fc 53bc cfbb 44bd 4cc1 573d
000003e0: d11b d13c dbd4 e9bd fd50 80bd f410 4b3d
000003f0: 3f66 8fbc 2f1c 203b 33c1 ffbd 4bb3 17bc

network_body._body_endoder.seq_layers.2.bias f4 [128]
0.0076667783 -0.03413009 -0.043286197 0.040712312 -0.03309685 -0.051388353 -0.02044883 -0.005077568
-0.04549827 0.04508706 0.026763093 -0.041685984 -0.060294844 -0.01540182 0.029762013 -0.0053480384
0.05606837 -0.012284716 0.0123990085 -0.015666474 -0.0022290763 0.039323628 -0.003975786 -0.013817313
-0.007252382 0.029783329 0.03245348 -0.0057698884 0.054062616 0.03544046 0.010984599 -0.02936109
-0.028187163 0.033150334 0.048790354 0.001989706 0.030967323 0.026351172 0.0005210743 0.037752483
-0.014033595 -0.007654343 0.038234394 -0.05514201 0.044574782 0.048010077 -0.0063821366 -0.0036155777
0.019932024 -0.03770794 0.019052345 -0.03469546 0.02644747 0.027448703 0.02796909 -0.0014928647
-0.029154552 0.008688534 0.015338382 -0.012132299 0.019747434 0.023742618 0.006154503 0.014692759
0.031723265 -0.005514663 -0.016127514 0.027971363 0.056204982 -0.041198015 -0.021499611 0.027725156
0.024074012 0.0016951872 0.017339857 0.046825092 0.022873959 0.051174857 0.014669153 -0.011091739
-0.004426235 -0.0021703567 0.065719 0.051891908 0.03428647 -0.012656974 0.0029472332 -0.013375825
0.011799647 -0.006176343 0.033525765 -0.018393744 0.009334049 -0.006173566 0.0055227554 -0.020105321
-0.028661544 -0.015429036 0.03898067 -0.018039608 -0.070156716 0.050199382 -0.036625147 0.018121019
-0.061508507 -0.0006033745 0.03486269 0.0065075667 0.010191239 -0.0645788 -0.009583382 0.036761012
0.0071165464 0.003828775 0.0119255185 0.030904353 -0.00387631 -0.016657248 0.031137599 0.009622115
-0.0234348 0.0151277995 -0.050576072 0.071045734 0.03383491 0.016784802 0.041184295 -0.029575815
00000000: 9939 fb3b fecb 0bbd de4c 31bd f4c1 263d
00000010: 9090 07bd 987c 52bd 4e84 a7bc ba61 a6bb
00000020: 655c 3abd 36ad 383d 463e db3c ecbe 2abd
00000030: baf7 76bd ea57 7cbc 77cf f33c 993e afbb
00000040: f2a7 653d d545 49bc 3625 4b3c fa56 80bc
00000050: b215 12bb d011 213d 4f47 82bb 0362 62bc
00000060: 64a5 edbb 2bfc f33c f1ed 043d 5511 bdbb
00000070: c370 5d3d 042a 113d bff8 333c ab86 f0bc
00000080: c4e8 e6bc a5c8 073d 65d8 473d ba65 023b
00000090: 2faf fd3c 6ade d73c b498 083a 59a2 1a3d
000000a0: 2aed 65bc 48d1 fabb ab9b 1c3d 97dc 61bd
000000b0: 0c94 363d 37a6 443d 3e21 d1bb 54f3 6cbb
000000c0: 7c48 a33c a473 1abd aa13 9c3c d41c 0ebd
000000d0: 5da8 d83c 1adc e03c 6f1f e53c 3aac c3ba
000000e0: 87d5 eebc 5a5a 0e3c d64d 7b3c 8dc6 46bc
000000f0: 5fc5 a13c e17f c23c b7ab c93b e6b9 703c
00000100: 41f0 013d 59b4 b4bb d91d 84bc 3324 e53c
00000110: 3237 663d 40bf 28bd f41f b0bc de1f e33c
00000120: dd36 c53c 0b31 de3a 510c 8e3c abcb 3f3d
00000130: 2b62 bb3c ba9c 513d e356 703c 20ba 35bc
00000140: f309 91bb 8b3c 0ebb af97 863d 9c8c 543d
00000150: f86f 0c3d 325f 4fbc 5e26 413b 4726 5bbc
00000160: 4e53 413c ec62 cabb 5052 093d 7aae 96bc
00000170: d7ed 183c a04b cabb 3bf8 b43b eab3 a4bc
00000180: 9dcb eabc 11ca 7cbc 32aa 1f3d cdc7 93bc
00000190: 53ae 8fbd de9d 4d3d 4004 16bd 8872 943c
000001a0: 58f0 7bbd c72b 1eba 2ecc 0e3d 6d3d d53b
000001b0: 28f9 263c e441 84bd 9e03 1dbc b792 163d
000001c0: eb31 e93b 2fec 7a3b 4063 433c 202b fd3c
000001d0: b109 7ebb c874 88bc 4714 ff3c 13a6 1d3c
000001e0: 56fa bfbc 97da 773c db28 4fbd 6d80 913d
000001f0: 7996 0a3d 4880 893c ddb0 283d fb48 f2bc

action_model._discrete_distribution.branches.0.weight f4 [8, 128]
-0.029355608 0.014158572 0.004367829 -0.014962173 -0.004065176 -0.0058033224 0.0038877928 -0.0004614263
0.0062081493 -0.0070874197 -0.043100063 0.040377904 0.016256493 0.0029922156 -0.008568651 0.014371658
-0.009264792 0.012227953 -0.0039901286 0.0044295527 0.014793553 -0.006476867 0.016414272 0.002423104
0.026770268 -0.0046642255 -0.035275005 0.020356247 -0.021609114 -0.039321627 -0.020412192 0.021024123
0.008654606 -0.009936919 -0.0017570505 0.009121684 -0.00696156 -0.010743186 -0.016586348 -0.01796695
-0.01706229 -0.011259623 0.0005428529 0.0045446595 -0.0026622533 -0.04052259 0.0009255595 -0.007682603
0.0016617 0.008807758 -0.03771876 0.015372607 -0.01871056 -0.017061431 -0.013543833 -0.010432197
-0.0027490482 0.011786564 -0.0006811691 0.008344485 -0.0067397202 0.0010123252 0.0023819578 -0.0097372895
-0.0023486686 -0.005364336 0.013721834 0.0017302752 -0.0056772213 0.037638623 -0.0005591398 -0.017170142
-0.0031777923 0.008001424 -0.017453594 -0.045864835 -0.023163619 -0.004369933 -0.013772888 0.00038695525
-0.010180619 -0.0078008887 -0.02000586 -0.008707054 -0.005476387 -0.022180011 -0.020914188 0.0006221167
9.809752e-05 0.0045348094 -0.030741328 0.037589952 0.0013742201 -0.00584432 -0.0072486764 0.011498543
-0.0013234075 0.00736068 -0.036774863 -0.010169557 0.025843028 -0.023661116 0.022264153 -0.015290483
0.027174696 0.009277003 -0.05302355 -0.0023915216 0.0013150183 0.03512075 -0.0023086516 -0.019873159
0.015257169 -0.016267845 -0.0038946546 -0.044447742 -0.0085262945 -0.011503234 -0.033239994 -0.015415604
0.016112374 -0.0058360314 0.027133329 -0.011022494 0.0067835297 0.0013942961 -0.0018720303 -0.021201447
-0.002855904 -0.0052065584 0.025239874 -0.024354246 -0.0074195787 -0.0036981015 -0.0051654354 -0.00065375137
0.0092752315 -0.0061383196 0.0053964574 0.032360498 0.049504884 0.0027498167 0.019987877 0.011246264
0.0017757188 0.008113616 0.0005663517 0.008559765 0.0005306854 -0.024159111 -0.013764785 -0.0033323392
-0.018907733 -0.015028159 0.0017127007 0.007382832 -0.025807677 -0.009436652 -0.020157993 0.01850205
0.01732704 -0.026145082 -0.0006435539 -0.008589988 -0.01285778 -0.0030642739 0.002254385 -0.008728001
-0.0143616395 -0.00031738306 0.015916545 0.013192426 -0.008262861 -0.0035666218 -0.0053977803 -0.0009227756
-0.0014296379 0.033676986 -0.029168952 0.010394513 -0.012407113 0.005018155 -0.017406594 0.00820241
-0.002354638 -0.0026734788 0.014986127 -0.0042296094 -0.018665774 -0.020337775 0.0011922005 -0.00559475
-7.602852e-05 -0.0049342406 0.00073769485 -0.0081940405 -0.006342094 0.03837279 0.0024847412 0.0039595463
-0.032813795 0.005814175 -0.003678198 -0.018266601 -0.02435223 -0.0050796005 -0.003640493 -0.0018656603
0.0005885372 -0.01750037 0.005224639 -0.0031899118 -0.029879704 -0.003185142 -0.005977308 0.042469323
-0.0078116045 0.020090338 0.0092300465 0.0037623416 -0.019195955 -0.0084818425 -0.013687042 0.012766734
0.002025878 -0.0022463347 -0.013033658 0.00046519682 0.04991548 -0.014014445 0.05138728 -0.005444931
0.030424792 0.008020361 0.006172986 -0.0020808526 -0.022165997 0.051353775 0.04403459 -0.014146952
-0.005244201 -0.006069719 -0.008451222 -0.0103897685 -0.0016394836 0.0075824987 -0.013773681 -0.018524142
0.019488793 -0.013221966 0.030032726 -0.0018030967 -0.0032501705 -0.009616742 -0.0060087824 0.004163297
00000000: 2c7b f0bc 5bf9 673c 0120 8f3b e723 75bc
00000010: 2b35 85bb cc29 bebb 57ca 7e3b 97eb f1b9
00000020: bb6d cb3b 963d e8bb b189 30bd 4d63 253d
00000030: 562c 853c 0c19 443b 8763 0cbc 1a77 6b3c
00000040: 5bcb 17bc c157 483c a0bf 82bb c825 913b
00000050: a960 723c e63b d4bb 3977 863c f0cc 1e3b
00000060: 524d db3c 5cd6 98bb 867c 10bd 25c2 a63c
00000070: 9905 b1bc b70f 21bd 7837 a7bc c83a ac3c
00000080: 0ccc 0d3c 76ce 22bc d54c e6ba 1e73 153c
00000090: cc1d e4bb 3004 30bc 18e0 87bc 6d2f 93bc
000000a0: 37c6 8bbc 487a 38bc 3e4e 0e3a 5eeb 943b
000000b0: 3379 2ebb 04fb 25bd 3fa1 723a 58be fbbb
000000c0: 66cd d93a 6a4e 103c fd7e 1abd 63dd 7b3c
000000d0: e346 99bc 6ac4 8bbc f4e6 5dbc ceeb 2abc
000000e0: 6029 34bb 6f1c 413c 7c90 32ba 4fb7 083c
000000f0: dfd8 dcbb ffaf 843a 9f1a 1c3b 2789 1fbc
00000100: 1fec 19bb 50c7 afbb 8bd1 603c 67ca e23a
00000110: fc07 babb f52a 1a3d 3d93 12ba 66a8 8cbc
00000120: 8242 50bb 6818 033c d7fa 8ebc c4dc 3bbd
00000130: a1c1 bdbc a831 8fbb aea7 61bc 41e0 ca39
00000140: 9ccc 26bc 999e ffbb 54e3 a3bc 08a8 0ebc
00000150: 4473 b3bb dbb2 b5bc 3b54 abbc 8c15 233a
00000160: b4b9 cd38 bd98 943b 3dd5 fbbc ecf7 193d
00000170: 2d1f b43a b681 bfbb 4e86 edbb 6364 3c3c
00000180: 3076 adba dc31 f13b 3da1 16bd 379e 26bc
00000190: c2b4 d33c f5d4 c1bc 5063 b63c ef84 7abc
000001a0: 789d de3c 92fe 173c 392f 59bd 13bb 1cbb
000001b0: b15c ac3a c7da 0f3d bf4c 17bb 09cd a2bc
000001c0: 34f9 793c 2544 85bc 763d 7fbb d60e 36bd
000001d0: dfb1 0bbc 0f78 3cbc a926 08bd bb91 7cbc
000001e0: 19fe 833c 2e3c bfbb b746 de3c b197 34bc
000001f0: 5f48 de3b d0c0 b63a ea5e f5ba a8ae adbc
00000200: 1e2a 3bbb c79b aabb dac3 ce3c 8e82 c7bc
00000210: f01f f3bb d95b 72bb d042 a9bb 8360 2bba
00000220: 24f7 173c f523 c9bb c4d4 b03b 718c 043d
00000230: a2c5 4a3d 4536 343b 9ebd a33c 4042 383c
00000240: 3cbf e83a f9ee 043c 3877 143a 423e 0c3c
00000250: b21d 0b3a 54e9 c5bc b185 61bc 6063 5abb
00000260: 64e4 9abc ab38 76bc b37c e03a afeb f13b
00000270: 9f6a d3bc 309c 1abc 6022 a5bc 9c91 973c
00000280: 70f1 8d3c 362e d6bc 2cb4 28ba 05bd 0cbc
00000290: 70a9 52bc fcd1 48bb 4ebe 133b e4ff 0ebc
000002a0: 154d 6bbc 6f66 a6b9 6a63 823c 0c25 583c
000002b0: f360 07bc fcbd 69bb dddf b0bb 6ce6 71ba
000002c0: b062 bbba e1f0 093d baf3 eebc bf4d 2a3c
000002d0: 3447 4bbc 566f a43b 4698 8ebc 6763 063c
000002e0: 4550 1abb 8835 2fbb 5f88 753c 8998 8abb
000002f0: f7e8 98bc 689b a6bc 9c43 9c3a 2a54 b7bb
00000300: 8071 9fb8 69af a1bb dd61 413a 4c40 06bc
00000310: 57d1 cfbb c92c 1d3d 0ad7 223b 15bf 813b
00000320: c267 06bd d684 be3b ec0d 71bb d7a3 95bc
00000330: 547e c7bc c772 a6bb 5695 6ebb 2c89 f4ba
00000340: 1048 1a3a f05c 8fbc 7333 ab3b d70d 51bb
00000350: 48c6 f4bc d1bd 50bb 4bdd c3bb 50f4 2d3d
00000360: 7df8 ffbb 7e94 a43c 9f39 173c 9e91 763b
00000370: d640 9dbc 6df7 0abc 9d3f 60bc 902b 513c
00000380: 98c4 043b 3e37 13bb 208b 55bc a9e5 f339
00000390: 2d74 4c3d d89c 65bc 787b 523d 646b b2bb
000003a0: 6a3d f93c d567 033c c246 ca3b ea5e 08bb
000003b0: 7795 b5bc 5658 523d 9d5d 343d 9ec8 67bc
000003c0: 8cd7 abbb 7ee4 c6bb ff76 0abc d939 2abc
000003d0: f1e3 d6ba 9c76 f83b 01ab 61bc f1bf 97bc
000003e0: f6a6 9f3c f2a0 58bc 3107 f63c e355 ecba
000003f0: d000 55bb 8a8f 1dbc 52e5 c4bb 446c 883b

action_model._discrete_distribution.branches.0.bias f4 [8]
-0.008024512 -0.042660262 0.08306667 0.002336552 -0.011900261 0.002215947 0.0007225122 -0.028995035
00000000: 3e79 03bc 87bc 2ebd dc1e aa3d d620 193b
00000010: 50f9 42bc 6c39 113b f966 3d3a ff86 edbc

onnx::MatMul_154 f4 [131, 128]
-0.015925433 -0.061399385 -0.010417272 0.031503625 -0.03079984 0.0035026085 0.0041495548 -0.08676669
-0.043645754 0.0031157937 0.011489666 0.007872175 0.030209085 0.043870535 -0.008555812 -0.021685587
-0.026830012 0.0055739745 -0.0012531234 0.032749187 0.01968522 -0.007980293 -0.014900375 0.05573143
-0.009150211 -0.003795217 -0.02104381 -0.03383518 -0.033866443 0.01129668 0.036716897 -0.05389031
0.019787135 -0.0044623287 -0.06615085 -0.030796109 0.047525086 0.01716631 0.030436678 0.012150237
-0.010858976 0.0050360854 -0.017545138 -0.06469766 -0.066613235 -0.010980329 0.058289904 0.01327917
-0.044117253 -0.05730793 -0.01770112 -0.0066630803 0.050910935 -0.05934858 -0.044931702 0.031976476
-0.041831903 0.04094349 0.026510626 -0.0074107307 0.015998708 -0.0015566824 0.043486133 -0.04597513
-0.01951307 -0.030527582 -0.009074892 0.014064926 0.0031358965 0.01836691 -0.039123677 -0.0009957107
0.024236957 -0.025168927 -0.02561357 -0.009236023 0.008122351 -0.0021116764 -0.006283769 -0.03230015
-0.023463942 -0.031103475 0.023511413 -0.057911973 -0.01975474 0.042159185 0.017660107 -0.0032664791
-0.0028036581 -0.00229363 -0.017879924 0.014486498 0.010107985 0.014187352 0.0052720364 -0.09257358
0.00125659 -0.02600832 0.03820081 -0.028564569 0.06330757 0.011829476 -0.03165724 0.047002673
-0.050017286 -0.03980179 0.006748591 -0.02897567 0.02863518 0.022243872 -0.02553968 -0.013510078
0.003335311 0.006556286 0.06421878 0.05772511 0.00823626 -0.02025691 0.047312234 0.019626286
-0.03845486 -0.036375016 -0.0078080753 -0.033777457 -0.029987201 -0.025387228 -0.0020426868 0.03594537
-0.041404516 -0.015065378 0.022429373 -0.0053828293 0.026230384 -0.041456006 -0.0032192275 0.024000697
-0.012535268 -0.0160046 0.028199788 -0.024560895 0.02403994 -0.004359944 0.046030484 0.004293003
-0.018526372 -0.08486329 -0.1064853 -0.030518772 -0.094495066 -0.081130736 -0.013294288 -0.04666518
-0.012818103 0.07597059 0.027056372 0.0074744564 -0.0072529083 0.03768876 -0.0064991447 -0.0102411695
0.02873587 -0.018978765 -0.012551891 -0.044887338 -0.019480655 0.027374383 0.03337162 0.0038111154
-0.00810993 -0.06118917 -0.053072892 0.066265956 0.00943785 -0.038941376 -0.028264157 -0.008365434
0.006590371 -0.040677436 -0.031616453 -0.02198821 -0.0151510285 0.0013113583 -0.01751298 -0.02820682
0.0130766 0.035475876 -0.056182086 -0.023745358 0.024418639 0.040504534 -0.0023687663 -0.016355691
-0.01688126 0.041985113 -0.02609863 0.0012878617 -0.005445272 -0.03611753 0.035546813 -0.036100205
-0.029343752 0.058246035 -0.042494696 -0.022108585 -0.012651332 -0.0056409943 0.030917024 -0.034237627
-0.043370396 -0.043432258 -0.027763037 0.0022553687 -0.021303898 -0.012185112 -0.036415588 0.019966405
-0.0106372805 0.0014047215 -0.026575442 -0.008303743 0.028804746 0.025082514 -0.02852562 -0.028653855
-0.023084024 0.025790827 0.057414994 -0.03738583 -0.03893739 0.02767984 -0.019550104 -0.0020680893
-0.049479987 0.015357749 -0.009812739 -0.014338583 -0.04245921 0.072293475 -0.02020681 -0.025679262
-0.0026699624 -0.055560328 -0.048505396 -0.026934095 0.008126283 -0.029368287 0.035553414 0.026678132
0.0107048405 0.06201891 -0.0076244026 -0.013795174 0.06186203 0.03186545 0.0016044473 0.018797582
00000000: 0e76 82bc ec7d 7bbd 35ad 2abc f209 013d
00000010: f24f fcbc 058c 653b fdf8 873b bcb2 b1bd
00000020: e4c5 32bd 5832 4c3b 273f 3c3c 4cfa 003c
00000030: 0b79 f73c 97b1 333d ad2d 0cbc f9a5 b1bc
00000040: 9dca dbbc e3a5 b63b d83f a4ba 0324 063d
00000050: e642 a13c c6bf 02bc b420 74bc a446 643d
00000060: c4ea 15bc 2db9 78bb 1164 acbc c296 0abd
00000070: 8ab7 0abd b615 393c 7564 163d 16bc 5cbd
00000080: a118 a23c ba38 92bb 197a 87bd 1f48 fcbc
00000090: aaa9 423d 5da0 8c3c 5756 f93c ca11 473c
000000a0: d9e9 31bc bf05 a53b d2ba 8fbc 3580 84bd
000000b0: 856c 88bd d6e6 33bc 65c1 6e3d e090 593c
000000c0: 4bb4 34bd b8bb 6abd f001 91bc f855 dabb
000000d0: fc87 503d 7f17 73bd 4e0a 38bd c4f9 023d
000000e0: ee57 2bbd 5cb4 273d d02c d93c b7d5 f2bb
000000f0: b90f 833c 9809 ccba 841e 323d 6b50 3cbd
00000100: e0d9 9fbc fb14 fabc dbae 14bc 9370 663c
00000110: 9d83 4d3b 3476 963c 2640 20bd 8282 82ba
00000120: 958c c63c 112f cebc 8dd3 d1bc b052 17bc
00000130: 9c13 053c 0d64 0abb 13e8 cdbb 294d 04bd
00000140: 7437 c0bc b7cc febc 029b c03c 1b35 6dbd
00000150: b1d4 a1bc 1caf 2c3d eeab 903c 6d12 56bb
00000160: 94bd 37bb ba50 16bb eb78 92bc c758 6d3c
00000170: f69b 253c 1172 683c 0cc1 ac3b 3897 bdbd
00000180: 2ab4 a43a 660f d5bc 7478 1c3d 3e00 eabc
00000190: 66a7 813d 6bd0 413c 06ab 01bd e085 403d
000001a0: edde 4cbd 3407 23bd 4923 dd3b 625e edbc
000001b0: 5394 ea3c c838 b63c 9738 d1bc 6059 5dbc
000001c0: 3c95 5a3b 1dd6 d63b 2385 833d 2a71 6c3d
000001d0: 61f1 063c d2f1 a5bc 79ca 413d 4ec7 a03c
000001e0: d882 1dbd f8fd 14bd e2da ffbb 3b5a 0abd
000001f0: b8a7 f5bc e0f8 cfbc 99de 05bb 743b 133d
00000200: c897 29bd c6d4 76bc cebd b73c 7262 b0bb
00000210: 1ae1 d63c c6cd 29bd adf9 52bb 1c9d c43c
00000220: ba60 4dbc 141c 83bc 3e03 e73c ee33 c9bc
00000230: 69ef c43c dcdd 8ebb 768a 3c3d 52ac 8c3b
00000240: 9ec4 97bc cecc adbd f714 dabd 8102 fabc
00000250: a186 c1bd df27 a6bd 49d0 59bc fd23 3fbd
00000260: 0503 52bc 7896 9b3d 53a5 dd3c 49ec f43b
00000270: cea9 edbb 875f 1a3d c7f6 d4bb 94ca 27bc
00000280: 7d67 eb3c 5b79 9bbc 72a6 4dbc c9db 37bd
00000290: e595 9fbc 3e40 e03c aeb0 083d e8c3 793b
000002a0: 83df 04bc 7fa1 7abd f662 59bd 72b6 873d
000002b0: 36a1 1a3c fe80 1fbd 3c8a e7bc 2c0f 09bc
000002c0: 0af4 d73b 629d 26bd 4180 01bd 9e20 b4bc
000002d0: 053c 78bc e2e1 ab3a 6277 8fbc fd11 e7bc
000002e0: 3c3f 563c 274f 113d 301f 66bd a085 c2bc
000002f0: 9909 c83c 15e8 253d 4e3d 1bbb 5ffc 85bc
00000300: 914a 8abc 95f8 2b3d cbcc d5bc 78cd a83a
00000310: 416e b2bb faef 13bd 8999 113d cfdd 13bd
00000320: 4f62 f0bc 6593 6e3d eb0e 2ebd 101d b5bc
00000330: 8847 4fbc 17d8 b8bb b345 fd3c c13c 0cbd
00000340: 28a5 31bd 06e6 31bd 4f6f e3bc cfce 133b
00000350: 8385 aebc 10a4 47bc 8328 15bd 9690 a33c
00000360: fd47 2ebc a21e b83a beb4 d9bc 6c0c 08bc
00000370: eef7 eb3c d879 cd3c 90ae e9bc 7dbb eabc
00000380: b51a bdbc 4947 d33c fc2b 6b3d e221 19bd
00000390: d07c 1fbd d5c0 e23c 8a27 a0bc c888 07bb
000003a0: 87ab 4abd 119f 7b3c 9cc5 20bc 60ec 6abc
000003b0: b5e9 2dbd 9a0e 943d c188 a5bc 515d d2bc
000003c0: 89fa 2ebb 3a93 63bd 98ad 46bd e4a4 dcbc
000003d0: 1a24 053c c395 f0bc 75a0 113d 198c da3c
000003e0: 5b63 2f3c 8a07 7e3d 20d6 f9bb 2705 62bc
000003f0: 0a63 7d3d 5985 023d 514c d23a 63fd 993c

onnx::MatMul_156 f4 [128, 128]
0.013291429 -0.055677135 -0.024206154 0.006162878 0.0071615544 -0.03641385 -0.015303095 -0.04928887
-0.007836793 0.027206285 -0.011103902 0.022054791 0.036521528 0.02357795 -0.022849515 0.0069725774
-0.06295279 0.036973305 -0.063569605 0.02195445 0.014661171 0.014363709 -0.022617122 -0.0041091214
0.018863533 0.049496453 -0.013176531 -0.0027135424 -0.03678521 -0.056675952 0.061153457 -0.01625814
0.040142257 -0.0029863473 0.01674463 -0.01669287 0.01854568 -0.08727339 0.018322209 0.026380558
0.009173528 0.049780633 -0.013225491 0.0032252131 0.04771067 -0.0016740229 -0.03026421 -0.04726655
-0.10477426 -0.008625717 0.005730953 -0.021412566 0.0020762368 -0.018330155 0.010887741 -0.0023018124
0.011645571 -0.053955946 -0.007045604 -0.03674879 0.0024653831 -0.010741605 -0.039639298 0.010062446
0.0035089958 -0.07238891 -0.0032347722 0.043560587 0.054415487 0.0067213224 0.0017464488 -0.0042480184
0.032852832 0.00928715 -0.024164854 0.02109355 -0.012311637 -0.07115494 0.006703229 -0.003340511
0.013634796 -0.013277765 -0.050056137 0.0047958274 -0.019344369 -0.029592387 -0.0462923 0.02009668
0.011994456 -0.021839213 -0.001326103 -0.021753935 -0.06128661 -0.0068307435 -0.002220338 0.052497257
-0.009627179 -0.01818498 0.007101309 -0.07093552 -0.07039323 -0.018970212 0.011580775 0.0026593513
-0.0057455534 -0.053123284 0.022867376 0.007801523 0.00048002184 0.027749354 0.0034743838 -0.0064186
0.0007742002 -0.03190687 0.03346892 -0.0006843323 0.022212114 0.0004743943 0.0018617167 -0.029946744
-0.012982377 -0.027849445 -0.014809406 0.009242918 0.04362301 -0.036358207 -0.015612179 -0.04413264
0.041427754 -0.008428556 0.012523017 -0.0070308265 -0.00089457794 -0.025942223 -0.044850823 -0.002755091
0.014326388 -0.026844416 0.047924515 -0.0069852252 -0.002074133 0.042900376 0.022789218 0.054364208
-0.0069040465 -0.0069608013 -0.012493103 0.013306413 -0.0067468635 -0.044880193 -0.0360973 -0.032251958
0.012555984 0.019427199 -0.05123645 -0.049336493 0.024228116 0.018729081 -0.048642546 -0.0041637397
-0.07053796 -0.006306983 -0.005887207 -0.0023768493 0.02467929 -0.03643894 -0.029392548 0.023433657
0.03194454 0.015152655 -0.03361668 -0.0015505364 0.057370182 0.029935561 -0.03206522 -0.05047842
0.009911125 -0.057485566 0.0056980406 -0.028292913 -0.019308846 -0.011919921 0.008252749 -0.04920323
0.010548412 -0.04586938 -0.023150152 0.033994447 -0.0017478695 0.011692775 -0.048695877 -0.012452003
-0.038965367 0.04862524 0.0012124279 -0.018342586 -0.018268496 0.056392923 0.0067338166 -0.016515499
0.037353557 -0.039105315 0.010440168 -0.005646489 0.004975465 0.039436504 -0.029775985 0.044568088
0.016119396 0.006819556 0.050275642 0.044710286 0.04692494 0.02349353 -0.026477661 0.05175565
0.033289146 0.035929207 0.03784208 -0.035671484 -0.008438324 0.0004896604 -0.017252881 -0.0144273415
0.008485948 -0.028941808 -0.026039662 -0.021962186 0.018097803 0.010827243 -0.027035985 -0.026276149
-0.0017549029 0.013373031 -0.017648127 -0.00471498 -0.0063058943 0.0066829445 0.0937072 -0.00021791706
-0.015349965 0.03072082 0.037012357 0.07739793 0.045166455 0.05864702 -0.0026067337 -0.005434278
-0.04453529 0.0076019145 0.0047623976 -0.028123459 0.046484273 -0.034918338 -0.02250911 -0.020125857
00000000: 4bc4 593c b50d 64bd fc4b c6bc f8f1 c93b
00000010: 79ab ea3b b026 15bd d5b9 7abc 20e3 49bd
00000020: e465 00bc b7df de3c 24ed 35bc 40ac b43c
00000030: 9997 153d 8c26 c13c e82e bbbc 387a e43b
00000040: 64ed 80bd 5271 173d c830 82bd d2d9 b33c
00000050: 6835 703c c355 6b3c 8b47 b9bc cfa5 86bb
00000060: b287 9a3c cbbc 4a3d 60e2 57bc b0d5 31bb
00000070: 17ac 16bd 0b25 68bd 0c7c 7a3d ca2f 85bc
00000080: 356c 243d 98b6 43bb 092c 893c 7cbf 88bc
00000090: 1ced 973c 64bc b2bd 7518 963c 0a1c d83c
000000a0: 914c 163c c7e6 4b3d bbaf 58bc 195e 533b
000000b0: 436c 433d e36a dbba a6ec f7bc 929a 41bd
000000c0: e393 d6bd e152 0dbc b8ca bb3b 6869 afbc
000000d0: 7911 083b 1f29 96bc 7f62 323c 01da 16bb
000000e0: 11cd 3e3c e900 5dbd cfde e6bb e685 16bd
000000f0: 4492 213b 8ffd 2fbc d15c 22bd f5dc 243c
00000100: 2ef7 653b a340 94bd 79fe 53bb 966c 323d
00000110: c6e2 5e3d 8a3e dc3b 19e9 e43a f632 8bbb
00000120: b190 063d 2129 183c 5ff5 c5bc 61cc ac3c
00000130: c0b6 49bc aeb9 91bd c3a6 db3b 79ec 5abb
00000140: 7b64 5f3c fc8a 59bc aa07 4dbd 5126 9d3b
00000150: 1578 9ebc bc6b f2bc ff9c 3dbd cba1 a43c
00000160: 6584 443c 26e8 b2bc a2d0 adba 4f35 b2bc
00000170: ab07 7bbd 6ed4 dfbb 1783 11bb 5d07 573d
00000180: 51bb 1dbc abf8 94bc 19b2 e83b a446 91bd
00000190: 532a 90bd 6b67 9bbc 4abd 3d3c 8348 2e3b
000001a0: 3245 bcbb cd97 59bd 5d54 bb3c eba3 ff3b
000001b0: 71ab fb39 9d52 e33c 7db2 633b 1f53 d2bb
000001c0: b2f3 4a3a c7b0 02bd b516 093d c364 33ba
000001d0: 2ef6 b53c 20b8 f839 d904 f43a e052 f5bc
000001e0: 09b4 54bc 8524 e4bc 27a3 72bc 9c6f 173c
000001f0: 0bae 323d 58ec 14bd 3aca 7fbc 6dc4 34bd
00000200: 26b0 293d ed17 0abc 572d 4d3c d962 e6bb
00000210: 1c82 6aba c984 d4bc 7fb5 37bd c28e 34bb
00000220: 3ab9 6a3c d2e8 dbbc 7f4c 443d 51e4 e4bb
00000230: 2dee 07bb 4eb8 2f3d 74b0 ba3c 01ad 5e3d
00000240: 573b e2bb 6f17 e4bb dfaf 4cbc 2403 5a3c
00000250: cb14 ddbb 4bd4 37bd c3da 13bd a11a 04bd
00000260: 9db7 4d3c ca25 9f3c 50dd 51bd 1015 4abd
00000270: 0b7a c63c bb6d 993c 683d 47bd fb6f 88bb
00000280: 3576 90bd cfaa cebb 79e9 c0bb eac4 1bbb
00000290: 392c ca3c ff40 15bd a4c8 f0bc f1f7 bf3c
000002a0: 47d8 023d d742 783c a5b1 09bd 5e3b cbba
000002b0: fffc 6a3d 6c3b f53c d256 03bd 76c2 4ebd
000002c0: 4562 223c fc75 6bbd a1b6 ba3b 8ac6 e7bc
000002d0: 962d 9ebc c64b 43bc 8a36 073c 5389 49bd
000002e0: 3fd3 2c3c 88e1 3bbd 63a5 bdbc c33d 0b3d
000002f0: c518 e5ba 0e93 3f3c 5475 47bd 7c03 4cbc
00000300: 269a 1fbd 422b 473d 54ea 9e3a 3143 96bc
00000310: d0a7 95bc 44fc 663d 59a7 dc3b 834b 87bc
00000320: 0b00 193d e52c 20bd 3d0d 2b3c 2f06 b9bb
00000330: 3a09 a33b 2c88 213d c4ec f3bc 078d 363d
00000340: d30c 843c 9576 df3b d5ed 4d3d 2222 373d
00000350: 5e34 403d 8175 c03c aee7 d8bc bcfd 533d
00000360: 335a 083d 812a 133d 4c00 1b3d 431c 12bd
00000370: e540 0abc 8e5c 003a ea55 8dbc a860 6cbc
00000380: a508 0b3c 5f17 edbc 2151 d5bc 0bea b3bc
00000390: d841 943c c064 313c 927a ddbc 1441 d7bc
000003a0: c504 e6ba 8f1a 5b3c ce92 90bc 1e80 9abb
000003b0: ada1 cebb 9afc da3b 8fe9 bf3d aa80 64b9
000003c0: 6b7e 7bbc 3baa fb3c 459a 173d ce82 9e3d
000003d0: 7600 393d dc37 703d bcd5 2abb 0712 b2bb
000003e0: a36a 36bd 7b19 f93b e30d 9c3b 2b63 e6bc
000003f0: 4b66 3e3d 8806 0fbd 0665 b8bc fbde a4bc
